models/conv3d/saved_models/lr_0.0005/epoch_2430.pt (torch, 189922 bytes, 102 tensors)

model1.0.weight f4 [16, 8, 3, 3, 3]
-0.042828765 0.03374063 -0.05122362 0.048058167 0.018557096 0.039125845 0.026887586 -0.009239173
-0.07443969 -0.056070775 -0.009024831 -0.054146674 -0.004698986 0.0312928 0.047668226 -0.04022111
0.031889282 0.014117022 -0.048144728 -0.027700188 0.009292612 0.049527775 0.04055505 0.055367857
-0.045410164 0.006528609 -0.024682146 0.030998735 0.08643986 0.061081186 -0.052701402 -0.077362426
0.019380063 0.08574312 -0.033772565 -0.0023031533 0.010551355 -0.061182324 -0.009712955 0.04670487
0.05892411 -0.0012224276 0.017964097 0.0013745646 -0.033303272 0.022674631 -0.002366996 -7.2488556e-06
0.005019094 0.10705416 -0.061891925 0.0795367 -0.030045835 -0.11217241 0.014321894 0.043526687
0.006135927 0.0147178415 -0.04635474 0.021756986 -0.020687478 0.018058276 0.021227248 0.064072095
-0.047781765 0.05138846 0.0059280144 -0.043681376 -0.037616663 -0.021873703 -0.038430974 -0.020592043
0.0127135 -0.005453166 0.051903956 -0.033149373 -0.07325497 -0.012739809 -0.0017799824 -0.029416854
-0.039157905 -0.01778717 -0.005306745 -0.03269243 0.12104912 0.04735177 0.002037635 -0.0166946
0.07608368 0.012272933 -0.046524864 -0.020888284 -0.07530619 0.051051047 -0.04479378 0.015709493
0.059681527 0.018918587 -0.013278909 0.032096405 -0.038339116 -0.023362758 0.04352544 0.02283636
0.037052147 -0.022280874 0.008160106 0.08183815 0.012689992 0.0139979 0.03602942 -0.02973657
-0.03580488 0.05743172 0.0056853592 -0.048772357 -0.06786225 0.068500996 -0.009895906 0.059962634
-0.04479184 -0.053013407 -0.018062582 0.09027734 -0.030666705 0.031927653 -0.0057653 -0.051327392
-0.019436946 0.0052740015 -0.02581249 0.058809765 -0.05158926 -0.068730265 -0.022191053 0.06576108
0.019941932 0.0045552147 -0.06175569 0.038483217 -0.012754602 -0.099519685 -0.024856176 0.015340609
0.015534546 -0.019674957 -0.062189244 -0.062974535 -0.01144114 0.0038162784 0.0011643284 0.016071822
0.0365394 -0.016668854 -0.022141783 -0.027634641 0.016276674 -0.0044594826 -0.017008506 0.022154827
0.047996655 0.03378277 0.04277247 0.011696909 0.0011783344 0.05254376 -0.016966648 0.027641783
0.0066772173 0.027935546 0.011396497 0.017637013 0.026027042 -0.0646763 0.07179069 -0.017101042
0.045200802 0.056051854 -0.04887076 0.057003807 -0.015589017 0.05704906 0.022799 -0.08472927
0.009152831 -0.0011516886 -0.05606171 0.018256336 -0.015215479 0.013398512 0.025928611 -0.019764747
0.063742206 -0.068818256 -0.025713086 0.024285272 -0.003771357 0.111818835 0.06693228 0.017147947
0.058755953 0.0018145959 -0.0038786759 -0.06051527 0.05598608 0.002895471 0.046470538 0.049908884
-0.020052476 0.04409085 0.039700422 -0.06142285 0.021515077 -0.0039425003 -0.0022421917 0.032317422
-0.091569275 0.038275905 0.029351534 0.029763324 0.086852215 -0.07241963 -0.037388075 -0.0039648497
0.04341103 0.026673589 -0.024944404 0.018459784 -0.023334526 0.009132019 -0.0158303 0.06354278
0.02265557 -0.04538721 -0.022287307 -0.06593308 -0.054398946 -0.052143343 0.015333577 0.0493597
0.063312486 0.009588035 -0.011806596 0.0987227 0.038966157 0.0057840818 -0.05517862 -0.0751673
-0.03052572 -0.03198924 -0.029848944 -0.03541992 0.019447522 -0.020636253 -0.041447856 -0.038999707
00000000: 376d 2fbd 9d33 0a3d dccf 51bd a4d8 443d
00000010: 0d05 983c 6c42 203d 5b43 dc3c e65f 17bc
00000020: d673 98bd 78aa 65bd e2dc 13bc e7c8 5dbd
00000030: f4f9 99bb e12c 003d c23f 433d e4be 24bd
00000040: 569e 023d 154b 673c 6833 45bd 81eb e2bc
00000050: 0a40 183c a3dd 4a3d 0d1d 263d 68c9 623d
00000060: 0200 3abd f1ed d53b 3632 cabc 0ff1 fd3c
00000070: 6207 b13d 4430 7a3d 6ddd 57bd 3170 9ebd
00000080: f0c2 9e3c 179a af3d 1a55 0abd 80f0 16bb
00000090: 97df 2c3c 519a 7abd 1623 1fbc 9b4d 3f3d
000000a0: 685a 713d dd39 a0ba 7129 933c bc2a b43a
000000b0: 0369 08bd 26c0 b93c 9a1f 1bbb 323b f3b6
000000c0: 3677 a43b 363f db3d 6382 7dbd 23e4 a23d
000000d0: af22 f6bc a6ba e5bd 61a6 6a3c 0a49 323d
000000e0: e30f c93b 1a23 713c 78de 3dbd b53b b23c
000000f0: c978 a9bc f3ee 933c c4e4 ad3c 3b38 833d
00000100: d0b6 43bd b57c 523d ca3f c23b 3eeb 32bd
00000110: ee13 1abd 7b30 b3bc cc69 1dbd a5b0 a8bc
00000120: 494c 503c 79b0 b2bb 3e99 543d a3c7 07bd
00000130: b406 96bd a2ba 50bc 4c4e e9ba 9dfb f0bc
00000140: 0a64 20bd 66b6 91bc 34e4 adbb 7fe8 05bd
00000150: 9ae8 f73d eef3 413d d889 053b 1dc3 88bc
00000160: c3d1 9b3d 6914 493c db90 3ebd e81d abbc
00000170: 223a 9abd e71a 513d af79 37bd 32b1 803c
00000180: 9e74 743d 27fb 9a3c c88f 59bc 8577 033d
00000190: 7a09 1dbd 4163 bfbc bb47 323d 5113 bb3c
000001a0: fec3 173d 6186 b6bc f7b1 053c c39a a73d
000001b0: afe9 4f3c 7357 653c 9693 133d 1b9a f3bc
000001c0: 23a8 12bd 863d 6b3d 404c ba3b 86c5 47bd
000001d0: 5dfb 8abd 404a 8c3d 7022 22bc 619b 753d
000001e0: a677 37bd 9624 59bd fbf7 93bc 53e3 b83d
000001f0: be38 fbbc 92c6 023d d7ea bcbb ac3c 52bd
00000200: 3b3a 9fbc 88d1 ac3b b774 d3bc 82e2 703d
00000210: 434f 53bd 74c2 8cbd 03ca b5bc bfad 863d
00000220: 435d a33c e943 953b 89f3 7cbd 94a0 1d3d
00000230: aef8 50bc fad0 cbbd 2e9f cbbc 2d57 7b3c
00000240: 9c84 7e3c 602d a1bc 26ba 7ebd cbf8 80bd
00000250: 9f73 3bbc 871a 7a3b 619c 983a 0ea9 833c
00000260: 57aa 153d 1f8d 88bc af62 b5bc 0b62 e2bc
00000270: a956 853c da20 92bb 6c55 8bbc 0a7e b53c
00000280: 2498 443d cd5f 0a3d 2f32 2f3d 64a4 3f3c
00000290: 5772 9a3a 2038 573d a4fd 8abc 0571 e23c
000002a0: 8fcc da3b 16d9 e43c 5fb8 3a3c 7f7b 903c
000002b0: aa36 d53c 0275 84bd ff06 933d 7c17 8cbc
000002c0: 7a24 393d a196 653d b52c 48bd d37c 693d
000002d0: 1469 7fbc 46ac 693d f8c4 ba3c 8a86 adbd
000002e0: c1f5 153c 42f4 96ba f7a0 65bd 508e 953c
000002f0: 584a 79bc 6f85 5b3c 3d68 d43c aee9 a1bc
00000300: 468b 823d 96f0 8cbd 40a4 d2bc e8f1 c63c
00000310: df28 77bb 4601 e53d cb13 893d da79 8c3c
00000320: 15aa 703d bcd7 ed3a 6231 7ebb dcde 77bd
00000330: a951 653d f1c1 3d3b e457 3e3d 426d 4c3d
00000340: 1745 a4bc 9b98 343d e99c 223d 8796 7bbd
00000350: 6340 b03c 1730 81bb bcf1 12bb 465f 043d
00000360: ac88 bbbd 32c7 1c3d a172 f03c 37d2 f33c
00000370: 93df b13d be50 94bd 3d24 19bd 92eb 81bb
00000380: c4cf 313d 9282 da3c 3558 ccbc f938 973c
00000390: 0c28 bfbc 779e 153c 8cae 81bc b822 823d
000003a0: 2d98 b93c f0e7 39bd df93 b6bc ec07 87bd
000003b0: 6ed1 5ebd 4294 55bd af39 7b3c 662d 4a3d
000003c0: faa9 813d 2217 1d3c 7470 41bc 202f ca3d
000003d0: fa9a 1f3d 6588 bd3b fa02 62bd 50f1 99bd
000003e0: 1311 fabc 2607 03bd c685 f4bc 7a14 11bd
000003f0: 6950 9f3c 5c0d a9bc 3ac5 29bd 28be 1fbd

model1.0.bias f4 [16]
-0.28405508 -0.28205797 -0.30880296 -0.291038 -0.19065148 -0.28837317 -0.12973532 -0.21725653
-0.23058087 -0.3267769 -0.16691904 -0.33184862 -0.19381346 -0.2228297 -0.19031815 -0.27847463
00000000: ab6f 91be e769 90be 6c1b 9ebe ef02 95be
00000010: 243a 43be a6a5 93be 56d9 04be 7f78 5ebe
00000020: 641d 6cbe 4d4f a7be d3ec 2abe 10e8 a9be
00000030: 0977 46be 782d 64be c3e2 42be 3a94 8ebe

model1.2.conv.weight f4 [16, 16, 3, 3, 3]
0.019921968 0.074974544 -0.044074405 0.005156937 0.20745163 0.0038497755 0.005033725 0.014875369
-0.054001637 0.006907911 0.014655711 -0.024462994 0.0015892902 -1.282676 0.031045783 -0.002375801
0.023813404 -0.00997276 -0.006344709 0.04119645 0.0020119182 -0.023374874 0.26898602 0.0049035824
-0.0034082048 0.024892133 -0.0060808184 0.001431407 0.02769821 0.012432405 -0.09354311 0.052226927
-0.100036405 0.0019147218 0.08240145 -0.1055622 -0.0091286795 0.008439807 -0.008446109 -0.10691219
0.030275956 -0.173776 -0.0052165547 0.06861554 -0.100789204 -0.012162777 0.030490166 -0.036712598
-0.07868015 0.040483046 -0.242694 -0.024436537 0.090691015 -0.105589285 -0.06846548 0.0127297295
-0.21816266 0.03399316 -0.119363815 -0.00047180822 -0.027407937 -0.036290713 0.009884402 -0.044351514
0.0104400385 -0.15238504 -0.0130251795 -0.11692043 -0.0048511755 0.008863663 -0.0098397145 0.0155531475
-0.047458924 0.03151949 -0.15028584 0.013817253 -0.12175781 -0.063492745 0.021017777 -0.04088131
0.0036694051 0.012931459 0.00046182124 0.0033652112 0.012865263 0.027410641 0.03844387 0.029473417
0.078578636 0.11672786 0.006636925 0.00015898456 0.0026311744 0.0060716723 0.0079521565 -0.0027130267
-0.012329045 0.035136737 0.0307482 0.051686116 0.021984477 0.03531475 0.020066649 0.018915769
0.035688233 -0.013134796 0.041975666 0.0778134 -0.01101386 -0.009989052 -0.06633924 0.05648629
-0.0030074911 -0.048304237 0.047056764 -0.059994508 -0.0136314705 0.0034996383 -0.014590222 -0.0150018735
0.074059434 0.02588608 -0.014020319 0.048587743 -0.04284128 0.021119699 0.034685373 0.015302612
0.006576733 0.06884232 0.022119086 -0.033187672 0.026096852 -0.046884462 0.011317601 -0.05069289
-0.018582996 -0.010131108 -0.12109365 -0.15864055 0.031062344 -0.17241621 -0.127682 -0.13124657
-0.039889544 -0.010235133 0.010084423 -0.092305236 -0.15983638 0.049756706 -0.21500096 -0.08674429
-0.12512255 -0.018661909 0.0034835837 -0.0036583156 -0.10398319 -0.21851858 0.035552807 -0.20532225
-0.072375655 -0.16642518 -0.117789574 -0.04013908 -0.0135343075 -0.033409543 0.025317214 0.03403228
0.023981221 0.041863177 0.012449033 -0.11603387 -0.031313732 0.014179622 -0.036544584 0.030352263
-0.019625874 -0.013354807 0.017221559 0.008069531 -0.12684117 -0.027343456 0.01579076 -0.03676301
0.040002845 0.00947794 -0.031875934 0.030111425 0.037067283 -0.027987676 -4.4562406e-05 0.053385127
0.03429595 0.00058578403 0.06775108 -0.03208832 0.026268806 0.034195714 -0.0063930103 -0.019966919
0.039849997 0.0069938754 -0.02309372 -0.007780091 -0.055428132 -0.013864663 -0.0030408076 -0.021039454
-0.039997257 0.03356223 0.01479317 -0.012172629 0.05769777 -0.07270297 0.0077033173 0.03835835
-0.042002056 0.023778468 0.012139794 -0.031505287 0.0075817597 -0.06282834 -0.10888723 0.03498709
-0.11040526 -0.03339695 0.025380496 -0.0013474659 -0.031203777 0.012120498 -0.07567939 -0.076354645
0.023274079 -0.09363467 -0.05656527 0.008524274 0.004011502 -0.06154716 0.004251485 -0.09911357
-0.06835827 0.054146312 -0.07856768 0.089201346 -0.092434295 -0.22272334 -0.062142793 -0.015597045
0.04410337 -0.021944154 0.006347527 0.006472098 0.08111249 -0.04204688 -0.17963985 -0.054938417
00000000: 6533 a33c 418c 993d 5d87 34bd 86fb a83b
00000010: 336e 543e 844c 7c3b f2f1 a43b d2b7 733c
00000020: d230 5dbd c25b e23b 821e 703c 9e66 c8bc
00000030: bb4f d03a ba2e a4bf ba53 fe3c 54b3 1bbb
00000040: 5414 c33c ca64 23bc 47e7 cfbb 9cbd 283d
00000050: 63da 033b aa7c bfbc 89b8 893e 3bae a03b
00000060: 305c 5fbb 96ea cb3c 9a41 c7bb 0d9e bb3a
00000070: 5be7 e23c 49b1 4b3c 8893 bfbd e7eb 553d
00000080: e3df ccbd 67f7 fa3a 17c2 a83d ff30 d8bd
00000090: 7590 15bc 1e47 0a3c 8c61 0abc c7f4 dabd
000000a0: 4805 f83c 56f2 31be a2ef aabb 4e86 8c3d
000000b0: 926a cebd 6246 47bc 83c6 f93c f35f 16bd
000000c0: 0f23 a1bd 8dd1 253d c784 78be 222f c8bc
000000d0: 36bc b93d 323f d8bd a137 8cbd 5b90 503c
000000e0: 0866 5fbe 693c 0b3d 0475 f4bd 075d f7b9
000000f0: 9c86 e0bc 92a5 14bd 30f2 213c efa9 35bd
00000100: b20c 2b3c d30a 1cbe 9067 55bc fa73 efbd
00000110: 9cf6 9ebb e638 113c c136 21bc a1d2 7e3c
00000120: 4a64 42bd 951a 013d 88e4 19be c261 623c
00000130: 295c f9bd 7c08 82bd 792d ac3c 2973 27bd
00000140: 677a 703b 78de 533c 9920 f239 e08a 5c3b
00000150: d3c8 523c 488c e03c 5277 1d3d 3c72 f13c
00000160: d6ed a03d 040f ef3d 907a d93b 18b5 2639
00000170: c86f 2c3b e1f4 c63b c349 023c 09cd 31bb
00000180: c3ff 49bc 8aeb 0f3d a6e3 fb3c d2b4 533d
00000190: ca18 b43c 33a6 103d d062 a43c 3ef5 9a3c
000001a0: d32d 123d 5433 57bc adee 2b3d a25c 9f3d
000001b0: 7a73 34bc 1fa9 23bc dedc 87bd 2b5e 673d
000001c0: 5419 45bb aada 45bd 98be 403d cdbc 75bd
000001d0: 8856 5fbc 305a 653b d40b 6fbc 6bca 75bc
000001e0: 79ac 973d 0b0f d43c 7bb5 65bc f103 473d
000001f0: 577a 2fbd 3803 ad3c 4012 0e3d cfb7 7a3c
00000200: a381 d73b 34fd 8c3d 1633 b53c ccef 07bd
00000210: 11c9 d53c ec09 40bd 766d 393c 59a3 4fbd
00000220: 5e3b 98bc f2fc 25bc f3ff f7bd ab72 22be
00000230: 7576 fe3c e08d 30be 12bf 02be 8065 06be
00000240: 3863 23bd 42b1 27bc 2339 253c 870a bdbd
00000250: 26ac 23be b0cd 4b3d 3629 5cbe fea6 b1bd
00000260: 2020 00be dce0 98bc d64c 643b 5ac0 6fbb
00000270: 24f5 d4bd 56c3 5fbe d29f 113d ff3f 52be
00000280: b039 94bd 5d6b 2abe a93b f1bd e068 24bd
00000290: 00bf 5dbc 72d8 08bd 0c66 cf3c 6f65 0b3d
000002a0: 4474 c43c b978 2b3d 07f7 4b3c 2aa3 edbd
000002b0: d442 00bd a551 683c c6af 15bd 4fa5 f83c
000002c0: 71c6 a0bc 1fce 5abc 3a14 8d3c 1136 043c
000002d0: a7e2 01be 62ff dfbc a05b 813c cf94 16bd
000002e0: 06da 233d 5d49 1b3c 5790 02bd 3cac f63c
000002f0: ddd3 173d 6946 e5bc 85e8 3ab8 5daa 5a3d
00000300: e979 0c3d 4d8f 193a 14c1 8a3d 0b6f 03bd
00000310: ae31 d73c ce10 0c3d 757c d1bb aa91 a3bc
00000320: c039 233d e12c e53b 0b2f bdbc 22f0 febb
00000330: 9c08 63bd 9d28 63bc 4948 47bb ef5a acbc
00000340: 2ad4 23bd 8d78 093d 0d5f 723c b56f 47bc
00000350: 7f54 6c3d 4be5 94bd 1c6c fc3b a51d 1d3d
00000360: 590a 2cbd 10cb c23c fde5 463c b00b 01bd
00000370: 6970 f83b 25ac 80bd 4500 dfbd 9f4e 0f3d
00000380: 271c e2bd 3ecb 08bd c2ea cf3c 749d b0ba
00000390: 109f ffbc 0e95 463c ccfd 9abd d35f 9cbd
000003a0: 48a9 be3c 89c3 bfbd fcb0 67bd 66a9 0b3c
000003b0: eb72 833b e018 7cbd 0b50 8b3b 0efc cabd
000003c0: 6cff 8bbd 86c8 5d3d 18e8 a0bd 32af b63d
000003d0: 314e bdbd 9611 64be 7189 7ebd c08a 7fbc
000003e0: bca5 343d 3ac4 b3bc eafe cf3b e513 d43b
000003f0: 4e1e a63d 5939 2cbd 82f3 37be 1b07 61bd

model1.2.conv.bias f4 [16]
0.04667351 0.034599315 0.007383678 0.029031234 0.047400407 0.031088842 -0.0105004925 0.050332382
-0.024957728 -0.028227497 -0.030968187 0.044468064 0.050185557 0.040095452 0.04866108 -0.03938453
00000000: b92c 3f3d 03b8 0d3d c8f2 f13b e9d2 ed3c
00000010: ee26 423d 07ae fe3c 420a 2cbc 5429 4e3d
00000020: 2674 ccbc 5a3d e7bc ffb0 fdbc 2524 363d
00000030: 5f8f 4d3d 213b 243d d750 473d ac51 21bd

model1.2.batch_norm.weight f4 [16]
0.53284955 0.5653679 0.5567824 0.5385002 0.5810647 0.5722759 0.5850793 0.55216604
0.59042466 0.50668865 0.62449026 0.5377874 0.6489375 0.629384 0.6300221 0.4650896
00000000: d468 083f f3bb 103f 4b89 0e3f 26db 093f
00000010: a8c0 143f ac80 123f c2c7 153f c15a 0d3f
00000020: 1226 173f 59b6 013f 98de 1f3f 6fac 093f
00000030: c520 263f 4f1f 213f 2149 213f 3920 ee3e

model1.2.batch_norm.bias f4 [16]
-0.22521667 -0.39173824 -0.4462487 -0.28080907 -0.271996 -0.27345312 -0.4697783 -0.45140618
-0.21011329 -0.47111604 -0.5690676 -0.45375746 -0.63625145 -0.39336985 -0.5011928 -0.2638929
00000000: 339f 66be ea91 c8be b67a e4be 35c6 8fbe
00000010: 0f43 8bbe 0c02 8cbe c886 f0be b61e e7be
00000020: f027 57be 1f36 f1be 6aae 11bf e652 e8be
00000030: 60e1 22bf c667 c9be 2c4e 00bf f81c 87be

model1.2.batch_norm.running_mean f4 [16]
-0.65608686 -0.7658648 -0.73785216 -0.6527143 -0.56872493 -0.5930141 -0.5355784 -0.7051655
-0.727307 -0.8529205 -0.7524931 -0.7048458 -0.74458486 -0.6631005 -0.757202 -0.4656209
00000000: 4ff5 27bf b70f 44bf e1e3 3cbf 4918 27bf
00000010: f597 11bf c6cf 17bf ab1b 09bf ba85 34bf
00000020: cb30 3abf ff58 5abf 63a3 40bf c670 34bf
00000030: 1d9d 3ebf f4c0 29bf fed7 41bf dd65 eebe

model1.2.batch_norm.running_var f4 [16]
0.9062713 0.70160604 0.8015902 0.76933944 0.74041367 1.1204453 0.62426764 0.6423465
1.2173892 0.78237045 0.623846 0.6324694 0.7556272 0.73848325 0.8647773 0.48307034
00000000: 6501 683f 749c 333f 0435 4d3f 6ef3 443f
00000010: c08b 3d3f c06a 8f3f 01d0 1f3f d270 243f
00000020: 69d3 9b3f 6e49 483f 5fb4 1f3f 84e9 213f
00000030: c970 413f 3d0d 3d3f 0c62 5d3f ff54 f73e

model1.4.conv.weight f4 [16, 16, 3, 3, 3]
0.019921968 0.074974544 -0.044074405 0.005156937 0.20745163 0.0038497755 0.005033725 0.014875369
-0.054001637 0.006907911 0.014655711 -0.024462994 0.0015892902 -1.282676 0.031045783 -0.002375801
0.023813404 -0.00997276 -0.006344709 0.04119645 0.0020119182 -0.023374874 0.26898602 0.0049035824
-0.0034082048 0.024892133 -0.0060808184 0.001431407 0.02769821 0.012432405 -0.09354311 0.052226927
-0.100036405 0.0019147218 0.08240145 -0.1055622 -0.0091286795 0.008439807 -0.008446109 -0.10691219
0.030275956 -0.173776 -0.0052165547 0.06861554 -0.100789204 -0.012162777 0.030490166 -0.036712598
-0.07868015 0.040483046 -0.242694 -0.024436537 0.090691015 -0.105589285 -0.06846548 0.0127297295
-0.21816266 0.03399316 -0.119363815 -0.00047180822 -0.027407937 -0.036290713 0.009884402 -0.044351514
0.0104400385 -0.15238504 -0.0130251795 -0.11692043 -0.0048511755 0.008863663 -0.0098397145 0.0155531475
-0.047458924 0.03151949 -0.15028584 0.013817253 -0.12175781 -0.063492745 0.021017777 -0.04088131
0.0036694051 0.012931459 0.00046182124 0.0033652112 0.012865263 0.027410641 0.03844387 0.029473417
0.078578636 0.11672786 0.006636925 0.00015898456 0.0026311744 0.0060716723 0.0079521565 -0.0027130267
-0.012329045 0.035136737 0.0307482 0.051686116 0.021984477 0.03531475 0.020066649 0.018915769
0.035688233 -0.013134796 0.041975666 0.0778134 -0.01101386 -0.009989052 -0.06633924 0.05648629
-0.0030074911 -0.048304237 0.047056764 -0.059994508 -0.0136314705 0.0034996383 -0.014590222 -0.0150018735
0.074059434 0.02588608 -0.014020319 0.048587743 -0.04284128 0.021119699 0.034685373 0.015302612
0.006576733 0.06884232 0.022119086 -0.033187672 0.026096852 -0.046884462 0.011317601 -0.05069289
-0.018582996 -0.010131108 -0.12109365 -0.15864055 0.031062344 -0.17241621 -0.127682 -0.13124657
-0.039889544 -0.010235133 0.010084423 -0.092305236 -0.15983638 0.049756706 -0.21500096 -0.08674429
-0.12512255 -0.018661909 0.0034835837 -0.0036583156 -0.10398319 -0.21851858 0.035552807 -0.20532225
-0.072375655 -0.16642518 -0.117789574 -0.04013908 -0.0135343075 -0.033409543 0.025317214 0.03403228
0.023981221 0.041863177 0.012449033 -0.11603387 -0.031313732 0.014179622 -0.036544584 0.030352263
-0.019625874 -0.013354807 0.017221559 0.008069531 -0.12684117 -0.027343456 0.01579076 -0.03676301
0.040002845 0.00947794 -0.031875934 0.030111425 0.037067283 -0.027987676 -4.4562406e-05 0.053385127
0.03429595 0.00058578403 0.06775108 -0.03208832 0.026268806 0.034195714 -0.0063930103 -0.019966919
0.039849997 0.0069938754 -0.02309372 -0.007780091 -0.055428132 -0.013864663 -0.0030408076 -0.021039454
-0.039997257 0.03356223 0.01479317 -0.012172629 0.05769777 -0.07270297 0.0077033173 0.03835835
-0.042002056 0.023778468 0.012139794 -0.031505287 0.0075817597 -0.06282834 -0.10888723 0.03498709
-0.11040526 -0.03339695 0.025380496 -0.0013474659 -0.031203777 0.012120498 -0.07567939 -0.076354645
0.023274079 -0.09363467 -0.05656527 0.008524274 0.004011502 -0.06154716 0.004251485 -0.09911357
-0.06835827 0.054146312 -0.07856768 0.089201346 -0.092434295 -0.22272334 -0.062142793 -0.015597045
0.04410337 -0.021944154 0.006347527 0.006472098 0.08111249 -0.04204688 -0.17963985 -0.054938417
00000000: 6533 a33c 418c 993d 5d87 34bd 86fb a83b
00000010: 336e 543e 844c 7c3b f2f1 a43b d2b7 733c
00000020: d230 5dbd c25b e23b 821e 703c 9e66 c8bc
00000030: bb4f d03a ba2e a4bf ba53 fe3c 54b3 1bbb
00000040: 5414 c33c ca64 23bc 47e7 cfbb 9cbd 283d
00000050: 63da 033b aa7c bfbc 89b8 893e 3bae a03b
00000060: 305c 5fbb 96ea cb3c 9a41 c7bb 0d9e bb3a
00000070: 5be7 e23c 49b1 4b3c 8893 bfbd e7eb 553d
00000080: e3df ccbd 67f7 fa3a 17c2 a83d ff30 d8bd
00000090: 7590 15bc 1e47 0a3c 8c61 0abc c7f4 dabd
000000a0: 4805 f83c 56f2 31be a2ef aabb 4e86 8c3d
000000b0: 926a cebd 6246 47bc 83c6 f93c f35f 16bd
000000c0: 0f23 a1bd 8dd1 253d c784 78be 222f c8bc
000000d0: 36bc b93d 323f d8bd a137 8cbd 5b90 503c
000000e0: 0866 5fbe 693c 0b3d 0475 f4bd 075d f7b9
000000f0: 9c86 e0bc 92a5 14bd 30f2 213c efa9 35bd
00000100: b20c 2b3c d30a 1cbe 9067 55bc fa73 efbd
00000110: 9cf6 9ebb e638 113c c136 21bc a1d2 7e3c
00000120: 4a64 42bd 951a 013d 88e4 19be c261 623c
00000130: 295c f9bd 7c08 82bd 792d ac3c 2973 27bd
00000140: 677a 703b 78de 533c 9920 f239 e08a 5c3b
00000150: d3c8 523c 488c e03c 5277 1d3d 3c72 f13c
00000160: d6ed a03d 040f ef3d 907a d93b 18b5 2639
00000170: c86f 2c3b e1f4 c63b c349 023c 09cd 31bb
00000180: c3ff 49bc 8aeb 0f3d a6e3 fb3c d2b4 533d
00000190: ca18 b43c 33a6 103d d062 a43c 3ef5 9a3c
000001a0: d32d 123d 5433 57bc adee 2b3d a25c 9f3d
000001b0: 7a73 34bc 1fa9 23bc dedc 87bd 2b5e 673d
000001c0: 5419 45bb aada 45bd 98be 403d cdbc 75bd
000001d0: 8856 5fbc 305a 653b d40b 6fbc 6bca 75bc
000001e0: 79ac 973d 0b0f d43c 7bb5 65bc f103 473d
000001f0: 577a 2fbd 3803 ad3c 4012 0e3d cfb7 7a3c
00000200: a381 d73b 34fd 8c3d 1633 b53c ccef 07bd
00000210: 11c9 d53c ec09 40bd 766d 393c 59a3 4fbd
00000220: 5e3b 98bc f2fc 25bc f3ff f7bd ab72 22be
00000230: 7576 fe3c e08d 30be 12bf 02be 8065 06be
00000240: 3863 23bd 42b1 27bc 2339 253c 870a bdbd
00000250: 26ac 23be b0cd 4b3d 3629 5cbe fea6 b1bd
00000260: 2020 00be dce0 98bc d64c 643b 5ac0 6fbb
00000270: 24f5 d4bd 56c3 5fbe d29f 113d ff3f 52be
00000280: b039 94bd 5d6b 2abe a93b f1bd e068 24bd
00000290: 00bf 5dbc 72d8 08bd 0c66 cf3c 6f65 0b3d
000002a0: 4474 c43c b978 2b3d 07f7 4b3c 2aa3 edbd
000002b0: d442 00bd a551 683c c6af 15bd 4fa5 f83c
000002c0: 71c6 a0bc 1fce 5abc 3a14 8d3c 1136 043c
000002d0: a7e2 01be 62ff dfbc a05b 813c cf94 16bd
000002e0: 06da 233d 5d49 1b3c 5790 02bd 3cac f63c
000002f0: ddd3 173d 6946 e5bc 85e8 3ab8 5daa 5a3d
00000300: e979 0c3d 4d8f 193a 14c1 8a3d 0b6f 03bd
00000310: ae31 d73c ce10 0c3d 757c d1bb aa91 a3bc
00000320: c039 233d e12c e53b 0b2f bdbc 22f0 febb
00000330: 9c08 63bd 9d28 63bc 4948 47bb ef5a acbc
00000340: 2ad4 23bd 8d78 093d 0d5f 723c b56f 47bc
00000350: 7f54 6c3d 4be5 94bd 1c6c fc3b a51d 1d3d
00000360: 590a 2cbd 10cb c23c fde5 463c b00b 01bd
00000370: 6970 f83b 25ac 80bd 4500 dfbd 9f4e 0f3d
00000380: 271c e2bd 3ecb 08bd c2ea cf3c 749d b0ba
00000390: 109f ffbc 0e95 463c ccfd 9abd d35f 9cbd
000003a0: 48a9 be3c 89c3 bfbd fcb0 67bd 66a9 0b3c
000003b0: eb72 833b e018 7cbd 0b50 8b3b 0efc cabd
000003c0: 6cff 8bbd 86c8 5d3d 18e8 a0bd 32af b63d
000003d0: 314e bdbd 9611 64be 7189 7ebd c08a 7fbc
000003e0: bca5 343d 3ac4 b3bc eafe cf3b e513 d43b
000003f0: 4e1e a63d 5939 2cbd 82f3 37be 1b07 61bd

model1.4.conv.bias f4 [16]
0.04667351 0.034599315 0.007383678 0.029031234 0.047400407 0.031088842 -0.0105004925 0.050332382
-0.024957728 -0.028227497 -0.030968187 0.044468064 0.050185557 0.040095452 0.04866108 -0.03938453
00000000: b92c 3f3d 03b8 0d3d c8f2 f13b e9d2 ed3c
00000010: ee26 423d 07ae fe3c 420a 2cbc 5429 4e3d
00000020: 2674 ccbc 5a3d e7bc ffb0 fdbc 2524 363d
00000030: 5f8f 4d3d 213b 243d d750 473d ac51 21bd

model1.4.batch_norm.weight f4 [16]
0.53284955 0.5653679 0.5567824 0.5385002 0.5810647 0.5722759 0.5850793 0.55216604
0.59042466 0.50668865 0.62449026 0.5377874 0.6489375 0.629384 0.6300221 0.4650896
00000000: d468 083f f3bb 103f 4b89 0e3f 26db 093f
00000010: a8c0 143f ac80 123f c2c7 153f c15a 0d3f
00000020: 1226 173f 59b6 013f 98de 1f3f 6fac 093f
00000030: c520 263f 4f1f 213f 2149 213f 3920 ee3e

model1.4.batch_norm.bias f4 [16]
-0.22521667 -0.39173824 -0.4462487 -0.28080907 -0.271996 -0.27345312 -0.4697783 -0.45140618
-0.21011329 -0.47111604 -0.5690676 -0.45375746 -0.63625145 -0.39336985 -0.5011928 -0.2638929
00000000: 339f 66be ea91 c8be b67a e4be 35c6 8fbe
00000010: 0f43 8bbe 0c02 8cbe c886 f0be b61e e7be
00000020: f027 57be 1f36 f1be 6aae 11bf e652 e8be
00000030: 60e1 22bf c667 c9be 2c4e 00bf f81c 87be

model1.4.batch_norm.running_mean f4 [16]
-0.65608686 -0.7658648 -0.73785216 -0.6527143 -0.56872493 -0.5930141 -0.5355784 -0.7051655
-0.727307 -0.8529205 -0.7524931 -0.7048458 -0.74458486 -0.6631005 -0.757202 -0.4656209
00000000: 4ff5 27bf b70f 44bf e1e3 3cbf 4918 27bf
00000010: f597 11bf c6cf 17bf ab1b 09bf ba85 34bf
00000020: cb30 3abf ff58 5abf 63a3 40bf c670 34bf
00000030: 1d9d 3ebf f4c0 29bf fed7 41bf dd65 eebe

model1.4.batch_norm.running_var f4 [16]
0.9062713 0.70160604 0.8015902 0.76933944 0.74041367 1.1204453 0.62426764 0.6423465
1.2173892 0.78237045 0.623846 0.6324694 0.7556272 0.73848325 0.8647773 0.48307034
00000000: 6501 683f 749c 333f 0435 4d3f 6ef3 443f
00000010: c08b 3d3f c06a 8f3f 01d0 1f3f d270 243f
00000020: 69d3 9b3f 6e49 483f 5fb4 1f3f 84e9 213f
00000030: c970 413f 3d0d 3d3f 0c62 5d3f ff54 f73e

model1.6.conv.weight f4 [16, 16, 3, 3, 3]
0.019921968 0.074974544 -0.044074405 0.005156937 0.20745163 0.0038497755 0.005033725 0.014875369
-0.054001637 0.006907911 0.014655711 -0.024462994 0.0015892902 -1.282676 0.031045783 -0.002375801
0.023813404 -0.00997276 -0.006344709 0.04119645 0.0020119182 -0.023374874 0.26898602 0.0049035824
-0.0034082048 0.024892133 -0.0060808184 0.001431407 0.02769821 0.012432405 -0.09354311 0.052226927
-0.100036405 0.0019147218 0.08240145 -0.1055622 -0.0091286795 0.008439807 -0.008446109 -0.10691219
0.030275956 -0.173776 -0.0052165547 0.06861554 -0.100789204 -0.012162777 0.030490166 -0.036712598
-0.07868015 0.040483046 -0.242694 -0.024436537 0.090691015 -0.105589285 -0.06846548 0.0127297295
-0.21816266 0.03399316 -0.119363815 -0.00047180822 -0.027407937 -0.036290713 0.009884402 -0.044351514
0.0104400385 -0.15238504 -0.0130251795 -0.11692043 -0.0048511755 0.008863663 -0.0098397145 0.0155531475
-0.047458924 0.03151949 -0.15028584 0.013817253 -0.12175781 -0.063492745 0.021017777 -0.04088131
0.0036694051 0.012931459 0.00046182124 0.0033652112 0.012865263 0.027410641 0.03844387 0.029473417
0.078578636 0.11672786 0.006636925 0.00015898456 0.0026311744 0.0060716723 0.0079521565 -0.0027130267
-0.012329045 0.035136737 0.0307482 0.051686116 0.021984477 0.03531475 0.020066649 0.018915769
0.035688233 -0.013134796 0.041975666 0.0778134 -0.01101386 -0.009989052 -0.06633924 0.05648629
-0.0030074911 -0.048304237 0.047056764 -0.059994508 -0.0136314705 0.0034996383 -0.014590222 -0.0150018735
0.074059434 0.02588608 -0.014020319 0.048587743 -0.04284128 0.021119699 0.034685373 0.015302612
0.006576733 0.06884232 0.022119086 -0.033187672 0.026096852 -0.046884462 0.011317601 -0.05069289
-0.018582996 -0.010131108 -0.12109365 -0.15864055 0.031062344 -0.17241621 -0.127682 -0.13124657
-0.039889544 -0.010235133 0.010084423 -0.092305236 -0.15983638 0.049756706 -0.21500096 -0.08674429
-0.12512255 -0.018661909 0.0034835837 -0.0036583156 -0.10398319 -0.21851858 0.035552807 -0.20532225
-0.072375655 -0.16642518 -0.117789574 -0.04013908 -0.0135343075 -0.033409543 0.025317214 0.03403228
0.023981221 0.041863177 0.012449033 -0.11603387 -0.031313732 0.014179622 -0.036544584 0.030352263
-0.019625874 -0.013354807 0.017221559 0.008069531 -0.12684117 -0.027343456 0.01579076 -0.03676301
0.040002845 0.00947794 -0.031875934 0.030111425 0.037067283 -0.027987676 -4.4562406e-05 0.053385127
0.03429595 0.00058578403 0.06775108 -0.03208832 0.026268806 0.034195714 -0.0063930103 -0.019966919
0.039849997 0.0069938754 -0.02309372 -0.007780091 -0.055428132 -0.013864663 -0.0030408076 -0.021039454
-0.039997257 0.03356223 0.01479317 -0.012172629 0.05769777 -0.07270297 0.0077033173 0.03835835
-0.042002056 0.023778468 0.012139794 -0.031505287 0.0075817597 -0.06282834 -0.10888723 0.03498709
-0.11040526 -0.03339695 0.025380496 -0.0013474659 -0.031203777 0.012120498 -0.07567939 -0.076354645
0.023274079 -0.09363467 -0.05656527 0.008524274 0.004011502 -0.06154716 0.004251485 -0.09911357
-0.06835827 0.054146312 -0.07856768 0.089201346 -0.092434295 -0.22272334 -0.062142793 -0.015597045
0.04410337 -0.021944154 0.006347527 0.006472098 0.08111249 -0.04204688 -0.17963985 -0.054938417
00000000: 6533 a33c 418c 993d 5d87 34bd 86fb a83b
00000010: 336e 543e 844c 7c3b f2f1 a43b d2b7 733c
00000020: d230 5dbd c25b e23b 821e 703c 9e66 c8bc
00000030: bb4f d03a ba2e a4bf ba53 fe3c 54b3 1bbb
00000040: 5414 c33c ca64 23bc 47e7 cfbb 9cbd 283d
00000050: 63da 033b aa7c bfbc 89b8 893e 3bae a03b
00000060: 305c 5fbb 96ea cb3c 9a41 c7bb 0d9e bb3a
00000070: 5be7 e23c 49b1 4b3c 8893 bfbd e7eb 553d
00000080: e3df ccbd 67f7 fa3a 17c2 a83d ff30 d8bd
00000090: 7590 15bc 1e47 0a3c 8c61 0abc c7f4 dabd
000000a0: 4805 f83c 56f2 31be a2ef aabb 4e86 8c3d
000000b0: 926a cebd 6246 47bc 83c6 f93c f35f 16bd
000000c0: 0f23 a1bd 8dd1 253d c784 78be 222f c8bc
000000d0: 36bc b93d 323f d8bd a137 8cbd 5b90 503c
000000e0: 0866 5fbe 693c 0b3d 0475 f4bd 075d f7b9
000000f0: 9c86 e0bc 92a5 14bd 30f2 213c efa9 35bd
00000100: b20c 2b3c d30a 1cbe 9067 55bc fa73 efbd
00000110: 9cf6 9ebb e638 113c c136 21bc a1d2 7e3c
00000120: 4a64 42bd 951a 013d 88e4 19be c261 623c
00000130: 295c f9bd 7c08 82bd 792d ac3c 2973 27bd
00000140: 677a 703b 78de 533c 9920 f239 e08a 5c3b
00000150: d3c8 523c 488c e03c 5277 1d3d 3c72 f13c
00000160: d6ed a03d 040f ef3d 907a d93b 18b5 2639
00000170: c86f 2c3b e1f4 c63b c349 023c 09cd 31bb
00000180: c3ff 49bc 8aeb 0f3d a6e3 fb3c d2b4 533d
00000190: ca18 b43c 33a6 103d d062 a43c 3ef5 9a3c
000001a0: d32d 123d 5433 57bc adee 2b3d a25c 9f3d
000001b0: 7a73 34bc 1fa9 23bc dedc 87bd 2b5e 673d
000001c0: 5419 45bb aada 45bd 98be 403d cdbc 75bd
000001d0: 8856 5fbc 305a 653b d40b 6fbc 6bca 75bc
000001e0: 79ac 973d 0b0f d43c 7bb5 65bc f103 473d
000001f0: 577a 2fbd 3803 ad3c 4012 0e3d cfb7 7a3c
00000200: a381 d73b 34fd 8c3d 1633 b53c ccef 07bd
00000210: 11c9 d53c ec09 40bd 766d 393c 59a3 4fbd
00000220: 5e3b 98bc f2fc 25bc f3ff f7bd ab72 22be
00000230: 7576 fe3c e08d 30be 12bf 02be 8065 06be
00000240: 3863 23bd 42b1 27bc 2339 253c 870a bdbd
00000250: 26ac 23be b0cd 4b3d 3629 5cbe fea6 b1bd
00000260: 2020 00be dce0 98bc d64c 643b 5ac0 6fbb
00000270: 24f5 d4bd 56c3 5fbe d29f 113d ff3f 52be
00000280: b039 94bd 5d6b 2abe a93b f1bd e068 24bd
00000290: 00bf 5dbc 72d8 08bd 0c66 cf3c 6f65 0b3d
000002a0: 4474 c43c b978 2b3d 07f7 4b3c 2aa3 edbd
000002b0: d442 00bd a551 683c c6af 15bd 4fa5 f83c
000002c0: 71c6 a0bc 1fce 5abc 3a14 8d3c 1136 043c
000002d0: a7e2 01be 62ff dfbc a05b 813c cf94 16bd
000002e0: 06da 233d 5d49 1b3c 5790 02bd 3cac f63c
000002f0: ddd3 173d 6946 e5bc 85e8 3ab8 5daa 5a3d
00000300: e979 0c3d 4d8f 193a 14c1 8a3d 0b6f 03bd
00000310: ae31 d73c ce10 0c3d 757c d1bb aa91 a3bc
00000320: c039 233d e12c e53b 0b2f bdbc 22f0 febb
00000330: 9c08 63bd 9d28 63bc 4948 47bb ef5a acbc
00000340: 2ad4 23bd 8d78 093d 0d5f 723c b56f 47bc
00000350: 7f54 6c3d 4be5 94bd 1c6c fc3b a51d 1d3d
00000360: 590a 2cbd 10cb c23c fde5 463c b00b 01bd
00000370: 6970 f83b 25ac 80bd 4500 dfbd 9f4e 0f3d
00000380: 271c e2bd 3ecb 08bd c2ea cf3c 749d b0ba
00000390: 109f ffbc 0e95 463c ccfd 9abd d35f 9cbd
000003a0: 48a9 be3c 89c3 bfbd fcb0 67bd 66a9 0b3c
000003b0: eb72 833b e018 7cbd 0b50 8b3b 0efc cabd
000003c0: 6cff 8bbd 86c8 5d3d 18e8 a0bd 32af b63d
000003d0: 314e bdbd 9611 64be 7189 7ebd c08a 7fbc
000003e0: bca5 343d 3ac4 b3bc eafe cf3b e513 d43b
000003f0: 4e1e a63d 5939 2cbd 82f3 37be 1b07 61bd

model1.6.conv.bias f4 [16]
0.04667351 0.034599315 0.007383678 0.029031234 0.047400407 0.031088842 -0.0105004925 0.050332382
-0.024957728 -0.028227497 -0.030968187 0.044468064 0.050185557 0.040095452 0.04866108 -0.03938453
00000000: b92c 3f3d 03b8 0d3d c8f2 f13b e9d2 ed3c
00000010: ee26 423d 07ae fe3c 420a 2cbc 5429 4e3d
00000020: 2674 ccbc 5a3d e7bc ffb0 fdbc 2524 363d
00000030: 5f8f 4d3d 213b 243d d750 473d ac51 21bd

model1.6.batch_norm.weight f4 [16]
0.53284955 0.5653679 0.5567824 0.5385002 0.5810647 0.5722759 0.5850793 0.55216604
0.59042466 0.50668865 0.62449026 0.5377874 0.6489375 0.629384 0.6300221 0.4650896
00000000: d468 083f f3bb 103f 4b89 0e3f 26db 093f
00000010: a8c0 143f ac80 123f c2c7 153f c15a 0d3f
00000020: 1226 173f 59b6 013f 98de 1f3f 6fac 093f
00000030: c520 263f 4f1f 213f 2149 213f 3920 ee3e

model1.6.batch_norm.bias f4 [16]
-0.22521667 -0.39173824 -0.4462487 -0.28080907 -0.271996 -0.27345312 -0.4697783 -0.45140618
-0.21011329 -0.47111604 -0.5690676 -0.45375746 -0.63625145 -0.39336985 -0.5011928 -0.2638929
00000000: 339f 66be ea91 c8be b67a e4be 35c6 8fbe
00000010: 0f43 8bbe 0c02 8cbe c886 f0be b61e e7be
00000020: f027 57be 1f36 f1be 6aae 11bf e652 e8be
00000030: 60e1 22bf c667 c9be 2c4e 00bf f81c 87be

model1.6.batch_norm.running_mean f4 [16]
-0.65608686 -0.7658648 -0.73785216 -0.6527143 -0.56872493 -0.5930141 -0.5355784 -0.7051655
-0.727307 -0.8529205 -0.7524931 -0.7048458 -0.74458486 -0.6631005 -0.757202 -0.4656209
00000000: 4ff5 27bf b70f 44bf e1e3 3cbf 4918 27bf
00000010: f597 11bf c6cf 17bf ab1b 09bf ba85 34bf
00000020: cb30 3abf ff58 5abf 63a3 40bf c670 34bf
00000030: 1d9d 3ebf f4c0 29bf fed7 41bf dd65 eebe

model1.6.batch_norm.running_var f4 [16]
0.9062713 0.70160604 0.8015902 0.76933944 0.74041367 1.1204453 0.62426764 0.6423465
1.2173892 0.78237045 0.623846 0.6324694 0.7556272 0.73848325 0.8647773 0.48307034
00000000: 6501 683f 749c 333f 0435 4d3f 6ef3 443f
00000010: c08b 3d3f c06a 8f3f 01d0 1f3f d270 243f
00000020: 69d3 9b3f 6e49 483f 5fb4 1f3f 84e9 213f
00000030: c970 413f 3d0d 3d3f 0c62 5d3f ff54 f73e

model1.8.conv.weight f4 [16, 16, 3, 3, 3]
0.019921968 0.074974544 -0.044074405 0.005156937 0.20745163 0.0038497755 0.005033725 0.014875369
-0.054001637 0.006907911 0.014655711 -0.024462994 0.0015892902 -1.282676 0.031045783 -0.002375801
0.023813404 -0.00997276 -0.006344709 0.04119645 0.0020119182 -0.023374874 0.26898602 0.0049035824
-0.0034082048 0.024892133 -0.0060808184 0.001431407 0.02769821 0.012432405 -0.09354311 0.052226927
-0.100036405 0.0019147218 0.08240145 -0.1055622 -0.0091286795 0.008439807 -0.008446109 -0.10691219
0.030275956 -0.173776 -0.0052165547 0.06861554 -0.100789204 -0.012162777 0.030490166 -0.036712598
-0.07868015 0.040483046 -0.242694 -0.024436537 0.090691015 -0.105589285 -0.06846548 0.0127297295
-0.21816266 0.03399316 -0.119363815 -0.00047180822 -0.027407937 -0.036290713 0.009884402 -0.044351514
0.0104400385 -0.15238504 -0.0130251795 -0.11692043 -0.0048511755 0.008863663 -0.0098397145 0.0155531475
-0.047458924 0.03151949 -0.15028584 0.013817253 -0.12175781 -0.063492745 0.021017777 -0.04088131
0.0036694051 0.012931459 0.00046182124 0.0033652112 0.012865263 0.027410641 0.03844387 0.029473417
0.078578636 0.11672786 0.006636925 0.00015898456 0.0026311744 0.0060716723 0.0079521565 -0.0027130267
-0.012329045 0.035136737 0.0307482 0.051686116 0.021984477 0.03531475 0.020066649 0.018915769
0.035688233 -0.013134796 0.041975666 0.0778134 -0.01101386 -0.009989052 -0.06633924 0.05648629
-0.0030074911 -0.048304237 0.047056764 -0.059994508 -0.0136314705 0.0034996383 -0.014590222 -0.0150018735
0.074059434 0.02588608 -0.014020319 0.048587743 -0.04284128 0.021119699 0.034685373 0.015302612
0.006576733 0.06884232 0.022119086 -0.033187672 0.026096852 -0.046884462 0.011317601 -0.05069289
-0.018582996 -0.010131108 -0.12109365 -0.15864055 0.031062344 -0.17241621 -0.127682 -0.13124657
-0.039889544 -0.010235133 0.010084423 -0.092305236 -0.15983638 0.049756706 -0.21500096 -0.08674429
-0.12512255 -0.018661909 0.0034835837 -0.0036583156 -0.10398319 -0.21851858 0.035552807 -0.20532225
-0.072375655 -0.16642518 -0.117789574 -0.04013908 -0.0135343075 -0.033409543 0.025317214 0.03403228
0.023981221 0.041863177 0.012449033 -0.11603387 -0.031313732 0.014179622 -0.036544584 0.030352263
-0.019625874 -0.013354807 0.017221559 0.008069531 -0.12684117 -0.027343456 0.01579076 -0.03676301
0.040002845 0.00947794 -0.031875934 0.030111425 0.037067283 -0.027987676 -4.4562406e-05 0.053385127
0.03429595 0.00058578403 0.06775108 -0.03208832 0.026268806 0.034195714 -0.0063930103 -0.019966919
0.039849997 0.0069938754 -0.02309372 -0.007780091 -0.055428132 -0.013864663 -0.0030408076 -0.021039454
-0.039997257 0.03356223 0.01479317 -0.012172629 0.05769777 -0.07270297 0.0077033173 0.03835835
-0.042002056 0.023778468 0.012139794 -0.031505287 0.0075817597 -0.06282834 -0.10888723 0.03498709
-0.11040526 -0.03339695 0.025380496 -0.0013474659 -0.031203777 0.012120498 -0.07567939 -0.076354645
0.023274079 -0.09363467 -0.05656527 0.008524274 0.004011502 -0.06154716 0.004251485 -0.09911357
-0.06835827 0.054146312 -0.07856768 0.089201346 -0.092434295 -0.22272334 -0.062142793 -0.015597045
0.04410337 -0.021944154 0.006347527 0.006472098 0.08111249 -0.04204688 -0.17963985 -0.054938417
00000000: 6533 a33c 418c 993d 5d87 34bd 86fb a83b
00000010: 336e 543e 844c 7c3b f2f1 a43b d2b7 733c
00000020: d230 5dbd c25b e23b 821e 703c 9e66 c8bc
00000030: bb4f d03a ba2e a4bf ba53 fe3c 54b3 1bbb
00000040: 5414 c33c ca64 23bc 47e7 cfbb 9cbd 283d
00000050: 63da 033b aa7c bfbc 89b8 893e 3bae a03b
00000060: 305c 5fbb 96ea cb3c 9a41 c7bb 0d9e bb3a
00000070: 5be7 e23c 49b1 4b3c 8893 bfbd e7eb 553d
00000080: e3df ccbd 67f7 fa3a 17c2 a83d ff30 d8bd
00000090: 7590 15bc 1e47 0a3c 8c61 0abc c7f4 dabd
000000a0: 4805 f83c 56f2 31be a2ef aabb 4e86 8c3d
000000b0: 926a cebd 6246 47bc 83c6 f93c f35f 16bd
000000c0: 0f23 a1bd 8dd1 253d c784 78be 222f c8bc
000000d0: 36bc b93d 323f d8bd a137 8cbd 5b90 503c
000000e0: 0866 5fbe 693c 0b3d 0475 f4bd 075d f7b9
000000f0: 9c86 e0bc 92a5 14bd 30f2 213c efa9 35bd
00000100: b20c 2b3c d30a 1cbe 9067 55bc fa73 efbd
00000110: 9cf6 9ebb e638 113c c136 21bc a1d2 7e3c
00000120: 4a64 42bd 951a 013d 88e4 19be c261 623c
00000130: 295c f9bd 7c08 82bd 792d ac3c 2973 27bd
00000140: 677a 703b 78de 533c 9920 f239 e08a 5c3b
00000150: d3c8 523c 488c e03c 5277 1d3d 3c72 f13c
00000160: d6ed a03d 040f ef3d 907a d93b 18b5 2639
00000170: c86f 2c3b e1f4 c63b c349 023c 09cd 31bb
00000180: c3ff 49bc 8aeb 0f3d a6e3 fb3c d2b4 533d
00000190: ca18 b43c 33a6 103d d062 a43c 3ef5 9a3c
000001a0: d32d 123d 5433 57bc adee 2b3d a25c 9f3d
000001b0: 7a73 34bc 1fa9 23bc dedc 87bd 2b5e 673d
000001c0: 5419 45bb aada 45bd 98be 403d cdbc 75bd
000001d0: 8856 5fbc 305a 653b d40b 6fbc 6bca 75bc
000001e0: 79ac 973d 0b0f d43c 7bb5 65bc f103 473d
000001f0: 577a 2fbd 3803 ad3c 4012 0e3d cfb7 7a3c
00000200: a381 d73b 34fd 8c3d 1633 b53c ccef 07bd
00000210: 11c9 d53c ec09 40bd 766d 393c 59a3 4fbd
00000220: 5e3b 98bc f2fc 25bc f3ff f7bd ab72 22be
00000230: 7576 fe3c e08d 30be 12bf 02be 8065 06be
00000240: 3863 23bd 42b1 27bc 2339 253c 870a bdbd
00000250: 26ac 23be b0cd 4b3d 3629 5cbe fea6 b1bd
00000260: 2020 00be dce0 98bc d64c 643b 5ac0 6fbb
00000270: 24f5 d4bd 56c3 5fbe d29f 113d ff3f 52be
00000280: b039 94bd 5d6b 2abe a93b f1bd e068 24bd
00000290: 00bf 5dbc 72d8 08bd 0c66 cf3c 6f65 0b3d
000002a0: 4474 c43c b978 2b3d 07f7 4b3c 2aa3 edbd
000002b0: d442 00bd a551 683c c6af 15bd 4fa5 f83c
000002c0: 71c6 a0bc 1fce 5abc 3a14 8d3c 1136 043c
000002d0: a7e2 01be 62ff dfbc a05b 813c cf94 16bd
000002e0: 06da 233d 5d49 1b3c 5790 02bd 3cac f63c
000002f0: ddd3 173d 6946 e5bc 85e8 3ab8 5daa 5a3d
00000300: e979 0c3d 4d8f 193a 14c1 8a3d 0b6f 03bd
00000310: ae31 d73c ce10 0c3d 757c d1bb aa91 a3bc
00000320: c039 233d e12c e53b 0b2f bdbc 22f0 febb
00000330: 9c08 63bd 9d28 63bc 4948 47bb ef5a acbc
00000340: 2ad4 23bd 8d78 093d 0d5f 723c b56f 47bc
00000350: 7f54 6c3d 4be5 94bd 1c6c fc3b a51d 1d3d
00000360: 590a 2cbd 10cb c23c fde5 463c b00b 01bd
00000370: 6970 f83b 25ac 80bd 4500 dfbd 9f4e 0f3d
00000380: 271c e2bd 3ecb 08bd c2ea cf3c 749d b0ba
00000390: 109f ffbc 0e95 463c ccfd 9abd d35f 9cbd
000003a0: 48a9 be3c 89c3 bfbd fcb0 67bd 66a9 0b3c
000003b0: eb72 833b e018 7cbd 0b50 8b3b 0efc cabd
000003c0: 6cff 8bbd 86c8 5d3d 18e8 a0bd 32af b63d
000003d0: 314e bdbd 9611 64be 7189 7ebd c08a 7fbc
000003e0: bca5 343d 3ac4 b3bc eafe cf3b e513 d43b
000003f0: 4e1e a63d 5939 2cbd 82f3 37be 1b07 61bd

model1.8.conv.bias f4 [16]
0.04667351 0.034599315 0.007383678 0.029031234 0.047400407 0.031088842 -0.0105004925 0.050332382
-0.024957728 -0.028227497 -0.030968187 0.044468064 0.050185557 0.040095452 0.04866108 -0.03938453
00000000: b92c 3f3d 03b8 0d3d c8f2 f13b e9d2 ed3c
00000010: ee26 423d 07ae fe3c 420a 2cbc 5429 4e3d
00000020: 2674 ccbc 5a3d e7bc ffb0 fdbc 2524 363d
00000030: 5f8f 4d3d 213b 243d d750 473d ac51 21bd

model1.8.batch_norm.weight f4 [16]
0.53284955 0.5653679 0.5567824 0.5385002 0.5810647 0.5722759 0.5850793 0.55216604
0.59042466 0.50668865 0.62449026 0.5377874 0.6489375 0.629384 0.6300221 0.4650896
00000000: d468 083f f3bb 103f 4b89 0e3f 26db 093f
00000010: a8c0 143f ac80 123f c2c7 153f c15a 0d3f
00000020: 1226 173f 59b6 013f 98de 1f3f 6fac 093f
00000030: c520 263f 4f1f 213f 2149 213f 3920 ee3e

model1.8.batch_norm.bias f4 [16]
-0.22521667 -0.39173824 -0.4462487 -0.28080907 -0.271996 -0.27345312 -0.4697783 -0.45140618
-0.21011329 -0.47111604 -0.5690676 -0.45375746 -0.63625145 -0.39336985 -0.5011928 -0.2638929
00000000: 339f 66be ea91 c8be b67a e4be 35c6 8fbe
00000010: 0f43 8bbe 0c02 8cbe c886 f0be b61e e7be
00000020: f027 57be 1f36 f1be 6aae 11bf e652 e8be
00000030: 60e1 22bf c667 c9be 2c4e 00bf f81c 87be

model1.8.batch_norm.running_mean f4 [16]
-0.65608686 -0.7658648 -0.73785216 -0.6527143 -0.56872493 -0.5930141 -0.5355784 -0.7051655
-0.727307 -0.8529205 -0.7524931 -0.7048458 -0.74458486 -0.6631005 -0.757202 -0.4656209
00000000: 4ff5 27bf b70f 44bf e1e3 3cbf 4918 27bf
00000010: f597 11bf c6cf 17bf ab1b 09bf ba85 34bf
00000020: cb30 3abf ff58 5abf 63a3 40bf c670 34bf
00000030: 1d9d 3ebf f4c0 29bf fed7 41bf dd65 eebe

model1.8.batch_norm.running_var f4 [16]
0.9062713 0.70160604 0.8015902 0.76933944 0.74041367 1.1204453 0.62426764 0.6423465
1.2173892 0.78237045 0.623846 0.6324694 0.7556272 0.73848325 0.8647773 0.48307034
00000000: 6501 683f 749c 333f 0435 4d3f 6ef3 443f
00000010: c08b 3d3f c06a 8f3f 01d0 1f3f d270 243f
00000020: 69d3 9b3f 6e49 483f 5fb4 1f3f 84e9 213f
00000030: c970 413f 3d0d 3d3f 0c62 5d3f ff54 f73e

model1.10.conv.weight f4 [16, 16, 3, 3, 3]
0.019921968 0.074974544 -0.044074405 0.005156937 0.20745163 0.0038497755 0.005033725 0.014875369
-0.054001637 0.006907911 0.014655711 -0.024462994 0.0015892902 -1.282676 0.031045783 -0.002375801
0.023813404 -0.00997276 -0.006344709 0.04119645 0.0020119182 -0.023374874 0.26898602 0.0049035824
-0.0034082048 0.024892133 -0.0060808184 0.001431407 0.02769821 0.012432405 -0.09354311 0.052226927
-0.100036405 0.0019147218 0.08240145 -0.1055622 -0.0091286795 0.008439807 -0.008446109 -0.10691219
0.030275956 -0.173776 -0.0052165547 0.06861554 -0.100789204 -0.012162777 0.030490166 -0.036712598
-0.07868015 0.040483046 -0.242694 -0.024436537 0.090691015 -0.105589285 -0.06846548 0.0127297295
-0.21816266 0.03399316 -0.119363815 -0.00047180822 -0.027407937 -0.036290713 0.009884402 -0.044351514
0.0104400385 -0.15238504 -0.0130251795 -0.11692043 -0.0048511755 0.008863663 -0.0098397145 0.0155531475
-0.047458924 0.03151949 -0.15028584 0.013817253 -0.12175781 -0.063492745 0.021017777 -0.04088131
0.0036694051 0.012931459 0.00046182124 0.0033652112 0.012865263 0.027410641 0.03844387 0.029473417
0.078578636 0.11672786 0.006636925 0.00015898456 0.0026311744 0.0060716723 0.0079521565 -0.0027130267
-0.012329045 0.035136737 0.0307482 0.051686116 0.021984477 0.03531475 0.020066649 0.018915769
0.035688233 -0.013134796 0.041975666 0.0778134 -0.01101386 -0.009989052 -0.06633924 0.05648629
-0.0030074911 -0.048304237 0.047056764 -0.059994508 -0.0136314705 0.0034996383 -0.014590222 -0.0150018735
0.074059434 0.02588608 -0.014020319 0.048587743 -0.04284128 0.021119699 0.034685373 0.015302612
0.006576733 0.06884232 0.022119086 -0.033187672 0.026096852 -0.046884462 0.011317601 -0.05069289
-0.018582996 -0.010131108 -0.12109365 -0.15864055 0.031062344 -0.17241621 -0.127682 -0.13124657
-0.039889544 -0.010235133 0.010084423 -0.092305236 -0.15983638 0.049756706 -0.21500096 -0.08674429
-0.12512255 -0.018661909 0.0034835837 -0.0036583156 -0.10398319 -0.21851858 0.035552807 -0.20532225
-0.072375655 -0.16642518 -0.117789574 -0.04013908 -0.0135343075 -0.033409543 0.025317214 0.03403228
0.023981221 0.041863177 0.012449033 -0.11603387 -0.031313732 0.014179622 -0.036544584 0.030352263
-0.019625874 -0.013354807 0.017221559 0.008069531 -0.12684117 -0.027343456 0.01579076 -0.03676301
0.040002845 0.00947794 -0.031875934 0.030111425 0.037067283 -0.027987676 -4.4562406e-05 0.053385127
0.03429595 0.00058578403 0.06775108 -0.03208832 0.026268806 0.034195714 -0.0063930103 -0.019966919
0.039849997 0.0069938754 -0.02309372 -0.007780091 -0.055428132 -0.013864663 -0.0030408076 -0.021039454
-0.039997257 0.03356223 0.01479317 -0.012172629 0.05769777 -0.07270297 0.0077033173 0.03835835
-0.042002056 0.023778468 0.012139794 -0.031505287 0.0075817597 -0.06282834 -0.10888723 0.03498709
-0.11040526 -0.03339695 0.025380496 -0.0013474659 -0.031203777 0.012120498 -0.07567939 -0.076354645
0.023274079 -0.09363467 -0.05656527 0.008524274 0.004011502 -0.06154716 0.004251485 -0.09911357
-0.06835827 0.054146312 -0.07856768 0.089201346 -0.092434295 -0.22272334 -0.062142793 -0.015597045
0.04410337 -0.021944154 0.006347527 0.006472098 0.08111249 -0.04204688 -0.17963985 -0.054938417
00000000: 6533 a33c 418c 993d 5d87 34bd 86fb a83b
00000010: 336e 543e 844c 7c3b f2f1 a43b d2b7 733c
00000020: d230 5dbd c25b e23b 821e 703c 9e66 c8bc
00000030: bb4f d03a ba2e a4bf ba53 fe3c 54b3 1bbb
00000040: 5414 c33c ca64 23bc 47e7 cfbb 9cbd 283d
00000050: 63da 033b aa7c bfbc 89b8 893e 3bae a03b
00000060: 305c 5fbb 96ea cb3c 9a41 c7bb 0d9e bb3a
00000070: 5be7 e23c 49b1 4b3c 8893 bfbd e7eb 553d
00000080: e3df ccbd 67f7 fa3a 17c2 a83d ff30 d8bd
00000090: 7590 15bc 1e47 0a3c 8c61 0abc c7f4 dabd
000000a0: 4805 f83c 56f2 31be a2ef aabb 4e86 8c3d
000000b0: 926a cebd 6246 47bc 83c6 f93c f35f 16bd
000000c0: 0f23 a1bd 8dd1 253d c784 78be 222f c8bc
000000d0: 36bc b93d 323f d8bd a137 8cbd 5b90 503c
000000e0: 0866 5fbe 693c 0b3d 0475 f4bd 075d f7b9
000000f0: 9c86 e0bc 92a5 14bd 30f2 213c efa9 35bd
00000100: b20c 2b3c d30a 1cbe 9067 55bc fa73 efbd
00000110: 9cf6 9ebb e638 113c c136 21bc a1d2 7e3c
00000120: 4a64 42bd 951a 013d 88e4 19be c261 623c
00000130: 295c f9bd 7c08 82bd 792d ac3c 2973 27bd
00000140: 677a 703b 78de 533c 9920 f239 e08a 5c3b
00000150: d3c8 523c 488c e03c 5277 1d3d 3c72 f13c
00000160: d6ed a03d 040f ef3d 907a d93b 18b5 2639
00000170: c86f 2c3b e1f4 c63b c349 023c 09cd 31bb
00000180: c3ff 49bc 8aeb 0f3d a6e3 fb3c d2b4 533d
00000190: ca18 b43c 33a6 103d d062 a43c 3ef5 9a3c
000001a0: d32d 123d 5433 57bc adee 2b3d a25c 9f3d
000001b0: 7a73 34bc 1fa9 23bc dedc 87bd 2b5e 673d
000001c0: 5419 45bb aada 45bd 98be 403d cdbc 75bd
000001d0: 8856 5fbc 305a 653b d40b 6fbc 6bca 75bc
000001e0: 79ac 973d 0b0f d43c 7bb5 65bc f103 473d
000001f0: 577a 2fbd 3803 ad3c 4012 0e3d cfb7 7a3c
00000200: a381 d73b 34fd 8c3d 1633 b53c ccef 07bd
00000210: 11c9 d53c ec09 40bd 766d 393c 59a3 4fbd
00000220: 5e3b 98bc f2fc 25bc f3ff f7bd ab72 22be
00000230: 7576 fe3c e08d 30be 12bf 02be 8065 06be
00000240: 3863 23bd 42b1 27bc 2339 253c 870a bdbd
00000250: 26ac 23be b0cd 4b3d 3629 5cbe fea6 b1bd
00000260: 2020 00be dce0 98bc d64c 643b 5ac0 6fbb
00000270: 24f5 d4bd 56c3 5fbe d29f 113d ff3f 52be
00000280: b039 94bd 5d6b 2abe a93b f1bd e068 24bd
00000290: 00bf 5dbc 72d8 08bd 0c66 cf3c 6f65 0b3d
000002a0: 4474 c43c b978 2b3d 07f7 4b3c 2aa3 edbd
000002b0: d442 00bd a551 683c c6af 15bd 4fa5 f83c
000002c0: 71c6 a0bc 1fce 5abc 3a14 8d3c 1136 043c
000002d0: a7e2 01be 62ff dfbc a05b 813c cf94 16bd
000002e0: 06da 233d 5d49 1b3c 5790 02bd 3cac f63c
000002f0: ddd3 173d 6946 e5bc 85e8 3ab8 5daa 5a3d
00000300: e979 0c3d 4d8f 193a 14c1 8a3d 0b6f 03bd
00000310: ae31 d73c ce10 0c3d 757c d1bb aa91 a3bc
00000320: c039 233d e12c e53b 0b2f bdbc 22f0 febb
00000330: 9c08 63bd 9d28 63bc 4948 47bb ef5a acbc
00000340: 2ad4 23bd 8d78 093d 0d5f 723c b56f 47bc
00000350: 7f54 6c3d 4be5 94bd 1c6c fc3b a51d 1d3d
00000360: 590a 2cbd 10cb c23c fde5 463c b00b 01bd
00000370: 6970 f83b 25ac 80bd 4500 dfbd 9f4e 0f3d
00000380: 271c e2bd 3ecb 08bd c2ea cf3c 749d b0ba
00000390: 109f ffbc 0e95 463c ccfd 9abd d35f 9cbd
000003a0: 48a9 be3c 89c3 bfbd fcb0 67bd 66a9 0b3c
000003b0: eb72 833b e018 7cbd 0b50 8b3b 0efc cabd
000003c0: 6cff 8bbd 86c8 5d3d 18e8 a0bd 32af b63d
000003d0: 314e bdbd 9611 64be 7189 7ebd c08a 7fbc
000003e0: bca5 343d 3ac4 b3bc eafe cf3b e513 d43b
000003f0: 4e1e a63d 5939 2cbd 82f3 37be 1b07 61bd

model1.10.conv.bias f4 [16]
0.04667351 0.034599315 0.007383678 0.029031234 0.047400407 0.031088842 -0.0105004925 0.050332382
-0.024957728 -0.028227497 -0.030968187 0.044468064 0.050185557 0.040095452 0.04866108 -0.03938453
00000000: b92c 3f3d 03b8 0d3d c8f2 f13b e9d2 ed3c
00000010: ee26 423d 07ae fe3c 420a 2cbc 5429 4e3d
00000020: 2674 ccbc 5a3d e7bc ffb0 fdbc 2524 363d
00000030: 5f8f 4d3d 213b 243d d750 473d ac51 21bd

model1.10.batch_norm.weight f4 [16]
0.53284955 0.5653679 0.5567824 0.5385002 0.5810647 0.5722759 0.5850793 0.55216604
0.59042466 0.50668865 0.62449026 0.5377874 0.6489375 0.629384 0.6300221 0.4650896
00000000: d468 083f f3bb 103f 4b89 0e3f 26db 093f
00000010: a8c0 143f ac80 123f c2c7 153f c15a 0d3f
00000020: 1226 173f 59b6 013f 98de 1f3f 6fac 093f
00000030: c520 263f 4f1f 213f 2149 213f 3920 ee3e

model1.10.batch_norm.bias f4 [16]
-0.22521667 -0.39173824 -0.4462487 -0.28080907 -0.271996 -0.27345312 -0.4697783 -0.45140618
-0.21011329 -0.47111604 -0.5690676 -0.45375746 -0.63625145 -0.39336985 -0.5011928 -0.2638929
00000000: 339f 66be ea91 c8be b67a e4be 35c6 8fbe
00000010: 0f43 8bbe 0c02 8cbe c886 f0be b61e e7be
00000020: f027 57be 1f36 f1be 6aae 11bf e652 e8be
00000030: 60e1 22bf c667 c9be 2c4e 00bf f81c 87be

model1.10.batch_norm.running_mean f4 [16]
-0.65608686 -0.7658648 -0.73785216 -0.6527143 -0.56872493 -0.5930141 -0.5355784 -0.7051655
-0.727307 -0.8529205 -0.7524931 -0.7048458 -0.74458486 -0.6631005 -0.757202 -0.4656209
00000000: 4ff5 27bf b70f 44bf e1e3 3cbf 4918 27bf
00000010: f597 11bf c6cf 17bf ab1b 09bf ba85 34bf
00000020: cb30 3abf ff58 5abf 63a3 40bf c670 34bf
00000030: 1d9d 3ebf f4c0 29bf fed7 41bf dd65 eebe

model1.10.batch_norm.running_var f4 [16]
0.9062713 0.70160604 0.8015902 0.76933944 0.74041367 1.1204453 0.62426764 0.6423465
1.2173892 0.78237045 0.623846 0.6324694 0.7556272 0.73848325 0.8647773 0.48307034
00000000: 6501 683f 749c 333f 0435 4d3f 6ef3 443f
00000010: c08b 3d3f c06a 8f3f 01d0 1f3f d270 243f
00000020: 69d3 9b3f 6e49 483f 5fb4 1f3f 84e9 213f
00000030: c970 413f 3d0d 3d3f 0c62 5d3f ff54 f73e
