models/encoder_decoder/saved_models/lr_0.0005/epoch_3960.pt (torch, 618274 bytes, 17 tensors)

encoder_1_convlstm.conv.weight f4 [96, 32, 3, 3]
00000000: 9c95 1d3d b96f e13c d5b2 103d 649f bd3d
00000010: c641 ef3d d815 af3d 193e b7bd 08c4 8c3d
00000020: 82a2 be3d 75b4 ab3e 6925 0f3e 58f9 443e
00000030: 0e80 0d3e e098 0e3e 6b4a 6e3e fe7f 79bd
00000040: 4818 033b d49c 433e 6906 03bd 95b7 23bd
00000050: 03ca 1bbe b696 873d 511d 4cbc e295 cbbd
00000060: cb3f 8bbe 737b fbbd f651 b0bd 68d0 253d
00000070: 9523 da3d 1af3 94bd a1a6 a93a 3b5c 77bd
00000080: 7f91 eebd 1a05 2cbd 0304 5fbd 7ab7 f1bc
00000090: 6b3b 62bd 965a c7bc b57e cabd 77e6 dcbc
000000a0: eaeb 27be 5e27 f6bd 58d2 6cbd 598d 603d
000000b0: 43b7 993d d1b7 1ebc e045 2fbd bb08 543e
000000c0: dd88 c43b 38af 94bc a874 9d3d cb88 f0bb
000000d0: c763 9fbd 8c31 683e 04b8 34be cef7 01be
000000e0: b1b2 c73d b147 64bc dd50 7cbc 598c 253e
000000f0: b5cf 75bd e3d7 2bbb 66a8 583e 8236 56bd
00000100: 22ef 393c a5e1 a93d fea8 a6bd 79c0 26bc
00000110: df91 983c 0f93 0a3e 22ed 0c3c daaf 6abd
00000120: 93c5 febc 8937 00be e5bd 083d f84d d6bd
00000130: 07a6 4b3d 6cbf c9bb 8026 27bd ea79 f4bd
00000140: 4859 ecbd 4fc4 97bc 1ce8 00bd 4587 bbbd
00000150: 4a95 173e b86b e53d 7cf7 7f3d db1f 02bd
00000160: d133 aa3c e832 c4bd fd27 e03d 1c15 583d
00000170: b432 983d f6a7 bc3d 890a fabc 8129 0a3e
00000180: ab4f 2abe 712d edbd b523 71bd 7887 3fbd
00000190: 011d 55bc 791b 2bbe 9dea f9bc 8484 a9bc
000001a0: 1739 acbd 8d31 77bd d774 33be fdcd f7bd
000001b0: 6abc bebd 572d 63bd 7d25 0ebd a4e0 ef3d
000001c0: 3c08 6a3c 31a0 28bd 82ff fb3d bde8 363d
000001d0: 4ea7 393c 9d28 553d 7f83 29bd a007 e63d
000001e0: 289f 1d3e 4167 94bd 4701 203d fb96 253d
000001f0: 6aff 133e 752a 403e 835f 0e3e 6465 0b3d
00000200: a369 78bc db7c dabd 1584 9f3d c70d b13d
00000210: d59d 73be 95ad c5bc 5cf7 ddbd e3e3 8ebe
00000220: 755b 1dbd ff42 d73c 7cc7 3c3e 6ad2 ce3d
00000230: 0a69 3dbb 6bd6 2b3e d90e 033d 09f2 8d3d
00000240: e333 fbbd 7f04 f1bd f59b 213d dcf7 523e
00000250: 7888 1b3d 2787 7a3d 6b84 e83d 5e65 7a3e
00000260: 57ae 613e f1f3 423d a618 153d 80ed 4c3d
00000270: 517b f53d dc68 283e b102 bf3d ac5d 393e
00000280: 90a1 7f3e a8f8 ac3c e9d5 f1bc ce23 91bd
00000290: 3099 983e 2260 5f3d e192 cdbd bcc8 92bc
000002a0: c25b 62bd 37d0 79bc 26fd 72bd f19c 8c3d
000002b0: c944 b73d 0ba2 4c3e 1b14 693c f04e 1d3e
000002c0: 5116 5f3d e043 aa3d f1d8 c0bb 8b89 da3d
000002d0: ce7c f7bd c42b 723c e910 03be e478 7fbe
000002e0: 2a70 0ebe b495 e1bc 30ab b9be a814 86be
000002f0: bcb0 0fbe d065 81be 83a5 8e3d 20d6 5e3d
00000300: 3447 efbc 1929 cebd 2f9c 93bd cfcd 9fbd
00000310: 3938 9abd e9ef ba3d 3b2a 07be 91e3 61be
00000320: 8281 c9bd 7746 1bbd 0748 ecbd 2f6b a0bd
00000330: d094 cebd e280 b8bc 1a12 e1bc 7e46 373c
00000340: fa21 ab3c 6470 d83c f577 cfbd abd9 7a3d
00000350: 6906 713d 4d97 463d ab34 113e 2943 373d
00000360: 1134 563d e233 6e3d 0a6c a1bc 286b a1bd
00000370: e31c e6bd 8d59 92bd b463 dd3c efb7 973d
00000380: ef4f ab3c e666 87bd f00d edbd 1ab7 a3bd
00000390: bd3f c8bc 9f62 24be c778 e6bc e1e1 253e
000003a0: 5e7c 8dbd e88d a9b8 1685 72be aaa6 59be
000003b0: c14a 24bd 0950 cfbd 9bde 85bd a9ca 8abd
000003c0: c89c c6bd 59d5 8cbd 32af c2bd 82a1 40bd
000003d0: 2558 f0bd 45df cf3c 05d6 6bbe 6447 28be
000003e0: 87f7 113c de08 37be 9f9d 063b 7381 b7bd
000003f0: c404 ccbd 455d f43b 2a3a 0c3e 70c8 1ebe
0.038472757 0.027519094 0.035326798 0.09258917 0.11682467 0.08549088 -0.08947391 0.068733275
0.0930834 0.33536115 0.13979115 0.19235742 0.1381838 0.13925505 0.23270576 -0.06091308
0.0020003486 0.19102794 -0.031988535 -0.03997 -0.1521378 0.06620543 -0.012458161 -0.09940697
-0.27197108 -0.122794054 -0.08609383 0.040481955 0.10651318 -0.072729304 0.0012943336 -0.060390692
-0.11648845 -0.041997053 -0.054447185 -0.029506434 -0.055232447 -0.024335187 -0.09887449 -0.026965363
-0.16398588 -0.120192274 -0.057817787 0.0548223 0.075056575 -0.00968738 -0.042791247 0.20706455
0.0059977607 -0.018149957 0.07688266 -0.0073405257 -0.07782703 0.2267515 -0.17648321 -0.12692186
0.097508796 -0.013933108 -0.015400139 0.1616682 -0.060012538 -0.0026221208 0.21157989 -0.052298076
0.011348518 0.082949914 -0.081377015 -0.010177725 0.018624244 0.13532661 0.008601459 -0.05729661
-0.03110007 -0.12521185 0.033384223 -0.1046409 0.049718883 -0.0061568525 -0.0408082 -0.11937316
-0.115404665 -0.018526224 -0.031471357 -0.0915666 0.14803043 0.11202186 0.06249188 -0.03176866
0.020776661 -0.09580022 0.10945127 0.052754506 0.07431546 0.092117235 -0.030522602 0.13492395
-0.16631953 -0.11580933 -0.058871944 -0.046760052 -0.013007403 -0.16709699 -0.03050738 -0.020693071
-0.084093265 -0.06034999 -0.1752504 -0.12099836 -0.09313281 -0.05546316 -0.03470372 0.11712769
0.01428419 -0.041168395 0.123045936 0.04465555 0.011331392 0.052040685 -0.04138517 0.11231923
0.15392745 -0.072462566 0.03906372 0.04042719 0.14452901 0.18766196 0.13903622 0.03403224
-0.0151619045 -0.106683455 0.077888645 0.08645206 -0.23790677 -0.024130622 -0.10838196 -0.2790824
-0.0384173 0.026277063 0.18435472 0.10098727 -0.002890172 0.16781013 0.03199658 0.0693093
-0.12265756 -0.11768436 0.039455373 0.20602363 0.037971944 0.061164048 0.11353382 0.24452731
0.22039162 0.047595922 0.03640046 0.050031185 0.11986411 0.1644625 0.09326685 0.18102139
0.24963975 0.021114662 -0.029520946 -0.07086907 0.29804373 0.05453504 -0.100377806 -0.017917983
-0.05526329 -0.015247396 -0.059323452 0.06865872 0.089486666 0.1998369 0.014225985 0.15362144
0.054464642 0.083137274 -0.0058852364 0.106707655 -0.120843515 0.014780942 -0.1279942 -0.2494846
-0.13909975 -0.027537204 -0.36263418 -0.26187634 -0.14032263 -0.2527299 0.069651626 0.054403424
-0.029208757 -0.100664325 -0.07207524 -0.07802927 -0.07530255 0.091277905 -0.13199703 -0.22059466
-0.09839155 -0.037908997 -0.115371756 -0.07832944 -0.100869775 -0.022522394 -0.027474452 0.01118624
0.020890225 0.02642078 -0.10130302 0.06124274 0.058844004 0.048484135 0.14180247 0.044741783
0.05229575 0.058154948 -0.019704837 -0.078817666 -0.112359785 -0.07145987 0.027025081 0.074081294
0.020912139 -0.06611423 -0.11574924 -0.07993908 -0.024444455 -0.16053246 -0.028133763 0.16199447
-0.06908487 -8.08498e-05 -0.23683581 -0.21254984 -0.040110353 -0.10122687 -0.06536599 -0.067769356
-0.096978724 -0.0687663 -0.09506072 -0.047029026 -0.11735562 0.025375018 -0.2303086 -0.16433483
0.008909113 -0.17874476 0.0020540727 -0.08960237 -0.099618465 0.0074574077 0.13694063 -0.15506148

encoder_1_convlstm.conv.bias f4 [96]
00000000: e74b 93bd e8b0 47be d524 b5be cdde 8bbd
00000010: 76c8 abbe eaf2 b2be c830 a5be 51ab e7be
00000020: a803 57be c375 82be 805e bbbe 7f4e 79be
00000030: 5616 3dbe 646c 80be aafd a8be a1c9 02be
00000040: e8dd edbb ce28 00bd 3448 38be d990 9abe
00000050: 87ca bebe 7fd3 79be e3e4 7bbe 2396 25bf
00000060: a0b6 7dbd 9d60 96bd e8f0 31bd 848f 95be
00000070: 0557 33be 7dd9 9abe 60cc 08be f03a cfbe
00000080: 1dce cbbd 15c8 8fbe 232d 8cbe 7134 48be
00000090: ae7f 02be fb0f b5bd 32a6 e1be 471e 9fbe
000000a0: d542 bdbe 1e75 20be 51a5 2c3a 915d 45be
000000b0: 167f 85be 3d7c 17be fdd3 91be 4abc acbe
000000c0: 0977 2fbd b33b bebd 3886 5bbe 2827 73bd
000000d0: 3b44 99be 5cb0 bbbe db55 79be 059d 31be
000000e0: a0c2 3ebd e911 8abe 3cd2 89be 94f8 39be
000000f0: 1552 38bd 4f4a e1bd af37 62be 220d a2bd
00000100: c7ee 0ebc fd94 a1bd 5f75 a7bd f33f 76be
00000110: 3d8c c0be f62e 6ebe 3c25 4bbe 6e05 5cbe
00000120: 02b2 823c c4ff d7bd 8255 0a3d 8a61 1f3c
00000130: 9402 58bd 629e 803d ee42 8e3c e29c 983d
00000140: f598 8c3a 3472 313d 4f88 943d 34bd e73d
00000150: e1ca a9bd 0b77 a03d 0164 c5bd c6b8 b13d
00000160: ea3f 00be 699e d9bd d022 afbd e461 d63d
00000170: c50e 87bc a4d4 29bd 6337 283d d3b1 a4bd
-0.071922116 -0.19501078 -0.35379663 -0.06829605 -0.33551377 -0.34950954 -0.3226378 -0.45247892
-0.20997488 -0.2548047 -0.36595535 -0.2434635 -0.18465552 -0.25082695 -0.3300603 -0.12772228
-0.0072591193 -0.031288914 -0.17996293 -0.30188635 -0.3726389 -0.24397086 -0.24599032 -0.64682215
-0.061941743 -0.07342646 -0.043442637 -0.29211056 -0.17513664 -0.30244055 -0.13359213 -0.40474653
-0.09951422 -0.28082338 -0.27378187 -0.19551255 -0.12744018 -0.08840939 -0.4407211 -0.31077787
-0.3696505 -0.15669677 0.00065859134 -0.19273974 -0.2607352 -0.14793487 -0.28482047 -0.33737403
-0.04283813 -0.092887305 -0.21437919 -0.059363514 -0.29934868 -0.3665799 -0.24349158 -0.17345054
-0.046572328 -0.2696679 -0.2691821 -0.18161231 -0.045000155 -0.11000501 -0.22091554 -0.07912661
-0.008723921 -0.078897454 -0.08176684 -0.24047832 -0.37606993 -0.23260102 -0.19838423 -0.21486446
0.015954021 -0.1054683 0.033772953 0.009727845 -0.052736834 0.06280209 0.017365899 0.07451798
0.0010726737 0.043321803 0.07252561 0.113153845 -0.08290649 0.07835206 -0.09638215 0.08677821
-0.12524381 -0.106259175 -0.08551562 0.1046789 -0.016486535 -0.041462556 0.041068446 -0.0804173

encoder_2_convlstm.conv.weight f4 [96, 48, 3, 3]
00000000: c41e 213e 4a25 8d3d 62bc 4c3d 059b 193e
00000010: 103d 993d 7b91 a03d f48f 66bd d14e 0abd
00000020: c0ae a1bb ced9 893d b458 323e f5b5 6c3e
00000030: 0103 3e3d a8d1 983c 60c0 523e 155f a3bd
00000040: 45e4 abbd 2b77 64bc 22c9 fdbb de14 be3d
00000050: 8649 043e 26ba 613e 2dcc 2dbd ffe5 b6bd
00000060: 0649 053e dc5b 93bd 75ff 86be 836b 1fbc
00000070: 1d28 1dbe 804e 86be b8cf 073e 3587 a53d
00000080: 8882 a9bd 3d8c abbd b8cd df3d b290 edbd
00000090: 5491 163e 3c5b e9bc d619 6cbe be88 6abe
000000a0: 6e6d 58be 8697 15be fae2 913d 24ab 373d
000000b0: 1121 073e f502 1ebe d59b a23d 682d b83d
000000c0: b4cf 1c3e db1c 9b3d 24be 28be 284c 023e
000000d0: 9aee 35be 6b57 5b3d 9ab0 313c ad1c 603e
000000e0: ad3e 3a3e 1f88 413e 6603 063e dd9b bd3e
000000f0: b0e1 2b3c c309 40bd 776b 3d3c 98e7 1f3d
00000100: d909 52bc 420e aebe e178 90be 79bf a1bd
00000110: d079 9e3c 3a06 723e a819 72be 3d31 5dbd
00000120: e659 ba3d 6cd7 7b3d 2a99 e93d 47b1 b63e
00000130: f79a 943e 9a72 753e cb45 3a3e 7139 803c
00000140: 5f3b 03be 2a54 a93c 9a09 ccbb d4be 063e
00000150: 211a 8cbc 3263 5d3e 598e 533e bb61 a5bd
00000160: e8cb bdbd 8903 893d c964 3d3e 68db b8bd
00000170: d3ef 82bc 470d b9bd 5b1b c23c 0784 bfbc
00000180: 98b2 eabc c2ce c93c 4589 f93d 28b3 8d3c
00000190: 6ca8 233e eae0 883e dab7 77bd d68e 623d
000001a0: a36d 98bd a1fb c33a 3296 f0bd bf10 ee3d
000001b0: 9389 993d 8eaf fc3d 0bd7 23be 63a2 23be
000001c0: ade7 15be c5cb 923c 2632 ff3d 2db0 543c
000001d0: 282d f7bc b341 7bbe a3fd 87be a473 96bd
000001e0: 0efc 78bd 63e7 ce3d 60d3 363e 273f 413e
000001f0: 8ae3 d83d 987d 9eba 351b cf3d b9ad a13d
00000200: 7b5d fc3c be3b 0e3d cf07 e83d a2cb 103d
00000210: 8c14 0a3e 5725 2e3e d012 b1bd 992b 873d
00000220: bd95 db3d a497 20be f918 763d 21b0 933c
00000230: 5ff3 a13d 27ab 713e a269 023d 45ff 2cbc
00000240: ccb6 093e 91a8 573e bcb4 d83b a5f3 8c3d
00000250: 6706 5c3e e69f bd3c b74b 5bbe dd79 15be
00000260: fcfb 47bd 39a6 143e 453c 5f39 40f2 0cbe
00000270: 9d72 97bb 500c 61bd 4f45 96bc 8c46 c8bd
00000280: eb18 82be 7fb4 32be 8316 873d a26d 2fbe
00000290: ec9c 19bb c574 e5bd dabc 85be 9a48 b9bd
000002a0: 0c17 6f3d 255e 5fbd 38a0 aa3c 855e 8bbe
000002b0: e193 f8bc 8b83 ff3c 4eab 1c3b 0e9d 0abd
000002c0: 999d 963e 0251 913e 99e2 9abc 1a52 61bd
000002d0: 0561 b2bd 71ff b0bd 2c81 99bd 3116 01bc
000002e0: 9c6c 833d f896 0dbc a78f 83be ca37 58be
000002f0: 3825 5ebe c52a 053d 5c81 c13c 73cc b6bd
00000300: 3a4a 5ebc df59 62bd 9520 b3bd ae1a d63d
00000310: 5700 c83d ed5e 2bbe 32ba 093d 8d2f a63d
00000320: b837 70be 9219 b7be 29d9 0ebe d33c 8a3d
00000330: e9b4 de3d 4c63 c13d 878a d43c 9e95 3f3e
00000340: 6713 cd3d 9d25 d93d 07c6 19be 752e 3cbc
00000350: fafb c4bc 627e ab3d bda7 873e 899d ef3d
00000360: 51b6 11bd a063 2a3e cb1f f83e dd82 353e
00000370: 7b12 283e 5155 4e3e 6753 6c3e 20fa 933d
00000380: cc45 7e3d f03f 193e 0258 1c3e 435c 3f3e
00000390: 9619 9c3d 797e 5b3d 20ae 663c 2cd6 063e
000003a0: f143 b83c 4e5d 89bd 767f 85bc 7430 8ebb
000003b0: 2336 3ebc 2dd0 333e fa3b 5b3e 7e41 a73d
000003c0: 91a8 5d3e 463f f03d 3f45 9ebd 8305 ad3d
000003d0: f0c4 f13d 3be4 283e 3b50 6dbd d83f 9b3d
000003e0: d5a7 f63d f7b8 0bbe de3d 57bc 9d91 78bd
000003f0: 814f a43d 5fb5 673e 8ab2 923e 452a 9d3d
0.15734392 0.06891878 0.049984343 0.15000542 0.0748235 0.07840248 -0.05628963 -0.03376657
-0.004934162 0.06730996 0.1741665 0.23116286 0.046389583 0.01865466 0.20581198 -0.0797712
-0.08393148 -0.0139444275 -0.007744924 0.09281324 0.12918672 0.22043666 -0.042431045 -0.08930587
0.13016137 -0.07195255 -0.26366773 -0.009730223 -0.15347333 -0.26231766 0.13262832 0.08082429
-0.0827685 -0.08376358 0.109279096 -0.11599864 0.14703876 -0.028485887 -0.2305673 -0.22903726
-0.21135494 -0.14608583 0.071233705 0.044840947 0.13196208 -0.15430816 0.07939879 0.089930356
0.15313607 0.07573863 -0.16478783 0.12724364 -0.177668 0.053550165 0.010845328 0.21885939
0.18187971 0.18899582 0.13087234 0.37032977 0.01049082 -0.04688431 0.011561266 0.039039224
-0.012819731 -0.33995253 -0.28217223 -0.07897849 0.019345194 0.23635188 -0.236426 -0.054002035
0.09099178 0.06148474 0.11406167 0.35682127 0.2902448 0.23969498 0.18190686 0.01565239
-0.12815617 0.020670015 -0.0062267305 0.13158733 -0.017102303 0.21619871 0.2065977 -0.08075281
-0.09267408 0.066901274 0.18495478 -0.090262234 -0.015983498 -0.090357356 0.023694685 -0.023378385
-0.028649613 0.024634723 0.12184385 0.017297342 0.15982217 0.26734096 -0.06047807 0.055312
-0.074427865 0.0014952311 -0.117473975 0.11624288 0.07496943 0.12338172 -0.16000001 -0.15979914
-0.14639159 0.01791943 0.12460737 0.012981457 -0.0301729 -0.24536781 -0.26560697 -0.073462754
-0.060787253 0.10102727 0.1785407 0.18871747 0.10590275 -0.0012091873 0.10112611 0.07894463
0.030806294 0.034724943 0.11329614 0.03535045 0.134844 0.17006432 -0.08646166 0.066001125
0.1072192 -0.15682846 0.06008241 0.01802832 0.079077475 0.23600446 0.03183902 -0.010558908
0.13448638 0.21060397 0.006613342 0.06882409 0.21486817 0.023147535 -0.21415602 -0.14597268
-0.048824295 0.14516534 0.0002128939 -0.13764286 -0.0046218173 -0.054943383 -0.018343596 -0.09779081
-0.25409636 -0.17451666 0.06596091 -0.17131665 -0.002343948 -0.11203913 -0.26120645 -0.09047051
0.05837159 -0.054533143 0.020828351 -0.2722055 -0.030343952 0.031190654 0.0023905816 -0.033841185
0.29417112 0.28382117 -0.018906878 -0.05500994 -0.08709911 -0.086424716 -0.07495341 -0.007878826
0.064172 -0.008641951 -0.25695536 -0.21115032 -0.21693885 0.03251149 0.023621254 -0.08925714
-0.013567502 -0.05526149 -0.08746449 0.104543075 0.0976569 -0.1673543 0.033624835 0.08114538
-0.23458755 -0.35761696 -0.13950028 0.067498825 0.108743496 0.094427675 0.025944961 0.18709418
0.10013466 0.10602877 -0.15016948 -0.011485686 -0.024045933 0.08373715 0.26495162 0.11699969
-0.03557426 0.16639566 0.48461756 0.17725702 0.164133 0.20149733 0.2307869 0.07225442
0.062078282 0.14965796 0.15267947 0.18687539 0.07622068 0.05358741 0.014079601 0.13167638
0.022493334 -0.067072496 -0.01629613 -0.004339272 -0.011609587 0.17559882 0.21409598 0.081667885
0.21646334 0.117308185 -0.077280514 0.08448317 0.11805141 0.16493313 -0.05793784 0.075805366
0.1204373 -0.13644777 -0.013137309 -0.060685743 0.08022977 0.22627781 0.2865184 0.07674078

encoder_2_convlstm.conv.bias f4 [96]
00000000: 08c0 823d 3e01 31be 4bb0 7c3d 9943 7e3d
00000010: 45a8 0bbc e412 5fbd a81d a03d 8204 143e
00000020: a669 07bc 7e2a cb3d 74f3 993e c6ba 11bd
00000030: f5a6 ba3d 497c cf3d 4e42 c63d 77c5 3cbd
00000040: ecc0 f63e 9eb2 403e ac15 61bd bd4c 8b3e
00000050: d9da a5bb 451e df3c 8563 cb3d 0cfe 963d
00000060: a22f 6cbd 21dc 7ebe 6563 053d a983 003d
00000070: 15c5 afbd 7e95 cdbe 9873 7e3c ef12 a33d
00000080: 952e bfbd 18ab 86be d1ec d6be 9c57 d1bd
00000090: a485 59bd 127c 05be 6a6b 98be a19e 213d
000000a0: 3b9c 3bbe fbe5 c1be ff37 3ebd dafc abbe
000000b0: 95ba 9e3d 7b66 4dbb fac9 173d a62e b4bd
000000c0: 0f63 983d ec24 02be 79b8 d13d 6629 c53d
000000d0: fae1 f63d 6d53 78bd 4804 de3d 0e40 e53d
000000e0: 442f 3cbd dbc2 683e 62bf 673e 6eff 993d
000000f0: 4ae9 a63d 37b0 0e3e 9ee6 243d ffb9 1dbc
00000100: 7c00 853e c402 f43d cf38 bd3c 9a18 bc3e
00000110: 166c c33d a8ca 533d e69e c13d 78c3 5b3d
00000120: 0932 3fbc e595 1cba fe87 133b 72d4 34bc
00000130: a35e 723d 793e a8bb 3f93 0d3d 945f a2bd
00000140: caaa 8abc 9810 113e a028 3a3d db7f 863d
00000150: bff2 54bd 535b 59bd ddf6 de3c ea60 5ebd
00000160: 1c87 98bd 0cc7 2a3d 8873 10bd 3655 91bc
00000170: 70c5 15bd 8b01 2abc e134 fb3c 5752 b23d
0.06384283 -0.1728563 0.061691564 0.062076185 -0.008524005 -0.054461375 0.078181565 0.14454845
-0.008264935 0.09920214 0.30068552 -0.03557851 0.09113876 0.101311274 0.09680615 -0.046086755
0.48194063 0.18818137 -0.05495231 0.27206984 -0.005061489 0.027236113 0.09931091 0.07372674
-0.057662614 -0.2488866 0.032565493 0.03137556 -0.08582512 -0.40153116 0.015530489 0.07962596
-0.09335057 -0.2630241 -0.41977552 -0.10221788 -0.053105965 -0.1303561 -0.2976945 0.03945792
-0.18321316 -0.37870774 -0.04644012 -0.33591348 0.077504314 -0.00313416 0.037057854 -0.0879796
0.07440769 -0.12709397 0.102402635 0.09627037 0.1205482 -0.060626436 0.1084066 0.11193858
-0.045943514 0.22730581 0.226316 0.075194225 0.08149965 0.13934408 0.040258996 -0.009626864
0.25976932 0.1191459 0.023098378 0.3673752 0.095421 0.05170694 0.094541356 0.05365321
-0.011669644 -0.0005973264 0.0022511478 -0.011036979 0.059172284 -0.0051344004 0.034564253 -0.07928386
-0.016927142 0.14166486 0.0454489 0.06567355 -0.051989313 -0.05306561 0.027217323 -0.054291643
-0.07447645 0.041693732 -0.03526643 -0.017740827 -0.036565244 -0.010376344 0.030664863 0.08707111

batchnorm1.weight f4 [24]
00000000: 71ec 983f b104 de3f 3b17 a23f eeca 8a3f
00000010: 362c 823f ab00 f93f 5fef 5d3f df53 963f
00000020: 5e70 a13f 9217 c43f d9a6 f23f b65c c83f
00000030: a9da a93f 3b74 d03f 4acc a13f 0524 973f
00000040: 0b51 be3f 2f9a b93f 9b2a 843f 1412 af3f
00000050: 5467 583f d672 6a3f 043f 913f d920 c63f
1.1947156 1.7345182 1.2663339 1.0843179 1.0169742 1.9453329 0.86693376 1.1744345
1.2612417 1.5319693 1.8957168 1.5653293 1.3269855 1.6285471 1.2640469 1.1807867
1.4868482 1.4500178 1.0325502 1.3677392 0.84532666 0.91581476 1.1347356 1.5478774

batchnorm1.bias f4 [24]
00000000: 325d 8ebd 7f02 fabd 2b31 78bd 2da2 993d
00000010: 9028 92be 66f4 31bc 68db 7ebc a285 9dbc
00000020: b9cc 693e 18c9 543d 7f06 cfbc 4ba2 203d
00000030: 752d f43d 2093 29be 451a 323e d89d d5bc
00000040: fc46 0fbc bca6 4cbc 5eec 4d3d 9615 8b3d
00000050: 8165 1f3c 987f 88be 538b 27be 83de 16be
-0.06951369 -0.12207507 -0.060593765 0.07501636 -0.28546572 -0.010861492 -0.01555524 -0.01922876
0.22832002 0.05194959 -0.025271652 0.039217275 0.11922733 -0.1656003 0.17392834 -0.026076242
-0.008744951 -0.012490924 0.050274245 0.067912266 0.00972879 -0.26659846 -0.16361742 -0.14733319

batchnorm1.running_mean f4 [24]
00000000: 9f46 ecbd 75af 6c3b ade6 99bd 22df 663d
00000010: 1e6f 39bc e444 61bc 233e c0bb 5be6 55be
00000020: ec8f d6bc 4fbf 423d 4710 7839 19b9 4c3d
00000030: a547 1a3c 43ab 8fbd c5a8 d13d 1c49 503b
00000040: 42d9 ecbb f2e4 caba 6b1c f33d f894 0e3c
00000050: 8e69 19bc 5279 093e a82a 2e3e 76a4 3d3e
-0.115369074 0.0036115323 -0.07514701 0.05636514 -0.011317996 -0.013749335 -0.0058667823 -0.20888655
-0.026191674 0.047545727 0.00023657187 0.04998121 0.009416495 -0.070150875 0.10237268 0.0031781858
-0.0072280476 -0.0015479608 0.11870655 0.008702509 -0.009363545 0.13425186 0.1700846 0.18519768

batchnorm1.running_var f4 [24]
00000000: 1d9f 413d 412a c53c 340d 0b3d 05aa 573d
00000010: 71f2 8a3d d686 bd3c 2de0 143d 21b4 243d
00000020: 4106 753d 0912 d53c 5e39 ef3a 755c 503d
00000030: bce4 523d 1839 153d db4a 143d 8b26 a33d
00000040: a808 ce3a d3a5 133b aa99 c73d 4404 343b
00000050: ec5d 843d 339f b13d 6dc5 623d fd47 403d
0.047270883 0.024068 0.03394814 0.052652378 0.06784523 0.023135584 0.036346603 0.040210847
0.059820417 0.026009576 0.001825135 0.050869424 0.05148767 0.036431402 0.0362042 0.07966336
0.0015719132 0.002252926 0.09746106 0.0027468363 0.06463227 0.08672943 0.05536406 0.046943653

decoder_1_convlstm.conv.weight f4 [96, 48, 3, 3]
00000000: 70cc b33a eb39 8cbb 6dd0 2e3c eefa 43bd
00000010: 8663 babc 64ac de3c 4e64 f43b 0aa6 e73a
00000020: 7b12 8cbb b2f2 cf3c 0589 303c 92bf 2f3d
00000030: eb51 1a3c ba7c 003d 5cbe adbc 20e4 1cbb
00000040: 9836 dd3c fd15 b93c c10a 4f3b 0d70 b53b
00000050: e969 ab3c 5f50 09bd 5982 41bd 6b10 de3b
00000060: e9be a93a 14d9 073c 8190 9abb 48be 02bd
00000070: 33ef 953c 9a03 923b bc4e 95bb f16a 023d
00000080: 611c 173d 89c7 b9bb 8cb0 9a3c 208f 4c3d
00000090: b09f 913a fdfc ac3b 4675 063d f917 5fbc
000000a0: e52d 1abd 74f8 6dbd 699f 35bd 881b 35bd
000000b0: d817 6dbd d2fa 9cbc 9902 91bb d446 c1bc
000000c0: de07 64bc c05e 33bd 80ed 84bb 7f4d 6cbb
000000d0: e1e5 c13b f5dd 8abb c381 71bb 1e7e e13c
000000e0: a618 813c c5d1 083d 9648 bc3c 44ca 5c3c
000000f0: 2874 8ebd bac1 ddbb 5215 4b3d c298 333d
00000100: 6545 943c c46c 7c3c cf84 213d 9381 7ebc
00000110: cf72 a23d a2d2 8f3d 1e19 493c f6a2 423d
00000120: 5a7d 58bd 88bd 2abd 7da2 14bd edf9 87bd
00000130: 4009 10be b122 19bd ae6b 80bb 6d92 97bc
00000140: d7ff 82bd eff0 88bb 5ca3 7abc c1e0 21ba
00000150: 2c12 c5bc 1b15 323c fa4a bebb 640d 263b
00000160: e52d 28bc 20b9 a6bc 1021 593c 3147 023c
00000170: 3122 393c 1b40 e7ba 5129 fb3a d736 533c
00000180: 5218 75bb bcac 89bc 9b5f 53bc 480c 8c3c
00000190: 00d6 e03c 3ecd a33c f4ef 283d 1967 153d
000001a0: d9c1 a83c 9230 3fbc ffd3 07bb 1f12 c83c
000001b0: 4628 a9bb 3aa0 93ba da87 8abc 7ea2 5c3d
000001c0: c596 ac3c d330 cfbc 74fc 9abc 0265 9ab9
000001d0: 0111 1d3d 8b5f 84bc 4a93 94bb 1916 9fbc
000001e0: e9f4 09bc bb6d 06bd c950 11bc f46a 84bc
000001f0: 1bff c13a 1520 3bbb 22c5 3e3c 3110 84bc
00000200: e6bc a5bc 1580 863b f416 10bc d4f1 90ba
00000210: de00 4cbc de5e 2e3c 04ee 35bb b166 1d3d
00000220: 224f 273c c28f 703d 3aa6 413c d0e2 013d
00000230: f62f 3f3d 3b0a eabc 8b7d 90bb 5b2d 103d
00000240: fcfd 10bc fec6 2abc bd7c afbc 31c2 4c3c
00000250: 8fc7 57bc 1f62 b0bc ef03 c73b 82ba 3e3d
00000260: 5615 c3bb c2a9 c43c e76d 113c a0cd cfbb
00000270: 1736 9dbc 1cce 6cbc 9139 b63c ff3d 7a3a
00000280: 1090 cfbc 7fb1 9cbc 3539 453d 4ffe 903c
00000290: e8ab d4ba cecf cdbc ab5d cebb 0938 703c
000002a0: a736 be3c 5bcc 86bd 0319 2b3d 0b48 4abb
000002b0: c476 92bc 2bc5 8fbc 4f3e 393c a4e8 e9bb
000002c0: 6d04 90bc f8c0 e43c 1bd6 963c c38a 003c
000002d0: ca98 6abd 0dbd b7bc 3db2 003d 774d 073d
000002e0: b04b c73c af2c 553c 236d d03a f487 813d
000002f0: 9227 1ebe fcc9 923c ec52 c2bb cc98 523c
00000300: ef9e edbb 7816 413d b531 033c b5c6 523b
00000310: 8aa1 043c 63fa 4e3c b591 4dbd dd5d ac3c
00000320: 0284 1ebd 058e 37bd f04a c1bb 7bab 2abd
00000330: 5354 33bd 4817 39bd 207e 3abc b318 fbbb
00000340: 91f5 41bc 67ad 7fbc f041 4dbd a395 aa3b
00000350: 4cd0 8bbc 46fd c4ba 9ce6 173c 2373 123c
00000360: e15a 373e 73a1 82bd 8e44 3ebd fec4 773b
00000370: d2af 14bd e8ec 1b3d 3f2e a23d 4fb9 123e
00000380: 8324 753d 5f60 33be a0eb 4abe 367a b13e
00000390: b96d 4e3d 105f 01bd 6280 253e cbd0 3a3e
000003a0: eb64 cc3d d239 573e c751 06be 23aa 863d
000003b0: 7d11 6a3e 5db8 4a3d 2723 df3d 1bdf 0b3e
000003c0: 34fc 263e c27c 5a3e b912 783d 5dfb c9be
000003d0: 01eb 09be f737 263e 3475 52bd ea26 5c3d
000003e0: d04d 3c3e 39d5 333d dd66 223c bf96 8abe
000003f0: d5e1 223e 3a1c b9bd 606a b7be 318f c4bd
0.0013717543 -0.0042793653 0.01066981 -0.047846727 -0.022752535 0.027181812 0.0074582463 0.0017673385
-0.004274664 0.02538428 0.0107748555 0.042907305 0.009418945 0.03136895 -0.021208934 -0.0023939684
0.027003571 0.022593493 0.0031592103 0.005537039 0.020924525 -0.033523913 -0.04724345 0.0067768595
0.0012950572 0.008291502 -0.0047169332 -0.031919748 0.018302536 0.0044559957 -0.004556505 0.03184027
0.0368923 -0.0056695384 0.018883012 0.049941182 0.0011110213 0.005279182 0.032826684 -0.013616555
-0.037641425 -0.05809827 -0.04434148 -0.04421571 -0.057884067 -0.01916257 -0.0044253585 -0.023593344
-0.013917891 -0.043791533 -0.0040566325 -0.0036056933 0.0059172963 -0.004237885 -0.0036851026 0.027525958
0.015758824 0.033403177 0.02298383 0.013475958 -0.06955749 -0.006767479 0.04958088 0.043846853
0.018099496 0.015406791 0.039433297 -0.015533823 0.07932054 0.07022597 0.012274055 0.047518693
-0.05285392 -0.041684657 -0.036287773 -0.066394664 -0.14066029 -0.0373866 -0.0039190864 -0.018502438
-0.06396454 -0.004179112 -0.015297737 -0.00061751535 -0.024056517 0.01086929 -0.0058072777 0.0025337571
-0.010264848 -0.020351946 0.013252512 0.007951544 0.011299656 -0.0017643006 0.0019162094 0.012891493
-0.003739853 -0.016805999 -0.012901212 0.0170957 0.027445793 0.019995328 0.041244462 0.036475275
0.020600246 -0.011669295 -0.0020725725 0.024422703 -0.0051622717 -0.0011262961 -0.016910482 0.053865902
0.021067986 -0.025291836 -0.018919207 -0.00029448426 0.038346294 -0.01615884 -0.00453416 -0.019419717
-0.008420208 -0.03281949 -0.008869358 -0.01616428 0.0014800759 -0.0028553058 0.01164368 -0.016121002
-0.020231675 0.004104624 -0.008794535 -0.0011058399 -0.012451379 0.010642735 -0.0027760277 0.038428012
0.010211738 0.058730848 0.011819417 0.031710446 0.0466766 -0.028569331 -0.004409497 0.035199504
-0.008849617 -0.01042342 -0.021421785 0.012497471 -0.013170137 -0.021531163 0.006073467 0.046564586
-0.005953471 0.024006728 0.0088763 -0.006341651 -0.019190831 -0.014453437 0.022244247 0.00095459813
-0.025337249 -0.019127605 0.04815026 0.017699389 -0.0016225548 -0.025123503 -0.006297787 0.014661797
0.02321942 -0.065819465 0.0417719 -0.0030865695 -0.017878897 -0.017550072 0.011306359 -0.0071383286
-0.017580235 0.027924046 0.01841264 0.007845583 -0.057274617 -0.022429014 0.03141998 0.03303286
0.024328083 0.013011142 0.0015901666 0.06324759 -0.15444782 0.01791858 -0.005930295 0.012853812
-0.0072516124 0.04714057 0.008007457 0.0032161896 0.008095155 0.012632939 -0.050187785 0.021040851
-0.03870011 -0.044813175 -0.005898826 -0.041667443 -0.04378159 -0.04518822 -0.01138261 -0.0076628565
-0.011838333 -0.015605307 -0.05011171 0.0052058264 -0.017067097 -0.0015029095 0.00927129 0.008938584
0.17905761 -0.0637845 -0.046452098 0.0037806625 -0.036300488 0.03806773 0.07918977 0.14328502
0.059849273 -0.17517231 -0.19816446 0.34663552 0.05039761 -0.0315848 0.16162255 0.1824371
0.09980186 0.2101815 -0.13117133 0.0657542 0.22858234 0.04949223 0.10895377 0.13659327
0.16307145 0.21336654 0.06056473 -0.39449587 -0.13468553 0.16232286 -0.051381305 0.05374805
0.18389058 0.043904517 0.00991222 -0.27068135 0.1590646 -0.09038587 -0.35823345 -0.09597624

decoder_1_convlstm.conv.bias f4 [96]
00000000: 08da 123d dbee fe3d f331 2d3e b348 933e
00000010: 2c8e 56bd 7abe d0bb 3c66 dd3d a50b ecbb
00000020: 6583 8abc 1c56 353e 1254 f7bd 5934 92bd
00000030: 3344 52bd e601 15bc 0273 8a3c ac24 fabd
00000040: d288 153e ca84 cfbb 06d0 0b3b e608 143d
00000050: b2f2 91bd d43f b9bd f8f4 3fbd 1024 a83c
00000060: d2fe 2d3e 10f8 3a3d 430c 933e 7801 2e3e
00000070: af7a 96bd 196e 6ebd 0875 063e e5f0 4f3d
00000080: 166f a63b a76e 913d 9d78 6abd 8fa9 17be
00000090: 4d48 0dbe 8c1a 1c3e 066f c23d 89de 373d
000000a0: b75c 42bc b8d3 9bbd 56c2 99bc c525 4ebd
000000b0: 7bda d7bd 5263 233e 5d0f ccbd 9392 263d
000000c0: ebe6 0d3e 54fe 023e 46d0 783e 6f75 c23e
000000d0: d8fc 69bd cbea 003e 7afe 3a3e beb7 be3d
000000e0: 7250 1a3e ee19 7a3e dead 87bc d63c 883c
000000f0: fa53 ad3d f01e 5d3d 20c5 b13d bffc 43bc
00000100: 3bfe d53d 92b5 053e c778 923d 3748 873d
00000110: 8bde 4ebd 9c63 a93c 85a3 913c 6a2e 913d
00000120: 6b89 c2bd 0e5d aa3d f90d 7f3b 76fa aa3d
00000130: 069f eb3b 565c fbbc c93c 6ebe 7322 fcbd
00000140: 971b 863d 750d 0abe 1c24 cdbd 0c3d 473e
00000150: c65c 543e 8a63 a2bd 48d4 323d f39f 62bd
00000160: b6b7 773e a3b1 90bc 5c51 053d 7c67 33be
00000170: 5984 9d3d 8db2 d6bd c8b6 dd3d 3d5a dd3c
0.035852462 0.12447902 0.16913585 0.28766403 -0.05238168 -0.006370363 0.10810515 -0.0072035366
-0.016908357 0.1770863 -0.12076582 -0.07138891 -0.05133457 -0.009094691 0.016900543 -0.12214026
0.14602974 -0.0063329684 0.0021333708 0.0361413 -0.071263686 -0.090453774 -0.04686448 0.020525008
0.16991737 0.045646727 0.28720292 0.16992748 -0.07347619 -0.058210466 0.13130581 0.050766844
0.0050791604 0.071011834 -0.057243932 -0.14810775 -0.13797112 0.15244502 0.09493832 0.04488996
-0.011862925 -0.076087415 -0.018769424 -0.05032899 -0.10539719 0.15955856 -0.09963868 0.040667128
0.1385762 0.12792331 0.242982 0.3798022 -0.057125896 0.12589566 0.18261138 0.0931239
0.1506975 0.24423954 -0.016562399 0.016630571 0.08463283 0.053984582 0.08680177 -0.011962115
0.10448881 0.13057545 0.07151943 0.06605571 -0.050505202 0.02067738 0.017778168 0.07088931
-0.09498867 0.0831853 0.003891824 0.08348553 0.007190588 -0.030683678 -0.23265375 -0.12311258
0.06548231 -0.13481696 -0.10016653 0.19456881 0.20738515 -0.07929142 0.04365948 -0.05532832
0.24191174 -0.017662829 0.032548293 -0.17519945 0.07691259 -0.104832746 0.108258784 0.027020568

decoder_2_convlstm.conv.weight f4 [96, 48, 3, 3]
00000000: ebce 163e cdc1 59bd f1bf e63c c936 86bd
00000010: 4a12 f43d 4430 02be 7242 c6bd 7b48 abbd
00000020: d03c 113b fb33 1abe c2cf 85bc b294 48be
00000030: c25d 043e 38c9 103e d4b2 14bc 4b11 e9bc
00000040: 82b4 01be 960b f4bd cb01 533d 50be a63c
00000050: cc1d 42be da92 8dbd e464 15bd 19db 333d
00000060: 2864 e13d 6a93 423e bfa6 8fbc 6c6c 143d
00000070: a766 563d edf5 36bd 3754 853d 6d12 2ebc
00000080: a005 11be 3686 85be 9354 0f3e bd03 2cbd
00000090: f661 253d 7c83 a83d 7338 99be 6b34 923e
000000a0: 0525 243d 8cdc b7bc 1f0d fbbd cfb2 213e
000000b0: f2c0 00bd 1c96 333e 28c7 253e a3f9 a4bc
000000c0: 3f5e 7d3d d879 463d 7f1c 1ebe ab60 fb3d
000000d0: eeaf f6bc f00a 00be 3301 ff3c 7ff7 b1bd
000000e0: 4500 1ebe b354 7d3d c2da d0bd 24d7 6a3e
000000f0: 8619 353e 9b17 6ebc 8984 c13d f55a b03e
00000100: 2c50 64be a7be 06be f0e5 cb3d 7122 99bc
00000110: e91c 22bc a51f fa3e 8c6e c43d 8708 9b3d
00000120: ea4d e0bd fe6e 453e 60dc 2e3e e364 b1bd
00000130: 3c06 d1bd 97e2 7c3d 1809 dd3d 1b0e 60bd
00000140: 83b3 193e 1495 36bc 60d1 43bd 075a 87be
00000150: c6f3 9c3c 8693 e33d 98e2 443d 36cd 0a3d
00000160: cec0 84bd 289b f93d ba78 cebd df7a 803e
00000170: 5172 883e 93a7 1cbe ceab 02be 54eb 25be
00000180: 986c b6bd 6ee9 60be e0ac 9b3e 4d21 c0be
00000190: 0dda bcbd c27b 9d3c a664 66be 290b 98be
000001a0: 7765 1fbe 4e4a 04bd ef79 963d 182e f8bd
000001b0: 9460 78bd fd7c b4bd 5b1b 543d c399 9e3e
000001c0: 320b 3a3e 4a34 0b3e 280b 7d3d 85f4 35be
000001d0: a4ec 98be f9a1 d43d 9ff7 703e 229d 4c3d
000001e0: e3d2 85be a771 f33c 160c d8bc 5a16 b4bd
000001f0: 3e91 cdbe 5a79 24be 5cd3 c83c f7d8 be3d
00000200: 990e f73d 507f 5a3a 5fb4 adbc 2920 aebe
00000210: d66f 12be d646 65bc 2ace 50bd 35da 3a3e
00000220: fd82 fabd 4dae 9fbe 8baf 843e 19ae c33e
00000230: 4140 c2be 3338 d5bd 2f8b d63c 0cbd c6bd
00000240: 9b58 603d e1d7 523d 163d fd3d a0d8 ab3d
00000250: 67e5 e53d d6bc b8bd ea8e 093e b54d 4dbe
00000260: 45af 59bd e01b 0c3d 566a 963d bdba 863e
00000270: cf67 7e3d 8b7e 003e 69ea 1e3e a446 383e
00000280: 8646 26be d9f8 3fbe 4b56 183c 27c0 1cbe
00000290: 5e76 fe3d feb6 293e 8b48 0abe 855b b13e
000002a0: 18a2 60be 5e06 4b3e 13f5 6f3e 798a dc3d
000002b0: aea7 783e 40a0 1e3d 41fd 5ebd c7a3 4d3e
000002c0: 699e a73e 4ee3 13bd cfe5 ccbc 798a 963e
000002d0: 728d 82be 2ac9 363d f328 f33e 90bf d4be
000002e0: e949 a2be f9f1 de3d ad27 c1be aa73 a9bb
000002f0: c8ea 10be 9462 ed3d 6ccb d1bc 52a2 d9bd
00000300: e3f7 17be 96ab dcbd da4a f2bd 1da4 513d
00000310: f1bc a2bd 7c22 20bd 398f 2c3e dea8 25be
00000320: 35ca ec3d 733b 4cbd b9bf 54be 14a2 fb3d
00000330: f46b aa3d 34ee 5d3d 1d9f cebd 5b31 eb3d
00000340: 5687 bd3d 45fc ef3d 7889 d93d 0ab5 063e
00000350: 5dca d43c 7804 0f3e 2178 7ebe 778d 883d
00000360: 0d0a a33e 9505 9bbd 0d56 a2bc fd00 ce3c
00000370: f5b0 38bd c036 05be 54b3 12be c471 be3d
00000380: 10f7 9cbe b69d 6c3e a81b 88bd 55a5 14be
00000390: 64dd 753e a96e 783e 3fa3 f73d 1e2a 07be
000003a0: f9df 3abd 19fe 93be 242d a4bd 7759 8c3e
000003b0: 2578 65bd 9468 173e f1f2 3cbd 72ac 4e3d
000003c0: 59b5 5c3e 692e 8a3e b4c8 0ebf 7323 1bbf
000003d0: 3be4 87bc 1b3f 1d3d 1d03 8cbe 7bed 67be
000003e0: dba3 e7bb ae19 cfbe 5d67 2d3e ef57 253e
000003f0: 59fd 39bd d97e 24be b387 c6be c596 a63c
0.1472737 -0.05316334 0.028167697 -0.06553418 0.11917551 -0.12713724 -0.09680642 -0.08363434
0.0022161491 -0.15058891 -0.016334418 -0.19587973 0.12926391 0.14139259 -0.009075839 -0.028450629
-0.12666515 -0.11916272 0.05151538 0.02035442 -0.18956679 -0.06912775 -0.03647317 0.04391012
0.110054314 0.19001547 -0.017535565 0.03623621 0.05234399 -0.044668127 0.06510203 -0.01062451
-0.14162302 -0.26078957 0.13997106 -0.041995753 0.040376626 0.08228204 -0.2992588 0.28555617
0.040074367 -0.022444032 -0.12258362 0.15790866 -0.031434007 0.17537731 0.16189253 -0.020138567
0.06185746 0.048456043 -0.15440558 0.12274297 -0.030113187 -0.12504172 0.031128502 -0.08689784
-0.1542979 0.061848354 -0.10197975 0.22933632 0.17685518 -0.014531995 0.09449107 0.34444395
-0.22296208 -0.13158666 0.099559665 -0.01869318 -0.009894588 0.48852268 0.09591398 0.07569986
-0.10952361 0.19280621 0.17076254 -0.08661821 -0.10206267 0.06173953 0.1079275 -0.054700952
0.15009885 -0.011143941 -0.047807097 -0.26435873 0.019159209 0.11112122 0.04806766 0.03388711
-0.06482087 0.12187797 -0.100816205 0.25093743 0.26649716 -0.152983 -0.12760851 -0.16203052
-0.08907431 -0.21964046 0.3040533 -0.37525406 -0.092212774 0.019224051 -0.22499332 -0.29696015
-0.1556605 -0.032297425 0.07347476 -0.12118167 -0.06063898 -0.08812902 0.0517839 0.30976686
0.18168333 0.13594165 0.061778218 -0.17769058 -0.29868042 0.10382456 0.2353196 0.04995454
-0.26137456 0.02971728 -0.02637295 -0.08793326 -0.40149873 -0.16061917 0.024514847 0.093187265
0.12063331 0.0008335011 -0.021204172 -0.3400891 -0.14300475 -0.013993939 -0.050977863 0.18247302
-0.12232015 -0.31187668 0.2591518 0.38218763 -0.37939647 -0.1041111 0.026189415 -0.097040266
0.054772 0.05147541 0.12365167 0.08390927 0.11225396 -0.090203926 0.13433424 -0.20049174
-0.053145666 0.03420627 0.07344501 0.26314345 0.06211072 0.12548272 0.15519108 0.17995697
-0.1623784 -0.18747272 0.009297918 -0.15307675 0.124249205 0.16573712 -0.13504235 0.34640136
-0.21936834 0.19826648 0.23433332 0.10768599 0.24282715 0.038727045 -0.05444074 0.20082007
0.32738045 -0.036105447 -0.025011925 0.2940252 -0.2549854 0.04462544 0.4749218 -0.415524
-0.31697014 0.10885996 -0.37725583 -0.005171259 -0.14152062 0.11591068 -0.025609694 -0.10626663
-0.14840655 -0.10774915 -0.11830683 0.0511819 -0.07946194 -0.039095387 0.1685151 -0.16177699
0.115620054 -0.049861383 -0.20776261 0.12286773 0.08321372 0.054182246 -0.10088942 0.11484023
0.09254329 0.117180385 0.10621923 0.13154998 0.0259754 0.13966548 -0.24850513 0.06667607
0.31843606 -0.07569424 -0.019816423 0.025146956 -0.045090634 -0.13009167 -0.14326221 0.09299043
-0.30657244 0.23107037 -0.066459 -0.14516194 0.24010235 0.24260963 0.120916836 -0.1319966
-0.045623753 -0.289048 -0.080164224 0.27412006 -0.056022782 0.14785987 -0.046130124 0.050457425
0.21553554 0.26988533 -0.55775 -0.60600966 -0.016588321 0.03839026 -0.27346125 -0.22649185
-0.0070690936 -0.4044928 0.16933961 0.16146825 -0.045407627 -0.16064014 -0.38775405 0.020335564

decoder_2_convlstm.conv.bias f4 [96]
00000000: aea8 83be c7c0 bcbe 30fa 7bbe f6df b5bd
00000010: 84ef 0bbe 5e76 15be 65b7 2cbe 7f04 dcbd
00000020: ece0 f0bd 280e a2bd a058 34be c0dc 35be
00000030: 6e3f a0bd eea9 9fbd 701a 02be 002c 6cbe
00000040: 4d8c f8bd 17bf 9abe f2d9 f3bd 4be3 30be
00000050: f84d 36bd 8b1e 63be e13d cebd d1b6 11be
00000060: 3bff 523d 9c10 193e 689b 02be 1c09 16be
00000070: 2b42 a2bc f11f 14bd 4af4 883d bb87 5f3d
00000080: 84cd e2bb 37d4 8fbd 89cc e9bd 2dc8 d9bd
00000090: 40b5 1f3e b98f a23b 5d65 9c3d 2087 04be
000000a0: d760 773d 66b4 423d 3ea1 8b3a 2d17 7fbd
000000b0: 6563 973d 7e4f 933c 38f5 b13d 8105 903d
000000c0: 6f27 43be 2b60 53be e430 a3be b693 84be
000000d0: cd7e fd3c 278e 81be 2f1d 24bc e33c 80bd
000000e0: ab24 5dbd 0661 00be fdb2 e4bd e088 00be
000000f0: cfb9 26be 0ae7 a8bd 7e33 e3bd 0408 d5bd
00000100: 2f25 eb3c 0cb7 9fbe 9fad 9cbd 21cc 04be
00000110: ae3a 9c3d 7c9c 18be 6c70 0fbd 5bbf 9ebd
00000120: 0a22 ee3c 5a97 1cbd 197c 27bc c18d a93d
00000130: a651 993c ce0b 513d f68c 8b3c 3e8c a83c
00000140: ba35 b7bd e8c4 4f3d 29f0 ceba 6770 1b3c
00000150: 1a38 47bd 8c86 44bc 58ef 693d faeb 523c
00000160: c0f2 943d 10a8 cfbc a5e2 eb3c 132b 68bc
00000170: 3c84 e5bc 0641 cf3c 9742 39bc a19f 51bc
-0.2571463 -0.36865827 -0.24607158 -0.08880608 -0.13665587 -0.14595935 -0.16866834 -0.10743045
-0.117616504 -0.07912856 -0.17611933 -0.1775999 -0.07824598 -0.077960834 -0.12705398 -0.2306366
-0.12136135 -0.30223915 -0.11906804 -0.17274205 -0.04450795 -0.2217962 -0.10070396 -0.14229895
0.051512938 0.14947742 -0.12754595 -0.14651912 -0.019806942 -0.036163274 0.066872194 0.054572802
-0.006921472 -0.07022899 -0.11415965 -0.106338836 0.15596485 0.0049609807 0.07636521 -0.12942171
0.060395088 0.047535323 0.0010652912 -0.06227796 0.07392005 0.01798224 0.0868935 0.070323
-0.19058011 -0.20642154 -0.31873238 -0.25893945 0.030944252 -0.25303766 -0.010016724 -0.06261613
-0.053990047 -0.12537012 -0.11166952 -0.12552214 -0.16281818 -0.08247192 -0.11093806 -0.104019195
0.028704254 -0.3119434 -0.07650303 -0.12968494 0.0762838 -0.14903444 -0.035019323 -0.07751342
0.029068965 -0.038230278 -0.010222458 0.082789905 0.01871569 0.05103665 0.017034989 0.020574685
-0.089457944 0.050724894 -0.0015788126 0.009487248 -0.048637487 -0.011994969 0.05711302 0.012873644
0.072728634 -0.025348693 0.028794596 -0.014170426 -0.028017156 0.02529956 -0.01130738 -0.012794406

batchnorm2.weight f4 [24]
00000000: 0150 3d3f 5189 6b3f 5647 5f3f 271e 573f
00000010: d5e9 653f 6c1a 5c3f a383 543f 8d4b 6c3f
00000020: d747 3f3f 9287 413f 1608 313f b03f 3d3f
00000030: 41c3 493f 3bc6 4f3f 08d1 5f3f 408e 683f
00000040: 91e8 413f 0a6d 5c3f 17ad 5e3f 0193 543f
00000050: 30cf 613f 2291 423f 504d 433f f44e 613f
0.739502 0.92006403 0.87218225 0.84030384 0.89809924 0.85977817 0.8301336 0.9230278
0.74718994 0.7559749 0.69152963 0.73925304 0.7881356 0.8116185 0.8742833 0.90842056
0.75745493 0.8610388 0.86982864 0.8303681 0.8820677 0.76002705 0.76289845 0.880111

batchnorm2.bias f4 [24]
00000000: 6ba9 53bc bbd0 02bd c0c6 063c 4c1d ce3b
00000010: b960 843c d060 ea39 04df bdbb 4b30 06bd
00000020: dcd9 2a3d eb6d 3bbd 1620 ad3b cbe4 cfbc
00000030: 1a5d 90bc a2f3 1b3c fa85 7f3c ebc8 aebc
00000040: 3dfa 6f3c 636e 363d 13dc 1dbd 3ea7 bf3c
00000050: d087 f73b 187c 9a3c 2150 4fbd 1b91 19bd
-0.01291881 -0.031937342 0.008226097 0.0062901136 0.016159402 0.0004470409 -0.005794408 -0.0327609
0.041711673 -0.045759123 0.005283366 -0.025377652 -0.01762252 0.009518536 0.015595907 -0.02133604
0.014647064 0.044538867 -0.038539957 0.023395177 0.007554032 0.018858 -0.050613526 -0.0374919

batchnorm2.running_mean f4 [24]
00000000: ef5b ca3b 1486 ab3c db4b edba fd12 7d3b
00000010: 395d 543d f88f 3f3b 7637 083c 79d9 1938
00000020: 66a5 3dbd a48d 053d bde9 b9bc 44bd c3bc
00000030: 1125 f7bc 96d7 84ba aee7 eb3b 8d5d c23c
00000040: e2ef 4cbc cf7d a83c 0141 913c 5a47 4bbc
00000050: 3613 e2bc 7a67 92bc 9458 8abc fb3a 07bd
0.00617551 0.020937957 -0.0018104272 0.0038616054 0.051846717 0.00292301 0.008314004 3.668058e-05
-0.046300314 0.032605782 -0.022694463 -0.02389396 -0.030169042 -0.001013505 0.007199249 0.02372625
-0.012508364 0.020567803 0.017731192 -0.012407148 -0.027597051 -0.017871607 -0.01688794 -0.033015233

batchnorm2.running_var f4 [24]
00000000: cfc7 cf3c cd50 523c 19cb 3f3c eb79 8f3c
00000010: 4637 923c 4279 1d3c 1ceb 673c 4215 6a3c
00000020: d843 9e3c a0a9 583c deb2 e43c 8192 553c
00000030: eb66 bc3c 8e3f 633c a815 3c3c 3128 663c
00000040: cc0f b93c c9de 3d3c 11c2 8c3c a985 8d3c
00000050: 2915 c33c 2519 543c ecb3 543c fbfa b83c
0.02536383 0.012836647 0.011706137 0.01751419 0.017848622 0.00961143 0.014155176 0.014287295
0.01931946 0.0132240355 0.027917322 0.013035418 0.022998294 0.013870133 0.011479773 0.014047668
0.02259054 0.011588761 0.017182382 0.017275648 0.0238138 0.012945448 0.01298235 0.022580614

decoder_CNN.weight f4 [1, 24, 1, 3, 3]
00000000: 8b91 173d 3494 0cbc 6360 883c 72be 34bd
00000010: a75a b5ba 4526 5dbb 2589 673b 9933 29bc
00000020: 1ebd 73bb d66f 6c3b 251d 413d fa01 363d
00000030: 2464 82bb ce05 2e3c 001f 133c 774e 113c
00000040: 85a7 c63b 8ca0 2ebc 96ad e9bb 6393 a7bc
00000050: fef2 9dbc 607e 053c 6403 c0bc 07e6 a0bc
00000060: c52e ad3c 1db9 f23c 131f 0d3d ef30 d3bb
00000070: e939 b33c 4239 633b c1d8 27bd ae32 bcbc
00000080: cd81 5ebc 494c 8b3c 89b2 143c 6d10 923b
00000090: a6f1 57b9 a4e3 54bd 34d6 dcbb a779 85bc
000000a0: 3c03 5d3b 8e85 bf3b ab1e 2cbc c037 13bd
000000b0: ebd7 6e3c 0797 ffbc 7520 cbbb d4c9 1fbd
000000c0: cb62 b93c cb1f a13c dfa4 e93c 8918 603d
000000d0: 486b 813c f681 a4bc fbb5 233c 40bf 01bd
000000e0: d41a 223d dd26 2b3d 127f 0d3b 57a2 ad3c
000000f0: 5df0 ff3c b48e 3cbd 04e3 b0bc e31b 983c
00000100: 9173 033d 0e77 c33c 7b25 31bc 9f66 2a3c
00000110: 5f63 0d3d 099b ad3c e23f 803c 833e abbb
00000120: 7668 173c ea2f 383d 68b0 11bd ea6e 45bc
00000130: ce83 933c 8291 403a 3490 b9bc 88d1 8d3b
00000140: d0e7 2abc ddca e53c 4063 e4bc 0f7f 443d
00000150: a12f 05bd c0d6 4f3a b693 99bc b1c9 2b3d
00000160: a9c3 873c d9cd e9bc e444 3b3c cdad 33bd
00000170: 1c5d 353c 7fe8 05bb 9b3f 603d 9da3 d13b
00000180: 64b9 9e3c 95c9 28bd daa0 33bc bafc ba3c
00000190: 4662 bbbc e0ac bf3c 905d b33c de8a 493c
000001a0: bda3 f2ba 3a05 a1bc 2a59 9aba 6efd 62bc
000001b0: 5686 12bd c54e f23c 94a6 6a3c 3961 b4bc
000001c0: efbf 073d 8493 75bb 09e2 1a3c 3d1d 9e3b
000001d0: fb79 02bc 8caa f8bb 17a3 46bc 607d 2839
000001e0: 82b9 89bc ae25 313d e27a 213d 14a9 09bc
000001f0: cfe1 3fbd e758 05bc f71f 673c 994e cfbb
00000200: c516 8d3b 7e3a 2dbc 7e32 133b 22b0 f3bb
00000210: 65fa 41bd 8ea9 8abb 93e1 09bc 5691 c7bb
00000220: 82c3 71ba b5c3 cf3c b95a c63c 2144 473d
00000230: 6c8a 8fbc 3061 3a3c 8317 cc3a 576e b13c
00000240: 6a41 a33c f4c6 70bb 4869 cd3c c401 e9bc
00000250: 26a6 01bd 1fb0 453b 953a 103d 9b0e f0bc
00000260: 3875 0d3c 4699 913c e57b 5fbd 4461 25bd
00000270: 5c63 3d3d 06ab 9d3c eeca d2bc f101 393c
00000280: d53a b73c a245 34bb 409e 24bd edbc 2f3d
00000290: 6a11 c03c 0533 9dbc c8f2 a63c 515e ad3c
000002a0: fa03 153c b73b 7abc 912a a23c cdf2 9cbb
000002b0: 75cc 9e3c 0c2b d3bc 6ddb 0dbb 37bc 2dbc
000002c0: 975a d4bb 0e2a 533d eb1f d13b 8acc 653c
000002d0: 3269 12bc a47b 24bd 610c 2cbc 26d3 06bd
000002e0: 8e60 713b 8943 d53b 1547 5ebc 9692 a33c
000002f0: 2a9f 323c a09f 9cbb 35d1 a03b 4732 18bd
00000300: dd4c 093d d0ff d4bc 3359 a83c 107d 1a3c
00000310: d1b1 203b 9d1b f93b 1969 ee3c 4107 50bd
00000320: d1ee 783c 4207 bcbc 4604 06bd 7f8b b93c
00000330: 45c3 0b3d 8636 263a 3261 d63c f21a ad3c
00000340: b9ba c03b 952f 4b3d 0bea e63a e247 48bd
00000350: b43c d33c 92a7 69bc aacb 643a 2c6a c73c
0.037004035 -0.008580256 0.016647523 -0.044126935 -0.0013836221 -0.0033744734 0.0035329547 -0.010327243
-0.003719158 0.0036077402 0.047146935 0.04443548 -0.003979223 0.010621501 0.008979559 0.008868805
0.0060624504 -0.010658395 -0.0071312888 -0.020456022 -0.019280907 0.008147806 -0.023439117 -0.019640936
0.021140466 0.029629285 0.034453463 -0.0064450423 0.0218782 0.003467158 -0.040978197 -0.022973385
-0.013580752 0.017004149 0.009075769 0.0044575245 -0.00020594019 -0.051974908 -0.006739402 -0.01629336
0.0033723852 0.0058447784 -0.010505359 -0.03594184 0.014577846 -0.031199945 -0.0061989375 -0.039010838
0.022630116 0.01966848 0.028521 0.0547109 0.015798226 -0.020081501 0.009992118 -0.03167653
0.039576367 0.04178511 0.0021590632 0.021195574 0.031242544 -0.04603453 -0.021592624 0.018567985
0.032092635 0.02386048 -0.010812159 0.010400443 0.034518596 0.02119209 0.015655462 -0.005225958
0.009241214 0.04496757 -0.035568625 -0.01205037 0.018007185 0.0007345901 -0.02265177 0.0043279566
-0.010431245 0.028050834 -0.027879357 0.047972735 -0.032516126 0.00079284236 -0.018747192 0.041940395
0.01657279 -0.028540539 0.011429999 -0.04386692 0.011069562 -0.0020432768 0.05474816 0.006397678
0.01937551 -0.04120787 -0.010963643 0.022825588 -0.022874009 0.023397863 0.0218952 0.012301175
-0.0018511933 -0.019655813 -0.001177584 -0.013854368 -0.035772644 0.029578576 0.014321942 -0.022019016
0.033142027 -0.003747196 0.009453305 0.004825263 -0.007963653 -0.00758869 -0.012123845 0.00016068434
-0.01681209 0.043248825 0.03942383 -0.008402128 -0.046846207 -0.008138872 0.014106742 -0.0063265082
0.004305693 -0.010573028 0.0022460516 -0.007436768 -0.047357935 -0.0042316383 -0.0084155975 -0.0060903234
-0.00092225533 0.025361875 0.024213182 0.048648957 -0.01752206 0.01137571 0.0015570972 0.02165906
0.019928653 -0.003673968 0.025074616 -0.028443225 -0.031652592 0.003016479 0.03521212 -0.02930384
0.008633904 0.017773282 -0.054561514 -0.040375963 0.046237335 0.01924659 -0.02573153 0.011291967
0.02236692 -0.0027507325 -0.04018998 0.042904783 0.023445804 -0.019189367 0.020379439 0.021163138
0.009095186 -0.015273026 0.019795688 -0.0047896863 0.019384602 -0.025777362 -0.002164568 -0.010603956
-0.0064805257 0.05155378 0.0063819787 0.014025817 -0.008936213 -0.040156975 -0.010500998 -0.03291621
0.0036831233 0.006508295 -0.013566752 0.019967359 0.0109022055 -0.004779771 0.004907752 -0.037157323
0.03352057 -0.026000887 0.020550346 0.009429231 0.002452005 0.0076021687 0.029102849 -0.050788168
0.015193657 -0.02295268 -0.03271892 0.022649525 0.03412177 0.0006340522 0.026169393 0.021131013
0.005881634 0.049605925 0.0017617358 -0.048896678 0.025785781 -0.014261143 0.0008727858 0.024342619
