models/encoder_decoder/saved_models/lr_0.0005/epoch_670.pt (torch, 618250 bytes, 17 tensors)

encoder_1_convlstm.conv.weight f4 [96, 32, 3, 3]
00000000: 2d6f 29bd 21d4 ec3c 948d 2a3d ce5c 383d
00000010: 2b93 9a3c 2c5a 9c3c f3db c8bd 784d 08bc
00000020: d3e1 043d 67c5 f43d bb9f 083c 9a9f 923d
00000030: b228 5b3d df57 903d 6afd 0f3e 7ceb b2bc
00000040: 14fd fbbc 18dc 613d c6ae d9bc 84a1 233d
00000050: 28b7 83bd f82f c53c f6f0 103d 60ae 3abc
00000060: 96e0 10be 7768 05bd fe04 34bd e676 923c
00000070: 2cad 193d 053d a6bd 02f6 cbbc c9da 30bd
00000080: 7109 60bd 3b5e 81bd 7fea bdbc 934a 15bc
00000090: 8e7f 5bbd 93bc 85bd 076c debd 214f 0cbd
000000a0: bbb9 09be 7ff6 bbbd 7f08 b3bd d502 213d
000000b0: ec1d 2f3d 6d42 3bbc 8f6d b5bc 32c1 133d
000000c0: c9f7 1a3c 59cc 06bd e679 da3b d1a5 84bd
000000d0: 5068 3fbd 0171 e13d 268d db3a 7ec7 edbc
000000e0: a1dd 943d 3a94 3c3d 984c a83c 5f7e 1c3e
000000f0: f41e 663d a299 7d3d 7d10 063e 2fbf 6bbc
00000100: a5d1 003c c490 863d 4948 74bd c9a0 ecbb
00000110: 83b1 2abc c8e3 363d 5884 18bd f399 8cbd
00000120: 8e66 0cbc 44ac 21bd dfc0 8c3d 06e0 d7bd
00000130: fbc6 1b3c 9aad 103d 679d afbc 3679 bcbd
00000140: 3a90 693c a228 97bd e323 05be 2371 3ebe
00000150: 4ecc 3f3d 506d 333d 2758 803c 2d45 40bd
00000160: 666c 583d a6f7 80bd c188 a23c 05c1 e6bb
00000170: fcad 4bbd 1bf2 ad3d 629a d9bc aef4 373d
00000180: 9cb9 2fbd c169 403c e0b4 053d df75 74bd
00000190: 5af2 82bd c19a 9ebd be9d 44bd fc7b c43b
000001a0: 6f3d f2bd 9ec8 583a 2761 b5bd 121b b5bd
000001b0: 5654 d8bb 2e35 c93c ca75 9fbb b3d3 5e3d
000001c0: 0c9a ad3b 5d71 9c3d 487a 3f3d db36 d6bc
000001d0: 36d2 2f3b a5fe 663c e44e 89bc 443d 163d
000001e0: 3c98 013e 3069 853c b8a6 fd3b 66b8 a33d
000001f0: 348d ae3c 69a3 80bc 740c 4c3d 0c69 393d
00000200: 06d3 803d 5a48 45bc d11b efba 5263 893d
00000210: daec 31bd 70cb b43c 7bab d93c c67a 8dbd
00000220: f819 cd3b 94b8 d3bc 24d8 813d 1d38 e53c
00000230: 82aa 30bd 8e36 963d 7f50 85bc 18fb 47bc
00000240: 4f85 bebd 4462 03be c245 4ebc b0ca 153e
00000250: 0949 6a3d a235 833d 5195 063d d1cb 093e
00000260: 4e53 183e 642c b53d f6b1 4e3d 86af 523d
00000270: 483b a13d c040 803d 69f0 583d badd 273d
00000280: a7ec 8b3d 41e2 b6bc c952 2d3d 1d32 573c
00000290: 1316 1e3e 72a5 953d 96c6 1a3d b071 433d
000002a0: 6d3d 883b 82c8 c5bc d9dc 94ba f24d 19bb
000002b0: 977a 013d 1c65 f53d 67e3 3cbd 4b01 283d
000002c0: fab3 ea3c 93be 653c 7d09 91bc 1795 873d
000002d0: adc2 f13c 2f70 e43d 77a7 e33c f41c 96bd
000002e0: 9e0c 6f3b 5b14 2bbd 4f13 e5bd 21fd 29bd
000002f0: 1639 d9bd aab8 fdbc 86a8 8fbc 092c 623c
00000300: 968b 75bd 7578 a4bd 0a7a 21bd 7002 a4bc
00000310: 25db 9abd b2f6 8f3d 7164 e9bc ea2d 0fbe
00000320: 456c a7bd 127e 65bb 0174 e03c a7b1 e13c
00000330: 14cb 9bbd ba46 383c 3373 0d3d a379 943d
00000340: 6d5e 943d c0af b93d b214 d5bb dcbd 2abd
00000350: d12b 5bbd 6249 053d b77d f2bb cd20 95bc
00000360: 505a 18bd 77db 77bb 0274 37bd 6610 a8bd
00000370: d176 88bd fda3 08bb a293 9cbc 3ef6 8a3d
00000380: 54cd b93c 5eb7 bcbd 6adb 9ebd 45bf 2dbd
00000390: bb93 9bbc 2f0a afbd c742 42bd 9d20 043e
000003a0: b6fe 57bc 814f 6bbd 4fba 92bd 0d5c a6bd
000003b0: aba5 25bd 6605 eabd 8bee c0bd cff4 62bd
000003c0: a614 3f3d 08c5 57bc d338 9d3d d5c3 a03c
000003d0: 6038 ea3c 2d45 463d 10aa 293c 733c a9bd
000003e0: ea12 32bc 4c27 87bc 1362 5a3d b71c 043d
000003f0: 0374 1ebc 5c07 6d3d 8997 ff3d 8978 0abd
-0.04136579 0.028909745 0.041638926 0.04501038 0.018869003 0.019085966 -0.09807577 -0.008319251
0.032441925 0.11951714 0.008338864 0.07159348 0.053505607 0.0704801 0.14061514 -0.021840803
-0.030760325 0.05514154 -0.026572596 0.039948955 -0.06431419 0.024070725 0.03538605 -0.011394113
-0.14148173 -0.03257033 -0.043950073 0.01787896 0.037518665 -0.08117107 -0.02489758 -0.0431774
-0.054696504 -0.06316801 -0.023183106 -0.009112018 -0.053588443 -0.06530108 -0.10860448 -0.03425515
-0.13449757 -0.09177875 -0.08741855 0.03930934 0.042753145 -0.011429411 -0.022146968 0.036072917
0.009458491 -0.032909725 0.0066673635 -0.064769395 -0.04673034 0.11007882 0.001675044 -0.02902579
0.07268835 0.046039797 0.020544335 0.15282582 0.056181863 0.061914094 0.13092227 -0.014388843
0.007862483 0.065705806 -0.05963925 -0.0072213155 -0.010418299 0.044650823 -0.037235588 -0.06865301
-0.008569373 -0.039470926 0.06872725 -0.10540776 0.00950789 0.03532181 -0.02143736 -0.09202807
0.014255578 -0.07380797 -0.13001971 -0.18597846 0.0468257 0.04380542 0.015667034 -0.04694097
0.05283775 -0.06297235 0.0198406 -0.0070420527 -0.04972647 0.084934436 -0.026562873 0.04491108
-0.04290162 0.011743964 0.0326432 -0.059682723 -0.06393881 -0.07744361 -0.048001997 0.0059962254
-0.11828124 0.00082696404 -0.08856421 -0.08843054 -0.0066018505 0.02456149 -0.0048663365 0.05440111
0.005297905 0.0763881 0.046747476 -0.026149204 0.0026828176 0.014098798 -0.01676125 0.03667952
0.12655729 0.016285509 0.0077408217 0.079941556 0.021307565 -0.01570292 0.049816564 0.045266196
0.062902495 -0.012041176 -0.0018242543 0.06708397 -0.04343877 0.022069663 0.026571026 -0.06908183
0.006259199 -0.02584485 0.06340054 0.027980858 -0.04313136 0.07334624 -0.016273735 -0.0122058615
-0.0930277 -0.12830454 -0.012589874 0.146281 0.057198558 0.06406714 0.032857243 0.13456656
0.14875528 0.088463575 0.050462686 0.051436923 0.07872635 0.0626235 0.052963648 0.04098294
0.06832247 -0.022324683 0.04231528 0.0131345065 0.15438108 0.07306947 0.037787043 0.047715843
0.004157713 -0.024143461 -0.0011357322 -0.0023392406 0.03161105 0.11982176 -0.046115305 0.041016858
0.028650273 0.014022487 -0.01770472 0.066202335 0.029511774 0.1115421 0.027789814 -0.07329741
0.0036476026 -0.04176746 -0.111853234 -0.04150117 -0.106065914 -0.030971844 -0.017536413 0.013804444
-0.059947573 -0.08030788 -0.039423026 -0.020020694 -0.0756133 0.07029475 -0.028490277 -0.13982359
-0.08174948 -0.003501777 0.027399065 0.027550532 -0.076070935 0.011247331 0.03453369 0.07249763
0.07244573 0.09066725 -0.006502711 -0.04168497 -0.053508583 0.032540686 -0.0074002403 -0.018204117
-0.037195504 -0.003782002 -0.044788368 -0.08206253 -0.066632874 -0.0020849698 -0.019113366 0.06785248
0.022680916 -0.09214662 -0.07756694 -0.042418737 -0.018991342 -0.08546864 -0.047426965 0.12903066
-0.013183286 -0.057448868 -0.07164442 -0.08123026 -0.040441196 -0.11426811 -0.094204985 -0.05540925
0.04665055 -0.0131695345 0.07676854 0.01962463 0.028591335 0.048405815 0.0103554875 -0.08263483
-0.010868767 -0.01649823 0.053316187 0.032253947 -0.009671214 0.057868347 0.12480075 -0.033806358

encoder_1_convlstm.conv.bias f4 [96]
00000000: a35e 00bd fcb8 14bd b5ba b8bd c2a2 d23c
00000010: 0699 3cbd 2df2 173c b2b7 bbbc 8805 0bbd
00000020: b378 40bd c89d 8fbd 1d7a 69bd 7974 10bd
00000030: 3d49 a2bb a7ca a2bd 46a8 8bbd 22d4 6d3d
00000040: 446b 763d 667a 883d 05a4 06bd 6980 b2bc
00000050: 4088 f3bd 775e b6bd 1f8e 89bd a3b6 01be
00000060: 168a bebc eb9c 833c d728 1a3d 8cd9 c5bc
00000070: 1164 8e3c b6da 87bc 6a94 303d e33a 9ebd
00000080: d6ea fab9 fe91 90bd a99d febc 3f17 64bd
00000090: e373 b6bb b1d8 f63c 58f0 9abc 4dcc 6dbd
000000a0: e654 50bd 6adc 02bd 8ad1 40bc 7a48 123d
000000b0: 4880 8ebd 1753 0e3c 97f3 ebbc 6f5f 83bc
000000c0: 3b31 33ba 29fd a03c 24ae 33bd adaa 8d3b
000000d0: 4782 25bd c7f2 39bd f9d0 b7bd aa31 a33a
000000e0: 922b 033d c304 babd 90cd 8bbd ff58 ce3a
000000f0: 83c9 fa3c 951d 4e3c a5b3 29bc 1f5a 7f3c
00000100: e3d2 f13c ff57 24bb 9e9e 8abc 5f04 5bbd
00000110: fe68 14be fb16 6abd 30bd bcbc dbd7 d63b
00000120: bb3c 2f3d 9620 2dbd d7c4 833c f090 d43c
00000130: 1501 0cbd 259e 863c 1403 02bc cc1e 013c
00000140: ad59 ebbc 25bf 0e3d a8cc 233d 434b 623d
00000150: 9950 19bd 865c 183d e1b3 10bd 578e 423d
00000160: 9f1e 8ebd 92be 2bbd af3f 67bd 2306 893d
00000170: e09c 1a3c a39f dbbc 0136 113d 74f6 64bc
-0.031340253 -0.036309227 -0.090199865 0.025712375 -0.046044372 0.009274048 -0.022914741 -0.033940822
-0.046990108 -0.07012516 -0.057001222 -0.035267327 -0.0049525783 -0.07948809 -0.06819205 0.058063634
0.06016089 0.06663971 -0.032871265 -0.021789746 -0.11891222 -0.089047365 -0.067165606 -0.12667327
-0.023259204 0.016066035 0.037636604 -0.024151586 0.0173817 -0.016583782 0.04311029 -0.077260755
-0.00047858682 -0.07059096 -0.031081038 -0.05568623 -0.005568014 0.030132623 -0.018913433 -0.058056165
-0.050862215 -0.031948484 -0.011768708 0.03571365 -0.069580615 0.008686802 -0.028802676 -0.016036717
-0.0006835644 0.019651966 -0.043867245 0.0043233247 -0.040407445 -0.045397546 -0.08975405 0.0012450714
0.032023974 -0.090829395 -0.06826317 0.0015743076 0.030613666 0.012580295 -0.010357772 0.015585451
0.029519504 -0.0025076864 -0.016921338 -0.053470965 -0.14493176 -0.057150822 -0.02303943 0.0065564937
0.042782526 -0.042267404 0.016085071 0.025948018 -0.03418072 0.016432831 -0.007935304 0.007880878
-0.028729284 0.03485026 0.039990097 0.055247556 -0.03743038 0.037197612 -0.035327796 0.047499027
-0.06939434 -0.04192979 -0.056457218 0.066906236 0.009436816 -0.02680952 0.035451893 -0.013974775

encoder_2_convlstm.conv.weight f4 [96, 48, 3, 3]
00000000: 2138 913d 8c6e 3b3e ed91 973d 1284 353d
00000010: 0765 c53c 3840 81bb 351d 09bc d246 7bbc
00000020: 5946 b7bc 05a8 05bb 3699 033d 5e4a df3c
00000030: c3fc ea3d 0f26 9c3d 2e9e 953d 5c9e 71bd
00000040: fdd8 a5bd cbc8 0bbc 0c36 88bb c123 d93d
00000050: 08c6 d03d 0990 223e 280e 62bc 9543 96bd
00000060: 3f19 6fbb e8a6 98bd 4704 31be d19d 2fbd
00000070: 1d90 c6bd cdfc 1cbe 2374 383e ab81 0e3e
00000080: 5976 52bd ac7b 97bd 9175 ec3c 40f4 e2bd
00000090: ff81 5f3d 2bb3 83bd 99d6 71be 152e 75bd
000000a0: 61e8 e7bd 6a95 02be ab57 88ba 0ccc 27bb
000000b0: 4e8a 423c a258 f9bd a3a8 b7bc bf7e ffbb
000000c0: 039e a73d e8f1 8fba 0615 cbbd 22f3 4cbc
000000d0: 440d cabd 3ead 37bd b7cd 6f3d 5ca4 cc3d
000000e0: 416f ef3d 6367 cc3d c25a f33d 37aa e53d
000000f0: e2c3 6e3c 2b9a bdbb f18b 263d feed cf3d
00000100: d90f 1d3d b430 4abe b62a e7bd 9e4f 3dbe
00000110: 17b3 0fbe 818b fa3d a95e 1abe 6614 d2bd
00000120: 48fb af3c 889b 0e3e a23c f13d a86c 413e
00000130: e536 753e 4343 7a3e f357 693e 6ee3 f73d
00000140: a0f7 333d 5007 b1bb 5dc9 0fbc ddb7 193e
00000150: 4be1 9abc b3b1 083e b34e 2e3e bb46 e3bc
00000160: e6ee d4bd 5fe9 31bd 7342 f43d b224 a8bc
00000170: a87b 8ebb d62d c3bd 25a0 b0bd 5e75 10bc
00000180: 77e8 aebd 33de c33d 0e0b 3e3e a82b 1d3d
00000190: d646 3f3c 5008 023b 73ad bc3d c5c8 5e3d
000001a0: 5e6b 70bd 7062 22bd 6887 e3bd bacc 113d
000001b0: 5792 e93d 024b 5d3d ab16 9e3c 5106 58bd
000001c0: c9bf 0bbc d2bf 22bc 4b9a 153d 3e57 853d
000001d0: 0075 a1bc c4d5 09be 38e6 0fbe fec9 c6bd
000001e0: 7e2f 47bd b2f9 333d 9b5a 5abc dd9e e63d
000001f0: 0e49 bc3d 471f 4abd 515e c83d bea5 923d
00000200: 8562 c93c f964 543d 26e1 553d 72c1 1dbd
00000210: e54c 193e 4a7c cf3c 1d94 03be 981d ecbc
00000220: dbeb 2c3b 0d5b a5bd cf71 a5bc a79c bd3d
00000230: b643 363d e50d f13d 27f3 a33d dd90 66bd
00000240: 2846 413d 3029 c83d e9b9 ae3c 835e f63c
00000250: 0d49 e03d 5945 913d d2ee 6cbd 7ae6 70bd
00000260: 8611 4dbd 728c 233c ef09 94bc dd80 20be
00000270: d8d2 f1bd f9db cebd e24b b4bd 30be f23c
00000280: 91f7 41be fbca 11be a38c e13b cd4f 8cbd
00000290: a75b 40bd 537d edbd 3dc8 32be 1f70 f1bd
000002a0: 1aef fa3d 7911 063d c7c7 6c3d c4d9 58be
000002b0: 7fe2 bebd 5cf0 41bb 73d5 be3d 4a75 f03d
000002c0: 69d8 e63d fee9 203e 64b9 e939 aaca 88bd
000002d0: 43f0 7ebd a740 9ebd 6980 97bd 0008 633d
000002e0: 6c86 1e3d 1d63 19bd 4aa9 07be f267 ecbd
000002f0: c397 79be 8799 2d3d a7b8 163d 2da0 67bd
00000300: 057e 8039 4e7e e6bc 6c8c 5fbd fd08 0e3d
00000310: 5d04 b93d ad72 38bd b819 0f3e 25a4 503d
00000320: ac02 babd 1454 80bd 28a7 9fbc 5f66 2ab8
00000330: 75a7 503c 8f10 433d 24de 683c 66ca 153e
00000340: 5434 ea3d 6fe2 32bc 1b94 f5bd d673 c1bd
00000350: 496f ebbd 0e79 f33d bdf5 1a3e 9973 063d
00000360: 3439 bfbd a9b1 6d3d f851 973e e25d 343e
00000370: 1f3d ef3d 7f36 0d3e 659e 1b3e 54af 513d
00000380: 71be 623c b571 883d 1b88 073e ba5b 333e
00000390: 85cd 58bd bf5e 1a3d 48d3 c53d 42ed 4e3d
000003a0: a345 5a3d 3045 e13d ab1e dfbc af94 9f3c
000003b0: c531 143d cf22 393e 3aba 573e 0ce3 013e
000003c0: e9e3 243e 3953 023e 6722 d53c db14 8e3d
000003d0: 8671 2e3e 29ff 093e 5613 38bb c272 3d3d
000003e0: 750e 9f3d b422 96bd 98b0 8d3c 56ed ca3c
000003f0: 2f45 9f3d d7d0 6b3e 0fa2 8a3e 4218 ee3c
0.07090784 0.18303889 0.0740088 0.044315405 0.024096025 -0.003944423 -0.00836878 -0.015336709
-0.022372412 -0.0020394337 0.032128535 0.02725714 0.11473992 0.076244466 0.07305561 -0.058988914
-0.08098028 -0.0085317595 -0.0041568335 0.10602523 0.101940215 0.15875258 -0.01379732 -0.07337109
-0.0036483554 -0.0745371 -0.17286788 -0.042875115 -0.09695456 -0.15330811 0.18013053 0.13916652
-0.051382396 -0.073966354 0.028864654 -0.11081743 0.054567333 -0.06430658 -0.23617019 -0.0598584
-0.1132362 -0.1275231 -0.0010402104 -0.00256038 0.011873795 -0.121751085 -0.02241928 -0.0077970917
0.08184435 -0.0010982128 -0.09916119 -0.012509139 -0.098658115 -0.04484295 0.058545794 0.099922866
0.11691142 0.09980657 0.11882545 0.112141065 0.014573069 -0.0057862005 0.040660802 0.10152815
0.03834519 -0.19745141 -0.11287443 -0.18487403 -0.14033161 0.122336395 -0.15075172 -0.10257797
0.021482125 0.13926518 0.11779143 0.18889105 0.23946722 0.24439721 0.22787456 0.12103926
0.043937325 -0.005402483 -0.008776036 0.15011545 -0.018906256 0.13349037 0.17022209 -0.027743688
-0.10397129 -0.04343545 0.11926737 -0.02052531 -0.004348237 -0.09530227 -0.08624295 -0.008817045
-0.08540433 0.095638655 0.18558905 0.038371712 0.011674603 0.001984138 0.0921277 0.054390687
-0.058696143 -0.03964466 -0.11109811 0.035595633 0.11404865 0.05402661 0.019297918 -0.0527404
-0.008529612 -0.009933429 0.0365241 0.06510781 -0.01970911 -0.13460451 -0.14052665 -0.09706496
-0.048629276 0.0439393 -0.013327266 0.112607695 0.091936216 -0.049346235 0.097836144 0.07160519
0.02458311 0.051854108 0.05221667 -0.038514562 0.14970739 0.02532782 -0.1284947 -0.028822705
0.0026385698 -0.08074007 -0.02019587 0.09258395 0.044498168 0.11770228 0.08005362 -0.056290496
0.047186047 0.09773481 0.021328883 0.030074364 0.10951433 0.07093305 -0.057844944 -0.05881355
-0.05006554 0.009982215 -0.018071143 -0.15674157 -0.118077934 -0.1010055 -0.08803536 0.029631704
-0.18942095 -0.14237587 0.0068832203 -0.06851158 -0.046962406 -0.11596169 -0.17459197 -0.117889635
0.12252636 0.032731507 0.05780771 -0.21176821 -0.093205445 -0.0029592728 0.09318056 0.11741121
0.11271746 0.15714261 0.0004457935 -0.0667928 -0.06224085 -0.07727175 -0.07397539 0.05542755
0.038702413 -0.037448037 -0.13248172 -0.115432635 -0.24374299 0.042382743 0.036797192 -0.05654924
0.00024507954 -0.028136399 -0.054577276 0.03467654 0.09034035 -0.04503124 0.13974655 0.05093779
-0.09082541 -0.06266037 -0.019488886 -4.06265e-05 0.012735237 0.047623213 0.014213119 0.1462799
0.11435762 -0.010918244 -0.119911395 -0.09445922 -0.11495835 0.11888324 0.15132804 0.032825086
-0.093370825 0.058030758 0.29554725 0.17613938 0.1168158 0.1379032 0.15197141 0.051192597
0.01383935 0.06662313 0.13235514 0.1751546 -0.052930374 0.037688013 0.09659439 0.050519235
0.053289067 0.109995246 -0.027236303 0.019480078 0.036180276 0.18079685 0.21067134 0.12684268
0.16102566 0.1272706 0.02601738 0.069375716 0.17035493 0.13476242 -0.0028087697 0.04625202
0.07766429 -0.07330838 0.01729612 0.024771374 0.077768676 0.23028885 0.27076766 0.029064301

encoder_2_convlstm.conv.bias f4 [96]
00000000: f03f c63d 7907 09bd a9b5 073e 2935 a93d
00000010: 913f 563d 7133 a73d a983 813d a262 0a3e
00000020: 63a2 773d 3c8e 2e3d e25e 833d 8307 a33b
00000030: e8f6 983d 4696 d53d 886b 813d 6987 3739
00000040: 2ae2 833c 6f05 b73b 9ddf f33c a0b9 663c
00000050: 33db 933c 1564 623d 26f4 253d 3cc8 a13d
00000060: d4d2 8fbb 886c 7dbd ba33 953d e887 ee3a
00000070: 0bd8 7aba 053a cfbd 5faf c93c d015 6f3d
00000080: fe3b adb8 8878 d6bd 5b6b 70be fd62 8539
00000090: fdcb f8bc 17f0 84bd 8f22 49be 30c3 443d
000000a0: 727b 9bbe 9fa6 04be 79f1 013c c113 4dbe
000000b0: 41f8 b53d 2816 ff3c b801 e1bb 4648 60bc
000000c0: 5a18 b53d 6751 90bc 56fc 1f3e 06f8 6e3d
000000d0: c499 c33d f376 893c 7c26 b93d 251c aa3d
000000e0: 7dcd 313c d912 6f3d 1d74 0c3d 61b5 153d
000000f0: cd23 5b3d d69f 003e 57d8 cfbb fe4c d9bb
00000100: 89f4 87bd 05ed eabb 612d 863d 3111 873d
00000110: 0fd1 273d 3f5e 873d de4c c63c c75f 6f3d
00000120: 8534 2f3c f758 c6ba 4c51 193a 8815 c4bc
00000130: 7d8a a13c 9204 86bb 8c25 ea3c 6b09 5dbd
00000140: 21ef c0bb bd29 043e f085 4e3d 815d a03c
00000150: b790 32bd 96a2 34bd f435 ab3d acb5 39bd
00000160: 9103 12bd 8d04 3a3d 031b 6bbb 76de 953c
00000170: 04be 11bd d1c2 9fbb c297 03bc 3d2e b53d
0.09680164 -0.033454392 0.13252892 0.082620926 0.052306715 0.081641085 0.0632394 0.13514188
0.0604576 0.042616114 0.06414582 0.0049752607 0.07468969 0.10429053 0.06319338 0.00017502684
0.016099054 0.0055853645 0.029769713 0.014082342 0.018048858 0.055271227 0.04051604 0.0789952
-0.0043891463 -0.06187108 0.07285257 0.0018198462 -0.0009568936 -0.10118488 0.024619756 0.05837041
-8.260457e-05 -0.10472208 -0.23478453 0.0002544149 -0.030370707 -0.06491106 -0.1964209 0.048037708
-0.3036762 -0.12954186 0.007931107 -0.20027067 0.08885241 0.031138495 -0.00686666 -0.013689106
0.08842535 -0.01761694 0.15623602 0.058342002 0.09550813 0.016780352 0.090405434 0.083061494
0.010852215 0.058367584 0.03429042 0.03654993 0.05350094 0.12560973 -0.0063429284 -0.0066314926
-0.06638438 -0.007169368 0.06551624 0.06595076 0.04097086 0.06609773 0.024206575 0.05844095
0.010693674 -0.0015132715 0.0005848601 -0.023936048 0.019719357 -0.0040899003 0.028582357 -0.05396406
-0.0058878814 0.12906547 0.0504207 0.019575836 -0.043595042 -0.044100367 0.083599 -0.04533927
-0.035647932 0.045414496 -0.0035874255 0.018294554 -0.035581604 -0.004875519 -0.008031787 0.0884671

batchnorm1.weight f4 [24]
00000000: 594a 773f c1ff 8c3f ee77 833f a8d8 783f
00000010: f214 773f a0b5 913f e4ac 793f c658 813f
00000020: e401 7d3f 8ea1 873f f1d6 8c3f 7d5c 8b3f
00000030: d0e6 863f cb5e 803f c4d7 833f 0760 7e3f
00000040: 23b3 893f f4d2 883f 7096 813f 988f 823f
00000050: 9a31 713f c1f7 693f 4c60 843f a574 813f
0.9659782 1.101555 1.0270975 0.9720559 0.96516335 1.1383553 0.97529435 1.0105217
0.9883101 1.0596178 1.1003095 1.08876 1.0539188 1.0028929 1.0300221 0.99365276
1.0757793 1.0689378 1.0124035 1.0200071 0.9421631 0.9139367 1.0341887 1.0113722

batchnorm1.bias f4 [24]
00000000: 6137 e2bb 9235 d1bc 0a3f 7cbc 4831 cdba
00000010: b5cb e1bd 83b9 9a3b ddf2 d03c be1f 9e3c
00000020: 07e4 8f3c 9f48 3abd 6ef8 44bd 660c 4c3c
00000030: 0244 2a3b 6cae ebbc b8bf 1e3c 8992 cabc
00000040: 241b ee3c 8b02 85bc 0ae6 67bb 651d a5bb
00000050: 5dbf 31bd db1f 25bd f384 30bd d057 8ebd
-0.0069035743 -0.02553824 -0.015395889 -0.0015654946 -0.11025182 0.0047218218 0.025506431 0.019302245
0.017564787 -0.045479413 -0.048088484 0.012454128 0.0025980477 -0.028769694 0.009689264 -0.024728077
0.029065676 -0.016236564 -0.0035384917 -0.0050389045 -0.04339539 -0.040313583 -0.04309554 -0.06950343

batchnorm1.running_mean f4 [24]
00000000: 79f8 3bbd fad3 1ebc 743e 66bd 7702 883c
00000010: eab1 95bb 1507 c4bc 1350 afbb 0dd3 02be
00000020: fe23 f2bb 2e5f 9a3d da3a 853c c295 a63c
00000030: ff51 953c 308c 3dbd f781 a63d 3f91 0fbd
00000040: 308b f4bb e5cc 773c dccf 333d f64c a03c
00000050: 64e5 6dbc 61eb e83d dec7 883d 41f1 083e
-0.04589126 -0.009694094 -0.056211904 0.016602738 -0.004568328 -0.023929158 -0.0053501218 -0.12775822
-0.0073895445 0.07537685 0.016263414 0.020335082 0.018227575 -0.04627627 0.081302576 -0.035050627
-0.0074628815 0.015124534 0.043899402 0.019567948 -0.014520023 0.1137302 0.06678747 0.13373281

batchnorm1.running_var f4 [24]
00000000: b787 813c 1f09 843c c362 4b3c 3378 ab3c
00000010: 0f09 783d 3e9e 103c d77e ee3c a306 523c
00000020: 7ea7 313d 26d7 973b a94e 2b3a 18ac 083d
00000030: 5948 7c3c 052a 0b3c 74ad df3b f566 683d
00000040: 049e 9f39 022d 953a 9bc2 3f3d a691 ee3a
00000050: 22e6 4a3d 1e1a 593d 8676 353c 421e 303c
0.015811784 0.01611763 0.012413683 0.020931339 0.060555514 0.00882679 0.029113216 0.012818965
0.043372624 0.004633802 0.00065348536 0.033367246 0.015398108 0.008493905 0.006826097 0.056738812
0.00030444574 0.0011381211 0.04681645 0.0018201366 0.049535878 0.053003423 0.0110756215 0.0107494015

decoder_1_convlstm.conv.weight f4 [96, 48, 3, 3]
00000000: b875 263c 122f 623d cc72 ca3c d127 29bd
00000010: 6d12 1cbc 4b36 ad3c bde8 51bd 7c19 4a3b
00000020: 6137 0dbc 841a d8bb 6b87 e1bc e588 17bd
00000030: 8d38 163d ad4f 343c 8b35 913d 92dc 283d
00000040: d3be a73d 6249 ef3c 54eb 273c 178d d03b
00000050: c33a 75bc 3e49 2dbc 912d 97bb b80e b63c
00000060: 6fbf 9bbc 67d5 90bc 63ca bd3c 9cd7 843c
00000070: 4bef 01bd 5cf7 58bd 9f7a 6c3d e1b7 b23c
00000080: 4e9f bf3c 0656 9a3d 6aa9 933c 55de 74bb
00000090: 5462 9c3c 4680 843c fdf9 02bd 6fd2 d93c
000000a0: 9f00 19bd e478 86bc 811d da3c 97a4 583c
000000b0: 4a6b afbd 51b7 98bd af04 2bbd 680a 5dbc
000000c0: e2cb 7fbc 21a1 993b c284 943c bdc0 ff3c
000000d0: cb01 8bbc b313 f7bb 0a77 04bd d9af 123d
000000e0: 040d 7e3d 0b06 083d d0d1 0a3d 744a 703d
000000f0: d782 753d 8104 7f3c 50ba e63c 06f3 32bc
00000100: 5990 7ebb c4a5 7abd 9c97 a8bc 043a bc3c
00000110: b490 873c 3b90 32bd 8b09 51bc 68b4 053a
00000120: c2a8 45bc e18b 1fbd f4b2 b4bc fe34 4fbd
00000130: aacd 4dbd d50c 45bd 04f3 96bc d374 56bd
00000140: 7642 7ebd aab2 243c 983f d83b 1bfd 1f3b
00000150: c343 863c fc62 1f3c 9bf2 1bbd 1a05 083d
00000160: 254e 50bd 6420 27bd 0dea 453c 6e75 9c3d
00000170: 9a43 573d 9953 d73b f9e0 df3c cb1e 2dbd
00000180: 165a 8a3b 656e 64bd d243 bdbc 611c 0bbb
00000190: 5687 76bc d2b7 2b3d 76a2 023c 9676 37bc
000001a0: 058c 3e3d 0906 0b3c c528 573c f51a ba3b
000001b0: d66e 533c 0dc1 453d a392 123d 2452 3abc
000001c0: d8a5 64bc b4f2 c9bc 15e8 c2bb e1c4 fe3b
000001d0: bb4c 7a3c a9d8 64bd e30a a5bc cd4a 34bd
000001e0: 3181 70bd 8e06 f7bc 7e99 a0bc 97a8 ffbc
000001f0: cef4 1fbc 4895 b6bc 0c3a bb3c 5679 963c
00000200: 02ba 7a3c 1dad 9bbc a6e1 e4bc 53fa c8bb
00000210: 05d8 b23c dc22 123c 2b2d 8a3c 96f5 9c3d
00000220: 8bc2 1a3d 6406 4b3d be5d 173d 0f54 3e3d
00000230: 94e8 f6bc f81f 6bbd 5a05 1c3c 458c 1bbd
00000240: 6506 deba ed8a f7bc a0dc d93b 7498 e5bc
00000250: 5317 a7bc 30eb 1e3c 2031 2bbd a163 5ebb
00000260: 6928 513c 0867 643d c517 9c3d c9ad 843d
00000270: 4cb9 0f3b 5ef2 543c 72ea bbbc 991e 91bc
00000280: 2725 2dbd c413 61bc 5d37 8f3c 87c7 7a3d
00000290: d6f7 f1bc a5c0 373d c967 7d3a fd6c 03bc
000002a0: 75f8 ac3c d8d5 263d 6a1e 003d 3f19 bdbc
000002b0: 2dcf e83b ae8b 553d d8b3 f0bc 1b6e 453b
000002c0: 8071 f83c 2521 843d 1d31 f63c cc60 4d3c
000002d0: 8d89 8a3c 857b cb3b afa3 3e3d 13d7 efbc
000002e0: dede e33c 5f5d 143c c920 1d3d 4a27 57bd
000002f0: 1dbf 22bd dcc5 6d3c b771 503c 8c5c ea3a
00000300: b025 ec3c a756 073d df5d 553c f116 5fbd
00000310: 5415 84bc 3b60 823c e240 9abc f39f 583d
00000320: c73a 5b3d 1794 4a3d f233 fa3c c9ad 79bc
00000330: dcb7 e93b 4374 e53c 65ea 6dbd f455 21bb
00000340: ac8e 03bd 8018 3bbd 7013 40bd 0e0d e8bc
00000350: 0210 26bc 278b 04bc 84e2 0ebb 1259 e73c
00000360: 7930 7e3d 421b fd3c 11e6 a83c 0c34 4dbc
00000370: 38e7 42bc fc44 c7bc 7ce6 75bc 3ecc 393d
00000380: 0779 0a3d a40d 263d f4cf 423d 587b 593d
00000390: bcc5 683d 65cf 4c3d bd9f 0abc 05aa a43d
000003a0: 4a12 ce3d 03f6 383d 47ff 1c3c d2ba ba3d
000003b0: a223 ea3d 7e1a 4cba 7b77 cf3c 5fb7 743d
000003c0: 3669 d2bb e92f a53d 61c6 113c b134 d4bd
000003d0: 93c2 41ba 4803 103d b7b7 2c3c 8411 23bc
000003e0: 638e a63d bccd d13d 00a5 05bd 6ff6 a6bd
000003f0: d50e 5b3d c369 e1bd a678 46be 4b3f 8ebd
0.010159902 0.05522067 0.024712943 -0.041297738 -0.009525877 0.021144053 -0.051247347 0.0030837944
-0.00861916 -0.006594958 -0.027530393 -0.036995787 0.036675025 0.011005324 0.07090291 0.041225977
0.08190694 0.029209796 0.010248978 0.0063644755 -0.014967623 -0.010576544 -0.0046135862 0.022223815
-0.019012181 -0.017679883 0.023167795 0.016216092 -0.03172235 -0.052970275 0.057734128 0.021816196
0.023391392 0.07535939 0.018025119 -0.0037363966 0.019089855 0.016174447 -0.03197669 0.0265896
-0.037354108 -0.016415067 0.026625397 0.013222835 -0.08565386 -0.0745684 -0.041752513 -0.013491251
-0.015612574 0.0046883975 0.01812971 0.031219834 -0.016968628 -0.00754019 -0.032340087 0.035812233
0.06202413 0.033208888 0.0338915 0.058664754 0.05993923 0.015565039 0.028165013 -0.010922199
-0.0038843362 -0.061193243 -0.020580105 0.022976883 0.016548492 -0.04359458 -0.012758623 0.000510043
-0.012064161 -0.03895176 -0.022057988 -0.050587647 -0.050244965 -0.04810794 -0.018426426 -0.052357506
-0.0620751 0.010052362 0.006599378 0.0024412337 0.016389733 0.00972819 -0.038073163 0.03320799
-0.050855774 -0.040802374 0.012079728 0.076395854 0.052554704 0.006571245 0.027328955 -0.042265695
0.004222165 -0.055769343 -0.023103628 -0.0021226632 -0.015046915 0.04192335 0.007973304 -0.011197707
0.04652025 0.008485326 0.013132279 0.005679483 0.012904843 0.04827981 0.035784375 -0.011372123
-0.013955556 -0.024651863 -0.0059480765 0.0077749346 0.015277083 -0.055870686 -0.020146793 -0.044016648
-0.058716957 -0.030154493 -0.01960444 -0.03120832 -0.009762956 -0.02228798 0.022854827 0.018368404
0.015303137 -0.019003445 -0.027939629 -0.0061333566 0.021831522 0.008919444 0.01686724 0.07664029
0.037783187 0.04956664 0.036954634 0.046466883 -0.030140199 -0.057403535 0.00952276 -0.03797557
-0.0016939162 -0.030217612 0.006648615 -0.028026797 -0.020396864 0.009699628 -0.041794896 -0.0033933895
0.012765982 0.05576232 0.07621721 0.064784594 0.0021930514 0.012997238 -0.02293894 -0.017714785
-0.04227176 -0.013737623 0.017482454 0.06122544 -0.029537123 0.044861455 0.0009666649 -0.00802159
0.021114567 0.04073128 0.031279005 -0.023083327 0.0071047754 0.052135162 -0.029382631 0.0030125442
0.030327559 0.06451634 0.030052716 0.012535285 0.016911292 0.006209793 0.04654282 -0.02927736
0.027816232 0.0090554645 0.038361344 -0.052527703 -0.03973304 0.014512505 0.012722424 0.0017880364
0.028826565 0.033041622 0.013022869 -0.054465238 -0.016123451 0.015915027 -0.018829767 0.052886914
0.05352285 0.049457636 0.030542348 -0.0152391875 0.0071325134 0.02800954 -0.058084864 -0.0024617882
-0.032118484 -0.045677662 -0.046893537 -0.028326537 -0.0101356525 -0.008089817 -0.0021802494 0.028240714
0.062057946 0.030896787 0.020617517 -0.012524616 -0.011895947 -0.024324887 -0.015008565 0.045360796
0.033806827 0.040540352 0.0475616 0.053096145 0.0568292 0.050002474 -0.008460936 0.08040241
0.10062082 0.04515649 0.009582347 0.091176644 0.11432578 -0.000778593 0.025325527 0.05974519
-0.0064212335 0.08065779 0.008897395 -0.103616126 -0.00073913595 0.03515938 0.010541848 -0.0099529065
0.08132627 0.10244319 -0.03262806 -0.08152472 0.05348094 -0.110065006 -0.19381961 -0.06945666

decoder_1_convlstm.conv.bias f4 [96]
00000000: 33c2 f13c b173 543d 29ee cd3d 7cd5 9d3d
00000010: c7a3 fdbc 2009 803b 336e 623d 675a 4f3c
00000020: d74c 13bd eb44 8d3d 1052 e3bb 18fe 583b
00000030: db05 52bb 5671 743c 32a0 113d 3878 19bd
00000040: 5a62 773c 9abb 0e3d 18c8 df3c ceea cd3c
00000050: a6db 4f3c 22a5 65bc 1b4b 86bc 89f3 1d3c
00000060: 1d18 0c3e be24 923d 13ae 1e3e f9ab a63d
00000070: b103 c03c 8fb3 a63d a6f1 fa3d b6aa e83d
00000080: c8e5 4abc e05a ca3c b56a ce3c 0954 b0bc
00000090: 5f03 97bb 10fe f73d 8e5b 5b3d 5f02 893d
000000a0: ab49 453d bef9 cf3d a144 a43d ec5d 1c3e
000000b0: a5fb 603c fd02 e23d 8d83 0a3d 267a a03d
000000c0: 697b d83c 206d d43c fe40 b43d 749b ef3d
000000d0: cc2e 7b3d 590b fb3d b567 743d 88eb ce3d
000000e0: c24c 2abc 1a83 133d cd05 f83c 30fb 71bc
000000f0: 03fc fe3c 8e48 e6b9 d432 e83c 783b fd3c
00000100: 1db3 813d 9cd5 5e3d 5596 4e3c c053 ae3d
00000110: a659 f73c b461 773c 519e 9a3c e6ae d53c
00000120: d3d8 d1bc 27ed 853d bf3b 9f3c 685f 473d
00000130: 81b3 c4bc cfd4 193c fd65 c2bd 1c73 053b
00000140: f354 3a3d 7e4c a4bd c916 4ebd 8d71 a43d
00000150: 5834 373d 542e 45bd aeed 10bc fce7 8c3c
00000160: 2230 903d d443 51bc d17a 28bc dfd8 9fbc
00000170: 969a e9bb 5b5a debc b6f6 7b3c 6358 0abd
0.029511547 0.051868144 0.10055191 0.077067345 -0.030961884 0.003907338 0.055280875 0.012655831
-0.035961952 0.06897911 -0.006937273 0.0033110436 -0.0032046947 0.0149195995 0.035553165 -0.037468165
0.015099132 0.03484688 0.027317092 0.025136378 0.012686646 -0.0140164215 -0.016393235 0.009640583
0.13681073 0.07135914 0.15496092 0.0813827 0.02343926 0.08139717 0.12253122 0.113606855
-0.012383886 0.024701536 0.025197366 -0.021524446 -0.004608556 0.121090055 0.05355411 0.066899054
0.04816596 0.101550564 0.080209024 0.15270203 0.013731872 0.11035726 0.033816863 0.07835798
0.026426034 0.025930941 0.08801459 0.11699572 0.061323926 0.12258024 0.059669215 0.10103518
-0.010394277 0.0360137 0.030276204 -0.01476936 0.031126028 -0.00043923076 0.02834455 0.030912146
0.06332991 0.054402933 0.012609084 0.08512068 0.030194115 0.015098978 0.01887432 0.026084375
-0.025616085 0.06539374 0.019437669 0.04867497 -0.024011375 0.009389116 -0.09492109 0.00203628
0.04549117 -0.08022402 -0.0503147 0.080294706 0.044727653 -0.048139885 -0.00884573 0.017200463
0.070404306 -0.012772519 -0.010283188 -0.019512592 -0.007129024 -0.027142694 0.015378645 -0.0337757

decoder_2_convlstm.conv.weight f4 [96, 48, 3, 3]
00000000: 6839 a83a eed1 c7bc c3d5 523c 7594 ef3c
00000010: 3a06 933d a76f abbd d332 c43d 8c74 cd3c
00000020: 1687 853c fb1a 2c3c 568d 873d 29c3 99bc
00000030: b961 cf3d 5d71 0bbd a7b7 973c bb95 8a3d
00000040: 17f5 603c cb79 663c aafe b03b c59c 5a3d
00000050: d8a7 0ebd c421 ee3b 82ab 5c3c 9b64 c13d
00000060: 510f 93bc 1238 b63d 7a1e 913d f7de 6dbd
00000070: 2e00 3d3d 2222 a33c 8e11 01bd ddcf 2fbd
00000080: bd06 bc3c 39cc 1ebd c99f 48bb f2ac d0bc
00000090: ce0b 55bd 0b94 163d b7f9 93bd ad9a 5b3d
000000a0: 6de4 91bd 3090 cabc 306e da3c aced fcbc
000000b0: e8ee d1bd 1065 2e3e c36c 8a3b 864e fe3b
000000c0: 75b3 9f3d fd1e 8b3d 3d41 04bd 2545 9e3d
000000d0: 3947 80bd dec5 0cbe 9aa9 df3d 1093 c4bd
000000e0: 554b 15be b8af 923d 3bd2 79bc 4f79 303e
000000f0: 30f5 8e3d 2ede 873d 6759 0d3d cb09 823d
00000100: ccb7 81bd 2cf1 f4bd 30b2 8c3d 58c4 c9bb
00000110: 434c dcbc f998 013e ad7b 2e3d 321e 24bb
00000120: d48e 5d3d 558d b23d 1c5c 533d 6095 14bd
00000130: 0dc0 333d c0e3 d43c 87cf 8b3d ef73 093d
00000140: e5ac 003d b375 8b3c 3797 2bbd f64d 81bd
00000150: 0bf5 133d 95bb 983d 6a75 3c3d 0fea f23c
00000160: edad b53c ca2a 2c3d 5a5a 2e3d f418 9f3d
00000170: d799 f13d 780f 6ebd e2fc 99bd de02 e1bd
00000180: 4e81 cfbd b53a 6cbd a7bf 40bb 977b 68bd
00000190: dcca 223e fc38 67bd 9625 87bd f18e 9a3c
000001a0: 8c7c d5bd 9522 bebd 9c13 af3a 8250 b13c
000001b0: 0c26 a8bc 7bc7 833d 1657 6c3e ab90 adbd
000001c0: c0da 323d 2212 3f3d b7c6 05bb e5d0 cfbd
000001d0: 279c 7bbe 98ef babd fb94 e43d 0c96 c53c
000001e0: 79cb 4ebe ae94 a63c 0dae 66bd 64b8 b5bd
000001f0: e9e5 e1bd f8ed 1cbd 3e88 acbd 8ace 163d
00000200: 8c4b 1d3e 5ec7 1ebe 8dac 02bd 11bd 80bd
00000210: a621 1cbe 7e08 00be 4c3f dfbc f08f a83d
00000220: b4b5 78be 4bea cdbd e2be 01be cc39 3e3e
00000230: c644 0fbc 2a1d 22bd f45d b63c 8d7b 48bd
00000240: 9d9f 91bd 8b0a 0ebd 3a9b 1a3b 6dee f5bb
00000250: 133f fb3c db8a 9cbd 4c0c 5cbd ad69 94bd
00000260: af62 41bc 361e 9b3b 19a1 9e3d d6d3 6d3d
00000270: 58f7 92bd 1219 da3a d543 8b3d 3bbb 7a3d
00000280: 85dc 56bc e2f2 aebd 7989 dd3d 9988 8fbd
00000290: 28a8 8c3d 1091 b03d d027 05bd 8b80 ba3d
000002a0: 39de adbd 7bd6 203b 8c73 c93d c04f 4f3d
000002b0: 004b d03c 7060 373c e592 103d 81fc 3f3d
000002c0: 2518 523e 5168 cfbc 0896 39bd 3b0b 12bb
000002d0: 66e6 07bd c5ab a03d ad3c 523e 16ee f2bd
000002e0: aa30 2abe ff3c a23c e7af e6bd 3ba4 b03c
000002f0: 67e6 eebd b471 353d 8a26 0c3c 7bb7 27bd
00000300: 1edd 35bd b323 983c 1edf 4b3c 9da9 b53c
00000310: 58be a4bc ac61 ec37 098e af3d 36ed 793b
00000320: 038b 4bbc 0e63 39b9 a7b1 b9bc b7af 4fbc
00000330: 30bc 8cbc 08f4 6fbd 5f64 51bd f66f 823d
00000340: 70b2 853d a7b1 273d 3b97 f73c 8848 ae3d
00000350: 2f1a 123c b3fa c03c 3450 61bd 196f ff3c
00000360: 977f 203e 0826 f83d 6edf b9bd 6530 533d
00000370: 6f6e 1dbd 22ca 96bc 140a 91bd dd7a f03d
00000380: 88b9 98bd 981b 70bd 1cdb 933d 03ec 88bc
00000390: e20a 863d 83ee a5bc 1605 513d 9782 2b3d
000003a0: ceb2 0e3b 6ef8 3fbd 46c4 6dbc 7317 b93c
000003b0: bb79 0a3d 250d 7e3d 048f b73d 46ae 213d
000003c0: 6d71 d33c 3fd0 913c 4d42 a6bd eb27 f4bc
000003d0: 9473 b43d 8927 1c3e 28af 0cbe b661 1b3d
000003e0: df04 663d c170 b4b9 fead 793e 01be 4a3d
000003f0: 9304 163d 531b a0bd e296 28be 1429 9d3d
0.0012834491 -0.024392094 0.012868348 0.029245595 0.07178922 -0.08370905 0.095800065 0.025079988
0.016299766 0.0105044795 0.066187546 -0.018769817 0.10126061 -0.03404366 0.01852019 0.0676684
0.013730309 0.014067124 0.005401452 0.053372163 -0.034828037 0.007267209 0.013468625 0.09443017
-0.01795164 0.08897413 0.07085891 -0.058073964 0.04614275 0.019913737 -0.031510882 -0.042922843
0.022952432 -0.03876898 -0.0030612817 -0.025473092 -0.05201321 0.03676228 -0.07225364 0.053614307
-0.07123647 -0.024726957 0.02666387 -0.03087505 -0.10250646 0.1703074 0.004224391 0.0077608256
0.077979006 0.0679302 -0.03228878 0.07728032 -0.06263585 -0.13747355 0.10921021 -0.095983624
-0.14579518 0.07162422 -0.015247877 0.17233776 0.069803596 0.06634174 0.03450909 0.06349524
-0.063338846 -0.119600624 0.06869924 -0.006157439 -0.026891833 0.1265601 0.042598415 -0.0025042412
0.05409129 0.08718363 0.051601514 -0.036275268 0.043884326 0.025987506 0.06826692 0.03355783
0.031414885 0.017023897 -0.041892257 -0.06313698 0.036122363 0.074576534 0.046010412 0.029652623
0.02217766 0.042032994 0.042566635 0.07768431 0.11796921 -0.05812022 -0.07518937 -0.10986875
-0.10132085 -0.057673175 -0.0029411109 -0.05675849 0.15897697 -0.05645083 -0.06598966 0.018866988
-0.10424146 -0.0928394 0.0013357284 0.021644834 -0.020525955 0.06434532 0.23080096 -0.08474859
0.043665648 0.046648152 -0.0020412633 -0.10147265 -0.24571286 -0.0912773 0.11161228 0.0241194
-0.20194806 0.020334568 -0.05631833 -0.0887306 -0.1103018 -0.038312882 -0.08424424 0.036818065
0.1536085 -0.1550574 -0.03190284 -0.062860616 -0.15247211 -0.1250324 -0.027251862 0.08230579
-0.24288064 -0.100544535 -0.12670472 0.18576735 -0.008744424 -0.039578594 0.022261597 -0.048945952
-0.07110522 -0.034678023 0.0023591057 -0.007505229 0.030669725 -0.07643672 -0.053722665 -0.072467186
-0.011803313 0.004733826 0.07745571 0.05806335 -0.07176083 0.0016639552 0.06800047 0.061213713
-0.013114099 -0.0854242 0.108172365 -0.07008476 0.06868011 0.086214185 -0.03250867 0.09106549
-0.08489651 0.0024541903 0.09836492 0.050613165 0.025426388 0.011192426 0.03529634 0.046871666
0.20517023 -0.025318297 -0.045309097 -0.0022284526 -0.03317871 0.078452624 0.20530958 -0.118618175
-0.16620126 0.019804476 -0.112640195 0.021562686 -0.116650395 0.04429789 0.00855411 -0.040946465
-0.044400327 0.01857171 0.012443332 0.022175604 -0.020110294 2.8178874e-05 0.08572013 0.0038135774
-0.01242328 -0.00017679876 -0.022667719 -0.012676171 -0.017179579 -0.058582336 -0.051121112 0.06369011
0.06528175 0.040940907 0.03022348 0.08509928 0.0089173755 0.023557043 -0.05500813 0.031180905
0.15673672 0.12116629 -0.09075819 0.051559824 -0.038435396 -0.018406931 -0.070820004 0.11742184
-0.07457262 -0.058620065 0.07219526 -0.016714102 0.065450445 -0.020255333 0.05103024 0.041872587
0.0021774056 -0.04686778 -0.014512127 0.02259419 0.033807497 0.062024254 0.08962825 0.03947284
0.025810922 0.017799495 -0.081181146 -0.02980419 0.08811107 0.15249456 -0.13738692 0.03793498
0.05615699 -0.00034416284 0.24382779 0.049497608 0.036625456 -0.07817712 -0.16463807 0.07673851

decoder_2_convlstm.conv.bias f4 [96]
00000000: 2d9b 74bd 0aad c5bd 4787 efbc 23b7 1c3d
00000010: e97e 2fbd ad48 7abd db86 e5bd f1ab e9bc
00000020: fea6 89bc 35fe e2bc b709 99b8 1903 71bd
00000030: e9c5 8d3c 5d7e c63c 0a35 8a3c 119d 4abd
00000040: 7aac 803d a228 febd fe57 18bd 8107 0ebd
00000050: 5950 20bc b4d5 77bd 6cd3 92bd df03 03bd
00000060: adfb 293d 539f 593c be52 903c e82a 0d3c
00000070: f0aa 883c cab8 93bc 242f a73c 56d2 023d
00000080: fbed 693d 358a 823d ff5a f03a e656 d03c
00000090: e5f3 de3d b563 833d 09ad df3d edd0 ecbc
000000a0: 02d2 7f3d a065 393c 06c8 603d 00b1 063d
000000b0: 80ea 9a3d 266b 333d bd60 623d 31da e63d
000000c0: be89 e0bc 5e8a 2abd 1baf 44bd cff8 dcbc
000000d0: b53d 843c 07ac b1bd a322 4bbd 09e8 0fbd
000000e0: da8c 373d 54d0 903c a032 2f3d cbd5 75bd
000000f0: 37fd dc3c 6fbd 343d 6e5f 91bc 0855 02bc
00000100: d075 b23d ac9b b6bd aed4 25ba 71e3 febc
00000110: 7c8f 193d 0b1b 733b 6eb1 8dbd 3333 4c3c
00000120: 1d33 123d 9262 533c 3065 62bc c479 203d
00000130: 443f 88bb f4ab 363d 53c3 1b3d cc31 88bc
00000140: 2986 22bd 60b0 923c 0519 913c 45e5 a7bc
00000150: 7cd1 b9bc d121 12bd c5da a03c e8b7 d73c
00000160: 5f3f 0e3d 70fd 903c f36b 723d 4a66 bfbc
00000170: 5568 613c a647 91bb 5ead 2fbd f142 abbc
-0.0597183 -0.09652145 -0.02923931 0.03826059 -0.04284564 -0.061104465 -0.11207362 -0.02852437
-0.01680326 -0.027709106 -7.297418e-05 -0.058840845 0.017306285 0.024230177 0.016870994 -0.049466196
0.06282897 -0.12410094 -0.03719329 -0.034675125 -0.009784781 -0.060506538 -0.07169232 -0.031986114
0.041499782 0.013282615 0.01761758 0.008616187 0.016683072 -0.01803245 0.02040822 0.031938873
0.05711172 0.06374017 0.0018337666 0.025432061 0.10886363 0.06415502 0.10921676 -0.028908217
0.06245614 0.011315733 0.054878257 0.032883644 0.075642586 0.043803357 0.055268038 0.112720855
-0.02740943 -0.041635863 -0.048018556 -0.02697411 0.016142705 -0.0867539 -0.04959358 -0.035133395
0.04481206 0.017677464 0.04277289 -0.060018342 0.026976211 0.04412597 -0.0177457 -0.007954843
0.08713877 -0.08916411 -0.0006325942 -0.031114312 0.037490353 0.0037094976 -0.06918608 0.012463379
0.035693277 0.012901919 -0.01381807 0.039178625 -0.0041579325 0.04459758 0.038028073 -0.016625308
-0.039678726 0.017906368 0.017712126 -0.020495066 -0.022682898 -0.03567678 0.019635567 0.02633281
0.034728404 0.017698973 0.05918498 -0.023364205 0.013757785 -0.00443359 -0.042889945 -0.020905944

batchnorm2.weight f4 [24]
00000000: 4bea 773f 6d21 7c3f 71f2 763f ec27 773f
00000010: 25d6 7a3f 6005 773f bde0 783f 31b6 7a3f
00000020: a961 743f ac5a 7b3f 953b 753f fbfa 733f
00000030: ab34 773f e8fd 763f c2ce 783f ed54 7a3f
00000040: 24be 723f 1de6 753f 102f 783f 96c8 763f
00000050: ec28 783f 1954 773f e504 743f 6d30 7b3f
0.9684188 0.98488504 0.96463686 0.9654529 0.9798301 0.96492577 0.97217923 0.9793425
0.9546152 0.9818523 0.9579404 0.9530484 0.9656474 0.9648118 0.9719049 0.97785836
0.9482138 0.9605425 0.9694681 0.9639982 0.9693744 0.966127 0.9531997 0.98120767

batchnorm2.bias f4 [24]
00000000: 5987 f7bb 2541 75bc ce52 013c de90 d83b
00000010: ecde aa3c 6154 73bc b6a2 6a3a 134e acbc
00000020: 14aa 03bb c409 493b a862 4c3b 99ae 62bc
00000030: 450d 0cbd 09be b03c e374 a13c 8708 b9bc
00000040: 9461 1c3d f899 aebc 7df6 e8bc 92d3 75bc
00000050: 5fa4 363c 9f75 16bc a405 73bc a149 88bc
-0.0075539765 -0.014969145 0.007893277 0.0066090664 0.02085825 -0.0148516605 0.00089506374 -0.021033322
-0.0020090388 0.0030675987 0.0031186733 -0.013835573 -0.034192342 0.02157499 0.019709056 -0.022587074
0.038178995 -0.021313652 -0.028437847 -0.015004056 0.011147588 -0.0091833165 -0.014832888 -0.016636671

batchnorm2.running_mean f4 [24]
00000000: b943 663c b8ce d63c 65af 13bc 6d4e 02bc
00000010: db0f 333d d6b5 143c b624 a93c 8c3a 6ebc
00000020: 24c1 13bd 226c ec3c 1720 eebb 7f40 33bd
00000030: bd90 9bbc 31fc f3bc 7568 17bc dfd4 163d
00000040: 99d5 c7bc 3263 8d3c 1ce5 223d 9372 04bd
00000050: b448 45bc f209 1abd 6eb9 b8bc 5bd2 3bbd
0.014054232 0.026221618 -0.009013985 -0.0079532685 0.043716293 0.009076556 0.020647388 -0.014540326
-0.036072865 0.028860155 -0.007267009 -0.04376268 -0.018989915 -0.02978334 -0.009241213 0.036824103
-0.024393843 0.017259214 0.039769277 -0.03233583 -0.01204126 -0.03760714 -0.022549357 -0.045854907

batchnorm2.running_var f4 [24]
00000000: 9fd1 ce3c 0793 313c ce2f 223c d4c5 453c
00000010: bde1 893c 69ee 163c 84e4 033c 729d 273c
00000020: 33c1 8b3c f96d fc3b 4ece c03c 71df 0b3c
00000030: d15a 833c 2052 393c e59b 203c 9b42 363c
00000040: 89ee 953c 6e65 143c 9e3a ac3c e54a 6c3c
00000050: 3131 5d3c ffc2 353c 1d4a e53b f316 913c
0.02524644 0.010838277 0.009899093 0.012071092 0.016831273 0.009212115 0.008050088 0.010230409
0.017059898 0.0077035394 0.023535874 0.008537159 0.016034516 0.011311084 0.009802793 0.011124278
0.018302219 0.009057386 0.021024045 0.014422153 0.013500498 0.011093854 0.0069973604 0.017711138

decoder_CNN.weight f4 [1, 24, 1, 3, 3]
00000000: 11b3 233d 3d01 66bc 8508 8c3c 0470 55bd
00000010: 7d75 1f3c 27c7 2fbc 7d32 673c 1bfa 03bb
00000020: 1fd8 203c 80fc 19bc 0c68 2c3d fc0c 833d
00000030: 1269 7bbc 07d4 833c 0a22 373c 3b1e 863c
00000040: 4efe 8d3b ab72 debc 4f45 3abc 3034 edbc
00000050: 543c bdbc 8db2 e63c 2843 40bd 99a8 ffbc
00000060: 9e44 f73c ccce 263d 1252 643d 6e2a 87bc
00000070: 67fa f43c c46c 693c f455 2cbd e144 21bd
00000080: 9cc8 09bd c170 103d 4939 a33c 4806 423c
00000090: 3663 1c3c 1def 6fbd 8545 333c 152c f7bc
000000a0: 0579 9f3b 718b a23c 2079 2bbc 462b 5fbd
000000b0: ee88 ba3c c539 4bbd 22c0 113c f152 76bd
000000c0: ba36 163d 1595 e23c e1d4 3a3d c558 583d
000000d0: 42b1 073d 5c6a 23bd 246b ea3c a085 86bd
000000e0: a9d5 483d 7622 5a3d 1100 dc3b 860c 173d
000000f0: 8915 303d ea0d 81bd fe45 1ebd 849b d93c
00000100: 7506 1c3d 5ac2 163d 1a59 16bd ea32 ae3c
00000110: 009d 303d 11b8 0b3d 65d3 163d 01a4 67bc
00000120: 098c 3c3b 83fc 4a3d 60e4 48bd d56c b8bc
00000130: db40 bb3c eb96 08bb 4134 fbbc 5e70 ab3c
00000140: e5cc 99bc 57f1 383d cbd1 34bd a559 633d
00000150: 5dfa 40bd 2d41 7e3c 2490 40bd 3b88 443d
00000160: 24c9 0b3d cd46 2bbd d991 f33c 8275 96bd
00000170: b6fb ff3c 28f9 43bc 19b9 6e3d af3f e33b
00000180: b531 e63c ab71 4bbd 37ad 3fbc 1fc3 003d
00000190: 653d 22bd 2c5c 043d 5fee 843c 9b84 1b3d
000001a0: 6689 d5bb 5edb d7bc 5a6e 093c 7971 e1bc
000001b0: 0a3b 36bd 25b6 e83c a461 6a3c 6c19 e1bc
000001c0: bc79 353d f810 923a d5a4 883b ff63 3a3c
000001d0: 4b3e a0bc 2409 8fbc 09af dabc 5141 063c
000001e0: eb9b e8bc 537c 783d 0552 393d b2b0 8ebc
000001f0: c0dd 66bd 4765 72bc c83b ca3c 44f0 77bc
00000200: 3c02 a93c 0392 ddbc 720f 803c b5b1 9bbc
00000210: 2966 41bd 2547 75bc faa0 4abc 8060 b0bc
00000220: 236e 1a38 5a43 033d fd55 193d f246 313d
00000230: a30e 9fbc 1d2f 3c3c 2daf 37bb 7adf 243d
00000240: 1984 f03c a4cf 04bc 903f 2d3d 1eb3 1cbd
00000250: 56c0 04bd f591 f53b 8738 5e3d 9ac9 53bd
00000260: 2cbb 933c 6b0a 063d 0b65 85bd 9b33 4bbd
00000270: 68e0 383d cf60 313d 42be c1bc 59f0 da3b
00000280: 76a6 133d 2088 5bbb 797a 66bd be23 593d
00000290: 45c3 043d bbb9 33bd 1314 b93c 7b7b 193d
000002a0: 059a 6aba 7d53 d1bc 509f ff3c 2f72 16bc
000002b0: 8dc1 003d 77e8 38bd e20f ec3b dec2 c0bc
000002c0: 6dc5 a3bc f0d4 5b3d 7bec 0e3c 2c7d f33c
000002d0: 19e9 9bbb 6aa2 27bd a96e 65bc ff14 fabc
000002e0: 457a 103c c618 243c 87e8 f3bc 4a13 d53c
000002f0: 7885 9d3c cb90 1bbb 82eb 663b 1807 13bd
00000300: 4fb0 103d fffb 32bd 48fe 223d 0726 4f3c
00000310: 2037 103c c678 d53b 1d5c 4e3d 30c1 86bd
00000320: fdbc 093d 6b62 22bd 51f6 26bd 1b22 dd3c
00000330: 08e9 553d 7dda c839 54a1 183d 2c11 093d
00000340: a997 18bc 7056 713d 354f 68bb 9833 57bd
00000350: 6ac2 0d3d 0dce 75bc b31b 27bc bdc1 ed3c
0.039965693 -0.014038381 0.017093906 -0.05210878 0.009732601 -0.010728634 0.014111158 -0.0020138088
0.009817152 -0.00939858 0.042091414 0.06398961 -0.015344875 0.016092313 0.011177549 0.016371837
0.004333294 -0.027154287 -0.0113690635 -0.028955549 -0.023100056 0.028161312 -0.046939045 -0.031208323
0.030184086 0.04072456 0.05574233 -0.016499724 0.029904557 0.014247123 -0.04207416 -0.03937233
-0.03363858 0.03526378 0.019924777 0.011842318 0.009545138 -0.058577646 0.010941868 -0.030172387
0.0048667216 0.019841881 -0.01046589 -0.05448463 0.022770371 -0.04961564 0.008895906 -0.060137693
0.036673285 0.027658978 0.045613173 0.052819032 0.03312803 -0.039896354 0.028615542 -0.06568456
0.049031887 0.05325552 0.006713875 0.036877178 0.042989288 -0.06301482 -0.03864097 0.026563413
0.038092095 0.03680644 -0.036706068 0.021264512 0.043118477 0.034111086 0.036822695 -0.014138223
0.002876999 0.04955722 -0.04904592 -0.022512833 0.022858074 -0.0020841907 -0.030664565 0.020927604
-0.01877446 0.045152035 -0.044145387 0.055505414 -0.047113765 0.015518469 -0.047012463 0.047981482
0.03412737 -0.041815568 0.029732632 -0.073466316 0.031247955 -0.011961259 0.05828199 0.006935082
0.028099874 -0.04966895 -0.0116990125 0.031436082 -0.03960933 0.032314464 0.016226945 0.03796826
-0.0065166233 -0.02634972 0.008388126 -0.027519928 -0.044489898 0.028407166 0.014305506 -0.027477942
0.044305548 0.0011143973 0.00417004 0.01137638 -0.019560954 -0.017460413 -0.026694791 0.008194284
-0.02839466 0.06066544 0.045244236 -0.01741824 -0.05636382 -0.014794654 0.024686709 -0.015132967
0.020630948 -0.027047163 0.015632365 -0.019005636 -0.04721657 -0.014970575 -0.012367481 -0.02153039
3.6819034e-05 0.032046653 0.03743552 0.04328055 -0.019416159 0.011485842 -0.0028027997 0.040252186
0.029359864 -0.008106146 0.042296946 -0.038256757 -0.03240999 0.007494206 0.054253127 -0.051705934
0.018033586 0.03272478 -0.06513413 -0.04960976 0.045135885 0.043305214 -0.023650292 0.0066814837
0.03604742 -0.0033497885 -0.056269143 0.053012602 0.032412786 -0.0438783 0.02259258 0.037471276
-0.00089493423 -0.025552506 0.031203896 -0.009182497 0.031434584 -0.04514357 0.007204042 -0.02353042
-0.0199916 0.05366987 0.0087233735 0.029722773 -0.004758012 -0.040926374 -0.014003434 -0.03052759
0.008818214 0.010015672 -0.029773964 0.026010174 0.019228682 -0.0023737426 0.0035235588 -0.035895437
0.03532439 -0.043697353 0.039793283 0.012643344 0.008802205 0.0065146415 0.050380815 -0.06579816
0.0336275 -0.03964464 -0.04076225 0.026993802 0.05222419 0.0003830976 0.03726323 0.033463642
-0.009313502 0.058920324 -0.0035447602 -0.052539438 0.034609236 -0.01500274 -0.010199475 0.029023046
