models/encoder_decoder/saved_models/lr_0.0005/epoch_2910.pt (torch, 618274 bytes, 17 tensors)

encoder_1_convlstm.conv.weight f4 [96, 32, 3, 3]
0	0x3bc1ac33	0.0059104203
1	0x3c73b98e	0.014875783
2	0x3ce3eecb	0.027823826
3	0x3da3199a	0.079638675
4	0x3db461b1	0.08807696
5	0x3d857c68	0.06517869
6	0xbdb152d7	-0.086583786
7	0x3d4aeb78	0.049540967
8	0x3d987354	0.07443872
9	0x3e96b5c9	0.29435566
10	0x3dfb5972	0.1227292
11	0x3e3a0128	0.18164504
12	0x3e0a7798	0.13522184
13	0x3e0ed140	0.1394701
14	0x3e659d31	0.22423245
15	0xbd01048b	-0.031498473
16	0xbc2402aa	-0.010010401
17	0x3e19c9ef	0.15018438
18	0xbcac8ca2	-0.021063153
19	0xbbf37570	-0.007429771
20	0xbe08715d	-0.13324495
21	0x3d6c0064	0.05761756
22	0xbc491e4d	-0.012275291
23	0xbdbac567	-0.09119683
24	0xbe749ac2	-0.2388716
25	0xbdcc71b2	-0.09982623
26	0xbd8dec6e	-0.06929861
27	0x3ca087be	0.019595977
28	0x3da7ca97	0.08192938
29	0xbdca168a	-0.0986758
30	0xbcab5dae	-0.020918693
31	0xbd89fcd9	-0.0673768
32	0xbde4bd91	-0.111689694
33	0xbd5ecc3e	-0.054394
34	0xbd5c821b	-0.053835016
35	0xbcb5f20b	-0.022210142
36	0xbd898712	-0.06715216
37	0xbd1222bd	-0.03567766
38	0xbddc883e	-0.10768174
39	0xbd4186eb	-0.04724781
40	0xbe2d4575	-0.16921027
41	0xbdf8df8c	-0.12152013
42	0xbd9209cf	-0.07130777
43	0x3d3c46f3	0.0459661
44	0x3d8afee7	0.067869
45	0xbc09b5a7	-0.008405126
46	0xbd63b9a9	-0.05559698
47	0x3e1f3f80	0.15551567
48	0xbb97976b	-0.0046262047
49	0xbd1b2aae	-0.0378825
50	0x3d8ebe6a	0.06969912
51	0xbc490cdb	-0.012271131
52	0xbd954129	-0.07287819
53	0x3e5cbffb	0.2155761
54	0xbdead1b7	-0.11465781
55	0xbdaf8c54	-0.08571687
56	0x3dd16531	0.10224379
57	0x3b6b249b	0.0035879973
58	0xbcb462f0	-0.022019833
59	0x3dfde79e	0.12397693
60	0xbcf66994	-0.03007964
61	0x3c588d47	0.013217277
62	0x3e42616b	0.18982475
63	0xbd57f8da	-0.052727558
64	0xbbee4e56	-0.007272522
65	0x3d7b96cb	0.061423104
66	0xbdb69e14	-0.0891687
67	0xbca49781	-0.020091774
68	0x3aa66086	0.0012693561
69	0x3ddb5591	0.1070968
70	0xb9996966	-0.00029260962
71	0xbd6dd137	-0.05806085
72	0xbc5d68be	-0.013513742
73	0xbdd4248f	-0.103585355
74	0x3d186d48	0.037213594
75	0xbdca4cd4	-0.09877935
76	0x3d306676	0.043066464
77	0xbbdf6697	-0.0068176496
78	0xbd608984	-0.054818645
79	0xbddf68a7	-0.10908633
80	0xbdc92c1b	-0.098228656
81	0xbcee66a1	-0.029101672
82	0xbd42923f	-0.047502752
83	0xbe18d394	-0.1492446
84	0x3e13aa16	0.14420351
85	0x3dce343c	0.10068557
86	0x3d4e8f32	0.05042953
87	0xbc46ca9b	-0.012133266
88	0x3d253397	0.040332403
89	0xbd8635a7	-0.06553202
90	0x3e06bcf8	0.13158023
91	0x3d40b10b	0.04704384
92	0x3d8305a6	0.06397562
93	0x3d9f84f3	0.0778903
94	0xbcb353f8	-0.021890625
95	0x3e0279ce	0.12741777
96	0xbde85ebb	-0.113461934
97	0xbd1d4d02	-0.03840352
98	0xba9750f5	-0.0011544513
99	0xbcb942ae	-0.022614803
100	0xbd40379d	-0.046928037
101	0xbe159732	-0.14608458
102	0x3b1f0441	0.002426401
103	0x3c7a08c6	0.015260881
104	0xbd92018a	-0.071292
105	0xbce931e8	-0.02846618
106	0xbe1253c4	-0.14289767
107	0xbde2919e	-0.110629305
108	0xbdc62956	-0.09675853
109	0xbca90fe2	-0.020637456
110	0xbca26a62	-0.019826118
111	0x3e0a80a3	0.13525634
112	0x3d0f13b9	0.03493092
113	0x3c437589	0.011929878
114	0x3d81d3ba	0.06339212
115	0xbd06d8c5	-0.03292157
116	0xbc7d0918	-0.015444063
117	0x3d5d0a04	0.05396463
118	0xbd663904	-0.056206718
119	0x3e07d253	0.13263826
120	0x3e288b06	0.16459283
121	0xbd5798dc	-0.052636012
122	0x3d049a9f	0.03237402
123	0x3d4a7a59	0.049433086
124	0x3dffe607	0.12495046
125	0x3e23df8a	0.16003242
126	0x3deb188e	0.11479293
127	0x3d9f6a28	0.077839196
128	0xbcdbd4a1	-0.026834788
129	0xbd812f93	-0.06307902
130	0x3d38c6a5	0.045111317
131	0x3dc7aa2f	0.09749257
132	0xbe497637	-0.19674002
133	0xbd64c8b4	-0.055855468
134	0xbd6aebc8	-0.057353765
135	0xbe75ad3f	-0.2399187
136	0xbd94c2fe	-0.07263754
137	0x3b497c7e	0.003074437
138	0x3e141301	0.14460374
139	0x3d98a8eb	0.074540935
140	0xbd6b8623	-0.05750097
141	0x3e142f81	0.14471246
142	0xba8796e9	-0.0010344657
143	0x3d1c3686	0.038137935
144	0xbe14c9bb	-0.14530079
145	0xbe0aa336	-0.13538823
146	0x3cae714f	0.021294264
147	0x3e44b150	0.19208264
148	0x3d1a2a20	0.03763783
149	0x3d7eb377	0.06218287
150	0x3dd499c0	0.10380888
151	0x3e592edc	0.21209282
152	0x3e435a5e	0.19077441
153	0x3d6fe4b6	0.058567725
154	0x3cdcbad4	0.026944555
155	0x3d5891b6	0.052873336
156	0x3db3b882	0.087754264
157	0x3e15677a	0.14590254
158	0x3d859d55	0.06524149
159	0x3e104d32	0.14091948
160	0x3e50518d	0.20343609
161	0xbbe98395	-0.0071262815
162	0xbbd83a88	-0.0065987743
163	0xbc732205	-0.014839654
164	0x3e783124	0.24237496
165	0x3dd16939	0.10225148
166	0xbd475ffd	-0.048675526
167	0xbaf1bf98	-0.001844394
168	0xbcf440ad	-0.029815996
169	0xbcabf9cc	-0.020993136
170	0xbcb0e4f4	-0.021593548
171	0x3d813634	0.063091666
172	0x3dc6d7dc	0.09709141
173	0x3e4bedb2	0.19914892
174	0x3c011248	0.007877894
175	0x3e0f6450	0.1400311
176	0x3d4e78de	0.050408237
177	0x3db0ede5	0.08639125
178	0x3c49bdaf	0.0123132905
179	0x3e028978	0.12747753
180	0xbd5ca86b	-0.053871553
181	0x3d9f4dec	0.07778534
182	0xbcb4878a	-0.022037286
183	0xbe3a3174	-0.18182927
184	0xbd6e77cc	-0.058219716
185	0xbc68fc8a	-0.014220366
186	0xbe98c96d	-0.29841176
187	0xbe732458	-0.23744333
188	0xbdfd7518	-0.123758495
189	0xbe2905d4	-0.1650613
190	0x3d07b82b	0.03313462
191	0x3d1f5115	0.038895685
192	0x3cdda889	0.027057903
193	0xbd755595	-0.05989607
194	0xbd1323c1	-0.03592277
195	0xbd7d3867	-0.061821368
196	0xbd669a19	-0.056299303
197	0x3e21cd66	0.1580101
198	0xbde0ff49	-0.10986192
199	0xbe6de6d3	-0.23232584
200	0xbddda4be	-0.10822438
201	0xbcfadcbe	-0.030622836
202	0xbdd1ee4a	-0.10250528
203	0xbd784955	-0.06061681
204	0xbde8e62f	-0.11372029
205	0xbcbb6354	-0.022874512
206	0x3c503330	0.012707517
207	0x399328a1	0.00028068296
208	0x3d0c1cce	0.034207158
209	0xbae79b4f	-0.0017670187
210	0xbddcf612	-0.10789122
211	0x3d174a41	0.03693605
212	0x3d3b1a71	0.045679513
213	0x3d08a508	0.03336051
214	0x3e2da7ec	0.16958588
215	0x3cd87242	0.02642167
216	0x3d0e28aa	0.03470675
217	0x3c97c057	0.018524332
218	0xbd7fc480	-0.062443256
219	0xbdff11c5	-0.12454561
220	0xbe0a63b5	-0.13514598
221	0xbd8cf7dc	-0.06883213
222	0xbcb056ca	-0.02152576
223	0x3d1783db	0.03699098
224	0x39a17dc2	0.0003080201
225	0xbdb529e1	-0.088458784
226	0xbe114b45	-0.1418887
227	0xbda5c777	-0.080946855
228	0xbd54bd9e	-0.051938646
229	0xbe3419d7	-0.17587982
230	0xbccc256b	-0.024920186
231	0x3e3068d2	0.17227486
232	0xbdc3a1ee	-0.0955237
233	0xbd2a47ca	-0.04157237
234	0xbe787d9c	-0.24266666
235	0xbe5cb243	-0.21552376
236	0xbda318fb	-0.07963749
237	0xbe04df82	-0.12975886
238	0xbdc41628	-0.095745385
239	0xbd4ac21c	-0.049501523
240	0xbcdba718	-0.026813075
241	0xbc94d547	-0.018168105
242	0xbd62c3b0	-0.055362403
243	0xbcbf6e25	-0.02336795
244	0xbdd54198	-0.10412902
245	0x3bc08a28	0.0058758445
246	0xbe1f93c7	-0.15583716
247	0xbe1dbced	-0.154041
248	0x3cde335d	0.027124101
249	0xbdfe1fb0	-0.12408388
250	0x3c97bf00	0.018523693
251	0xbd0bca46	-0.03412845
252	0xbd167f2a	-0.036742367
253	0x3d2379e1	0.039911155
254	0x3e0ff23b	0.14057247
255	0xbddc6e65	-0.107632436

encoder_1_convlstm.conv.bias f4 [96]
0	0xbd4597d9	-0.048240516
1	0xbe0a7db2	-0.13524511
2	0xbe91fe33	-0.2851425
3	0xbd119823	-0.03554548
4	0xbe70d149	-0.23517336
5	0xbe778a11	-0.24173762
6	0xbe60b3b7	-0.21943556
7	0xbeb74398	-0.35793757
8	0xbe207dd1	-0.15672995
9	0xbe47fe45	-0.1953059
10	0xbe86f281	-0.2635689
11	0xbe35c059	-0.17749156
12	0xbe05800c	-0.13037127
13	0xbe4dbddf	-0.20091961
14	0xbe82363e	-0.25432009
15	0xbd7344d3	-0.059391808
16	0x3c8ed55c	0.017435722
17	0x3b94c2f6	0.0045398427
18	0xbdd5a4e4	-0.10431841
19	0xbe56b281	-0.20966531
20	0xbe9764de	-0.29569143
21	0xbe48fe4c	-0.19628257
22	0xbe416e3a	-0.18889704
23	0xbeff3988	-0.4984858
24	0xbd32d216	-0.043657385
25	0xbd2432db	-0.040087562
26	0xbcaccfdb	-0.021095207
27	0xbe4d7681	-0.20064737
28	0xbde64d89	-0.112452574
29	0xbe615f0c	-0.22008914
30	0xbd8d4ae9	-0.068990536
31	0xbe9e44c9	-0.30911854
32	0xbd8b35ef	-0.067973964
33	0xbe5fd0b1	-0.21856953
34	0xbe50b217	-0.20380436
35	0xbe1af005	-0.15130623
36	0xbd96a9d5	-0.07356612
37	0xbd23c677	-0.039984193
38	0xbea7701e	-0.32702726
39	0xbe607e4a	-0.21923175
40	0xbe8c6d29	-0.27427033
41	0xbdeb2e9b	-0.11483499
42	0x3d1af0f4	0.037827447
43	0xbdc3ddeb	-0.09563812
44	0xbe4eb631	-0.20186688
45	0xbdd80de6	-0.10549526
46	0xbe53e213	-0.20691709
47	0xbe7be3ed	-0.24598666
48	0xbcbbe716	-0.022937339
49	0xbd6fbf80	-0.058532238
50	0xbe2421a7	-0.16028462
51	0xbd2399d6	-0.03994163
52	0xbe5bcedb	-0.21465628
53	0xbe91012e	-0.28321213
54	0xbe3ecc5a	-0.18632641
55	0xbdff7d58	-0.12475079
56	0xbd047aa6	-0.03234353
57	0xbe58e9e8	-0.21182978
58	0xbe5d26e9	-0.21596874
59	0xbdfc72e6	-0.12326603
60	0xbc6dea0e	-0.014521135
61	0xbda80292	-0.08203615
62	0xbe2eac8d	-0.1705801
63	0xbd4ac6e8	-0.049506098
64	0x3c02ccc2	0.007983388
65	0xbd39797c	-0.045281872
66	0xbd1baab7	-0.038004603
67	0xbe36bd52	-0.17845657
68	0xbea01f14	-0.3127371
69	0xbe41498b	-0.1887571
70	0xbe0fb765	-0.14034803
71	0xbe16a72b	-0.14712207
72	0x3cd5d5ed	0.026102984
73	0xbdc0fb6c	-0.09422955
74	0x3cecbf0d	0.028899694
75	0x3c28f282	0.010311725
76	0xbd65222c	-0.055940792
77	0x3d550ad2	0.052012272
78	0x3c375161	0.011188836
79	0x3d6d8b3c	0.057994112
80	0xbc235403	-0.00996876
81	0x3d28177d	0.041038025
82	0x3d893352	0.06699242
83	0x3dcc71ba	0.09982629
84	0xbd971857	-0.07377689
85	0x3d8919db	0.06694385
86	0xbdb07b8c	-0.08617315
87	0x3d9502dc	0.07275936
88	0xbde980d6	-0.11401527
89	0xbdb79cb7	-0.08965438
90	0xbd9b94e2	-0.075967565
91	0x3dc5453a	0.096323445
92	0xbc08d56e	-0.008351667
93	0xbd193a73	-0.037409257
94	0x3d2dfdeb	0.042478483
95	0xbd80c899	-0.06288261

encoder_2_convlstm.conv.weight f4 [96, 48, 3, 3]
0	0x3e17c7aa	0.1482226
1	0x3defb48b	0.11704358
2	0x3d9c49eb	0.07631286
3	0x3e17dbd2	0.14829949
4	0x3da85325	0.082189836
5	0x3d59f631	0.053213302
6	0xbd49554f	-0.049153622
7	0xbcd386a0	-0.02582103
8	0xbb22a57f	-0.0024817882
9	0x3db9a644	0.09064916
10	0x3e37ab5c	0.17936462
11	0x3e3afc38	0.18260276
12	0x3d67495f	0.056466457
13	0x3d4598f2	0.048241563
14	0x3e34db8a	0.17661873
15	0xbd539968	-0.05165997
16	0xbd8c39ef	-0.068469875
17	0xbcf03c22	-0.029325549
18	0xbc966986	-0.018360864
19	0x3df0d2fb	0.11758991
20	0x3e0aa9e2	0.13541368
21	0x3e3d2db7	0.1847447
22	0xbcd0f511	-0.025507482
23	0xbdb05597	-0.08610075
24	0x3dc0f97a	0.09422584
25	0xbd9aed17	-0.075647525
26	0xbe94767b	-0.28996643
27	0xbcaeef05	-0.021354208
28	0xbe1eb351	-0.15498091
29	0xbe7f6fec	-0.24945039
30	0x3e2a81aa	0.16651025
31	0x3dd5bf7b	0.104369126
32	0xbd75b379	-0.05998561
33	0xbd3ba22d	-0.04580896
34	0x3dc88f9a	0.09793015
35	0xbe0a961a	-0.13533822
36	0x3e30b956	0.172582
37	0xbc805430	-0.015665144
38	0xbe6a4319	-0.22877158
39	0xbe31e022	-0.17370656
40	0xbe324a85	-0.1741124
41	0xbdf0c393	-0.11756053
42	0x3d261880	0.04055071
43	0x3d0c3990	0.034234583
44	0x3dfe8d56	0.124293014
45	0xbe255c7e	-0.16148564
46	0x3d4e506c	0.050369665
47	0x3d9d01c6	0.07666354
48	0x3e142e98	0.14470899
49	0x3d8660c4	0.06561425
50	0xbe1836d3	-0.14864664
51	0x3db7e1d0	0.08978617
52	0xbe170634	-0.1474846
53	0x3ceeb43e	0.02913868
54	0x3d11b677	0.035574403
55	0x3e3a29b1	0.18179967
56	0x3e31b6bd	0.17354865
57	0x3e3620de	0.17785975
58	0x3e09b58c	0.13448161
59	0x3ea9e2d3	0.33180866
60	0xbc9793d2	-0.018503103
61	0xbd711fd3	-0.05886824
62	0x3d1fcbec	0.039012834
63	0x3d854bad	0.06508575
64	0x3caf5fa5	0.021407912
65	0xbe9a0214	-0.3007971
66	0xbe5304b9	-0.2060727
67	0xbdfd7f79	-0.12377829
68	0xbc6199cf	-0.013769581
69	0x3e836bb7	0.25668117
70	0xbe4d7ef8	-0.20067966
71	0xbd6bc69c	-0.057562456
72	0x3d8a02fc	0.067388505
73	0x3d56d2fd	0.052447308
74	0x3de39709	0.11112792
75	0x3e9865b4	0.29765093
76	0x3e8cdb65	0.27511135
77	0x3e7e0124	0.24805123
78	0x3e261ec2	0.1622267
79	0x3cb7d9a3	0.022442644
80	0xbdb842f1	-0.08997143
81	0x3b8c5dd8	0.004283648
82	0xbc914586	-0.017733347
83	0x3df5822f	0.11987721
84	0xbad3e7f3	-0.0016167149
85	0x3e5f6404	0.21815497
86	0x3e4803f4	0.19532758
87	0xbda4ad2f	-0.08040845
88	0xbdcd310c	-0.100191206
89	0x3d3a48f0	0.045479715
90	0x3e3b118a	0.1826841
91	0xbd870ad9	-0.06593866
92	0xbc822810	-0.015888244
93	0xbdc06e24	-0.09396008
94	0xbc803360	-0.015649498
95	0xbcb980e4	-0.022644468
96	0xbceaae0c	-0.028647445
97	0x3cf5d45b	0.030008486
98	0x3e1cf7bb	0.15328877
99	0x3d2adaee	0.041712694
100	0x3df9939c	0.121863574
101	0x3e5afec3	0.21386246
102	0xbcd38862	-0.025821868
103	0x3d0a9d6e	0.033841543
104	0xbda0222b	-0.07819017
105	0xbc1e1f92	-0.009651082
106	0xbdf0fec5	-0.117673434
107	0x3dc145e8	0.09437162
108	0x3d9c43e0	0.07630134
109	0x3dc845a4	0.09778908
110	0xbdf68e39	-0.120388456
111	0xbe0f5684	-0.13997847
112	0xbe102325	-0.14075907
113	0xbc2b05f6	-0.010438433
114	0x3dff6908	0.12471205
115	0x3c8bdee6	0.01707406
116	0xbd5e2609	-0.054235492
117	0xbe64e3b4	-0.22352487
118	0xbe6dffa0	-0.23242044
119	0xbdaf564a	-0.0856138
120	0xbd64cf55	-0.05586179
121	0x3dca0597	0.098643474
122	0x3e21f109	0.15814604
123	0x3e51dbd3	0.20494013
124	0x3de17a0a	0.11009605
125	0xbc8d3980	-0.017239332
126	0x3dda3270	0.106541514
127	0x3da8e0cf	0.08246004
128	0x3c36733a	0.011135871
129	0x3d3f868d	0.046759177
130	0x3daa457c	0.08314034
131	0x3c668076	0.014068713
132	0x3e163fab	0.14672725
133	0x3df455d8	0.11930436
134	0xbdd599d0	-0.10429728
135	0x3cdfc147	0.027313842
136	0x3da48188	0.080325186
137	0xbe2e851c	-0.17042965
138	0x3d1d0c0e	0.038341574
139	0x3c9c50ba	0.019081462
140	0x3d791e19	0.06081972
141	0x3e80eba9	0.25179794
142	0x3cebc8ba	0.028782237
143	0xbd08c346	-0.033389352
144	0x3deecfb5	0.11660711
145	0x3e3b4c21	0.1829076
146	0xbc1539b6	-0.009107998
147	0x3d8eab60	0.06966281
148	0x3e64642f	0.22303842
149	0x3d46e2d1	0.048556153
150	0xbe62273e	-0.22085282
151	0xbdf55405	-0.11978916
152	0xbd4192dc	-0.047259197
153	0x3df6b911	0.12047017
154	0xbc2813e5	-0.0102586495
155	0xbe1ce09b	-0.15320055
156	0xbbeb4d9b	-0.007180882
157	0xbd794ae4	-0.060862437
158	0xbd06db70	-0.032924116
159	0xbd976f9d	-0.073943354
160	0xbe824123	-0.2544032
161	0xbe1fdf9e	-0.15612647
162	0x3db3a8d5	0.087724365
163	0xbe166652	-0.1468747
164	0xbd59093b	-0.05298732
165	0xbdb3418a	-0.08752735
166	0xbe73a789	-0.23794378
167	0xbde9c84b	-0.11415156
168	0x3d956e22	0.07296397
169	0xbd17641a	-0.0369607
170	0x3d70a802	0.058753975
171	0xbe984311	-0.29738668
172	0xbd7b8e0b	-0.06141476
173	0xb92c1546	-0.00016411123
174	0x3d14384e	0.03618651
175	0xbc478814	-0.01217844
176	0x3e7ff603	0.2499619
177	0x3e8836fe	0.26604456
178	0xbd0a946e	-0.03383296
179	0xbd75b0e8	-0.059983164
180	0xbdd880b9	-0.10571427
181	0xbdcc529e	-0.099766955
182	0xbd9875f0	-0.0744437
183	0xb9d652f6	-0.00040879071
184	0x3d2e4fff	0.04255676
185	0xbc7b0dda	-0.015323127
186	0xbe67dc68	-0.22642672
187	0xbe39c566	-0.18141708
188	0xbe80861f	-0.25102326
189	0x3cbbed03	0.022940164
190	0x3bd33953	0.0064460426
191	0xbdc5521a	-0.096348
192	0xbcd1b43e	-0.025598641
193	0xbd6de157	-0.05807623
194	0xbdb84227	-0.089969926
195	0x3d82e883	0.06392004
196	0x3db33ecd	0.08752213
197	0xbe130641	-0.14357854
198	0x3d14aea6	0.03629937
199	0x3dbf9ce5	0.09356097
200	0xbe56f5a1	-0.20992137
201	0xbe933fe8	-0.28759694
202	0xbdf1fbc5	-0.11815599
203	0x3d137914	0.03600414
204	0x3d9e77f9	0.07737727
205	0x3dc20c5c	0.094750136
206	0xb8cebe2f	-9.85827e-05
207	0x3e2560b8	0.16150177
208	0x3dd6592d	0.10466228
209	0x3da93a48	0.082630694
210	0xbe2793d1	-0.16364981
211	0xbc1c9367	-0.009556628
212	0xbc8d91ca	-0.017281432
213	0x3da5adbe	0.08089779
214	0x3e736b75	0.2377146
215	0x3dcf821e	0.1013224
216	0xbd3083b3	-0.04309435
217	0x3e18da81	0.14927103
218	0x3ede5234	0.4342209
219	0x3e44351d	0.19160886
220	0x3e21039b	0.15724032
221	0x3e415827	0.18881284
222	0x3e629430	0.22126842
223	0x3d973bb7	0.073844366
224	0x3d5101cb	0.0510271
225	0x3e1cc95e	0.1531119
226	0x3e1f1634	0.15535814
227	0x3e4aefdb	0.1981806
228	0x3d42bdf3	0.04754443
229	0x3d4bd961	0.049767856
230	0x3d23039a	0.039798357
231	0x3dd45b8e	0.10369025
232	0x3ce34e6c	0.027747355
233	0xbc4d0956	-0.012514433
234	0xbc830a05	-0.015995989
235	0x3bf070b5	0.0073376545
236	0xbc51f838	-0.012815528
237	0x3e4f2571	0.20229127
238	0x3e6d81ba	0.23194018
239	0x3dbe9e7e	0.09307574
240	0x3e617cf2	0.22020319
241	0x3e0c0358	0.1367315
242	0xbd263aa9	-0.040583286
243	0x3d9b565d	0.07584832
244	0x3e144a1b	0.14481394
245	0x3e4152d7	0.18879257
246	0xbd6df2e6	-0.058092974
247	0x3d60db86	0.054896854
248	0x3dd9dae3	0.106374525
249	0xbde74504	-0.112924606
250	0xbcaed535	-0.0213419
251	0xbd7d4753	-0.0618356
252	0x3dcd0f93	0.10012736
253	0x3e6b3faa	0.22973505
254	0x3e92da75	0.28682294
255	0x3dfd3b4c	0.123648256

encoder_2_convlstm.conv.bias f4 [96]
0	0x3d993460	0.07480693
1	0xbe0b0559	-0.13576259
2	0x3db6f595	0.0893356
3	0x3d976a46	0.07393317
4	0x3c50192f	0.012701317
5	0xbc011492	-0.0078784395
6	0x3d9c9159	0.0764491
7	0x3e13ca92	0.14432743
8	0x3cc5c1e2	0.024140302
9	0x3ddd7c30	0.108147025
10	0x3e8835a0	0.26603413
11	0xbc9f283f	-0.01942837
12	0x3dc38cc5	0.09548334
13	0x3de9bd5f	0.11413073
14	0x3dbccde7	0.0921896
15	0xbcf327de	-0.029682096
16	0x3ed4252b	0.41434607
17	0x3e0c47c7	0.13699256
18	0xbd04524b	-0.032305043
19	0x3e5a6a47	0.21329604
20	0x3bbe89dd	0.0058147744
21	0x3d23a61e	0.039953344
22	0x3dcd3ac0	0.10020971
23	0x3da54a7e	0.08070849
24	0xbd304ed3	-0.043043923
25	0xbe3dfd22	-0.18553594
26	0x3d3fa091	0.046783987
27	0x3ceb38f7	0.028713686
28	0xbd617ed8	-0.05505261
29	0xbeaa812b	-0.33301672
30	0x3c8fcf5c	0.017554931
31	0x3da24624	0.079235345
32	0xbd56a4ad	-0.05240314
33	0xbe55e425	-0.20887811
34	0xbebfcc7a	-0.3746069
35	0xbd742e68	-0.05961457
36	0xbd1637fd	-0.03667449
37	0xbde8152e	-0.11332165
38	0xbe895b45	-0.26827446
39	0x3d3db19d	0.046311963
40	0xbe69213f	-0.22766589
41	0xbeab3394	-0.33437788
42	0xbd1b2e7d	-0.03788613
43	0xbeab6bdb	-0.33480725
44	0x3db5033b	0.08838507
45	0x3b3d30f2	0.0028868285
46	0x3d02687c	0.031837925
47	0xbd8fc2a6	-0.07019548
48	0x3da0e95c	0.0785701
49	0xbdabcd16	-0.083887264
50	0x3df64ec0	0.12026739
51	0x3dbf9300	0.0935421
52	0x3e096130	0.1341598
53	0xbce71e62	-0.02821273
54	0x3dd8da5f	0.10588526
55	0x3dd6f196	0.104952976
56	0xbcac0e7f	-0.021003006
57	0x3e4b8a09	0.19876875
58	0x3e4e6ac0	0.2015791
59	0x3d877700	0.06614494
60	0x3dbb5ec8	0.091489375
61	0x3e16b6f6	0.14718232
62	0x3cc69f84	0.024245985
63	0xbbb0660e	-0.0053832596
64	0x3e5644bb	0.20924656
65	0x3d872cb6	0.06600325
66	0x3cb1e64b	0.021716258
67	0x3e95d0d2	0.2926088
68	0x3db09a9d	0.0862324
69	0x3d7387be	0.059455626
70	0x3dba8e2f	0.091091506
71	0x3d70ff4a	0.058837213
72	0xbbc2776c	-0.0059346464
73	0x3b36822d	0.0027848587
74	0xba9ba86d	-0.0011875756
75	0xbca67a8e	-0.02032211
76	0x3d3ffea9	0.046873722
77	0xbc19d821	-0.009389908
78	0x3d1d036b	0.038333338
79	0xbd86e23a	-0.06586118
80	0xbc9a28ca	-0.018818278
81	0x3e07b0af	0.13250993
82	0x3d48cb8c	0.049022242
83	0x3d67e042	0.056610353
84	0xbd3b811d	-0.04577743
85	0xbd4e90c8	-0.050431043
86	0x3d2a1f45	0.041533727
87	0xbd54d58f	-0.051961478
88	0xbd93e0de	-0.072206244
89	0x3d295076	0.0413365
90	0xbcce7488	-0.02520205
91	0xbbbab2a6	-0.005697566
92	0xbd192f1f	-0.037398454
93	0xbc04a2db	-0.008095468
94	0x3c565dde	0.013083903
95	0x3dbb1501	0.091348656

batchnorm1.weight f4 [24]
0	0x3f8f9538	1.1217413
1	0x3fc3f52d	1.5309197
2	0x3f9a6a5a	1.2063706
3	0x3f87ff24	1.0624738
4	0x3f812e3e	1.0092237
5	0x3fdf89d7	1.746394
6	0x3f58efaf	0.8474073
7	0x3f9ad30a	1.2095654
8	0x3f9963bd	1.1983563
9	0x3faeca8d	1.3655564
10	0x3fd8a1ce	1.6924379
11	0x3fb7cd24	1.4359479
12	0x3f9f9839	1.246833
13	0x3fb38160	1.4023857
14	0x3f9852cd	1.1900269
15	0x3f962e4a	1.1732876
16	0x3fab2861	1.3371698
17	0x3fb364f8	1.4015188
18	0x3f87fdaf	1.0624293
19	0x3f9fc1c8	1.2481012
20	0x3f5d0c8d	0.86347276
21	0x3f5fc97a	0.87416804
22	0x3f8c8664	1.0978513
23	0x3fb7ba0d	1.4353653

batchnorm1.bias f4 [24]
0	0xbd6bc2d6	-0.057558857
1	0xbdd1b065	-0.10238723
2	0xbd86ed4c	-0.065882295
3	0x3dac63b7	0.084174566
4	0xbe8b1a39	-0.27168444
5	0xbc91581d	-0.017742211
6	0x3b87bcde	0.004142388
7	0xbb6a53e3	-0.0035755567
8	0x3e477c4d	0.1948101
9	0x3cfc5615	0.030802766
10	0xbce45296	-0.027871411
11	0x3ca27365	0.019830415
12	0x3db948c6	0.090470836
13	0xbe11bd43	-0.14232354
14	0x3e25cbcc	0.16191024
15	0xbd5bf738	-0.053702563
16	0xbc0737f9	-0.008253091
17	0xbbb831fc	-0.005621193
18	0x3d240f95	0.040053923
19	0x3d5fcb80	0.054637432
20	0x3a451a41	0.0007518866
21	0xbe5e4ae6	-0.21708259
22	0xbe24f906	-0.1611062
23	0xbe155de4	-0.14586598

batchnorm1.running_mean f4 [24]
0	0xbdcead03	-0.10091593
1	0x3b308297	0.0026933306
2	0xbd99b81e	-0.07505821
3	0x3d5a5d30	0.053311527
4	0xbc398e42	-0.011325421
5	0xbc626a12	-0.013819234
6	0xbb80c53c	-0.003929762
7	0xbe47fc3b	-0.19529812
8	0xbcf033df	-0.029321609
9	0x3d53a3fd	0.051670063
10	0x3a5dcc35	0.000846091
11	0x3d30b67c	0.04314278
12	0x3c440ad7	0.011965475
13	0xbd94f50d	-0.07273302
14	0x3de01d6a	0.1094311
15	0xbae45f24	-0.0017423374
16	0xbc1a7738	-0.009427838
17	0x3a984c91	0.0011619498
18	0x3df9f92a	0.122057274
19	0x3c335fcc	0.010948133
20	0xbaa949fd	-0.0012915727
21	0x3e16b026	0.14715633
22	0x3e228238	0.15869987
23	0x3e3bbe70	0.18334365

batchnorm1.running_var f4 [24]
0	0x3d212978	0.03934619
1	0x3cbfd4af	0.023416845
2	0x3cec889b	0.028873732
3	0x3d4d4368	0.05011311
4	0x3d8f4b57	0.06996792
5	0x3caf351d	0.021387631
6	0x3d10733f	0.035266157
7	0x3d0e8a7c	0.034800038
8	0x3d66eb49	0.05637673
9	0x3c9d1c70	0.0191786
10	0x3ab88c73	0.0014079943
11	0x3d47fec4	0.048826948
12	0x3d3af7cc	0.045646474
13	0x3d016648	0.031591684
14	0x3d0488a3	0.03235687
15	0x3da3bf31	0.07995451
16	0x3a8ef0f2	0.0010905548
17	0x3af5b406	0.0018745668
18	0x3dba8834	0.0910801
19	0x3b0d31cc	0.0021544574
20	0x3d81ac29	0.06331665
21	0x3dad0646	0.08448462
22	0x3d442381	0.04788542
23	0x3d198330	0.037478626

decoder_1_convlstm.conv.weight f4 [96, 48, 3, 3]
0	0x3bb5c19e	0.0055467626
1	0xbc45b288	-0.012066491
2	0x3c4501e2	0.012024375
3	0xbd195d92	-0.03744275
4	0xbd269a76	-0.04067465
5	0x3c8f6bc1	0.017507436
6	0xbb732fcc	-0.0037107347
7	0x39fc890a	0.00048167288
8	0xba8cd559	-0.0010744735
9	0x3c6f6587	0.014611608
10	0x3cd799f7	0.026318533
11	0x3d97af9b	0.07406541
12	0xbab0905a	-0.0013470754
13	0x3cf8688a	0.030323286
14	0xbcd54380	-0.026033163
15	0x3cd9764e	0.02654567
16	0x3d35771e	0.044303052
17	0x3d4de724	0.05026926
18	0x3950ecf6	0.000199247
19	0x3c374932	0.011186885
20	0x3cd1c28a	0.025605459
21	0xbd36bded	-0.04461472
22	0xbd4de0c8	-0.050263196
23	0x3c1b1b17	0.009466908
24	0xbbe0c922	-0.0068599144
25	0xb953f85b	-0.00020215048
26	0x3bce22f8	0.0062907897
27	0xbd364bf5	-0.044506032
28	0x3af53b14	0.0018709623
29	0x3cad97af	0.021190492
30	0xb9dbe644	-0.00041942496
31	0x3d90e83a	0.07075544
32	0x3d307cd9	0.043087814
33	0xbb2a39b7	-0.0025974342
34	0xbb5337b5	-0.003222925
35	0x3d58a08d	0.05288749
36	0xbbabc79e	-0.005242302
37	0xbc820816	-0.015872996
38	0x3cd79b2b	0.026319107
39	0xbd38359f	-0.044973012
40	0xbca98409	-0.020692842
41	0xbdf47a09	-0.11937339
42	0xbd73db75	-0.059535462
43	0xbcf79bf2	-0.030225728
44	0xbd6fb887	-0.05852559
45	0xbc9a67ad	-0.018848265
46	0xbaa2f8cb	-0.0012433765
47	0xbd1b8124	-0.037964955
48	0xbca411e0	-0.020028055
49	0xbd075930	-0.03304404
50	0xbb4590c9	-0.0030146113
51	0x3af100e2	0.0018387104
52	0x3b39e04a	0.0028362446
53	0xbc84a964	-0.016194053
54	0xbc8c40b9	-0.017120706
55	0x3cad897f	0.021183727
56	0x3cd0a6cc	0.02547016
57	0x3d1f9bb7	0.03896686
58	0x3c47961f	0.012181788
59	0x3c890378	0.016725287
60	0xbd7b39f2	-0.061334558
61	0x3ca91b4d	0.0206429
62	0x3d32ffe0	0.043701053
63	0x3d184265	0.037172694
64	0x3d260af8	0.040537804
65	0x3cdbf57f	0.02685046
66	0x3c7e9d73	0.0155404685
67	0xbbe74f20	-0.007058993
68	0x3d727739	0.05919573
69	0x3d8f8327	0.07007437
70	0x3c8266f7	0.015918238
71	0x3d1537aa	0.03643004
72	0xbd64ce02	-0.055860527
73	0xbd1f0194	-0.038819864
74	0xbd82a2a6	-0.06378679
75	0xbd5a1957	-0.053246822
76	0xbe610aed	-0.21976824
77	0xbce963db	-0.028489998
78	0x3c9d5cdd	0.01920932
79	0xbc947e96	-0.018126767
80	0xbd5cb664	-0.05388488
81	0x37e41204	2.7188107e-05
82	0xbb0f0178	-0.0021820944
83	0xbbf82b76	-0.0075735403
84	0xbd213731	-0.039359275
85	0x3cb91148	0.022591248
86	0xbb86789d	-0.0041037337
87	0xbbe3afd6	-0.0069484515
88	0xbd665fbf	-0.056243654
89	0xbc3c5953	-0.011495906
90	0x3c2d5874	0.010580171
91	0x3cc79a1d	0.02436548
92	0x3c82ba62	0.015958015
93	0xbbdfaa1a	-0.0068256976
94	0x3bbd4f97	0.00577731
95	0x3ccd5b6f	0.025068013
96	0xbbd0ee84	-0.0063760895
97	0xbd1ebf33	-0.03875656
98	0xbcacaa40	-0.021077275
99	0x3ccfbea5	0.025359461
100	0x3d01791c	0.03160964
101	0x3d12db0c	0.03585343
102	0x3d48e366	0.04904499
103	0x3dafcda3	0.08584144
104	0x3d3c5d4d	0.045987416
105	0xbc84a161	-0.016190233
106	0x3c6cbdf2	0.014449583
107	0x3cba6a80	0.022755861
108	0xbbd7023d	-0.006561546
109	0x3a447cec	0.00074954215
110	0xbafd692d	-0.0019333713
111	0x3d21e2df	0.039523
112	0x3c4ee50f	0.012627854
113	0xbd3587c7	-0.04431894
114	0xbc28962b	-0.010289709
115	0xbc32541f	-0.010884314
116	0x3cec41ac	0.028839909
117	0xbc8d76db	-0.017268589
118	0x3b552fe3	0.0032529763
119	0xbc8c481e	-0.017124232
120	0xbca69e09	-0.020339029
121	0xbce56e6a	-0.028006751
122	0xbb78f10c	-0.0037985472
123	0xbbf6705b	-0.007520718
124	0x3cace5c0	0.021105647
125	0x3b866983	0.0041019334
126	0xbb064292	-0.0020486456
127	0xbcce814d	-0.02520814
128	0xbcdb58d1	-0.02677575
129	0x3bc6bd57	0.0060650515
130	0xbca0cf0b	-0.019629976
131	0xbc55dc77	-0.013053051
132	0x3be8443f	0.0070882137
133	0x3c1a3e31	0.009414242
134	0xbb79d0ed	-0.0038118914
135	0x3d08b91b	0.033379655
136	0x3bcc2e4b	0.0062311045
137	0x3d9580d7	0.07299965
138	0x3c8953ab	0.016763529
139	0x3dacc609	0.0843621
140	0x3d7832fe	0.060595505
141	0xbcfee12f	-0.031113235
142	0x3ca6e1b5	0.020371297
143	0x3ce6705a	0.028129745
144	0xbc49a01b	-0.0123062385
145	0xbbf251c1	-0.0073949997
146	0xbbdfe19f	-0.006832316
147	0x3c987297	0.018609328
148	0xbd3a432a	-0.04547421
149	0xbcdc6dc0	-0.026907802
150	0x3c62b863	0.0138379065
151	0x3d814870	0.063126445
152	0x3c61237a	0.013741368
153	0xb9ef62bc	-0.00045659195
154	0x3ca0ced7	0.019629879
155	0x3c1b887a	0.009492988
156	0xbc7e21a6	-0.015510952
157	0x3b079103	0.00206858
158	0xbb5160c1	-0.003194854
159	0xbab17b83	-0.0013540838
160	0xbc8ba201	-0.017045023
161	0xbccb82af	-0.024842588
162	0x3d1791ec	0.037004396
163	0x3c4d27c9	0.012521693
164	0x3ad3582b	0.0016124299
165	0xbbb84b53	-0.0056242137
166	0xbc806f29	-0.015678005
167	0x3c93f145	0.018059382
168	0x3ba9809b	0.0051728017
169	0xbda05d49	-0.07830293
170	0x3d2fdced	0.0429353
171	0xbba88670	-0.0051429793
172	0xbccd0d7f	-0.02503085
173	0xbcc42582	-0.023943666
174	0x3cdb966a	0.026805121
175	0x3c14ad98	0.009074591
176	0xbca5cfa7	-0.020240618
177	0x3d09cf8c	0.033645198
178	0x3cb3297c	0.021870367
179	0x3c8e8681	0.01739812
180	0xbd57feac	-0.05273311
181	0xbcbe3afe	-0.023221489
182	0x3c8892cb	0.016671559
183	0x3c3d857e	0.011567472
184	0x3d25e3bb	0.040500384
185	0x3caa11c3	0.020760423
186	0xbc79b278	-0.015240304
187	0x3d25f6fa	0.04051874
188	0xbe3a904b	-0.18219106
189	0x3c18e4c4	0.009331886
190	0xbc24ce76	-0.01005899
191	0x3cc0b72f	0.023524849
192	0xb9197b97	-0.00014637258
193	0x3cb6fc29	0.022337036
194	0xbc1199e1	-0.008886785
195	0xbc5e10a9	-0.013553777
196	0x3c15bcf2	0.009139286
197	0x3a816be4	0.0009874073
198	0xbd7ab99e	-0.061212175
199	0x3cd89c3e	0.02644169
200	0xbd554a04	-0.05207254
201	0xbd22cf1f	-0.039748307
202	0x3c6d4308	0.0144813135
203	0xbd809339	-0.062780805
204	0xbd90347a	-0.07041259
205	0xbd4e5903	-0.050377857
206	0xbb5f3c3a	-0.0034062997
207	0xbcb1ea8c	-0.021718286
208	0xbc7a7533	-0.0152867315
209	0xbc702ca0	-0.014659077
210	0xbd449227	-0.047990944
211	0x3bb35e17	0.005473863
212	0xbca0fc85	-0.01965166
213	0xbbe3d5fb	-0.0069529987
214	0x3bd00b2d	0.0063489885
215	0x3bdbe56f	0.0067107
216	0x3e18dc3e	0.14927766
217	0xbd8609a7	-0.0654481
218	0xbcc66dd8	-0.0242223
219	0x39ba6bad	0.0003555691
220	0xbd144873	-0.036201905
221	0x3c1beb74	0.009516586
222	0x3d0f09be	0.0349214
223	0x3d66902a	0.05628983
224	0x3d80af6c	0.06283459
225	0xbe2125da	-0.15737095
226	0xbe136f72	-0.14397982
227	0x3e812b56	0.25228375
228	0x3d8c26fb	0.068433724
229	0xbc0c2921	-0.008554728
230	0x3e03147b	0.12800781
231	0x3e44de06	0.1922532
232	0x3d184f8d	0.03718524
233	0x3e22c4be	0.15895364
234	0xbd998e01	-0.07497788
235	0x3de777a7	0.11302119
236	0x3e48f7f7	0.19625841
237	0x3c91e6fa	0.017810334
238	0x3d3811b7	0.04493877
239	0x3db6c907	0.08925062
240	0x3dccf361	0.10007358
241	0x3e723dad	0.2365634
242	0x3d76104e	0.060074143
243	0xbea85be0	-0.32882595
244	0xbdd12dce	-0.10213815
245	0x3da3928d	0.07986937
246	0xbd13b122	-0.0360576
247	0xbccb405d	-0.024810964
248	0x3e3524ee	0.17689869
249	0x3db70765	0.08936957
250	0xbc2c8c2e	-0.010531468
251	0xbe8cc13b	-0.27491173
252	0x3e083df5	0.13304885
253	0xbdc48c75	-0.095971026
254	0xbeb9ff2c	-0.36327493
255	0xbd5fe8bc	-0.054665312

decoder_1_convlstm.conv.bias f4 [96]
0	0x3d3b947b	0.0457959
1	0x3dd1fea9	0.10253651
2	0x3e200cb5	0.15629847
3	0x3e739483	0.23787121
4	0xbd0cd095	-0.034378607
5	0xbbe81943	-0.0070830896
6	0x3dba7f87	0.09106355
7	0x3c12be40	0.008956492
8	0xbd2ac443	-0.041691076
9	0x3e2ef233	0.17084579
10	0xbdb426c4	-0.087964565
11	0xbd1b0d8b	-0.037854712
12	0xbd3c1dea	-0.045926966
13	0x3b736904	0.0037141452
14	0x3ca660b3	0.020309782
15	0xbdcdb387	-0.10044008
16	0x3e16a823	0.14712577
17	0x3bf499fc	0.0074646454
18	0x3c01b229	0.007916012
19	0x3d0f0b3f	0.034922834
20	0xbd6ad230	-0.057329357
21	0xbd51786d	-0.051140238
22	0xbd19f694	-0.03758867
23	0x3cc76f0e	0.024344947
24	0x3e3ac511	0.18239237
25	0x3d8e0172	0.069338694
26	0x3e8d0d20	0.27549076
27	0x3e2fa5c1	0.17153074
28	0xbd1849e3	-0.03717984
29	0xbcbfc890	-0.023411065
30	0x3e15f4a7	0.14644109
31	0x3daead62	0.08529164
32	0x3d281078	0.04103133
33	0x3d4267bc	0.04746221
34	0xbcb9d913	-0.022686517
35	0xbdca1df7	-0.098689966
36	0xbdb98e21	-0.09060312
37	0x3e1ac630	0.15114665
38	0x3db3b2e9	0.08774359
39	0x3d8b9394	0.06815258
40	0x3d2bbe01	0.04192925
41	0xbd2338fa	-0.03984926
42	0x3d01af4f	0.031661328
43	0x3c5d8fff	0.013523101
44	0xbd878c73	-0.066185854
45	0x3e2ed39e	0.17072913
46	0xbd86ac02	-0.06575777
47	0x3d57e14d	0.052705098
48	0x3df1fe09	0.118160315
49	0x3de1789f	0.11009335
50	0x3e4999a8	0.19687521
51	0x3eacecff	0.33774564
52	0xbc2d479f	-0.010576158
53	0x3e052dd8	0.13005769
54	0x3e37f10b	0.17963044
55	0x3dcd5c33	0.10027351
56	0x3e1287cc	0.14309615
57	0x3e42ad00	0.19011307
58	0x3be53e33	0.00699594
59	0x3ca11d7b	0.019667378
60	0x3d7dde42	0.06197954
61	0x3d4ed9f1	0.050500814
62	0x3d9f3fc3	0.077758335
63	0x3c28ed8f	0.010310545
64	0x3dffd7ed	0.124923564
65	0x3df384b7	0.11890548
66	0x3d901307	0.07034879
67	0x3dca2b34	0.098715216
68	0xbcc98104	-0.024597652
69	0x3d13fc20	0.036129117
70	0x3d114864	0.035469428
71	0x3d534cdc	0.05158697
72	0xbda9a628	-0.08283645
73	0x3d9f97f4	0.07792655
74	0x3c6400e3	0.013916227
75	0x3d96abe9	0.07357008
76	0xbb1e3cd5	-0.0024145145
77	0xbcaa106d	-0.020759786
78	0xbe4b5194	-0.19855338
79	0xbdce0d6f	-0.10061156
80	0x3d41c1ba	0.047303893
81	0xbdf6dd37	-0.12053912
82	0xbdac2cee	-0.08407007
83	0x3e2f68f7	0.17129885
84	0x3e26a290	0.1627295
85	0xbd97d9ab	-0.07414564
86	0x3cccd9f7	0.025006277
87	0xbd0188f6	-0.031624757
88	0x3e49c4dd	0.19704004
89	0xbc8e6a56	-0.01738469
90	0x3ca4bc26	0.020109247
91	0xbe054272	-0.13013628
92	0x3d51a21c	0.05117999
93	0xbdabc6d4	-0.08387533
94	0x3da8ced2	0.08242573
95	0x3beae110	0.007167943

decoder_2_convlstm.conv.weight f4 [96, 48, 3, 3]
0	0x3dff4bef	0.12465655
1	0xbcc683db	-0.024232795
2	0x3ce92e56	0.028464478
3	0xbd89e53f	-0.06733178
4	0x3e0080b4	0.12549096
5	0xbdba2ca7	-0.09090548
6	0xbd2a24c6	-0.041538976
7	0xbde6965e	-0.11259149
8	0x3ce1f902	0.027584556
9	0xbe0e6daa	-0.13909021
10	0x3d114f73	0.03547616
11	0xbe4c3025	-0.1994024
12	0x3e16768c	0.1469366
13	0x3dcbe0ea	0.09955008
14	0xbc6945bb	-0.014237816
15	0xbb357912	-0.0027690572
16	0xbdd4ee63	-0.10397031
17	0xbc6f0587	-0.01458872
18	0x3d1b116b	0.037858408
19	0x3c1de3a8	0.009636797
20	0xbe2e7f33	-0.1704071
21	0xbdcd6efb	-0.100309335
22	0xbd8f0f4e	-0.06985341
23	0x3d976f95	0.073943295
24	0x3d81c1fb	0.06335827
25	0x3e35d9f9	0.17758931
26	0x3ab263a0	0.0013610013
27	0x3c8ed2e5	0.017434547
28	0x3d121d1e	0.0356723
29	0xbd144486	-0.03619816
30	0x3d09234d	0.03348093
31	0xbd300c38	-0.042980403
32	0xbe011801	-0.12606813
33	0xbe27324c	-0.1632778
34	0x3dfa1a18	0.12212008
35	0xbdcf0aee	-0.101095065
36	0xbd18522f	-0.03718775
37	0x3dab8c20	0.08376336
38	0xbe65b926	-0.2243391
39	0x3e756890	0.23965669
40	0xbd16482a	-0.036689915
41	0xbd1c5715	-0.038168985
42	0xbd91c2ea	-0.07117255
43	0x3dd663db	0.10468265
44	0xbd1da31b	-0.038485628
45	0x3e3aee98	0.18255079
46	0x3e090dcf	0.13384174
47	0xbb8fcf00	-0.00438869
48	0x3d529457	0.051411
49	0x3db74bed	0.089500286
50	0xbdf29798	-0.118453205
51	0x3df89cca	0.1213928
52	0xbcb96ae9	-0.022633987
53	0xbdce9f0e	-0.10088931
54	0x3d1805d3	0.03711493
55	0xbdb90daa	-0.09035809
56	0xbe1d71a3	-0.1537538
57	0x3d6c8582	0.05774451
58	0xbd6bbca9	-0.057552967
59	0x3e66c090	0.22534394
60	0x3e0e28d8	0.13882768
61	0xbc4fc6a4	-0.012681637
62	0x3dc6c296	0.09705083
63	0x3e8a89ba	0.27058202
64	0xbe38c7b8	-0.18044937
65	0xbde1e549	-0.11030061
66	0x3db9d5f6	0.09074013
67	0x3b1cc276	0.0023919619
68	0x3c195d9f	0.0093607
69	0x3ed55ac0	0.416708
70	0x3daa3127	0.08310156
71	0x3d765d89	0.060147796
72	0xbdded6d0	-0.10880816
73	0x3e6a0897	0.2285484
74	0x3e00d201	0.1258011
75	0xbd9ef32e	-0.077612266
76	0xbd61493f	-0.055001494
77	0x3dd832a9	0.10556538
78	0x3df284cf	0.118417375
79	0xbd2392c8	-0.039934903
80	0x3e3a1874	0.1817339
81	0xbc6d115f	-0.014469474
82	0xbd28a0c0	-0.04116893
83	0xbe526505	-0.20546348
84	0x3d271cd1	0.040798966
85	0x3dd14ed9	0.10220117
86	0x3dbef399	0.09323806
87	0x3d3a768b	0.045523208
88	0xbd0aae41	-0.033857588
89	0x3de4ac36	0.11165659
90	0xbdcc49ec	-0.09975037
91	0x3e48dfdb	0.19616644
92	0x3e787875	0.242647
93	0xbdedfb1e	-0.116201624
94	0xbe186e67	-0.14885865
95	0xbe284096	-0.16430888
96	0xbd89e504	-0.067331344
97	0xbe503b0e	-0.20335028
98	0x3e580fb5	0.21099742
99	0xbeaff756	-0.3436839
100	0xbd568852	-0.0523761
101	0x3d0a6769	0.033790026
102	0xbe28df0b	-0.16491334
103	0xbe79c991	-0.24393298
104	0xbe1bfd45	-0.15233333
105	0xbd8f0adf	-0.06984495
106	0x3d993647	0.07481056
107	0xbdf38d02	-0.118921295
108	0xbd76d9de	-0.060266368
109	0xbd1fd385	-0.03902008
110	0x3d790dc1	0.060804132
111	0x3e2ea5cf	0.17055438
112	0x3e0508f7	0.12991701
113	0x3dad7a62	0.08470608
114	0xb9c3f924	-0.00037378923
115	0xbe11d821	-0.14242603
116	0xbe82e603	-0.2556611
117	0x3d9a54f1	0.075357325
118	0x3e835b64	0.25655663
119	0x3d86f288	0.06589228
120	0xbe5d2ff2	-0.21600321
121	0x3d1465ce	0.0362299
122	0xbd9fef56	-0.078093216
123	0xbe226d3b	-0.1586198
124	0xbebcfdfd	-0.36912528
125	0xbe1630dc	-0.14667076
126	0x3cee24a5	0.029070208
127	0x3dec6207	0.11542135
128	0x3e0ed2b1	0.1394756
129	0xbd46b63a	-0.04851363
130	0xbcf3cb89	-0.029760139
131	0xbe8d9612	-0.27653557
132	0xbe2a8093	-0.1665061
133	0xbbb9795b	-0.0056602187
134	0xbd0754d4	-0.033039883
135	0x3e6f5971	0.23373963
136	0xbe242f2f	-0.16033624
137	0xbe8f2267	-0.27955934
138	0x3e28693c	0.16446394
139	0x3eb530fd	0.35388938
140	0xbeb4d0cc	-0.3531555
141	0xbd9a4ad1	-0.07533801
142	0x3cdabee5	0.026702354
143	0xbdaed860	-0.08537364
144	0x3d278a8f	0.040903624
145	0x3e09345b	0.13398878
146	0x3db1b59a	0.08677216
147	0x3d54e604	0.051977172
148	0x3d8d5e99	0.06902809
149	0xbdbaa204	-0.09112933
150	0x3dcddfc6	0.10052447
151	0xbe47c76e	-0.1950967
152	0xbda679c4	-0.08128694
153	0x3d0b5a56	0.034021698
154	0x3db6c31b	0.08923932
155	0x3e6d5b38	0.23179328
156	0x3d067e63	0.032835376
157	0x3dca9406	0.098915145
158	0x3e0ccf28	0.13750899
159	0x3e26393b	0.16232769
160	0xbe004d37	-0.12529455
161	0xbe428420	-0.18995714
162	0x3d420d49	0.04737595
163	0xbe039b65	-0.12852247
164	0x3dfb7168	0.1227749
165	0x3e18a38f	0.14906143
166	0xbdfbd070	-0.12295616
167	0x3e9986e5	0.2998573
168	0xbe655658	-0.22396219
169	0x3e296129	0.1654097
170	0x3e2f6a55	0.17130406
171	0x3da2c103	0.0794697
172	0x3e782664	0.24233395
173	0x3d3c452c	0.045964405
174	0xbc14b17d	-0.00907552
175	0x3e2c201c	0.16809124
176	0x3e8f1dab	0.27952322
177	0xbd842a2e	-0.06453358
178	0xbd392b9a	-0.045207597
179	0x3e6ef50b	0.23335664
180	0xbe38be18	-0.18041265
181	0x3d2d1cf1	0.04226393
182	0x3ee26791	0.4421964
183	0xbebb0be3	-0.36532506
184	0xbe8de1c4	-0.27711308
185	0x3dbc302e	0.09188877
186	0xbe85e996	-0.26154774
187	0x3d3ad399	0.04561195
188	0xbe2101da	-0.15723363
189	0x3e125d90	0.14293504
190	0xbcc78cdd	-0.024359161
191	0xbde8630a	-0.11347015
192	0xbe17a1b6	-0.14807782
193	0xbd517d60	-0.051144958
194	0xbd882c94	-0.066491276
195	0x3d409750	0.047019303
196	0xbd77138f	-0.060321387
197	0xba3fc324	-0.000731515
198	0x3e2080f5	0.15674193
199	0xbdb2ed71	-0.087366946
200	0x3db923c5	0.090400256
201	0xbd56a563	-0.05240382
202	0xbe4023dd	-0.18763681
203	0x3db04822	0.08607508
204	0x3dbbf93d	0.09178398
205	0x3d82ee03	0.063930534
206	0xbdcba46a	-0.09943469
207	0x3d74d65c	0.05977474
208	0x3e165978	0.14682567
209	0x3e122d0e	0.14275
210	0x3ddbe032	0.10736121
211	0x3d84f9a8	0.06492931
212	0x3c469a6d	0.012121779
213	0x3dba229b	0.09088632
214	0xbe721bc7	-0.23643409
215	0x3d0cdbe9	0.03438941
216	0x3e909da0	0.28245258
217	0x39ec1414	0.00045028387
218	0xbdcadd85	-0.09905533
219	0x3d51810c	0.05114846
220	0xbd8b8dcf	-0.06814157
221	0xbdde0148	-0.10840088
222	0xbe2a5550	-0.16634107
223	0x3e041cf6	0.12901673
224	0xbe6ed541	-0.23323537
225	0x3e1d856e	0.1538293
226	0x3bfd5ac4	0.0077317674
227	0xbe012ec7	-0.126155
228	0x3e32716e	0.17426082
229	0x3e1a363e	0.15059754
230	0x3e2c1342	0.16804221
231	0xbde1c68f	-0.110242
232	0xbd0c24c4	-0.03421475
233	0xbe4770a7	-0.19476567
234	0xbb1a69ee	-0.0023561674
235	0x3e398d3a	0.1812028
236	0x3cb6a65a	0.02229612
237	0x3e189728	0.14901412
238	0x3c751dcc	0.014960717
239	0x3d61a14c	0.055085465
240	0x3e0dab2f	0.13834833
241	0x3e527ceb	0.20555465
242	0xbed70860	-0.41998577
243	0xbeb692cd	-0.35658875
244	0x3c00254b	0.007821391
245	0x3e06bc34	0.13157731
246	0xbe605807	-0.2190858
247	0xbe33e3ca	-0.17567363
248	0x3d01b424	0.031665936
249	0xbeba6df3	-0.3641201
250	0x3e59c61c	0.21266979
251	0x3df7255b	0.12067672
252	0xbd1f526f	-0.038896974
253	0xbe0c27ef	-0.13687108
254	0xbea67508	-0.32511163
255	0x3d378871	0.044807855

decoder_2_convlstm.conv.bias f4 [96]
0	0xbe533b77	-0.20628153
1	0xbe8d1cbd	-0.27560988
2	0xbe4483f9	-0.19190969
3	0xbd36331c	-0.044482335
4	0xbdfb95a6	-0.122844025
5	0xbdff7fc8	-0.12475544
6	0xbe100163	-0.14063029
7	0xbdb29fd1	-0.08721889
8	0xbd99fa3e	-0.07518433
9	0xbd34951f	-0.044087525
10	0xbe024977	-0.12723337
11	0xbe049349	-0.1294681
12	0xbcf247f0	-0.029575318
13	0xbd302922	-0.043007977
14	0xbd869306	-0.06571011
15	0xbe28eb89	-0.164961
16	0xbd3f3f83	-0.04669143
17	0xbe83711e	-0.2567224
18	0xbdd3973b	-0.10331579
19	0xbe023ad8	-0.1271776
20	0xbc30dd4a	-0.010794947
21	0xbe15f376	-0.14643654
22	0xbdb74b63	-0.08949926
23	0xbdd8ec65	-0.10591964
24	0x3d2116ef	0.03932851
25	0x3de78d1d	0.11306212
26	0xbdc36f20	-0.0954268
27	0xbd97711e	-0.07394622
28	0x3b0ba6c4	0.0021309117
29	0xbd181377	-0.037127938
30	0x3d926cff	0.071496956
31	0x3d5a0a47	0.053232457
32	0x3c8b062e	0.01697072
33	0xbd13259b	-0.035924535
34	0xbdaee968	-0.085406125
35	0xbd65c348	-0.056094438
36	0x3e18c4aa	0.14918771
37	0x3d54eb6b	0.051982325
38	0x3dea3f50	0.11437857
39	0xbd82294e	-0.063555345
40	0x3da91158	0.08255261
41	0x3d5fed06	0.054669403
42	0x3d0bcd84	0.03413154
43	0xbc9770f9	-0.018486487
44	0x3ddbcedd	0.107328154
45	0x3da957a3	0.082686685
46	0x3de6fe8e	0.11279021
47	0x3de086f1	0.10963238
48	0xbe2a55a7	-0.16634236
49	0xbe1b8196	-0.15186152
50	0xbe857c58	-0.2607143
51	0xbe37c3ce	-0.17945787
52	0x3d307998	0.04308471
53	0xbe5242de	-0.2053332
54	0x3c9f1dfb	0.019423475
55	0xbd4dd5d8	-0.050252765
56	0x3b9343cc	0.004494166
57	0xbdbe77bf	-0.093001835
58	0xbdac8f7f	-0.08425807
59	0xbdc4938d	-0.095984556
60	0xbdc5ffbf	-0.0966792
61	0xbcdb010a	-0.026733894
62	0xbd907ce9	-0.07055075
63	0xbd8f5312	-0.06998266
64	0x3d5c85f8	0.0538387
65	0xbe79f076	-0.24408135
66	0xbd6bbf41	-0.05755544
67	0xbd9fffe5	-0.0781248
68	0x3dc24d2a	0.09487374
69	0xbda6eaaf	-0.08150231
70	0xbd020479	-0.031742547
71	0xbcec0392	-0.028810296
72	0x3cfcbb1c	0.03085094
73	0xbd01bf74	-0.031676725
74	0xbca60908	-0.020267978
75	0x3d90e1f3	0.070743464
76	0x3c27fb44	0.0102527775
77	0x3d4141e7	0.04718199
78	0x3cd66314	0.026170291
79	0x3ca75fa6	0.02043135
80	0xbd8e53ec	-0.069496006
81	0x3d17c6d6	0.03705486
82	0x3c0a28aa	0.008432547
83	0x3b196c78	0.00234106
84	0xbd30a219	-0.04312334
85	0xbc857db1	-0.016295286
86	0x3d4d2eee	0.050093584
87	0x3bfb809f	0.007675245
88	0x3d77d777	0.060508218
89	0xbc76a60e	-0.015054239
90	0x3d0dfe99	0.03466663
91	0xbc6b510f	-0.014362588
92	0xbc964894	-0.018345155
93	0x3cb64373	0.02224896
94	0xbc971e55	-0.01844708
95	0xbc562877	-0.013071171

batchnorm2.weight f4 [24]
0	0x3f4d8925	0.8028739
1	0x3f6f9dba	0.93600047
2	0x3f65ec6d	0.8981388
3	0x3f609ab9	0.8773609
4	0x3f6bef76	0.92162263
5	0x3f63371a	0.88755953
6	0x3f5e03c3	0.8672449
7	0x3f706f32	0.9391967
8	0x3f4e2537	0.80525535
9	0x3f509570	0.81478024
10	0x3f416626	0.7554649
11	0x3f4e9413	0.80694693
12	0x3f57c6c8	0.8428769
13	0x3f5a2e4c	0.85226893
14	0x3f683cc7	0.9071774
15	0x3f6dde4f	0.9291734
16	0x3f50f741	0.8162728
17	0x3f62e8f2	0.88636696
18	0x3f65d354	0.89775586
19	0x3f5fd87b	0.874397
20	0x3f6959f2	0.9115287
21	0x3f53b5fc	0.8269956
22	0x3f4f70a5	0.81031257
23	0x3f69e210	0.9136057

batchnorm2.bias f4 [24]
0	0xbc865af0	-0.016400784
1	0xbce8dc19	-0.028425263
2	0x3cd61d86	0.026137125
3	0x3c31ce69	0.010852435
4	0x3c8ed1e5	0.01743407
5	0x3a7927c8	0.0009504524
6	0xbb72a8b5	-0.0037026827
7	0xbcff6413	-0.031175649
8	0x3c1e3b32	0.009657668
9	0xbd005483	-0.031330597
10	0x3bd2e07e	0.006435453
11	0xbce4ace3	-0.02791447
12	0xbcb740fb	-0.022369852
13	0x3aafa658	0.0013401015
14	0x3c69922c	0.0142560415
15	0xbcb71aa3	-0.022351569
16	0x3cbde841	0.023182036
17	0x3d109cb2	0.035305686
18	0xbd19475c	-0.03742157
19	0x3cbc1672	0.022959922
20	0x3c33f044	0.010982577
21	0x3c125473	0.008931267
22	0xbd0a3da5	-0.033750195
23	0xbd10b4b5	-0.035328586

batchnorm2.running_mean f4 [24]
0	0x3bd5bd69	0.0065228236
1	0x3c9f9ab7	0.019482953
2	0xbb2a93ba	-0.0026027993
3	0x3b293f1a	0.0025824965
4	0x3d4ec52c	0.050481007
5	0x3b267fa4	0.002540567
6	0x3c0962e9	0.008385398
7	0xbadcfe1b	-0.0016860397
8	0xbd43e63f	-0.047827
9	0x3d056cc7	0.03257444
10	0xbca7f6be	-0.020503398
11	0xbce3b936	-0.027798276
12	0xbcebad85	-0.028769264
13	0xbb2f4091	-0.0026741365
14	0x3be85d20	0.0070911795
15	0x3ccb3197	0.02480392
16	0xbc8daea1	-0.017295184
17	0x3cb57bb7	0.022153718
18	0x3ca25405	0.019815454
19	0xbc83688c	-0.016041063
20	0xbcd4e060	-0.025985897
21	0xbc909c9e	-0.017652806
22	0xbc8ac932	-0.01694164
23	0xbd06317d	-0.03276204

batchnorm2.running_var f4 [24]
0	0x3cd327e1	0.025775852
1	0x3c57868e	0.013154639
2	0x3c3e3f1a	0.011611724
3	0x3c8c3471	0.01711485
4	0x3c966fd0	0.018363863
5	0x3c1d317f	0.00959432
6	0x3c59094b	0.0132468445
7	0x3c61875b	0.013765181
8	0x3ca4ed12	0.020132575
9	0x3c4a0ed5	0.012332638
10	0x3ce4f053	0.027946627
11	0x3c573400	0.013134956
12	0x3cb7f3b2	0.02245507
13	0x3c5bbb9d	0.01341143
14	0x3c3a46b4	0.011369396
15	0x3c59b74e	0.013288332
16	0x3cb97cb1	0.022642465
17	0x3c3f5e3c	0.011680182
18	0x3c92bcf1	0.01791236
19	0x3c88ca9b	0.016698172
20	0x3cb63f93	0.022247111
21	0x3c59c441	0.0132914195
22	0x3c4c87e6	0.012483573
23	0x3cbcba39	0.023038017

decoder_CNN.weight f4 [1, 24, 1, 3, 3]
0	0x3d175dc2	0.03695465
1	0xbc0f86ed	-0.008760196
2	0x3c928e77	0.017890198
3	0xbd34b6cd	-0.044119645
4	0x3a2f7acf	0.000669402
5	0xbb7aac69	-0.0038249737
6	0x3ba1ae00	0.0049340725
7	0xbc0ecffa	-0.008716578
8	0xba988430	-0.0011636075
9	0x3b171f27	0.002305934
10	0x3d35082e	0.044197254
11	0x3d33ca90	0.04389435
12	0xbbdb7e0d	-0.006698376
13	0x3c211e52	0.009833889
14	0x3c23246c	0.009957414
15	0x3c141c5e	0.009039966
16	0x3be057e2	0.006846414
17	0xbc301f6e	-0.010749681
18	0xbc000e08	-0.007815845
19	0xbcb4128f	-0.021981506
20	0xbca55911	-0.020184072
21	0x3c1f520a	0.0097241495
22	0xbcc9be0e	-0.024626758
23	0xbc9acfd3	-0.018897926
24	0x3cc232be	0.023705836
25	0x3d001e31	0.031278793
26	0x3d15b3b0	0.036548316
27	0xbbf30c54	-0.007417241
28	0x3cb9f40f	0.022699384
29	0x3ba1edf6	0.004941697
30	0xbd2cb958	-0.042168945
31	0xbcc1e36d	-0.023668015
32	0xbc764937	-0.015032104
33	0x3c8960b6	0.016769748
34	0x3c2fc884	0.010728959
35	0x3bbd6e89	0.005780999
36	0x3b24f0c2	0.0025167917
37	0xbd5ce9aa	-0.053933777
38	0xbb45b445	-0.0030167263
39	0xbc8706cf	-0.016482739
40	0x3b1f4120	0.0024300292
41	0x3c065571	0.008199082
42	0xbc1b3583	-0.009473207
43	0xbd223636	-0.03960248
44	0x3c817005	0.015800485
45	0xbd0f52f9	-0.03499124
46	0xbba5cb89	-0.0050596637
47	0xbd34030d	-0.043948222
48	0x3cbae7d2	0.022815619
49	0x3c8e384d	0.01736083
50	0x3d0f5576	0.03499361
51	0x3d616760	0.055030227
52	0x3c9bd53e	0.01902258
53	0xbcbc2e8a	-0.02297141
54	0x3c4d0911	0.012514369
55	0xbd0f4d39	-0.034985755
56	0x3d2ba7fd	0.041908253
57	0x3d41d0af	0.047318157
58	0x3aa31eba	0.001244507
59	0x3cc0af3e	0.023521062
60	0x3d0ef620	0.03490269
61	0xbd4439ad	-0.047906566
62	0xbcb6bbdd	-0.022306377
63	0x3ca79181	0.020455124
64	0x3d0b9d39	0.034085486
65	0x3ccf7871	0.025325986
66	0xbc73296d	-0.01484142
67	0x3c698f65	0.014255379
68	0x3d0d071c	0.03443061
69	0x3cc4471e	0.023959693
70	0x3c8ada16	0.016949695
71	0xbbcd25fa	-0.0062606307
72	0x3c435636	0.01192241
73	0x3d2c4d8b	0.04206614
74	0xbd155dd6	-0.036466442
75	0xbc675d00	-0.014121294
76	0x3c90e58d	0.017687583
77	0x3a903054	0.0011000731
78	0xbcb9a0e6	-0.02265973
79	0x3bd57e87	0.0065153274
80	0xbc408882	-0.011751296
81	0x3d00e4b7	0.03146812
82	0xbcec8ed9	-0.028876709
83	0x3d49cf96	0.049270235
84	0xbd079511	-0.033101145
85	0x3b3ad801	0.0028510096
86	0xbcb878c8	-0.02251853
87	0x3d2ab501	0.041676525
88	0x3c9cb545	0.019129405
89	0xbcfb739a	-0.030694772
90	0x3c70bb04	0.0146930255
91	0xbd43019e	-0.047608964
92	0x3c43b569	0.011945107
93	0xbba3f324	-0.00500335
94	0x3d5d89aa	0.054086365
95	0x3bd1a935	0.006398345
96	0x3cc0a4ff	0.023516176
97	0xbd2cf5c7	-0.04222658
98	0xbc315adb	-0.010824884
99	0x3ccf8686	0.0253327
100	0xbce0e037	-0.027450664
101	0x3cce4860	0.025180995
102	0x3cacb8aa	0.021084148
103	0x3c7ec5ae	0.01555006
104	0xbb6bdc4f	-0.0035989468
105	0xbca61b90	-0.020276815
106	0xbb047ed8	-0.0020217206
107	0xbc79925f	-0.0152326515
108	0xbd165828	-0.036705166
109	0x3ce7393d	0.028225536
110	0x3c5c1a93	0.01343407
111	0xbcafe635	-0.021472076
112	0x3d0b8b7f	0.03406858
113	0xbb8a5b99	-0.004222345
114	0x3c19b75b	0.009382094
115	0x3bcc443d	0.0062337206
116	0xbc08a39b	-0.008339788
117	0xbc1aac68	-0.009440519
118	0xbc408bc3	-0.011752072
119	0x3ac0f5f8	0.0014721742
120	0xbc9859c9	-0.0185975
121	0x3d378da1	0.044812802
122	0x3d1c8eed	0.038222242
123	0xbc14872c	-0.009065431
124	0xbd41a66d	-0.047277857
125	0xbc063f71	-0.008193837
126	0x3c7f5365	0.015583848
127	0xbbf255e7	-0.0073954943
128	0x3bd55d56	0.0065113707
129	0xbc3e6a58	-0.011622034
130	0x3a6c26e3	0.000900848
131	0xbbff33c4	-0.0077881534
132	0xbd3c7972	-0.046014257
133	0xbba48e52	-0.0050218487
134	0xbc01c496	-0.007920405
135	0xbbcbba7e	-0.0062173
136	0xbb39ea4c	-0.0028368412
137	0x3cca6124	0.024704523
138	0x3ccc71fe	0.0249567
139	0x3d38c6cb	0.04511146
140	0xbc88ea21	-0.016713204
141	0x3c50929e	0.012730269
142	0x3b0d91b8	0.0021601748
143	0x3cc594db	0.024118831
144	0x3cb2c2fa	0.021821488
145	0xbb9ae8d5	-0.004727463
146	0x3cdf4e35	0.027258972
147	0xbcff41f9	-0.031159388
148	0xbd014bf7	-0.031566586
149	0x3b3c9abd	0.0028778755
150	0x3d15f55e	0.036610954
151	0xbcf8b0ca	-0.030357737
152	0x3c1abbf3	0.009444225
153	0x3c940298	0.018067643
154	0xbd506172	-0.05087418
155	0xbd26f737	-0.040763106
156	0x3d3ec690	0.046576083
157	0x3cb8116e	0.022469249
158	0xbcc96142	-0.024582509
159	0x3c38f84e	0.011289669
160	0x3cbf1d18	0.023329303
161	0xbb835ddc	-0.0040089916
162	0xbd33cd2e	-0.043896846
163	0x3d308946	0.043099664
164	0x3cd46a94	0.025929727
165	0xbcab8dc3	-0.02094162
166	0x3cb9e6af	0.022693006
167	0x3caef6f7	0.021357996
168	0x3c4acec7	0.012378401
169	0xbc849251	-0.01618305
170	0x3cbc64a1	0.022997202
171	0xbbb3f630	-0.0054919943
172	0x3c99c719	0.018771695
173	0xbcedc4ca	-0.0290245
174	0xbb873dd3	-0.004127243
175	0xbc314232	-0.010819005
176	0xbbfc75d4	-0.007704476
177	0x3d5422a6	0.051790856
178	0x3bebcd51	0.0071961065
179	0x3c651224	0.013981376
180	0xbc044d76	-0.008075109
181	0xbd2ba19b	-0.041902166
182	0xbc0ad641	-0.008473934
183	0xbd0b5b9f	-0.034022924
184	0x3baa87bc	0.005204169
185	0x3bc192cf	0.0059073935
186	0xbc818d80	-0.015814543
187	0x3cab6fd3	0.020927345
188	0x3c4b967b	0.012426014
189	0xbb8ee89a	-0.0043612244
190	0x3b99c93e	0.0046931794
191	0xbd18a62d	-0.037267853
192	0x3d105513	0.035237383
193	0xbcf8067a	-0.030276526
194	0x3cc0db62	0.02354211
195	0x3c2b2ba2	0.010447415
196	0x3b25070b	0.00251812
197	0x3bd9ced5	0.0066469708
198	0x3d060e55	0.03272851
199	0xbd4e7dc6	-0.050412916
200	0x3c938412	0.018007312
201	0xbccc5ac6	-0.024945628
202	0xbd0b2516	-0.033970915
203	0x3cbdff99	0.023193168
204	0x3d11f689	0.035635505
205	0xbae0c42f	-0.0017148311
206	0x3cecf09b	0.028923323
207	0x3cbb4349	0.022859233
208	0x3b9f4b4a	0.00486127
209	0x3d546d76	0.051862203
210	0x3ba928cd	0.0051623345
211	0xbd4ca730	-0.04996413
212	0x3ce88077	0.02838157
213	0xbc66aaba	-0.01407879
214	0xb8c8f6bf	-9.582703e-05
215	0x3cd35040	0.025795102
