models/encoder_decoder/saved_models/lr_0.0005/epoch_4980.pt (torch, 618274 bytes, 17 tensors)

encoder_1_convlstm.conv.weight f4 [96, 32, 3, 3]
0	0x3d5a9187	0.053361442
1	0x3d106f67	0.03526249
2	0x3d0d1f70	0.03445381
3	0x3dc65900	0.09684944
4	0x3e09f21a	0.1347126
5	0x3dd914d8	0.10599679
6	0xbdc00e69	-0.093777485
7	0x3d9e4554	0.07728067
8	0x3de856e7	0.113447
9	0x3ebbd349	0.36684635
10	0x3e1ac374	0.15113622
11	0x3e47a58a	0.19496742
12	0x3e09864d	0.13430138
13	0x3e01735e	0.12641665
14	0x3e6e841c	0.23292583
15	0xbdcfda22	-0.101490274
16	0xbaee9900	-0.0018203557
17	0x3e685fb7	0.22692762
18	0xbd2db225	-0.04240622
19	0xbd77b7e4	-0.060478106
20	0xbe267cb2	-0.16258505
21	0x3d9aabc6	0.075522944
22	0xbc6b3f73	-0.014358389
23	0xbdc719af	-0.09721696
24	0xbe998ca2	-0.29990107
25	0xbe11d397	-0.14240871
26	0xbdbeaac3	-0.09309914
27	0x3d70a4f9	0.05875108
28	0x3dfd069d	0.12354777
29	0xbd5cfee4	-0.05395402
30	0x3bf87913	0.0075827925
31	0xbd7eb07e	-0.062180035
32	0xbde54349	-0.11194474
33	0xbd353371	-0.04423851
34	0xbd889eb5	-0.06670896
35	0xbd2e4421	-0.04254544
36	0xbd2b1d59	-0.041776035
37	0xbca6eb0f	-0.020375757
38	0xbdc3af17	-0.0955488
39	0xbce0b91a	-0.027432013
40	0xbe33e36b	-0.17567222
41	0xbe060754	-0.13088733
42	0xbd72b251	-0.059252087
43	0x3d367237	0.044542518
44	0x3d84f179	0.0649137
45	0xbcb4a983	-0.022053486
46	0xbd11e411	-0.03561789
47	0x3e68ad53	0.22722368
48	0xbb9897f3	-0.0046567856
49	0xbce0e734	-0.027453996
50	0x3d8c72e6	0.06857853
51	0xbc0fd392	-0.00877847
52	0xbdaf5be8	-0.085624516
53	0x3e6781b9	0.22608079
54	0xbe51b4e9	-0.20479168
55	0xbe25ed82	-0.16203883
56	0x3dd01325	0.101599015
57	0xbd09f774	-0.033683255
58	0xbc00ec1a	-0.007868791
59	0x3e4047f4	0.18777448
60	0xbd9c1467	-0.07621079
61	0xbc19bb54	-0.009383041
62	0x3e652a79	0.22379483
63	0xbd3c9c27	-0.046047356
64	0x3cd953df	0.02652925
65	0x3dc89e45	0.097958125
66	0xbd7538e4	-0.05986871
67	0x3bc2fc11	0.005950459
68	0x3d0c9c24	0.034328595
69	0x3e279043	0.16363625
70	0x3ccedcfc	0.025251858
71	0xbd6c9ae7	-0.057764914
72	0xbd09a39b	-0.033603292
73	0xbe0a95fb	-0.13533776
74	0x3cda3e05	0.026640901
75	0xbdd66dcc	-0.10470161
76	0x3d42fecc	0.047606274
77	0xbb874e9e	-0.004129245
78	0xbd02480a	-0.031806983
79	0xbdddbe08	-0.10827261
80	0xbdde4e27	-0.1085475
81	0xbc9f8d3e	-0.01947653
82	0xbd423e14	-0.047422484
83	0xbd58ccce	-0.052929692
84	0x3e4519b8	0.19248092
85	0x3dff48fb	0.12465092
86	0x3d8b5600	0.068035126
87	0xbd4f120b	-0.050554316
88	0xbc1bf6df	-0.009519308
89	0xbdff1496	-0.12455098
90	0x3dbfea26	0.09370832
91	0x3d487d6d	0.04894774
92	0x3db242a9	0.08704121
93	0x3e2381e1	0.15967514
94	0x3b944597	0.0045248973
95	0x3e28ab66	0.16471633
96	0xbe35e085	-0.17761429
97	0xbe2f281c	-0.17105144
98	0xbdb3babd	-0.08775852
99	0xbd466154	-0.048432663
100	0x3c3d334f	0.011547877
101	0xbe311133	-0.17291717
102	0xbd2ac38b	-0.04169039
103	0xbd0596a2	-0.032614358
104	0xbd8fea81	-0.0702715
105	0xbdac893b	-0.08424612
106	0xbe4593de	-0.19294688
107	0xbe15b866	-0.14621124
108	0xbdab77bc	-0.08372447
109	0xbdade8d3	-0.08491673
110	0xbd5cfa6b	-0.053949755
111	0x3db7cff9	0.089752145
112	0xbccabb5b	-0.024747541
113	0xbd1f7248	-0.038927346
114	0x3e010ec4	0.12603289
115	0x3da05f7c	0.07830712
116	0x3b9f37a6	0.0048589287
117	0x3d054953	0.03254063
118	0xbd09e071	-0.03366131
119	0x3daab3e1	0.083350904
120	0x3e0d16c3	0.13778214
121	0xbd7d3f9f	-0.061828252
122	0x3d5cf253	0.053942036
123	0x3d4abdf9	0.04949758
124	0x3e1e0e09	0.15435041
125	0x3e298252	0.1655362
126	0x3e1dde59	0.1541685
127	0xbbc92616	-0.0061385734
128	0x3d3729f7	0.044717755
129	0xbe02ec76	-0.12785515
130	0x3d85f72a	0.065412834
131	0x3da5d62d	0.080974914
132	0xbe603e09	-0.21898665
133	0x3c8d97d0	0.017284304
134	0xbdfb4605	-0.122692145
135	0xbe99a260	-0.30006695
136	0xbd7e6a35	-0.062113006
137	0x3d19e039	0.03756735
138	0x3e4f2dcd	0.20232315
139	0x3d50cab8	0.050974578
140	0x3cc2ea94	0.023793496
141	0x3e3fcb9f	0.18730019
142	0x3d2da746	0.042395853
143	0x3db44b8a	0.088034704
144	0xbdcc6dbc	-0.09981868
145	0xbd9be5cb	-0.07612189
146	0x3d6a9c3c	0.057277903
147	0x3e6135f9	0.21993245
148	0x3d667749	0.056266103
149	0x3db86e30	0.090053916
150	0x3dbe49bc	0.092914075
151	0x3e80f31d	0.2518548
152	0x3e78dc28	0.24302733
153	0x3d7b232d	0.061312843
154	0x3d766fd0	0.060165226
155	0x3d40735e	0.046985023
156	0x3e0961df	0.13416241
157	0x3e2f4439	0.17115869
158	0x3dd4e050	0.10394347
159	0x3e5149be	0.20438287
160	0x3e74b260	0.2389617
161	0x3c315ea4	0.010825787
162	0x3c07efc5	0.008296912
163	0xbdf8262e	-0.12116657
164	0x3e855dba	0.2604807
165	0x3d2260e6	0.03964319
166	0xbdd3e1a4	-0.10345772
167	0xbc687f05	-0.01419044
168	0xbd9b6217	-0.075870685
169	0xbb276dee	-0.00255477
170	0xbd8c73df	-0.06858038
171	0x3d72557b	0.05916355
172	0x3da6f150	0.081514955
173	0x3e42ea24	0.1903463
174	0x3ce0de64	0.027449794
175	0x3e3f8d81	0.18706323
176	0x3d8be968	0.06831628
177	0x3deeb0df	0.11654829
178	0xbb8c6e6e	-0.004285625
179	0x3db8ca6a	0.090229824
180	0xbe08e41d	-0.13368268
181	0xbd216b32	-0.03940887
182	0xbe4beb7a	-0.19914046
183	0xbe891e92	-0.26781136
184	0xbe63452b	-0.22194354
185	0xbcd4662d	-0.025927627
186	0xbec2e74e	-0.38067096
187	0xbe57c06f	-0.21069501
188	0xbe2c9d17	-0.168568
189	0xbe9d83de	-0.3076467
190	0x3d8a48cf	0.067521684
191	0x3d843ea7	0.064572625
192	0xbd902fe0	-0.070403814
193	0xbe115a54	-0.14194614
194	0xbdcb534a	-0.099279955
195	0xbdada2c1	-0.084783085
196	0xbd790eab	-0.060805004
197	0x3caf42c7	0.021394147
198	0xbe11095a	-0.14163724
199	0xbe44114a	-0.1914722
200	0xbd5a95dc	-0.053365573
201	0xbc71b625	-0.014752899
202	0xbdacae3b	-0.08431669
203	0xbd83c320	-0.064337015
204	0xbd9c17be	-0.07621716
205	0xbc995c03	-0.018720632
206	0xbc0bd536	-0.00853472
207	0x3c3549f8	0.011064999
208	0x3ca477e5	0.020076701
209	0x3de3ba55	0.111195244
210	0xbdc37908	-0.09544569
211	0x3de39fd0	0.11114466
212	0x3db1b18f	0.08676445
213	0x3d65fec2	0.05615116
214	0x3da6bb75	0.08141223
215	0x3c0ce475	0.00859939
216	0x3d5c7e6b	0.0538315
217	0x3d89f2d5	0.0673577
218	0x3a4bab8e	0.0007769399
219	0xbd6cbe08	-0.057798415
220	0xbdcaeee8	-0.09908849
221	0xbd77acef	-0.060467657
222	0x3d8e7c08	0.06957251
223	0x3d9938a8	0.074815094
224	0x3cfe6e48	0.031058446
225	0xbda1a54c	-0.07892856
226	0xbdd91bf0	-0.10601032
227	0xbdab789b	-0.08372613
228	0xbbd9a6b1	-0.0066421856
229	0xbe08fe9c	-0.13378376
230	0xbd418f1e	-0.047255628
231	0x3e1b29f3	0.15152721
232	0xbbde91c5	-0.0067922794
233	0x3d7a87c4	0.061164632
234	0xbe82f077	-0.25574085
235	0xbe463bc0	-0.1935873
236	0xbc16d0eb	-0.009205083
237	0xbcadf18d	-0.021233344
238	0x3c569985	0.013098125
239	0xbdabc761	-0.08387638
240	0xbdeef9d7	-0.11668747
241	0xbd9302e1	-0.071782835
242	0xbdbf6bf7	-0.093467645
243	0xbd6af525	-0.057362694
244	0xbdd35396	-0.10318677
245	0x3d589ead	0.0528857
246	0xbe83576e	-0.2565264
247	0xbe3e57cb	-0.18588178
248	0xbcc116a7	-0.023570372
249	0xbe76e77d	-0.24111743
250	0x3b345011	0.0027513544
251	0xbd8f3a71	-0.06993569
252	0xbe0e0f09	-0.13872923
253	0x3b23aba9	0.0024974144
254	0x3e15ec08	0.1464082
255	0xbe40a1b0	-0.18811679

encoder_1_convlstm.conv.bias f4 [96]
0	0xbdca0198	-0.09863585
1	0xbe7b82c3	-0.245616
2	0xbed492d8	-0.41518283
3	0xbde54ae2	-0.111959234
4	0xbed8e6c1	-0.4236355
5	0xbeddf475	-0.43350568
6	0xbeddc8e6	-0.43317336
7	0xbf0421f2	-0.51614296
8	0xbe7fa58d	-0.24965496
9	0xbe9b8608	-0.30375695
10	0xbee4de96	-0.4470107
11	0xbe9ec499	-0.31009367
12	0xbe782ec2	-0.24236587
13	0xbe96ef91	-0.2947965
14	0xbec94c1f	-0.39315888
15	0xbe3cb9ed	-0.184303
16	0xbd104aa8	-0.035227448
17	0xbd908ea9	-0.0705846
18	0xbe8d9134	-0.27649844
19	0xbebe75ed	-0.37199345
20	0xbee3276b	-0.4436601
21	0xbe8c8ccf	-0.27451178
22	0xbe98d825	-0.29852405
23	0xbf4024f0	-0.7505636
24	0xbdaa37d8	-0.083114326
25	0xbddc3a86	-0.1075335
26	0xbd73cec8	-0.059523374
27	0xbebb9420	-0.36636448
28	0xbe610514	-0.21974593
29	0xbeb775f2	-0.35832173
30	0xbe4b4ed9	-0.19854297
31	0xbeedb1d1	-0.46424726
32	0xbe007c8c	-0.12547511
33	0xbea78804	-0.3272096
34	0xbea2264e	-0.3166985
35	0xbe78e8be	-0.24307534
36	0xbe39a81b	-0.18130533
37	0xbe122694	-0.14272529
38	0xbf05cd51	-0.5226641
39	0xbec98d33	-0.3936554
40	0xbeecde36	-0.46263283
41	0xbe4730b3	-0.19452171
42	0xbd590d29	-0.052991066
43	0xbe84a767	-0.25908968
44	0xbea32666	-0.31865233
45	0xbe34cf04	-0.17657095
46	0xbeb38da5	-0.35069004
47	0xbed632fe	-0.4183578
48	0xbd87c74e	-0.06629811
49	0xbe01c406	-0.12672433
50	0xbe88f1c8	-0.26746964
51	0xbdb7d979	-0.089770265
52	0xbeb55cc3	-0.35422334
53	0xbedd5c85	-0.4323465
54	0xbe9aac95	-0.30209795
55	0xbe6236ae	-0.22091171
56	0xbd84688a	-0.06465252
57	0xbe9dca6b	-0.30818495
58	0xbe9a3893	-0.30121288
59	0xbe7599a4	-0.2398439
60	0xbdaab7a8	-0.08335811
61	0xbe03b201	-0.12860872
62	0xbe87c5de	-0.26518148
63	0xbdf12f22	-0.11776568
64	0xbd14284c	-0.036171243
65	0xbdddce38	-0.10830349
66	0xbe0b1b9d	-0.13584752
67	0xbe949061	-0.29016402
68	0xbee1750e	-0.44034618
69	0xbe8b27a3	-0.27178678
70	0xbe888b3a	-0.2666872
71	0xbe8a2518	-0.26981425
72	0x3c831140	0.015999436
73	0xbdde23a3	-0.10846641
74	0x3d255ece	0.040373616
75	0x3bcb6131	0.0062066545
76	0xbd4dcaef	-0.05024236
77	0x3d9a1871	0.07524193
78	0x3c9d3358	0.019189522
79	0x3daf5500	0.08561134
80	0x3c64cdc8	0.013965078
81	0x3d4d90f2	0.05018706
82	0x3d94163a	0.07230802
83	0x3e015b36	0.1263245
84	0xbdb79514	-0.08963981
85	0x3d94d818	0.07267779
86	0xbdd92edf	-0.10604643
87	0x3dbff0de	0.09372114
88	0xbe04bc21	-0.1296239
89	0xbde796f2	-0.113080874
90	0xbdc0cb2a	-0.094137505
91	0x3dea740c	0.114479154
92	0xbcedf84c	-0.029049061
93	0xbd3a97e7	-0.04555502
94	0x3d1e6819	0.038673494
95	0xbdc93779	-0.09825034

encoder_2_convlstm.conv.weight f4 [96, 48, 3, 3]
0	0x3e297056	0.16546759
1	0x3d25f283	0.04051448
2	0x3cee036d	0.029054368
3	0x3e0acce8	0.13554728
4	0x3d8e1777	0.06938069
5	0x3dd97788	0.10618502
6	0xbd8ce26c	-0.06879124
7	0xbd3166f7	-0.043311086
8	0xbc7474d0	-0.014920428
9	0x3d3881a6	0.045045517
10	0x3e19e56b	0.15028922
11	0x3e872d9d	0.26401988
12	0x3d022546	0.031773828
13	0x3c480aee	0.012209637
14	0x3e4b6925	0.19864328
15	0xbdd21e3c	-0.10259673
16	0xbdb006e0	-0.08595061
17	0xbb9032ca	-0.004400586
18	0x3c0c843f	0.008576452
19	0x3db88a67	0.09010773
20	0x3dd9f820	0.10643029
21	0x3e85effc	0.26159656
22	0xbd4da006	-0.05020144
23	0xbdd3c0a6	-0.10339479
24	0x3e310954	0.17288715
25	0xbd450e2e	-0.048109226
26	0xbe5abc78	-0.21360958
27	0x3ab9b7c2	0.0014169144
28	0xbe20f1ae	-0.15717193
29	0xbe8ce6c4	-0.2751981
30	0x3de1407d	0.10998628
31	0x3d8710d3	0.06595006
32	0xbdd9fe68	-0.10644227
33	0xbddb792c	-0.10716471
34	0x3e06081a	0.13089028
35	0xbde5b646	-0.112164065
36	0x3e00d8fd	0.12582774
37	0xbd5282ca	-0.05139426
38	0xbe7cf7a7	-0.24703847
39	0xbe7e7542	-0.24849418
40	0xbe638390	-0.22218156
41	0xbe2cc0c8	-0.16870415
42	0x3da73843	0.08165028
43	0x3d7ee667	0.062231448
44	0x3e235a46	0.15952405
45	0xbe13c867	-0.14431916
46	0x3dcfbd41	0.10143519
47	0x3dd107b4	0.102065474
48	0x3e2bb778	0.16769207
49	0x3da239a3	0.079211496
50	0xbe2482c7	-0.16065513
51	0x3e14415c	0.14478058
52	0xbe2c1cbf	-0.16807841
53	0x3da3c9ba	0.07997461
54	0xbc68b65a	-0.014203632
55	0x3e74a6c1	0.23891737
56	0x3e5d15ff	0.21590422
57	0x3e2d1716	0.16903338
58	0x3e0951ec	0.13410157
59	0x3ec6b096	0.388066
60	0x3d469a30	0.04848689
61	0xbd428a7a	-0.047495343
62	0x3b38c979	0.002819626
63	0x3d59f20b	0.053209346
64	0xbd0d55c0	-0.034505606
65	0xbeaf11bc	-0.34193218
66	0xbea81189	-0.32825878
67	0xbd270c2b	-0.04078309
68	0x3cd53520	0.026026309
69	0x3e6b4287	0.22974597
70	0xbe7ba197	-0.2457336
71	0xbd00c508	-0.031437904
72	0x3dc93079	0.098236986
73	0x3d952790	0.072829366
74	0x3dfcea9e	0.12349437
75	0x3ebf6d7b	0.37388214
76	0x3e97910c	0.2960285
77	0x3e876cfc	0.26450336
78	0x3e3e77d7	0.18600403
79	0x3b9509f5	0.004548306
80	0xbdfe143a	-0.12406202
81	0x3d1d34c8	0.038380414
82	0x3bb52a8e	0.0055287546
83	0x3e1f740c	0.15571612
84	0xbbebefee	-0.0072002327
85	0x3e4a491e	0.19754454
86	0x3e47b9a9	0.19504417
87	0xbdb336a2	-0.08750655
88	0xbda05e64	-0.078305036
89	0x3db7ec73	0.08980646
90	0x3e47448f	0.19459747
91	0xbddb64e5	-0.107126035
92	0x3c21e457	0.009881101
93	0xbd9299d7	-0.07158249
94	0x3d80250d	0.06257067
95	0x3c9eb5ce	0.0193738
96	0xbc2c334d	-0.010510278
97	0xb6ac431b	-5.1338116e-06
98	0x3da6c39b	0.081427775
99	0x3c956d80	0.01824069
100	0x3e3dc6e9	0.1853291
101	0x3e95fb80	0.29293442
102	0xbdaa1339	-0.08304448
103	0x3d6d60a3	0.057953488
104	0xbdb0ba4c	-0.08629283
105	0x3b3ff61b	0.0029290977
106	0xbe09f42c	-0.1347205
107	0x3e05de48	0.13073075
108	0x3d8566f1	0.06513775
109	0x3e08f840	0.1337595
110	0xbe2405be	-0.16017815
111	0xbe455028	-0.19268858
112	0xbe2b2d1e	-0.1671643
113	0x3cb25638	0.021769628
114	0x3e139c9e	0.14415213
115	0x3cc42c40	0.023946881
116	0xbc6e002e	-0.01452641
117	0xbe85dfae	-0.26147217
118	0xbe956526	-0.29178733
119	0xbd5548d3	-0.052071404
120	0xbdad03b6	-0.084479734
121	0x3dcc62cf	0.09979784
122	0x3e2d741b	0.16938822
123	0x3e44b46c	0.1920945
124	0x3dd43c0d	0.10363016
125	0x3c3a4c6e	0.011370761
126	0x3d9425e7	0.07233792
127	0x3d657d53	0.05602772
128	0x3ce1c30b	0.027558824
129	0x3b89b323	0.004202263
130	0x3e03269f	0.12807702
131	0x3d48e3f0	0.049045503
132	0x3e0dc4fd	0.13844676
133	0x3e5f8aca	0.21830288
134	0xbd407a5e	-0.0469917
135	0x3d8e2753	0.06941094
136	0x3e060e65	0.13091429
137	0xbdf04964	-0.11732748
138	0x3dacc6f5	0.084363855
139	0x3c98ed12	0.018667731
140	0x3d9bb29a	0.07602425
141	0x3e67481e	0.22586104
142	0x3d0be0e5	0.034150023
143	0xbd19194a	-0.037377633
144	0x3e02f733	0.12789612
145	0x3e5f0156	0.21777853
146	0xbc5c4fd0	-0.013446763
147	0x3d75e8b2	0.06003637
148	0x3e555b9c	0.20835727
149	0xbc8f202a	-0.017471392
150	0xbe3dd479	-0.18538083
151	0xbe2685cc	-0.16261977
152	0xbd7e9a13	-0.062158655
153	0x3e09728c	0.13422602
154	0xbc481c17	-0.012213728
155	0xbe04bd21	-0.12962772
156	0xbc587666	-0.013211822
157	0xbd33337b	-0.043750267
158	0x3b512fd8	0.0031919386
159	0xbde9eb9b	-0.11421891
160	0xbe7f21f3	-0.24915294
161	0xbe370110	-0.17871499
162	0x3ccdddb4	0.02513013
163	0xbe3a8548	-0.18214905
164	0x3cc82ad7	0.02443449
165	0xbe1cf081	-0.1532612
166	0xbe842359	-0.25808218
167	0xbd88307d	-0.066498734
168	0x3da6a6cb	0.08137282
169	0xbcdd5a01	-0.027020456
170	0xbc057331	-0.00814514
171	0xbe6c2bf5	-0.23063643
172	0xbc58e405	-0.013237958
173	0x3cf61fcf	0.030044464
174	0xbc694b20	-0.014239103
175	0xbcf3d705	-0.029765615
176	0x3e9f1cf5	0.3107678
177	0x3e8f4bfa	0.27987653
178	0xbc78d4a6	-0.015187418
179	0xbcf6c313	-0.030122316
180	0xbda33e99	-0.07970924
181	0xbde03863	-0.10948255
182	0xbdbcf59d	-0.092265345
183	0xbbecfaaa	-0.00723203
184	0x3d982827	0.074295335
185	0xbce07e89	-0.027404087
186	0xbe963883	-0.2933999
187	0xbe800074	-0.25000346
188	0xbe681756	-0.22665152
189	0x3d15abc6	0.03654077
190	0x3cca0f9b	0.024665644
191	0xbdc11520	-0.094278574
192	0x3bf84f61	0.007577822
193	0xbd62116f	-0.055192407
194	0xbd995e19	-0.07488651
195	0x3de251d0	0.11050761
196	0x3dd4af27	0.1038497
197	0xbe2d9fe0	-0.16955519
198	0x3ccfea4f	0.025380282
199	0x3d47bf28	0.048766285
200	0xbe825496	-0.2545516
201	0xbed1f77f	-0.41009137
202	0xbe3734cf	-0.17891239
203	0x3dbeeeba	0.09322877
204	0x3df90388	0.12158877
205	0x3da3e52f	0.08002698
206	0x3d064104	0.032776847
207	0x3e4e99c7	0.20175849
208	0x3e05e3c6	0.1307517
209	0x3e192443	0.14955239
210	0xbe2264ea	-0.15858808
211	0xbcdc677e	-0.026904818
212	0xbc2b28ae	-0.0104467105
213	0x3dbf50e2	0.09341599
214	0x3e83d182	0.2574578
215	0x3e177f2a	0.14794603
216	0xbd04d961	-0.03243387
217	0x3e3b9dd1	0.18321921
218	0x3f064554	0.52449536
219	0x3e27a183	0.16370206
220	0x3e2d53f5	0.16926558
221	0x3e59d4ad	0.21272536
222	0x3e713192	0.23554066
223	0x3d9dce07	0.07705312
224	0x3dbae7e2	0.091262594
225	0x3e14c9cc	0.14530104
226	0x3e31361f	0.17305802
227	0x3e3211ed	0.1738965
228	0x3daa9692	0.083295
229	0x3d5d28cf	0.053993996
230	0xbc5310e5	-0.012882446
231	0x3e261887	0.16220294
232	0x3c598b0b	0.013277779
233	0xbdd5572a	-0.10417016
234	0xbc0666d4	-0.008203227
235	0x3ba57c1e	0.0050501963
236	0x3bdb49eb	0.0066921613
237	0x3e1dc9df	0.15409039
238	0x3e4c7d31	0.19969632
239	0x3da2948a	0.07938488
240	0x3e554a08	0.20829022
241	0x3dd8597f	0.10563945
242	0xbdaf3171	-0.08554352
243	0x3dc26921	0.09492708
244	0x3dba6179	0.09100623
245	0x3e08f061	0.13372947
246	0xbd4ecf86	-0.05049088
247	0x3dbcc563	0.09217336
248	0x3e02b8ef	0.12765859
249	0xbe18b38c	-0.14912242
250	0xbb8fd0ca	-0.0043889033
251	0xbd861789	-0.06547458
252	0x3da23a7b	0.079213105
253	0x3e7ae730	0.24502254
254	0x3e932701	0.28740695
255	0x3d1d6a62	0.038431533

encoder_2_convlstm.conv.bias f4 [96]
0	0x3d4ecdf8	0.050489396
1	0xbe42c2b5	-0.19019587
2	0x3d3168c6	0.04331281
3	0x3d69a470	0.057041585
4	0xbd38634e	-0.04501658
5	0xbda3ae7c	-0.07992265
6	0x3da51035	0.08059732
7	0x3e149e75	0.14513572
8	0xbcca7bd9	-0.024717258
9	0x3da6b91e	0.08140777
10	0x3eaa1f16	0.33226842
11	0xbd3a0c71	-0.04542202
12	0x3dabeb7a	0.08394523
13	0x3dbed18e	0.09317313
14	0x3dacad08	0.084314406
15	0xbd7c7755	-0.06163724
16	0x3f02c2d7	0.5107855
17	0x3e669238	0.22516716
18	0xbd89b72f	-0.067243926
19	0x3e9ed3f5	0.31021085
20	0xbc7d5c1c	-0.015463855
21	0x3c82a2a7	0.0159467
22	0x3dda03fc	0.10645291
23	0x3d909efc	0.07061574
24	0xbd86c794	-0.06581035
25	0xbe9b896f	-0.3037829
26	0x3cc0cef4	0.023536183
27	0x3d027012	0.03184516
28	0xbdff8e64	-0.12478331
29	0xbee78906	-0.45221728
30	0x3c930095	0.017944613
31	0x3da7bd79	0.08190436
32	0xbddde2b2	-0.10834254
33	0xbea1e1b1	-0.316175
34	0xbee69d78	-0.45042014
35	0xbe0ed29b	-0.13947527
36	0xbd95cd75	-0.073145784
37	0xbe10052f	-0.14064477
38	0xbea35a32	-0.3190475
39	0x3cc0b7d2	0.023525152
40	0xbe196d85	-0.14983185
41	0xbeccd427	-0.4000561
42	0xbd61beb3	-0.055113506
43	0xbea8fa42	-0.33003432
44	0x3d94b9a8	0.072619736
45	0xbb3f14f1	-0.002915677
46	0x3d0d6c80	0.0345273
47	0xbdc304dc	-0.09522411
48	0x3d90ac5d	0.07064126
49	0xbe162b61	-0.14664985
50	0x3db8fb97	0.09032362
51	0x3dce6f2a	0.100797966
52	0x3de3fa28	0.11131698
53	0xbda32e52	-0.07967819
54	0x3de5ae07	0.11214834
55	0x3df5a307	0.119939856
56	0xbd8078be	-0.0627303
57	0x3e786798	0.24258268
58	0x3e7d32a3	0.24726348
59	0x3daf7168	0.085665524
60	0x3d971eec	0.07378945
61	0x3e030659	0.1279539
62	0x3d2bfc77	0.041988816
63	0xbc863eb0	-0.016387314
64	0x3e92e2e5	0.28688732
65	0x3e2a9152	0.16656998
66	0x3cad1463	0.021127885
67	0x3eccc204	0.39991772
68	0x3dcb3a6d	0.09923253
69	0x3d288e69	0.041151438
70	0x3dbdebca	0.09273489
71	0x3d4e602e	0.050384693
72	0xbc67bc39	-0.014143997
73	0xbc261ac0	-0.010138214
74	0x3ba61d32	0.0050693983
75	0xbb2be754	-0.0026230412
76	0x3d91bd83	0.071162246
77	0x3bb44549	0.0055014235
78	0x3cfd730c	0.030938648
79	0xbdb6b297	-0.08920782
80	0xbc82922c	-0.01593884
81	0x3e1628bd	0.14663978
82	0x3d402ebc	0.04691957
83	0x3d98a71c	0.074537486
84	0xbd651f2a	-0.055937923
85	0xbd55ab6d	-0.052165437
86	0x3c3a9b14	0.011389513
87	0xbd5a0dc1	-0.053235773
88	0xbd930705	-0.07179073
89	0x3d3b1be2	0.045680888
90	0xbd2abdd7	-0.04168495
91	0xbcc44a75	-0.023961285
92	0xbd15669d	-0.036474813
93	0xbc0dde78	-0.008658998
94	0x3d3ac9b0	0.0456025
95	0x3db078ec	0.08616814

batchnorm1.weight f4 [24]
0	0x3fa2a979	1.2707969
1	0x3ff7d979	1.9363242
2	0x3fadb407	1.3570565
3	0x3f901f6e	1.1259592
4	0x3f8343f3	1.0255111
5	0x4009473a	2.1449723
6	0x3f673925	0.9032157
7	0x3f99c48c	1.2013106
8	0x3faa4c30	1.33045
9	0x3fde2cb4	1.7357392
10	0x40050c74	2.078885
11	0x3fe11d8f	1.7587146
12	0x3fb5f8d6	1.4216564
13	0x3ff194eb	1.8873571
14	0x3faad7b6	1.334708
15	0x3f9ea90b	1.2395338
16	0x3fd7007c	1.6797023
17	0x3fc421f7	1.5322865
18	0x3f860e51	1.0473119
19	0x3fc0d83c	1.506599
20	0x3f6029f6	0.8756403
21	0x3f776aac	0.96647143
22	0x3f9474a9	1.1598102
23	0x3fd193d5	1.637324

batchnorm1.bias f4 [24]
0	0xbd825fcb	-0.06365927
1	0xbe0b0633	-0.13576584
2	0xbd536875	-0.05161329
3	0x3d618794	0.055060938
4	0xbea3c1cd	-0.31983796
5	0xb90389c0	-0.0001254445
6	0xbc82869a	-0.015933324
7	0xbd3ece6c	-0.046583578
8	0x3e8386f9	0.25688913
9	0x3d63b1a1	0.055589322
10	0xbd1088a9	-0.03528658
11	0x3d44feff	0.048094746
12	0x3e1c20c9	0.15246882
13	0xbe317356	-0.17329153
14	0x3e3aac3a	0.18229762
15	0xbc954489	-0.018221157
16	0xbb892329	-0.0041850996
17	0xbc96c6cf	-0.018405346
18	0x3d6941a7	0.056947377
19	0x3da1a5db	0.078929625
20	0x3c3966ae	0.011315985
21	0xbe9bfe8b	-0.30467638
22	0xbe2dc03c	-0.16967863
23	0xbe1ffaca	-0.15623012

batchnorm1.running_mean f4 [24]
0	0xbdffea21	-0.124958284
1	0x3a9abd5a	0.0011805699
2	0xbd9a3770	-0.07530105
3	0x3d75d7ce	0.06002026
4	0xbc0cd1cb	-0.00859494
5	0xbc24ef8a	-0.010066876
6	0xbbb4da6b	-0.0055192015
7	0xbe618be1	-0.22026016
8	0xbcb3dc65	-0.021955678
9	0x3d28f92e	0.04125326
10	0xb981ba4d	-0.00024743602
11	0x3d57dbae	0.052699737
12	0x3c4556de	0.0120446365
13	0xbd8a3636	-0.06748621
14	0x3dd5b0da	0.104341224
15	0x3be89372	0.007097655
16	0xbb9bfd4a	-0.004760419
17	0xba85fcae	-0.0010222399
18	0x3df8740d	0.1213151
19	0x3c1a2bcb	0.009409855
20	0xbc3142d0	-0.010819152
21	0x3e0febb5	0.14054759
22	0x3e3a95d0	0.18221211
23	0x3e47150f	0.19441627

batchnorm1.running_var f4 [24]
0	0x3d5452dc	0.051836833
1	0x3cce5da1	0.02519113
2	0x3d1bb92c	0.03801839
3	0x3d6cff6a	0.05786077
4	0x3d876902	0.066118255
5	0x3cd8c21e	0.02645975
6	0x3d169185	0.036759872
7	0x3d3af3cc	0.04564266
8	0x3d7c7d65	0.061643023
9	0x3cf4e301	0.0298934
10	0x3b05c941	0.0020414146
11	0x3d5115cf	0.05104619
12	0x3d6e6dec	0.0582103
13	0x3d2057b3	0.039146136
14	0x3d20c8e7	0.039254095
15	0x3da40cef	0.080102794
16	0x3b01fcdb	0.0019834551
17	0x3b23d65d	0.0024999597
18	0x3dcfd767	0.101485066
19	0x3b4a17a9	0.0030836856
20	0x3d8722f8	0.06598467
21	0x3dbed7cd	0.093185045
22	0x3d7d3e2d	0.061826874
23	0x3d5fd3a3	0.054645192

decoder_1_convlstm.conv.weight f4 [96, 48, 3, 3]
0	0xbac13e01	-0.001474321
1	0xb8eb1fb0	-0.000112115755
2	0x3cc3f2bd	0.023919458
3	0xbce8556f	-0.02836105
4	0xbcb4df7c	-0.022079222
5	0x3cf1f8b4	0.029537536
6	0x3c36a60d	0.011147988
7	0x3b02b62e	0.0019945013
8	0xbc120f03	-0.008914712
9	0x3c59015c	0.013244953
10	0xbbf01267	-0.0073264125
11	0x3d04393f	0.032281157
12	0x3c7f7230	0.015591189
13	0x3d12f94f	0.03588229
14	0xbb379413	-0.0028011843
15	0xbbd2f884	-0.006438317
16	0x3c2743f0	0.010209069
17	0x3c296f8e	0.010341538
18	0x39b8ac8f	0.0003522378
19	0x3c1688f7	0.009187928
20	0x3c83ccd2	0.016088877
21	0xbd07b2d8	-0.033129543
22	0xbd2681cc	-0.040651128
23	0xbbbc5acb	-0.005748128
24	0x3cb1c6bf	0.021701215
25	0x3b7538c5	0.003741787
26	0xbb8a20e5	-0.004215347
27	0xbcb3ee21	-0.021964135
28	0x3ca0bcca	0.019621272
29	0xba8a7509	-0.0010563444
30	0xbc0fe9a8	-0.008783735
31	0x3c684342	0.014176192
32	0x3c8aa5ef	0.016924826
33	0xbc1241bb	-0.008926804
34	0x3ce0fe2d	0.02746495
35	0x3d33f392	0.04393346
36	0x3c50c5f3	0.012742507
37	0xba896efa	-0.0010485344
38	0x3d08df20	0.033415914
39	0x3c48d82e	0.0122585725
40	0xbc97568d	-0.018473888
41	0xbcebd015	-0.028785745
42	0xbd534e85	-0.051588554
43	0xbd527653	-0.051382374
44	0xbcc97fc9	-0.024597066
45	0xbbd06e1b	-0.006360782
46	0xbb2bb537	-0.0026200542
47	0xbc584654	-0.013200361
48	0xbc541abb	-0.012945826
49	0xbd05168a	-0.032492198
50	0xbb27b679	-0.002559094
51	0x3c7c0e27	0.015384234
52	0x3b8134a7	0.003943044
53	0x3b761dbf	0.003755435
54	0xbcb4cb8d	-0.022069717
55	0x3d2a6a23	0.041605126
56	0x3c891064	0.016731448
57	0x3cd98e79	0.026557194
58	0x3cf2d23e	0.029641267
59	0x3c2ef5f7	0.01067876
60	0xbd245ed0	-0.040129483
61	0xbc95416f	-0.018219678
62	0x3cb65eec	0.02226206
63	0x3ce173cc	0.027521037
64	0x3b6717e3	0.003526204
65	0x3c69f004	0.014278416
66	0x3cb05dd8	0.021529123
67	0xbb1a300d	-0.0023527176
68	0x3db00ef9	0.08596606
69	0x3da637b7	0.081160955
70	0x3cb577e3	0.022151893
71	0x3d76cb0c	0.060252234
72	0xbd566a9c	-0.052347764
73	0xbcacf30f	-0.021111993
74	0xbce3bb88	-0.027799383
75	0xbd903cd5	-0.07042853
76	0xbdfc073b	-0.123060666
77	0xbd04bf4e	-0.032409005
78	0x3a466edf	0.00075696217
79	0xbd06cf4d	-0.03291254
80	0xbd7a1d48	-0.06106308
81	0xbc5effa3	-0.013610753
82	0xbcb54470	-0.02212736
83	0xbb9b0314	-0.0047305916
84	0xbba6453a	-0.0050741704
85	0x3b301d98	0.0026873108
86	0xbc5f6f41	-0.013637365
87	0x3c1175e5	0.008878206
88	0xbba8421e	-0.005134835
89	0xbcb993c5	-0.02265347
90	0x3c81b1b0	0.015831798
91	0x3c14a3be	0.009072242
92	0x3c1b4699	0.009477281
93	0x3b5d1cda	0.003373912
94	0x3ae53878	0.0017488142
95	0x3b02f4ec	0.001998241
96	0x3b571005	0.0032815945
97	0xbc4a3dec	-0.012343865
98	0xbc037ea6	-0.008025801
99	0x3c0a6e87	0.008449203
100	0x3c867b29	0.01641615
101	0x3c930bc9	0.017949956
102	0x3d004121	0.03131211
103	0x3cac69b2	0.021046493
104	0x3c22c688	0.009935029
105	0xbbb2983a	-0.0054502757
106	0xbbd320da	-0.006443125
107	0x3c798abb	0.01523083
108	0xbb229bb2	-0.002481204
109	0x3ba68892	0.0050821984
110	0xbca7b6c5	-0.020472893
111	0x3d1c5f28	0.038176686
112	0x3d17326f	0.03691333
113	0xbcb0326f	-0.021508424
114	0xbc0f44b8	-0.008744411
115	0xbbe6d29c	-0.0070441496
116	0x3d2236e4	0.03960313
117	0xbc5662ff	-0.013085126
118	0xbb4e596c	-0.0031486405
119	0xbc0014ac	-0.007817429
120	0xbc457cbf	-0.012053668
121	0xbd1567f6	-0.036476098
122	0x3a7794bf	0.0009444467
123	0xbc8af13f	-0.016960738
124	0x3b12a969	0.0022378808
125	0xbb9e553d	-0.0048319385
126	0x3c7d83db	0.015473331
127	0x3bd98dc1	0.006639213
128	0xbd2b55c7	-0.04182985
129	0x3b13ee92	0.002257262
130	0xbc17e17d	-0.009270069
131	0xbb90545a	-0.0044045867
132	0xbc5b58bf	-0.013387858
133	0x3c5c0f9e	0.013431458
134	0xbbf5a25c	-0.0074961614
135	0x3c72f1f4	0.014828194
136	0xbb887f35	-0.004165555
137	0x3d18154f	0.037129696
138	0x3cb522af	0.022111265
139	0x3caa4f05	0.020789633
140	0x3d02c445	0.03192546
141	0xbc9ed333	-0.019387817
142	0xbc3f2be9	-0.011668184
143	0x3ca55b65	0.020185182
144	0xbbae6763	-0.0053223833
145	0xbc211c41	-0.009833396
146	0xbc4de2e7	-0.012566305
147	0x3c12e28c	0.008965146
148	0xbc40f2df	-0.011776655
149	0xbc25d0db	-0.010120596
150	0x3c33f552	0.010983782
151	0x3d4a31a8	0.049363762
152	0xbb4f57e0	-0.003163807
153	0x3c87992a	0.016552527
154	0x3c5a1ebc	0.013312992
155	0x3bc94cee	0.006143204
156	0xbc24e015	-0.010063191
157	0xbc25c3e3	-0.010117504
158	0x3c5a6fe0	0.013332337
159	0x3c5efe4d	0.013610435
160	0xbcdc166f	-0.026866166
161	0xbbcc211c	-0.006229533
162	0x3d287973	0.041131448
163	0x3c561163	0.013065669
164	0x3b42003a	0.0029602186
165	0xbd186664	-0.037207022
166	0x39f26bbe	0.0004623811
167	0x3c7f23b4	0.015572477
168	0x3ba610d7	0.0050679254
169	0xbd73bfb6	-0.059509
170	0x3cb28265	0.021790693
171	0xbc38fdd9	-0.011290991
172	0xbcb78593	-0.02240256
173	0xbbc5bdd9	-0.0060345945
174	0x3c4aeb44	0.012385193
175	0xbb6263ac	-0.0034544272
176	0xbca4ee7a	-0.020133246
177	0x3cc06811	0.023487123
178	0x3d02bf1d	0.03192054
179	0x3b347c29	0.0027539826
180	0xbd608778	-0.054816693
181	0xbca58086	-0.020202886
182	0x3d177327	0.036975052
183	0x3ce8cb83	0.028417354
184	0x3cd3b000	0.02584076
185	0x3c323ab6	0.010878256
186	0x3ca8633b	0.02055513
187	0x3d86a6fc	0.065748185
188	0xbe0f091d	-0.1396832
189	0x3cf7124d	0.030160094
190	0x3c9a7301	0.018853666
191	0x3b4e8ac1	0.003151581
192	0x3c124b3b	0.008929069
193	0x3d4c6618	0.04990205
194	0x3b64bff8	0.0034904461
195	0x3c80e137	0.01573239
196	0x3c6aaf34	0.014323998
197	0x3c64dc0b	0.013968478
198	0xbd3eb7fa	-0.046562172
199	0x3b9dcb93	0.0048155277
200	0xbd2654a6	-0.04060807
201	0xbc92d655	-0.017924467
202	0xbac81e11	-0.001526775
203	0xbcbad4a2	-0.02280647
204	0xbd12c588	-0.03583291
205	0xbd27854e	-0.040898614
206	0xbc01c12a	-0.007919589
207	0xbb2b3d49	-0.0026129058
208	0xbc3900e8	-0.01129172
209	0xbc8fb6de	-0.017543253
210	0xbd10c9b6	-0.035348617
211	0x3c2ecc41	0.010668815
212	0xbc2fb160	-0.010723442
213	0xbc535c95	-0.012900491
214	0x3c81eec2	0.015860919
215	0x3c1d9297	0.009617469
216	0x3e3c1efe	0.18371198
217	0xbd9bd94b	-0.07609805
218	0xbd957fa0	-0.07299733
219	0x3c147f57	0.009063563
220	0xbd4bac76	-0.04972502
221	0x3d67e4ab	0.05661456
222	0x3da9e6d8	0.08295983
223	0x3e3a555b	0.18196623
224	0x3d473789	0.048636947
225	0xbe17ed55	-0.14836629
226	0xbe5832d8	-0.21113145
227	0x3ecd25ca	0.40067893
228	0x3d2696ca	0.040671147
229	0xbd2e13a9	-0.042499218
230	0x3e5b1fc2	0.21398833
231	0x3e149a04	0.14511877
232	0x3e18e782	0.14932063
233	0x3e7fa7e3	0.24966387
234	0xbe3e561f	-0.1858754
235	0x3c69e4eb	0.01427577
236	0x3e763abf	0.24045847
237	0x3d811a6e	0.06303869
238	0x3e14037e	0.14454457
239	0x3e1fc87f	0.15603827
240	0x3e4a41cb	0.1975166
241	0x3e60af1b	0.21941797
242	0x3db5b62f	0.088726394
243	0xbed27c48	-0.41110444
244	0xbe0f98c9	-0.14023127
245	0x3e618d7f	0.22026633
246	0xbd74c7a3	-0.0597607
247	0x3dda7dc1	0.10668517
248	0x3e2ea29a	0.17054215
249	0xbc709872	-0.014684783
250	0xbc2a7171	-0.010403023
251	0xbe87aadb	-0.2649754
252	0x3e34a5dd	0.17641397
253	0xbdaf8258	-0.08569783
254	0xbeb5e96d	-0.35529652
255	0xbdf8d11c	-0.121492594

decoder_1_convlstm.conv.bias f4 [96]
0	0x3ca05224	0.019570418
1	0x3e085e40	0.13317204
2	0x3e43e859	0.19131602
3	0x3ea5fbae	0.3241858
4	0xbd8ff2b9	-0.070287175
5	0xbbeb8b4b	-0.007188236
6	0x3dfc825b	0.12329551
7	0xbcb26f30	-0.021781534
8	0x3c2f6350	0.01070483
9	0x3e2e97b4	0.17050058
10	0xbe0960e1	-0.13415863
11	0xbdc7ec26	-0.097618386
12	0xbd544bae	-0.051829986
13	0xbca2f96f	-0.01989433
14	0x3c855608	0.016276374
15	0xbe171433	-0.14753799
16	0x3e12f5cb	0.14351575
17	0xbc28755b	-0.010281886
18	0xbb8a56d4	-0.0042217765
19	0x3d0f09a4	0.034921303
20	0xbd9b40a6	-0.0758069
21	0xbdd8c547	-0.10584503
22	0xbd3e079e	-0.046393983
23	0x3ce26d58	0.02764003
24	0x3e19047f	0.14943121
25	0x3c9349a5	0.017979452
26	0x3e95aa81	0.29231647
27	0x3e25b705	0.16183098
28	0xbde4d5df	-0.11173605
29	0xbddd2158	-0.107973754
30	0x3df0ecc1	0.11763907
31	0x3c493de8	0.012282826
32	0xbcec2914	-0.028828181
33	0x3dae4194	0.08508602
34	0xbdb48726	-0.0881484
35	0xbe446b5a	-0.19181576
36	0xbe35f64d	-0.17769738
37	0x3e13f241	0.14447881
38	0x3dc21541	0.0947671
39	0x3c7691e3	0.015049431
40	0xbd69d215	-0.057085115
41	0xbdd2f4f2	-0.10300626
42	0xbd977730	-0.0739578
43	0xbddd184c	-0.1079565
44	0xbe079304	-0.13239676
45	0x3e22cebb	0.15899174
46	0xbe04b7b1	-0.12960698
47	0x3cc224a3	0.02369911
48	0x3e16ce4d	0.14727135
49	0x3dfbb5fd	0.12290571
50	0x3e93e44d	0.28885117
51	0x3ed26c5a	0.4109829
52	0xbdc09dbd	-0.09405086
53	0x3df75621	0.12076975
54	0x3e32312b	0.17401569
55	0x3da279c5	0.07933382
56	0x3e1e7b12	0.15476635
57	0x3e8ed730	0.2789855
58	0xbd07a883	-0.03311969
59	0x3c3e3e12	0.011611478
60	0x3df1e90d	0.11812029
61	0x3d4ea8b4	0.050453857
62	0x3dd2a4da	0.10285349
63	0xbcb34d6b	-0.021887502
64	0x3d96e60f	0.07368099
65	0x3e1d6fa9	0.15374626
66	0x3d67cf27	0.05659404
67	0x3d05854c	0.032597825
68	0xbd847ecb	-0.06469496
69	0x3c0d2dc6	0.00861687
70	0x3c721a08	0.014776714
71	0x3d9af704	0.07566646
72	0xbdd8e9d4	-0.10591474
73	0x3dafa9da	0.085773185
74	0xbbeb4ced	-0.007180801
75	0x3db2266c	0.08698735
76	0x3c7bf955	0.01537927
77	0xbd108f58	-0.035292953
78	0xbe859c70	-0.26095915
79	0xbe0f1d03	-0.13975911
80	0x3d97a2a4	0.07404068
81	0xbe155365	-0.14582594
82	0xbdde0ea2	-0.10842635
83	0x3e4b555e	0.19856784
84	0x3e78d712	0.24300793
85	0xbda052fe	-0.078283295
86	0x3d7bde93	0.06149156
87	0xbda30d98	-0.07961577
88	0x3e906bb3	0.28207168
89	0xbc62377e	-0.013807176
90	0x3d1d44ba	0.03839562
91	0xbe59c600	-0.21266937
92	0x3dc7ec36	0.097618505
93	0xbdf83f5c	-0.1212146
94	0x3e095fb3	0.13415413
95	0x3d227732	0.039664455

decoder_2_convlstm.conv.weight f4 [96, 48, 3, 3]
0	0x3e22a178	0.15881908
1	0xbd7be687	-0.061499145
2	0x3cd5760e	0.02605727
3	0xbd8441ef	-0.06457888
4	0x3dbf48ba	0.09340043
5	0xbe16a990	-0.1471312
6	0xbdf52059	-0.119690605
7	0xbd9a2edf	-0.07528471
8	0xbc985853	-0.018596804
9	0xbe30e52f	-0.17274927
10	0xbd266b6f	-0.0406298
11	0xbe45e0aa	-0.19323984
12	0x3d9c4d79	0.07631964
13	0x3e253777	0.1613444
14	0xbcbe7eef	-0.023253886
15	0xbcc491b9	-0.023995267
16	0xbe01d54d	-0.12679024
17	0xbe289b2e	-0.16465446
18	0x3d47a87c	0.048744664
19	0x3cb3c3d6	0.021943968
20	0xbe45628d	-0.19275875
21	0xbce1fe3b	-0.027587047
22	0xbb81e377	-0.0039638835
23	0x3d05f423	0.03270353
24	0x3e0102ca	0.1259872
25	0x3e36f33d	0.17866226
26	0xbca49b88	-0.020093694
27	0x3d1a7b0d	0.037715007
28	0x3d6300ec	0.0554208
29	0xbd4d3ae3	-0.050104987
30	0x3db2b994	0.087268025
31	0xbb9f2b20	-0.004857436
32	0xbe138b0c	-0.14408511
33	0xbe9b7f81	-0.30370715
34	0x3e35a564	0.17738873
35	0x3ab21df6	0.0013589251
36	0x3da1bb86	0.078970954
37	0x3dba2579	0.090891786
38	0xbebd7760	-0.37005138
39	0x3ea7e44d	0.32791367
40	0x3db40e68	0.0879181
41	0xbcf833a8	-0.03029807
42	0xbe1ed448	-0.15510666
43	0x3e380e98	0.17974317
44	0x3a37786c	0.000699884
45	0x3e3e2252	0.1856778
46	0x3e3f1c68	0.1866318
47	0xbd19e6bc	-0.03757356
48	0x3dba26d6	0.090894386
49	0x3c32902f	0.010898634
50	0xbe47b4ac	-0.19502515
51	0x3dd776eb	0.10520729
52	0xbbcc8bb1	-0.0062422385
53	0xbe0788e7	-0.13235818
54	0x3d2e4bde	0.04255282
55	0xbddab58b	-0.10679158
56	0xbe1c6656	-0.15273413
57	0x3d3ef9a8	0.04662481
58	0xbe1d537d	-0.1536388
59	0x3e5d2a86	0.21598253
60	0x3e6005ce	0.21877214
61	0xbcf3ab5b	-0.029744795
62	0x3db63099	0.08895988
63	0x3eba5581	0.3639336
64	0xbe85bdaf	-0.2612128
65	0xbe23e791	-0.16006304
66	0x3dbf7f37	0.09350436
67	0xbd309473	-0.043110322
68	0xbceb39c0	-0.02871406
69	0x3f0462ad	0.5171307
70	0x3e030c46	0.1279765
71	0x3de46f06	0.111539885
72	0xbdd9941b	-0.10623952
73	0x3e29116b	0.1651055
74	0x3e4b1fb1	0.19836308
75	0xbd8f962a	-0.070110634
76	0xbe0ba0e8	-0.136356
77	0xbc0c5c4f	-0.00856693
78	0x3dde7665	0.10862426
79	0xbda48def	-0.08034884
80	0x3deb040a	0.1147538
81	0x3a9d7e1b	0.0012015732
82	0xbd110362	-0.035403617
83	0xbe8a902f	-0.27063128
84	0xba4fab88	-0.00079219835
85	0x3e12916e	0.1431329
86	0xb9cf5153	-0.00039542708
87	0x3c7948cb	0.015215109
88	0xbd1ca69f	-0.03824484
89	0x3e20f363	0.15717845
90	0xbdf15587	-0.11783891
91	0x3e9e6f18	0.30944133
92	0x3e8d1b9a	0.2756012
93	0xbe2add5c	-0.16686004
94	0xbdde94db	-0.10868236
95	0xbdf7d3e6	-0.12100963
96	0xbdc80d7a	-0.097681955
97	0xbe6b19c9	-0.22959055
98	0x3ebe7ef9	0.37206247
99	0xbeb80e84	-0.35948575
100	0xbe09d72b	-0.13460986
101	0x3cc657a7	0.024211718
102	0xbe83df43	-0.25756273
103	0xbea071c0	-0.31336784
104	0xbe1a87e4	-0.150909
105	0x3b2a4ba9	0.0025985038
106	0x3dc433bd	0.09580181
107	0xbe0d2e7e	-0.13787267
108	0xbd69fca3	-0.0571257
109	0xbdf53b34	-0.11974183
110	0x3d5cd032	0.053909488
111	0x3ee33d1d	0.44382563
112	0x3e68da94	0.22739631
113	0x3e1beb98	0.1522659
114	0x3d6ccd7f	0.057813164
115	0xbe2cb4ee	-0.16865894
116	0xbeaaa260	-0.33327007
117	0x3dea963f	0.114544384
118	0x3e6fa3de	0.23402354
119	0x3d1fdc90	0.039028704
120	0xbea611c5	-0.32435432
121	0xbc5f780b	-0.01363946
122	0x3c98d7bb	0.018657556
123	0xbcc0ed52	-0.023550663
124	0xbece166c	-0.40251482
125	0xbe2cc2c7	-0.16871177
126	0x3d09326e	0.03349536
127	0x3d959ae5	0.073049344
128	0x3deff3df	0.117164366
129	0x3d2d172e	0.042258434
130	0xbcb0ffa7	-0.02160628
131	0xbed435fa	-0.4144743
132	0xbdd24e13	-0.10268798
133	0xbcd8e6fc	-0.02647733
134	0xbdd0a0af	-0.10186898
135	0x3e198646	0.14992628
136	0xbdb660e1	-0.08905197
137	0xbea26198	-0.31715083
138	0x3e9b538a	0.30337173
139	0x3ece810e	0.40332836
140	0xbec51351	-0.384913
141	0xbdf89822	-0.12138392
142	0x3dafbea0	0.08581281
143	0xbe03a0eb	-0.12854354
144	0x3d7e604a	0.062103547
145	0xbc088983	-0.008333567
146	0x3e0feb52	0.14054611
147	0x3e05e439	0.13075341
148	0x3e18727a	0.1488742
149	0xbdd652e3	-0.10465028
150	0x3e1955d4	0.14974147
151	0xbe56e127	-0.20984326
152	0xbd28e84a	-0.041237153
153	0x3d37bcde	0.044857852
154	0x3d80e5f8	0.06293863
155	0x3e931e94	0.28734267
156	0x3d85c33a	0.06531377
157	0x3e2faef5	0.17156585
158	0x3e289589	0.16463293
159	0x3e38fccf	0.18065189
160	0xbe515ec3	-0.20446305
161	0xbe45f32d	-0.19331045
162	0xbc9060aa	-0.017624218
163	0xbe298791	-0.1655562
164	0x3df107c2	0.11769058
165	0x3e1f8522	0.1557813
166	0xbe02c4a1	-0.1277032
167	0x3ec2b2c0	0.38027
168	0xbe14a387	-0.14515506
169	0x3e626d93	0.22112112
170	0x3e915bb9	0.2839029
171	0x3e20e22c	0.15711278
172	0x3e812b4a	0.2522834
173	0x3c906bb2	0.017629478
174	0xbdbe08f5	-0.09279052
175	0x3e8290ba	0.25501043
176	0x3eae8ab2	0.3409019
177	0xbcd7a68d	-0.026324535
178	0x3cbffd94	0.023436345
179	0x3e9d5803	0.3073121
180	0xbe9a7c9e	-0.301732
181	0x3d3ded7b	0.046369057
182	0x3efa5b28	0.48897672
183	0xbede3e89	-0.43407086
184	0xbea50e1a	-0.3223732
185	0x3dffa7ca	0.12483175
186	0xbeeb57aa	-0.4596532
187	0xbd7a7dfc	-0.061155304
188	0xbe04b2d2	-0.1295884
189	0x3de9866d	0.11402593
190	0xbcc09a00	-0.023510933
191	0xbdde0bab	-0.10842069
192	0xbe22801c	-0.15869182
193	0xbe1dabdd	-0.15397592
194	0xbe0a2515	-0.13490708
195	0x3d438e1f	0.04774296
196	0xbd83e734	-0.06440583
197	0xbd1a9be2	-0.037746318
198	0x3e33ce2a	0.17559114
199	0xbe5de70e	-0.21670172
200	0x3dd80e56	0.10549609
201	0xbd72d03f	-0.05928063
202	0xbe5c7836	-0.21530232
203	0x3e100560	0.1406455
204	0x3dcee2c8	0.10101849
205	0x3d30beb4	0.04315062
206	0xbdd34918	-0.10316676
207	0x3e23e2e2	0.16004518
208	0x3d72117a	0.0590987
209	0x3db4af4e	0.08822499
210	0x3df000f7	0.11718934
211	0x3df490e7	0.119417004
212	0xb3b6cd7d	-8.5124135e-08
213	0x3e3b7f39	0.1831025
214	0xbe82270e	-0.2542042
215	0x3df8ea7f	0.121541016
216	0x3ebbe9c7	0.36701795
217	0xbdf8745b	-0.12131568
218	0x3c296e3f	0.010341226
219	0xbbc2c625	-0.005944031
220	0xbd2f7e52	-0.042845078
221	0xbe12d88e	-0.14340422
222	0xbdec12ec	-0.115270466
223	0x3d883e20	0.066524744
224	0xbebf0e64	-0.37315667
225	0x3e7dd040	0.24786472
226	0xbdf9598a	-0.12175281
227	0xbe37cedf	-0.17950009
228	0x3e992757	0.29912826
229	0x3e8c9654	0.2745844
230	0x3dafecd6	0.08590095
231	0xbdf55650	-0.119793534
232	0xbcd7024c	-0.026246212
233	0xbece4d3d	-0.40293303
234	0xbdddf315	-0.1083738
235	0x3ea73562	0.32657915
236	0xbe40844a	-0.18800464
237	0x3e06d70c	0.13167971
238	0xbd287703	-0.041129123
239	0x3d7f8a4b	0.062387746
240	0x3ea5dcf2	0.3239513
241	0x3e704569	0.23463978
242	0xbf17b944	-0.5926707
243	0xbf2cbfdb	-0.6748025
244	0xbd81d9e7	-0.0634039
245	0x3aabf407	0.001311899
246	0xbe9fe59a	-0.3122986
247	0xbe6e400f	-0.23266624
248	0x3ba91703	0.005160214
249	0xbef8e3b0	-0.48611212
250	0x3e11e5a7	0.14247762
251	0x3e13091c	0.14358944
252	0xbd0a54b9	-0.033772204
253	0xbe20a559	-0.15688075
254	0xbee02ebe	-0.4378566
255	0x3c0aa105	0.008461242

decoder_2_convlstm.conv.bias f4 [96]
0	0xbe9cf377	-0.306545
1	0xbee9a3f3	-0.45632896
2	0xbea1347f	-0.31485364
3	0xbdfd7c31	-0.12377203
4	0xbe1f4796	-0.15554652
5	0xbe2a5c9e	-0.16636893
6	0xbe44a5dc	-0.19203895
7	0xbe01f844	-0.12692362
8	0xbe224782	-0.1584759
9	0xbddc5158	-0.107577026
10	0xbe63c26a	-0.22242132
11	0xbe593cfd	-0.21214671
12	0xbe03d533	-0.12874298
13	0xbdce2ddc	-0.10067341
14	0xbe313c67	-0.17308198
15	0xbe89b54e	-0.26896137
16	0xbe485f3f	-0.19567584
17	0xbeaf0d9c	-0.3419007
18	0xbe1267e5	-0.14297445
19	0xbe5403eb	-0.2070462
20	0xbd973379	-0.073828645
21	0xbe8d3779	-0.27581385
22	0xbdd94811	-0.10609449
23	0xbe30ddb1	-0.17272069
24	0x3d80b2c1	0.062840946
25	0x3e31e225	0.17371424
26	0xbe2fe59f	-0.17177437
27	0xbe40911d	-0.18805356
28	0xbcd29c40	-0.025709271
29	0xbd38234d	-0.04495554
30	0x3c77fc3e	0.015135823
31	0x3d61adb2	0.05509729
32	0xbd19c3d9	-0.03754029
33	0xbdbc3248	-0.09189278
34	0xbe0e8a76	-0.13920006
35	0xbe13beaa	-0.14428201
36	0x3e1b22ca	0.1514999
37	0xbcd380e9	-0.025818305
38	0x3d3b33ca	0.045703687
39	0xbe55e4f6	-0.20888123
40	0x3d3a8c49	0.045543943
41	0x3d10c74a	0.035346307
42	0xbd0bdc6b	-0.034145754
43	0xbdb6cccf	-0.08925783
44	0x3d00bd9f	0.031430837
45	0xbc803e47	-0.015654696
46	0x3d506ac5	0.050883073
47	0x3d181f7b	0.037139397
48	0xbe49eca9	-0.19719185
49	0xbe863cd6	-0.2621829
50	0xbeb57f3e	-0.3544864
51	0xbea22bde	-0.31674093
52	0x3c9da290	0.019242555
53	0xbe9ec3f0	-0.31008863
54	0xbd38e2d8	-0.04513821
55	0xbda83951	-0.08214057
56	0xbddf8160	-0.10913348
57	0xbe1fe3c6	-0.15614232
58	0xbe137e9d	-0.14403768
59	0xbe1e7750	-0.15475202
60	0xbe57db85	-0.21079834
61	0xbdf1ac0f	-0.11800396
62	0xbe19753d	-0.14986129
63	0xbe142e86	-0.14470872
64	0x3c78d312	0.015187042
65	0xbeb4f6dc	-0.3534459
66	0xbda2c65b	-0.079479896
67	0xbe31efea	-0.17376676
68	0x3d69325e	0.0569328
69	0xbe64d703	-0.22347645
70	0xbd60bff4	-0.05487056
71	0xbdf28af1	-0.11842907
72	0x3cd691bd	0.02619254
73	0xbd265ac3	-0.0406139
74	0xbbce9128	-0.006303925
75	0x3dc5397e	0.096301064
76	0x3cc8e305	0.024522314
77	0x3d663695	0.056204397
78	0x3c60b045	0.013713901
79	0x3cc45ba8	0.023969486
80	0xbdd64145	-0.10461668
81	0x3d5eb21b	0.054369073
82	0x3a31a40b	0.00067764585
83	0x3c637211	0.013882176
84	0xbd3a01d1	-0.04541189
85	0xbc5dce22	-0.013537915
86	0x3d74ed33	0.059796523
87	0x3c64cdc7	0.013965077
88	0x3da8b85d	0.082382895
89	0xbd08787b	-0.033318024
90	0x3cf9185d	0.030407125
91	0xbc4dffac	-0.012573164
92	0xbcf9ecf7	-0.030508501
93	0x3cb52a8f	0.02211502
94	0xbc10f762	-0.008848043
95	0xbc448ab2	-0.011995958

batchnorm2.weight f4 [24]
0	0x3f30451b	0.68855447
1	0x3f67e4c1	0.90583426
2	0x3f588983	0.84584826
3	0x3f4e001a	0.80468905
4	0x3f60b984	0.87783074
5	0x3f5674a1	0.8377171
6	0x3f4cbfcd	0.79980165
7	0x3f6894ae	0.9085187
8	0x3f3164b4	0.69294286
9	0x3f354e5b	0.70822686
10	0x3f230fb3	0.6369583
11	0x3f2cdb13	0.6752178
12	0x3f3dc6b4	0.7413132
13	0x3f4652d2	0.77470124
14	0x3f577b60	0.8417263
15	0x3f63ac52	0.88934815
16	0x3f345ba8	0.70452356
17	0x3f564312	0.8369609
18	0x3f58d654	0.8470204
19	0x3f49e89f	0.78870577
20	0x3f5a8057	0.8535208
21	0x3f3361f3	0.70071334
22	0x3f39b2ca	0.72538435
23	0x3f595770	0.84899044

batchnorm2.bias f4 [24]
0	0xbbf3063b	-0.007416514
1	0xbd0cfc5a	-0.03442035
2	0xbc0e8ff0	-0.00870131
3	0x3b688ef7	0.0035485604
4	0x3c744124	0.014908109
5	0x39d5de66	0.00040792226
6	0xbc2348ab	-0.009966056
7	0xbd06c4da	-0.032902576
8	0x3d7af013	0.06126411
9	0xbd567bcf	-0.052364167
10	0x3a95f211	0.0011439939
11	0xbccf6a41	-0.02531922
12	0xbc592ce5	-0.013255333
13	0x3c8f9203	0.017525679
14	0x3c8a25c1	0.016863706
15	0xbcabe8a8	-0.020984963
16	0x3c1b40fa	0.009475941
17	0x3d3a26ea	0.045447268
18	0xbd20b3e9	-0.039234076
19	0x3cbdc689	0.023165958
20	0x3b9f18f4	0.0048552696
21	0x3ca5a9d0	0.020222574
22	0xbd762227	-0.060091164
23	0xbd23830d	-0.0399199

batchnorm2.running_mean f4 [24]
0	0x3b964176	0.0045854403
1	0x3ca6fef6	0.020385247
2	0xbb14d441	-0.002270952
3	0x3ba6d088	0.005090777
4	0x3d5caf87	0.053878333
5	0x3b03039d	0.0019991167
6	0x3c026a88	0.007959969
7	0x3bc0b7da	0.005881292
8	0xbd2f5a89	-0.04281095
9	0x3d046bb6	0.032329284
10	0xbcb7ffbd	-0.022460813
11	0xbcb3ac7a	-0.02193283
12	0xbd04ed77	-0.032453027
13	0x3b40843a	0.0029375688
14	0x3c08818c	0.008331668
15	0x3cc2720a	0.023736019
16	0xbc0fa60d	-0.008767617
17	0x3ca1889d	0.019718463
18	0x3c931588	0.017954603
19	0xbc2e1cac	-0.010626953
20	0xbcd0c026	-0.025482249
21	0xbc9167d4	-0.017749704
22	0xbc899cd9	-0.016798424
23	0xbd17aacd	-0.037028123

batchnorm2.running_var f4 [24]
0	0x3ccbcb2b	0.024877151
1	0x3c412548	0.011788674
2	0x3c3ffde4	0.011718247
3	0x3c9036dc	0.017604284
4	0x3c919447	0.0177709
5	0x3c1d1956	0.00958856
6	0x3c648532	0.013947772
7	0x3c7064fc	0.014672514
8	0x3c98644d	0.018602515
9	0x3c60b515	0.013715048
10	0x3cdafe99	0.02673273
11	0x3c569afd	0.0130984755
12	0x3cbd4bfb	0.02310752
13	0x3c681bb1	0.014166758
14	0x3c3a12cf	0.011357023
15	0x3c6910ba	0.014225179
16	0x3cb55431	0.022134872
17	0x3c3d844e	0.011567188
18	0x3c90b2dc	0.017663412
19	0x3c8bc97f	0.017063854
20	0x3cc2e30f	0.02378991
21	0x3c518241	0.012787403
22	0x3c5ab89a	0.0133496765
23	0x3cb63c47	0.02224554

decoder_CNN.weight f4 [1, 24, 1, 3, 3]
0	0x3d1af95e	0.03783547
1	0xbc10e26f	-0.0088430485
2	0x3c8876cd	0.016658211
3	0xbd3c37b5	-0.045951564
4	0xbb48f623	-0.0030664287
5	0xbb64a519	-0.0034888445
6	0x3aec16ef	0.0018012206
7	0xbc24f70b	-0.010068665
8	0xbba90a1e	-0.0051586768
9	0x3b89be13	0.004203567
10	0x3d48f621	0.04906285
11	0x3d378f69	0.0448145
12	0xbb2271f4	-0.002478716
13	0x3c3720d7	0.011177263
14	0x3c0bb746	0.0085275825
15	0x3c08cc33	0.008349466
16	0x3bac6960	0.005261585
17	0xbc313bd9	-0.010817491
18	0xbbb05ac8	-0.0053819157
19	0xbca7ae1c	-0.020468764
20	0xbc96022e	-0.018311586
21	0x3bf62cbf	0.0075126584
22	0xbcb865c2	-0.02250946
23	0xbca52f50	-0.020164162
24	0x3c9d44d3	0.019197857
25	0x3ce57449	0.02800955
26	0x3d06ee80	0.032942295
27	0xbbca24ce	-0.0061689382
28	0x3cabf784	0.020992048
29	0x3b4578c0	0.0030131787
30	0xbd27a45e	-0.040928237
31	0xbcb0f056	-0.021598976
32	0xbc4ab466	-0.012372112
33	0x3c8906eb	0.016726932
34	0x3bfa874e	0.007645524
35	0x3b931065	0.0044880384
36	0xbaa295a2	-0.0012404213
37	0xbd52e32b	-0.051486176
38	0xbc0fc554	-0.008775074
39	0xbc88c608	-0.016695991
40	0x3b757236	0.0037452108
41	0x3b7c3917	0.0038486177
42	0xbc2acdd0	-0.010425046
43	0xbd08e056	-0.03341707
44	0x3c620807	0.013795859
45	0xbcf25e92	-0.02958611
46	0xbbe110e3	-0.006868468
47	0xbd17e84e	-0.037086777
48	0x3cc7dadc	0.024396352
49	0x3ca28fc7	0.019843949
50	0x3ccf13d4	0.02527801
51	0x3d5f7341	0.054553274
52	0x3c5e3447	0.013562269
53	0xbc8fd8bb	-0.0175594
54	0x3c0ae00d	0.008476269
55	0xbcf6d250	-0.030129582
56	0x3d1f76a8	0.03893152
57	0x3d217544	0.039418474
58	0x3a9c7422	0.0011936466
59	0x3c9f34af	0.019434301
60	0x3cf4b19d	0.029869849
61	0xbd3dd109	-0.04634193
62	0xbcbe3a95	-0.023221293
63	0x3c934286	0.017976057
64	0x3cfffc67	0.031248285
65	0x3cc33555	0.023829142
66	0xbc187de2	-0.009307357
67	0x3c0ca9df	0.008585422
68	0x3d07ed2e	0.033185177
69	0x3ca6d573	0.020365452
70	0x3c7704a4	0.01507679
71	0xbb91d872	-0.004450851
72	0x3c0d6177	0.008629194
73	0x3d45edda	0.048322536
74	0xbd121230	-0.035661876
75	0xbc3578ba	-0.011076147
76	0x3c94f35c	0.018182449
77	0x3a6df3f5	0.0009077185
78	0xbcb23938	-0.0217558
79	0x3b348e64	0.0027550692
80	0xbc1f769f	-0.009732871
81	0x3ce38232	0.027772043
82	0xbcf0fac5	-0.029416451
83	0x3d45cb44	0.048289552
84	0xbd06c7f5	-0.032905538
85	0xbb0531cc	-0.002032387
86	0xbc8eab54	-0.01741568
87	0x3d2db097	0.042404737
88	0x3c80d0e9	0.015724616
89	0xbcebc240	-0.028779149
90	0x3c2dc5cf	0.010606243
91	0xbd2d3ad9	-0.04229245
92	0x3c221ecf	0.009895041
93	0x394766a2	0.00019016353
94	0x3d606b5f	0.054789897
95	0x3c09b5a1	0.00840512
96	0x3c93afc6	0.018028151
97	0xbd24edd7	-0.040265884
98	0xbc362be1	-0.01111886
99	0x3cb5c208	0.022187248
100	0xbcaf31eb	-0.021386107
101	0x3cc0e13b	0.023544898
102	0x3cbc2b8e	0.022969987
103	0x3c32a3c1	0.0109033
104	0xbae41922	-0.001740251
105	0xbc9454ed	-0.018106902
106	0xba8d18f7	-0.0010764886
107	0xbc547a8d	-0.0129686715
108	0xbd14a4b3	-0.036289882
109	0x3d01fd63	0.03173579
110	0x3c6a80de	0.014312951
111	0xbcb1da35	-0.021710495
112	0x3d06ac66	0.032879256
113	0xbb3ab95f	-0.0028491837
114	0x3c1e65b7	0.009667805
115	0x3ba42f31	0.0050105085
116	0xbbf6c2f7	-0.007530566
117	0xbbbe1f8a	-0.0058020996
118	0xbc437363	-0.011929366
119	0xbac467cf	-0.0014984551
120	0xbc8041d8	-0.015656397
121	0x3d31a23d	0.043367613
122	0x3d23574f	0.039878186
123	0xbc04974c	-0.008092713
124	0xbd3fcd11	-0.046826426
125	0xbc1439ea	-0.009047011
126	0x3c5be6ce	0.013421727
127	0xbbcfe06b	-0.0063438914
128	0x3b863a91	0.004096337
129	0xbc202170	-0.009773597
130	0x3b6be175	0.0035992537
131	0xbbecac92	-0.0072227204
132	0xbd4302c5	-0.047610063
133	0xbb8c084c	-0.00427345
134	0xbc07c3f5	-0.008286466
135	0xbbbf0dea	-0.005830516
136	0xba3cb3e3	-0.0007198436
137	0x3ccda786	0.025104295
138	0x3cc7914f	0.02436128
139	0x3d512b9f	0.05106699
140	0xbc904fbb	-0.017616143
141	0x3c4f584d	0.01265533
142	0x3b3bece6	0.0028675138
143	0x3caa2b18	0.020772502
144	0x3ca6ca68	0.020360187
145	0xbb5a563e	-0.0033315565
146	0x3cd8b917	0.026455445
147	0xbce20cd6	-0.027594011
148	0xbd03b55a	-0.032155372
149	0x3b653072	0.0034971503
150	0x3d11b814	0.03557594
151	0xbce78374	-0.028260924
152	0x3c0f17cd	0.008733702
153	0x3c8e40da	0.017364908
154	0xbd6c30d4	-0.057663754
155	0xbd211f5a	-0.03933654
156	0x3d3dabb9	0.046306346
157	0x3c94b8c8	0.018154517
158	0xbccaacc8	-0.024740592
159	0x3c30341e	0.010754613
160	0x3ca68d39	0.020331012
161	0xba935a28	-0.0011242079
162	0xbd1fb1a0	-0.038987756
163	0x3d324659	0.04352412
164	0x3cc6a0a9	0.02424653
165	0xbc9dbdc1	-0.01925552
166	0x3ca707db	0.020389488
167	0x3ca3bc40	0.019987226
168	0x3c06b816	0.0082226
169	0xbc652757	-0.01398643
170	0x3c9a6abb	0.018849721
171	0xbb72718b	-0.0036993946
172	0x3ca0d922	0.019634787
173	0xbcc2c6ae	-0.023776378
174	0xba4e9718	-0.0007880791
175	0xbc310242	-0.010803761
176	0xbbc2ad40	-0.005941063
177	0x3d519e56	0.05117639
178	0x3bcb6142	0.0062066624
179	0x3c6be95f	0.014398902
180	0xbc0eea3d	-0.008722839
181	0xbd2650a1	-0.040604237
182	0xbc37f5f6	-0.011228075
183	0xbd012470	-0.03152889
184	0x3b676d26	0.003531286
185	0x3bca1f07	0.0061682495
186	0xbc3c3faa	-0.011489788
187	0x3c9a9b9e	0.018873032
188	0x3c1d1b7a	0.00958907
189	0xbbaf0e7d	-0.0053423033
190	0x3bd5e59a	0.006527615
191	0xbd17d255	-0.037065823
192	0x3d0cfd30	0.034421146
193	0xbcccd3c5	-0.025003323
194	0x3c9557d6	0.01823036
195	0x3c25b4d3	0.010113913
196	0x3a8eba89	0.0010889332
197	0x3bf5332d	0.0074829073
198	0x3ce9a58b	0.02852132
199	0xbd55e43e	-0.05221962
200	0x3c6782bb	0.01413029
201	0xbcbde2a9	-0.023179369
202	0xbd01635f	-0.03158891
203	0x3cb5f85f	0.02221316
204	0x3d089962	0.033349402
205	0x3a4a1ccc	0.00077099795
206	0x3cc95487	0.024576439
207	0x3ca9a786	0.020709764
208	0x3badc46e	0.0053029573
209	0x3d47e24e	0.048799805
210	0x3adc976f	0.0016829799
211	0xbd45f718	-0.04833135
212	0x3ccc95fa	0.024973858
213	0xbc7b08b4	-0.015321899
214	0x3a3e3cbd	0.00072569755
215	0x3cc54f27	0.024085594
