models/convlstm/saved_models/lr_0.001/epoch_5850.pt (torch, 167458 bytes, 10 tensors)

encoder_1_convlstm.conv.weight f4 [48, 20, 3, 3]
0.045915548 0.066534765 -0.032679945 0.026158754 -0.05349905 0.04360308 -0.1354122 -0.105471425
-0.23673882 -0.35645935 -0.19290188 -0.32585514 -0.7585923 -0.63613755 -0.610635 -0.4350737
-0.39821556 -0.31584844 -0.02130212 -0.081621096 0.2492212 0.047781188 -0.10312139 -0.08960319
0.07378152 0.0049052625 -0.13552079 -0.09993198 -0.15690409 0.16003177 -0.06876626 -0.138099
-0.12856664 0.03176198 -0.23622938 -0.26658556 -0.018884385 -0.052973546 0.16828549 0.025131539
-0.07028866 -0.058041736 -0.08650448 -0.27485368 -0.291658 0.29215378 0.18830414 -0.050488
0.12850112 -0.040903874 -0.0041764383 0.17030661 0.08934599 0.12653841 0.013280927 0.09420523
-0.044373475 0.18169552 0.3238829 0.24962707 0.10421159 0.052679036 -0.008941419 0.19501628
0.1488098 0.13871117 0.48603067 0.26082763 -0.2270701 0.32067347 0.57198805 0.10160016
-0.022417774 0.28668812 -0.13305476 0.11456698 0.030850466 -0.19975989 0.0040742867 -0.20334212
-0.14461662 0.13319579 0.12559672 0.19266139 0.10295054 0.18651858 -0.064272076 0.19932719
0.033790182 -0.087471105 0.30387387 -0.10455798 -0.0010600599 -0.102820046 -0.119238585 0.21237713
-0.07484756 -0.33040327 0.22693928 0.6147955 0.08630397 0.07988044 -0.1563505 -0.017068889
-0.36239615 0.19982123 -0.06487932 -0.035362583 -0.21788748 -0.14410636 -0.24050045 0.0163355
0.15289524 -0.0869119 -0.044774078 0.054844093 0.260131 0.09146772 -0.024123773 0.11946166
0.094579525 -0.023319384 0.021555223 -0.01803409 0.005525258 -0.15856934 0.22271103 -0.27500245
0.38650098 0.16205432 -0.010311605 -0.18642963 0.20041162 0.07215673 -0.103339285 0.6895563
0.26946643 0.1754304 0.34400526 -0.06508511 0.13995329 0.23787434 0.0033711828 0.25393465
0.31403384 0.3264348 -0.014575666 0.019965341 0.006439531 0.0055329027 -0.35161078 -0.41134548
-0.43169147 0.15786959 0.10461482 0.04496102 0.17873396 0.15756091 0.18191564 -0.049137287
-0.15933307 0.068396874 0.02993237 -0.1477594 -0.20397787 -0.11879707 -0.10052687 -0.14042073
-0.056007143 -0.013218116 0.20627822 -0.3648502 -0.026458189 0.17875282 0.15420888 0.38034904
0.41689566 0.069850594 -0.02246078 0.27519077 -0.06781916 -0.12664306 -0.12625161 -0.08265786
-0.052350044 -0.14332193 0.065565504 -0.081522495 -0.23619938 0.09463513 -0.0585341 0.15264544
0.27706635 -0.08846554 0.12048187 0.019648042 -0.0020652239 0.05767459 -0.42213842 -0.011944304
-0.29372564 -0.10673694 -0.1604035 -0.31337675 -0.033676516 0.107981026 0.18641806 -0.4672389
-0.2010332 -0.38824123 0.10801623 -0.28889894 -0.1446641 0.16353528 -0.09315425 -0.030199297
-0.20236959 -0.19018023 -0.3475429 0.06713912 -0.069472805 -0.048110884 -0.04851118 -0.090368815
-0.0033192143 -0.15812305 0.16719633 -0.22853418 -0.10713786 -0.10259518 -0.09493721 -0.16903111
-0.1347266 -0.17448504 0.060042106 -0.08102047 0.112761416 0.0032071704 0.3594632 0.420411
0.031749047 0.28465617 0.5156737 0.14224702 0.119866356 -0.11036899 -0.1607174 -0.015198279
-0.21906805 -0.04952463 -0.16488436 -0.08084253 -0.26486692 -0.27579734 -0.20406555 0.21500179
00000000: f111 3c3d 6143 883d 68db 05bd e24a d63c
00000010: d221 5bbd 2599 323d 7fa9 0abe 6701 d8bd
00000020: a96b 72be d781 b6be 1288 45be 7cd6 a6be
00000030: 1b33 42bf e9d9 22bf 9352 1cbf fbc1 debe
00000040: e9e2 cbbe e3b6 a1be c981 aebc f628 a7bd
00000050: d833 7f3e 35b6 433d 4f31 d3bd e181 b7bd
00000060: c41a 973d 53bc a03b f6c5 0abe 23a9 ccbd
00000070: 77ab 20be 5edf 233e 53d5 8cbd d369 0dbe
00000080: f9a6 03be da18 023d 1de6 71be e77d 88be
00000090: 6db3 9abc cafa 58bd 0853 2c3e a8e0 cd3c
000000a0: 80f3 8fbd 2cbd 6dbd 4329 b1bd 9fb9 8cbe
000000b0: 3354 95be 2e95 953e cdd2 403e 81cc 4ebd
000000c0: cc95 033e d28a 27bd 81da 88bb db64 2e3e
000000d0: 08fb b63d 4993 013e 3f98 593c acee c03d
000000e0: f6c0 35bd 640e 3a3e fbd3 a53e 3d9e 7f3e
000000f0: e36c d53d f9c5 573d 087f 12bc 59b2 473e
00000100: 9961 183e 4d0a 0e3e 03d9 f83e 338b 853e
00000110: 1085 68be 502f a43e cf6d 123f bf13 d03d
00000120: 7ba5 b7bc c9c8 923e 823f 08be 18a2 ea3d
00000130: 1eba fc3c db8d 4cbe 9881 853b eb38 50be
00000140: 6116 14be 7a64 083e 6d9c 003e 0749 453e
00000150: bcd7 d23d bafe 3e3e 14a1 83bd 6d1c 4c3e
00000160: 9367 0a3d 0d24 b3bd 5b95 9b3e 7f22 d6bd
00000170: b5f1 8aba 5193 d2bd 5c33 f4bd 6479 593e
00000180: ad49 99bd 9e2a a9be c562 683e 3d63 1d3f
00000190: 23c0 b03d 5b98 a33d 581a 20be 0ed4 8bbc
000001a0: fd8b b9be f09d 4c3e 73df 84bd 5bd8 10bd
000001b0: e51d 5fbe 9e90 13be c045 76be 07d2 853c
000001c0: 9290 1c3e defe b1bd 0665 37bd 33a4 603d
000001d0: e42f 853e 6e53 bb3d 389f c5bc 51a8 f43d
000001e0: e9b2 c13d 4b08 bfbc 9494 b03c 3abc 93bc
000001f0: 390d b53b 0060 22be 5c0e 643e 1fcd 8cbe
00000200: 75e3 c53e 91f1 253e 02f2 28bc 69e7 3ebe
00000210: b438 4d3e e8c6 933d 8ca3 d3bd c386 303f
00000220: 81f7 893e 07a4 333e 7521 b03e 584b 85bd
00000230: ea4f 0f3e 5595 733e 10ef 5c3b b903 823e
00000240: 0bc9 a03e 7622 a73e c6ce 6ebc 5b8e a33c
00000250: b402 d33b 5a4d b53b 5406 b4be e09b d2be
00000260: aa06 ddbe 91a8 213e 4b40 d63d 0c29 383d
00000270: 0906 373e a657 213e 1848 3a3e 2e44 49bd
00000280: 3528 23be a913 8c3d bb34 f53c 3d4e 17be
00000290: 93df 50be e14b f3bd 08e1 cdbd 74ca 0fbe
000002a0: bf67 65bd cc90 58bc 993a 533e a5cd babe
000002b0: d8be d8bc fb0a 373e efe8 1d3e 1cbd c23e
000002c0: 5973 d53e d40d 8f3d abff b7bc cee5 8c3e
000002d0: c6e4 8abd b8ae 01be 1a48 01be 8648 a9bd
000002e0: 006d 56bd fcc2 12be 3547 863d 44f5 a6bd
000002f0: 40de 71be 10d0 c13d 74c1 6fbd 164f 1c3e
00000300: a4db 8d3e 6c2d b5bd 33bf f63d eef4 a03c
00000310: b558 07bb 313c 6c3d 8722 d8be 0bb2 43bc
00000320: 3563 96be e698 dabd d140 24be eb72 a0be
00000330: 63f0 09bd 2825 dd3d 60e4 3e3e f039 efbe
00000340: a6db 4dbe 8ec7 c6be 9d37 dd3d 90ea 93be
00000350: d322 14be cb75 273e a8c7 bebd 8464 f7bc
00000360: f939 4fbe 9bbe 42be 25f1 b1be 3c80 893d
00000370: c247 8ebd eb0f 45bd a9b3 46bd 4913 b9bd
00000380: 2d87 59bb 02eb 21be 8435 2b3e dd04 6abe
00000390: 186b dbbd 6c1d d2bd 716e c2bd 7e16 2dbe
000003a0: c5f5 09be 35ac 32be b6ee 753d 0fee a5bd
000003b0: 75ef e63d 642f 523b 900b b83e 1c40 d73e
000003c0: 4a0b 023d 74be 913e 3103 043f 34a9 113e
000003d0: 7e7c f53d 2309 e2bd 1a93 24be 3402 79bc
000003e0: 6053 60be 57da 4abd 72d7 28be c590 a5bd
000003f0: a39c 87be 4f35 8dbe 8ff6 50be 6e29 5c3e

encoder_1_convlstm.conv.bias f4 [48]
-0.036982697 0.16763148 -0.0015614982 0.19180521 -0.155762 0.101813115 0.17881556 0.2359174
-0.04252924 0.32256347 0.067526884 0.11560689 0.06144282 0.34578452 0.18191221 0.3921502
0.062409528 0.3255854 0.00799416 0.23575756 0.13678949 0.381093 0.07650662 0.16159366
0.4270227 0.2345568 0.34103858 0.44785136 0.09783685 0.39964426 0.256369 0.32813972
0.13580687 0.37080476 0.19965048 0.22217649 -0.06797939 -0.011938314 0.03901427 -0.118670635
-0.072404504 -0.09645187 -0.05476666 0.076013155 -0.046141814 -0.1489798 0.07663578 -0.07788076
00000000: 2b7b 17bd 96a7 2b3e 2fab ccba 9668 443e
00000010: 1380 1fbe 6583 d03d 6d1b 373e 5594 713e
00000020: 2433 2ebd 0a27 a53e 894b 8a3d 4ec3 ec3d
00000030: 77ab 7b3d ab0a b13e 3247 3a3e e9c7 c83e
00000040: 22a1 7f3d 21b3 a63e f0f9 023c 6e6a 713e
00000050: 8b12 0c3e 9f1e c33e 81af 9c3d cf78 253e
00000060: b8a2 da3e a82f 703e 9c9c ae3e c64c e53e
00000070: b05e c83d 2c9e cc3e cc42 833e ee01 a83e
00000080: f510 0b3e 1fda bd3e 2d71 4c3e 3c82 633e
00000090: c738 8bbd eb98 43bc 6dcd 1f3d 9709 f3bd
000000a0: d048 94bd 8f88 c5bd 0153 60bd c9ac 9b3d
000000b0: 33ff 3cbd 298e 18be 38f3 9c3d f37f 9fbd

encoder_2_convlstm.conv.weight f4 [48, 24, 3, 3]
-0.00010544544 -0.20088714 0.09080451 -0.00033824332 -0.36936176 -0.15266211 -0.3168308 -0.43936974
-0.08810647 -0.15111597 -0.06553278 -0.156526 -0.0064774533 -0.3070694 -0.12890127 -0.025724182
-0.009308712 -0.26576588 -0.20532389 -0.05401482 0.22008906 0.36649716 0.19733338 0.23785535
-0.044534117 0.18650001 -0.09933579 -0.3622891 -0.27907032 0.124196224 0.05613358 -0.24830967
-0.2207063 0.05476917 0.043574024 -0.3333198 -0.04953468 -0.020413527 0.028079163 -0.015917553
-0.06370396 -0.00641722 0.10467817 0.047737796 0.07166733 0.14050508 0.11800306 -0.23906504
-0.10808107 -0.17586939 -0.13872963 0.11688762 -0.0635396 -0.23788598 0.008387622 -0.08632791
-0.0158423 0.04433015 -0.21257466 -0.17852278 0.04954954 -0.034052916 0.017618917 0.24334522
0.3523858 0.43437743 0.13510667 -0.0064167194 0.09186414 0.08038662 0.16149856 0.047876377
0.42960143 0.110943355 0.2733212 -0.17384872 0.2611989 0.40306464 0.20764622 0.15532242
0.22788605 -0.063255586 0.1643056 0.1837821 -0.2986363 -0.34418094 -0.34202632 0.09816796
-0.45844698 -0.60333455 0.3165587 -0.14783315 0.33411053 -0.24003363 0.017112296 -0.21762222
0.3517546 0.574023 0.5958132 -0.12522191 0.5073863 0.16016853 0.08404694 0.039425388
0.14758426 0.016985448 0.07833415 0.15954797 -0.125589 0.13412145 0.013769802 -0.12370684
-0.09176603 0.10734607 0.036113754 0.058790084 0.3258023 0.16755633 -0.01742983 0.30736578
-0.01926345 -0.16822211 0.03136548 0.123624325 0.10611543 0.35112283 -0.07429261 -0.05110334
-0.078005336 -0.0027735084 -0.027500087 0.04293368 0.007547376 -0.03857697 -0.11742211 -0.10895281
-0.09003311 -0.02110018 0.022159554 0.01575265 0.009113241 0.0707611 0.04519884 0.10158034
-0.25058424 -0.17156413 0.16139051 -0.14060132 -0.3299778 0.09403951 -0.03690727 0.14054088
0.35327846 -0.031761065 0.006501981 0.2561918 0.22310798 0.03386452 0.029314712 0.056975286
-0.31023473 0.35693547 0.14442809 0.10748323 0.071417 0.026907792 0.07782144 0.09272109
0.048520736 0.09563541 0.21735121 0.10961095 0.1557535 0.12984586 0.51886386 0.3812812
-0.27289757 0.32182017 0.34466788 0.022045624 -0.1373976 -0.21700077 0.24456473 -0.022211405
-0.11679282 -0.056423727 0.09371613 -0.0117383525 -0.2999296 0.28181425 0.19906335 0.11555492
-0.1359899 -0.14649379 0.3103334 0.19397517 0.15192696 0.11516479 -0.4647672 -0.18943386
-0.06776896 -0.19392702 -0.08237715 -0.42343947 -0.14702414 -0.22470956 -0.1033837 -0.0720474
0.047803063 0.11917758 -0.15315275 -0.069014646 -0.30377433 -0.2055929 -0.013053378 -0.335754
-0.27955642 -0.30222294 0.3624682 0.124773465 0.2848712 0.6269426 -0.044486657 0.038280692
0.08076259 0.19835241 0.08393994 -0.11402794 -0.20540532 -0.07752249 -0.023637012 -0.26263347
0.21117902 0.42958897 -0.30435023 -0.2264772 0.04616387 -0.97279567 0.16835694 0.88661
0.49496722 0.16981453 0.083204634 -0.21788199 -0.42304537 -0.31653214 -0.15600723 -0.2932667
-0.31122604 -0.3764541 0.17247236 0.20536454 -0.029327903 0.097962655 0.21699238 0.112798356
00000000: 9722 ddb8 5cb5 4dbe b7f7 b93d 4056 b1b9
00000010: fc1c bdbe 7553 1cbe a637 a2be 12f5 e0be
00000020: 2a71 b4bd 25be 1abe 0d36 86bd 5a48 20be
00000030: d140 d4bb 3338 9dbe b2fe 03be 85bb d2bc
00000040: 9183 18bc 7712 88be 6d40 52be a53e 5dbd
00000050: 075f 613e 84a5 bb3e c311 4a3e 5a90 733e
00000060: 6869 36bd dcf9 3e3e 9070 cbbd f57d b9be
00000070: 4ee2 8ebe 975a fe3d 53ec 653d e444 7ebe
00000080: d500 62be a355 603d ad7a 323d e5a8 aabe
00000090: e0e4 4abd 453a a7bc 4606 e63c 8765 82bc
000000a0: 3977 82bd 8b47 d2bb 8261 d63d b588 433d
000000b0: 52c6 923d 90e0 0f3e 97ab f13d 77cd 74be
000000c0: 9c59 ddbd 1b17 34be 240f 0ebe c762 ef3d
000000d0: 0d21 82bd 6298 73be 3d6c 093c b0cc b0bd
000000e0: b6c7 81bc 8893 353d 2cad 59be adce 36be
000000f0: 75f4 4a3d 127b 0bbd 8c55 903c 7d2f 793e
00000100: e96b b43e b866 de3e 6759 0a3e 5843 d2bb
00000110: 4423 bc3d bda1 a43d e15f 253e 051a 443d
00000120: b8f4 db3e 4536 e33d c2f0 8b3e 6605 32be
00000130: ddbb 853e 7d5e ce3e 36a1 543e d70c 1f3e
00000140: f65a 693e 258c 81bd ba3f 283e 6031 3c3e
00000150: dbe6 98be 7c38 b0be 131e afbe 490c c93d
00000160: 90b9 eabe 2274 1abf fb13 a23e 9361 17be
00000170: 8910 ab3e 60cb 75be 162f 8c3c 5cd8 5ebe
00000180: 2e19 b43e 2cf3 123f 3787 183f 2c3a 00be
00000190: 12e4 013f 3803 243e cd20 ac3d 847c 213d
000001a0: 5420 173e 1125 8b3c a86d a03d 8b60 233e
000001b0: 679a 00be 2257 093e bc9a 613c 035a fdbd
000001c0: d4ef bbbd 42d8 db3d 04ec 133d dfcd 703d
000001d0: 8fcf a63e e393 2b3e 01c9 8ebc 0c5f 9d3e
000001e0: 62ce 9dbc 6b42 2cbe 1779 003d c02e fd3d
000001f0: 0c53 d93d 5fc6 b33e b926 98bd bc51 51bd
00000200: 43c1 9fbd c0c3 35bb dd47 e1bc 3adb 2f3d
00000210: fb4f f73b e302 1ebd 017b f0bd a722 dfbd
00000220: 4763 b8bd 49da acbc f487 b53c b40b 813c
00000230: b44f 153c 32eb 903d 6b22 393d 5a09 d03d
00000240: 944c 80be 82ae 2fbe 8e43 253e cbf9 0fbe
00000250: daf2 a8be c997 c03d 142c 17bd f3e9 0f3e
00000260: eae0 b43e e417 02bd 920e d53b 922b 833e
00000270: 6b76 643e 86b5 0a3d 6825 f03c eb5e 693d
00000280: 16d7 9ebe 3fc0 b63e f5e4 133e 2b20 dc3d
00000290: 1343 923d bb6d dc3c d960 9f3d 8ee4 bd3d
000002a0: aebd 463d 7fdc c33d 5191 5e3e b57b e03d
000002b0: d87d 1f3e 50f6 043e 43d4 043f 4a37 c33e
000002c0: 3bb9 8bbe 9dc5 a43e 4f78 b03e 0699 b43c
000002d0: f5b1 0cbe 7335 5ebe 2d6f 7a3e b1f4 b5bc
000002e0: 1331 efbd 911c 67bd 3eee bf3d 3852 40bc
000002f0: 5f90 99be f549 903e 43d7 4b3e 0fa8 ec3d
00000300: f040 0bbe 7802 16be 05e4 9e3e 6da1 463e
00000310: be92 1b3e 84db eb3d f7f5 edbe f3fa 41be
00000320: 74ca 8abd ce94 46be 5ab5 a8bd 0fcd d8be
00000330: 7f8d 16be 431a 66be d5ba d3bd 968d 93bd
00000340: 25cd 433d 6013 f43d 13d4 1cbe 8d57 8dbd
00000350: 4f88 9bbe f286 52be d6dd 55bc f3e7 abbe
00000360: 0522 8fbe f7bc 9abe 6f95 b93e 3b89 ff3d
00000370: a3da 913e 4f7f 203f a437 36bd 37cc 1c3d
00000380: db66 a53d e51c 4b3e b4e8 ab3d 7b87 e9bd
00000390: c655 52be 1cc4 9ebd 68a2 c1bc e577 86be
000003a0: 503f 583e 16f3 db3e cbd3 9bbe a4e9 67be
000003b0: 5316 3d3d 2309 79bf c365 2c3e dff8 623f
000003c0: 586c fd3e dce3 2d3e 3167 aa3d 751c 5fbe
000003d0: 6799 d8be 8010 a2be 5cc0 1fbe 0e27 96be
000003e0: 0559 9fbe 97be c0be 989c 303e 154b 523e
000003f0: 1241 f0bc a5a0 c83d 4033 5e3e d302 e73d

encoder_2_convlstm.conv.bias f4 [48]
-0.0324023 0.19383591 0.08203414 0.32664928 0.13177514 0.15971762 0.18544772 0.16886401
0.07327605 0.10753402 0.14562236 0.112038605 0.06257957 0.09864371 0.10213843 0.25732902
0.18346718 0.08204961 0.24009436 0.2850318 0.14712052 0.12543629 0.13818434 0.1340528
0.10229592 0.16117203 0.20732844 0.31546313 -0.019356031 0.3550448 0.18943639 0.1495998
0.097070806 0.28151074 0.15316874 0.13985823 0.10572971 0.2549906 -0.20271842 0.15402217
0.052484427 -0.00492072 0.028650668 0.09917165 0.035535615 0.25968355 -0.0028862995 -0.048163284
00000000: 46b8 04bd ec7c 463e 8401 a83d 933e a73e
00000010: 10f0 063e 048d 233e 02e6 3d3e b0ea 2c3e
00000020: c111 963d cc3a dc3d 071e 153e 7f74 e53d
00000030: b829 803d b705 ca3d f42d d13d a1c0 833e
00000040: d2de 3b3e a009 a83d 4cdb 753e b0ef 913e
00000050: c3a6 163e 5f72 003e 3280 0d3e 2345 093e
00000060: 8680 d13d 480a 253e e84d 543e 6284 a13e
00000070: 8a90 9ebc 6fc8 b53e 9dfb 413e b130 193e
00000080: 0fcd c63d 2d22 903e 44d8 1c3e ff36 0f3e
00000090: d188 d83d 218e 823e 6b95 4fbe fdb7 1d3e
000000a0: e9f9 563d fe3d a1bb ceb4 ea3c 821a cb3d
000000b0: cb8d 113d 3ef5 843e 1228 3dbb dd46 45bd

decoder_1_convlstm.conv.weight f4 [48, 24, 3, 3]
-0.16064379 -0.2888743 -0.12445022 -0.08274324 -0.23158224 -0.06478155 0.011283813 0.28124058
0.30262688 0.061274763 -0.07770051 -0.30469713 -0.05512926 -0.047119256 0.3178148 -0.13457146
0.15192644 0.19089848 -0.20849536 -0.2230355 -0.2074731 -0.19187032 -0.4551894 -0.113426946
-0.2397343 -0.13467474 -0.03841788 0.11594559 0.13981715 0.06844819 0.26261047 0.21855564
0.103138804 0.18266806 0.096492186 0.109113485 -0.4743833 -0.47880808 -0.24703309 -0.23685302
-0.005764818 0.08787914 0.07776047 0.40669462 0.092893 -0.24782337 -0.1412444 -0.096840955
-0.19042243 -0.23027025 -0.26544982 0.00022766001 -0.124966085 0.024963684 -0.31523967 -0.4710354
-0.28239658 -0.10665395 -0.13466536 -0.16385567 0.21443458 0.19616859 0.038473304 0.40600708
0.2657138 0.051763497 0.4821647 0.2948858 0.28475288 0.15937987 0.32349557 -0.14307055
-0.24194281 -0.27511317 -0.27768764 -0.4003241 -0.28167418 -0.24341328 -0.18775588 -0.09452128
0.08590058 0.16963528 0.17598957 0.10811035 0.30489215 0.2574819 0.12157891 0.2617041
0.15273964 0.38588694 0.3487493 0.21542248 0.3992964 0.29502887 0.18472478 0.09441492
-0.027120238 -0.022058101 0.09775579 -0.038545687 -0.008081695 -0.18052667 0.014939962 0.13930215
-0.1373191 0.015236354 -0.02105422 0.015632497 0.0997325 0.01672382 -0.22830382 -0.02245221
-0.44011456 -0.34827602 0.22471495 0.0938144 -0.061374318 -0.17470996 -0.46969044 -0.40304074
-0.25742242 -0.371803 -0.38519123 -0.049016632 0.28731707 0.2714027 -0.1084161 -0.18351263
0.30031377 -0.098575145 -0.0340666 -0.13961692 -0.04333515 -0.24767187 -0.09912183 0.1149402
0.21248238 0.2202968 0.06793849 0.15148306 0.07026578 -0.0660738 -0.044641003 -0.19308785
-0.20761223 -0.012804242 0.19095436 0.090999834 0.13532564 -0.04172775 0.14770728 0.21090007
-0.06809626 0.11288057 0.23166732 -0.13298985 0.045721006 -0.09060706 -0.7189056 0.106931046
0.19369134 -0.15139192 -0.07794724 0.076099195 0.15195516 0.15245922 0.08940915 0.20075575
-0.040385053 -0.26504353 -0.11109015 -0.18698555 -0.012915868 0.23426338 0.012046355 0.13176785
0.5684931 -0.0013877891 -0.116044216 0.29599673 -0.09686327 -0.27946487 -0.18952493 0.026454458
0.23046803 0.56119883 0.31428862 -0.19780564 -0.14730948 -0.16836827 -0.061578654 0.055607207
-0.024601903 0.024078898 0.07685989 0.025175259 0.0775074 0.13798293 -0.02222165 0.043784767
-0.09849581 0.07915599 0.11796972 7.150716e-05 0.12561351 -0.0007650424 -0.058002204 0.4437986
0.007071337 0.1083629 -0.38759455 -0.35139441 -0.008402628 -0.18474615 -0.15540814 -0.055875756
-0.54335994 -0.6593644 -0.7882469 0.18514048 -0.54276997 -0.56965417 0.28237566 -0.44287673
0.48387834 -0.80625045 -0.059459556 0.30378485 0.30184337 0.6694983 0.06263669 0.16016951
0.0017792108 -0.11684263 0.007139959 -0.3818541 0.080699116 -0.21892138 -0.57231176 -0.31885675
-0.636654 -0.5962234 -0.3638729 -0.11250466 -0.26378772 -0.21423471 0.034377147 -0.035607748
-0.101214275 0.5060208 0.058859896 0.2087135 -0.35726044 -0.10119543 -0.54359335 -0.28218192
00000000: ce7f 24be 55e7 93be c2df febd 4a75 a9bd
00000010: e523 6dbe 30ac 84bd bedf 383c c4fe 8f3e
00000020: e9f1 9a3e 3ffb 7a3d 7221 9fbd 4301 9cbe
00000030: 38cf 61bd 1f00 41bd 9fb8 a23e 1acd 09be
00000040: 9b92 1b3e e47a 433e cf7f 55be 6b63 64be
00000050: d473 54be a779 44be 960e e9be 634c e8bd
00000060: e97c 75be 2de8 09be 115c 1dbd e274 ed3d
00000070: 3a2c 0f3e 912e 8c3d e174 863e 0dcd 5f3e
00000080: 703a d33d 560d 3b3e b29d c53d e476 df3d
00000090: 5ee2 f2be 5526 f5be 3ef6 7cbe 9989 72be
000000a0: cce6 bcbb fbf9 b33d e240 9f3d 473a d03e
000000b0: af3e be3d 69c5 7dbe 5fa2 10be 8d54 c6bd
000000c0: 19fe 42be f7cb 6bbe 0ae9 87be 05b8 6e39
000000d0: 38ee ffbd a480 cc3c 1867 a1be 8d2b f1be
000000e0: 4996 90be 636d dabd b7e5 09be c8c9 27be
000000f0: bd94 5b3e 6be0 483e 2f96 1d3d 29e0 cf3e
00000100: a40b 883e f605 543d 4bde f63e 46fb 963e
00000110: 21cb 913e 7a34 233e 36a1 a53e 1681 12be
00000120: dbbf 77be a2db 8cbe 132d 8ebe 48f7 ccbe
00000130: 9937 90be 5541 79be 1443 40be 5f94 c1bd
00000140: a5ec af3d dfb4 2d3e 9c36 343e f668 dd3d
00000150: d31a 9c3e abd4 833e 5dfe f83d 14fe 853e
00000160: c867 1c3e f992 c53e 458f b23e b697 5c3e
00000170: 9470 cc3e 060e 973e 7e28 3d3e 9c5c c13d
00000180: 432b debc 31b3 b4bc 3034 c83d 15e2 1dbd
00000190: 1669 04bc fcdb 38be bec6 743c 39a5 0e3e
000001a0: 619d 0cbe e7a1 793c e679 acbc b90f 803c
000001b0: 8e40 cc3d 6400 893c 7ac8 69be b2ed b7bc
000001c0: b256 e1be 3c51 b2be ad1b 663e c421 c03d
000001d0: a363 7bbd 2be7 32be 447b f0be 5b5b cebe
000001e0: dfcc 83be f65c bebe c937 c5be aac5 48bd
000001f0: 391b 933e 4bf5 8a3e 4309 debd bcea 3bbe
00000200: bac2 993e c4e1 c9bd 6b89 0bbd bdf7 0ebe
00000210: 3380 31bd b29d 7dbe 6300 cbbd c465 eb3d
00000220: fb94 593e 7c95 613e 5623 8b3d 601e 1b3e
00000230: 81e7 8f3d b351 87bd 7cd9 36bd d2b8 45be
00000240: 4d98 54be e2c8 51bc 8a89 433e 1f5e ba3d
00000250: ce92 0a3e b8ea 2abd 9440 173e 30f6 573e
00000260: 0d76 8bbd ee2d e73d 333a 6d3e 7e2e 08be
00000270: f345 3b3d 3290 b9bd 330a 38bf aafe da3d
00000280: 0657 463e 7c06 1bbe cda2 9fbd e5d9 9b3d
00000290: 229a 1b3e 451e 1c3e 251c b73d ea92 4d3e
000002a0: cc6a 25bd c9b3 87be 3c83 e3bd 2479 3fbe
000002b0: 149d 53bc bde2 6f3e 135e 453c 27ee 063e
000002c0: c488 113f 7ae6 b5ba 97a8 edbd e28c 973e
000002d0: 4060 c6bd 0516 8fbe d312 42be 05b7 d83c
000002e0: d0ff 6b3e baaa 0f3f 70ea a03e 908d 4abe
000002f0: 4cd8 16be bb68 2cbe e639 7cbd 62c4 633d
00000300: ee89 c9bc 1c41 c53c b868 9d3d 583c ce3c
00000310: 33bc 9e3d 664b 0d3e 2e0a b6bc a857 333d
00000320: 2cb8 c9bd 891c a23d 1c9a f13d 1df6 9538
00000330: d4a0 003e 208d 48ba b893 6dbd 9239 e33e
00000340: adb6 e73b 5eed dd3d cb72 c6be f8e9 b3be
00000350: 2dab 09bc 182e 3dbe 5023 1fbe fadd 64bd
00000360: a319 0bbf 1bcc 28bf 8dca 49bf 7795 3d3e
00000370: f9f2 0abf dbd4 11bf 8b93 903e bdc0 e2be
00000380: e7be f73e 6e66 4ebf dd8b 73bd b089 9b3e
00000390: 378b 9a3e 3e64 2b3f aa47 803d 7a03 243e
000003a0: 6834 e93a 304b efbd 51f6 e93b 6182 c3be
000003b0: 9445 a53d ed2c 60be 0683 12bf 3141 a3be
000003c0: c2fb 22bf 19a2 18bf 8c4d babe d868 e6bd
000003d0: 2f0f 87be 5860 5bbe 0dcf 0c3d 6ed9 11bd
000003e0: 6e49 cfbd 948a 013f 1317 713d feb8 553e
000003f0: d7ea b6be 8d3f cfbd ef28 0bbf 267a 90be

decoder_1_convlstm.conv.bias f4 [48]
0.29219767 0.11293011 -0.015194477 0.119986005 -0.15766966 0.19005148 0.18856582 0.1537444
0.36890844 0.319458 0.25637603 0.1068474 0.012033857 -0.013711561 0.12166298 0.07331231
0.0746852 0.25434428 0.07428981 0.14892372 0.08840266 0.0788193 0.026910407 -0.06939754
0.23053108 0.43768525 0.39835066 0.2662515 0.18000887 0.011610142 0.4025759 0.3000179
0.22806917 0.20578836 0.30373418 0.18055603 -0.0789541 0.0036119516 -0.024169905 -0.02187505
-0.021890022 0.008993236 0.010142986 0.16362168 0.028098915 0.15478057 -0.08228763 0.08344504
00000000: ef9a 953e e747 e73d 41f2 78bc 39bb f53d
00000010: 2874 21be db9c 423e 6617 413e 2c6f 1d3e
00000020: 91e1 bc3e 0090 a33e b843 833e cfd2 da3d
00000030: a829 453c 75a6 60bc 712a f93d c424 963d
00000040: 8ef4 983d 6a39 823e 4225 983d 767f 183e
00000050: 740c b53d 036c a13d 3773 dc3c 4c20 8ebd
00000060: 5710 6c3e 4818 e03e 9ef4 cb3e 1e52 883e
00000070: 3f54 383e 7738 3e3c 6e1e ce3e f29b 993e
00000080: f78a 693e 2fba 523e 0c83 9b3e aee3 383e
00000090: b0b2 a1bd 7eb6 6c3b f7ff c5bc 4e33 b3bc
000000a0: b452 b3bc 5e58 133c c42e 263c 718c 273e
000000b0: b22f e63c cc7e 1e3e 6b86 a8bd 3ce5 aa3d

decoder_2_convlstm.conv.weight f4 [48, 24, 3, 3]
-0.14453545 0.060018815 0.08268329 -0.37144807 0.118487164 0.08167116 -0.016134646 -0.24880154
-0.08564267 -0.66244507 1.3251675 0.35925066 0.3043577 -0.24165705 -0.02834544 0.20888747
-0.04956215 0.00926287 -0.079613656 -0.27398157 -0.48392996 0.33947068 0.33800763 -0.119945474
0.03472813 0.38691223 -0.051884916 2.4327304 -0.9149295 -0.15038653 1.1177554 0.23179291
-0.13021189 0.06892024 0.367833 0.10586897 -0.301891 -0.97129345 0.71482015 -0.2447526
0.37487638 0.44303608 0.24305514 0.46337017 -0.1292023 0.15395267 0.4109282 -0.37680086
-0.026811605 -0.23727673 -0.11642089 -0.27000055 -0.029165821 0.73677194 0.68556666 0.103904545
0.5338749 0.71874803 0.10560751 -0.11448979 1.0638938 0.44947994 -0.12321057 0.32434162
-0.23459525 -0.27043843 1.1015117 -0.25727108 0.16393898 0.47090733 -0.3774732 -0.34790206
-0.7899181 -0.41680542 -0.5465724 -0.38247898 0.03611874 1.1662397 0.14257953 0.36016536
-0.014862157 0.22499615 0.4928552 -0.7740206 0.7473415 -0.11841242 -0.5096664 -0.04670438
0.28736603 0.015326356 0.7061142 0.25068632 0.48904377 -0.25064233 -0.40601823 -0.0553689
-0.008320184 -0.16122417 0.0033809775 -0.37783638 -0.1815624 -0.2962644 -0.2525919 -0.095402986
0.19874637 0.036493137 -0.5205208 0.15022199 -0.550901 -0.50381416 -0.95189273 0.4672365
-1.0967023 -0.50945276 -0.25710168 -0.2602707 0.45527717 0.5983619 0.33672798 0.30954686
-0.24944723 -0.092621624 -0.26200402 -0.958026 -0.37846792 0.031514086 -0.48610088 0.21889263
0.558557 -0.27532154 -0.45693117 0.23605089 0.37246972 -0.3132775 -0.10831807 -0.121966094
0.016205879 0.1204134 0.4036197 0.064203806 -0.1483049 0.18827832 0.08466587 0.032114334
-0.3482977 0.37791356 -0.32281643 -0.4355767 -0.047575094 -0.1895923 -0.43264756 0.10216679
0.06743403 0.2175788 0.693762 0.70351005 0.091663174 -0.36646432 -0.40384609 0.32333103
-0.019580636 0.40133336 -0.16183956 -0.32642555 0.4289414 -0.90415066 -0.000214513 -0.50332475
0.17651455 -0.7463491 0.10303051 0.07054985 0.21114498 0.22356378 -0.4646872 -0.15297793
-0.14202607 -0.08841996 -0.34686497 -0.19263789 -0.26252228 -0.10115165 -0.2082023 0.42428213
0.28369495 0.29200378 0.110263474 0.08110907 0.06827074 0.26028606 0.35651115 0.30524975
-0.26032653 0.019473713 -0.1052469 -0.10458271 0.18228805 0.02646818 -0.3304613 -0.90745974
-0.16749744 0.6055221 0.10274254 0.12033553 0.57162464 -0.47097316 0.030545613 -0.39283043
-0.29580745 0.06407204 0.021808257 0.62717295 0.2309332 -0.07266906 -0.18545106 -0.09496544
-0.6090187 -0.609403 -0.36641625 -0.23499377 -0.21855778 -0.26402247 -0.27295288 -0.33509997
-0.45763025 0.5067172 -1.4897108 -0.07422678 -0.35778904 -0.23029917 -0.3650471 0.2558962
0.22425972 0.35245898 -0.1564806 0.3972844 -0.084532574 0.54571843 0.34376353 -0.16886449
0.1128719 -0.012204224 0.285344 0.060315274 0.09292386 -0.11485274 0.2752152 0.82456297
0.46059462 -0.17620613 -0.04495826 0.08259184 0.33773106 0.11041984 0.11099081 0.45867947
00000000: 1a01 14be 4ad6 753d db55 a93d 712e bebe
00000010: 66a9 f23d 3643 a73d ce2c 84bc d5c5 7ebe
00000020: 6d65 afbd 0096 29bf 179f a93f b4ef b73e
00000030: c6d4 9b3e f274 77be b234 e8bc 99e6 553e
00000040: ae01 4bbd 4bc3 173c 7c0c a3bd 5047 8cbe
00000050: abc5 f7be 1acf ad3e 560f ad3e f9a5 f5bd
00000060: 153f 0e3d 5c19 c63e 4785 54bd dbb1 1b40
00000070: d238 6abf edfe 19be 9c12 8f3f 1f5b 6d3e
00000080: 4456 05be 0e26 8d3d 9b54 bc3e d5d1 d83d
00000090: 7591 9abe b0a6 78bf 74fe 363f 6da0 7abe
000000a0: ccef bf3e a0d5 e23e 72e3 783e db3e ed3e
000000b0: 9c4d 04be c5a5 1d3e 2e65 d23e 0bec c0be
000000c0: 03a4 dbbc acf8 72be 136e eebd 833d 8abe
000000d0: 29ed eebc 169d 3c3f 4c81 2f3f e8cb d43d
000000e0: 07ac 083f dfff 373f c048 d83d 9f79 eabd
000000f0: ac2d 883f 3c22 e63e d355 fcbd 1b10 a63e
00000100: bd39 70be e876 8abe 56fe 8c3f 09b9 83be
00000110: 9fdf 273e c41a f13e 2b44 c1be 3820 b2be
00000120: 1338 4abf 8567 d5be 2bec 0bbf 49d4 c3be
00000130: 3ef1 133d 5847 953f 5e00 123e 9867 b83e
00000140: 6880 73bc 6465 663e 8457 fc3e 3726 46bf
00000150: c651 3f3f 3682 f2bd 7f79 02bf 184d 3fbd
00000160: a421 933e 651b 7b3c e6c3 343f f559 803e
00000170: f263 fa3e 3154 80be 9fe1 cfbe 80ca 62bd
00000180: 6251 08bc f317 25be 6493 5d3b c573 c1be
00000190: 7eeb 39be f8af 97be ba53 81be a462 c3bd
000001a0: 2b84 4b3e d479 153d da40 05bf cbd3 193e
000001b0: d907 0dbf f7f9 00bf 3eaf 73bf 9f39 ef3e
000001c0: be60 8cbf 7f6b 02bf d5a2 83be 3442 85be
000001d0: 171a e93e 3f2e 193f 9c67 ac3e ed7c 9e3e
000001e0: 186f 7fbe 68b0 bdbd 6425 86be 3141 75bf
000001f0: 8cc6 c1be ea14 013d 37e2 f8be 6425 603e
00000200: 97fd 0e3f f2f6 8cbe e2f2 e9be 53b7 713e
00000210: 5ab4 be3e e965 a0be ddd5 ddbd 5cc9 f9bd
00000220: 31c2 843c 4d9b f63d 3ea7 ce3e 497d 833d
00000230: 3ddd 17be 08cc 403e 4d65 ad3d 528a 033d
00000240: 1354 b2be e37d c13e 3248 a5be e903 dfbe
00000250: 1ade 42bd 7c24 42be fb83 ddbe d23c d13d
00000260: da1a 8a3d facc 5e3e 639a 313f 3c19 343f
00000270: e7b9 bb3d 36a1 bbbe eac4 cebe a58b a53e
00000280: 9267 a0bc 917b cd3e 45b9 25be 4021 a7be
00000290: 359e db3e 6b76 67bf e5ee 60b9 e4d9 00bf
000002a0: 3bc0 343e bc10 3fbf a901 d33d 717c 903d
000002b0: 6436 583e e7ed 643e 7beb edbe 3fa6 1cbe
000002c0: 486f 11be 8615 b5bd 4998 b1be de42 45be
000002d0: 5269 86be 9928 cfbd fc32 55be 823b d93e
000002e0: 7740 913e 8581 953e d1d1 e13d 831c a63d
000002f0: 88d1 8b3d 3744 853e a188 b63e b249 9c3e
00000300: 8549 85be 5687 9f3c b08b d7bd 762f d6bd
00000310: b8a9 3a3e ccd3 d83c 3932 a9be 484f 68bf
00000320: 7384 2bbe 7f03 1b3f ae6a d23d 7972 f63d
00000330: fe55 123f 6523 f1be cb3a fa3c 1221 c9be
00000340: 1374 97be 3438 833d 3ba7 b23c 688e 203f
00000350: c179 6c3e 84d3 94bd e2e6 3dbe 3e7d c2bd
00000360: a6e8 1bbf d601 1cbf e99a bbbe 35a2 70be
00000370: 9ccd 5fbe f42d 87be 7bc0 8bbe 3992 abbe
00000380: 834e eabe 38b8 013f d8ae bebf 3604 98bd
00000390: 2030 b7be 8cd3 6bbe 74e7 babe d404 833e
000003a0: 57a4 653e 8175 b43e 733c 20be dc68 cb3e
000003b0: 6a1f adbd 34b4 0b3f c601 b03e d0ea 2cbe
000003c0: 6229 e73d 3af4 47bc 9c18 923e 260d 773d
000003d0: dd4e be3d ea37 ebbd 02e9 8c3e 8f16 533f
000003e0: 0fd3 eb3e 616f 34be 2726 38bd e925 a93d
000003f0: 16eb ac3e cc23 e23d 264f e33d 09d8 ea3e

decoder_2_convlstm.conv.bias f4 [48]
0.7071576 0.6164599 0.34986806 0.5777438 0.008399507 0.5481809 0.2559355 0.19193034
0.29672366 0.14530517 0.08360067 0.21566813 0.24544206 0.18091163 -0.10214445 0.30364868
-0.085175924 -7.2901574e-05 0.13717152 0.040130958 0.17506208 0.10714666 -0.006171388 0.08101075
0.3517454 0.51407814 0.41330492 0.41576588 0.0021932647 0.30842644 0.0036269578 0.36378515
0.36433718 0.3652548 0.20176159 0.06145734 0.063993536 0.05773965 -0.10454494 0.36472103
0.0750155 0.09169955 0.11237709 -0.07053788 0.20030469 0.2633635 -0.09905537 -0.121084325
00000000: 4808 353f 51d0 1d3f e821 b33e 05e7 133f
00000010: 169e 093c 9555 0c3f fa09 833e 6389 443e
00000020: 2aec 973e e1ca 143e d436 ab3d 1bd8 5c3e
00000030: 2a55 7b3e e640 393e 1c31 d1bd d777 9b3e
00000040: b770 aebd bce2 98b8 b176 0c3e 5c60 243d
00000050: 7943 333e b56f db3d 5b39 cabb f7e8 a53d
00000060: f917 b43e a09a 033f b49c d33e 44df d43e
00000070: e0bc 0f3b 12ea 9d3e 41b2 6d3b 0c42 ba3e
00000080: 678a ba3e ad02 bb3e 979a 4e3e b1ba 7b3d
00000090: 0b0f 833d 6980 6c3d a81b d6bd b7bc ba3e
000000a0: baa1 993d f9cc bb3d f625 e63d 2a76 90bd
000000b0: ac1c 4d3e 95d7 863e 8bdd cabd 0ffb f7bd

decoder_CNN.weight f4 [8, 12, 1, 3, 3]
-2.7877984 -2.5750048 -0.29515097 -3.7957752 -2.7187023 -3.550208 -2.3960965 -1.4871818
-0.6009007 0.26148286 1.2034161 1.067162 0.6207471 2.5105572 -0.24820335 -0.82991874
0.037344415 0.3390041 0.5909988 0.16741563 -1.4271972 -0.70839524 -1.1036607 -1.1420938
0.023673002 0.16159871 0.28209752 -0.21966949 -0.060025513 0.20659216 -0.102868564 0.13952303
0.011376505 -0.4204749 0.1651887 -0.12968923 0.88302445 -0.07948916 0.51515085 0.1484913
-0.84126884 -0.03004662 0.1692067 -0.21282631 0.3308441 -0.52593136 0.62682474 -0.28831068
-0.8470997 -0.25567052 -0.92827183 -1.1252855 -0.6727726 -0.034776293 -1.0140148 0.8338371
0.17328605 -0.78806907 0.40770313 -1.4813404 -0.48132157 0.72278947 0.036372248 0.2431392
-0.3078268 0.24356984 0.37932387 0.5421534 0.09208524 0.27390507 0.5435161 0.38330555
-0.45455015 0.49646053 -0.22532254 -0.1517293 -0.6775803 -1.1413385 -1.3108195 -1.0687603
-1.3508226 -0.6375209 0.31031096 -0.5293244 0.25134403 -0.82285005 -0.09290058 -0.029074071
-0.2681449 -0.014084361 -2.1220999 -2.8309774 0.13318914 0.14664948 -0.07892549 -0.24319103
-1.293595 -3.109581 -1.6622345 -0.9393567 1.7176368 -0.09755481 0.7825416 -0.29713374
-1.2977793 -0.01575147 0.023929229 0.44435343 0.00033550555 -1.4628276 -0.557094 2.462097
0.30159876 -1.7664948 0.7228167 -0.5822942 -0.2159335 -0.2849632 -1.1185963 -0.5505981
-0.9727053 -2.5155063 -1.6266736 -0.34631428 2.8539314 -0.10890233 -0.03941274 0.06455517
-0.057882037 -0.040631592 1.205082 0.0076251444 1.989569 0.7790224 -0.67179716 0.37375492
0.53602684 0.095551915 1.0060358 0.91217196 0.70337075 -0.23639452 0.5454536 0.17028722
0.11102781 0.7585697 1.8684015 -0.0072736125 0.6177977 2.493788 0.94277346 0.7303383
-0.31578377 -0.13588136 -1.0280008 0.53833187 -0.4787992 0.76812524 0.65277433 0.37307137
0.42867178 -0.20308603 -0.38427827 0.68336815 -0.7759498 -0.03734184 -1.6537501 -2.1584451
-1.7945135 -1.1317848 -1.0463628 2.29318 0.30181536 0.53807473 0.24738535 0.30316076
0.6053008 -0.6749952 2.547735 1.0863659 -0.21259995 -1.238758 -0.052914836 -2.0776901
-0.9473674 0.9647915 -0.50237125 -1.2041266 -0.4465415 -1.1101307 -0.91809624 0.030637175
-0.21518758 -0.78653383 1.7030588 -0.45163876 0.37783444 -1.0335798 -0.45208302 -1.2601519
-1.2612854 -1.1772243 -0.12924603 -0.18859611 1.425194 0.31480834 0.9859419 -0.56906366
-1.318805 -2.3995695 -0.9623748 -0.51672065 -1.1238018 1.0968451 0.6904114 1.1264342
4.7862716 0.6455574 -0.4125709 -0.06220628 -2.0693007 0.13217323 -1.242001 -3.9994755
0.69146544 -0.598588 -0.28463563 0.33392859 -3.9638412 -1.5272661 0.29319328 -0.5598414
-1.6621081 3.9659214 -0.3120511 -1.4735969 -1.3740414 -3.2265244 0.1521675 -1.0385741
1.2160797 -0.86425626 -0.82171685 0.50391364 0.2761242 0.010548359 -0.26159644 -0.23743244
-0.20313433 0.024928259 0.5901255 -0.32291302 -0.3693052 -2.734307 0.004937204 0.5811858
00000000: 4a6b 32c0 e1cc 24c0 071e 97be fbed 72c0
00000010: 38ff 2dc0 9c36 63c0 a559 19c0 f95b bebf
00000020: a1d4 19bf 15e1 853e 8a09 9a3f c498 883f
00000030: 48e9 1e3f f8ac 2040 0529 7ebe 8e75 54bf
00000040: 75f6 183d f291 ad3e b34b 173f 016f 2b3e
00000050: 66ae b6bf 6459 35bf c144 8dbf 2130 92bf
00000060: e2ed c13c 227a 253e 166f 903e 0af1 60be
00000070: 50dd 75bd e58c 533e c1ac d2bd 20df 0e3e
00000080: 8564 3a3c 7c48 d7be 3a27 293e 41cd 04be
00000090: e40d 623f 36cb a2bd ede0 033f 1a0e 183e
000000a0: 655d 57bf 5424 f6bc 8544 2d3e 24ef 59be
000000b0: 6664 a93e 70a3 06bf 9677 203f 759d 93be
000000c0: 87db 58bf 3fe7 82be 39a3 6dbf 5b09 90bf
000000d0: d33a 2cbf 9671 0ebd 3dcb 81bf 5976 553f
000000e0: e671 313e e5be 49bf 77be d03e 909c bdbf
000000f0: c86f f6be bb08 393f 11fb 143d 7cf9 783e
00000100: 799b 9dbe 5f6a 793e bd36 c23e 91ca 0a3f
00000110: 3097 bc3d 493d 8c3e df23 0b3f a040 c43e
00000120: ccba e8be 1330 fe3e f4ba 66be ed5e 1bbe
00000130: e775 2dbf 6117 92bf efc8 a7bf 23cd 88bf
00000140: c1e7 acbf 9234 23bf 14e1 9e3e ce81 07bf
00000150: 2ab0 803e 4da6 52bf a942 bebd bf2c eebc
00000160: 4a4a 89be 17c2 66bc 7cd0 07c0 bc2e 35c0
00000170: bc62 083e 482b 163e b0a3 a1bd 1207 79be
00000180: 8594 a5bf 6003 47c0 1ac4 d4bf ae79 70bf
00000190: 86db db3f d1ca c7bd a554 483f ea21 98be
000001a0: a21d a6bf 3a09 81bc 3b07 c43c 4b82 e33e
000001b0: cbe6 af39 ef3d bbbf b69d 0ebf ff92 1d40
000001c0: 276b 9a3e 801c e2bf 840a 393f 3c11 15bf
000001d0: ac1d 5dbe b2e6 91be 2a2e 8fbf fff3 0cbf
000001e0: 3703 79bf 0efe 20c0 d736 d0bf 1b50 b1be
000001f0: d0a6 3640 2f08 dfbd 416f 21bd 8035 843d
00000200: b715 6dbd 506d 26bd 2140 9a3f 59dc f93b
00000210: 32aa fe3f 036e 473f e6fa 2bbf ce5c bf3e
00000220: 0e39 093f b9b0 c33d c8c5 803f 1a84 693f
00000230: 1b10 343f 6811 72be d9a2 0b3f c65f 2e3e
00000240: 8c62 e33d a031 423f c827 ef3f 7c57 eebb
00000250: fd27 1e3f 399a 1f40 9a59 713f 73f7 3a3f
00000260: 69ae a1be 7c24 0bbe 8895 83bf 1ed0 093f
00000270: 2b25 f5be dba3 443f 381c 273f 3603 bf3e
00000280: de7a db3e c9f5 4fbe 1fc0 c4be 37f1 2e3f
00000290: a5a4 46bf c2f3 18bd 15ae d3bf f723 0ac0
000002a0: 9eb2 e5bf 53de 90bf 37ef 85bf 76c3 1240
000002b0: 8b87 9a3e 44bf 093f 9652 7d3e e337 9b3e
000002c0: fef4 1a3f 7ccc 2cbf 170e 2340 0a0e 8b3f
000002d0: cdb3 59be 9f8f 9ebf 3abd 58bd e0f8 04c0
000002e0: ac86 72bf 93fc 763f 679b 00bf d220 9abf
000002f0: 16a1 e4be c318 8ebf 5b08 6bbf d0fa fa3c
00000300: 225a 5cbe 485a 49bf d5fd d93f 323d e7be
00000310: 8473 c13e 584c 84bf 6d77 e7be a84c a1bf
00000320: cd71 a1bf 49af 96bf 1259 04be 571f 41be
00000330: c26c b63f 8f2e a13e b066 7c3f 28ae 11bf
00000340: 9ace a8bf 8c92 19c0 325e 76bf ce47 04bf
00000350: bdd8 8fbf 6c65 8c3f cdbe 303f ff2e 903f
00000360: 2329 9940 4043 253f 7e3c d3be 03cc 7ebd
00000370: 6c6f 04c0 6b58 073e e4f9 9ebf 68f7 7fc0
00000380: e103 313f 103d 19bf c3bb 91be b0f8 aa3e
00000390: 93af 7dc0 757d c3bf 6e1d 963e c451 0fbf
000003a0: f5bf d4bf a8d1 7d40 29c5 9fbe d39e bcbf
000003b0: 97e0 afbf 607f 4ec0 ccd1 1b3e ffef 84bf
000003c0: 80a8 9b3f e63f 5dbf 095c 52bf 7c00 013f
000003d0: 2760 8d3e 06d3 2c3c f8ef 85be 7d21 73be
000003e0: 7202 50be 5936 cc3c 7712 173f db54 a5be
000003f0: 9215 bdbe e3fe 2ec0 45c8 a13b 98c8 143f

decoder_CNN.bias f4 [8]
-0.6469895 0.075040795 0.12850551 0.05861523 -1.0071628 -0.35557672 -2.156129 -0.67543143
00000000: 1ba1 25bf fdae 993d f396 033e 8616 703d
00000010: b6ea 80bf 270e b6be 04fe 09c0 13e9 2cbf
