models/convlstm/saved_models/lr_0.001/epoch_0.pt (torch, 166840 bytes, 10 tensors)

encoder_1_convlstm.conv.weight f4 [48, 20, 3, 3]
00000000: 8a7a 6e3d a728 123d 3a11 70bd 30be 993d
00000010: d3f8 8b3b f39a 7dbd 08ea 08bd 64c6 603d
00000020: a5c8 4c3c 26e4 1c3d 07a7 4cbd b4f4 40bc
00000030: aab4 7cbd e09f ee3c c7ee b33c 72b3 9e3c
00000040: d7d7 56bd eb29 373d 25df 983d abcf 1abd
00000050: 4d32 7b3d cc4f d8ba 086e 7cbd 900b 47bd
00000060: 8f0e eabb fa5e 453d 9110 cebc 3e1a ffba
00000070: 68f6 433d bb89 123c 8492 063c 1622 293d
00000080: 1bac 15bd c0de 153d 48dc b8bc 6ad7 61bd
00000090: 16a1 873c 2926 7f3d f93f 1e3d f7c3 1b3d
000000a0: c3c9 9abd e18b 8d3b 0436 a2bc 9e55 aa3c
000000b0: dbf0 46bd 68c6 403c 700a 613d 82aa 2bbc
000000c0: ae5f 09bd 1b3a f8bc a72d 55bb f3ef 13bd
000000d0: 29e1 7dbd 71f7 6c3d cfe6 3e3d 6353 053d
000000e0: 2ac5 283d d09d 0c3d 745f 773d b085 6f3d
000000f0: ebb3 a03c ae78 a13d 1e6d 503d 0f4e 7f3a
00000100: 6388 5fbd 5fa5 5b3c bdb4 863d 7f6d 903d
00000110: 44f5 043c ad16 9bbd 6092 353d 1115 06bc
00000120: 6da8 68bc 5dd2 0fbd 7b3d f8bc 452c 6c3d
00000130: 5b28 083d 5fdb eb3c f812 583c c7d9 babc
00000140: fa8e 8c3d 67d1 803d 976e 50bd 93bf 8ebd
00000150: 406d 963a 9aa6 6a3d 6e83 5cbd c5a8 853d
00000160: 7e33 063d fef1 a8bb 9ccd 7d3d 137c 74bd
00000170: 61dc 583d 61b7 82bd 26b2 94bc e0c1 383d
00000180: 8144 30bd 4716 91bd 0deb 903d cabe 3a3d
00000190: 6c17 00bd 3cfb c7bc cb3f 30bd 41f7 303d
000001a0: ca1e 99bc 4b3d 8c3d 51ed 8cbd d12f 8e3d
000001b0: 9a79 7fbb 6a4a 14bd 8533 783d 3d68 1fbd
000001c0: 907e e33c 0b27 af3c 02de 553c 0acc a6bc
000001d0: 1570 9a3c 24fe 9b3c 0b5d a0bc a3f7 25bd
000001e0: 190b 833c f7ef 3dbd 9bc6 733c 9703 8a3d
000001f0: e114 feba 8179 ffbc 9155 b0bc d530 493d
00000200: fb6e 41bc 7b8a 61bd 51cc 37bd 0418 63bc
00000210: e4ad 03bc d42f 233b a644 eb3c 0220 6c3d
00000220: 129e f2bb 4003 893c ded4 d03b 6ef3 6dbd
00000230: 339a 96bd 6ac4 40bd 46c9 b23b 298b 2b3d
00000240: 2beb 583d b8d7 313b 890a a9bc 51a9 e0bc
00000250: 3d22 1c3d 9925 58bc 9c94 373c 602e 8abd
00000260: dd7c 4abd 3c41 d4bb 6b60 193d bb21 fe3b
00000270: 932a 5bbd 759a 303d e9e8 493d cbf5 7b3d
00000280: 9b79 413c fa9f 403d 2286 1b3d e95b 9dbd
00000290: 42cb 65bd 47ff 77bd c932 603d 505c 64bd
000002a0: 2cc4 92bd 6a55 b5bc bde1 853d b529 ca3a
000002b0: 4694 443d ddab 55bc 2b4a 37bd 4b0d 813d
000002c0: e640 3bbc ab78 2d3d 9f15 833d 8f8e 8cbd
000002d0: 04b0 433d 415f 173d d700 493d 37d1 88bd
000002e0: 586f d2bc ce44 f3bb d145 783d 04ae 26bd
000002f0: d05e 7ebd cb3e 2cbd 6fa9 4abc 91cf a43a
00000300: 8ce7 983d 8be9 0cbd 04d7 283d bfea 9abd
00000310: c54a 0e3d b0e2 4c3d 55d7 bc3c e9cf 253c
00000320: 4eac 03bd 72e5 b73c 38a6 8abd 15da 973d
00000330: 21ad 83bd e943 523d 7d9a 3e3d a75a 61bd
00000340: 2cfc 703d 5dbe 6f3d b1e3 333d 0dc2 0abd
00000350: 59ed 96bb 84f8 463d c22a c2ba 22ee 903d
00000360: 2998 393c 6c52 513d dd4b 82bd 601b 173b
00000370: d1c2 2a3d 3c37 b53c dd16 10bd 5cc0 a3ba
00000380: e283 773d 48e2 41bb b9b2 ba3c 1b16 3fbd
00000390: e25f 713d 2bcd 44bd 3b9d f23c 0d05 b53c
000003a0: 4ba0 30bd ffc2 f13c db7f 88bd 0a34 df3b
000003b0: 3d9e 26bd daa4 80bd 15dd aebb 1f6b d7bb
000003c0: e392 4e3c d142 7fbd 5f68 853c 4e9b 323d
000003d0: e53c 43bc bf2c f63b 87c4 f1bc 1691 313c
000003e0: aa75 8dbd 67d2 823c b266 68bc 3f57 2bbd
000003f0: 2a67 d2bc 700a 87bb 93d2 8ebd 9c29 913d
0.05822233 0.0356833 -0.05861018 0.075069785 0.0042716055 -0.06191535 -0.033426315 0.0548767
0.012499009 0.038303517 -0.049963977 -0.011777092 -0.061695732 0.029128969 0.021964444 0.019372676
-0.052451935 0.04471771 0.074644364 -0.037795704 0.061327267 -0.0016503274 -0.06162837 -0.04859501
-0.007142849 0.04818628 -0.025154384 -0.0019462777 0.047842413 0.00894397 0.008213643 0.041292273
-0.036541086 0.036589384 -0.022565976 -0.055137075 0.016556304 0.06229225 0.038635228 0.038028684
-0.07558014 0.0043196534 -0.019801147 0.020792779 -0.04856954 0.011766054 0.054941595 -0.010477664
-0.033538513 -0.030301144 -0.0032528432 -0.036117505 -0.061982308 0.057853166 0.046606835 0.032550227
0.041203655 0.03433019 0.060393766 0.058477104 0.019617042 0.07884346 0.050885312 0.00097391097
-0.054573428 0.013406127 0.06577442 0.07052135 0.0081151165 -0.075726844 0.044329047 -0.008183734
-0.014200312 -0.035112727 -0.030302754 0.057659406 0.03324161 0.028791128 0.013188116 -0.022808922
0.06863208 0.0628994 -0.050886717 -0.06970134 0.0011476651 0.05728779 -0.05383628 0.06526331
0.03276395 -0.005155801 0.061963663 -0.05968864 0.052944545 -0.06382633 -0.018151354 0.04510677
-0.04303408 -0.07084327 0.070760824 0.045592107 -0.031272337 -0.02441179 -0.043029588 0.04320455
-0.01869144 0.06847628 -0.06881202 0.06942714 -0.0038982392 -0.03620378 0.060596008 -0.03891777
0.02777031 0.021380922 0.013053419 -0.020360965 0.018852273 0.019042082 -0.019575616 -0.040519368
0.015996503 -0.046371426 0.014878894 0.06738966 -0.0019384885 -0.031185867 -0.021525176 0.049118835
-0.011806245 -0.055063706 -0.044872586 -0.013860706 -0.008037064 0.0024900334 0.028719258 0.057647713
-0.0074040974 0.016725183 0.006373032 -0.05809348 -0.0735363 -0.047062315 0.0054561226 0.04188076
0.05295865 0.0027136635 -0.020634906 -0.027424486 0.03811859 -0.013192558 0.011204865 -0.067471266
-0.049435485 -0.006477503 0.037445467 0.007755486 -0.0535074 0.04311605 0.049294386 0.061513703
0.011808778 0.047027566 0.037969716 -0.07683546 -0.056102045 -0.060546186 0.054735932 -0.0557521
-0.07166323 -0.022135455 0.06537197 0.0015423807 0.047992967 -0.013041464 -0.044748466 0.063013636
-0.011429047 0.042351406 0.06400608 -0.068631284 0.047775283 0.036956076 0.049073067 -0.066805296
-0.025687858 -0.0074239736 0.060613457 -0.040693298 -0.06210214 -0.04205207 -0.012369498 0.0012574067
0.07466039 -0.03440241 0.04122068 -0.075643055 0.034739275 0.050020874 0.023051897 0.01012037
-0.032146744 0.022448275 -0.06769985 0.07414643 -0.06429506 0.051334295 0.04653405 -0.055018093
0.05883424 0.058531154 0.043918315 -0.033876467 -0.0046059308 0.048576847 -0.0014813768 0.0707667
0.011327782 0.051103994 -0.06362126 0.0023057088 0.041689698 0.022121064 -0.035178054 -0.0012493241
0.060428508 -0.0029584337 0.0227903 -0.04665194 0.05892933 -0.048047226 0.029615989 0.022097135
-0.043121617 0.029511927 -0.066650115 0.0068116235 -0.04067825 -0.06281443 -0.0053364136 -0.006574049
0.012608263 -0.06231958 0.01628512 0.04360514 -0.011916374 0.0075126584 -0.029512657 0.010837814
-0.06907208 0.015969468 -0.014184641 -0.04183125 -0.025683958 -0.0041211173 -0.069737576 0.070880145

encoder_1_convlstm.conv.bias f4 [48]
00000000: 3f4f d8bc 93e5 303d 7af3 7dbd f3de 03bd
00000010: 4b0c 7fbd c51f 84bd c909 2e3d 0004 563d
00000020: 2525 1fbc 31e4 773d dcf5 203c 2f8d a0bc
00000030: 65c5 3ebd ce02 5b3d ab1b 593d b7d9 423d
00000040: a62f d0bc e85d 35bd dd97 5ebd d014 8bbd
00000050: 71d1 363d 990e 843c da33 46bd 7389 8f3b
00000060: 7d7b 8f3d 17c4 8bbc 8fba b9bc 48ff db3b
00000070: 40a0 71bd f4f6 b13c af21 69bb da52 74ba
00000080: a2b7 38bd f479 43bd 57cf 803d 3b1f 9e3d
00000090: 380b 48bd ffc2 1b3d 4425 d83b 16e5 8bbd
000000a0: 972d 44bd 8276 44bd 540c bdba 5e74 c3bb
000000b0: 57bf 6fbd a4e1 7abd c776 a03b f81d 97bc
-0.026404975 0.04318769 -0.061999775 -0.032195043 -0.062267583 -0.06451372 0.0424898 0.05224991
-0.009713446 0.060520355 0.009824242 -0.019598572 -0.04657497 0.05346947 0.0530049 0.04757091
-0.025413346 -0.04427901 -0.054344047 -0.06791079 0.044633333 0.016120242 -0.048389293 0.004380399
0.070059754 -0.017061276 -0.022671966 0.0067137815 -0.058990717 0.021724202 -0.0035573056 -0.0009320207
-0.045097 -0.047723725 0.06289547 0.077208005 -0.048838824 0.03802776 0.0065962393 -0.06830804
-0.04789504 -0.04796458 -0.001442323 -0.0059648 -0.058532085 -0.061250344 0.004896972 -0.018446907

encoder_2_convlstm.conv.weight f4 [48, 24, 3, 3]
00000000: 0a6d 083d ab16 5abd 0780 773d d8e1 d5bb
00000010: 9d2a 70bc eb24 22bd 40e4 22bd 5c34 673d
00000020: df90 a73c 01b5 38bd b875 213c 3ddf 95bc
00000030: 6aa7 573d 176b ff3c 4565 9d3c e513 8dbb
00000040: 222d 5b3c 35b9 543d 5102 06bd 4a35 47bd
00000050: f9a4 feba 7576 2abd 732b 5d3d 9055 02bd
00000060: 69b8 e53c 9c00 873c 00e8 87bd 3781 613d
00000070: 4eed 883c 22e9 ec3b 769f d1bc 9052 b63b
00000080: 5036 8cbc da7f 823d 1ae2 b43c c263 3dbd
00000090: 267a 553d 0c74 eebc 58d4 82bd 6989 c03c
000000a0: b05d 33bd 8080 52bd dc80 3d3d dfcd 2a3d
000000b0: 0dec 67bc bdcd 4fbd 6a7c 80bd e374 3a3c
000000c0: 5ed8 2dbd f3f0 283d 05ef 273c 14eb 5a3d
000000d0: 0d4b 443d 0440 573c cb55 e4bc a5e3 8bbc
000000e0: 4146 8e3d a866 d33c 88c3 22bd 3411 e03c
000000f0: 33bd 83bd 5bf4 08bd 9116 15bd 034d 163c
00000100: 15a1 763d 3535 503c da85 3c3d 971f 16bd
00000110: d5c0 fa3b 618a 2cbd bf44 bfbc d232 ddbc
00000120: 1d9f 983c af0b 2abd 712f a2bb 336c 2839
00000130: 351c 56bb a878 dabc 1ff5 4c3d 4ef8 01ba
00000140: 8b70 8fbc 62bd 83bc 14ec 0dbd d89f 273d
00000150: 9801 1e3d a1af 843d 5e6d 393c 7397 7e3d
00000160: b61a 5ebc b300 513d 5a1b 473d 0d8c f5bb
00000170: 99d4 5cbc 7221 10bd e3d8 1d3d 29c6 b5bc
00000180: 50e2 9cbc 9fc1 803d 8ac5 51bd e662 ab3c
00000190: 3198 c03c e8bd 1fbc dc65 15bc 358e 093d
000001a0: 96d3 c6bb 1258 18bd 4e97 fc3c 1cd7 bebc
000001b0: 65d1 83bc 65e4 e9bb 9eaf 383d 7e95 463d
000001c0: b490 98bc 80a1 01bd 91b4 60bd 1d39 a1bb
000001d0: 9cfb 36bd 1abd 843d d61c 493d 9a08 613d
000001e0: ffa2 28bc aafb abbc 4904 403d 597a 93bc
000001f0: 55de a83c 89e6 0b3c d73d 01bd 11fc 1b3b
00000200: f442 653c f10b 7fbd ee7e 85bd 5701 813d
00000210: ea92 283d d93b 97bc 5fdc 19bd 8455 eebc
00000220: 6a84 4e3c 4114 3bbd c1c5 243d 372e f13c
00000230: cee9 a13b 8f29 c5bb 37cd adbc 935e ddbb
00000240: 9b1e 60bd 2a7f 17bd dc76 823d f463 2fbd
00000250: 3872 eabc 310c 163c da60 80bd f5d5 d2bc
00000260: 016c 493d f8cd 7ebd ad4b 063d 72ea 283c
00000270: 73c9 35bc b040 76bd 40af dfbc fee4 503c
00000280: 7d8a ad3a 13a1 75bc ea05 4f3d 783c 003d
00000290: b204 073d 6789 1dbd 33c4 a6bc 4b56 96bc
000002a0: 9de9 7dbd ddf0 07bd 64b0 6fbd 138b b2bc
000002b0: f46f 103c 5e75 433d 998d 2b3d 4e4f bc3c
000002c0: 0bfa 1f3c c672 403b 98a3 743d 32e6 6cbd
000002d0: e138 243c 7753 7ebd 901a 6c3d 01e3 433d
000002e0: 708c 58bc 51fd 65bc 4668 373a aeeb 00bd
000002f0: e364 e5bb c995 e43c 0e53 c5bb 790e 663d
00000300: 546d 26bd fdcb 3bbc d033 bbbc 873b 743d
00000310: de4b 813d c7ea 3fbc 8480 4cbd c0bc 08bd
00000320: f7bd 62bc 07e9 2bbc 8de0 17bd e12b cd3c
00000330: d349 06bb cb70 063d a198 9bbc 476c 243a
00000340: c0a0 883d 8bac caba b464 9b3c a3f9 833d
00000350: 38ac 54bd 2e56 3b3c cd99 29bd c6d4 093d
00000360: d55e 4ebd aaef e13c c349 683d c986 e1bc
00000370: 27f2 78bd 4904 69bc 0029 d3bb 8360 d7ba
00000380: a9e9 fe3c 3ceb 4f3d dd9c c83c f847 0cbd
00000390: fbbe 0b3d 5b1d b0bb 9201 9aba ab63 b1bc
000003a0: 7f63 22bd 8c10 78bc 94b7 72bd 36fb 56bd
000003b0: 663e 653d b5ac 6f3d d590 bf3a ea54 64bd
000003c0: 6b54 77bd bf49 193c 68df 11bc 34a1 7f3c
000003d0: 624a 82bc 210a 83bd b58f 24bc f624 62bc
000003e0: 6329 b0bc 64bd 35bc eedd cdbc fab4 753c
000003f0: 8df5 d7ba aa55 3f3d 53e8 d53c 3da2 acbc
0.033307113 -0.053244274 0.06042483 -0.006527167 -0.014658597 -0.03958599 -0.039768457 0.05644642
0.020454822 -0.045094494 0.0098547265 -0.018294925 0.052649893 0.031178994 0.019213328 -0.00430535
0.01337746 0.05193444 -0.032717053 -0.048634805 -0.0019427828 -0.041616876 0.053996515 -0.03181988
0.028042035 0.016479783 -0.06636047 0.05505487 0.016714718 0.00722994 -0.025588732 0.0055640414
-0.017115742 0.06372042 0.02208047 -0.046237715 0.052118443 -0.02910807 -0.063881576 0.023503022
-0.04379052 -0.05139208 0.046265468 0.04170024 -0.0141554 -0.050733317 -0.0627373 0.011380407
-0.042442672 0.041245412 0.010249858 0.053446844 0.047923137 0.013137821 -0.02787294 -0.017076323
0.069469936 0.025805786 -0.039737254 0.027351953 -0.06432571 -0.03343616 -0.036398474 0.009173634
0.060212214 0.012707998 0.04602609 -0.03665122 0.007652382 -0.042124156 -0.02334821 -0.027001772
0.018630559 -0.04151505 -0.004949503 0.00016062036 -0.0032670621 -0.026668862 0.050038453 -0.000495796
-0.01750972 -0.016081516 -0.03464897 0.040923923 0.03857574 0.06478811 0.011317579 0.062156152
-0.013556173 0.051026057 0.04861007 -0.007493502 -0.013478422 -0.035188146 0.038536917 -0.022189217
-0.019150883 0.0628693 -0.05121378 0.020921182 0.02351007 -0.009749867 -0.009118523 0.033582885
-0.0060677035 -0.037193365 0.030833866 -0.023295932 -0.016091058 -0.0071378225 0.045089357 0.04848241
-0.018623687 -0.03164816 -0.0548597 -0.0049201385 -0.044673547 0.06481381 0.049099766 0.054939844
-0.010292768 -0.020994026 0.046879087 -0.018002676 0.020613829 0.008538851 -0.031553116 0.0023801366
0.013993014 -0.062267248 -0.065183505 0.06299084 0.041155733 -0.018461155 -0.037563678 -0.029093511
0.012604812 -0.045673613 0.040227655 0.029440982 0.004941202 -0.006016917 -0.021216018 -0.006755659
-0.054716688 -0.036986507 0.06370327 -0.042819932 -0.028618917 0.00915818 -0.06268473 -0.025736788
0.049175266 -0.062208146 0.032787014 0.010309802 -0.0110953925 -0.060120285 -0.027305245 0.0127499085
0.0013240125 -0.014992016 0.05054275 0.031307667 0.032963462 -0.038461115 -0.020357227 -0.018351695
-0.06199037 -0.03318869 -0.05851783 -0.021794831 0.008815754 0.047719352 0.041883085 0.022987034
0.009764205 0.0029365285 0.059726328 -0.05783672 0.010023327 -0.062091317 0.05764252 0.04782391
-0.013217077 -0.014037446 0.0006996434 -0.03147476 -0.007000552 0.027903454 -0.006021864 0.056166146
-0.040631607 -0.011462209 -0.022851855 0.059627082 0.06313299 -0.01171369 -0.04992725 -0.03338313
-0.013839236 -0.01049257 -0.037079383 0.025045337 -0.002049078 0.03282241 -0.018993678 0.0006272238
0.06671286 -0.0015462799 0.018968917 0.06444099 -0.051922053 0.011434121 -0.04140644 0.033650182
-0.050383408 0.027580101 0.05671097 -0.02753009 -0.06077781 -0.014222213 -0.0064440966 -0.0016431961
0.031117277 0.050761446 0.02448886 -0.034248322 0.03411768 -0.005374593 -0.0011749736 -0.02165397
-0.039645668 -0.015140664 -0.059257105 -0.052485667 0.05596771 0.058514316 0.0014615307 -0.055745043
-0.06038324 0.009355961 -0.008903362 0.015602399 -0.01590461 -0.06398416 -0.010044028 -0.0138027575
-0.02150411 -0.0110925175 -0.025130238 0.014996761 -0.0016476378 0.046712555 0.026111757 -0.021073455

encoder_2_convlstm.conv.bias f4 [48]
00000000: c43a 5abd 09e1 8d3c c20b 3abd ef6a 3c3d
00000010: fd8f 0abd 7937 b13c af44 363d 8ec1 243d
00000020: d717 3cbd 1c73 143c eea6 303d 1ffa 9dbb
00000030: 9fdc 6dbd 24a8 773b c759 12bb c142 673d
00000040: 2b3e 983a af2b 72bd 7ff3 0f3d 81c2 b3bc
00000050: e43f 003a f3bd 1fbc cb42 c03b fe65 d6bc
00000060: ae08 53bc 1abf 403d 5b62 fabb 5e7b 093d
00000070: 65ac 8dbd 48da 8a3d ac6d 2d3d ab79 26bc
00000080: d5c2 fd3b 2da3 993c c427 973c 4f69 e1bc
00000090: 3f38 7e3c fe26 513d 0c7a eb3b cff7 01bd
000000a0: 9bdc 3ebd 56fd bdbc 3cfe 20bd 5585 2f3d
000000b0: 6d40 edbc 52c9 003d 1c0a 0f3d 26c3 fcbb
-0.0532787 0.01731922 -0.04542137 0.046000417 -0.033828724 0.021632897 0.044499096 0.04022365
-0.045921173 0.009060647 0.043127947 -0.0048210765 -0.05807173 0.0037789429 -0.0022331343 0.056460146
0.0011615207 -0.05912369 0.035144325 -0.021943333 0.0004892333 -0.009749877 0.0058673373 -0.02617168
-0.012880487 0.04705725 -0.0076411194 0.033564918 -0.06917647 0.06779915 0.04234092 -0.010160844
0.007744173 0.018754566 0.018451579 -0.027516035 0.01551634 0.051062576 0.00718618 -0.03173047
-0.046597105 -0.023192089 -0.039304957 0.042851765 -0.028961385 0.031441994 0.03492175 -0.007713693

decoder_1_convlstm.conv.weight f4 [48, 24, 3, 3]
00000000: 5b8e 3fbd 6d1c 5d3d fa71 bb3c b0a8 3ebc
00000010: 0e79 3cbd 6cb8 1a3c 3582 e3bc 273e 81bc
00000020: a1e6 2e3d 2e1e 98bb 3bc8 4b3d 304f b73c
00000030: 2168 df3c 0fd7 21bd b5e9 c83c b993 44bd
00000040: 5b58 22bd 7be9 ebba 46ef 1dbd a0f4 333d
00000050: 0625 30bd 99e7 713d ee34 68bd f808 803d
00000060: 5f73 983d e917 d83c bd20 e2bc d9f5 b13c
00000070: cce6 663d 497b 433d 8c9d 153d 53b7 07bd
00000080: d517 b83a 8356 afbb 1eb3 993b 0952 0dbd
00000090: abea d0bc 6109 4dbd 7917 863c 2398 5e3d
000000a0: a545 3a3d d11d e53c abb4 b3bb 63d3 1c3d
000000b0: 497d ea3b edbd 3bbd bfab 2f3d 7fc0 96bd
000000c0: 6222 4b3c 79db fc3c 9b44 a4bc 695f 6e3d
000000d0: 2f3a 42bd d63d 773c 24cf 21ba 7e18 99bc
000000e0: dec0 99bc 3287 543d c097 423d 089e 923b
000000f0: 76ab 203d 49b2 27bc c23b 16bd b935 37bc
00000100: ee25 c33b 0d67 e7bc f1f4 703d 6482 a8bc
00000110: c551 413d af75 8abd bbf8 5a3d 5b49 7cbd
00000120: 493d 3cbb 572f b3bc 1f79 20bd 2402 7b3c
00000130: 7c57 45bd c421 e73c 9ab0 9abc d567 363c
00000140: 67b8 843d 3f94 94bd f60d 12bd 58dc 493c
00000150: 7712 81bd cce0 47bd 96b2 42bd 080d 4ebc
00000160: 4c83 48bd 4ca0 c63c 793d b33c 1ae6 4bbd
00000170: 14af 10bd 8ac7 4cbd 71f2 753d 00f0 a7bc
00000180: 4aef 543d 9d2c 28bc 1441 763c 4b8e 2a3c
00000190: 691d 263d d405 7cbd 09df 893c 0bc3 21bd
000001a0: 5567 81bc db52 203c 9de1 e8bc 8dd0 1c3d
000001b0: bee2 8639 d39b 56bc 9956 433c 000c 24bd
000001c0: c047 c4bc 603d 86bd 9d93 3e3d 1273 4a3c
000001d0: 7675 d1bb 8fcd a5ba 723b 90bc c127 4bbd
000001e0: 3637 eabc eb09 c3bc 41ae 563c c5b5 56bd
000001f0: d2dc e73b 497f 903d 698f 8abd d8d2 eebb
00000200: dbe9 d4bb bff8 12bc 0a3d 11bc e47b ee3c
00000210: 4e3a 2d3d d7a4 e13c 3389 0fbd cd33 4fbd
00000220: 8282 103d c661 32bd c3a3 cc3c 4c9f e33b
00000230: f71d 48bd 150a aa3c 3626 f33b 3cbd 153d
00000240: 9bb9 24bd b40d 0cbd a7aa 933d 651a 243d
00000250: 0a0f 883d 174a e8bb 13bf 333d 1aa8 3d3d
00000260: be06 c83c 3498 093d fce3 f63c 0782 833d
00000270: 4261 633d c33d 81bc ccf5 753d aa03 d23c
00000280: 9d9d 63bd 0f2f 94bc d6f3 28bd faea 0abd
00000290: 719c d1bc c123 10bd 2fc3 893b 16e7 a0ba
000002a0: fe80 1cbd b3b5 103d 5672 87bd d743 0f3c
000002b0: d030 4e3d 8bac 52bd 63ba 6d3d 3bea 3fbc
000002c0: fcff f93c e46f c33c 00ed 1fbc fa9a 5a3d
000002d0: 7cb8 37bd 2622 e8bc e516 80bc ccfe 19bd
000002e0: bd9a bcbc 8390 353d 9dfe 45bb c16f 633a
000002f0: 194d bd3c f670 3abd 9fbe 15bd 22e6 63bd
00000300: 82ae 75bd b619 25bd 79c1 22bd e335 01bb
00000310: 9cac 193d 6d91 bebb 0aec f0bc 1552 363d
00000320: b648 c5bb 7db9 163d 26da babc 1d16 873c
00000330: 22bc 5cbc 8f16 62bd 03b5 963d 9606 233c
00000340: 0904 a3bc ffee 683d 270b 33bd 2bd2 86bd
00000350: fa9a 36bc fe07 fabc 009f 203d 65a9 163d
00000360: 6d9a 48bc 9779 773c 8903 dfbc 45a3 91bd
00000370: 280a 63ba 20ee 08bd 02b1 093d 217f 1bbd
00000380: 09d5 8fbd ec01 8cbd bc38 0dbd e735 58bd
00000390: 569e b7bc 6a6d fbbb 60d7 b0bc 4c0d 613d
000003a0: 393e c5bc a422 ae3b 8ecf 7a3d c2d0 43bd
000003b0: c345 26bd 0f50 233d e492 013d 07da 873c
000003c0: db7c 65bd a25d 1bbd d469 483c 048f 02bc
000003d0: be5c 26bd c429 19bd e455 d33c e71b b73c
000003e0: d09e 16bd fb25 203d efcc 86bb d5e7 b8bc
000003f0: 7aac 57bb 2bdd ea3c c6fa 7f3c 475e db3c
-0.04676662 0.053982187 0.022881497 -0.011636898 -0.046013884 0.009443384 -0.027772048 -0.015776707
0.042700414 -0.0046422696 0.0497515 0.022376627 0.027271332 -0.039511736 0.024525503 -0.04799244
-0.039635044 -0.001799866 -0.038558267 0.043934464 -0.04300406 0.05905876 -0.056691103 0.06251711
0.0744388 0.026378589 -0.027603501 0.021723675 0.05637245 0.047724996 0.0365272 -0.033133816
0.0014045188 -0.005350889 0.004690542 -0.034502063 -0.025502523 -0.050057773 0.016368615 0.054344308
0.045476574 0.02796832 -0.005484184 0.03828753 0.0071560484 -0.045835424 0.0428884 -0.073609345
0.012398334 0.030866371 -0.020052245 0.05819646 -0.04741877 0.015090426 -0.0006172529 -0.018688437
-0.018768724 0.051886745 0.047508 0.004474405 0.039226018 -0.010235378 -0.036678083 -0.011182242
0.0059554493 -0.02824738 0.058827344 -0.020569988 0.047197122 -0.067607276 0.053459864 -0.061593395
-0.0028723052 -0.02187316 -0.03917801 0.015320335 -0.048179135 0.028214343 -0.018883038 0.011133154
0.064804845 -0.07254838 -0.035657845 0.0123206 -0.0630235 -0.048798367 -0.047533594 -0.012576349
-0.04895334 0.024246357 0.021879898 -0.04977999 -0.035323218 -0.049994983 0.060045663 -0.020500183
0.051986016 -0.010264543 0.015030164 0.010409902 0.04055539 -0.061528996 0.016829984 -0.039492648
-0.015796343 0.009785379 -0.028427893 0.038284827 0.00025727408 -0.013098675 0.011922502 -0.040050507
-0.023959994 -0.06554675 0.046527494 0.012356536 -0.0063921763 -0.0012649762 -0.01760647 -0.04959846
-0.02859078 -0.02380844 0.013103069 -0.052419443 0.0070758844 0.07055528 -0.067656346 -0.007288318
-0.0064976043 -0.0089704385 -0.0088646505 0.02911181 0.04229193 0.027544422 -0.035042953 -0.05058651
0.035280712 -0.043550275 0.024980431 0.00694648 -0.0488567 0.02075676 0.0074203266 0.03655742
-0.04021607 -0.034192756 0.07210284 0.040064234 0.066434935 -0.0070889103 0.043883394 0.046302892
0.024417277 0.033592418 0.030138008 0.06421285 0.055512674 -0.01577652 0.060048863 0.025636513
-0.055570234 -0.018088846 -0.041248165 -0.033915497 -0.025587292 -0.035190348 0.004204176 -0.00122759
-0.038208954 0.035329532 -0.06613605 0.008744202 0.05033952 -0.05143408 0.05803908 -0.01171356
0.03051757 0.023857065 -0.009761095 0.053370453 -0.044853672 -0.028336596 -0.015635917 -0.03759651
-0.023023004 0.04432727 -0.0030211576 0.00086760154 0.023108052 -0.045517884 -0.036558744 -0.055639394
-0.059980877 -0.040307723 -0.03973529 -0.0019715957 0.03751813 -0.005815676 -0.029409427 0.044511873
-0.0060206307 0.03679799 -0.0228091 0.016490037 -0.013472589 -0.055197295 0.07358744 0.009950301
-0.019899385 0.05686855 -0.043711808 -0.06583055 -0.011145348 -0.03052139 0.039214134 0.03678264
-0.012243849 0.015104673 -0.027223365 -0.07111219 -0.0008660876 -0.03343022 0.033616073 -0.037963036
-0.07023055 -0.06836304 -0.034477934 -0.05278578 -0.022414368 -0.0076729553 -0.021587074 0.05494432
-0.024077522 0.005314188 0.061233096 -0.04780651 -0.040593874 0.03987127 0.031634226 0.016583456
-0.056027275 -0.037931092 0.012232263 -0.007968668 -0.04061579 -0.037393346 0.025797792 0.022352172
-0.03677255 0.03909872 -0.0041137855 -0.022571484 -0.00329092 0.028669914 0.015623754 0.026778353

decoder_1_convlstm.conv.bias f4 [48]
00000000: b47b 463d 6099 02bd 3b31 85bd 13cc 60bd
00000010: b950 19bd 5a4e 523d 3c67 7a3d 83c3 473d
00000020: df5f 643d b22e 7a39 1d2a 653d 391a 3cbd
00000030: f7a4 f2bb f714 383c 6294 933a de10 6c3d
00000040: 93c3 633d 0779 273d 568e 54bd 58d4 fe3c
00000050: 0d8c babc c806 383d edb9 23bd 6089 b93c
00000060: b371 3fbd f93c 363d 488b 4c3d a6c8 58bd
00000070: 55d6 8cbc 5b03 803a 852f c9bc 4f8d 4a3c
00000080: 4135 96bb 931d 3fbd eaee 3bbd 807a 0abd
00000090: f3e9 803c 5fd9 a7bb c40f 2c3b f244 5d3b
000000a0: 13a7 80bd 18c7 643c c2e6 bd3c 3911 683d
000000b0: d255 3c3c 9627 483d 76f1 6cbd 1e68 633d
0.048457816 -0.03188455 -0.065035306 -0.05488212 -0.0374305 0.051344253 0.06113361 0.04877044
0.055755492 0.00023859253 0.055948365 -0.045923445 -0.0074049192 0.011235467 0.0011259431 0.057633273
0.055606436 0.040886905 -0.051893555 0.031107113 -0.02277186 0.044928342 -0.039972235 0.022648513
-0.04673929 0.04449174 0.049937516 -0.05292573 -0.017192045 0.0009766625 -0.024558792 0.012362792
-0.004583985 -0.046659064 -0.045882143 -0.03380823 0.015736556 -0.005122348 0.0026254514 0.0033763018
-0.06281867 0.013963483 0.023181323 0.05665705 0.0114950705 0.048865877 -0.057847463 0.055519216

decoder_2_convlstm.conv.weight f4 [48, 24, 3, 3]
00000000: 187c c7bc 5fec 193d 93b6 373d dbe0 31bd
00000010: cb4b 79bc 5c4b 78bd c323 503d a497 4dbd
00000020: cd76 69bc c10f 483d 814d d53c 93c8 4abd
00000030: 7de9 b2bc 2f4a 08bc a841 00bc b143 143d
00000040: 622e af3c 03e9 80bc ef44 4d3c 9095 38bc
00000050: 9331 04bd c361 a2bb 2068 703d d467 8b3a
00000060: 2ce6 343b 01d5 503d 0c11 2cbd 784b fc3c
00000070: de0b 1f3d 6066 4abd 810d 5d3d d0ac d13c
00000080: 915c d4bb 7dbf 5dbc b69e ed3c 4426 dbbb
00000090: cd29 8abb c223 33bd fa7e 88bd b004 67bd
000000a0: 9d3a 833d c714 4fbd 58e2 883c 1381 843d
000000b0: e9c2 423d 8bfc e73c 21fd 06bd 4ab9 81bd
000000c0: 1b4a 463d e37f 60bd 5006 5e3d a2b1 07bd
000000d0: f547 513d 1671 7bbc a0f2 97ba c756 1eba
000000e0: 7de6 97bc 1041 673d 16e3 88bd bd06 863d
000000f0: 1f73 d83a 62d7 583c ca50 bbbb 0c9c 233c
00000100: e553 163d 3d73 833d dcd6 b63c 9598 33bc
00000110: fc0f f4bc eff3 80bc 5e94 89bd f2fa 1abd
00000120: f70b 4bbd a2e6 5c3c c695 7c3c c5fc e2bc
00000130: bf8e 633d 9463 823d fb57 82b9 d699 713d
00000140: b7c8 debc bf9a 4e3c 06a9 64bd d252 7dbd
00000150: 7927 293d faff 803c 900f 753d 5124 50bd
00000160: bce2 3d3b 931c 74bb c09b 0fbd 6630 9fbc
00000170: a3c8 21bc fb72 80bd 05f4 68ba 1fd6 2fbd
00000180: 8954 283c 886a 75bd 97bd a3bc 1a48 473d
00000190: 6c12 023d 56cc db3c b0ff 733d b1a6 52bd
000001a0: a2b8 683d 724a 2abb 8fb2 32bd 82ca 7e3d
000001b0: 6788 4abd 2c70 e33c ea8b 5d3d 1cd3 463d
000001c0: 9e51 0fbd 9722 00bd 3ea2 43bc 5f77 a33c
000001d0: 548a 073d fe65 80bd fe53 f4bc 045d a63c
000001e0: 9209 34bd a60c 923c 0e2d fa3c c34d 02bb
000001f0: 7235 71bd 7af9 94bc 3048 fd3c 7467 dcbc
00000200: f47d 053d 8154 1c3c 180a 6a3d 8487 573d
00000210: 87c2 863d 4791 5a3d 8230 c13c d37c 6fbd
00000220: 3dfd 843d 3120 76bd 2760 743d e376 87bd
00000230: f7ca 0ebd 3652 b9bc d4ad 36bd 5526 603d
00000240: 682f 71bd 39d4 c13b 1b91 55bd 4caa 11bd
00000250: 70a1 35bd 129f 25bd 8c87 91bd 35fc 803c
00000260: c296 42bd 0ecf 7d3d c0f6 393d 84b8 7ebd
00000270: 0cca 0f3c 0c35 0bbd 836d ebbb c079 66bd
00000280: ba64 633c 54e1 253d 4463 1f3d 393b ac3c
00000290: fe38 06bd 4a35 173d 3b97 0e3d 3c92 263d
000002a0: 9a5b 013d e8e9 873d 6657 c4bc 0f67 c43c
000002b0: 9d1f 773c 2196 4a3d 74c7 1dbc b281 1f3d
000002c0: a02d eab9 b284 523d 4f4c e03c 6608 6fbd
000002d0: 4c6d 75bd aceb 153d b68a bb3c 8102 7a3d
000002e0: cfbb 883c e70d 893d daf0 133d f72a e2bb
000002f0: 4e68 173d b19c 12bd bb0d 7bbd 01f9 3d3d
00000300: d5bb 5e3d abde 47bc 92f9 713d 8bd0 55bd
00000310: 5ab1 013d d9f4 ec3c 97c6 d8bc 66f0 82bb
00000320: 7586 1f3d e981 87bb 7d9e 33bd a8a8 523d
00000330: ea78 61bd cd6c 443d 3273 65bd 1dfc 0c3d
00000340: b560 fc3c af51 46bc baea 2f3d f752 9f3c
00000350: 6bfb 883c b5e8 403d 4b90 903b e5dc 8cbd
00000360: 3973 44bd b62a 4dbc fa8a 4abc 6b54 4ebd
00000370: 8816 333c fa6c 00bd 9ae5 55bd 668e b9bb
00000380: 3bc7 933c 4284 463d 33ab 8abd 7018 8dbc
00000390: d655 94bd 7aff f43b 542c e7bb 1949 753d
000003a0: 401c 243d cb50 8c3c 1a6c 0fbd 81b7 1fbd
000003b0: 5d62 fc3b 92d7 843d fbf6 613b 223b 5fbd
000003c0: 27ef 33bd dbfa dabc 79d8 64bd 7a3a 8b3d
000003d0: 984b 063b 47da e2bc 29bb 553d a7e9 573c
000003e0: f570 b8bb 33b9 193d 5048 7f3d 26ba 833c
000003f0: 51ba 0c3c 13ec 6e3d 3a4b 5f3d eb06 5cbd
-0.024351165 0.037578937 0.04485185 -0.04342733 -0.015215824 -0.060618743 0.050815355 -0.050193444
-0.014249516 0.04884315 0.026037933 -0.04950769 -0.021839852 -0.008318468 -0.007828154 0.036197368
0.021384422 -0.015736109 0.012528642 -0.011266127 -0.03227384 -0.0049555018 0.05869305 0.0010635802
0.0027603013 0.050984386 -0.042008445 0.030797705 0.038829677 -0.04941404 0.053967956 0.025595099
-0.0064807613 -0.013534424 0.029006343 -0.006687911 -0.004216409 -0.043735273 -0.06664844 -0.056400955
0.06407664 -0.050556924 0.016709492 0.064699315 0.047549162 0.028318664 -0.032956246 -0.06334169
0.048410516 -0.054809462 0.05420524 -0.03312839 0.051094014 -0.015346786 -0.0011592694 -0.00060401525
-0.018542523 0.056458533 -0.06683938 0.06544254 0.0016513801 0.013234945 -0.005716418 0.009985935
0.0367011 0.06418464 0.02231925 -0.010961671 -0.029792778 -0.015741317 -0.06717752 -0.037836976
-0.049571957 0.0134827215 0.015416568 -0.02770842 0.055556055 0.06366649 -0.00024861083 0.0589846
-0.027195318 0.0126101365 -0.055825256 -0.06184656 0.04129741 0.01574706 0.059829295 -0.050815884
0.0028974256 -0.0037248477 -0.035060644 -0.019432258 -0.009874496 -0.06271931 -0.00088864594 -0.04292881
0.010274061 -0.05991605 -0.019987864 0.048652746 0.03175585 0.026830833 0.059570014 -0.0514285
0.056816705 -0.0025984314 -0.043627318 0.062204845 -0.04944649 0.027763449 0.05408851 0.048541173
-0.034989946 -0.031282987 -0.011940537 0.019954382 0.033090904 -0.062694535 -0.029825207 0.020308025
-0.04395444 0.017828297 0.030539062 -0.0019882775 -0.05888886 -0.018185366 0.03091821 -0.026904799
0.03259082 0.009541632 0.057138532 0.052619472 0.06580072 0.053361204 0.0235827 -0.05846865
0.06493614 -0.060089294 0.05966201 -0.06614473 -0.03486153 -0.022622209 -0.04459937 0.054724056
-0.0588831 0.0059151915 -0.052140336 -0.0355628 -0.044343412 -0.040434904 -0.07105932 0.015745262
-0.047507055 0.06196504 0.045401335 -0.062187687 0.008776199 -0.033986136 -0.0071846857 -0.056268454
0.013878996 0.040498093 0.038913026 0.021024333 -0.032769196 0.036916055 0.034812193 0.040666804
0.0315815 0.06636411 -0.023967456 0.023974923 0.015083221 0.04945958 -0.009630073 0.038942046
-0.0004466595 0.05139608 0.027380137 -0.05835762 -0.059918687 0.036601707 0.022893291 0.061037544
0.016691117 0.06692105 0.036118366 -0.0069020945 0.036964707 -0.035793964 -0.06129239 0.046380047
0.05437835 -0.012199084 0.0590759 -0.052200835 0.031663276 0.028925346 -0.026461883 -0.003995943
0.038946588 -0.0041353595 -0.043852318 0.051430374 -0.055046953 0.047955323 -0.056018062 0.03442012
0.030807832 -0.012104436 0.042948462 0.01944874 0.016721448 0.047096927 0.0044117323 -0.0687807
-0.047961447 -0.01252239 -0.012362236 -0.050373476 0.010930665 -0.03135393 -0.05222092 -0.005662727
0.018039336 0.048465975 -0.06770935 -0.017223567 -0.072429344 0.0074767442 -0.007054845 0.059884164
0.040066004 0.017128369 -0.035015203 -0.038993362 0.0077021555 0.06486429 0.0034479487 -0.054499753
-0.043929245 -0.026730945 -0.055870507 0.06798263 0.0020491835 -0.027691973 0.052180443 0.013178266
-0.0056287 0.037530135 0.062324822 0.016079973 0.008589343 0.058330607 0.0545151 -0.053717535

decoder_2_convlstm.conv.bias f4 [48]
00000000: f12e cfbc 4802 14bd 5e6e 5b3d 5d6c 393d
00000010: b140 e9bc ba4c 703d 5612 9ebc 32aa 82bd
00000020: e03d 9ebb 0882 2fbd e052 ed3c 07dc f5bc
00000030: 127f f13c 60fb dfbc fbb1 14bd d3d6 823d
00000040: 059a 95bc 0d98 d7bc 05d6 e43b 48c9 a1bb
00000050: bbc8 efbc 4784 82bc 20b3 8d3c 41e1 a23c
00000060: 33ba 57bb 36ee c4bc 0902 50bd c670 46bd
00000070: 346b 45bd 0a0a 243d 2a51 a43b 92d7 173d
00000080: 2c04 ee3c 3c1c f7bc 42e3 10bd 966e aabc
00000090: f044 273c 11ac b23c c15f 4dbd f87c 8b3d
000000a0: 7bb7 fb3c b87e 703d d887 0cbc 5dc1 2ebb
000000b0: 4242 8fbb b33f 5d3d e8de 47bc 3bdf f1ba
-0.025290938 -0.036134988 0.05357205 0.04526936 -0.02847323 0.058666922 -0.019295853 -0.063801184
-0.0048291534 -0.042848617 0.028970182 -0.030012144 0.029479537 -0.027341545 -0.036302548 0.06388631
-0.018261919 -0.02631762 0.006983521 -0.0049373247 -0.02927052 -0.015932215 0.017297328 0.0198828
-0.003291738 -0.02403937 -0.05078319 -0.048447393 -0.04819794 0.040048636 0.0050145583 0.03707082
0.029054724 -0.03016483 -0.03537298 -0.020804685 0.010209307 0.021810563 -0.050140146 0.06810945
0.030727139 0.0587146 -0.00857731 -0.0026665546 -0.004371912 0.054015826 -0.012199141 -0.0018453369

decoder_CNN.weight f4 [8, 12, 1, 3, 3]
00000000: 6718 1ebd 97f2 88bc 2b7c f9b9 8e66 abbd
00000010: a5b5 65bd b7c3 c9bd d057 c3bd d1aa 973b
00000020: fd57 12bd 24d2 a8bd 1af4 d93c b28e 63bd
00000030: 1203 4c3d 76e5 813d 7960 54bd d067 7ebc
00000040: b181 e83c 346f b03c 0508 9f3d f146 143d
00000050: 4726 9fbd 148c 20bd 9090 c93d 70f7 a1bd
00000060: 8a47 4ebb 00c1 8ebb 7408 94bd 85b1 a9bc
00000070: c35a e5bc 21fb 263c 987b 123d 4ec8 893d
00000080: f331 26bb 0455 71bd ae9c c7bd d09f 553d
00000090: d9ce ea3a a8bb 8e3c 2b89 b83b 2f51 503c
000000a0: cd75 57bd 39a4 883b e205 503d 47dd 72bd
000000b0: 1005 cbbd 2c75 b8bc 936b d2bd a97d 193d
000000c0: 2306 87bd c21b f03c 2d0a 983d 7245 bcbb
000000d0: 5dc2 93bd 9f9e 34bc bfc6 f73c 327e b5bd
000000e0: 5dcc b1bc 9eb2 043d 4f42 4bbc 64a2 8bbd
000000f0: 0723 91bd 0fc3 b0bb 0890 523d a970 80bd
00000100: e43f ccbc 0e1c 593c 8794 6f3d 276f 10bd
00000110: 22a5 80bd 6e10 7e3d aa9c 9c3d fe36 5cbd
00000120: 4b47 43bd dba0 4e3d 97e8 6cbb b4a5 85bd
00000130: ff0d 403c 5b0b 9fbd d9cf 003d 376b 5abc
00000140: 969a 2a3d a454 a93d 6c5a ccbd ad18 aa3d
00000150: 9706 993b 1ee9 6b3d 2659 8dbd 64e6 a03d
00000160: 4bf6 81bd a207 133d 1e36 113d f12e dcbc
00000170: 31c8 223d cf77 223d 7cc3 c73d 8f70 b43d
00000180: 3671 e3ba 840f 5fbd 5a7e d33d 6b0d 203c
00000190: 288e c53c 7cc2 74bb 6aaa 69bd 9e20 91bd
000001a0: ce1b 98bd b4ce 503c 63b1 ac3d bd6b 043d
000001b0: e4bf 1dbd 6494 983d 8c49 d23b 326d 8c3d
000001c0: ccfa 813d ea37 933d 51fa 37bc 3f75 bfbd
000001d0: 50c9 483d f425 5dbc 93c5 37bd fa17 193d
000001e0: 4ad1 85bb a728 92bd db35 99bd 935d 1f3d
000001f0: 3388 9e3d 9e69 0cbd 37ff 3dbc 01d6 923d
00000200: 5051 043d 2a65 1dbd 00bf eebc 0090 b23c
00000210: 1e89 23bd ac44 463b 7d7e 12bd 0b41 ccbd
00000220: f618 35bd 5a61 963c 83c2 98bd c12a a0bd
00000230: ff35 71bd 211b c1bd 37b7 57bd b946 c4bc
00000240: 7d73 9fbd 9fda 993d 5043 cd3c 34a5 2e3d
00000250: 55bc 393d eae7 fb3c 9c86 38bc 6289 b5bc
00000260: d742 25bd 18cb 2bbd e636 6fbd e105 703c
00000270: df76 813d 7643 a03d c070 31bc 4d63 1fbc
00000280: 0136 76bd bda8 553d 3bfc 193d 0c59 a5bd
00000290: 5213 75bd 8078 1bbd 9735 36bd 588b fc3b
000002a0: ad7d b5bd 32c6 7ebc 0079 9b3d 43cb 97bd
000002b0: 3c45 a8bd 7793 b03d 023c 2dbc f836 0f3d
000002c0: 47d5 133d 2ee1 92bd f892 c03d 37c9 86bd
000002d0: 067f 76bc 5d12 643c a347 933d 3a7f 92bc
000002e0: 90a6 94bd 4d84 adbc 3141 d43c 0258 a7bd
000002f0: f6b7 efbc a5db 413d 9202 a43c 9fcb 8bbc
00000300: 1af7 2abd e235 30bd 6ab0 25bd 416d 62bd
00000310: 81dc 5abd 8dd4 31bd 52c4 33bd c190 9cbd
00000320: 4e18 fd3c 0dc2 1cbd ad8b a2bc 4551 6b3d
00000330: 3310 72bd 230e 8c3d 9a2f 953c 2900 bbbd
00000340: 0731 9fbc 7033 c7bc d245 93bd fa41 abbd
00000350: 0b0f 4cbd cfc5 933d 41cb 1638 d95c 8a3d
00000360: db1d ab3d 98f5 573d fc9c 403d bdbf cbbc
00000370: 4950 0f3d ef46 a03d ad43 adbd 109c 7a3b
00000380: 6ad6 c9bd 22e9 473d 433d 85bd 8c3f 25bd
00000390: bfd4 d1bd 7395 56bd f2dd 8b3d aa1b 153d
000003a0: 8977 8d3c e617 a8bb 7fac 953c 004c 61bd
000003b0: 4ce1 1abd fc35 c23a 2c67 423d a340 8cbd
000003c0: 33a3 f5b9 98ca 7dbd 358b 1fbb 1f57 fbbc
000003d0: bf33 debb 7d0e 88bd 65e6 19bd 74d4 6a3c
000003e0: f365 39bd 490a a13d 4b4b c0bd 4944 723d
000003f0: 88fd afbb 0dd3 933c f5a2 a03d 76fb 53bd
-0.03859749 -0.016717238 -0.00047585493 -0.0836917 -0.056081433 -0.09851783 -0.09538233 0.004628517
-0.035728443 -0.08243206 0.026605655 -0.055556007 0.049807616 0.06342594 -0.051849816 -0.0155276805
0.028382154 0.0215374 0.077652015 0.036200467 -0.07770973 -0.03919609 0.09842026 -0.07908523
-0.0031475746 -0.0043565035 -0.07228175 -0.02071453 -0.02799738 0.01019171 0.0357624 0.06727658
-0.0025359362 -0.058918968 -0.09746681 0.052154362 0.0017914429 0.017423466 0.005631586 0.012714668
-0.052602578 0.0041699675 0.05078686 -0.059293058 -0.09913075 -0.02251681 -0.102744244 0.037473354
-0.06592967 0.029310111 0.07423816 -0.005745583 -0.07214806 -0.011024146 0.030246137 -0.088619605
-0.021703893 0.032396905 -0.012405946 -0.06818083 -0.07086759 -0.0053943465 0.05140689 -0.06271488
-0.02493281 0.013251318 0.058491256 -0.035262253 -0.062814966 0.062027387 0.07647069 -0.053763382
-0.047675412 0.050446372 -0.0036149377 -0.06525746 0.011722087 -0.07765838 0.03144822 -0.013331226
0.04165133 0.08268097 -0.09978184 0.08305488 0.004669975 0.057595365 -0.06901769 0.078564435
-0.06345805 0.03589595 0.035452 -0.026877852 0.0397417 0.03966504 0.097540826 0.08810531
-0.0017352465 -0.054458156 0.10326834 0.009768824 0.024115637 -0.0037347367 -0.057047285 -0.07086299
-0.07427178 0.012744594 0.08432271 0.03232931 -0.03851308 0.07450178 0.006417459 0.06856765
0.06346664 0.07188399 -0.011229114 -0.09348535 0.04902011 -0.013497818 -0.044866156 0.03737638
-0.004083787 -0.0713666 -0.07480975 0.0389076 0.07740822 -0.034280412 -0.0115964925 0.07169724
0.03230411 -0.038426556 -0.02914381 0.02179718 -0.039925687 0.0030253334 -0.03576516 -0.099733435
-0.044213258 0.018356968 -0.07458975 -0.07820655 -0.058889385 -0.094290026 -0.05266496 -0.023959504
-0.077856995 0.07512402 0.025056511 0.04263802 0.045345623 0.030750234 -0.011262562 -0.022160236
-0.040346947 -0.041941732 -0.058401965 0.014649839 0.06321501 0.07825367 -0.010830104 -0.009728265
-0.060110096 0.052162874 0.03759406 -0.08073625 -0.05983288 -0.037956715 -0.0444847 0.0077070408
-0.088618614 -0.015550183 0.07591438 -0.07411816 -0.082163304 0.08621877 -0.010573389 0.03496453
0.03609207 -0.07171856 0.09403032 -0.065813474 -0.015044933 0.013920394 0.07191398 -0.017882932
-0.07258332 -0.02118125 0.025909992 -0.08171083 -0.029262524 0.04732861 0.020020757 -0.017064868
-0.04173956 -0.043020137 -0.040451445 -0.055279974 -0.053432945 -0.043415595 -0.043888398 -0.07644797
0.030895378 -0.038271 -0.019841993 0.05745055 -0.05909748 0.06838634 0.018211175 -0.0913089
-0.019432558 -0.02431652 -0.071910515 -0.083621934 -0.049819034 0.07215463 3.595208e-05 0.067559905
0.08355304 0.05272445 0.047024712 -0.024871701 0.034988675 0.078260295 -0.08460174 0.0038239993
-0.09855349 0.048806317 -0.06505825 -0.040343806 -0.10245656 -0.05238862 0.06829442 0.036403336
0.017268913 -0.005129802 0.01827073 -0.05500412 -0.037812516 0.0014817114 0.047461674 -0.06848266
-0.00046851634 -0.061960787 -0.0024344448 -0.030681191 -0.006781071 -0.066433884 -0.037573237 0.014332879
-0.045263242 0.0786329 -0.09389361 0.059147153 -0.0053707995 0.018044973 0.078435816 -0.051753484

decoder_CNN.bias f4 [8]
00000000: a333 b43d e59d 7cbd 4590 89bd 4d5b 9a3d
00000010: d594 47bc 7dca a83d 1385 00bc 7785 cb3c
0.087989114 -0.061674017 -0.0671697 0.075369455 -0.01218148 0.082417466 -0.007844227 0.024843914
