models/convlstm/saved_models/lr_0.0005/epoch_3500.pt (torch, 620962 bytes, 10 tensors)

encoder_1_convlstm.conv.weight f4 [96, 32, 3, 3]
0	0xb9b4e372	-0.00034501735
1	0xbd024335	-0.031802375
2	0xbdb46528	-0.088083565
3	0x3d364986	0.04450371
4	0xbc9ca25b	-0.019120386
5	0xbdbe5e16	-0.09295289
6	0x3e537e65	0.20653684
7	0x3d194886	0.03742268
8	0x3dc47130	0.09591901
9	0xbc9fae2e	-0.019492235
10	0xbcf291ff	-0.029610632
11	0xb9eb5e4e	-0.00044892955
12	0x3d2a1b6b	0.041530054
13	0xbb97b72c	-0.00462999
14	0x3dcec6c0	0.10096502
15	0xbba78f48	-0.005113516
16	0xbc15870d	-0.009126437
17	0x3c91d799	0.017803
18	0x3e0bd14d	0.1365406
19	0x3d8a3333	0.06748047
20	0x3d4d6b51	0.050151173
21	0x3d50d078	0.05098006
22	0xbdcf19d4	-0.10112348
23	0x3c43caf2	0.011950241
24	0x3e33b979	0.17551221
25	0x3e4b6f1b	0.19866602
26	0x3bc4d09b	0.006006313
27	0x3d424e5d	0.047438014
28	0xbc9e40ba	-0.019317973
29	0x3d94d3c3	0.07266953
30	0xbc6fe17e	-0.014641164
31	0x3cad02e2	0.021119539
32	0x3cd75b41	0.02628863
33	0x3e2e3f7e	0.17016408
34	0xbc2cb4a6	-0.010541117
35	0xbdea603e	-0.11444138
36	0x3cefa818	0.029254958
37	0xbd0e4d01	-0.034741405
38	0xbd77449a	-0.060368158
39	0xbd137b10	-0.036006033
40	0xbd5c8dd5	-0.0538462
41	0x3c7e87f1	0.015535341
42	0x3ddd51b2	0.10806598
43	0x3ccf0fc8	0.02527608
44	0xbce106fd	-0.027469153
45	0x3be70fa2	0.007051424
46	0xbcabc142	-0.020966176
47	0x3d607182	0.05479575
48	0x3db23442	0.08701374
49	0xbca4a873	-0.020099854
50	0x3d3ae39f	0.045627233
51	0x3db43161	0.08798481
52	0xbcdb5d99	-0.02677803
53	0x3d28a3cd	0.041171838
54	0xbd5f8f6a	-0.05458013
55	0xbc9580fc	-0.018249981
56	0xbbb19462	-0.0054193
57	0xbdf109d6	-0.11769454
58	0xbd711d5c	-0.05886589
59	0xbd1a71ba	-0.037706114
60	0xbd659ace	-0.056055836
61	0xbc2b7c89	-0.010466703
62	0xbd58f8e8	-0.05297175
63	0xbc3b0089	-0.011413702
64	0x3cf1acb4	0.029501297
65	0x3cc4049f	0.023927985
66	0xbd2cf8f3	-0.042229604
67	0x3d22356f	0.03960174
68	0x3bd7c9b6	0.006585325
69	0xbd5c9830	-0.053856075
70	0x3c622cae	0.013804598
71	0xbd806d84	-0.062708884
72	0x3d795458	0.060871452
73	0x3de18326	0.11011343
74	0x3dde3f0e	0.108518705
75	0x3d2e0046	0.04248073
76	0x3c0a9474	0.008458246
77	0x3b80f9d4	0.003936032
78	0x3e5449f0	0.2073133
79	0x3d5fc495	0.054630835
80	0xbd8f4d75	-0.06997196
81	0x3eb1884a	0.34674293
82	0x3c6c85fb	0.01443624
83	0x3ccdad9c	0.025107197
84	0x3e013fa7	0.12621938
85	0xbd97ecf0	-0.07418239
86	0xbc009fcd	-0.0078505995
87	0x3e96567a	0.2936285
88	0x3a0233bd	0.0004966816
89	0xbcf22751	-0.029559763
90	0x3cbbbc3b	0.022916904
91	0x3d0b95a9	0.034078274
92	0x3ce77aa5	0.028256724
93	0xbdb12fb4	-0.08651677
94	0xbcfc62bb	-0.030808797
95	0x3d29adf5	0.041425664
96	0x3d46f97f	0.04857778
97	0x3dc7a24a	0.09747751
98	0x3cf2c7a9	0.029636221
99	0xbd2ecc6d	-0.042675424
100	0x3cc8f23b	0.024529567
101	0xbda82cff	-0.08211707
102	0xbd25e6be	-0.040503256
103	0xbd71353a	-0.05888865
104	0xbc8d279e	-0.017230805
105	0xbe2e624c	-0.17029685
106	0x3cf425a3	0.029803103
107	0xbd58a58e	-0.05289226
108	0xbe6aeb32	-0.22941282
109	0x3e049c2d	0.12950201
110	0xbc5f73ed	-0.013638479
111	0xbe023d29	-0.12718643
112	0x3d7283e9	0.05920783
113	0xbd075dc8	-0.03304842
114	0xbe09e378	-0.13465679
115	0xbda6c865	-0.08143691
116	0xbd9e871d	-0.077406146
117	0x3bfe4606	0.0077598123
118	0xbd7dcab8	-0.061960906
119	0xbdb95c1e	-0.09050773
120	0xbdce3a04	-0.10069659
121	0x3c5530fd	0.013012168
122	0x3ce54712	0.02798799
123	0xbda0f997	-0.078601055
124	0xbd040c0c	-0.03223805
125	0x3d101e57	0.035185184
126	0xbd764430	-0.060123622
127	0xbdf7ee34	-0.121059805
128	0xbdd0ef3e	-0.10201882
129	0xbdbcca7c	-0.09218308
130	0x3cda7060	0.026664913
131	0xbdaf5b10	-0.08562291
132	0xbdc21393	-0.0947639
133	0xbde79ca2	-0.11309172
134	0xbe0c1131	-0.13678433
135	0xbe16f70f	-0.14742683
136	0xbd948f24	-0.072538644
137	0xbd572c2d	-0.052532364
138	0x3c595244	0.013264243
139	0xbcc05533	-0.023478126
140	0x3d67baa4	0.05657448
141	0x3de6a2f5	0.1126155
142	0xbd80bdc6	-0.062861964
143	0xbc7bae17	-0.0153613305
144	0x3d83364c	0.06406841
145	0x3dd891bd	0.10574672
146	0xbcfd92e5	-0.030953834
147	0x3d1b1173	0.037858438
148	0x3c24ffd1	0.010070757
149	0x3c79cc6b	0.015246491
150	0x3db238c9	0.08702237
151	0x3d989b3f	0.07451486
152	0xbdb11904	-0.086473495
153	0xbd019ec3	-0.031645548
154	0x3cb8b1fe	0.02254581
155	0xbe113669	-0.14180912
156	0x3caafe0a	0.020873088
157	0xbba3cf1f	-0.004999056
158	0x3d0e4bfd	0.034740437
159	0x3d296aad	0.0413615
160	0xbe56b87a	-0.2096881
161	0xbe3223c8	-0.17396462
162	0xbdda411d	-0.106569506
163	0xbd6852cc	-0.056719586
164	0x3cb957b7	0.022624834
165	0xbe17f936	-0.1484116
166	0xbc09e81f	-0.008417158
167	0x3de7448b	0.112923704
168	0xbd6f7ba9	-0.05846754
169	0xbdf146fb	-0.117811166
170	0xbde052f8	-0.10953325
171	0x3c7c0212	0.015381353
172	0x3c59fb2c	0.013304513
173	0x3ca66542	0.020311955
174	0x3dd44d7e	0.10366343
175	0x3cf4bce0	0.029875219
176	0xbdfafb31	-0.12254942
177	0x3c546bfe	0.0129652005
178	0x3b400a79	0.0029303117
179	0xbc31b66c	-0.010846715
180	0x3e23a258	0.15979898
181	0x3d2a90bf	0.041641947
182	0xbca192b0	-0.019723266
183	0xbd9cf35e	-0.07663606
184	0x3d99b671	0.07505501
185	0xbc498204	-0.012299065
186	0xbe2a6b44	-0.16642481
187	0x3c3f0b1e	0.011660365
188	0xbdd60208	-0.10449606
189	0xbdfb73e1	-0.122779615
190	0xbe6203a7	-0.22071706
191	0xbdd7c038	-0.1053471
192	0xbd3db867	-0.046318438
193	0xbdabd7cc	-0.08390769
194	0x3d0a1252	0.033708878
195	0x3d2bbbc6	0.04192712
196	0xbe69cfa8	-0.22833121
197	0x3d491834	0.049095348
198	0xbcc08126	-0.023499083
199	0x3d96c37d	0.07361505
200	0x3d1be0ce	0.038056187
201	0xbdb99394	-0.090613514
202	0x3e069eed	0.13146563
203	0x3e270e5a	0.16314068
204	0x3e2cebda	0.16886845
205	0x3e36b6e3	0.17843203
206	0xbdfb4baf	-0.12270295
207	0x3b985d02	0.0046497593
208	0x3d99b2ea	0.07504828
209	0x3bfdcdee	0.007745496
210	0x3b2c1aec	0.0026261164
211	0xbb0b1a24	-0.0021225298
212	0x3ba6b7c4	0.0050878245
213	0xbc38926e	-0.01126538
214	0x3b73a8c3	0.0037179447
215	0xbc3bdde0	-0.011466473
216	0x3d868dab	0.0656999
217	0x3db4ec37	0.08834117
218	0xbc93c171	-0.018036576
219	0x3dd15718	0.1022169
220	0x3c220754	0.0098894425
221	0xbd78ed05	-0.060772914
222	0xbdc59dc9	-0.09649236
223	0x3b381a77	0.0028091946
224	0xbda58691	-0.08082307
225	0xbe33c8c9	-0.17557062
226	0x3c69a490	0.014260426
227	0x3c436623	0.011926207
228	0xbe4358da	-0.19076863
229	0xbd23d796	-0.04000052
230	0xbc5ca2f5	-0.013466586
231	0xbe539de6	-0.20665702
232	0xbe37b478	-0.17939937
233	0x3cad048d	0.021120334
234	0xbcc67495	-0.024225513
235	0xbe2a22bc	-0.16614813
236	0xbce97166	-0.028496455
237	0xbd40ba94	-0.047052935
238	0xbb29415b	-0.0025826308
239	0x3d04a246	0.03238132
240	0xbdd4177c	-0.10356042
241	0xbd8df757	-0.06931942
242	0xbdb86cf9	-0.0900516
243	0xbd6d821a	-0.057985403
244	0xbe09fa5d	-0.13474412
245	0xbdbbefb0	-0.09176576
246	0xbe0602a0	-0.13086939
247	0xbd297c8f	-0.041378554
248	0xbd002347	-0.031283643
249	0xbd4d93b8	-0.050189704
250	0xbdc5625f	-0.096379034
251	0xbbcd7f72	-0.006271296
252	0xbdba35f0	-0.09092319
253	0xbcec8fc2	-0.028877143
254	0x3c12db89	0.008963474
255	0xbe0edd32	-0.13951567

encoder_1_convlstm.conv.bias f4 [96]
0	0x3d948b22	0.072531
1	0x3d4c2a71	0.049845163
2	0x3cdb342c	0.026758276
3	0x3da7a300	0.08185387
4	0x3d3a6c7a	0.045513608
5	0x3e187f00	0.14892197
6	0x3d5d72df	0.054064628
7	0x3d3f10d8	0.046646923
8	0x3e1145cb	0.1418678
9	0x3e01ae2c	0.12664098
10	0x3d95165f	0.072796576
11	0x3dd233f8	0.102638185
12	0x3ce97c06	0.028501522
13	0x3d349fe4	0.044097796
14	0x3da3ec84	0.08004096
15	0x3df6fd40	0.12060022
16	0x3e10f936	0.14157566
17	0x3e399cd4	0.18126231
18	0xbc033d0b	-0.008010159
19	0x3d0f910b	0.035050433
20	0x3d6088af	0.05481785
21	0x3d0db187	0.03459313
22	0x3dc2d3e0	0.09513068
23	0x3db34d6a	0.08755
24	0x3db89215	0.09012238
25	0x3e19034b	0.14942662
26	0x3da933e4	0.082618505
27	0x3da1b3a2	0.0789559
28	0x3e150a19	0.14554633
29	0x3d42d8c4	0.047570005
30	0x3d27fb14	0.04101093
31	0x3d6b2bea	0.057414927
32	0x3da3c6c1	0.07996894
33	0x3e3dfb51	0.18552901
34	0x3dd528c4	0.10408166
35	0x3da45d9e	0.080256686
36	0xbca0b52d	-0.019617641
37	0x3ca2c64d	0.019869948
38	0x3e4874d9	0.19575824
39	0x3d918300	0.071050644
40	0x3e5c173c	0.21493238
41	0x3e389804	0.1802674
42	0x3b2a776f	0.002601113
43	0x3dc1f546	0.0947061
44	0x3e09ff08	0.13476193
45	0x3e0a2107	0.13489161
46	0x3d2ec50b	0.042668384
47	0x3e0294ad	0.12752028
48	0x3de2d4dd	0.11075757
49	0x3d36997e	0.044579975
50	0x3de4a4fb	0.1116428
51	0x3e0b25c1	0.1358862
52	0x3cfbe05e	0.030746635
53	0x3e14da4d	0.145364
54	0x3cd41e33	0.025893306
55	0x3d969042	0.07351734
56	0x3e294e20	0.16533709
57	0x3dd5eae5	0.10445193
58	0x3da64d90	0.081202626
59	0x3e644207	0.22290812
60	0x3d9f101f	0.07766747
61	0x3d23ece8	0.040020853
62	0x3e3828c2	0.17984298
63	0x3e598c9a	0.21245041
64	0x3d971b50	0.07378256
65	0x3e168c9b	0.14702074
66	0x3e18d61b	0.14925425
67	0x3e27bbe8	0.16380274
68	0x3d0032d1	0.031298462
69	0x3db96dd3	0.090541504
70	0x3dd2935c	0.10282013
71	0x3dfd1356	0.12357204
72	0xbca8cd34	-0.020605661
73	0xbc063978	-0.008192413
74	0x3d91b753	0.071150444
75	0x3c262ba7	0.0101422435
76	0x3a86c797	0.0010282871
77	0x3d2c766c	0.042105123
78	0xbd5a562a	-0.05330483
79	0xbccb121c	-0.024788909
80	0x3c1aa120	0.009437829
81	0xbda95eb9	-0.0827002
82	0x3d0bec89	0.034161124
83	0x3cca8509	0.02472164
84	0x3a6a47ca	0.0008937089
85	0xbd8a8b67	-0.0676487
86	0x3dce4669	0.100720234
87	0x3cfca69a	0.03084116
88	0xbc5b9f29	-0.013404646
89	0xbd446119	-0.047944162
90	0x3d7154a7	0.05891862
91	0xbae1dc83	-0.0017231855
92	0x3ad58578	0.0016290387
93	0x3cbc5fbf	0.022994874
94	0x3da070d1	0.07834018
95	0xbc42c3fd	-0.011887548

encoder_2_convlstm.conv.weight f4 [96, 48, 3, 3]
0	0xbcf4396d	-0.029812539
1	0x3c754d94	0.014972109
2	0x3d47a8f4	0.04874511
3	0xbbe7b85d	-0.0070715384
4	0x3db53519	0.08848018
5	0xbdb529be	-0.08845852
6	0xbcfb6cb1	-0.030691477
7	0x3e6b41f6	0.22974381
8	0xbd92bbea	-0.07164748
9	0x3e01db00	0.12681198
10	0x3ddaaf03	0.10677912
11	0x3db44b0a	0.08803375
12	0x3c5b8237	0.013397745
13	0x3deec68d	0.11658964
14	0x3cf22a0a	0.029561061
15	0x3dfe5b4c	0.12419757
16	0x3e3717d5	0.17880185
17	0x3da9ad0f	0.082849614
18	0x3e36022b	0.17774265
19	0x3dc9f6f8	0.09861559
20	0xbcd001ed	-0.025391543
21	0xbc8df1cb	-0.01732721
22	0xbd0ae2f6	-0.033907853
23	0xbe0d76b0	-0.13814807
24	0x3a9478f0	0.0011327546
25	0x3c910d54	0.01770655
26	0x3d8f230b	0.06989106
27	0x3d0c3c86	0.034237407
28	0x3e2abc34	0.16673356
29	0x3d4d9a03	0.050195705
30	0xbcb6a3ef	-0.022294967
31	0xbd995ffc	-0.07489011
32	0xbd1aa0f3	-0.03775115
33	0x3e36c950	0.17850232
34	0xbce0514a	-0.027382512
35	0xbdf5820e	-0.119876966
36	0x3d68e159	0.056855533
37	0x3a34d723	0.0006898513
38	0x3c8b53b1	0.01700768
39	0xbe95eded	-0.29283085
40	0x3e0a9934	0.13535005
41	0xbe91c9da	-0.28474313
42	0x3d78ced2	0.060744114
43	0xbe2db999	-0.16965331
44	0x3c404cab	0.011737029
45	0x3d43737e	0.047717564
46	0x3dd3a353	0.10333886
47	0x3d370f8f	0.044692572
48	0x3d8df131	0.06930769
49	0x3d48f8ef	0.049065527
50	0x3d722519	0.05911741
51	0x3c0acce9	0.008471706
52	0xbd3156ef	-0.043295797
53	0x3dcd2bc4	0.10018113
54	0x3b35b7ae	0.002772789
55	0x3c894758	0.016757652
56	0x3d2a8f5b	0.04164062
57	0xbe2739e9	-0.16330685
58	0xbbf66265	-0.0075190538
59	0xbd8d2fe0	-0.06893897
60	0xbd7669b2	-0.060159393
61	0xbe1a8164	-0.15088421
62	0xbe5be1bf	-0.21472834
63	0xbb65a31a	-0.0035039843
64	0xbc22ebcf	-0.009943916
65	0x3dba1563	0.090861104
66	0x3d93c662	0.07215573
67	0x3c4e7df2	0.01260327
68	0xbc5fa211	-0.0136494795
69	0x3d5dab81	0.054118637
70	0x3c3a017a	0.011352891
71	0x3dee6c6c	0.116417736
72	0xba76a899	-0.0009409278
73	0xbce97430	-0.028497785
74	0x3a5b0adf	0.0008355807
75	0xbd8ead50	-0.069666505
76	0xbcfcc57b	-0.030855885
77	0xbd30bb1a	-0.043147184
78	0xbc10b67c	-0.00883257
79	0xbd24ebe6	-0.040264033
80	0xbdb43061	-0.0879829
81	0xbd8d2098	-0.068909824
82	0xbd53754f	-0.051625546
83	0xbce7a6a0	-0.028277695
84	0xbd1c5551	-0.0381673
85	0xbe30dc0b	-0.1727144
86	0xbe26b5a9	-0.16280235
87	0x3d6c0389	0.05762056
88	0xbe40fc30	-0.18846202
89	0xbd8ead4e	-0.06966649
90	0xbd13d5f0	-0.0360927
91	0x3d84e7a5	0.06489495
92	0x3dc4b366	0.0960453
93	0xbced110c	-0.028938793
94	0x3d4f0fc7	0.050552156
95	0xbc779b6b	-0.015112738
96	0x3becb92f	0.007224224
97	0x3d7a6d52	0.061139412
98	0xbd8cd92b	-0.06877359
99	0x3d2b08fb	0.04175661
100	0x3d2dd858	0.04244265
101	0xbe1af069	-0.15130772
102	0xbcd2a5fe	-0.025713917
103	0x3e848f53	0.25890598
104	0x3d2e0c13	0.042491984
105	0x3e473ce6	0.19456825
106	0x3d9d4b5e	0.07680391
107	0x3dd9642e	0.10614811
108	0xbe0a587d	-0.13510318
109	0xbd800170	-0.06250274
110	0x3d2970a5	0.04136719
111	0xbb50ea57	-0.0031877959
112	0xbb983e80	-0.0046461225
113	0xbcc320f1	-0.023819419
114	0xbdb43e1b	-0.08800908
115	0xbb9b2a8c	-0.0047352966
116	0xbe3a009e	-0.18164298
117	0xbced31bf	-0.028954385
118	0xbdaa7cd7	-0.083245926
119	0x3c7c784b	0.015409539
120	0xbe2e68ea	-0.17032209
121	0xbe75d6a8	-0.24007666
122	0xbdc5f9dc	-0.096667975
123	0xbe0047cf	-0.12527393
124	0xbdf576fa	-0.119855836
125	0xbeb2f851	-0.34955075
126	0x3d91fc74	0.0712823
127	0xbda21414	-0.07913986
128	0x3d465abe	0.048426382
129	0x3e9b879b	0.30376896
130	0x3df6e3ad	0.120551445
131	0x3daa563f	0.083172314
132	0xbc311c2d	-0.01080994
133	0x3e512845	0.20425518
134	0x3e849157	0.25892136
135	0x3d938c1d	0.07204459
136	0x3d6c1f55	0.057647068
137	0xbd14d531	-0.036336128
138	0xbbee692d	-0.0072757215
139	0x3df00c2b	0.11721071
140	0xbd4b1908	-0.04958442
141	0x3bb2ef52	0.005460658
142	0x3db00784	0.085951835
143	0x3cc2a791	0.023761543
144	0xbe0e81cf	-0.13916706
145	0xbd14c91b	-0.0363246
146	0xbdfc98ae	-0.12333809
147	0xbda3a657	-0.07990711
148	0x3c454a0f	0.012041583
149	0x3c9a575f	0.01884049
150	0x3e774420	0.24147081
151	0x3ddc99b6	0.107715055
152	0x3d86eaf3	0.06587782
153	0xbd7e7f29	-0.062132988
154	0x3d1142ab	0.03546397
155	0xbc407828	-0.0117473975
156	0x3cd6b669	0.026210027
157	0x3e092e8e	0.13396665
158	0xbdb875d2	-0.090068474
159	0xbe20ad7d	-0.1569118
160	0xbca2d64c	-0.019877575
161	0x3e0b73d7	0.13618408
162	0xbe417dd8	-0.18895662
163	0xbb9050ce	-0.004404164
164	0x3e0c7274	0.13715535
165	0xbe71b70a	-0.2360498
166	0xbda0a412	-0.07843794
167	0xbdf219d3	-0.11821332
168	0x3d439c04	0.04775621
169	0xbd37b043	-0.04484583
170	0xbd866f3f	-0.06564187
171	0xbe214798	-0.15749967
172	0xbcbb47a7	-0.022861315
173	0x3e0734eb	0.1320378
174	0xbb4cb74b	-0.003123718
175	0xbd651f3b	-0.055937987
176	0xbdd3e243	-0.103458904
177	0xbce29ee2	-0.027663652
178	0xbdbb7af9	-0.091543145
179	0x3d537a46	0.05163028
180	0xbd70ffb0	-0.058837593
181	0x3d885c0d	0.06658182
182	0x3dc9a7e1	0.098464735
183	0xbbec4987	-0.0072109136
184	0x3d0d94ef	0.034565862
185	0x3d05fa79	0.032709572
186	0x3d398fe4	0.04530324
187	0xbc0bbb7c	-0.0085285865
188	0x3df6371d	0.12022231
189	0x3d84c5c8	0.06483036
190	0x3c1142cb	0.008866022
191	0x3d924813	0.07142653
192	0x3d8ee371	0.06976975
193	0xbdc4a898	-0.09602469
194	0xbe04d014	-0.1297
195	0xbdb32e2f	-0.08749043
196	0xbe289bfb	-0.16465752
197	0x3d841dae	0.064509735
198	0x3e1b2693	0.15151434
199	0x3e0d5079	0.13800229
200	0xbd9632ad	-0.073338844
201	0x3e115fbe	0.14196679
202	0x3cf893c4	0.030343898
203	0x3e4e29a4	0.20133072
204	0xbc0ff406	-0.008786207
205	0x3e6a6f3f	0.22894
206	0x3d671bfa	0.056423165
207	0x3d0fd51e	0.035115354
208	0x3d7c9e49	0.06167439
209	0x3ddf3134	0.108980566
210	0x3e3e3476	0.185747
211	0x3e2fc07a	0.17163268
212	0x3e228133	0.15869598
213	0xbe5bf7ae	-0.21481201
214	0xbde6b7f5	-0.11265556
215	0x3da62cfd	0.081140496
216	0xbe383a6d	-0.17991038
217	0xbec3819b	-0.3818482
218	0xbeade971	-0.33967164
219	0xbc6869c2	-0.014185371
220	0x3e09ca8f	0.13456176
221	0xbcae206d	-0.021255696
222	0x3d36ac11	0.04459769
223	0xbd844d80	-0.064600945
224	0xbd6571b7	-0.05601665
225	0x3c8e6279	0.01738094
226	0x3d362693	0.04447038
227	0x3de42fb0	0.11141908
228	0x3e782571	0.24233033
229	0xbc94f07e	-0.018181082
230	0x3c2c7d35	0.010527899
231	0x3eaafbbb	0.3339518
232	0x3e0e9ca1	0.13926937
233	0x3ebd934c	0.3702644
234	0xbdbf54c7	-0.09342342
235	0xbd169e5c	-0.036772117
236	0xbda76fd5	-0.08175627
237	0xbe174b96	-0.14774927
238	0xbdcf87ee	-0.101333484
239	0xbe2f11d2	-0.17096642
240	0x3c54cadd	0.0129878195
241	0xbb3acd10	-0.0028503574
242	0x3e3895b6	0.1802586
243	0x3dd8879c	0.105727404
244	0x3db8286e	0.08992086
245	0x3d9240d3	0.071412705
246	0x3d4742c1	0.048647646
247	0x3d91c459	0.071175285
248	0x3d7ec3f3	0.06219859
249	0xbd678cbc	-0.0565307
250	0x3c17415b	0.009231891
251	0x3ce377f7	0.027767165
252	0xbdb0a788	-0.08625704
253	0xbdd35a18	-0.103199184
254	0xbe298f62	-0.16558602
255	0xbd7ceec8	-0.061751157

encoder_2_convlstm.conv.bias f4 [96]
0	0x3de81bf2	0.11333455
1	0x3bb55f53	0.005535045
2	0x3e2afe6f	0.16698621
3	0x3de9b2b4	0.11411038
4	0x3e069fbd	0.13146873
5	0x3d3580d9	0.04431233
6	0x3dec3394	0.11533275
7	0x3ce6e8ad	0.02818712
8	0x3d7d022d	0.061769653
9	0x3e0f63e0	0.14002943
10	0x3d3b4561	0.04572046
11	0x3dc2c49d	0.09510157
12	0x3dd55f8c	0.10418615
13	0x3dde7e1d	0.10863898
14	0x3da428bf	0.08015584
15	0x3c638a50	0.013887957
16	0x3d1dd4ec	0.038533136
17	0x3d6e1da6	0.058133744
18	0x3db9c41e	0.090706095
19	0x3da4a03a	0.08038373
20	0x3d67e393	0.056613516
21	0x3dabfb71	0.08397568
22	0x3d1a31f1	0.037645284
23	0x3dced96b	0.10100063
24	0x3dafb13d	0.085787274
25	0x3db6b38e	0.08920966
26	0x3ddf7153	0.10910287
27	0x3d55fef5	0.0522451
28	0x3e1a702f	0.15081857
29	0x3d51c5fd	0.051214207
30	0x3da443ac	0.0802072
31	0x3da35665	0.07975463
32	0x3dd9bb55	0.10631434
33	0x3e35bf4b	0.17748754
34	0x3d9f92e4	0.07791689
35	0x3dfad021	0.12246729
36	0x3dbec3ca	0.093146876
37	0x3dca21d7	0.09869736
38	0x3d2c2252	0.042024918
39	0x3da2f1eb	0.079562984
40	0x3d15f1b7	0.03660747
41	0x3c17a9f5	0.0092568295
42	0x3da7dc85	0.08196358
43	0x3e2ff36b	0.171827
44	0x3ddf755a	0.10911055
45	0x3d1ac11a	0.037781812
46	0x3dcbc535	0.09949724
47	0x3dd26cb1	0.102746375
48	0x3decfaec	0.11571297
49	0xbb801702	-0.0039089927
50	0x3e25e308	0.16199887
51	0x3dd26cf2	0.10274686
52	0x3d0677e8	0.032829195
53	0x3d8989f1	0.06715763
54	0x3d9cacab	0.07650121
55	0x3c45c9f9	0.01207208
56	0x3d9e717c	0.07736489
57	0x3e12594e	0.1429188
58	0x3d8aa8f1	0.06770504
59	0x3da8637e	0.08222102
60	0x3dfc3d7c	0.12316415
61	0x3dcec877	0.100968294
62	0x3ca0a74b	0.019611022
63	0x3d99ea14	0.0751535
64	0x3c003304	0.007824663
65	0x3d0f6b73	0.03501458
66	0x3d3abcd5	0.04559024
67	0x3e028537	0.1274613
68	0x3d92aefe	0.07162283
69	0x3cb84a05	0.022496233
70	0x3d8670f9	0.065645166
71	0x3d0c3074	0.034225896
72	0xbd0a8e51	-0.03382713
73	0xbc0797fd	-0.008275983
74	0x3c8dd030	0.017311186
75	0x3c469ad8	0.012121879
76	0xbd5e59fe	-0.054285042
77	0x3c7771de	0.015102832
78	0x3c814dc8	0.01578416
79	0xbc8d90dd	-0.01728099
80	0x3d8a3c9d	0.06749842
81	0x3db14594	0.08655849
82	0x3d8c4f30	0.06851041
83	0x3a4db756	0.00078474486
84	0x3c9d637e	0.01921248
85	0x3c775cdf	0.015097826
86	0xbd807d6a	-0.06273921
87	0xbbafbb28	-0.005362887
88	0x3c9ae3f0	0.018907517
89	0xbd344347	-0.044009473
90	0xbce4d9ab	-0.027935823
91	0x3abf8bc6	0.0014613799
92	0xbd40d46e	-0.04707759
93	0xbd75306e	-0.05986064
94	0x3cfdbd4c	0.030974053
95	0xbd830fd3	-0.063995026

decoder_1_convlstm.conv.weight f4 [96, 48, 3, 3]
0	0xbeaf731e	-0.34267515
1	0xbee915a5	-0.45524326
2	0xbea1a12c	-0.31568277
3	0x3de1cfe7	0.11025982
4	0x3de52c5b	0.11190101
5	0x3c1efddc	0.0097040795
6	0xbe5e0da6	-0.21684894
7	0xbcc2ffb0	-0.023803562
8	0xbcbe50f5	-0.023231963
9	0x3d7f5739	0.06233904
10	0x3d242249	0.04007176
11	0xbd8c68a7	-0.06855898
12	0x3dc56438	0.09638256
13	0x3e05c69f	0.13064049
14	0x3cb10a50	0.021611363
15	0x3d7cab48	0.061686784
16	0x3d5a35fc	0.05327414
17	0x3c844667	0.016146852
18	0x3c8a51b4	0.016884662
19	0xbd0c46cb	-0.0342472
20	0x3d875ce6	0.06609516
21	0xbd9b17dc	-0.0757291
22	0x3e2bdf04	0.16784292
23	0xbdb0192a	-0.0859855
24	0xbe9f9061	-0.3116484
25	0xbe3c3ae4	-0.1838184
26	0x3d2a9a45	0.04165103
27	0x3eed5e09	0.46360806
28	0x3e6125df	0.21987103
29	0x3a393d50	0.0007066326
30	0x3ddc30a4	0.10751465
31	0x3d943257	0.07236164
32	0x3dadc7f9	0.084854074
33	0x3d18c86a	0.037300505
34	0x3e075fd7	0.13220154
35	0x3db7cbde	0.089744315
36	0xbd1b9568	-0.03798428
37	0x3cf6383b	0.03005611
38	0xbc1f11d9	-0.009708845
39	0xbd498955	-0.049203236
40	0xbd754660	-0.059881568
41	0x3d4ca974	0.04996629
42	0xbdbc7592	-0.09202112
43	0xbe0d3a4e	-0.13791773
44	0xbe42f411	-0.19038416
45	0xbd680119	-0.05664167
46	0xbd8151e5	-0.06314448
47	0xbc987e8f	-0.018615035
48	0xbe5a267d	-0.21303745
49	0xbe8c8d14	-0.27451384
50	0xbcbabd61	-0.022795381
51	0xbdfcb7fe	-0.12339781
52	0xbe2d8cd1	-0.16948248
53	0xbb938ba5	-0.004502731
54	0x3d0ca172	0.034333654
55	0x3d942298	0.07233161
56	0x3c5c1572	0.013432847
57	0x3db5c819	0.08876056
58	0x3d872856	0.0659949
59	0x3d2e70ac	0.04258792
60	0x3c8a0aae	0.016850796
61	0x3e0bb78b	0.13644235
62	0x3de7fbe3	0.113273405
63	0xbdc31bf1	-0.09526814
64	0xbd790bae	-0.060802154
65	0xbd85e851	-0.065384515
66	0xbd8d4889	-0.068986006
67	0xbdd75404	-0.105140716
68	0xbe18ae60	-0.14910269
69	0xbe24b093	-0.16082983
70	0xbd2f7efc	-0.04284571
71	0xbcd14986	-0.025547754
72	0x3e4ed706	0.20199212
73	0x3d9c3cd2	0.07628788
74	0x3d2e2a54	0.042520836
75	0x3d2ca205	0.0421467
76	0xbd59e94e	-0.053201012
77	0xbd09ddb4	-0.0336587
78	0x3dc955f3	0.09830847
79	0x3e117d36	0.1420792
80	0x3dc307b6	0.09522955
81	0x3c95cbd5	0.018285671
82	0xbbdbc825	-0.0067072087
83	0xbd868784	-0.06568816
84	0xbccac71c	-0.024753146
85	0xbd864378	-0.065558374
86	0xbe1558ca	-0.14584652
87	0x3d83d750	0.06437552
88	0xbd0854d4	-0.033284023
89	0x3cafcea2	0.021460835
90	0x3dde4fad	0.10855041
91	0x3d0d4ba3	0.03449596
92	0xba9e08d0	-0.001205707
93	0x3e448b62	0.19193795
94	0x3e0dc9b3	0.13846473
95	0x3d84ec31	0.064903624
96	0x3e8cb496	0.27481526
97	0x3e8f4972	0.27985722
98	0x3936dc7f	0.00017439014
99	0x3e1c3be2	0.15257218
100	0x3d7b026c	0.061281607
101	0x3c990480	0.018678904
102	0x3da2b947	0.07945495
103	0x3daf91bb	0.08572718
104	0xbc4dc678	-0.012559526
105	0x3d029015	0.03187569
106	0x3c0f8c75	0.008761515
107	0x3b7d9d0a	0.003869834
108	0x3eacc00a	0.33740264
109	0x3d508472	0.05090756
110	0x3d9dccfb	0.077051125
111	0x3e5f5c8c	0.21812648
112	0x3dd211fa	0.10257335
113	0xbd9c9dfe	-0.07647322
114	0x3e37b10a	0.17938629
115	0x3df87533	0.12131729
116	0x3da529bf	0.08064603
117	0xbe264018	-0.16235387
118	0xbe28b0f0	-0.16473746
119	0xbe371b71	-0.17881562
120	0x3d0054a0	0.031330705
121	0x3e25f8d9	0.16208209
122	0x3d9e0c1b	0.07717153
123	0x3e15cbdb	0.14628546
124	0x3e3a6254	0.18201572
125	0x3d0b8784	0.034064785
126	0x3d17eaa3	0.037089
127	0xbe126b1f	-0.14298676
128	0x3da16b95	0.07881848
129	0xbe22c162	-0.15894082
130	0xbe34a015	-0.17639191
131	0x3df61fbe	0.12017773
132	0x3c446dca	0.011989066
133	0x3d2b33be	0.041797392
134	0xbd0e6322	-0.03476251
135	0xbe630880	-0.22171211
136	0xbdf69c0d	-0.12041483
137	0x3e204f75	0.1565531
138	0xbed2d058	-0.4117458
139	0xbea12328	-0.31472135
140	0x3dd04f10	0.1017133
141	0xbe9db2b2	-0.30800396
142	0xbe1976d0	-0.1498673
143	0xbdb3433c	-0.08753058
144	0xbd60e50d	-0.05490594
145	0x3c7816e3	0.015142175
146	0xbd809b4c	-0.062796205
147	0xbdb8cc25	-0.090233125
148	0xbc44f121	-0.01202038
149	0x3e036d7f	0.12834738
150	0x3d927710	0.071516156
151	0x3c2bcf70	0.010486469
152	0x3c894647	0.016757144
153	0xbe90ae68	-0.2825806
154	0xbdb01b74	-0.08598986
155	0xbe36471e	-0.17800567
156	0xbefb2176	-0.49048966
157	0xbeb5bc88	-0.354954
158	0x3d952214	0.072818905
159	0xbb037a9d	-0.0020062097
160	0xbda72908	-0.08162123
161	0xbd8fb7a6	-0.0701745
162	0xbcd27f73	-0.025695538
163	0xbd8b3a47	-0.06798225
164	0x3d9b098f	0.075701825
165	0x3cb211d0	0.02173701
166	0x3dc7e948	0.09761292
167	0x3dabbcca	0.08385618
168	0x3da5c33b	0.08093878
169	0x3d0808a4	0.033211365
170	0x3d105f10	0.03524691
171	0x3d9a86a7	0.07545214
172	0x3d61392b	0.05498616
173	0x3d9909a0	0.07472539
174	0xbdb8a166	-0.09015159
175	0x3e405b82	0.18784907
176	0x3d9a6c1d	0.07540152
177	0x3e81b424	0.2533275
178	0x3e89a39e	0.26882643
179	0x3e8248d5	0.2544619
180	0xbd9ecda1	-0.07754064
181	0xbdf284b1	-0.11841715
182	0xbdea5a1a	-0.11442967
183	0xbddde731	-0.10835112
184	0xbc9e9295	-0.019357005
185	0xbdc7b61e	-0.09751533
186	0xbe4da3e9	-0.20082058
187	0x3dfcee9c	0.123501986
188	0x3c83a048	0.016067639
189	0xbed07f7e	-0.4072227
190	0x3d69217d	0.056916703
191	0x3e18145e	0.1485152
192	0xbe288cc9	-0.16459955
193	0xbe3e126f	-0.1856172
194	0xbe256cb4	-0.16154748
195	0xbcdc3ffb	-0.026885977
196	0xbde26c28	-0.110557854
197	0xbe082a9b	-0.13297503
198	0x3dd63a96	0.10460393
199	0xbcb0aa78	-0.02156566
200	0x3d11ee68	0.035627753
201	0x3dc21af9	0.09477801
202	0x3e04ff7d	0.12988086
203	0x3d57b9e7	0.052667525
204	0x3e6db718	0.23214376
205	0x3e05187c	0.12997621
206	0x3dde4930	0.10853803
207	0xbe2a6c3e	-0.16642854
208	0xbd8debe1	-0.06929756
209	0xbe16b4ef	-0.14717458
210	0xbe029062	-0.1275039
211	0xbd99d199	-0.07510681
212	0x3c50d9d8	0.0127472505
213	0xbdd5c099	-0.10437126
214	0xbe459bd9	-0.19297732
215	0xbd9a5d4c	-0.07537326
216	0xbe78d46f	-0.24299787
217	0xbe4aae2e	-0.19793007
218	0xbe2e1a0c	-0.17002124
219	0xbe544e52	-0.20733002
220	0xbc4b86d1	-0.012422279
221	0xbec313e9	-0.38101128
222	0xbe165f3a	-0.14684764
223	0xbdddb28a	-0.10825069
224	0xbd85248d	-0.06501112
225	0xbd3edce5	-0.04659738
226	0xbe0386a9	-0.12844338
227	0x3e352909	0.17691435
228	0xbcfe5a6d	-0.031048978
229	0x3cbe2bc4	0.023214228
230	0x3d205a3b	0.03914855
231	0x3dd233af	0.10263764
232	0x3d125f01	0.035735134
233	0xbd578469	-0.05261651
234	0xbea34194	-0.3188597
235	0x3dc89796	0.09794538
236	0xbc0563a4	-0.008141432
237	0x3ccc12ea	0.024911363
238	0xbd7c9319	-0.06166372
239	0x3dc8ed77	0.09810918
240	0x3f16dbac	0.5892894
241	0x3ec042f6	0.37551087
242	0x3e0e0ceb	0.13872115
243	0xbe382437	-0.17982565
244	0x3dedce85	0.11611656
245	0x3e348495	0.17628701
246	0x3e80b3a8	0.25137067
247	0x3eb53e72	0.35399204
248	0x3dc8eb23	0.09810474
249	0x3f11f9b0	0.5702162
250	0x3e34ff35	0.17675479
251	0x3d74aab8	0.059733123
252	0x3e3f9276	0.18708214
253	0x3d8d0066	0.068848416
254	0xbd15f039	-0.036606047
255	0xbda5c795	-0.08094708

decoder_1_convlstm.conv.bias f4 [96]
0	0x3d5858cf	0.05281907
1	0x3d907f3d	0.07055519
2	0x3dfac3bc	0.122443646
3	0x3d477eaa	0.04870478
4	0x3cbf8605	0.023379335
5	0x3d779a55	0.060449917
6	0x3df1267e	0.1177492
7	0x3d1260e0	0.03573692
8	0x3da59a4c	0.080860704
9	0x3d0ae54b	0.033910077
10	0x3e11a871	0.14224412
11	0x3d20cbaa	0.03925673
12	0x3d29a8d0	0.041420758
13	0x3dae3186	0.085055396
14	0x3d8d17f6	0.06889336
15	0x3d41cf11	0.047316615
16	0x3e14a52f	0.14516138
17	0x3d98ded8	0.07464379
18	0x3dd99305	0.10623745
19	0x3d60672d	0.054785896
20	0xbc3275a4	-0.0108923055
21	0x3bfc0ae1	0.0076917266
22	0x3e40a743	0.18813805
23	0x3da4188a	0.08012493
24	0x3d3c685b	0.04599796
25	0x3d473eb9	0.0486438
26	0x3d538e88	0.0516496
27	0x3d29207f	0.041290756
28	0x3d84787c	0.06468293
29	0xbb1258d3	-0.0022330775
30	0x3de82b69	0.11336405
31	0x3dc2c563	0.09510305
32	0x3d9375f6	0.07200234
33	0x3cf79d1d	0.030226285
34	0x3da50841	0.08058215
35	0x3d6eb66f	0.05827945
36	0x3c7c7dc6	0.015410846
37	0x3de31031	0.11087073
38	0x3c8d45c8	0.017245188
39	0x3df63059	0.1202094
40	0x3dae625a	0.08514853
41	0x3dacc131	0.08435286
42	0x3d87c147	0.066286616
43	0x3dcd4584	0.10023025
44	0x3d5c7558	0.053822845
45	0x3b610fff	0.003434181
46	0x3d3af0bc	0.04563974
47	0xbc4d8742	-0.012544455
48	0x3dd75e42	0.10516025
49	0x3e00b4a8	0.12568915
50	0x3d0de6f2	0.034644075
51	0x3e0abe36	0.13549122
52	0x3d189cdd	0.03725897
53	0x3e0ef58f	0.1396086
54	0x3de7bb9e	0.11315082
55	0x3dc7f972	0.09764375
56	0x3d2e0079	0.04248092
57	0x3de7ed9f	0.113246195
58	0x3dfd7e8d	0.12377653
59	0x3dd245bf	0.10267209
60	0x3dc28072	0.09497155
61	0x3db49608	0.08817679
62	0x3e069aac	0.1314494
63	0x3df55b33	0.119802855
64	0x3df0eb45	0.11763624
65	0x3db22792	0.08698954
66	0x3d9d7fb3	0.07690372
67	0x3dbd1b68	0.09233743
68	0x3d61c5b9	0.055120204
69	0x3d400b06	0.046885513
70	0x3dcdb070	0.100434184
71	0x3d9bf4de	0.07615064
72	0xbcd718bf	-0.026256917
73	0x3d12ac49	0.035808835
74	0x3cc75627	0.024333073
75	0xbd263605	-0.04057886
76	0x3d04c092	0.03241021
77	0x3d6ee72d	0.058325935
78	0xbd99597c	-0.07487771
79	0xbd079f9e	-0.033111207
80	0x3d53794d	0.051629353
81	0xbd86c95e	-0.065813765
82	0xbd1f699a	-0.03891907
83	0x3d1f2f23	0.038863312
84	0x3d2c0d26	0.042004727
85	0x3c9ab902	0.018887047
86	0x3d6fccb5	0.058544833
87	0xbd2aaf5b	-0.04167114
88	0xbdc9afea	-0.09848006
89	0x3d52da66	0.051477812
90	0xbc81c26b	-0.015839776
91	0xbd4f6c1f	-0.05064022
92	0xbcdaeceb	-0.0267243
93	0x3c71c62d	0.014756721
94	0xbcb21cff	-0.021742342
95	0x3d87a852	0.066239014

decoder_2_convlstm.conv.weight f4 [96, 48, 3, 3]
0	0x3cc2c68a	0.023776311
1	0xbd19c29d	-0.037539113
2	0xbd9bacf3	-0.07601347
3	0xbcce9629	-0.025218086
4	0xbd9ab806	-0.07554631
5	0xbe1eb7ef	-0.15499853
6	0xbe1694a6	-0.14705142
7	0xbd92a760	-0.071608305
8	0xbdcdf8e5	-0.100572385
9	0xbe1aee4d	-0.15129967
10	0xbe01257c	-0.12611955
11	0xba601a5c	-0.000854885
12	0xbdd8cb62	-0.10585667
13	0x3d8dc70a	0.06922729
14	0xbd40f99b	-0.047113042
15	0xbd93a4da	-0.07209177
16	0xbe509f65	-0.20373304
17	0x3ce06d27	0.027395798
18	0xbc26151c	-0.010136869
19	0x3d948e6f	0.072537296
20	0x3cb2ccc1	0.02182615
21	0xbdca6729	-0.098829575
22	0x3d69a490	0.057041705
23	0x3df9e5d3	0.122020386
24	0xbc6512fa	-0.013981575
25	0x3db10b10	0.08644688
26	0x3e5025b2	0.2032688
27	0xbdfabdf9	-0.12243266
28	0x3ea39dff	0.3195648
29	0x3e6f972b	0.2339751
30	0xbeb08d00	-0.34482574
31	0x3e73daf8	0.23813999
32	0x3e193aab	0.14963786
33	0xbcf504a5	-0.029909441
34	0x3d76eb79	0.060283158
35	0x3bd717c0	0.0065641105
36	0x3c2313b2	0.009953426
37	0x3d991d1f	0.074762575
38	0x3cef9fe1	0.02925104
39	0x3ca6234f	0.020280508
40	0x3d6daac7	0.058024194
41	0x3d766323	0.060153138
42	0xbb36dd4f	-0.0027902906
43	0x3cc5fd79	0.024168717
44	0x3dc517be	0.09623669
45	0xbe8b7192	-0.27235085
46	0x3ecca1d6	0.3996722
47	0x3d8e5c5f	0.06951212
48	0xbe93c685	-0.28862396
49	0x3e62bdc9	0.2214271
50	0x3e0e10e5	0.13873632
51	0xbe323390	-0.17402482
52	0xbdb2ac2e	-0.08724247
53	0x3d08bf82	0.03338576
54	0x3d258a1c	0.040414914
55	0x3d126809	0.035743747
56	0x3b085baf	0.00208066
57	0x3ba4698e	0.005017466
58	0xbd8c7fd5	-0.068603195
59	0xbe2c3f7e	-0.16821095
60	0xbdb9218b	-0.09039601
61	0xbe7691e8	-0.24079096
62	0xbe4dcd6f	-0.20097898
63	0xbc84db16	-0.01621775
64	0xbd62e1eb	-0.055391233
65	0xbd72704f	-0.059189137
66	0xbd2afa81	-0.041742805
67	0xbe4dfbb2	-0.20115545
68	0xbecc7e0d	-0.3993992
69	0x3d0e27f9	0.03470609
70	0xbdd62c94	-0.10457721
71	0xbb93c709	-0.004509811
72	0xbde09dd0	-0.109676
73	0xbcf82fa5	-0.030296156
74	0x3db58f78	0.08865255
75	0xbe59a3f1	-0.21253945
76	0x3c81b7e7	0.015834762
77	0x3dac0bf4	0.084007174
78	0x3e165df3	0.14684276
79	0x3d1dd71f	0.038535234
80	0x3e1037a0	0.14083719
81	0x3d7094ff	0.058735844
82	0xbd55bd88	-0.052182704
83	0xbdd39054	-0.10330263
84	0x3d877c6b	0.06615528
85	0xbe252dfe	-0.16130826
86	0xbe7fb695	-0.24971993
87	0xbe8adc07	-0.27120993
88	0xbe3939db	-0.18088476
89	0xbe364263	-0.17798762
90	0xbdade8d9	-0.08491678
91	0xbd6e624b	-0.05819921
92	0xbde238b4	-0.110459715
93	0xbb052a36	-0.002031935
94	0xbcbd306b	-0.023094377
95	0xbe326c07	-0.17424022
96	0x3cee7a4f	0.029111056
97	0xbe181f87	-0.14855777
98	0xbe87e821	-0.26544288
99	0xbdc2ee10	-0.09518063
100	0x3da4eeee	0.08053385
101	0x3d57790e	0.05260568
102	0xbe3419be	-0.17587945
103	0x3e129991	0.14316393
104	0x3ee36f97	0.44421074
105	0x3ec01fea	0.37524348
106	0x3e6b78e5	0.22995336
107	0x3e0ddd51	0.13853957
108	0x3cc0e4a5	0.023546526
109	0x3b34bc71	0.002757814
110	0xbc4115ad	-0.011784953
111	0xbd3bb446	-0.04582622
112	0x3cf9ebb1	0.030507894
113	0x3dfc0c63	0.1230705
114	0xbda1ff3c	-0.0791001
115	0x3dd266b5	0.10273496
116	0x3e777bd2	0.24168327
117	0x3e204af2	0.1565359
118	0x3ba31491	0.004976817
119	0xbcdc8522	-0.026918951
120	0xbe300aba	-0.17191592
121	0xbe164252	-0.14673737
122	0x3e683a2b	0.2267844
123	0x3e850498	0.25980067
124	0x3e719595	0.23592217
125	0x3e45c286	0.19312486
126	0x3d85eff2	0.065399066
127	0x3d0b2d3a	0.03397868
128	0x3de1755f	0.11008715
129	0xbba89bbb	-0.0051455176
130	0x3d3c66d5	0.045996506
131	0x3e367768	0.17818987
132	0x3ca627e0	0.020282686
133	0x3de94068	0.11389238
134	0x3e9e996a	0.3097642
135	0x3db7573d	0.08952186
136	0xbe36c07e	-0.17846867
137	0xbeb27408	-0.3485415
138	0x3e02da1b	0.12778513
139	0xbedb29b8	-0.42805266
140	0xbe1d9d44	-0.15392023
141	0xbe5ef8eb	-0.21774642
142	0xbd5a7d79	-0.053342316
143	0x3da9bc08	0.08287817
144	0xbd29f161	-0.041489962
145	0x3cb19aa7	0.02168019
146	0xbdc32861	-0.09529186
147	0x3ce44c3b	0.02786838
148	0x3d7d70fa	0.06187532
149	0xbd29e3d5	-0.041477043
150	0x3bb009bc	0.005372254
151	0xbd50c273	-0.05096669
152	0xbe0858e2	-0.13315156
153	0xbd469b75	-0.0484881
154	0x3e39f8d1	0.18161322
155	0x3c91fe86	0.017821562
156	0xbd5e4b39	-0.054270957
157	0x3e85024d	0.25978318
158	0x3e095c45	0.13414104
159	0x3d03a965	0.03214397
160	0x3de0c123	0.10974338
161	0x3d0d524d	0.034502316
162	0x3d17151b	0.036885362
163	0xbd018c85	-0.03162815
164	0xbd127ac6	-0.035761617
165	0xbd8347be	-0.06410168
166	0xbe6b808b	-0.22998254
167	0xbe5d1cda	-0.21593037
168	0xbe1354f7	-0.1438788
169	0xbe2f5c33	-0.17125015
170	0xbddb0fc5	-0.10696367
171	0x3df3c4dd	0.11902783
172	0x3d210911	0.039315287
173	0xbd03b4b7	-0.032154765
174	0x3e1b403a	0.15161219
175	0x3dcfc553	0.101450585
176	0xbb7858bd	-0.003789469
177	0xbdff9709	-0.124799795
178	0x3e2f4c80	0.17119026
179	0xbdd8ed4a	-0.10592134
180	0x3e5737bc	0.21017355
181	0xbd5dd15a	-0.05415473
182	0xbeda589b	-0.42645726
183	0x3c5a0dc1	0.013308943
184	0x3ddc2fe3	0.10751321
185	0x3dd2db99	0.10295791
186	0x3e584f08	0.21123898
187	0xbe3e0522	-0.18556646
188	0xbdb66330	-0.08905637
189	0xbdae4474	-0.0850915
190	0xbe0a1914	-0.13486129
191	0xbd3d56f6	-0.04622551
192	0xbda70b5f	-0.08156466
193	0xbc94b500	-0.018152714
194	0x3dd3a3c6	0.10333972
195	0x3c7311cc	0.014835786
196	0xbd45a115	-0.048249323
197	0x3dcef1cf	0.10104715
198	0x3e887c6b	0.26657423
199	0x3e0dc2ce	0.13843843
200	0x3dd77826	0.10520963
201	0x3d630636	0.055425845
202	0xbd99f7cc	-0.07517967
203	0xbe70db38	-0.23521125
204	0xbe516f5d	-0.20452638
205	0xbe130921	-0.14358951
206	0xbe16a19b	-0.14710085
207	0xbe146cb2	-0.14494589
208	0x3c72fbf8	0.014830582
209	0x3e8e0111	0.2773519
210	0xbdc09fab	-0.09405454
211	0xbd8a2f73	-0.067473315
212	0x3e1cf487	0.15327655
213	0x3dc8de95	0.09808079
214	0x3d090295	0.033449728
215	0x3d31bc6c	0.043392584
216	0x3e86e60c	0.26347387
217	0x3ea3240c	0.3186344
218	0x3d920af6	0.07130997
219	0x3c88d6ce	0.01670399
220	0x3d349492	0.044087
221	0xbd314926	-0.04328265
222	0x3d3a758f	0.04552227
223	0x3d0c66e8	0.034277827
224	0x3d667ed3	0.056273293
225	0xbc84da6d	-0.016217435
226	0x3cd155cd	0.025553608
227	0x3d9b4d3a	0.07583089
228	0x3caa7fc6	0.02081288
229	0x3d29fa60	0.04149854
230	0x3e169283	0.14704327
231	0x3d34d8f9	0.044152234
232	0x3e85971a	0.26091844
233	0x3edc4aa4	0.43025696
234	0xbdfd295e	-0.12361406
235	0xbe0f690a	-0.14004913
236	0xbce15e39	-0.02751075
237	0xbe5dda2e	-0.2166526
238	0xbd7581c5	-0.05993821
239	0x3b0fa2a5	0.0021917012
240	0xbc2ab6a5	-0.010419522
241	0x3d827ff9	0.06372065
242	0x3cb8e416	0.022569697
243	0x3e01eeca	0.12688747
244	0x3dd4b9e3	0.103870176
245	0xbbc1e860	-0.005917594
246	0xbd88e4da	-0.06684275
247	0xbda88581	-0.08228589
248	0xbe09467d	-0.13405795
249	0xbe57dce8	-0.21080363
250	0xbd8dae67	-0.0691803
251	0xbc84ac6d	-0.0161955
252	0x3e98f8a6	0.29877204
253	0x3d10a1f2	0.035310693
254	0xbdadaf4c	-0.08480701
255	0x3d9e47f9	0.077285714

decoder_2_convlstm.conv.bias f4 [96]
0	0x3ddb3906	0.10704236
1	0x3dcf4bea	0.10121901
2	0x3df28d67	0.118433766
3	0x3ebd77c6	0.37005442
4	0x3d8206e6	0.06348972
5	0x3e8d0ac1	0.27547267
6	0x3d8eeb2d	0.0697845
7	0x3e3f4580	0.18678856
8	0x3e794d1e	0.24345824
9	0x3dda8156	0.106692
10	0x3b2e5334	0.0026599886
11	0x3e34968a	0.17635551
12	0xbd31a807	-0.043373134
13	0xb9565621	-0.00020440716
14	0x3e2b44f7	0.16725527
15	0x3d4e0741	0.050299887
16	0x3df91d4f	0.12163793
17	0x3e2fa24f	0.1715176
18	0x3d48fe11	0.04907042
19	0x3cf88192	0.030335221
20	0xbd02a71d	-0.031897653
21	0x3e2d060f	0.16896842
22	0x3e1b920a	0.15192428
23	0x3da0f1f7	0.07858651
24	0x3b01c7c6	0.0019802912
25	0x3d0b2ef3	0.03398032
26	0xbc1f62cf	-0.009728148
27	0x3d851caf	0.064996116
28	0xbbbaf4dc	-0.005705459
29	0x3ce77313	0.028253114
30	0xbd065bea	-0.0328025
31	0xbc176094	-0.009239335
32	0x3dbe6976	0.09297459
33	0x3db4d0ac	0.088288635
34	0xbdecc03a	-0.11560102
35	0xbbb7b4d2	-0.0056062723
36	0xbdb9ec13	-0.09078231
37	0xbda1fe9a	-0.079098895
38	0x3d3d7476	0.046253644
39	0x3d057866	0.032585524
40	0xbc8b5545	-0.017008433
41	0x3d628e12	0.05531127
42	0xbb6f2c02	-0.0036494737
43	0x3c5150f4	0.012775648
44	0xba5fd272	-0.00085381337
45	0x3c742d0f	0.014903321
46	0xbcb26621	-0.021777214
47	0xbd1c220e	-0.038118415
48	0x3e053c9f	0.13011406
49	0x3dd4451f	0.10364746
50	0x3d9f7baf	0.07787263
51	0x3deeb3be	0.11655377
52	0x3df50ed2	0.119657174
53	0x3e38fd7a	0.18065444
54	0x3e19d1d5	0.15021451
55	0x3e2cfec4	0.1689406
56	0x3e4e9506	0.20174035
57	0x3e13e0b6	0.14441189
58	0x3dc380de	0.09546064
59	0x3d42eace	0.04758721
60	0x3d4eddb8	0.050504416
61	0x3c47a7bc	0.012185987
62	0x3e1cee75	0.15325339
63	0x3b0acbe0	0.0021178648
64	0x3d0fa289	0.035067115
65	0x3ddde41b	0.10834523
66	0x3d8b88dd	0.06813214
67	0x3db11336	0.08646242
68	0x3d3a9dd7	0.045560684
69	0x3e0ee9aa	0.13956323
70	0x3dd1edfb	0.10250469
71	0x3d8147e3	0.063125394
72	0xbcd7470a	-0.026278991
73	0x3cd51051	0.026008757
74	0x3d238025	0.03991713
75	0x3e048712	0.1294215
76	0x3cfd26c1	0.030902268
77	0xbe02328e	-0.12714598
78	0x3c254f3c	0.010089692
79	0xbdcfb597	-0.101420574
80	0xbb3d6a18	-0.0028902348
81	0x3e26da5e	0.16294238
82	0x3df944a1	0.12171293
83	0x3c66f010	0.014095321
84	0x3d75806f	0.059936937
85	0x3c134e8b	0.008990894
86	0x3ca62e38	0.02028571
87	0x3d8ded35	0.06930009
88	0x3c7f8153	0.015594798
89	0xbc974689	-0.018466251
90	0x3d60d1ab	0.054887455
91	0x3cb33c82	0.021879438
92	0x3c610de0	0.013736218
93	0xbd5846d3	-0.05280192
94	0xbc703661	-0.014661402
95	0xbd176d01	-0.03696919

decoder_CNN.weight f4 [8, 24, 1, 3, 3]
0	0x3e66eb13	0.22550611
1	0x3e0a5a9a	0.13511124
2	0x3d3d5f4e	0.046233468
3	0x3e94f0cf	0.29089972
4	0x3dda178a	0.10649021
5	0xbdfa4efd	-0.12222097
6	0x3d06c7d3	0.03290541
7	0xbc3c79a7	-0.011503614
8	0xbd0b29bb	-0.033975344
9	0x3d607b03	0.054804813
10	0xbbe07e25	-0.006850975
11	0xbc3bf554	-0.011472065
12	0x3cebecbf	0.028799413
13	0x3a235747	0.0006230962
14	0x3d207101	0.03917027
15	0x3defbd5b	0.117060386
16	0xbceb9aad	-0.028760279
17	0x3c0908e6	0.008363938
18	0x3c3a3c2d	0.011366886
19	0xbd2532f8	-0.04033181
20	0x3bfe4511	0.007759698
21	0xbd0b50cd	-0.034012605
22	0xbe1ccd39	-0.15312661
23	0xbde977cc	-0.113998026
24	0xbd6e87d8	-0.05823502
25	0xbda57c7d	-0.08080385
26	0xbdd4c980	-0.103899956
27	0xbea4832e	-0.32131332
28	0xbda2e51d	-0.07953856
29	0xbea68dbc	-0.3253001
30	0xbe43d414	-0.1912387
31	0xbe832091	-0.25610784
32	0xbddc1123	-0.10745456
33	0x3d91fc5c	0.07128212
34	0xbdf27b2e	-0.11839901
35	0xbe7cf27f	-0.2470188
36	0xbd43005c	-0.047607765
37	0xbdbed339	-0.09317631
38	0x3dd2eb0e	0.102987394
39	0x3e085c90	0.1331656
40	0x3dd317eb	0.10307296
41	0x3caab47d	0.020838017
42	0x3beb7de1	0.007186637
43	0x3d0f3058	0.034958214
44	0xbda0ac8c	-0.07845411
45	0xbe0cb4ca	-0.1374084
46	0xbd5e6a07	-0.054300334
47	0xbc8bcdb8	-0.017065868
48	0xbde181a5	-0.11011056
49	0xbda676de	-0.08128141
50	0x3b426a6b	0.002966548
51	0xbd0fa97b	-0.03507374
52	0xbd075b36	-0.03304597
53	0x3d540ef9	0.05177209
54	0xbceac1c5	-0.02865685
55	0x3d66fdd7	0.056394424
56	0x3c8b08de	0.016972002
57	0x3d956c01	0.07295991
58	0x3d4ed261	0.0504936
59	0xbbe825e7	-0.0070845964
60	0xbaf4508a	-0.0018639725
61	0xbbeedb06	-0.007289293
62	0xbd735d0b	-0.059414905
63	0xbece3100	-0.4027176
64	0x3cb62e80	0.02223897
65	0x3d5fb13d	0.054612387
66	0xbd350531	-0.044194404
67	0xbec0a19c	-0.37623298
68	0xbd719e6f	-0.058988985
69	0x3e431659	0.19051494
70	0xbe1fdb3b	-0.15610974
71	0xbdbbd1a7	-0.091708474
72	0x3d19b72f	0.037528213
73	0xbe54530b	-0.20734803
74	0x3d6063cb	0.05478267
75	0x3e0c5595	0.13704522
76	0xbd81c3ee	-0.06336199
77	0xbe16a9c6	-0.14713201
78	0x3cc8d7ff	0.024517057
79	0xbe7b89c0	-0.24564266
80	0xbc3ae253	-0.011406499
81	0xbd9c5743	-0.07633831
82	0x3d558cb8	0.052136153
83	0x3e05ad82	0.13054469
84	0xbda18f3e	-0.078886494
85	0xbdd2b005	-0.10287479
86	0xbd4bd35b	-0.04976211
87	0x3d727566	0.05919399
88	0x3c98988d	0.01862743
89	0x3b0be42e	0.0021345722
90	0xbca7ad06	-0.020468246
91	0x3d0d0356	0.03442701
92	0x3e06814d	0.13135262
93	0xba64b555	-0.00087245303
94	0xbc54cc8a	-0.012988219
95	0x3d3dc29c	0.046328172
96	0x3c3cf454	0.011532862
97	0x3a57aa6d	0.00082269945
98	0x3d3d1dae	0.046170883
99	0x3dac3560	0.08408618
100	0xbddda391	-0.108222134
101	0x3db1ae9d	0.08675883
102	0x3d0052a0	0.031328797
103	0x3e24cd0d	0.16093846
104	0x3e88db61	0.26729873
105	0xbd1a91c6	-0.037736677
106	0x3ca7923a	0.020455468
107	0x3d309e08	0.04311946
108	0x3d4be3c7	0.049777772
109	0x3db1fa78	0.08690351
110	0xbd23f0fa	-0.040024735
111	0xbd1522a0	-0.036409974
112	0x3e1fe455	0.15614446
113	0x3c143ebf	0.009048163
114	0xbd8a89d8	-0.06764573
115	0xbc6e4e98	-0.014545105
116	0xbd9d54c9	-0.07682187
117	0x3d36b233	0.044603538
118	0x3ddef234	0.1088604
119	0x3dd730a9	0.10507328
120	0x3d941d8b	0.072321974
121	0xbcb7d3e6	-0.022439908
122	0x3cc18dd7	0.023627205
123	0xbdfa8bfc	-0.12233731
124	0x3c3c015b	0.011474933
125	0x3bce3e0b	0.006294017
126	0x3cd3caf5	0.025853613
127	0x3c58fcaa	0.013243834
128	0x3ca9660c	0.020678543
129	0xbd93df90	-0.072203755
130	0x3c04ac50	0.008097723
131	0x3df4befa	0.119504884
132	0x3dce001f	0.10058617
133	0xbd9b18af	-0.075730674
134	0xbaa4dcc2	-0.0012577998
135	0x3da052f8	0.07828325
136	0xbc2849f8	-0.010271542
137	0x3c4fa4b6	0.0126735475
138	0x3c41d3b4	0.011830259
139	0x3dd6c0e2	0.10486008
140	0x3c8fc10f	0.017548112
141	0xbe6a3564	-0.2287193
142	0xbda43fe0	-0.08019996
143	0x3cf536c4	0.02993334
144	0xbe75e45f	-0.24012898
145	0xbe391804	-0.18075567
146	0xbdf2ab03	-0.11849024
147	0x3ceec698	0.029147431
148	0xbe35577c	-0.17709154
149	0xbd8e5746	-0.0695024
150	0x3dfb1f4e	0.1226183
151	0x3c147757	0.009061656
152	0xbd777311	-0.06041247
153	0x3db56476	0.08857052
154	0x3db75140	0.08951044
155	0xbe02aa81	-0.12760355
156	0xbde8be7e	-0.113644585
157	0xbe7d110c	-0.24713534
158	0xbe735408	-0.23762524
159	0xbc6fd090	-0.0146371275
160	0x3b8840dd	0.004158123
161	0x3e21f073	0.1581438
162	0x3d9de595	0.07709805
163	0x3e06e14a	0.13171878
164	0xbdb3eec4	-0.08785775
165	0x3de9e721	0.114210375
166	0xbd8cc19e	-0.06872867
167	0xbe4014e8	-0.18757975
168	0x3c24fd6b	0.010070185
169	0x3dfd7766	0.12376289
170	0x3e4c07d1	0.19924857
171	0xbe170a0a	-0.14749923
172	0xbe9bc531	-0.30423883
173	0x3e0e6c21	0.13908435
174	0xbdf286e0	-0.118421316
175	0xbe2d2113	-0.16907148
176	0x3da4714e	0.08029424
177	0xbbdfe30e	-0.006832487
178	0xbd5981bd	-0.053102244
179	0xbd871465	-0.06595687
180	0x3ccb0549	0.024782794
181	0x3e266eb5	0.16253169
182	0xbe1f8bcf	-0.15580676
183	0x3e9517af	0.29119632
184	0x3e21e410	0.15809655
185	0xbe2bee46	-0.16790113
186	0xbdc9f8ff	-0.09861945
187	0xbe05f098	-0.1308006
188	0xbe052746	-0.13003263
189	0x3ce011e4	0.02735228
190	0xbdadfdf2	-0.08495702
191	0xbca5f0ae	-0.020256367
192	0xbd2c1ab9	-0.042017672
193	0x3d8b2488	0.06794077
194	0xbdfa69c8	-0.122272074
195	0xbd1d81a7	-0.038453724
196	0xbcac68e8	-0.021046117
197	0x3cc57be0	0.02410692
198	0xbcfa6ab8	-0.030568466
199	0xbd3b7a22	-0.04577077
200	0xbd7680d1	-0.060181443
201	0xbd4ce883	-0.050026428
202	0xbd839d56	-0.06426494
203	0xbdce494c	-0.10072574
204	0xbc4c841c	-0.012482669
205	0x3b86c696	0.0041130288
206	0x3d739e88	0.05947736
207	0xbe62d895	-0.22152932
208	0xbd970ea9	-0.07375843
209	0xbd1c2798	-0.038123697
210	0x3dd27784	0.10276702
211	0xbbae450e	-0.0053182906
212	0xbc23a7db	-0.00998875
213	0x3cbb46db	0.022860935
214	0xbe00acc0	-0.12565899
215	0xbd519406	-0.051166557
216	0xbbd7c6b1	-0.006584965
217	0x3bcfcc07	0.0063414606
218	0x3e8ccf30	0.27501822
219	0xbcbb0850	-0.022831112
220	0x3e3e2cdd	0.18571801
221	0xbd1841b2	-0.037172027
222	0xbe23ea60	-0.16007376
223	0xbd2dd0db	-0.04243551
224	0xbd8d336e	-0.06894575
225	0x3c4c1d61	0.012458176
226	0xbcc63419	-0.024194764
227	0x3ec91dbe	0.39280504
228	0xbe3e5a58	-0.18589151
229	0xbe533462	-0.20625451
230	0x3d1a2dab	0.03764121
231	0x3d26f331	0.04075927
232	0x3d13604e	0.035980515
233	0xbbc3c50e	-0.0059744185
234	0xbd87da10	-0.06633389
235	0x3caa782b	0.020809254
236	0x3e4b9a29	0.19883026
237	0x3d9333e3	0.07187631
238	0x3db84060	0.089966536
239	0x3c804fbf	0.015663026
240	0x3d106362	0.03525103
241	0xbe098c0f	-0.13432334
242	0xbd6811b9	-0.056657527
243	0x3e86cd90	0.26328707
244	0xbd7cf08b	-0.061752837
245	0xbe8a1d28	-0.2697537
246	0xbe44dac9	-0.19224085
247	0x3c706dc3	0.014674607
248	0x3cf7ded8	0.030257627
249	0x3e0ffd9f	0.14061593
250	0xbd1d5da4	-0.03841938
251	0x3e594c09	0.21220411
252	0x3ea8cb17	0.32967445
253	0x3e2fa80d	0.1715395
254	0xbf43f696	-0.76548135
255	0x3eb088e2	0.34479433

decoder_CNN.bias f4 [8]
0	0xbdd1714f	-0.1022669
1	0xbd7fdcef	-0.062466558
2	0xbd838bd1	-0.06423152
3	0xbd8a7b12	-0.06761755
4	0x3e83a765	0.2571365
5	0x3e220365	0.15821607
6	0xbc884657	-0.016635103
7	0xbdb143c7	-0.086555056
