models/conv3d/saved_models/lr_0.00005/epoch_9200.pt (torch, 189474 bytes, 102 tensors)

model1.0.weight f4 [16, 8, 3, 3, 3]
000000 a1 23 18 bd ce 13 87 3c 22 34 49 bd ca 9a 0b 3d
       -0.037143353 0.016488936 -0.049121983 0.034083165
000010 e7 ac 19 bd 59 d4 e9 3b 1a 34 44 3d de 73 9c bd
       -0.03751841 0.0071359095 0.04790125 -0.076392874
000020 94 ed 27 3d c0 a7 18 bd bf 97 1f 3d 83 e0 e3 bd
       0.040998057 -0.037269354 0.038963076 -0.111268066
000030 a4 41 df 3d 60 2f 07 bc b8 8c a4 3c 38 9c b1 3c
       0.10901192 -0.008251041 0.020086631 0.021680936
000040 f4 b6 20 bd e5 d9 78 3c dc 1d 8f bc 7c 95 36 bd
       -0.039236978 0.015188669 -0.017470293 -0.044576153
000050 10 d9 47 bc 8d bb 44 3d 20 65 35 bd 3b e4 cb bc
       -0.012197748 0.048030425 -0.044285893 -0.024889102
000060 11 ff 67 3d 92 bb c6 39 93 22 ec 3a 33 04 6d 3b
       0.056639735 0.00037905254 0.0018015675 0.0036165833
000070 b1 ed e4 3c d2 0c 8c bd 6c d3 1c 3c 30 8d a5 bd
       0.027945371 -0.06838383 0.009571891 -0.0808357
000080 a5 19 98 3d 5d 4f 10 bd 65 8b 20 bd 8a eb d3 bc
       0.07426766 -0.035231937 -0.039195437 -0.02586915
000090 74 4d 13 ba b0 69 6c 3d 99 e6 9d bc 78 56 de 3d
       -0.00056191464 0.05771798 -0.019274997 0.10856336
0000a0 b9 16 cf ba a8 8c 11 3c 42 32 55 3d 55 28 90 bd
       -0.0015799619 0.008883633 0.052049883 -0.07038943
0000b0 29 72 d4 bc 66 18 fd bc 33 f1 f3 3c 9e da 43 bc
       -0.025933342 -0.030895423 0.029778099 -0.011953978
0000c0 9e 70 83 3d 88 5f 0f bd ab 82 12 3d 24 2f 9b 3a
       0.064179644 -0.035003215 0.035769146 0.001183961
0000d0 7a 72 34 bd ad de c9 3c a9 9b 3b bd c5 a1 03 3d
       -0.044054486 0.024642313 -0.045802746 0.032136697
0000e0 bd b5 2b 3c 9a 1b 07 3d 0a 6d ad 3c 0a 9c 90 bd
       0.0104803415 0.032985307 0.021170158 -0.07061012
0000f0 7f 2c d3 bc c9 62 b1 3b 2f 46 5b bd 0c ff 14 bb
       -0.025778053 0.0054133874 -0.05353373 -0.0022735028
000100 9d 5a 7a bc 11 8e be bc 92 32 35 bd 36 fd e7 3a
       -0.015280393 -0.023261102 -0.04423768 0.0017699364
000110 d7 53 dc bc 6e 7b b1 3d 45 70 81 bd e9 fa ad bc
       -0.026895447 0.086661205 -0.06320242 -0.021237807
000120 2c f1 8c bb b2 16 83 3b a8 a2 8f bd 67 d4 b9 3c
       -0.004301211 0.004000508 -0.07013446 0.02268429
000130 de c9 32 3a ff e2 95 3c 20 f3 9f 3b a7 b3 ad bc
       0.00068202417 0.018296717 0.0048812777 -0.021203829
000140 21 ac 9f bd 8e ac 25 bd c5 f6 8b bd 13 6d 4a bd
       -0.07796503 -0.040447764 -0.06834177 -0.049420428
000150 17 d5 15 be c6 f6 0f 3b 79 96 bc 3c bd ae d4 3d
       -0.14632069 0.0021967157 0.02302097 0.10384891
000160 96 f6 f2 bb 91 52 34 bd 13 99 24 3d 6a 6e b7 bc
       -0.0074146492 -0.044024054 0.040185045 -0.022391517
000170 92 8a ca bb 59 a3 4c be 28 b2 72 bd 16 18 b9 bd
       -0.0061810696 -0.19984187 -0.059251934 -0.09037797
000180 23 45 4f 3d be a4 a0 3c 66 08 b7 bc c7 83 e4 bc
       0.050603043 0.019609805 -0.022342872 -0.027894868
000190 44 fd f8 bb 4a 09 4c bd 95 e5 94 bc c8 10 19 bd
       -0.007598551 -0.049813546 -0.01817588 -0.03736952
0001a0 64 9d 9a 3c cd 10 ce ba 73 11 78 bd cf 17 00 3d
       0.018873878 -0.001572156 -0.060563516 0.031272706
0001b0 20 88 50 3d f0 bb 88 3c 12 63 b8 bc 3d a3 8d bc
       0.05091107 0.016691178 -0.022508178 -0.017289752
0001c0 12 ed 82 bd b7 12 0b bd d3 a8 df bc 5d a0 0b 3d
       -0.06392874 -0.033953395 -0.027302181 0.03408848
0001d0 62 d0 9e bd 6c 9c d5 ba f9 eb b7 3d dc 56 26 3c
       -0.077545896 -0.0016297228 0.08980555 0.010152545
0001e0 99 99 9e 3c 87 a9 c6 bd ee 21 2e 3d 12 70 92 bd
       0.01936035 -0.097003035 0.042512827 -0.07150282
0001f0 a3 fc 53 bd 09 9b 46 bc 5d 02 db bc 8e 0a 6b 3d
       -0.051754605 -0.012121924 -0.026734525 0.057383113
000200 43 d9 c5 bc 11 56 99 bc 61 de ee bc 2f 60 8f 3d
       -0.02415145 -0.018717797 -0.029158773 0.070007674
000210 06 da eb bc 3e 32 0d 3d 8d c7 1f 3d 10 ba 14 bd
       -0.028790485 0.034471743 0.039008666 -0.036310256
000220 2f 38 a3 bb 83 02 ee 3c ea 86 0b 3a dd 40 90 bd
       -0.004981063 0.029053932 0.0005322533 -0.07043622
000230 29 fe 25 3c b9 a3 14 3d 1c 19 c4 3c a2 8a 21 3d
       0.010131397 0.03628895 0.023937754 0.03943885
000240 07 af 50 bd fb a6 f0 bc 35 b3 29 3b 46 b6 d4 3b
       -0.05094817 -0.029376497 0.002589417 0.0064914552
000250 ab 5c 90 bd e1 91 8d bd ba 03 2e bd bc 56 8f bd
       -0.07048925 -0.0691259 -0.042484023 -0.06998965
000260 6c 90 06 bd a6 b7 d8 ba 78 04 ee 3c c4 c3 52 3d
       -0.032852575 -0.0016534224 0.029054865 0.051456228
000270 00 7b 52 bd 77 bb f7 bc 03 ea 1f 3d f7 32 b3 bc
       -0.051386833 -0.030240757 0.03904153 -0.021874888
000280 54 de 23 3d 21 42 6e bd c0 6b 0d bd be 10 e1 3c
       0.04000695 -0.058168534 -0.034526587 0.027473804
000290 1c ab 77 bc 64 40 8f 3d df f8 a2 bc 91 79 45 3d
       -0.015116479 0.069947034 -0.019894062 0.048211638
0002a0 50 64 97 3d f5 21 76 bd 98 15 6b bb c9 2f 26 bd
       0.0739218 -0.060090978 -0.0035871025 -0.040572915
0002b0 02 a9 1f bd 7b aa 9e bc ca b8 25 3d 4c e1 c8 bb
       -0.038979538 -0.0193684 0.04045943 -0.006130373
0002c0 48 b7 9b 3d a2 12 5f bc 7f 4a c9 3d be ec 2a 3c
       0.076033175 -0.013615282 0.09828662 0.01043242
0002d0 e1 53 e9 bb 89 ee ae 3c 61 b2 8e bc 96 ed 3e 3d
       -0.007120595 0.021353977 -0.017419042 0.0466133
0002e0 1b 50 93 bd 7c e0 96 3d 8c 7f 01 bd e9 26 be 3c
       -0.07193013 0.07367036 -0.03161578 0.023211913
0002f0 2c 66 78 bc da c8 38 bd da 0d b2 bc 26 fd 26 bc
       -0.015161078 -0.045113422 -0.02173512 -0.010192191
000300 9a 3a 9b 3c b0 6d a5 bd 02 22 a8 bd 75 6b 94 bb
       0.018948842 -0.08077562 -0.082096115 -0.0045294114
000310 c0 c3 64 3d 23 8f 75 bc 99 1a d2 3d 3f 1a 81 bd
       0.055850744 -0.01498774 0.10258979 -0.06303834
000320 b3 24 2a bd 6b 7f 19 bd 87 11 61 bc 9f 66 ae bd
       -0.041538905 -0.03747503 -0.013737089 -0.08515667
000330 a6 15 8a 3c d8 93 63 3d 8c 11 59 3d f9 8f a3 bb
       0.016856026 0.055560917 0.05299525 -0.004991528
000340 b0 c4 7e bd 22 ea 2c 3d 81 dd a3 bc ea ed c6 bc
       -0.062199295 0.042215474 -0.020003082 -0.024283368
000350 d9 13 86 bc 6d fb cc bc 8b 98 a8 3d e1 6d 3f bd
       -0.016366886 -0.025022233 0.0823222 -0.046735648
000360 60 18 83 3b 83 24 83 bc 60 2f 1c 3d 4b 54 04 bc
       0.0040007085 -0.016008621 0.038131118 -0.008076738
000370 4b 98 c7 bb 79 2f b4 3c f8 5d 8f 3c d7 bf 9d bd
       -0.006091153 0.021995293 0.017500862 -0.07702606
000380 1a ca be 3d ee db 8a bd c3 0c 43 3d 11 3c 7d bd
       0.093158916 -0.067802295 0.047619592 -0.061824862
000390 c0 9e 8b 3c 47 e3 8f 3d 5b 2d e5 3d e0 c0 ed bb
       0.017043471 0.070257716 0.111902915 -0.0072556585
0003a0 c3 f3 9f bc 89 49 f6 3c 91 03 aa bc 83 49 a9 bb
       -0.019525414 0.030064361 -0.020753654 -0.005166234
0003b0 69 fe 8b bd b4 40 33 3d 2d fa 55 3d 4b 8a 6e 3d
       -0.06835634 0.043762878 0.05224054 0.058237355
0003c0 7f a5 17 bc 45 df b5 bd b6 ef 87 3d bb ba 10 bd
       -0.009255766 -0.08880476 0.06637518 -0.03533433
0003d0 39 29 2c bd 56 24 3c 3c 68 ae 14 3d a7 5d 64 3d
       -0.0420315 0.011483273 0.03629914 0.055753376
0003e0 a1 a3 c6 bc 42 a5 2e bd c4 49 79 39 81 01 f5 bc
       -0.024247946 -0.04263807 0.0002377397 -0.029907944
0003f0 f2 a0 a8 3c 21 5c 08 bd 2d 0a 3f bd 54 8b 06 3d
       0.020584557 -0.033290986 -0.046640564 0.032847717

model1.0.bias f4 [16]
000000 74 3f 20 3d 45 ec 0e 3d db 1a 09 3d c2 6d 33 bd
       0.039123014 0.034893293 0.033472877 -0.043805845
000010 32 91 8f bc 09 f5 3a 3c 26 44 b7 bc 2c bc 3c bd
       -0.01752529 0.01141096 -0.022371363 -0.046077892
000020 79 cf 40 bd 98 c2 a6 3c 7a d1 f1 bc 1b 55 13 3d
       -0.04707286 0.020356461 -0.029518832 0.035969835
000030 10 61 d1 3d 2d 38 bc 3c 97 2f f5 bc 02 79 36 3d
       0.10223591 0.022976005 -0.02992992 0.044548996

model1.2.conv.weight f4 [16, 16, 3, 3, 3]
000000 8f e4 a4 3d 92 62 07 bc e1 cc 35 3e 94 8c 28 bd
       0.080514066 -0.008263247 0.17753936 -0.04114969
000010 e9 14 41 bd 6a bf cb bd 31 59 a0 3d 44 27 95 3d
       -0.047139082 -0.09948619 0.07829512 0.0728288
000020 f7 91 bc bd 98 c8 15 bd 86 99 3e bd a1 2c d5 bc
       -0.09207528 -0.036568254 -0.04653313 -0.026022257
000030 dd 04 9f bd 73 dd 06 3d f7 13 8b bd 81 c5 c8 3d
       -0.077645995 0.032926034 -0.06790917 0.09803296
000040 43 cf d8 bd de e0 a1 bd 4f 15 31 3d d4 3c 63 bd
       -0.10586407 -0.07904218 0.043233212 -0.055477932
000050 a7 ed ed 3d 59 17 dd bd ba c8 c5 3d f1 d6 29 3a
       0.11617594 -0.10795469 0.09657426 0.0006478867
000060 db da 29 bd 91 cb cb bc ea c5 35 bd f2 5d 74 3d
       -0.041468482 -0.024877341 -0.0443782 0.059659906
000070 53 12 6b bd b8 0a a5 bd 1b 7f 41 3d c1 64 72 3d
       -0.057390522 -0.08058685 0.047240358 0.059178118
000080 e4 e7 40 3c b3 99 9b 3c 23 23 82 bc ec 8d a9 bc
       0.011774037 0.018994188 -0.015885895 -0.020697556
000090 e8 af 46 bc 6c 2b 3f bd d5 94 d6 bd 3e 16 0b 3e
       -0.0121269 -0.04667227 -0.10477606 0.13582703
0000a0 94 68 0a 3e 98 26 68 bd b9 08 49 3c 25 3f 17 be
       0.13516456 -0.05667743 0.012270146 -0.14770181
0000b0 d5 f3 29 3c 8c 50 69 bc e6 9f e4 bd 58 5e 4c bd
       0.0103730755 -0.014240395 -0.11163311 -0.04989466
0000c0 0f 75 dc 3d 49 b0 71 3d 5e 63 87 bc 0b 4e b2 3d
       0.10764515 0.05900601 -0.016526874 0.08706292
0000d0 70 f0 b8 bb 0c 2a cc bb 09 f8 cc 3d 72 61 93 bc
       -0.0056438968 -0.0062305983 0.100082465 -0.017990801
0000e0 06 de b9 3c b4 bb 9f 3d 16 14 3b be a6 9c 80 3d
       0.022688877 0.077994734 -0.18269381 0.06279878
0000f0 71 e3 b1 3d 4c 14 a3 bd 79 34 2b be 45 38 3c bd
       0.08685959 -0.07962856 -0.16719235 -0.0459521
000100 cb 57 87 3d 09 50 2f 3c 52 5c 2d 3e f7 ba de bd
       0.06608542 0.010700234 0.16929749 -0.108755045
000110 72 e4 55 bd b6 4d 9e 3d 71 25 50 bb e2 c5 d3 bc
       -0.052219816 0.07729666 -0.0031760598 -0.025851194
000120 07 13 98 3c 0a 46 e3 3b 5c e5 a7 3d 70 5f 94 bd
       0.01856376 0.0069358395 0.08198044 -0.07244766
000130 1d fd 03 be 2b e9 3c bb 47 d9 da 3d dd 45 85 bd
       -0.12889524 -0.0028825502 0.106859736 -0.06507466
000140 27 38 08 3d b4 d5 75 3c fa 63 65 3d d1 f1 b0 3d
       0.033256676 0.015004564 0.05600355 0.08639873
000150 9c 8b 4f 3d 01 a5 00 bd 57 7f da bd e4 86 31 bc
       0.05067025 -0.03140736 -0.106688194 -0.010835383
000160 6f d1 a4 3d 9d 09 27 bc 01 36 32 be f7 ed 3b bd
       0.08047759 -0.010195163 -0.17403413 -0.045881238
000170 ed c7 a1 3d a8 34 09 be c1 37 06 bd 53 df df bc
       0.07899461 -0.13398993 -0.032768015 -0.027328169
000180 ef d4 3b bc 40 1d 90 bc 8e be c7 3c d5 20 2a bd
       -0.011464342 -0.017592072 0.024382856 -0.041535217
000190 84 f1 05 3d ca 22 96 3d 96 df 3d bd 2b 01 d8 bc
       0.03270103 0.07330854 -0.046355806 -0.026367744
0001a0 52 e1 c7 3c b9 e9 dc ba 98 1d 42 3d bc aa 34 bd
       0.024399433 -0.0016854323 0.047391504 -0.044108137
0001b0 47 42 ae bd 8d 73 aa 3d 97 05 cd bd 93 26 21 bc
       -0.08508735 0.08322821 -0.10010832 -0.009835857
0001c0 91 09 c2 3c 92 16 31 3c d9 62 ff bd fa 4c 71 bc
       0.023686202 0.010808604 -0.124700256 -0.014727825
0001d0 c5 20 e8 3d c4 e0 0e be 99 f8 0a 3d 20 57 80 3d
       0.11334375 -0.13952929 0.033928487 0.06266618
0001e0 51 be 87 bd cb bb 22 be 3a 1b 83 3d b3 9a ac bd
       -0.06628097 -0.1589195 0.064016774 -0.08427944
0001f0 dc 49 05 bb 53 1a 05 3e 0d f6 63 bd 15 23 af 3c
       -0.0020338213 0.12998323 -0.055654574 0.021379033
000200 6b e8 4b bd 87 02 e6 bc ba 57 84 bd 94 f6 2e bd
       -0.049782198 -0.028077377 -0.06462045 -0.042715624
000210 2e c0 b6 bd 82 f1 e1 bc 2c c3 9f 3c 4e be 5b bc
       -0.08923374 -0.02758098 0.019502245 -0.013412071
000220 e4 e6 45 3d be a8 09 be 48 85 b3 bd ca 3e 9f 3d
       0.048315898 -0.13443276 -0.08765656 0.07775648
000230 36 cc d7 3c 39 97 ea bc 41 30 38 3d 0b 7d 2b ba
       0.026342493 -0.028636562 0.044967894 -0.0006541765
000240 8e 9e d9 3d b8 72 a2 bd b5 5e ad bc 97 62 33 be
       0.10625945 -0.07932037 -0.021163324 -0.17518078
000250 a9 19 3a bd 40 65 8c bc 87 e5 7d bd 29 f8 96 3d
       -0.045434628 -0.017138124 -0.061986472 0.073715515
000260 69 be 27 be 8e cc 4f bd a7 4b 3d bd 8a 22 32 be
       -0.1638123 -0.050732188 -0.046214726 -0.17395988
000270 60 f6 f5 bc c4 7c dc bc f2 d8 5a bc fa 8b 08 3d
       -0.030024707 -0.026914962 -0.013357388 0.033336617
000280 dd 2f 0d 3d 7c 38 04 3d 18 41 72 3d cd 30 5e 3d
       0.034469474 0.03228043 0.05914411 0.05424576
000290 15 0f fe bd 1e 49 20 be 3d c1 a2 bd 0b 61 44 bb
       -0.124052204 -0.15652892 -0.079470135 -0.0029965069
0002a0 69 59 33 3d 6d af 89 bd 0e 89 58 3c e4 22 67 3d
       0.04378644 -0.06722913 0.01321627 0.05642976
0002b0 ca 9f e2 3d a7 a6 f5 bd 51 49 6e 3c 2f d5 e2 bc
       0.110656336 -0.11994677 0.014543847 -0.027689544
0002c0 c9 b0 e0 3d 8a 88 4f bd 49 c8 70 be 5a 43 82 3d
       0.10971219 -0.050667323 -0.23513903 0.063605025
0002d0 26 bc d4 bc e3 91 c5 3d 8a bf 9f bd ec 97 86 3c
       -0.025968622 0.09646966 -0.07800205 0.016429864
0002e0 d7 69 92 bc 1f 0d 22 bd 12 25 cc 3c 53 0d c6 bc
       -0.017872734 -0.039563295 0.02492002 -0.024176275
0002f0 99 3c 76 bd 9f 84 d6 3c 0f c5 92 3d f9 5d 0f be
       -0.060116384 0.026186286 0.07166492 -0.14000691
000300 6b 44 27 3c 75 62 7e 3c 37 ac c0 3d e4 92 16 be
       0.010209183 0.015526404 0.094078474 -0.14704472
000310 0c 8b 5d be 2a f7 87 3d 9d 4b 4a bc 8d ce 6c bc
       -0.21635073 0.0663894 -0.012347129 -0.014453542
000320 d7 db 5a bd 6e 8b 12 b9 d1 b6 01 bd 7a 53 47 be
       -0.053432312 -0.00013975587 -0.031668488 -0.19465438
000330 ee 90 2f 3d e0 21 52 ba 43 ee 31 bd 68 22 70 b8
       0.042862825 -0.0008015912 -0.043440115 -5.7252502e-05
000340 67 87 1e 3c 34 8d 0c be 7c df 01 3c 77 11 15 bd
       0.009675837 -0.1372574 0.007926818 -0.03639361
000350 bc a2 e1 bd 36 e4 6b bc 54 d3 e0 bd 8f f4 8c bd
       -0.11017367 -0.014397671 -0.10977808 -0.06882583
000360 05 4b 46 3d 75 e5 8c ba 28 5b 98 3d 81 11 e0 bc
       0.048411388 -0.0010749536 0.07439262 -0.027352097
000370 2a 9f 2e 3d d6 0d 44 3d d2 5a 61 bd 1b a9 bf 3b
       0.04263226 0.047864757 -0.055018254 0.0058490164
000380 92 70 26 3c 87 7e 97 bc 4c e1 97 bc 6f 3f c4 bd
       0.010158675 -0.01849295 -0.018540047 -0.095824115
000390 3c f3 b0 3d f8 5f 09 3e 03 e9 e6 3d 39 61 05 be
       0.08640143 0.13415515 0.11274912 -0.13025369
0003a0 45 9b 00 be 79 96 23 3c 9d 95 cd 3d cd f0 2d 3d
       -0.1255923 0.009984606 0.10038302 0.042465974
0003b0 99 67 e2 3d 53 aa f6 3c af 92 d5 3d 74 34 3c 3d
       0.11054916 0.030110514 0.10428368 0.04594846
0003c0 83 1c 9a bd fc 6b 32 bb 08 b1 cf 3c 9e a4 fd bd
       -0.075249694 -0.0027225008 0.02535297 -0.12384914
0003d0 cb f4 8a 3d 3b 53 e3 bb 17 d7 ee bd 61 d6 02 bd
       0.06784972 -0.006937412 -0.11662119 -0.03194273
0003e0 8f 1d c5 bb f4 49 b6 bd 58 20 ea 3c bd ba 04 3d
       -0.0060154865 -0.08900824 0.028579876 0.03240465
0003f0 7b b2 f2 bd 2d 91 a5 bd 21 91 0a 3c 7f f9 4b 3d
       -0.11850449 -0.08084331 0.008457453 0.049798485

model1.2.conv.bias f4 [16]
000000 f3 08 80 3c b8 8c 44 bc 92 a6 eb bb 82 f1 19 3d
       0.015629267 -0.011996441 -0.0071914876 0.037583835
000010 90 e5 db 3c 00 28 a4 3c cf f0 37 3d f4 63 30 3b
       0.026842862 0.020038605 0.044907387 0.0026915045
000020 8f 56 02 bc e9 90 d0 3c f9 50 84 3c 56 bc d7 bc
       -0.0079552075 0.025459724 0.016151892 -0.026334923
000030 b6 7b ef 3c 6e e8 87 3c f6 76 25 bd de 21 8e 3c
       0.029233795 0.016590323 -0.040396653 0.017350134

model1.2.batch_norm.weight f4 [16]
000000 de c4 09 3f 23 22 00 3f 6e 20 f3 3e 99 8a fe 3e
       0.5381602 0.5005209 0.4748568 0.49715117
000010 e8 0d f6 3e f9 61 04 3f 57 a5 f1 3e bc 40 09 3f
       0.48057485 0.51711994 0.47196457 0.536144
000020 50 a4 0a 3f c6 18 00 3f 62 34 07 3f 9a f5 02 3f
       0.5415697 0.500378 0.52814305 0.5115601
000030 6a f5 fc 3e 74 b4 05 3f 81 d6 f1 3e 57 99 fe 3e
       0.49405986 0.52228475 0.47233966 0.49726364

model1.2.batch_norm.bias f4 [16]
000000 81 0d 36 bd d7 57 71 3b 3c 14 d8 3c b3 0b 40 bc
       -0.044446472 0.0036826038 0.026376836 -0.011721539
000010 e0 60 1c bd d2 b6 29 3d a7 cb 9d bc a4 1e 33 bc
       -0.038178325 0.041434117 -0.019262148 -0.010932598
000020 54 96 83 bd ef 88 f4 bc 21 d1 16 bc f6 6c 67 3c
       -0.06425157 -0.029850451 -0.009205134 0.014125099
000030 29 51 a4 bc e8 8a 95 3c 07 2c 54 bc a4 4b 75 bd
       -0.020058231 0.018254712 -0.01294995 -0.05988659

model1.2.batch_norm.running_mean f4 [16]
000000 6c a7 06 c0 09 8c 65 be 5c 95 6e be ef 20 f1 be
       -2.1039686 -0.224167 -0.23299164 -0.4709544
000010 20 8e 58 bf 8e 2f 2d 3f af 82 02 be d3 c5 b0 bf
       -0.84591866 0.6765069 -0.12745164 -1.3810371
000020 84 7d 51 bf c7 f8 91 bf 83 58 a2 3e 4a 2a 78 bf
       -0.81832147 -1.1404046 0.31708154 -0.9693953
000030 8a 35 5c bf 5e fb 11 be 18 2a 6f 3d 5f 56 6a be
       -0.86019194 -0.14256045 0.058389753 -0.2288451

model1.2.batch_norm.running_var f4 [16]
000000 7f 1f ea 3f 71 a1 f3 3f 7b 97 2f 40 ee b3 02 40
       1.8290862 1.9033643 2.7436206 2.042232
000010 dc 80 7a 3f 34 d6 08 40 91 b3 d7 3f fe cd 93 40
       0.97852874 2.138074 1.6851674 4.6188955
000020 f6 b9 48 3f 26 9b 07 40 79 34 54 40 ef 9b a7 3f
       0.78408754 2.1188445 3.3157027 1.3094462
000030 d6 e3 f0 3f 91 86 8f 40 5d f2 e0 3f e9 8a 1a 40
       1.881953 4.4851766 1.7573963 2.4147284

model1.3.conv.weight f4 [16, 16, 3, 3, 3]
000000 8f e4 a4 3d 92 62 07 bc e1 cc 35 3e 94 8c 28 bd
       0.080514066 -0.008263247 0.17753936 -0.04114969
000010 e9 14 41 bd 6a bf cb bd 31 59 a0 3d 44 27 95 3d
       -0.047139082 -0.09948619 0.07829512 0.0728288
000020 f7 91 bc bd 98 c8 15 bd 86 99 3e bd a1 2c d5 bc
       -0.09207528 -0.036568254 -0.04653313 -0.026022257
000030 dd 04 9f bd 73 dd 06 3d f7 13 8b bd 81 c5 c8 3d
       -0.077645995 0.032926034 -0.06790917 0.09803296
000040 43 cf d8 bd de e0 a1 bd 4f 15 31 3d d4 3c 63 bd
       -0.10586407 -0.07904218 0.043233212 -0.055477932
000050 a7 ed ed 3d 59 17 dd bd ba c8 c5 3d f1 d6 29 3a
       0.11617594 -0.10795469 0.09657426 0.0006478867
000060 db da 29 bd 91 cb cb bc ea c5 35 bd f2 5d 74 3d
       -0.041468482 -0.024877341 -0.0443782 0.059659906
000070 53 12 6b bd b8 0a a5 bd 1b 7f 41 3d c1 64 72 3d
       -0.057390522 -0.08058685 0.047240358 0.059178118
000080 e4 e7 40 3c b3 99 9b 3c 23 23 82 bc ec 8d a9 bc
       0.011774037 0.018994188 -0.015885895 -0.020697556
000090 e8 af 46 bc 6c 2b 3f bd d5 94 d6 bd 3e 16 0b 3e
       -0.0121269 -0.04667227 -0.10477606 0.13582703
0000a0 94 68 0a 3e 98 26 68 bd b9 08 49 3c 25 3f 17 be
       0.13516456 -0.05667743 0.012270146 -0.14770181
0000b0 d5 f3 29 3c 8c 50 69 bc e6 9f e4 bd 58 5e 4c bd
       0.0103730755 -0.014240395 -0.11163311 -0.04989466
0000c0 0f 75 dc 3d 49 b0 71 3d 5e 63 87 bc 0b 4e b2 3d
       0.10764515 0.05900601 -0.016526874 0.08706292
0000d0 70 f0 b8 bb 0c 2a cc bb 09 f8 cc 3d 72 61 93 bc
       -0.0056438968 -0.0062305983 0.100082465 -0.017990801
0000e0 06 de b9 3c b4 bb 9f 3d 16 14 3b be a6 9c 80 3d
       0.022688877 0.077994734 -0.18269381 0.06279878
0000f0 71 e3 b1 3d 4c 14 a3 bd 79 34 2b be 45 38 3c bd
       0.08685959 -0.07962856 -0.16719235 -0.0459521
000100 cb 57 87 3d 09 50 2f 3c 52 5c 2d 3e f7 ba de bd
       0.06608542 0.010700234 0.16929749 -0.108755045
000110 72 e4 55 bd b6 4d 9e 3d 71 25 50 bb e2 c5 d3 bc
       -0.052219816 0.07729666 -0.0031760598 -0.025851194
000120 07 13 98 3c 0a 46 e3 3b 5c e5 a7 3d 70 5f 94 bd
       0.01856376 0.0069358395 0.08198044 -0.07244766
000130 1d fd 03 be 2b e9 3c bb 47 d9 da 3d dd 45 85 bd
       -0.12889524 -0.0028825502 0.106859736 -0.06507466
000140 27 38 08 3d b4 d5 75 3c fa 63 65 3d d1 f1 b0 3d
       0.033256676 0.015004564 0.05600355 0.08639873
000150 9c 8b 4f 3d 01 a5 00 bd 57 7f da bd e4 86 31 bc
       0.05067025 -0.03140736 -0.106688194 -0.010835383
000160 6f d1 a4 3d 9d 09 27 bc 01 36 32 be f7 ed 3b bd
       0.08047759 -0.010195163 -0.17403413 -0.045881238
000170 ed c7 a1 3d a8 34 09 be c1 37 06 bd 53 df df bc
       0.07899461 -0.13398993 -0.032768015 -0.027328169
000180 ef d4 3b bc 40 1d 90 bc 8e be c7 3c d5 20 2a bd
       -0.011464342 -0.017592072 0.024382856 -0.041535217
000190 84 f1 05 3d ca 22 96 3d 96 df 3d bd 2b 01 d8 bc
       0.03270103 0.07330854 -0.046355806 -0.026367744
0001a0 52 e1 c7 3c b9 e9 dc ba 98 1d 42 3d bc aa 34 bd
       0.024399433 -0.0016854323 0.047391504 -0.044108137
0001b0 47 42 ae bd 8d 73 aa 3d 97 05 cd bd 93 26 21 bc
       -0.08508735 0.08322821 -0.10010832 -0.009835857
0001c0 91 09 c2 3c 92 16 31 3c d9 62 ff bd fa 4c 71 bc
       0.023686202 0.010808604 -0.124700256 -0.014727825
0001d0 c5 20 e8 3d c4 e0 0e be 99 f8 0a 3d 20 57 80 3d
       0.11334375 -0.13952929 0.033928487 0.06266618
0001e0 51 be 87 bd cb bb 22 be 3a 1b 83 3d b3 9a ac bd
       -0.06628097 -0.1589195 0.064016774 -0.08427944
0001f0 dc 49 05 bb 53 1a 05 3e 0d f6 63 bd 15 23 af 3c
       -0.0020338213 0.12998323 -0.055654574 0.021379033
000200 6b e8 4b bd 87 02 e6 bc ba 57 84 bd 94 f6 2e bd
       -0.049782198 -0.028077377 -0.06462045 -0.042715624
000210 2e c0 b6 bd 82 f1 e1 bc 2c c3 9f 3c 4e be 5b bc
       -0.08923374 -0.02758098 0.019502245 -0.013412071
000220 e4 e6 45 3d be a8 09 be 48 85 b3 bd ca 3e 9f 3d
       0.048315898 -0.13443276 -0.08765656 0.07775648
000230 36 cc d7 3c 39 97 ea bc 41 30 38 3d 0b 7d 2b ba
       0.026342493 -0.028636562 0.044967894 -0.0006541765
000240 8e 9e d9 3d b8 72 a2 bd b5 5e ad bc 97 62 33 be
       0.10625945 -0.07932037 -0.021163324 -0.17518078
000250 a9 19 3a bd 40 65 8c bc 87 e5 7d bd 29 f8 96 3d
       -0.045434628 -0.017138124 -0.061986472 0.073715515
000260 69 be 27 be 8e cc 4f bd a7 4b 3d bd 8a 22 32 be
       -0.1638123 -0.050732188 -0.046214726 -0.17395988
000270 60 f6 f5 bc c4 7c dc bc f2 d8 5a bc fa 8b 08 3d
       -0.030024707 -0.026914962 -0.013357388 0.033336617
000280 dd 2f 0d 3d 7c 38 04 3d 18 41 72 3d cd 30 5e 3d
       0.034469474 0.03228043 0.05914411 0.05424576
000290 15 0f fe bd 1e 49 20 be 3d c1 a2 bd 0b 61 44 bb
       -0.124052204 -0.15652892 -0.079470135 -0.0029965069
0002a0 69 59 33 3d 6d af 89 bd 0e 89 58 3c e4 22 67 3d
       0.04378644 -0.06722913 0.01321627 0.05642976
0002b0 ca 9f e2 3d a7 a6 f5 bd 51 49 6e 3c 2f d5 e2 bc
       0.110656336 -0.11994677 0.014543847 -0.027689544
0002c0 c9 b0 e0 3d 8a 88 4f bd 49 c8 70 be 5a 43 82 3d
       0.10971219 -0.050667323 -0.23513903 0.063605025
0002d0 26 bc d4 bc e3 91 c5 3d 8a bf 9f bd ec 97 86 3c
       -0.025968622 0.09646966 -0.07800205 0.016429864
0002e0 d7 69 92 bc 1f 0d 22 bd 12 25 cc 3c 53 0d c6 bc
       -0.017872734 -0.039563295 0.02492002 -0.024176275
0002f0 99 3c 76 bd 9f 84 d6 3c 0f c5 92 3d f9 5d 0f be
       -0.060116384 0.026186286 0.07166492 -0.14000691
000300 6b 44 27 3c 75 62 7e 3c 37 ac c0 3d e4 92 16 be
       0.010209183 0.015526404 0.094078474 -0.14704472
000310 0c 8b 5d be 2a f7 87 3d 9d 4b 4a bc 8d ce 6c bc
       -0.21635073 0.0663894 -0.012347129 -0.014453542
000320 d7 db 5a bd 6e 8b 12 b9 d1 b6 01 bd 7a 53 47 be
       -0.053432312 -0.00013975587 -0.031668488 -0.19465438
000330 ee 90 2f 3d e0 21 52 ba 43 ee 31 bd 68 22 70 b8
       0.042862825 -0.0008015912 -0.043440115 -5.7252502e-05
000340 67 87 1e 3c 34 8d 0c be 7c df 01 3c 77 11 15 bd
       0.009675837 -0.1372574 0.007926818 -0.03639361
000350 bc a2 e1 bd 36 e4 6b bc 54 d3 e0 bd 8f f4 8c bd
       -0.11017367 -0.014397671 -0.10977808 -0.06882583
000360 05 4b 46 3d 75 e5 8c ba 28 5b 98 3d 81 11 e0 bc
       0.048411388 -0.0010749536 0.07439262 -0.027352097
000370 2a 9f 2e 3d d6 0d 44 3d d2 5a 61 bd 1b a9 bf 3b
       0.04263226 0.047864757 -0.055018254 0.0058490164
000380 92 70 26 3c 87 7e 97 bc 4c e1 97 bc 6f 3f c4 bd
       0.010158675 -0.01849295 -0.018540047 -0.095824115
000390 3c f3 b0 3d f8 5f 09 3e 03 e9 e6 3d 39 61 05 be
       0.08640143 0.13415515 0.11274912 -0.13025369
0003a0 45 9b 00 be 79 96 23 3c 9d 95 cd 3d cd f0 2d 3d
       -0.1255923 0.009984606 0.10038302 0.042465974
0003b0 99 67 e2 3d 53 aa f6 3c af 92 d5 3d 74 34 3c 3d
       0.11054916 0.030110514 0.10428368 0.04594846
0003c0 83 1c 9a bd fc 6b 32 bb 08 b1 cf 3c 9e a4 fd bd
       -0.075249694 -0.0027225008 0.02535297 -0.12384914
0003d0 cb f4 8a 3d 3b 53 e3 bb 17 d7 ee bd 61 d6 02 bd
       0.06784972 -0.006937412 -0.11662119 -0.03194273
0003e0 8f 1d c5 bb f4 49 b6 bd 58 20 ea 3c bd ba 04 3d
       -0.0060154865 -0.08900824 0.028579876 0.03240465
0003f0 7b b2 f2 bd 2d 91 a5 bd 21 91 0a 3c 7f f9 4b 3d
       -0.11850449 -0.08084331 0.008457453 0.049798485

model1.3.conv.bias f4 [16]
000000 f3 08 80 3c b8 8c 44 bc 92 a6 eb bb 82 f1 19 3d
       0.015629267 -0.011996441 -0.0071914876 0.037583835
000010 90 e5 db 3c 00 28 a4 3c cf f0 37 3d f4 63 30 3b
       0.026842862 0.020038605 0.044907387 0.0026915045
000020 8f 56 02 bc e9 90 d0 3c f9 50 84 3c 56 bc d7 bc
       -0.0079552075 0.025459724 0.016151892 -0.026334923
000030 b6 7b ef 3c 6e e8 87 3c f6 76 25 bd de 21 8e 3c
       0.029233795 0.016590323 -0.040396653 0.017350134

model1.3.batch_norm.weight f4 [16]
000000 de c4 09 3f 23 22 00 3f 6e 20 f3 3e 99 8a fe 3e
       0.5381602 0.5005209 0.4748568 0.49715117
000010 e8 0d f6 3e f9 61 04 3f 57 a5 f1 3e bc 40 09 3f
       0.48057485 0.51711994 0.47196457 0.536144
000020 50 a4 0a 3f c6 18 00 3f 62 34 07 3f 9a f5 02 3f
       0.5415697 0.500378 0.52814305 0.5115601
000030 6a f5 fc 3e 74 b4 05 3f 81 d6 f1 3e 57 99 fe 3e
       0.49405986 0.52228475 0.47233966 0.49726364

model1.3.batch_norm.bias f4 [16]
000000 81 0d 36 bd d7 57 71 3b 3c 14 d8 3c b3 0b 40 bc
       -0.044446472 0.0036826038 0.026376836 -0.011721539
000010 e0 60 1c bd d2 b6 29 3d a7 cb 9d bc a4 1e 33 bc
       -0.038178325 0.041434117 -0.019262148 -0.010932598
000020 54 96 83 bd ef 88 f4 bc 21 d1 16 bc f6 6c 67 3c
       -0.06425157 -0.029850451 -0.009205134 0.014125099
000030 29 51 a4 bc e8 8a 95 3c 07 2c 54 bc a4 4b 75 bd
       -0.020058231 0.018254712 -0.01294995 -0.05988659

model1.3.batch_norm.running_mean f4 [16]
000000 6c a7 06 c0 09 8c 65 be 5c 95 6e be ef 20 f1 be
       -2.1039686 -0.224167 -0.23299164 -0.4709544
000010 20 8e 58 bf 8e 2f 2d 3f af 82 02 be d3 c5 b0 bf
       -0.84591866 0.6765069 -0.12745164 -1.3810371
000020 84 7d 51 bf c7 f8 91 bf 83 58 a2 3e 4a 2a 78 bf
       -0.81832147 -1.1404046 0.31708154 -0.9693953
000030 8a 35 5c bf 5e fb 11 be 18 2a 6f 3d 5f 56 6a be
       -0.86019194 -0.14256045 0.058389753 -0.2288451

model1.3.batch_norm.running_var f4 [16]
000000 7f 1f ea 3f 71 a1 f3 3f 7b 97 2f 40 ee b3 02 40
       1.8290862 1.9033643 2.7436206 2.042232
000010 dc 80 7a 3f 34 d6 08 40 91 b3 d7 3f fe cd 93 40
       0.97852874 2.138074 1.6851674 4.6188955
000020 f6 b9 48 3f 26 9b 07 40 79 34 54 40 ef 9b a7 3f
       0.78408754 2.1188445 3.3157027 1.3094462
000030 d6 e3 f0 3f 91 86 8f 40 5d f2 e0 3f e9 8a 1a 40
       1.881953 4.4851766 1.7573963 2.4147284

model1.4.conv.weight f4 [16, 16, 3, 3, 3]
000000 8f e4 a4 3d 92 62 07 bc e1 cc 35 3e 94 8c 28 bd
       0.080514066 -0.008263247 0.17753936 -0.04114969
000010 e9 14 41 bd 6a bf cb bd 31 59 a0 3d 44 27 95 3d
       -0.047139082 -0.09948619 0.07829512 0.0728288
000020 f7 91 bc bd 98 c8 15 bd 86 99 3e bd a1 2c d5 bc
       -0.09207528 -0.036568254 -0.04653313 -0.026022257
000030 dd 04 9f bd 73 dd 06 3d f7 13 8b bd 81 c5 c8 3d
       -0.077645995 0.032926034 -0.06790917 0.09803296
000040 43 cf d8 bd de e0 a1 bd 4f 15 31 3d d4 3c 63 bd
       -0.10586407 -0.07904218 0.043233212 -0.055477932
000050 a7 ed ed 3d 59 17 dd bd ba c8 c5 3d f1 d6 29 3a
       0.11617594 -0.10795469 0.09657426 0.0006478867
000060 db da 29 bd 91 cb cb bc ea c5 35 bd f2 5d 74 3d
       -0.041468482 -0.024877341 -0.0443782 0.059659906
000070 53 12 6b bd b8 0a a5 bd 1b 7f 41 3d c1 64 72 3d
       -0.057390522 -0.08058685 0.047240358 0.059178118
000080 e4 e7 40 3c b3 99 9b 3c 23 23 82 bc ec 8d a9 bc
       0.011774037 0.018994188 -0.015885895 -0.020697556
000090 e8 af 46 bc 6c 2b 3f bd d5 94 d6 bd 3e 16 0b 3e
       -0.0121269 -0.04667227 -0.10477606 0.13582703
0000a0 94 68 0a 3e 98 26 68 bd b9 08 49 3c 25 3f 17 be
       0.13516456 -0.05667743 0.012270146 -0.14770181
0000b0 d5 f3 29 3c 8c 50 69 bc e6 9f e4 bd 58 5e 4c bd
       0.0103730755 -0.014240395 -0.11163311 -0.04989466
0000c0 0f 75 dc 3d 49 b0 71 3d 5e 63 87 bc 0b 4e b2 3d
       0.10764515 0.05900601 -0.016526874 0.08706292
0000d0 70 f0 b8 bb 0c 2a cc bb 09 f8 cc 3d 72 61 93 bc
       -0.0056438968 -0.0062305983 0.100082465 -0.017990801
0000e0 06 de b9 3c b4 bb 9f 3d 16 14 3b be a6 9c 80 3d
       0.022688877 0.077994734 -0.18269381 0.06279878
0000f0 71 e3 b1 3d 4c 14 a3 bd 79 34 2b be 45 38 3c bd
       0.08685959 -0.07962856 -0.16719235 -0.0459521
000100 cb 57 87 3d 09 50 2f 3c 52 5c 2d 3e f7 ba de bd
       0.06608542 0.010700234 0.16929749 -0.108755045
000110 72 e4 55 bd b6 4d 9e 3d 71 25 50 bb e2 c5 d3 bc
       -0.052219816 0.07729666 -0.0031760598 -0.025851194
000120 07 13 98 3c 0a 46 e3 3b 5c e5 a7 3d 70 5f 94 bd
       0.01856376 0.0069358395 0.08198044 -0.07244766
000130 1d fd 03 be 2b e9 3c bb 47 d9 da 3d dd 45 85 bd
       -0.12889524 -0.0028825502 0.106859736 -0.06507466
000140 27 38 08 3d b4 d5 75 3c fa 63 65 3d d1 f1 b0 3d
       0.033256676 0.015004564 0.05600355 0.08639873
000150 9c 8b 4f 3d 01 a5 00 bd 57 7f da bd e4 86 31 bc
       0.05067025 -0.03140736 -0.106688194 -0.010835383
000160 6f d1 a4 3d 9d 09 27 bc 01 36 32 be f7 ed 3b bd
       0.08047759 -0.010195163 -0.17403413 -0.045881238
000170 ed c7 a1 3d a8 34 09 be c1 37 06 bd 53 df df bc
       0.07899461 -0.13398993 -0.032768015 -0.027328169
000180 ef d4 3b bc 40 1d 90 bc 8e be c7 3c d5 20 2a bd
       -0.011464342 -0.017592072 0.024382856 -0.041535217
000190 84 f1 05 3d ca 22 96 3d 96 df 3d bd 2b 01 d8 bc
       0.03270103 0.07330854 -0.046355806 -0.026367744
0001a0 52 e1 c7 3c b9 e9 dc ba 98 1d 42 3d bc aa 34 bd
       0.024399433 -0.0016854323 0.047391504 -0.044108137
0001b0 47 42 ae bd 8d 73 aa 3d 97 05 cd bd 93 26 21 bc
       -0.08508735 0.08322821 -0.10010832 -0.009835857
0001c0 91 09 c2 3c 92 16 31 3c d9 62 ff bd fa 4c 71 bc
       0.023686202 0.010808604 -0.124700256 -0.014727825
0001d0 c5 20 e8 3d c4 e0 0e be 99 f8 0a 3d 20 57 80 3d
       0.11334375 -0.13952929 0.033928487 0.06266618
0001e0 51 be 87 bd cb bb 22 be 3a 1b 83 3d b3 9a ac bd
       -0.06628097 -0.1589195 0.064016774 -0.08427944
0001f0 dc 49 05 bb 53 1a 05 3e 0d f6 63 bd 15 23 af 3c
       -0.0020338213 0.12998323 -0.055654574 0.021379033
000200 6b e8 4b bd 87 02 e6 bc ba 57 84 bd 94 f6 2e bd
       -0.049782198 -0.028077377 -0.06462045 -0.042715624
000210 2e c0 b6 bd 82 f1 e1 bc 2c c3 9f 3c 4e be 5b bc
       -0.08923374 -0.02758098 0.019502245 -0.013412071
000220 e4 e6 45 3d be a8 09 be 48 85 b3 bd ca 3e 9f 3d
       0.048315898 -0.13443276 -0.08765656 0.07775648
000230 36 cc d7 3c 39 97 ea bc 41 30 38 3d 0b 7d 2b ba
       0.026342493 -0.028636562 0.044967894 -0.0006541765
000240 8e 9e d9 3d b8 72 a2 bd b5 5e ad bc 97 62 33 be
       0.10625945 -0.07932037 -0.021163324 -0.17518078
000250 a9 19 3a bd 40 65 8c bc 87 e5 7d bd 29 f8 96 3d
       -0.045434628 -0.017138124 -0.061986472 0.073715515
000260 69 be 27 be 8e cc 4f bd a7 4b 3d bd 8a 22 32 be
       -0.1638123 -0.050732188 -0.046214726 -0.17395988
000270 60 f6 f5 bc c4 7c dc bc f2 d8 5a bc fa 8b 08 3d
       -0.030024707 -0.026914962 -0.013357388 0.033336617
000280 dd 2f 0d 3d 7c 38 04 3d 18 41 72 3d cd 30 5e 3d
       0.034469474 0.03228043 0.05914411 0.05424576
000290 15 0f fe bd 1e 49 20 be 3d c1 a2 bd 0b 61 44 bb
       -0.124052204 -0.15652892 -0.079470135 -0.0029965069
0002a0 69 59 33 3d 6d af 89 bd 0e 89 58 3c e4 22 67 3d
       0.04378644 -0.06722913 0.01321627 0.05642976
0002b0 ca 9f e2 3d a7 a6 f5 bd 51 49 6e 3c 2f d5 e2 bc
       0.110656336 -0.11994677 0.014543847 -0.027689544
0002c0 c9 b0 e0 3d 8a 88 4f bd 49 c8 70 be 5a 43 82 3d
       0.10971219 -0.050667323 -0.23513903 0.063605025
0002d0 26 bc d4 bc e3 91 c5 3d 8a bf 9f bd ec 97 86 3c
       -0.025968622 0.09646966 -0.07800205 0.016429864
0002e0 d7 69 92 bc 1f 0d 22 bd 12 25 cc 3c 53 0d c6 bc
       -0.017872734 -0.039563295 0.02492002 -0.024176275
0002f0 99 3c 76 bd 9f 84 d6 3c 0f c5 92 3d f9 5d 0f be
       -0.060116384 0.026186286 0.07166492 -0.14000691
000300 6b 44 27 3c 75 62 7e 3c 37 ac c0 3d e4 92 16 be
       0.010209183 0.015526404 0.094078474 -0.14704472
000310 0c 8b 5d be 2a f7 87 3d 9d 4b 4a bc 8d ce 6c bc
       -0.21635073 0.0663894 -0.012347129 -0.014453542
000320 d7 db 5a bd 6e 8b 12 b9 d1 b6 01 bd 7a 53 47 be
       -0.053432312 -0.00013975587 -0.031668488 -0.19465438
000330 ee 90 2f 3d e0 21 52 ba 43 ee 31 bd 68 22 70 b8
       0.042862825 -0.0008015912 -0.043440115 -5.7252502e-05
000340 67 87 1e 3c 34 8d 0c be 7c df 01 3c 77 11 15 bd
       0.009675837 -0.1372574 0.007926818 -0.03639361
000350 bc a2 e1 bd 36 e4 6b bc 54 d3 e0 bd 8f f4 8c bd
       -0.11017367 -0.014397671 -0.10977808 -0.06882583
000360 05 4b 46 3d 75 e5 8c ba 28 5b 98 3d 81 11 e0 bc
       0.048411388 -0.0010749536 0.07439262 -0.027352097
000370 2a 9f 2e 3d d6 0d 44 3d d2 5a 61 bd 1b a9 bf 3b
       0.04263226 0.047864757 -0.055018254 0.0058490164
000380 92 70 26 3c 87 7e 97 bc 4c e1 97 bc 6f 3f c4 bd
       0.010158675 -0.01849295 -0.018540047 -0.095824115
000390 3c f3 b0 3d f8 5f 09 3e 03 e9 e6 3d 39 61 05 be
       0.08640143 0.13415515 0.11274912 -0.13025369
0003a0 45 9b 00 be 79 96 23 3c 9d 95 cd 3d cd f0 2d 3d
       -0.1255923 0.009984606 0.10038302 0.042465974
0003b0 99 67 e2 3d 53 aa f6 3c af 92 d5 3d 74 34 3c 3d
       0.11054916 0.030110514 0.10428368 0.04594846
0003c0 83 1c 9a bd fc 6b 32 bb 08 b1 cf 3c 9e a4 fd bd
       -0.075249694 -0.0027225008 0.02535297 -0.12384914
0003d0 cb f4 8a 3d 3b 53 e3 bb 17 d7 ee bd 61 d6 02 bd
       0.06784972 -0.006937412 -0.11662119 -0.03194273
0003e0 8f 1d c5 bb f4 49 b6 bd 58 20 ea 3c bd ba 04 3d
       -0.0060154865 -0.08900824 0.028579876 0.03240465
0003f0 7b b2 f2 bd 2d 91 a5 bd 21 91 0a 3c 7f f9 4b 3d
       -0.11850449 -0.08084331 0.008457453 0.049798485

model1.4.conv.bias f4 [16]
000000 f3 08 80 3c b8 8c 44 bc 92 a6 eb bb 82 f1 19 3d
       0.015629267 -0.011996441 -0.0071914876 0.037583835
000010 90 e5 db 3c 00 28 a4 3c cf f0 37 3d f4 63 30 3b
       0.026842862 0.020038605 0.044907387 0.0026915045
000020 8f 56 02 bc e9 90 d0 3c f9 50 84 3c 56 bc d7 bc
       -0.0079552075 0.025459724 0.016151892 -0.026334923
000030 b6 7b ef 3c 6e e8 87 3c f6 76 25 bd de 21 8e 3c
       0.029233795 0.016590323 -0.040396653 0.017350134

model1.4.batch_norm.weight f4 [16]
000000 de c4 09 3f 23 22 00 3f 6e 20 f3 3e 99 8a fe 3e
       0.5381602 0.5005209 0.4748568 0.49715117
000010 e8 0d f6 3e f9 61 04 3f 57 a5 f1 3e bc 40 09 3f
       0.48057485 0.51711994 0.47196457 0.536144
000020 50 a4 0a 3f c6 18 00 3f 62 34 07 3f 9a f5 02 3f
       0.5415697 0.500378 0.52814305 0.5115601
000030 6a f5 fc 3e 74 b4 05 3f 81 d6 f1 3e 57 99 fe 3e
       0.49405986 0.52228475 0.47233966 0.49726364

model1.4.batch_norm.bias f4 [16]
000000 81 0d 36 bd d7 57 71 3b 3c 14 d8 3c b3 0b 40 bc
       -0.044446472 0.0036826038 0.026376836 -0.011721539
000010 e0 60 1c bd d2 b6 29 3d a7 cb 9d bc a4 1e 33 bc
       -0.038178325 0.041434117 -0.019262148 -0.010932598
000020 54 96 83 bd ef 88 f4 bc 21 d1 16 bc f6 6c 67 3c
       -0.06425157 -0.029850451 -0.009205134 0.014125099
000030 29 51 a4 bc e8 8a 95 3c 07 2c 54 bc a4 4b 75 bd
       -0.020058231 0.018254712 -0.01294995 -0.05988659

model1.4.batch_norm.running_mean f4 [16]
000000 6c a7 06 c0 09 8c 65 be 5c 95 6e be ef 20 f1 be
       -2.1039686 -0.224167 -0.23299164 -0.4709544
000010 20 8e 58 bf 8e 2f 2d 3f af 82 02 be d3 c5 b0 bf
       -0.84591866 0.6765069 -0.12745164 -1.3810371
000020 84 7d 51 bf c7 f8 91 bf 83 58 a2 3e 4a 2a 78 bf
       -0.81832147 -1.1404046 0.31708154 -0.9693953
000030 8a 35 5c bf 5e fb 11 be 18 2a 6f 3d 5f 56 6a be
       -0.86019194 -0.14256045 0.058389753 -0.2288451

model1.4.batch_norm.running_var f4 [16]
000000 7f 1f ea 3f 71 a1 f3 3f 7b 97 2f 40 ee b3 02 40
       1.8290862 1.9033643 2.7436206 2.042232
000010 dc 80 7a 3f 34 d6 08 40 91 b3 d7 3f fe cd 93 40
       0.97852874 2.138074 1.6851674 4.6188955
000020 f6 b9 48 3f 26 9b 07 40 79 34 54 40 ef 9b a7 3f
       0.78408754 2.1188445 3.3157027 1.3094462
000030 d6 e3 f0 3f 91 86 8f 40 5d f2 e0 3f e9 8a 1a 40
       1.881953 4.4851766 1.7573963 2.4147284

model1.5.conv.weight f4 [16, 16, 3, 3, 3]
000000 8f e4 a4 3d 92 62 07 bc e1 cc 35 3e 94 8c 28 bd
       0.080514066 -0.008263247 0.17753936 -0.04114969
000010 e9 14 41 bd 6a bf cb bd 31 59 a0 3d 44 27 95 3d
       -0.047139082 -0.09948619 0.07829512 0.0728288
000020 f7 91 bc bd 98 c8 15 bd 86 99 3e bd a1 2c d5 bc
       -0.09207528 -0.036568254 -0.04653313 -0.026022257
000030 dd 04 9f bd 73 dd 06 3d f7 13 8b bd 81 c5 c8 3d
       -0.077645995 0.032926034 -0.06790917 0.09803296
000040 43 cf d8 bd de e0 a1 bd 4f 15 31 3d d4 3c 63 bd
       -0.10586407 -0.07904218 0.043233212 -0.055477932
000050 a7 ed ed 3d 59 17 dd bd ba c8 c5 3d f1 d6 29 3a
       0.11617594 -0.10795469 0.09657426 0.0006478867
000060 db da 29 bd 91 cb cb bc ea c5 35 bd f2 5d 74 3d
       -0.041468482 -0.024877341 -0.0443782 0.059659906
000070 53 12 6b bd b8 0a a5 bd 1b 7f 41 3d c1 64 72 3d
       -0.057390522 -0.08058685 0.047240358 0.059178118
000080 e4 e7 40 3c b3 99 9b 3c 23 23 82 bc ec 8d a9 bc
       0.011774037 0.018994188 -0.015885895 -0.020697556
000090 e8 af 46 bc 6c 2b 3f bd d5 94 d6 bd 3e 16 0b 3e
       -0.0121269 -0.04667227 -0.10477606 0.13582703
0000a0 94 68 0a 3e 98 26 68 bd b9 08 49 3c 25 3f 17 be
       0.13516456 -0.05667743 0.012270146 -0.14770181
0000b0 d5 f3 29 3c 8c 50 69 bc e6 9f e4 bd 58 5e 4c bd
       0.0103730755 -0.014240395 -0.11163311 -0.04989466
0000c0 0f 75 dc 3d 49 b0 71 3d 5e 63 87 bc 0b 4e b2 3d
       0.10764515 0.05900601 -0.016526874 0.08706292
0000d0 70 f0 b8 bb 0c 2a cc bb 09 f8 cc 3d 72 61 93 bc
       -0.0056438968 -0.0062305983 0.100082465 -0.017990801
0000e0 06 de b9 3c b4 bb 9f 3d 16 14 3b be a6 9c 80 3d
       0.022688877 0.077994734 -0.18269381 0.06279878
0000f0 71 e3 b1 3d 4c 14 a3 bd 79 34 2b be 45 38 3c bd
       0.08685959 -0.07962856 -0.16719235 -0.0459521
000100 cb 57 87 3d 09 50 2f 3c 52 5c 2d 3e f7 ba de bd
       0.06608542 0.010700234 0.16929749 -0.108755045
000110 72 e4 55 bd b6 4d 9e 3d 71 25 50 bb e2 c5 d3 bc
       -0.052219816 0.07729666 -0.0031760598 -0.025851194
000120 07 13 98 3c 0a 46 e3 3b 5c e5 a7 3d 70 5f 94 bd
       0.01856376 0.0069358395 0.08198044 -0.07244766
000130 1d fd 03 be 2b e9 3c bb 47 d9 da 3d dd 45 85 bd
       -0.12889524 -0.0028825502 0.106859736 -0.06507466
000140 27 38 08 3d b4 d5 75 3c fa 63 65 3d d1 f1 b0 3d
       0.033256676 0.015004564 0.05600355 0.08639873
000150 9c 8b 4f 3d 01 a5 00 bd 57 7f da bd e4 86 31 bc
       0.05067025 -0.03140736 -0.106688194 -0.010835383
000160 6f d1 a4 3d 9d 09 27 bc 01 36 32 be f7 ed 3b bd
       0.08047759 -0.010195163 -0.17403413 -0.045881238
000170 ed c7 a1 3d a8 34 09 be c1 37 06 bd 53 df df bc
       0.07899461 -0.13398993 -0.032768015 -0.027328169
000180 ef d4 3b bc 40 1d 90 bc 8e be c7 3c d5 20 2a bd
       -0.011464342 -0.017592072 0.024382856 -0.041535217
000190 84 f1 05 3d ca 22 96 3d 96 df 3d bd 2b 01 d8 bc
       0.03270103 0.07330854 -0.046355806 -0.026367744
0001a0 52 e1 c7 3c b9 e9 dc ba 98 1d 42 3d bc aa 34 bd
       0.024399433 -0.0016854323 0.047391504 -0.044108137
0001b0 47 42 ae bd 8d 73 aa 3d 97 05 cd bd 93 26 21 bc
       -0.08508735 0.08322821 -0.10010832 -0.009835857
0001c0 91 09 c2 3c 92 16 31 3c d9 62 ff bd fa 4c 71 bc
       0.023686202 0.010808604 -0.124700256 -0.014727825
0001d0 c5 20 e8 3d c4 e0 0e be 99 f8 0a 3d 20 57 80 3d
       0.11334375 -0.13952929 0.033928487 0.06266618
0001e0 51 be 87 bd cb bb 22 be 3a 1b 83 3d b3 9a ac bd
       -0.06628097 -0.1589195 0.064016774 -0.08427944
0001f0 dc 49 05 bb 53 1a 05 3e 0d f6 63 bd 15 23 af 3c
       -0.0020338213 0.12998323 -0.055654574 0.021379033
000200 6b e8 4b bd 87 02 e6 bc ba 57 84 bd 94 f6 2e bd
       -0.049782198 -0.028077377 -0.06462045 -0.042715624
000210 2e c0 b6 bd 82 f1 e1 bc 2c c3 9f 3c 4e be 5b bc
       -0.08923374 -0.02758098 0.019502245 -0.013412071
000220 e4 e6 45 3d be a8 09 be 48 85 b3 bd ca 3e 9f 3d
       0.048315898 -0.13443276 -0.08765656 0.07775648
000230 36 cc d7 3c 39 97 ea bc 41 30 38 3d 0b 7d 2b ba
       0.026342493 -0.028636562 0.044967894 -0.0006541765
000240 8e 9e d9 3d b8 72 a2 bd b5 5e ad bc 97 62 33 be
       0.10625945 -0.07932037 -0.021163324 -0.17518078
000250 a9 19 3a bd 40 65 8c bc 87 e5 7d bd 29 f8 96 3d
       -0.045434628 -0.017138124 -0.061986472 0.073715515
000260 69 be 27 be 8e cc 4f bd a7 4b 3d bd 8a 22 32 be
       -0.1638123 -0.050732188 -0.046214726 -0.17395988
000270 60 f6 f5 bc c4 7c dc bc f2 d8 5a bc fa 8b 08 3d
       -0.030024707 -0.026914962 -0.013357388 0.033336617
000280 dd 2f 0d 3d 7c 38 04 3d 18 41 72 3d cd 30 5e 3d
       0.034469474 0.03228043 0.05914411 0.05424576
000290 15 0f fe bd 1e 49 20 be 3d c1 a2 bd 0b 61 44 bb
       -0.124052204 -0.15652892 -0.079470135 -0.0029965069
0002a0 69 59 33 3d 6d af 89 bd 0e 89 58 3c e4 22 67 3d
       0.04378644 -0.06722913 0.01321627 0.05642976
0002b0 ca 9f e2 3d a7 a6 f5 bd 51 49 6e 3c 2f d5 e2 bc
       0.110656336 -0.11994677 0.014543847 -0.027689544
0002c0 c9 b0 e0 3d 8a 88 4f bd 49 c8 70 be 5a 43 82 3d
       0.10971219 -0.050667323 -0.23513903 0.063605025
0002d0 26 bc d4 bc e3 91 c5 3d 8a bf 9f bd ec 97 86 3c
       -0.025968622 0.09646966 -0.07800205 0.016429864
0002e0 d7 69 92 bc 1f 0d 22 bd 12 25 cc 3c 53 0d c6 bc
       -0.017872734 -0.039563295 0.02492002 -0.024176275
0002f0 99 3c 76 bd 9f 84 d6 3c 0f c5 92 3d f9 5d 0f be
       -0.060116384 0.026186286 0.07166492 -0.14000691
000300 6b 44 27 3c 75 62 7e 3c 37 ac c0 3d e4 92 16 be
       0.010209183 0.015526404 0.094078474 -0.14704472
000310 0c 8b 5d be 2a f7 87 3d 9d 4b 4a bc 8d ce 6c bc
       -0.21635073 0.0663894 -0.012347129 -0.014453542
000320 d7 db 5a bd 6e 8b 12 b9 d1 b6 01 bd 7a 53 47 be
       -0.053432312 -0.00013975587 -0.031668488 -0.19465438
000330 ee 90 2f 3d e0 21 52 ba 43 ee 31 bd 68 22 70 b8
       0.042862825 -0.0008015912 -0.043440115 -5.7252502e-05
000340 67 87 1e 3c 34 8d 0c be 7c df 01 3c 77 11 15 bd
       0.009675837 -0.1372574 0.007926818 -0.03639361
000350 bc a2 e1 bd 36 e4 6b bc 54 d3 e0 bd 8f f4 8c bd
       -0.11017367 -0.014397671 -0.10977808 -0.06882583
000360 05 4b 46 3d 75 e5 8c ba 28 5b 98 3d 81 11 e0 bc
       0.048411388 -0.0010749536 0.07439262 -0.027352097
000370 2a 9f 2e 3d d6 0d 44 3d d2 5a 61 bd 1b a9 bf 3b
       0.04263226 0.047864757 -0.055018254 0.0058490164
000380 92 70 26 3c 87 7e 97 bc 4c e1 97 bc 6f 3f c4 bd
       0.010158675 -0.01849295 -0.018540047 -0.095824115
000390 3c f3 b0 3d f8 5f 09 3e 03 e9 e6 3d 39 61 05 be
       0.08640143 0.13415515 0.11274912 -0.13025369
0003a0 45 9b 00 be 79 96 23 3c 9d 95 cd 3d cd f0 2d 3d
       -0.1255923 0.009984606 0.10038302 0.042465974
0003b0 99 67 e2 3d 53 aa f6 3c af 92 d5 3d 74 34 3c 3d
       0.11054916 0.030110514 0.10428368 0.04594846
0003c0 83 1c 9a bd fc 6b 32 bb 08 b1 cf 3c 9e a4 fd bd
       -0.075249694 -0.0027225008 0.02535297 -0.12384914
0003d0 cb f4 8a 3d 3b 53 e3 bb 17 d7 ee bd 61 d6 02 bd
       0.06784972 -0.006937412 -0.11662119 -0.03194273
0003e0 8f 1d c5 bb f4 49 b6 bd 58 20 ea 3c bd ba 04 3d
       -0.0060154865 -0.08900824 0.028579876 0.03240465
0003f0 7b b2 f2 bd 2d 91 a5 bd 21 91 0a 3c 7f f9 4b 3d
       -0.11850449 -0.08084331 0.008457453 0.049798485

model1.5.conv.bias f4 [16]
000000 f3 08 80 3c b8 8c 44 bc 92 a6 eb bb 82 f1 19 3d
       0.015629267 -0.011996441 -0.0071914876 0.037583835
000010 90 e5 db 3c 00 28 a4 3c cf f0 37 3d f4 63 30 3b
       0.026842862 0.020038605 0.044907387 0.0026915045
000020 8f 56 02 bc e9 90 d0 3c f9 50 84 3c 56 bc d7 bc
       -0.0079552075 0.025459724 0.016151892 -0.026334923
000030 b6 7b ef 3c 6e e8 87 3c f6 76 25 bd de 21 8e 3c
       0.029233795 0.016590323 -0.040396653 0.017350134

model1.5.batch_norm.weight f4 [16]
000000 de c4 09 3f 23 22 00 3f 6e 20 f3 3e 99 8a fe 3e
       0.5381602 0.5005209 0.4748568 0.49715117
000010 e8 0d f6 3e f9 61 04 3f 57 a5 f1 3e bc 40 09 3f
       0.48057485 0.51711994 0.47196457 0.536144
000020 50 a4 0a 3f c6 18 00 3f 62 34 07 3f 9a f5 02 3f
       0.5415697 0.500378 0.52814305 0.5115601
000030 6a f5 fc 3e 74 b4 05 3f 81 d6 f1 3e 57 99 fe 3e
       0.49405986 0.52228475 0.47233966 0.49726364

model1.5.batch_norm.bias f4 [16]
000000 81 0d 36 bd d7 57 71 3b 3c 14 d8 3c b3 0b 40 bc
       -0.044446472 0.0036826038 0.026376836 -0.011721539
000010 e0 60 1c bd d2 b6 29 3d a7 cb 9d bc a4 1e 33 bc
       -0.038178325 0.041434117 -0.019262148 -0.010932598
000020 54 96 83 bd ef 88 f4 bc 21 d1 16 bc f6 6c 67 3c
       -0.06425157 -0.029850451 -0.009205134 0.014125099
000030 29 51 a4 bc e8 8a 95 3c 07 2c 54 bc a4 4b 75 bd
       -0.020058231 0.018254712 -0.01294995 -0.05988659

model1.5.batch_norm.running_mean f4 [16]
000000 6c a7 06 c0 09 8c 65 be 5c 95 6e be ef 20 f1 be
       -2.1039686 -0.224167 -0.23299164 -0.4709544
000010 20 8e 58 bf 8e 2f 2d 3f af 82 02 be d3 c5 b0 bf
       -0.84591866 0.6765069 -0.12745164 -1.3810371
000020 84 7d 51 bf c7 f8 91 bf 83 58 a2 3e 4a 2a 78 bf
       -0.81832147 -1.1404046 0.31708154 -0.9693953
000030 8a 35 5c bf 5e fb 11 be 18 2a 6f 3d 5f 56 6a be
       -0.86019194 -0.14256045 0.058389753 -0.2288451

model1.5.batch_norm.running_var f4 [16]
000000 7f 1f ea 3f 71 a1 f3 3f 7b 97 2f 40 ee b3 02 40
       1.8290862 1.9033643 2.7436206 2.042232
000010 dc 80 7a 3f 34 d6 08 40 91 b3 d7 3f fe cd 93 40
       0.97852874 2.138074 1.6851674 4.6188955
000020 f6 b9 48 3f 26 9b 07 40 79 34 54 40 ef 9b a7 3f
       0.78408754 2.1188445 3.3157027 1.3094462
000030 d6 e3 f0 3f 91 86 8f 40 5d f2 e0 3f e9 8a 1a 40
       1.881953 4.4851766 1.7573963 2.4147284
