models/convlstm/saved_models/lr_0.0001/epoch_500.pt (torch, 167444 bytes, 10 tensors)

encoder_1_convlstm.conv.weight f4 [48, 20, 3, 3]
000000 96 8c 9d 3c 6c 0e b0 bd 0c e6 71 3d 33 75 68 bd
       0.019232076 -0.08596501 0.05905728 -0.056752395
000010 93 98 e1 bd 7f bb 45 bd a8 22 3b bd cc 0e 29 3c
       -0.11015429 -0.048274513 -0.045687348 0.010318469
000020 d5 be 1d bd 8d 5d 8c bd e7 24 41 bd 18 3a d4 bc
       -0.03851207 -0.06853781 -0.047154333 -0.025906608
000030 72 44 2c 3d d7 62 80 bc ef f8 39 bd 5e 23 d9 bc
       0.042057462 -0.01567213 -0.045403417 -0.026506122
000040 72 3f 88 3d 03 ec 1a 3c e4 84 b4 bc 92 77 04 3c
       0.06652726 0.009455684 -0.022036023 0.008085148
000050 5b 1e 7a bd 1f bd ce bd 47 5a 4a bd ba 2b db bc
       -0.061064105 -0.10094666 -0.0494025 -0.026754249
000060 fc 5f a4 bd 69 a4 08 3d e5 e7 1f bd bf 3a c0 bc
       -0.0802612 0.03335992 -0.03903951 -0.023465512
000070 f9 95 b4 3b 7c 7f 85 3c e6 a6 aa bd 1f 68 60 3b
       0.005511042 0.01629614 -0.083326146 0.0034241749
000080 ae d9 38 bd cc 39 04 bd 79 1e 41 3d e5 c2 10 3c
       -0.04512947 -0.032281682 0.0471482 0.008835529
000090 74 e7 95 3d 05 74 a8 3c e1 f7 08 bd 65 a5 a2 bd
       0.07319537 0.020563135 -0.03343952 -0.07941703
0000a0 12 be 7d bd 6a a0 a7 3c 51 70 bf bd a0 11 5c ba
       -0.061948843 0.020462234 -0.093475945 -0.00083949603
0000b0 c6 64 a8 bd cc cd 58 3c c3 98 a3 3d 56 06 e2 3c
       -0.08222346 0.01323266 0.07988121 0.027590912
0000c0 58 e6 93 bc 8e cb d5 bc 14 f8 e0 bc 70 2d 77 b9
       -0.018054172 -0.026098039 -0.027462043 -0.00023572682
0000d0 a4 ef 9e bc da ab de bd 9d 5d 9e bd d7 f3 24 bb
       -0.019401379 -0.10872622 -0.07732699 -0.0025169754
0000e0 3b 9f d3 3c dd f8 f2 bc 0b ef 0c 3b 50 a6 2b 3d
       0.025832763 -0.029659683 0.0021504785 0.041906655
0000f0 c4 b6 ef 3a 6f 59 10 3c 45 46 c7 3d d0 74 80 bc
       0.0018288721 0.008810385 0.097302 -0.0156807
000100 06 25 57 bd 03 d8 55 bb 34 06 7a 3b 4b 37 62 3d
       -0.052525543 -0.0032629974 0.003815067 0.055228513
000110 55 65 af bc 9c e6 23 3d 01 27 48 3d 69 cb b5 bd
       -0.021410624 0.040014848 0.048865322 -0.08876688
000120 77 59 86 3d 5e 30 ed 3c 40 8f 4b bd 56 23 2b 3d
       0.06560033 0.028953727 -0.04969716 0.041781746
000130 cc 1e 23 3d 79 d7 a2 3d d8 04 9f 3c 94 1f 1f bb
       0.039824292 0.079512544 0.01941149 -0.0024280297
000140 bd 63 02 bd 29 81 3b 3d 92 fe 89 3d 4d be 27 bc
       -0.0318334 0.045777474 0.067380086 -0.010238242
000150 72 17 96 3d ac 46 44 3d d4 ee 76 bd aa b9 7d 3d
       0.073286906 0.04791896 -0.060286358 0.06194464
000160 ce 61 ac 3b f4 0f 59 bd b0 6d c0 3c 2e fd 25 bd
       0.0052606827 -0.05299373 0.023489803 -0.040524654
000170 86 ec 43 3d 8f 93 a1 3d 60 89 c0 3b c3 8e 74 3d
       0.04783299 0.07889473 0.0058757514 0.05970646
000180 08 13 73 3d 61 1f 99 3d 20 9a ae bc 22 ab f3 ba
       0.05934432 0.07476688 -0.021313727 -0.001859043
000190 29 49 13 3d be c8 66 bd cb 02 a4 3d 0b b8 97 3d
       0.035958443 -0.056343786 0.08008345 0.0740815
0001a0 0b 78 1a 3d 7e 6f 2f 3d d5 ba da bc f5 61 a6 3b
       0.03771214 0.042830937 -0.026700417 0.0050775954
0001b0 71 69 de 3c 71 e7 27 bd 9a d0 00 bd a4 6d 8c bd
       0.027149888 -0.040992204 -0.031448938 -0.0685685
0001c0 97 e1 12 3d a6 e7 d3 3c fe 0c 7d 3c 32 63 0f bd
       0.03585967 0.025867295 0.015444992 -0.03500671
0001d0 11 73 f9 3d f3 2e 51 bd 61 aa 28 3d e3 6a 96 3d
       0.1218015 -0.051070165 0.04117811 0.07344606
0001e0 cf 0b 88 bd 9a cb 62 bd df 0e 99 3b 58 73 bb bd
       -0.06642877 -0.05536995 0.004670962 -0.091528594
0001f0 13 00 46 3d ec cd f8 3c a4 88 85 3d c4 69 bc 3c
       0.048339915 0.030371629 0.06520203 0.022999652
000200 a0 10 a8 bc 52 5c 8d 3c 07 cd 59 bd 8e 5b cf ba
       -0.02051574 0.017255936 -0.053174045 -0.0015820132
000210 ce 10 7c 3d ac de 11 bc 66 c5 27 bd 2b 60 33 ba
       0.061539464 -0.008903187 -0.04095974 -0.0006842638
000220 33 82 40 3d 78 3d 13 3d 2d 92 1f 3d 7b 70 c8 3c
       0.046999168 0.035947293 0.038957763 0.024467697
000230 fa b2 a9 bb 11 82 cb bb 94 88 18 3c 9f b5 40 bd
       -0.0051788064 -0.0062105735 0.0093099065 -0.047048207
000240 40 bb 44 bd 47 9b 58 3d 2e 5b 00 bd ce 97 c3 3c
       -0.048030138 0.05288246 -0.031336956 0.023876097
000250 80 88 01 3d b4 8d 6c bd 32 cc 37 3d 22 2e 0e bd
       0.031624317 -0.057752326 0.04487247 -0.034711964
000260 19 8e 15 bd d0 5a 36 3d 86 cf 00 bd 52 0a 35 bd
       -0.036512468 0.0445202 -0.03144791 -0.044199295
000270 25 63 86 bc bc ef bb 3c ac b2 a9 3b 91 33 25 bc
       -0.016404698 0.022941463 0.00517877 -0.010083095
000280 88 a0 10 bc 76 94 d0 3b bf 2a 80 bd 24 57 c5 3a
       -0.008827336 0.006365354 -0.06258153 0.0015055877
000290 c9 31 19 3d 70 ef 2f bd 4c ae b7 bd 9a 7f bf bd
       0.037400994 -0.042952955 -0.08968791 -0.0935051
0002a0 2b 0d d1 3c 87 e7 07 3d 3c 0e d0 3c 64 d1 03 3d
       0.025518974 0.033179786 0.025397412 0.032182112
0002b0 9c bb 5b 3d 12 8b 1e 3c a2 4f a6 bb 0a af a8 3d
       0.053645715 0.009676712 -0.005075411 0.08236511
0002c0 1b 0b 88 bd 9b 3f 80 bd b6 9a 8d 3d 56 2b e4 bc
       -0.06642743 -0.06262132 0.069142744 -0.027852695
0002d0 6e 84 88 3c d1 6a c4 3c 2f 2e 4b bd ea 43 a0 bd
       0.01666471 0.023976715 -0.04960459 -0.078254536
0002e0 ec 5c d5 bb b1 69 f9 3c fe 63 18 bc 6d 9a a5 3d
       -0.0065113213 0.030445905 -0.009301184 0.08086095
0002f0 70 56 8f 3d f6 73 40 bd 02 ed 62 bd 44 9a 7b bc
       0.069989085 -0.04698559 -0.05540181 -0.015356604
000300 69 54 0e bd 25 9a 67 3d a9 8c 8e 3d 16 ff 6e 3d
       -0.03474847 0.056543488 0.069604225 0.058348738
000310 d7 ba 2a 3d 6a 1e d1 3d bd c7 26 3d 17 1d 44 bd
       0.04168209 0.10210879 0.04071783 -0.047879305
000320 4a cf b2 bd 00 2f 0b bd 0d cc 29 3d 5e f0 94 bc
       -0.087309435 -0.03398037 0.041454364 -0.018181022
000330 b1 78 31 3c 5e 69 71 39 f3 4c 75 bd f6 ce bf bc
       0.010831998 0.00023022803 -0.059887838 -0.023414116
000340 15 8c 94 3d e9 cc 29 3d 83 cf e3 3c 21 2c 51 bd
       0.07253281 0.041455183 0.02780891 -0.051067475
000350 7c ed 18 3d e7 ec 5c 3d 06 3b f7 3c 99 56 86 bb
       0.037335858 0.053936865 0.030179512 -0.0040996787
000360 6d e7 8b 3d 1c 44 75 bd 93 6e 6b bd 6a 25 66 bd
       0.0683125 -0.059879407 -0.0574785 -0.056188025
000370 24 ff 20 bd 97 6f b2 bd 64 33 99 3a b9 41 ac bd
       -0.03930582 -0.0871269 0.0011688289 -0.08410973
000380 a1 2a 18 be db a5 09 bd 0b 4f 81 bb 05 ab 8f bd
       -0.14860012 -0.033605438 -0.0039461902 -0.07015041
000390 7a ce 5f 3d 18 81 36 3d b6 9f 31 3d fc 21 ad 3d
       0.05464027 0.044556707 0.043365203 0.08453748
0003a0 56 06 50 bd c2 7c 7f 3d ff 81 fb bd 33 3e 91 3b
       -0.050787292 0.062374838 -0.12280654 0.0044324636
0003b0 e7 a9 73 3d 3a ea 2f 3d 77 39 fe 3d eb 16 74 bb
       0.059488203 0.042947985 0.12413304 -0.0037245105
0003c0 6a bf f1 bb a6 36 a7 bc 6b 71 16 3c 8e 6b 82 bd
       -0.0073775547 -0.0204118 0.009182314 -0.06368171
0003d0 3a 6b ae bc 66 68 6c 3d 0b 1e 5d 3b c3 b6 a9 bd
       -0.021291364 0.05771675 0.003373983 -0.08286812
0003e0 8e d6 88 3b 06 8c 3d bd 18 7e a4 bc 73 fb 37 3d
       0.0041759675 -0.046276115 -0.020079657 0.044917535
0003f0 ac 0b 3f 3b 72 36 b0 3c 0b 9b 03 3d ea 83 85 3d
       0.0029151244 0.021510337 0.032130282 0.06519301

encoder_1_convlstm.conv.bias f4 [48]
000000 33 9d 1d bd 56 6e ce 3d 3f 71 e5 3c 39 29 55 bd
       -0.038479995 0.10079639 0.028008102 -0.052041266
000010 e9 75 2a 3d b7 33 9a 3b d8 b0 7a 3d be 2c e8 3c
       0.041616354 0.004705872 0.061203808 0.028341647
000020 68 b5 7e 3d da 2d 93 3d 62 a7 bf 3d e5 f8 6b 3d
       0.06218472 0.0718648 0.093580976 0.05761041
000030 cb 5c fe 3c 84 96 f8 3c c8 a3 48 bc 9d c6 be 3d
       0.031050107 0.030345209 -0.01224608 0.09315226
000040 db 3a e1 3d 20 e3 b8 3d ab a1 0c bd 8c 2e cc bb
       0.10997554 0.09027696 -0.034333866 -0.0062311348
000050 f2 8f 54 3d 9c 11 e3 3c 77 a2 74 bc ab 26 c5 3d
       0.05189509 0.027718358 -0.014931313 0.09626516
000060 d2 98 bb 3d fb 7f e3 3c 0c 07 94 3c e4 5f 35 3d
       0.091600075 0.027770987 0.018069766 0.0442809
000070 da e7 58 3d 14 e3 03 3d af e0 d2 3d 35 69 3d 3d
       0.052955486 0.03219898 0.10296761 0.04624291
000080 72 17 cd 3d ad 75 d0 3c fe 5a 0a 3b df ce f1 3d
       0.100142375 0.025446737 0.0021111364 0.11807036
000090 38 cf 46 bd 02 cd b4 3b 4b 76 84 3d e9 12 9b 3d
       -0.048537463 0.005517603 0.06467875 0.07571966
0000a0 10 ba 9a 3b 5f 8f 98 bd d2 b4 71 bd 61 47 83 bb
       0.0047218874 -0.07449221 -0.059010334 -0.0040063118
0000b0 05 76 c4 bd 4e 25 a6 bd b6 d8 9b bd 02 31 f1 bc
       -0.09592823 -0.08112584 -0.07609694 -0.029442314

encoder_2_convlstm.conv.weight f4 [48, 24, 3, 3]
000000 6d da db bd 6b b3 a5 bd a9 82 e6 3d d2 08 b3 bd
       -0.10735021 -0.08090862 0.1125539 -0.08741917
000010 bb 2a 07 bd 42 2d 7f 3d 56 da 47 bd e8 81 f9 3b
       -0.032999735 0.06229902 -0.048792206 0.007614363
000020 3e 52 bb bd fc c9 d0 bd 5a 71 cb 3c 70 86 92 bc
       -0.09146546 -0.101947755 0.024834324 -0.01788637
000030 3a 22 2c 3c 5d 88 7d 3d 7a 27 18 3d 5d 4e 5f bd
       0.010506207 0.061897624 0.037147023 -0.054518092
000040 77 1f b6 3c 19 00 42 bd 5d 56 3a bd 48 7a ea bb
       0.0222318 -0.047363374 -0.04549252 -0.0071556903
000050 45 84 5a 3c 86 2c cd bb 0f 4c a4 bb 5e 6d ad 3c
       0.0133372 -0.006261411 -0.0050139497 0.021170314
000060 7c 20 34 bd 12 09 b6 3c 59 40 b5 bc e3 2c dc bc
       -0.043976292 0.022221122 -0.02212541 -0.026876872
000070 41 27 79 bd 2c 8d ca 3c d9 9b f8 3c fc 46 67 3d
       -0.06082845 0.02472552 0.030347751 0.05646418
000080 92 72 a4 3d e0 3a 41 bd c5 53 a0 3b 8d f1 9f bb
       0.08029665 -0.04717529 0.0048927986 -0.00488109
000090 7e 91 a6 bc 20 7a 8c 3d b0 c4 ab 3d e3 05 84 3d
       -0.020333048 0.06859231 0.083871245 0.06446435
0000a0 8a 5e fd 3c 7b e4 20 bc a3 13 24 3d 8b 06 a1 bc
       0.030928869 -0.009820099 0.04005779 -0.01965644
0000b0 f4 37 38 3d fb e9 1c 3d ca 58 3a 3d cb 8a c7 bb
       0.044975236 0.03830908 0.045494832 -0.0060895435
0000c0 6f 8c 86 bd a1 56 d4 3b 51 05 e2 bc 8a 52 a4 3b
       -0.06569754 0.0064800535 -0.027590426 0.0050147222
0000d0 03 34 f7 bc 1d d2 00 3d 37 70 84 3d 85 e1 8b 3c
       -0.030176168 0.03145038 0.06466716 0.01707531
0000e0 0f b4 1c 3c 4a 28 c9 bc 83 42 0e bd d3 e0 b8 bb
       0.009564414 -0.024555344 -0.0347314 -0.0056420355
0000f0 c3 98 f8 3c d2 35 4c 3d ad 03 65 bc 4c 02 1c bd
       0.03034628 0.049856015 -0.013977927 -0.038088128
000100 51 18 ee 3b 55 f2 b3 3c a9 79 a6 3c 79 8a 0d bd
       0.0072660823 0.021966139 0.020321684 -0.034555886
000110 40 9a 43 3d 74 cb f7 3c d6 73 ce 3c c8 5f 3f 3d
       0.047754526 0.030248381 0.02520172 0.046722203
000120 56 5d b7 bc 38 e4 03 3d a1 3f 90 bd 97 f6 f8 bc
       -0.022383373 0.03220007 -0.07043386 -0.03039102
000130 32 8f 26 bd 79 69 17 bd 4f 98 72 3d 9f f5 6e bd
       -0.040663905 -0.03696582 0.059227284 -0.05833971
000140 ce 26 22 bc 69 e2 0f 3e 29 98 d6 3d cd 1c 31 bc
       -0.009896947 0.14051212 0.10478241 -0.010810089
000150 ad 0e 87 bc e2 b0 dc bc da be 34 3c 88 8d 9d 3c
       -0.01648649 -0.026939813 0.011031831 0.019232526
000160 16 b9 1e 3d 31 28 6b 3d dc 2a bc 3d a3 62 1c 3d
       0.03875073 0.057411376 0.09187862 0.038180005
000170 f2 a6 24 3b 8f dd 15 3e c5 4c 15 bd 13 3c ad bd
       0.0025123921 0.14635299 -0.036450166 -0.08458724
000180 4f 85 e2 3d ae 55 72 3d bf dc db 3d 3e c7 22 bd
       0.11060583 0.05916374 0.10735463 -0.039740793
000190 e2 8f 41 3d 03 51 11 bd e5 23 b9 3b 2d 33 84 3c
       0.047256358 -0.03547765 0.005650031 0.016137684
0001a0 ea 07 f6 bc 32 37 78 3d 38 e0 54 bd ea b1 f0 bc
       -0.03003307 0.060599513 -0.051971644 -0.029381711
0001b0 f0 2c 7b bd 8b cb 56 bd c2 92 7a 3d 69 49 7f bd
       -0.061322153 -0.052440207 0.061175115 -0.06232587
0001c0 cb 00 04 bb 7a d8 27 3d 63 2b fd 3c cd d2 18 bd
       -0.0020142074 0.040977933 0.030904477 -0.03731041
0001d0 5b 3d 3e 3d 43 ad 54 bd 12 69 7a bc 86 af 97 bc
       0.046445232 -0.051923048 -0.01528384 -0.018516313
0001e0 77 d3 36 3d f9 49 cc 3d fc 68 68 bc 06 39 08 3c
       0.044635262 0.09975047 -0.0141851865 0.008314377
0001f0 5f 92 bf 3c 0e 69 b7 3c dd 2e 0c 3d 5a 9d ce 3d
       0.023385225 0.022388961 0.03422438 0.10088606
000200 dd 1d 05 bd 13 71 00 3e ef 42 be 3d 16 98 ba 3c
       -0.032499183 0.12543134 0.0929011 0.022777598
000210 b5 b6 04 3d 53 3c 80 3d e9 04 8d 39 ec 4c 8d bc
       0.032400806 0.06261506 0.00026897274 -0.017248593
000220 41 4a 29 3d 1b b0 1e bd bb 16 a6 3d 02 b2 71 3d
       0.04133058 -0.038742166 0.08109804 0.059007652
000230 e5 c2 9c bb b0 f2 5c 3d c6 30 40 3d 64 21 ce bc
       -0.0047839754 0.053942382 0.046921514 -0.025162406
000240 56 34 71 bc a7 97 7b bd 20 10 5f bc 03 58 e2 3b
       -0.0147219505 -0.061423924 -0.013614684 0.0069074645
000250 df 91 1b 3d 4e cd 45 bd f5 ed 99 bc 1f 90 db bc
       0.03798091 -0.048291497 -0.018790225 -0.02680212
000260 b7 57 da 3c 50 98 86 3d 8d af b4 3d 34 bd a8 3c
       0.026653154 0.0657202 0.08822546 0.020598032
000270 8f 09 23 bc 20 29 98 3d 0c b2 a0 3d b5 05 0b 3b
       -0.009951009 0.07429719 0.0784646 0.0021213118
000280 4b fd 73 3d 68 99 6e 3d b8 85 e0 3d 8f ab 59 3d
       0.05956773 0.05825177 0.10963005 0.053142127
000290 4b 06 83 bd 76 b6 fe 3b f2 43 1d 3c 60 e2 ea bd
       -0.06397685 0.007773216 0.009598719 -0.11468959
0002a0 2c 84 dc bc ee 25 91 bd 46 36 2f bc b8 bf 30 bc
       -0.026918493 -0.07087313 -0.010694092 -0.010787897
0002b0 e2 45 83 bd 15 c6 77 bd 58 71 86 bd 26 c6 03 bc
       -0.064098135 -0.06049164 -0.06564587 -0.008042848
0002c0 48 6b e3 3c 8d 3d 40 bd c6 04 bb 3a a2 d6 35 3d
       0.027761117 -0.0469337 0.001426839 0.044394143
0002d0 cf 3b 38 3d 88 7c 3f bc ac 89 d3 bc 6d 99 23 bc
       0.044978913 -0.011687405 -0.025822483 -0.00998531
0002e0 b3 d3 03 bd 5c ec b8 bd fd 0a 22 3d b1 f4 23 bd
       -0.032184314 -0.09029457 0.03956126 -0.040028278
0002f0 b2 e8 1d 3c 3c b1 a6 bb be f3 11 bc 4d 72 28 bd
       0.009637998 -0.005087046 -0.00890821 -0.04112463
000300 79 ba 5a bd 96 31 d3 3b f3 01 41 bd d5 d0 52 bd
       -0.05340049 0.00644512 -0.047121 -0.05146869
000310 5d 75 4b 3d 44 ff 52 3d c3 3a 14 ba 53 3b 77 3c
       0.049672473 0.05151297 -0.0005654508 0.015089828
000320 3d 6f 78 bd 25 85 e7 3c b4 04 a4 bc 48 71 56 3d
       -0.06065296 0.02826173 -0.020021774 0.052354127
000330 e7 c4 3a bd 5a a6 e3 b9 84 5b 8c 3d c8 7e 62 bc
       -0.045597937 -0.00043420756 0.06853393 -0.013824172
000340 d4 f6 9e bc 6e 92 07 3d d9 88 16 bd 17 3d 47 3d
       -0.019404806 0.03309863 -0.0367516 0.048642244
000350 3f d0 54 3d 48 96 14 bd f8 77 05 3d 53 9e 69 3d
       0.05195641 -0.036276132 0.032585114 0.057035755
000360 d5 d9 c6 3d 1a e2 83 3b 77 f3 aa 3d e1 a6 94 3d
       0.09709517 0.004024756 0.083472185 0.07258392
000370 06 fb b1 3c c5 92 2b 3c 0d 85 c8 3b 37 6a 2d bd
       0.021726143 0.010472004 0.0061193765 -0.042337622
000380 42 17 74 bc 49 8f 04 3d 15 22 40 3d eb 57 ac 3d
       -0.014898123 0.03236321 0.046907503 0.084152065
000390 e2 c2 c1 bc cf 62 a4 3c 63 07 cf bc e7 15 1c 3c
       -0.023652498 0.020066647 -0.025272077 0.009526706
0003a0 c3 42 2f bd 97 9c 6b 3d 29 cc f8 bc 36 67 b3 3d
       -0.04278828 0.057522383 -0.030370789 0.0875992
0003b0 f0 7c 51 3d 72 22 1b 3d b7 1a 2c bc 40 9d e4 bc
       0.05114454 0.037874646 -0.010504416 -0.027907014
0003c0 bb 8e 5a bd 2d b7 a9 3c 15 1d 2f 3d ad 5b 98 3c
       -0.053358775 0.020717228 0.042752344 0.018598402
0003d0 1d 30 48 3d 26 f7 1f bb 1c 7d 71 bc f2 f3 fd 3b
       0.04887401 -0.0024408787 -0.014739301 0.007750028
0003e0 9c 3c 54 3d 00 21 4c bc 58 d3 54 3d e7 4a 64 bd
       0.051815614 -0.01245904 0.051959366 -0.055735495
0003f0 91 b1 9a bb e6 c2 65 bd c1 2b 4c 3c 17 36 d5 bb
       -0.0047208746 -0.056094073 0.012461604 -0.006506692

encoder_2_convlstm.conv.bias f4 [48]
000000 2b 02 98 3d 99 9c 8e 3d 32 7e 1d 3d a3 72 87 3d
       0.074222885 0.069634624 0.038450427 0.06613662
000010 d9 2a 10 bc 6d 29 84 3c 0d 39 00 3e cf 58 e7 3d
       -0.008799278 0.016133035 0.12521763 0.11296236
000020 5a 7a 7f 3d 2c ac a8 3c 8c cf 9e 3c 8f 3a 87 3d
       0.062372543 0.02058991 0.019386075 0.06602966
000030 e9 91 01 3d 99 26 83 3c 12 6d 66 3d 30 7d 07 3d
       0.03163329 0.016009616 0.05625636 0.033078372
000040 c7 f6 c2 3d 9c 78 6d 3d c0 e6 c9 3d 30 79 dc 3d
       0.09519725 0.05797635 0.09858465 0.10765302
000050 dc f3 6e 3d 0c 37 2f 3d 1d 6e 7a 3d e0 97 d4 3c
       0.05833803 0.042777106 0.06114017 0.025951326
000060 da 79 5e 3d 8b d5 a1 3d ac 84 38 3e a3 0f 9a 3d
       0.054315425 0.07902058 0.1801936 0.07522514
000070 19 3e a3 3c 8d ce 69 3d 66 cb 00 3e 24 9e 09 3e
       0.019927071 0.057081748 0.1257759 0.13439232
000080 a3 51 ff 3c 6d be 8e 3c 86 15 19 3e 0b cc d6 3d
       0.031166857 0.017424786 0.14949617 0.10488137
000090 08 d0 0c bd fe 9f 41 3d ba 97 c0 3c 4e 52 be 3b
       -0.03437808 0.04727172 0.023509849 0.0058081513
0000a0 53 cb 9c bd fc 1d fc 3c 74 2c 5c bd 6e 5c 90 bc
       -0.076559685 0.030776016 -0.05375333 -0.017622199
0000b0 5e 2d ee 37 28 9a 01 bd 7d 81 3f 3d 4f 30 5e 3d
       2.8392937e-05 -0.031641155 0.04675435 0.05424529

decoder_1_convlstm.conv.weight f4 [48, 24, 3, 3]
000000 8c c1 9a 3d f1 ad ae 3d 71 97 22 3e fd 4f 0a 3e
       0.075564474 0.085292704 0.15878083 0.13507076
000010 3f d4 f4 3d 4b 4d c5 3d 68 d2 b5 3d 73 2c b6 3d
       0.11954545 0.09633883 0.088780224 0.08895197
000020 c8 7b 70 3d b6 4f ea 3d f5 2c 02 3e 63 ee e7 3d
       0.058711797 0.11440985 0.12712462 0.113247655
000030 ed 27 01 3e bf f4 04 3e 3e 0e 19 bc 05 c4 6c 3c
       0.12612887 0.12983988 -0.0093417745 0.014451032
000040 de 6b 77 3d 49 cf 33 3d 9a 30 5d 3d e9 9b 33 3d
       0.060405605 0.043898854 0.05400143 0.04384986
000050 cd e2 00 3e 3c 30 1d 3d 2f e4 fb 3d 2b db a7 3d
       0.12586518 0.038376078 0.12299382 0.081961
000060 34 3b b4 3d be 96 e8 3d de 4e 58 3c 8c 1a 1a 3e
       0.088003546 0.11356877 0.013202397 0.1504919
000070 4a 19 09 3e 03 82 e4 3d 12 cd 0c 3e 15 05 80 3d
       0.13388553 0.1115761 0.13750103 0.06250969
000080 23 b0 ef 3d 22 33 95 3d 8a e1 e8 3d 74 dd 54 3d
       0.11703517 0.072851434 0.11371143 0.051969007
000090 05 03 a0 bd 35 90 4c bd 6e 45 05 be 34 55 b4 bd
       -0.07813076 -0.049942214 -0.13014767 -0.08805314
0000a0 34 50 cf bd a0 0d 9d bd b7 af 8e bd af ea 08 be
       -0.101227194 -0.076686144 -0.06967109 -0.13370775
0000b0 07 e3 09 be 08 c8 bc 3d 47 83 ea 3d 7e e6 ab 3d
       -0.1346551 0.092178404 0.114508204 0.08393572
0000c0 90 f3 bd 3d a3 63 a9 3d 33 f5 e0 3d 29 82 d5 3d
       0.092749715 0.08270957 0.10984268 0.10425217
0000d0 09 59 37 3d 86 e5 a6 3d b4 11 84 bd aa 1f 81 3d
       0.044762645 0.08149247 -0.06448689 0.063048676
0000e0 f5 af 13 3d af 7d 01 3d 39 5f 22 3d f7 02 76 3d
       0.036056478 0.031614 0.039641593 0.06006142
0000f0 ae b2 81 3d 6c 20 3e 3d b7 47 d9 3c b4 02 52 3d
       0.063329086 0.04641764 0.026523454 0.05127211
000100 4e 73 91 3d 4d 3e b1 3d 42 56 d9 3c 4b c4 f4 3c
       0.07102071 0.08654461 0.026530389 0.029878756
000110 0b 67 f0 3d 56 21 dc 3d e7 88 cc 3d 13 97 0b 3e
       0.11738404 0.10748546 0.099870495 0.13631849
000120 5c 10 ac bd be 8d d3 bd 86 cc bf bc 9c e8 67 bd
       -0.08401558 -0.103297696 -0.023412954 -0.056618318
000130 f8 42 02 be da 1d 58 3c e4 f6 ff bb c3 40 c7 bc
       -0.12720859 0.013190711 -0.007811414 -0.024322873
000140 0d f9 84 bd 9a 4b ee 3d f2 01 b5 3d b7 1b 27 3e
       -0.06492815 0.116355136 0.08838262 0.16319166
000150 63 d5 8e 3d 43 25 94 3d 84 a3 e3 3d ef e6 fd 3d
       0.06974294 0.072336696 0.111151725 0.12397563
000160 d3 7c 0d 3e 8d 58 84 3d 7f 23 b3 3d 16 72 39 3e
       0.13817148 0.06462202 0.08747005 0.18109927
000170 a7 6f bf 3d 8b 41 0a 3e d5 91 ce 3d 41 b7 ab 3d
       0.09347468 0.13501565 0.10086409 0.08384562
000180 e6 1d aa 3d 8b db af 3d ef 8e 22 3e ee 0f 0f 3e
       0.08306484 0.085867964 0.15874837 0.1397092
000190 b2 10 de 3d e6 dc 40 3e 08 90 17 3e 38 0f b1 3d
       0.10843028 0.18834266 0.14801037 0.08645481
0001a0 a0 14 26 3d 30 52 d5 3d 22 a7 28 3e f2 f0 04 3e
       0.040547013 0.10416067 0.16470006 0.12982538
0001b0 d1 30 3b 3d e8 5f 85 bc db 69 99 bc 4a 20 90 3d
       0.04570085 -0.016281083 -0.018727234 0.07037409
0001c0 03 02 11 3d d3 7f b4 3d af f6 80 3d d8 a5 c1 3d
       0.03540231 0.08813443 0.06297051 0.0945546
0001d0 6c 74 be 3d 89 50 9c 3d ec 8e 47 bc 3b 19 d9 3a
       0.092995495 0.07632548 -0.012180071 0.0016563305
0001e0 d8 d0 8d 3d f1 fc c9 3c 57 15 eb 3d 0e 14 a2 3d
       0.069245994 0.024656745 0.114786796 0.079139814
0001f0 9f 58 eb 3c 67 74 c5 3d fc 67 80 bc 03 20 89 bd
       0.028728781 0.096413426 -0.015674584 -0.06695559
000200 5c 9c 6d bd 4f 12 88 3c 0f 1c e9 3c 53 b0 f2 3c
       -0.058010444 0.016610293 0.028455762 0.029625094
000210 61 60 4c 3c e7 4d 2b bd 27 cc 2a 3c 5d 3d d1 bc
       0.01247415 -0.04182234 0.01042465 -0.025541956
000220 60 45 1d 3d 7c a7 a9 3d 8f eb 03 3d 6c 3f cf ba
       0.03839624 0.08283898 0.032207068 -0.0015811748
000230 38 ed 24 3d a5 bb 3c 3c 6d ff 87 bc 11 f9 b4 3c
       0.040265292 0.011519347 -0.016601289 0.02209142
000240 17 a6 15 3d 16 26 b7 bc 73 1e a5 3d 2b a3 4f bd
       0.03653535 -0.022357028 0.08062448 -0.05069272
000250 62 6c 82 3d ff 28 d6 3d 37 94 16 bd 57 f6 0a 3c
       0.06368329 0.10457038 -0.036762442 0.008481584
000260 24 7c ca 3d 14 48 43 3d 3a 4a d1 3d bd d0 37 3d
       0.09886959 0.04767616 0.10219236 0.044876803
000270 8f b2 22 3c 04 36 a2 3d d8 0d 8c ba 3a b2 22 3c
       0.009930267 0.07920459 -0.0010685278 0.009930188
000280 cc f2 93 bc ab 89 93 3d 4d 4e 19 3d df 4d b5 bc
       -0.01806011 0.072039925 0.03742819 -0.022131858
000290 04 c2 71 3d 0e 8e 27 3c 6a f2 52 3d ae 98 c0 3c
       0.05902292 0.01022674 0.051500715 0.023510303
0002a0 3e ac a7 bc dc 4a 8c 3d 32 09 c0 3c 7a 37 46 3d
       -0.020467874 0.06850216 0.023441885 0.04839275
0002b0 5f 25 91 3b a2 25 49 bd 84 37 5a bd 6a 04 3f 3d
       0.004429504 -0.049108155 -0.0532756 0.04663507
0002c0 c9 ed 86 bd 91 6a e2 3c 2b 36 24 bc 26 0f cc 3a
       -0.06588323 0.027638705 -0.01002268 0.001556848
0002d0 97 95 84 bc 58 66 67 ba 67 aa c3 bd fb 42 6a bd
       -0.016184611 -0.0008827201 -0.09553986 -0.057192784
0002e0 a0 f5 97 bc ce 14 7c 3c db 99 89 3c cf 1e b2 bb
       -0.01854974 0.01538582 0.016796997 -0.0054358016
0002f0 34 47 14 bd 65 70 18 bd 6c a2 03 3d a8 8d 29 bd
       -0.036200717 -0.037216563 0.03213732 -0.04139486
000300 58 c2 90 bd 9c b3 a2 bd 2b 1a 8c bd 41 53 e0 3c
       -0.07068318 -0.07944414 -0.06840929 0.027383449
000310 6d 7a 12 bd 85 72 a5 bd 70 f2 98 3c 35 33 2a 3d
       -0.035761286 -0.080784835 0.01867029 0.04155274
000320 07 f8 d2 bd c3 c0 0b 3c 34 53 0b 3d fd ca ce bd
       -0.10301214 0.008529845 0.034014896 -0.10097311
000330 02 87 17 bd 3e 0d 54 3c 34 19 14 bd 0a 3c 33 bd
       -0.036993988 0.01294261 -0.036156848 -0.04375843
000340 1f 3f 5a 3d fe 2d 15 3d b0 35 4e 3d be 55 88 bb
       0.053282853 0.036420815 0.05034417 -0.004160612
000350 ff b5 94 3d 47 62 35 bd 23 34 83 bc 96 d8 77 3c
       0.072612755 -0.044283178 -0.016016072 0.015127322
000360 ed 4c bf 3d be 79 1d 3e 3f b1 90 3d e9 4d fe 3d
       0.09340844 0.15378472 0.07065057 0.12417204
000370 c6 42 2f 3e 77 00 f2 3d 10 fb 61 3d 19 f6 03 3e
       0.17115316 0.11816495 0.055171072 0.12886848
000380 dd ac c8 3d 07 29 ca 3d 73 cb 0c 3e ec 80 f5 3d
       0.09798596 0.098711066 0.13749485 0.119874805
000390 9f 8a 97 3d 2b 43 a2 3d 21 fb 99 3c a1 70 02 3d
       0.07399487 0.079229675 0.018796505 0.031845693
0003a0 3d 5c c6 3d 14 89 6a 3d aa 4a 0e bd ac 38 c9 3c
       0.09685562 0.057259634 -0.034739174 0.024563156
0003b0 b1 c9 20 3d b9 29 3d 3d e2 fc 84 3d d6 53 89 3d
       0.039254848 0.046182368 0.06493546 0.067054436
0003c0 ed 72 b0 3d bb 0a 49 bc 9e 6e 8c bb dc bf 9a 3d
       0.0861567 -0.012270625 -0.0042856475 0.075561255
0003d0 c6 74 61 3d 8a 8c 83 3d fe a1 de 3d b0 4d 19 3e
       0.055043004 0.0642329 0.10870741 0.14971042
0003e0 85 51 db 3d 3c f9 97 3c de 94 54 3d d5 3a 89 3d
       0.10708908 0.018551461 0.051899783 0.067006744
0003f0 e9 7d 0a be af 7e 52 bd 24 ba 5f bd 7d 69 b5 bd
       -0.13524593 -0.051390346 -0.054620877 -0.08858011

decoder_1_convlstm.conv.bias f4 [48]
000000 61 4b af 3d 53 5d ba 3d ea c1 8c 3d 58 dd 15 bc
       0.08559299 0.090998314 0.06872924 -0.009147011
000010 8b 0e b8 3d bd 01 ae 3c 29 20 af 3d 63 d7 f4 3c
       0.08987149 0.021241063 0.08551056 0.02988786
000020 64 a6 78 3d 3b f7 22 3d 60 bd a4 3d f7 3d eb 3d
       0.060705557 0.03978656 0.08043933 0.11486428
000030 09 45 84 3c eb 85 7b bc 78 9b 0b bd 42 73 c2 bc
       0.0161462 -0.015351753 -0.034083813 -0.0237366
000040 b6 7a 6c 3d fc a9 a6 3c 78 de 24 3d 14 72 34 bd
       0.057734214 0.020344727 0.040251225 -0.044054106
000050 c3 6e 82 3d 56 0e ad 3d 91 fc b9 bc 79 37 c9 3d
       0.06368782 0.0845 -0.02270344 0.09825034
000060 93 3b ea 3d 6c 1e 15 3e 7c 6a 04 3e 8d a2 ab bc
       0.11437144 0.14562386 0.12931246 -0.020951534
000070 2f 21 53 3d e0 f3 f0 3d 35 f4 00 3b 3c ec 43 3c
       0.05154532 0.117652655 0.0019676809 0.011958178
000080 72 4a 96 3d 12 b1 eb 3b 21 67 4f 3d 03 de 87 3c
       0.07338418 0.0071927393 0.05063546 0.016585356
000090 20 ae 06 3d d2 38 72 3d b5 ee 26 3c 09 26 c4 3c
       0.032880902 0.05913622 0.010188748 0.023943918
0000a0 ae aa 4c 3d 5d 97 5e bc 74 af 55 3d 1a 78 7d bd
       0.04996746 -0.0135858925 0.05216928 -0.061882116
0000b0 a9 76 98 bd 8c 15 05 bc b1 f1 a0 bc ec 35 41 bc
       -0.07444508 -0.008122813 -0.019646497 -0.011792641

decoder_2_convlstm.conv.weight f4 [48, 24, 3, 3]
000000 88 c5 82 3d 37 91 f9 3d e3 1c 47 3e e8 8c a1 3d
       0.06385332 0.12185901 0.19444613 0.07888204
000010 3b 73 c9 3d 9b c3 f5 3d 20 f2 c0 3d 09 e0 14 3e
       0.098364316 0.120001994 0.09421182 0.14538588
000020 f1 0c fe 3b 0f 7a 55 3e 58 48 3c 3e de 24 e8 3d
       0.0077530076 0.20847343 0.18386972 0.11335157
000030 94 77 e2 3d 1e 91 4f 3e 86 77 44 3e 88 27 0e 3e
       0.11057964 0.20270202 0.1918622 0.13882267
000040 cd 24 22 3e 88 45 0c 3e 92 5b 05 be f7 a1 11 be
       0.15834351 0.13698399 -0.13023213 -0.14221941
000050 84 28 36 bd 74 a1 0a be 33 cd b2 bd e3 42 6e bd
       -0.044472232 -0.13538152 -0.08730545 -0.058169257
000060 26 76 ce bd 17 13 06 be a3 c2 98 bd 67 06 c3 3d
       -0.10081129 -0.1309322 -0.07458999 0.095227055
000070 29 1b 06 3d 5c 29 ed bb eb 49 e1 3d a7 17 be 3d
       0.032740746 -0.0072375964 0.11000427 0.09281855
000080 17 50 b6 3d 2a 67 10 3d 33 23 d8 3c 68 6e 0a 3e
       0.08901995 0.035254635 0.026383972 0.13518679
000090 36 7d 18 3e b4 d3 25 3e c2 cd 03 3e 1e c2 ad 3d
       0.14891514 0.1619404 0.12871459 0.084842905
0000a0 d5 80 3e 3e 12 31 2b 3e 9c fd ba 3d f8 f7 ed 3d
       0.18603833 0.16717938 0.091304034 0.11619562
0000b0 56 a2 d8 3d 48 65 55 ba af 2c d1 3d 18 89 fd 3b
       0.10577838 -0.0008140397 0.10213601 0.00773729
0000c0 8e 50 42 bd bb 4d 7c 3d d1 c8 9f bc 56 f7 8a bd
       -0.047440104 0.061597567 -0.019504936 -0.06785457
0000d0 9c 23 33 3d 1c 0c 1e 3c ad f2 4d 3d 4a 85 1b 3d
       0.04373513 0.009646442 0.05028026 0.03796891
0000e0 53 a3 de 3d b7 38 0c 3e 56 87 3d 3d 0a 2f 3f 3d
       0.108709954 0.1369351 0.046271645 0.04667572
0000f0 0f 76 86 3c bf f1 a2 3d a6 a4 85 3d ca 22 ab bc
       0.016413717 0.07956266 0.06525545 -0.020890612
000100 84 59 8e bd 73 3e 55 bd 93 4d e2 bd f9 0d ed bd
       -0.069506675 -0.05206151 -0.11049952 -0.11574931
000110 77 9e 14 be ad 70 63 bd 72 b2 07 be 9f 80 c2 bd
       -0.14513575 -0.055527378 -0.13251665 -0.09497189
000120 10 ed ca bd 1a 12 ee bd 9a a8 18 be a0 fc f3 bd
       -0.09908497 -0.11624546 -0.14908066 -0.11913419
000130 2e 62 09 be b7 f9 0c be c0 17 44 bd 9e e4 0a be
       -0.13416359 -0.13767134 -0.047874212 -0.13563773
000140 81 fa 36 bd ee ab a5 bd d5 af 72 bd 30 b4 41 bd
       -0.044672493 -0.080894336 -0.059249718 -0.04729098
000150 1f 58 26 bd 81 0a eb bd e2 0b ee bd f3 06 ac bd
       -0.040611383 -0.11476613 -0.1162336 -0.08399763
000160 34 83 f6 bd 64 e4 b7 bd d5 df 86 bd 82 bc 0a be
       -0.12036744 -0.08979109 -0.06585661 -0.13548473
000170 82 34 a0 bd 61 bb d9 bd 9d d6 a8 bd 47 85 1d be
       -0.07822515 -0.10631443 -0.08244059 -0.15382873
000180 c6 98 91 bd 2b ae fe bd d1 e1 fc bd ee dd 99 bd
       -0.07109217 -0.12435564 -0.123477586 -0.07513033
000190 fa 09 f5 bc b3 f2 16 bd 98 2c 2e 3c 1c 95 2a bd
       -0.029911984 -0.03685255 0.010630749 -0.041646108
0001a0 46 ff 6d bc e9 01 43 bd 39 f7 59 3d 01 44 0b 3d
       -0.014526194 -0.047609244 0.053214286 0.0340004
0001b0 29 32 40 3b ef d7 4e bd 9c f4 74 bb 40 3a 45 3d
       0.0029326773 -0.0504989 -0.0037377244 0.048151255
0001c0 77 db db bc fe 82 cb bc b7 eb 8b bd 10 fe 60 3b
       -0.026838047 -0.024842735 -0.068320684 0.003433112
0001d0 58 6d 04 bd 16 66 9f bc e4 10 9f bd 52 58 20 bd
       -0.03233084 -0.019457858 -0.077668935 -0.03914673
0001e0 e7 c0 8d 3d 6f f7 03 bd 70 36 e3 bd 98 18 15 3c
       0.06921559 -0.032218393 -0.110943675 0.009100102
0001f0 aa 46 c5 bc 09 f2 9c bd 3c e6 54 3d 7c e4 c3 3c
       -0.024081547 -0.07663352 0.05197738 0.02391266
000200 84 9a ac 3c 17 eb 10 bd dc af ca 3c 7d 00 84 3a
       0.021069773 -0.03538045 0.02474206 0.0010070946
000210 a3 17 b5 bc 63 3a 5b 3d 6d f8 7a 3b 58 9d 8c 3d
       -0.022105997 0.05352248 0.0038295046 0.068659484
000220 07 b8 4e 3d 15 04 6e bc 6e 7e 3e bc 44 50 84 bc
       0.05046847 -0.01452734 -0.011626823 -0.016151555
000230 e1 14 c6 ba e8 36 b2 3c e6 87 53 bd e8 10 15 bd
       -0.0015112424 0.021754697 -0.051643275 -0.036393076
000240 86 20 45 bd e5 38 9b bb d0 7b e8 bc 6c d4 69 bb
       -0.04812672 -0.004737007 -0.02837935 -0.0035679592
000250 ea 13 3e bd 7f 86 8f 3d 41 d9 56 bd cc b9 8a b9
       -0.04640571 0.07008075 -0.052453283 -0.0002645984
000260 89 24 5b 3d 1b 8d 3a bc 4e 3b 83 3d 8e b6 0b bb
       0.05350164 -0.011386181 0.06407796 -0.0021318528
000270 de 85 22 bd 70 25 2a 3d 2c e0 ef bc 22 0c 64 3c
       -0.039678447 0.04153961 -0.029281698 0.013918908
000280 1a 18 18 3c 1c 51 84 3d 67 d6 05 bd df e4 a1 3d
       0.00928309 0.06460783 -0.032675173 0.07904982
000290 b2 b6 34 bd 20 1e 7f bc 32 5e 5f 3d 16 7a 8b 3d
       -0.044119544 -0.015571147 0.05453319 0.068103954
0002a0 56 f7 ca 3b 5f 6d 8d 3d f8 e9 77 3d bb a9 bb 3c
       0.0061940355 0.069056265 0.060525864 0.022908082
0002b0 5a 72 38 3d 4d f4 92 3c 81 10 ef 3c 78 93 0d 3d
       0.04503093 0.017938757 0.029182674 0.034564465
0002c0 8e 60 93 3d 3b b7 0e bd e8 96 6b bc ca f5 06 3d
       0.07196151 -0.03484271 -0.014379241 0.032949246
0002d0 87 49 a5 bd ba c9 0f bc 05 7e 7c 3c 94 61 ce b8
       -0.08070665 -0.008776123 0.015410905 -9.841021e-05
0002e0 5c da f0 3c e4 28 a2 3d d6 98 47 3c a6 29 7e bc
       0.029400997 0.079179555 0.012182435 -0.015512859
0002f0 39 49 c8 3d ea 6c 45 3a 7b 39 6c bd 20 d4 49 bd
       0.09779591 0.0007531183 -0.057672005 -0.049274564
000300 a7 92 a9 bc 17 3a 35 3d 2d 49 f1 bc f7 42 48 bb
       -0.020699812 0.044244852 -0.029453838 -0.0030557492
000310 5b 0b 33 bd 60 f8 67 bd 91 04 ea bc 5a c4 3b 3d
       -0.043712 -0.056633353 -0.02856663 0.045841552
000320 99 37 dc 3c cb 7b 07 3c 3f ed c0 3d 6f 91 b4 3d
       0.02688198 0.008269261 0.09420251 0.08816802
000330 f6 55 d3 bc 3a d0 cd ba bb e0 90 bb e9 44 28 3d
       -0.025797825 -0.0015702315 -0.004421321 0.041081343
000340 1f 66 5d 3d 97 b9 3a 3c 90 51 6c 3d 9e 51 14 bd
       0.05405247 0.011396787 0.05769497 -0.03621065
000350 74 69 7d 3d 75 62 ab 3c c8 9e f3 bc 98 d4 4b bc
       0.061868146 0.020920971 -0.029738799 -0.012440823
000360 9f 24 81 3d 82 a4 9d 3d b8 65 e4 3d e2 d0 d3 3c
       0.06305813 0.07697393 0.11152214 0.025856439
000370 83 fc 26 3d 34 ba 1b bd e3 28 6c 3d 4f ff 67 bb
       0.040768158 -0.038019374 0.05765618 -0.0035399979
000380 1c 1f 4b 3d ac 54 6b 3e 00 d3 10 3e 9b 01 1f 3e
       0.049590215 0.22981519 0.1414299 0.15527956
000390 92 57 46 3e ef c8 16 3e 5f 92 17 3e c7 1d 30 3e
       0.19369343 0.14725088 0.1480193 0.17198859
0003a0 06 ab 9b 3d 28 ef 11 3d 37 f8 03 be 8f f2 56 be
       0.076009795 0.035628468 -0.12887655 -0.20990966
0003b0 cb a9 43 be 38 50 a7 bd 00 29 65 be 33 26 86 be
       -0.1910774 -0.081695974 -0.22378922 -0.2620102
0003c0 bc 8e ff bd 86 06 36 be 89 59 45 be 42 31 f9 3d
       -0.12478396 -0.17775926 -0.19272436 0.12167598
0003d0 48 ae 38 3e e1 fb 16 3e 10 9d d7 3d 0d 5d 0c 3e
       0.18035233 0.14744522 0.10528004 0.13707371
0003e0 6c 43 43 3e 71 52 23 3e b0 9c 70 3e 29 cc 57 3e
       0.19068688 0.15949418 0.23497272 0.21073975
0003f0 5a 41 11 3e e9 c2 ee 3d 00 1c 46 3e 30 9e 9e 3d
       0.14185086 0.1165827 0.19346619 0.077450156

decoder_2_convlstm.conv.bias f4 [48]
000000 94 ff 68 bb da a7 1d 3c 7a 08 9b 3d c3 99 94 bc
       -0.0035552727 0.009622538 0.07569976 -0.018139726
000010 da 56 42 3c 7a bf f8 bc 35 2a c8 3c 5d b9 94 bc
       0.011861527 -0.03036474 0.024434188 -0.018154794
000020 14 91 68 3d 84 b6 b0 3c bd 37 f6 3d db e0 57 3b
       0.056778982 0.021571405 0.1202235 0.003294042
000030 8b dd 9b 3d 6a f2 50 3d 06 bd 1a 3d 72 13 a3 3d
       0.07610615 0.051012434 0.037777923 0.07962693
000040 21 3b a8 3d 20 33 7e 3a f6 77 87 3d 33 b8 8b bc
       0.08214403 0.0009696949 0.066146776 -0.017055606
000050 79 7e 9e 3d 2f db 84 3d 4d d4 11 3d dd d1 7a 3d
       0.077389665 0.064871185 0.035602856 0.061235297
000060 6e 36 c9 3d 6f e6 c2 3c 49 8b 66 3d b0 12 22 3b
       0.09824835 0.02379152 0.056285176 0.0024730377
000070 43 86 93 bc 58 f1 9a 3c 6e 3d f2 3b bf e3 00 3d
       -0.018008357 0.01891391 0.007392577 0.031467196
000080 22 17 06 3e ad c5 16 bc 5f c8 20 3d 87 59 e1 3d
       0.13094762 -0.009202403 0.03925359 0.11003404
000090 bd 41 03 3d 42 a5 42 3d 2e 67 8d 3d d5 36 e4 3b
       0.032045115 0.047520883 0.069044456 0.0069645443
0000a0 1a b9 4e bd 66 6c 72 3d 77 f4 90 3d 9b b1 82 3c
       -0.050469495 0.059185408 0.07077878 0.01595383
0000b0 0b b8 0f bd a0 5d 39 3d 77 fd df 3c 6d 52 85 3d
       -0.035087626 0.045255303 0.027342541 0.06509862

decoder_CNN.weight f4 [8, 12, 1, 3, 3]
000000 81 19 c8 3d 5a ba 02 3d 5c 63 79 3d fb 97 6b be
       0.097704895 0.031916 0.060885772 -0.23007195
000010 29 d3 9a 3d b6 35 cd 3d 73 0e b8 3d cb 5a 9b 3e
       0.07559807 0.1002001 0.08987131 0.30342707
000020 f0 90 2c 3e 2b d8 c4 be 9d 59 5d be 65 9e 66 3c
       0.16852164 -0.38446173 -0.21616216 0.01407585
000030 f7 78 9f be 74 30 c6 be a5 c7 33 be 76 44 91 be
       -0.31146976 -0.38708842 -0.17556627 -0.28372544
000040 5b 77 a0 be fb fe bc be 11 ac 73 bd 93 99 ce bc
       -0.3134106 -0.36913285 -0.059490267 -0.025219714
000050 e6 a3 87 bc 62 b7 06 bd 1c 7b bd 3d 2e d2 81 bd
       -0.016557645 -0.03288973 0.09251997 -0.06338917
000060 31 7b b5 bd 0a 4a db bd d8 69 38 be 2b 22 26 be
       -0.088613875 -0.10707481 -0.18009126 -0.16223972
000070 a4 2c f7 3c 31 31 e8 bd 9e 94 53 be ec cb 5f 3d
       0.030172653 -0.113375075 -0.20662162 0.054637834
000080 c2 0a cf 3d 5a 08 57 bd 74 1c f9 3c 98 b2 44 3e
       0.10109474 -0.0524982 0.030409075 0.19208753
000090 96 e3 b0 3e be fd ab 3e 04 69 9c 3e 46 82 87 3e
       0.34548634 0.33592027 0.3054887 0.26466578
0000a0 5c 17 be 3e 37 26 cb 3e 97 da c8 3e f1 b6 c2 3e
       0.37127197 0.39677593 0.3922927 0.38030198
0000b0 ce 0b 86 3e 3e c6 0d be af 01 87 3d e1 d3 15 be
       0.2618088 -0.13845155 0.06592118 -0.14631607
0000c0 6b 1d d2 bb 61 91 8e 3d fb 07 f9 bc 54 6b d4 bc
       -0.0064121983 0.069613226 -0.030399313 -0.025930084
0000d0 f3 d8 d6 bc c5 b7 c9 bd b6 22 a3 bc 63 a0 c3 3c
       -0.026226496 -0.098495044 -0.019914012 0.02388019
0000e0 b9 89 00 bd f2 46 1e bc 34 08 d2 bd 54 76 71 bd
       -0.031381343 -0.009660469 -0.10255471 -0.058950737
0000f0 da ad ae bd 1c 7e dc bd d5 01 e6 bd 61 e2 9a be
       -0.08529253 -0.10766241 -0.11230818 -0.30250838
000100 d2 6d 73 be 66 45 81 be 28 40 93 be a3 eb a2 be
       -0.23772362 -0.2524826 -0.28759885 -0.31820402
000110 c5 b6 6e be 6b 1c 71 be 3c b6 38 be c3 68 26 be
       -0.23311909 -0.23545997 -0.18038267 -0.16250901
000120 b0 68 39 bc 36 d8 c3 bd e2 96 44 3e d0 7a f4 3d
       -0.011316463 -0.09562723 0.19198182 0.11937487
000130 f0 be ec bd 3f 37 c3 bd 4d ef 77 bd 5f 5d 2c be
       -0.11559856 -0.09532022 -0.06053095 -0.16832493
000140 2f 69 7b be 4d 21 37 3e 40 e2 0b 3e 3f 58 f6 3d
       -0.24551843 0.17883797 0.13660526 0.1202855
000150 72 8d f6 3c 09 0c 73 3e ee ab 7b 3e 3b 89 f0 ba
       0.030096743 0.2373506 0.24577305 -0.0018351445
000160 7e b9 07 3e c2 f1 4b 3e 2b 03 22 be 23 ef e8 3c
       0.13254353 0.19916442 -0.15821521 0.028434342
000170 ac 4c 86 be d6 b7 bf bc e3 96 8d bd a5 16 d9 bc
       -0.2623037 -0.02340309 -0.06913545 -0.026500056
000180 10 a4 63 3d 0d 2a 4f 3c 2a 3c 95 bd bb eb 5d bd
       0.055576384 0.012644303 -0.07286866 -0.05417989
000190 63 fd a9 bc 24 b3 82 3d 30 88 1a be a0 5f 17 be
       -0.020750707 0.063818246 -0.15091014 -0.14782572
0001a0 4e f2 ec bd 05 49 9c bd 80 59 9b bd 82 6e 87 3d
       -0.115696535 -0.07631115 -0.0758543 0.066128746
0001b0 3b 2a b3 3d 8d e9 2a 3e e2 5f 6b 3e a8 60 31 3e
       0.08748289 0.16690655 0.22985795 0.17322028
0001c0 2b 2a 2c 3e 24 68 42 3e f9 47 99 be e3 55 81 be
       0.16812961 0.18985039 -0.29937723 -0.2526084
0001d0 54 18 46 be 0d 24 27 3e 7b 42 26 bc ff 44 dc 3d
       -0.19345218 0.16322346 -0.010147686 0.107553475
0001e0 e6 28 ba 3e 2f ff 1f 3e 73 d1 d2 3d ec 84 98 3d
       0.36359328 0.15624689 0.102938555 0.07447228
0001f0 ee 67 c3 bd 6c 9b 82 be 25 b7 2f 3d e7 68 8f be
       -0.095413074 -0.25509202 0.04289927 -0.28009722
000200 df b9 aa bd a6 57 d8 3d ce eb 98 bd b1 4d 23 3e
       -0.08336233 0.105635926 -0.07466851 0.15947606
000210 69 ff 1d be 11 7a 43 bd a7 b4 f5 bd 91 c7 0a 3e
       -0.15429462 -0.047723833 -0.11997347 0.13552691
000220 e7 92 5e 3d ef ef 53 3e 22 53 2d be da d6 6f bd
       0.054339316 0.20696996 -0.16926244 -0.058554508
000230 dc 1b 51 bd 45 5f 4e be 3a bb 3b be d5 b3 0b be
       -0.05105196 -0.2015353 -0.1833314 -0.13642819
000240 d2 f1 e3 bd 54 7b 31 3e 31 81 29 3d 72 36 6e be
       -0.11130108 0.17332202 0.041382972 -0.23262957
000250 0d 43 20 be a4 6c a4 3d f1 c4 17 be ec 9b 8f 3d
       -0.15650578 0.08028534 -0.14821221 0.070121616
000260 40 58 ce 3d d8 96 fa bd b5 68 0c be 0b 8d bd 3d
       0.10075426 -0.122358024 -0.13711818 0.092554174
000270 c8 b9 19 3e df e7 0c 3e 85 06 5b 3e 51 a1 17 be
       0.15012276 0.13760327 0.21389206 -0.14807631
000280 72 7d 48 bd c7 e4 36 3d c7 a8 29 3d 4d 66 7b be
       -0.04894776 0.044651773 0.041420724 -0.24550743
000290 53 24 61 3d 22 60 86 3d 72 9d 9e bc 27 c2 1f 3e
       0.054966282 0.06561305 -0.019362185 0.15601407
0002a0 bb e8 38 bd 6e 00 9d bd 01 23 b4 bd de 5d ff bd
       -0.045143824 -0.076660976 -0.08795739 -0.124690756
0002b0 e4 a5 ba be 4a fd 91 be 7b 40 53 be fc d4 a8 be
       -0.3645469 -0.28513557 -0.20630066 -0.32974994
0002c0 bd 30 98 be ed 40 7b be b6 42 69 be 7a 09 2e be
       -0.29724684 -0.24536486 -0.22779354 -0.16995803
0002d0 eb ea 36 be 82 aa f8 bd 92 af 29 be a1 fe f2 ba
       -0.17863052 -0.12141897 -0.16570881 -0.001853902
0002e0 0e 7c 70 bb d0 c4 7e bd 7c f3 47 3e 08 52 74 3e
       -0.0036695036 -0.062199414 0.19526476 0.23859417
0002f0 e4 ab 59 3e 76 6b cb 3c 08 26 e7 bb 8a 4b 0d 3e
       0.21256977 0.024831515 -0.007054094 0.13798347
000300 d6 ec cd bd fd 36 3d be 1c eb 2f be d7 38 13 be
       -0.100549385 -0.18478008 -0.17179531 -0.14377151
000310 05 be 53 be 7c 55 71 be b6 b5 1c be ad 7f 78 be
       -0.20677955 -0.23567766 -0.15303692 -0.24267454
000320 b8 84 20 bd 98 c5 67 3d fb e7 4f 3d f3 de 3e 3e
       -0.03918907 0.056584924 0.050758343 0.18639736
000330 08 1e 09 be 6a 99 75 bd da fb ff bc 2a 5e af be
       -0.13390362 -0.05996076 -0.031248022 -0.3425153
000340 9f 87 99 be 4e 32 1b be c3 5c b4 be d5 bf b5 be
       -0.29986283 -0.15155908 -0.35227022 -0.3549792
000350 97 c5 9b be fd 43 82 be 99 0a 37 be 78 53 48 be
       -0.30424187 -0.25442496 -0.17875136 -0.19563091
000360 ab d0 2a 3e 98 47 24 3d 1b b0 8f be 1d 31 9a bd
       0.16681163 0.04010734 -0.28064045 -0.07528899
000370 39 6b a8 be 34 03 bd 3d 8c 1f cd be 4b a5 69 3c
       -0.32894304 0.092291266 -0.4006313 0.0142606
000380 0d 0f 86 3e 26 ff a9 be b6 15 aa be f3 3d 93 be
       0.26183358 -0.33202475 -0.3321969 -0.287582
000390 26 c2 c2 be 5f ff eb be ac f6 b3 be 67 0f f4 3c
       -0.38038749 -0.4609327 -0.35149133 0.0297925
0003a0 a1 07 a8 be f1 f4 d7 bd 67 01 85 3c 99 04 e0 bd
       -0.3281832 -0.10544766 0.01623602 -0.10938377
0003b0 f7 df 00 bd a8 96 b6 bd 2b 2e 99 be d6 5f 72 be
       -0.03146359 -0.08915454 -0.29918036 -0.23669371
0003c0 b1 bf 2e be 0a 3e 5f be 50 21 e4 bd 4c 23 9e 3e
       -0.17065312 -0.2180101 -0.11139166 0.30886304
0003d0 16 f9 50 3d f6 6d a4 be 6c 06 5d 3c 5b fc 57 be
       0.051018797 -0.32115144 0.013490301 -0.2109236
0003e0 96 12 75 be 29 17 5b be 00 6c 29 3d 06 ce 55 be
       -0.23932871 -0.21395554 0.041362762 -0.20879373
0003f0 43 ef 3d be f3 e8 90 3e 98 a8 94 3e 37 55 a8 bb
       -0.18548302 0.28302726 0.29034877 -0.0051371115

decoder_CNN.bias f4 [8]
000000 d1 8b 58 bc 0b 0c 85 3c 6b b0 ae bd 85 2e ba bb
       -0.013216929 0.016241094 -0.08529743 -0.005681815
000010 04 4e 10 bd a4 9a e4 3c 62 be c1 bd c8 ab 01 be
       -0.03523065 0.02790577 -0.09460141 -0.12663186
