models/convlstm/saved_models/lr_0.0001/epoch_960.pt (torch, 68090 bytes, 30 tensors)

cell_list.0.conv.weight f4 [32, 16, 3, 3]
00000000: e254 513e ba39 b43e 2575 7d3e b35a 5c3e
00000010: 8e0f 6b3e 50f1 953e 539d 323d aaa5 f13c
00000020: 2555 373e fd56 6b3b f6f9 9f3d 5b8e 323e
00000030: 390b 8e3d e8d6 f63d 7e02 203e 0fd8 923d
00000040: a700 eb3d 28fd 2e3d 029b ddbc 2a09 953e
00000050: 4d1f 2d3e e2c0 17bd 642b 213e 6b87 6b3e
00000060: 8690 963e 1ba5 583e 4ae6 603e 4f10 1f3e
00000070: 5b97 3a3e 00f7 8dbd 44a5 103e 5599 8fbd
00000080: e7b7 5ebd db60 373e cbb4 af3d 560a 7b3d
00000090: 8dfe 9e3d 7dc0 c73d 713a 12be 5d33 d13d
000000a0: 1e44 f3bd 154b d2bd b28b 7a3d 5e2a 543d
000000b0: 447d 863d d1fc 843d 4329 5f3d c539 983d
000000c0: f119 78bd 3640 953c e223 18bd fef0 4f3e
000000d0: ce0d 6e3d e9ae 68be e5d7 a9bd 0f57 e9bc
000000e0: 489c 1a3e f47d b1bd ecdf 85bc cee3 2abc
000000f0: 54a6 e0bd d9a7 26be f5ee 12be c065 623c
00000100: ba77 9cbd 9c7a fa3b 602e 2cbe 3641 9ebd
00000110: 93fc 3dbc d18c eebd a805 35be 011e a4bd
00000120: b265 7cbd 997a a3bd 120f b73d 6f0f 5cbe
00000130: b3a1 80be 736c 4dbe 34f7 ea3a 7aa3 eebc
00000140: f445 02be 6fa5 8b3d 95e1 c83d b7be 0a3e
00000150: 9bf5 d23d 190b 563d 1272 f53b e21c ff3c
00000160: c150 a93d 5ea8 613d ea75 48bd 6abf 87bd
00000170: eacd 81bd 2888 aabd 31f2 0fbd 6209 aa3c
00000180: df23 28be 43a4 20bd cadd 283d 6033 043d
00000190: dac7 c43d 3aa4 e73d 30a7 b93d e253 ad3d
000001a0: a734 a03c 6eb6 20be 89a8 08bd e7d7 27bc
000001b0: d231 23be abf8 e3bd 56de 53bd ffec d4bd
000001c0: 99b9 54bd 30c3 1dbe ae68 31be bbb4 1f3c
000001d0: 1b90 523d 5312 2dbe 9e4a d13c d59c 8abd
000001e0: 1811 583d 8025 a4bc 5a48 323d 1a3d 713c
000001f0: c681 edbb 0bd4 403e 488f d6bb ea30 a1bc
00000200: ecf0 073d 7e79 3e3c 67bf 473d eb06 d73c
00000210: 11aa 15bc c4df de3d 9c3f c13d db73 de3d
00000220: f63d b63d 8ee2 023e 210f 8bbd 09d2 8fbd
00000230: 9d2b 56bd 27f0 633d 5a35 323d 94c4 de3b
00000240: 7b6c 77be b6ef f6bd 6c3b 92bd 10e3 97be
00000250: d4db 58be f000 013e a489 b5bd 6690 88be
00000260: fc6f 27bd 2e45 f2bd 3acf 113d 44d7 a9bc
00000270: e796 023d a71e 96bd ed78 493d 7837 a33e
00000280: c425 3e3c e0c2 f73c 5fcc a33d 2675 2cbe
00000290: 5a43 47bd d836 f5bd 855e 993d 9c8f 7e3c
000002a0: b687 8b3d 7e7d 5e3d ae61 2e3e 9461 133e
000002b0: d4c2 883d 52bd a43c 765c fe3d 96fe e93d
000002c0: cf5b 14bd fcc8 17be 329f 55be b8a3 6a3d
000002d0: 963e 5bbd 8725 f5bd bfbe 1fbd e5d4 87bd
000002e0: eee9 93bb ca77 e1bd 3758 ffbd b62e 82be
000002f0: 084d 763d 8363 32be c024 5ebe b9e3 bdbd
00000300: f268 babd 5423 a1bc 5697 cfbd d602 0abe
00000310: b73a 2fbd a64b 09bd ffe0 ddbb aa36 e0bd
00000320: 001a f33d 3930 e83d d194 833c cd2c 7bbc
00000330: 7d74 813d f00d 013e 5894 b9bc dea0 3e3d
00000340: e850 a03d 4cd8 bcbd b98c 8abc 2f9c 3cbe
00000350: bf7c bbbd b85b 5f3e 8581 343e 55cd 75be
00000360: c40c 103e 2d36 043e 82b1 d9bb 352f f13d
00000370: 1a79 143e f904 b03d d134 a83d 1981 053d
00000380: 9525 403d 197a 00bc 7f55 3a3d 374b 10bc
00000390: 9906 50bd 03b8 fe3c 39b1 fb3c d7bf 03bc
000003a0: 1689 12bc dc26 443d d761 2a3d eb42 883d
000003b0: 664b 4a3c 5aa9 30bd fcb6 f33c 77e3 ab3c
000003c0: c7b0 99bd c7fa 3cbd 7e66 ecbc 3e2c fc3c
000003d0: 594e 433d f517 9c3d 9f04 39bd 4638 ab3c
000003e0: 3a5c 873d 06de 1ebd 9653 11bd adb9 bf3d
000003f0: eff2 9c3d 7bf9 d53a 16d6 6f3c 005b a2bb
0.20442536 0.35200292 0.24751718 0.21518974 0.22955152 0.2928567 0.043607067 0.02949794
0.17903574 0.0035910003 0.07811348 0.17437117 0.06935734 0.12052709 0.1562595 0.07170116
0.11474734 0.042721897 -0.027051453 0.29108554 0.16906472 -0.03704918 0.15739208 0.23000877
0.29407138 0.21156733 0.21962848 0.15533565 0.182218 -0.06931877 0.14125544 -0.07011668
-0.0543746 0.17908041 0.085794054 0.061289154 0.077633955 0.09753511 -0.14280106 0.10214875
-0.11878227 -0.10268227 0.06116838 0.051798217 0.06566861 0.064935334 0.05448271 0.07432894
-0.060571615 0.018219095 -0.037143596 0.20306775 0.058118634 -0.22722973 -0.08293132 -0.028483896
0.15098679 -0.08666602 -0.016342126 -0.010430289 -0.109692246 -0.16274966 -0.14348967 0.013818204
-0.076400235 0.0076440107 -0.16814566 -0.07727282 -0.011595863 -0.11647952 -0.17677939 -0.08013535
-0.06162042 -0.07982368 0.08938421 -0.21490262 -0.25123367 -0.20060901 0.0017926455 -0.029130686
-0.12721997 0.06818663 0.09808651 0.13549314 0.10300752 0.052256677 0.007490405 0.031141702
0.08267356 0.055092208 -0.048940577 -0.06628306 -0.06338103 -0.08326751 -0.03514308 0.020756427
-0.16419934 -0.039219152 0.04122714 0.032275558 0.09608431 0.113106206 0.090650916 0.08463265
0.019556357 -0.15694591 -0.033363853 -0.010244346 -0.15936974 -0.11131414 -0.051725708 -0.10396766
-0.051934812 -0.1540649 -0.17325088 0.009747679 0.05140696 -0.16901521 0.025548276 -0.067681946
0.052750677 -0.020037413 0.04352603 0.01472404 -0.007248136 0.18830888 -0.006547842 -0.019676644
0.033188745 0.011625646 0.04876652 0.026248416 -0.009134785 0.10882524 0.09435961 0.108619414
0.08898537 0.12781736 -0.06789995 -0.07022483 -0.052287687 0.05564895 0.04350791 0.0067983363
-0.24162476 -0.1205744 -0.0714024 -0.29665422 -0.21177608 0.12598014 -0.088641435 -0.26672667
-0.04087828 -0.11829601 0.035598017 -0.02073253 0.031882193 -0.07330065 0.04918759 0.31878257
0.011605684 0.03024429 0.07997965 -0.16841564 -0.048648216 -0.11973351 0.07488731 0.015537169
0.06812994 0.054318897 0.1702945 0.14392692 0.066777855 0.020109806 0.12419979 0.114255115
-0.036220368 -0.14822763 -0.2086151 0.05728504 -0.053526483 -0.119700484 -0.03900027 -0.06632403
-0.0045139706 -0.11009176 -0.124679975 -0.25426263 0.060132056 -0.17420773 -0.21693707 -0.0927195
-0.09102048 -0.019670166 -0.10136287 -0.13477644 -0.042780604 -0.03351941 -0.0067712064 -0.10947926
0.118701935 0.11337323 0.016062172 -0.015330506 0.063210465 0.12602973 -0.022653744 0.046540134
0.07827932 -0.09220943 -0.016912805 -0.18418954 -0.09154653 0.21812332 0.17627533 -0.24004109
0.1406737 0.12911291 -0.006643475 0.11776582 0.14499322 0.085946985 0.08213199 0.03259382
0.04691084 -0.00784161 0.04549169 -0.008806995 -0.050787542 0.031093603 0.030724155 -0.008041344
-0.008943817 0.04788862 0.041597214 0.066533886 0.012347078 -0.043130256 0.02975034 0.020982487
-0.07504421 -0.046137597 -0.028857466 0.030782815 0.04768214 0.07621757 -0.045170423 0.020900857
0.06609388 -0.038785957 -0.035480104 0.09361587 0.076635234 0.0016324961 0.014638444 -0.0049546957

cell_list.0.conv.bias f4 [32]
00000000: 9d32 a33d a364 15be 33f3 23bc 3380 003e
00000010: 2815 0a3d ae8a a83d f59b 9fbd bc87 e03b
00000020: 3998 bfbd ea98 9dbe 7312 56be 9b3c 94be
00000030: ab26 9dbe f3ff d4be 17b8 27be 2137 bbbe
00000040: 7cb0 b33d 43dd 51be 3bde 023e fa3c 4a3d
00000050: e3e4 4cbc 7035 6c3d 152b b2bd 72a7 90bc
00000060: 6882 dbbd b389 533d de47 783d 4f81 93bd
00000070: 5bf9 66bd 2067 223d 271e b13d 4a5b c2bc
0.07968638 -0.14589171 -0.010006714 0.12548904 0.033711582 0.08229576 -0.07793418 0.0068521183
-0.09355206 -0.30780727 -0.20905475 -0.28952488 -0.30693564 -0.41601524 -0.16378818 -0.36565498
0.08773896 -0.20494561 0.12780087 0.049374558 -0.012505743 0.05766815 -0.086996235 -0.01765797
-0.107182324 0.051644992 0.060615413 -0.07202398 -0.056390148 0.03964913 0.08648329 -0.02372517

cell_list.1.conv.weight f4 [32, 16, 3, 3]
00000000: 02fd 193e 96d1 07bd d37b 47be 31e7 dabc
00000010: 7552 aabd 47ab 39be c35a c73c d839 98bd
00000020: 44db 36be d7c9 2fbe a1e6 2e3a 50c8 5c3e
00000030: 8a6f d1bc e411 6f3a a0fb 8dbe 1649 393e
00000040: 5f94 dc3e 5f61 0e3e acfc eebd de09 76bd
00000050: e80c 1bbd 69d2 1abe 5806 e7bd aaf1 59be
00000060: f40c 5dbe ad91 88bd 6997 1dbe f5d1 97be
00000070: 5645 a7be 6ebf 2abe 444c e1bd 598a 71be
00000080: e885 8abe 5a66 c3bd de65 363e 5561 9d3d
00000090: aa12 4b3d c6a3 36bb 9055 973d 2d21 91bd
000000a0: 4614 a7be 3a68 27be 5345 7bbe 3b87 6bbe
000000b0: 9ab2 1ebe b497 58bd 9b23 813c bb6e 5b3e
000000c0: c7b0 27bd 4534 a4bd ce9f 203d cdb1 65bc
000000d0: 8b3e 223c b3cd 26be 876a 06bc ea44 803b
000000e0: 5871 2fbe 9536 bdbc 9350 59bd 6ac7 123e
000000f0: 7f7e 81be 5d4c 51be ae79 6fbe 21d8 c53d
00000100: 9a67 1ebe a2df 3dbe 7e2b 3bbd f333 2cbe
00000110: c2e7 ef3d ce16 d9bd 8cbb 0e3d d63b 963d
00000120: 73ee e7bd 1971 123d 8664 093d a1d5 0bbe
00000130: 8a34 023d 291a f63c e08f 3a3c 8533 dfb9
00000140: fae1 673c 3711 c0bc abcb 2a3d 2802 253e
00000150: 231f aabd 2e49 babc d801 eabd c6df 38bd
00000160: 73f6 9a3d 5bc7 31bd 4edb 52bd 77ee 383d
00000170: 1890 61bd e580 113d 6b92 d5bc 9560 80bd
00000180: 24c2 97bd 4afb 88bd a456 ac3c 1504 03bd
00000190: 6e48 9cbc d47b 853c ebe2 eabd 4042 29be
000001a0: ba6c 1ebe a231 6cbd c145 0ebd 7f04 a1bd
000001b0: 364a 953d 0db9 22bd 5255 503c 8585 a73d
000001c0: 66a4 813d ff50 bb3d 3a66 f13c 165c 8e3b
000001d0: 2cfa d7bc 5b3b cebd 8fef a4bc b6ac 933d
000001e0: 8c1f 92bd ac7d b23a 04ff d4b9 7574 f73b
000001f0: d661 c6bd 942d 313d c792 ea3c de7d cd3d
00000200: d108 153d 86fc 393d e794 513c 5786 8c3d
00000210: c585 2b3d 0984 0c3d d65f ca3d 53cf a63c
00000220: 975c 22bc 840d bdbc eb4d 5ebd f728 21bd
00000230: 2148 1cbe 8e84 edbc 1b1b 7e3d dbff 983d
00000240: 4a75 ea3d be2a d93e 7a09 1fbe 751a b23e
00000250: f65e cc3e a231 8c3c 40a3 3b3e 873e d4bd
00000260: ebe8 a7be d424 37be 6119 933e a9bf 693e
00000270: cd31 88bb dd21 103f f78b cebd d7b4 58be
00000280: 59bc 323e 0d0e 243e 1265 21be dfbd fe3c
00000290: d977 97bd ace6 bfbe 8195 82be 5c99 b3be
000002a0: 9548 d6be 72a2 03bf c0ff e0be a419 cdba
000002b0: 239d 3e3e 2e11 093e dad2 8abd ac6b d0bc
000002c0: e62c d0bd 2521 47bc 0e3c 8abe 7a53 74be
000002d0: ecce cc3e f9b9 efbe c9d7 91be 319c 02bf
000002e0: 7a4d 09bf 1ca9 5fbe b730 a0be 1470 f13b
000002f0: 7cb8 0fbe 0995 d0bd 2b2a 563d e4fb 39bd
00000300: 4ee3 b33d 5b90 b93b 24ae 0d3e 97f0 7d3e
00000310: 8ee8 283d f476 bd3c 5390 b0be 475f cabe
00000320: a8d1 2c3e 93e6 b7be 7c98 abbe ded8 08be
00000330: ba70 093e ebea ad3a 7a92 06be 9e29 e53d
00000340: 5583 7c3d 8e3a 693e cb0d 8d3e 488a 613e
00000350: d576 82bd 2b0d aa3d dc10 44be 340b b23d
00000360: f47a 443d 8763 323d aa6b 0d3b 8802 243d
00000370: fdde 383d 4597 363d 7dcf 8d3d a65d 493d
00000380: 549a 293c 5e25 1abc ac26 6d3c 88db 94bb
00000390: 39e4 bdbb e568 1a3c 73c0 19bc a29f 373c
000003a0: 4efa c43b 8013 05bd 7fef f1bd 618e 8cbd
000003b0: 46c3 353c b3c8 cdbd 516f 713c 5f4a 143d
000003c0: e44c 8abd 33f5 4dbd c925 7ebd 5e9a c0bb
000003d0: 4d65 fbbb af83 9bbc b4d3 ddbc 59ee 0cbd
000003e0: c520 d8ba 539f 8cbd bedf 49bd 2aa8 1d3a
000003f0: 7f29 6fbc fc8f 813c 7911 0d3a e0df 84bc
0.15037921 -0.03315886 -0.19480829 -0.026721569 -0.08316509 -0.18131743 0.02433527 -0.07432908
-0.1785708 -0.1716684 0.00066719396 0.21560788 -0.025565881 0.00091197924 -0.27731037 0.18094286
0.43081948 0.13904332 -0.11669287 -0.060068004 -0.037854105 -0.15119328 -0.11280507 -0.21283594
-0.21586972 -0.066684105 -0.1538979 -0.29652372 -0.32670087 -0.16674587 -0.11000875 -0.23587932
-0.27055287 -0.095410064 0.17812297 0.0768458 0.049578346 -0.0027868613 0.073893666 -0.07086406
-0.32632655 -0.16348353 -0.24538164 -0.23000805 -0.15497819 -0.05287905 0.015764048 0.21428959
-0.040940072 -0.08017782 0.0392149 -0.014019442 0.009902607 -0.16289406 -0.008204109 0.003914465
-0.17133081 -0.023097316 -0.053055357 0.14333883 -0.2529182 -0.20439287 -0.23386261 0.09660364
-0.15469208 -0.1854234 -0.045695774 -0.16816692 0.11714126 -0.10600053 0.034846827 0.073356315
-0.113247775 0.03575239 0.033543132 -0.13655712 0.031788386 0.030041771 0.011386842 -0.0004257226
0.014152998 -0.023445709 0.04169814 0.16114104 -0.0830672 -0.022739973 -0.11426133 -0.045135282
0.07566538 -0.04340301 -0.051478676 0.045149293 -0.05506906 0.035523314 -0.026070794 -0.062684216
-0.07410076 -0.066885546 0.021037407 -0.031986315 -0.019077506 0.016294397 -0.114690624 -0.16529179
-0.15471163 -0.05766452 -0.03473449 -0.07862186 0.07289545 -0.03972726 0.012715654 0.08179764
0.06330185 0.09146308 0.02946769 0.0043444736 -0.026364408 -0.10069915 -0.020133762 0.07210676
-0.07134923 0.0013617775 -0.00040625792 0.0075517246 -0.096866295 0.043256357 0.028634442 0.10033773
0.03638536 0.04540684 0.012791849 0.06861561 0.04187562 0.034305606 0.098815605 0.020362532
-0.00990977 -0.023077734 -0.054273527 -0.039345708 -0.1526189 -0.028993871 0.06203757 0.074706756
0.11448152 0.42415422 -0.15530959 0.3478581 0.399162 0.01711351 0.18323994 -0.10363489
-0.3279489 -0.17885143 0.287303 0.22827019 -0.0041563273 0.5630167 -0.1008529 -0.21162735
0.17454661 0.16020985 -0.15761212 0.031096397 -0.07395906 -0.37480676 -0.25504687 -0.3507794
-0.4185225 -0.51419747 -0.43945122 -0.00156479 0.1861463 0.1338546 -0.06778498 -0.025441967
-0.10164814 -0.012153898 -0.26998943 -0.23859969 0.4000162 -0.46821573 -0.28484944 -0.5101958
-0.53633845 -0.21841854 -0.31287166 0.007368097 -0.14035219 -0.10184676 0.05228631 -0.045406237
0.08783589 0.0056629605 0.1383596 0.24798809 0.041237406 0.02312801 -0.3448511 -0.39525816
0.16876853 -0.35918102 -0.33514774 -0.13363978 0.13421908 0.0013268864 -0.13141814 0.111895785
0.061648685 0.22776243 0.27549586 0.22025406 -0.06370322 0.08303293 -0.19147056 0.08693543
0.04796882 0.043551948 0.0021579065 0.040041476 0.045134533 0.044577856 0.06924341 0.049161576
0.010351736 -0.009408323 0.014474552 -0.0045427717 -0.0057950285 0.009424423 -0.009384262 0.011207493
0.006011284 -0.0324893 -0.118132584 -0.06863094 0.01109392 -0.10048046 0.014736013 0.03620374
-0.06752947 -0.05028267 -0.062047753 -0.005877777 -0.007671988 -0.01898369 -0.027078487 -0.034406994
-0.0016489258 -0.06866326 -0.049285643 0.0006014133 -0.014597296 0.015815727 0.0005381327 -0.016220033

cell_list.1.conv.bias f4 [32]
00000000: 6137 c23d ee38 353e e660 6f3e 889d 783e
00000010: 1266 8d3d c867 b03d 76f5 373d 3a59 253e
00000020: 6869 6abe 3abe ddbe 8f37 c9bd 10f7 babd
00000030: 9777 20be 5759 05be 967a 90be 2859 b6bd
00000040: f375 933d 48ef f33c 4382 e33d 1e30 293e
00000050: 4551 8dbc c67e f63d 9b4f f83c 8633 c23d
00000060: 4913 693c 1e2d 813c 94c9 263b 5f91 e23c
00000070: 7a20 82bd e4b0 bfbd 6bd2 85bd 5686 d43c
0.09483219 0.17697498 0.23376808 0.24278843 0.06904234 0.08613545 0.044911824 0.16147318
-0.22891772 -0.43309194 -0.0982505 -0.09129155 -0.1567062 -0.13022362 -0.28218526 -0.08903724
0.072002314 0.029777184 0.1110883 0.16522262 -0.017250666 0.12035899 0.030311396 0.094824836
0.014225789 0.015768584 0.002544974 0.027657209 -0.06353851 -0.09359911 -0.06534275 0.025942963

cell_list.2.conv.weight f4 [32, 16, 3, 3]
00000000: 0971 7c3d f39c 833d 3485 c23c 093f 19bb
00000010: 783e 8a3a 76c3 9d3d 25b5 983c a2b8 acbd
00000020: 7be8 a33d 7d69 613e 4390 ed3d b2e6 a53d
00000030: 1b63 56be fc55 f8bd d8d4 17bd f66b d2bd
00000040: a3ac 953c 61a6 023d 3b40 85bd aa31 cc3d
00000050: 541d a23d 48ea 78bd 54a2 e0bd 2465 3abe
00000060: b60c f3bd d599 8abd 074c 66be 480c 9fbd
00000070: dce7 0fbe 3633 3cbe c48e 4fbc eeac ccbd
00000080: 6952 dc3c 5590 99bb 1da4 f1bd e971 08bd
00000090: 911c 71bd 81a6 1bbe cfb1 af3d 8a93 673e
000000a0: a224 17bd 3800 c2bd cd2b f23c 3bd0 10be
000000b0: 1e7e 90be 72c2 4739 693a 063e e82b b73d
000000c0: cce9 25bd ff3d dd3c b66c 6b3d 5b1f dbbc
000000d0: 6bb4 c23d 5961 e13d e842 8abd 8d33 853a
000000e0: 217a 1a3d d511 023e 42d6 b43c 5998 a1bc
000000f0: 0c19 e1bd df30 ab3b cb74 dfbd 6ae0 703c
00000100: 9b54 33bd d582 bbbd ab57 dbbc e4ad b9bd
00000110: b3f0 433b 6a01 6d3d 84ea f13d 06e0 283e
00000120: 9a1a 183d 9c53 e13d c09f d33c 3b24 fb3c
00000130: a631 b13b a8f6 8d3d 4e91 f13d 0646 ef3c
00000140: ddae 2e3d 2f4d 4b3c e2e7 31bd 02eb 93bc
00000150: deb8 42bd 587a 30bd d58a 2fbd 7c79 8cbc
00000160: 98a7 373c da7b df3c 220f a8bc cf50 263d
00000170: efd8 77bd edea cfbb ba09 02bc 7050 533d
00000180: 77aa bc3c 2f96 17bd 9bab 9f3d e63b 623c
00000190: c5dd bd3c c91f 4abd a47d c5bd fe7a fabc
000001a0: 7731 f53c bf24 ffbc 471b aebb 5db5 eabd
000001b0: a449 bc3d 1897 953d 963f 813c 7337 92bb
000001c0: d03d 54bb 3312 c03c 9add 3c3b b0c9 e63c
000001d0: bbbd 57bd 55ec 36bc a347 eebd 62a3 48bc
000001e0: 1835 41be ebb5 2cbe e72d 01bd acd9 e3bc
000001f0: 52f2 93bc 174d 80bc c16d 163d aac4 b93d
00000200: 36ce 913d 89b9 073d 37d3 0e3d 53ca 543d
00000210: e0c8 82bd 629c 513d 6f75 b9bc f156 2dbc
00000220: 9488 943c 0ede 063e c5bb b9bc ddc7 9bbd
00000230: 5f5a b6bc 79a4 bb3d 9eeb bd3c 588e 703d
00000240: 5c68 57bb 17a4 b43e 82f9 123e 48cb b6be
00000250: 692a 18be e475 403e dc9a 873e d382 3a3e
00000260: dcbe 353e 0adb 16bd 3065 01be 8024 25bd
00000270: c9f5 64be a44d 693e b1c2 e5bd 9b28 99bd
00000280: 8e10 eabd db4d d53d 6e97 e8be 6682 a5be
00000290: ab9c 063d 4803 0ebf bfcf 283d 423c e03e
000002a0: b935 99be 63c4 77bd e656 aabe eab0 72be
000002b0: fdf3 48be 3e01 8dbe 2815 98be 31d4 20be
000002c0: 31b8 aa3d a8e8 f4be 3250 03bf a9d0 91bd
000002d0: c44c 8cbd 46d8 4abe 52b7 f83d 6596 95bd
000002e0: bcff 3ebe 384e d3bd a929 9b3e 13e2 8b3d
000002f0: d89e fabb a8fe 5f3d af77 a8bd 9175 b9bb
00000300: 70bc 113e 5165 8ebc 36e5 453d 812f b23d
00000310: 3204 623e e84d b33e a5a3 16be 089c c8bd
00000320: a653 7b3e daed 573b df2c cebd b0e4 80be
00000330: 4a42 f83e 2226 f73e 321d 86bd 8c93 6f3e
00000340: ca13 6c3e 0c79 bc3c b420 813e e36b 4e3e
00000350: efb6 5a3e a0ab 843c ad6c fabc f5fa da3d
00000360: 02d8 b63b 26dd 203c aee3 133b 30fd 543c
00000370: 276c 933b e779 16bc ade4 a1bb 7b70 54bc
00000380: e244 32bc a430 8cba 0927 a5bb 35b9 8d3a
00000390: e22d c2bb 41ac 00bb 9cae bebb adae c0bb
000003a0: eae4 98bb f34d e9bb c60e 2dbb 2ceb 153d
000003b0: 5e8d 28bb ff4e 0c3d a188 383d 3c85 933c
000003c0: 106d 8dbc 8051 f8bc dd6c 553c 3c92 82bc
000003d0: a57b 15bd b071 47bd 9805 9ebc 614d 98bc
000003e0: 926c c4bb e44b 93bd d11b 15bd 6bea 16bd
000003f0: 3806 b63c a9b4 873c e81f 6abb 2f14 73bb
0.061631236 0.0642642 0.023745157 -0.002338352 0.0010547182 0.07703297 0.018641064 -0.084336534
0.080033265 0.22012897 0.11599781 0.08100642 -0.20936243 -0.12125775 -0.037068218 -0.10274498
0.018270796 0.031896953 -0.065063916 0.0997041 0.0791575 -0.060770303 -0.10968462 -0.18202645
-0.11867659 -0.067676224 -0.2248994 -0.07766014 -0.14053291 -0.1837891 -0.012668315 -0.09993921
0.026894765 -0.004686395 -0.1179888 -0.03331176 -0.058865134 -0.15200235 0.08578836 0.22614875
-0.03690017 -0.09472698 0.029561901 -0.14141934 -0.2822122 0.00019050555 0.13108219 0.08943921
-0.04050617 0.027007101 0.05747672 -0.02674835 0.09507068 0.11004896 -0.067510426 0.0010162458
0.037714127 0.12702115 0.022074822 -0.019725965 -0.109911054 0.0052243317 -0.10910948 0.014701942
-0.043781858 -0.091558136 -0.026775202 -0.0906637 0.0029898107 0.057862677 0.118123084 0.16491708
0.037134744 0.11002275 0.02583301 0.030656924 0.00540753 0.069318116 0.11795293 0.029208194
0.04264723 0.012408539 -0.04343403 -0.018056396 -0.047539584 -0.043085426 -0.04285701 -0.017147772
0.011209391 0.027280737 -0.020515028 0.04060441 -0.06050962 -0.006345144 -0.007936889 0.051590383
0.023030503 -0.03700846 0.07796403 0.013808226 0.023177037 -0.04934672 -0.09643105 -0.030576225
0.029930813 -0.031145452 -0.0053133103 -0.114603736 0.09193733 0.073042095 0.01577739 -0.0044621765
-0.0032385476 0.023446178 0.0028818608 0.028172344 -0.052671175 -0.011164744 -0.11634757 -0.012245985
-0.1886791 -0.16866271 -0.031537917 -0.027813755 -0.018059883 -0.01566176 0.036725763 0.09070714
0.0711941 0.033135924 0.0348694 0.051950764 -0.0638597 0.05117453 -0.022639005 -0.0105798105
0.018131532 0.13170645 -0.022672543 -0.0760648 -0.02225989 0.0916223 0.02318364 0.0587295
-0.00328686 0.3528144 0.14352992 -0.35701966 -0.14859928 0.18794972 0.26485336 0.18213968
0.17748588 -0.036829986 -0.12636256 -0.040318012 -0.22359385 0.22783524 -0.11218775 -0.07478448
-0.11428939 0.104152404 -0.45428032 -0.3232605 0.032864254 -0.55473757 0.041213747 0.43795973
-0.299238 -0.060490023 -0.33269423 -0.237003 -0.19624324 -0.2754001 -0.2970364 -0.15705945
0.08335913 -0.47833753 -0.51294243 -0.07119877 -0.068505794 -0.19809064 0.121443406 -0.07304076
-0.18652242 -0.103176534 0.30305222 0.068302296 -0.00764833 0.05468622 -0.08225953 -0.005659767
0.1423204 -0.017382296 0.048314296 0.08700467 0.22071913 0.35020375 -0.14710863 -0.097953856
0.24543628 0.0032948167 -0.10067152 -0.25174475 0.48488075 0.4827128 -0.06548537 0.23396128
0.23054424 0.023006938 0.25220263 0.20158343 0.21358846 0.016195118 -0.030569399 0.106923975
0.0055799494 0.009818351 0.0022566128 0.012999818 0.0044989767 -0.009184337 -0.0049405904 -0.012966271
-0.010880681 -0.0010695648 -0.0050400537 0.0010812642 -0.00592588 -0.0019633921 -0.005819155 -0.005880198
-0.0046659606 -0.007119888 -0.002640651 0.03660123 -0.0025719027 0.034255024 0.045052174 0.018007867
-0.01726392 -0.0303123 0.013026443 -0.01593887 -0.03649487 -0.048692405 -0.019289777 -0.018591585
-0.005994388 -0.07192209 -0.03640348 -0.036844652 0.022219762 0.016565638 -0.0035724584 -0.0037090888

cell_list.2.conv.bias f4 [32]
00000000: 9f01 103e 4d93 083e d782 3c3e d874 3d3e
00000010: 10b5 be3d 0d8d 603e 588f 923d 7f53 463e
00000020: 0c27 b9bd 439b ddbe 7d21 94bd 88b6 d7bd
00000030: ef3a 95be 47d2 cebd 7821 91be f422 7fbe
00000040: 9c36 babc 3a87 433d bb50 6f3e f26d 453d
00000050: 1c08 dc3c d1fe 163e 8ad5 23be a291 7e3d
00000060: ae0f adbd f621 073d 8aca a5bc aa93 58bd
00000070: a89d ab3d b0b4 4a3d 9cd5 39ba 822b ad3c
0.14063118 0.13337441 0.18409286 0.18501604 0.09311879 0.21928807 0.07156247 0.19367789
-0.09040651 -0.43282518 -0.0723295 -0.10532862 -0.29146525 -0.10098701 -0.28345847 -0.24915677
-0.022731118 0.047736384 0.2337064 0.048200555 0.026859336 0.14745642 -0.15999427 0.062150605
-0.08450256 0.032991372 -0.02023818 -0.0528752 0.0837968 0.049488723 -0.000708902 0.02113891

batchnorm_list1.0.weight f4 [8]
00000000: 830e 873f 5706 743f ad6c 763f 54bf 803f
00000010: 47b4 733f d964 743f 8e01 813f c875 6d3f
1.0551304 0.95322174 0.96259576 1.0058389 0.95196956 0.9546638 1.00786 0.92757845

batchnorm_list1.0.bias f4 [8]
00000000: 101f 843b 0696 90bc 793f 6e3d 1ce9 bfbb
00000010: 8162 b13c 72e5 18bc 40b4 0a3d b7cf 0f3b
0.0040320233 -0.017649662 0.058166 -0.005856646 0.021653416 -0.009332048 0.033863306 0.0021943876

batchnorm_list1.0.running_mean f4 [8]
00000000: b09a 11be ea6c 953b c6ec 58bd 0d1a 193c
00000010: f4af a93c 7b47 eebc f8c3 b1bd fa9c 5f3c
-0.14219165 0.0045601027 -0.05296018 0.00934459 0.020713784 -0.029086819 -0.08679956 0.013648266

batchnorm_list1.0.running_var f4 [8]
00000000: d2dd d93d f824 4d3b c03c 923d d91b 213d
00000010: a725 463d 3f35 ff3c 3333 c73d 4982 0c3d
0.10638012 0.0031302553 0.071404934 0.0393332 0.04837575 0.03115332 0.09726562 0.034303937

batchnorm_list1.1.weight f4 [8]
00000000: a4e8 853f 6f4d 6d3f 72c2 843f 3430 6a3f
00000010: cdbb 713f 5419 7b3f de77 863f 12cd 7e3f
1.0461621 0.9269628 1.037184 0.914798 0.94427186 0.9808552 1.050533 0.9953166

batchnorm_list1.1.bias f4 [8]
00000000: 7af2 f8bb 6d08 7d3b 9804 b63b 36e4 b03a
00000010: 013b 0d37 287d 2fbb 3d80 4fbb 66ea 8b3a
-0.007597265 0.0038609758 0.005554747 0.0013495747 8.417993e-06 -0.002677748 -0.003166213 0.0010674715

batchnorm_list1.1.running_mean f4 [8]
00000000: d731 f53c 99de c33b 5035 34bd a790 bf3c
00000010: 1637 66bd 729c 87bd 89ad 333d 25d8 1abc
0.029930992 0.0059774634 -0.043996155 0.023384405 -0.056204878 -0.066216365 0.043866668 -0.009450947

batchnorm_list1.1.running_var f4 [8]
00000000: da26 8f3d 8c60 ae3c 86ee be3d 25c3 673d
00000010: 59c7 433d 3ed0 813d fa05 ab3d 2af0 e13d
0.06989832 0.021286272 0.093228385 0.05658259 0.047797535 0.06338547 0.08350749 0.11032136

batchnorm_list1.2.weight f4 [8]
00000000: d4d3 783f c5a0 673f eec5 943f bf5e 903f
00000010: a023 853f e866 8e3f f902 853f 7ce9 933f
0.97198224 0.9047969 1.1622903 1.1278914 1.0401497 1.1125154 1.0391532 1.1555629

batchnorm_list1.2.bias f4 [8]
00000000: a634 073a a521 093a 5b22 2d39 9dc5 3e3a
00000010: bb5d 3c39 d2aa d839 46de 8eba d83b 273a
0.00051576865 0.00052311487 0.00016511364 0.00072773715 0.00017963994 0.00041326002 -0.0010899983 0.0006379462

batchnorm_list1.2.running_mean f4 [8]
00000000: 01f2 6b3c 4f87 253c 89ac 1bbd ea08 f4bc
00000010: b2cf 793d 463e 483d a675 21bd c570 1d3d
0.01440096 0.010103061 -0.03800634 -0.029789407 0.06098909 0.048887514 -0.03941884 0.038437624

batchnorm_list1.2.running_var f4 [8]
00000000: 6b5e 393d a5c5 2d3d ed4b c63d 750b 9b3d
00000010: ec1a 5f3d d051 bd3d 95b9 5a3c aa95 913d
0.04525606 0.042424817 0.096824504 0.07570545 0.054469034 0.0924412 0.01334991 0.07108624

batchnorm_list2.0.weight f4 [8]
00000000: ce09 653f 8735 1b3f ce90 3b3f 3fae 123f
00000010: 7499 373f 4f82 283f 5e41 763f 206a 163f
0.89468086 0.6062855 0.7326783 0.5729713 0.71718526 0.65823835 0.9619349 0.58755684

batchnorm_list2.0.bias f4 [8]
00000000: 1468 d73b 4a58 003c 7f90 943b 58c0 18bb
00000010: 6f5a acba 7b39 dc3a b91c 853b e476 13ba
0.0065736864 0.00783355 0.004533827 -0.0023308005 -0.001314951 0.0016801798 0.004062262 -0.0005625321

batchnorm_list2.0.running_mean f4 [8]
00000000: 5e47 38be f5d6 a83d c23a ae3c 110d a2bd
00000010: 7239 9fbd 2b66 af3c 10c0 abbd 9ebf b53c
-0.17995974 0.08244125 0.021268252 -0.079126485 -0.07774629 0.021411022 -0.083862424 0.022186097

batchnorm_list2.0.running_var f4 [8]
00000000: 7daf 913f 4fdc 293f 94fb 373f 2236 223f
00000010: 5a88 493f 58d2 383f 428c 853f 7a73 073f
1.138168 0.6635179 0.7186825 0.6336385 0.7872368 0.7219596 1.0433428 0.5291058

batchnorm_list2.1.weight f4 [8]
00000000: 949b 663f 9964 043f 4689 883f a084 8b3f
00000010: b688 7d3f 077b 8a3f 158c 673f 4c86 8d3f
0.90081143 0.51716 1.0666893 1.0899849 0.9903673 1.0818795 0.90448123 1.1056609

batchnorm_list2.1.bias f4 [8]
00000000: cc20 fb39 2b8c 2fbb 1a40 e2b9 a7e8 bf37
00000010: 750b 0bba 106b ec39 1a67 4aba b743 0db9
0.00047898886 -0.0026786427 -0.00043153838 2.2877311e-05 -0.00053041364 0.00045093196 -0.0007721052 -0.00013472034

batchnorm_list2.1.running_mean f4 [8]
00000000: efed c83d 78f2 7abc 1d25 fcbd e6ed 06bd
00000010: dd9a 40be dcc1 0dbc 29da 8c3d 94ec 903b
0.09811007 -0.015316598 -0.12311766 -0.03294172 -0.18809076 -0.008652177 0.06877548 0.0044227336

batchnorm_list2.1.running_var f4 [8]
00000000: d3e3 9c3f b886 d53e d34e f03f d4d3 d73f
00000010: 9825 c23f c687 df3f 4d64 953f 3d90 0f40
1.2257026 0.41704345 1.8774055 1.686152 1.5167723 1.746331 1.1671234 2.2431786

batchnorm_list2.2.weight f4 [8]
00000000: 5756 733f 5935 133f bba3 753f 993a 7b3f
00000010: 7465 4e3f e664 8d3f 283b 3f3f 4665 753f
0.9505362 0.5750328 0.9595296 0.9813629 0.80623555 1.1046417 0.7469964 0.95857656

batchnorm_list2.2.bias f4 [8]
00000000: 3893 b7b8 acc0 803a 5d39 70b8 657f 5f39
00000010: 0fc4 5738 9510 dab7 387a 2439 bc27 0439
-8.7535416e-05 0.0009823046 -5.7273883e-05 0.00021314395 5.144259e-05 -2.5995347e-05 0.00015685789 0.00012603303

batchnorm_list2.2.running_mean f4 [8]
00000000: 92bb cb3d c66e 24bd 4afe 09bc 9f9d 3bbe
00000010: 9e6b 133e 36d3 dabc bd23 da3d 6d0a ea3d
0.099478856 -0.040144704 -0.008422444 -0.18321846 0.14396521 -0.026712041 0.10651348 0.1142777

batchnorm_list2.2.running_var f4 [8]
00000000: afba be3f 0f67 233f a49e c73f 2fd2 de3f
00000010: 9bfc 9c3f 6966 0040 36fb 9b3f 7555 e53f
1.4900721 0.6382913 1.5595288 1.7407893 1.2264589 2.0062506 1.2186038 1.7916704
