models/convlstm/saved_models/lr_0.0001/epoch_1730.pt (torch, 68130 bytes, 30 tensors)

cell_list.0.conv.weight f4 [32, 16, 3, 3]
0.20054077 0.45235807 0.39473584 0.25315145 0.2806214 0.35179517 0.03017316 -0.039367873
0.16497727 0.052172743 0.12425455 0.23712061 0.103603885 0.17053789 0.17572577 0.20092417
0.2176503 0.070746265 -0.04562313 0.51346034 0.22507183 0.06988688 0.22331904 0.3682398
0.5146002 0.2831949 0.37986922 0.206965 0.3038916 -0.025748752 0.15807733 -0.060382262
-0.053215537 0.19475974 0.0648417 0.08596451 0.08160758 0.09950404 -0.18506518 0.06181979
-0.20674218 -0.15994827 0.05987921 -0.0014327022 0.09565057 0.1389098 0.13055402 0.0956487
0.02057623 0.0001633631 -0.131225 0.17873974 -0.017809326 -0.37803662 -0.10830117 0.04393399
0.2103969 -0.10363263 0.006260589 -0.039118595 -0.28299987 -0.23935331 -0.24180369 -0.045531128
-0.11671518 0.04201747 -0.29608765 -0.16992956 -0.084199436 -0.17660911 -0.21801731 -0.18512967
0.037064318 -0.035035387 0.07906582 -0.29896492 -0.25805658 -0.1707351 -0.00047335366 -0.039653603
-0.096227646 -0.012079299 0.0021862444 0.14489532 0.08662585 0.08306504 0.028279116 0.06046708
0.061083023 -0.021600459 -0.09611332 -0.027843608 -0.016610468 -0.07956931 -0.052418906 0.045251705
-0.14370896 -0.0073774145 0.060617182 -0.05908947 0.11759393 0.114483565 0.024836317 0.040533412
0.026958967 -0.16706783 -0.059658736 -0.043693557 -0.18941452 -0.071520016 0.046991665 -0.1686642
-0.055504546 -0.14165597 -0.18935281 0.091099486 0.069045976 -0.21618025 -0.065510176 -0.02441889
-0.016864603 0.032903865 0.06400096 0.04496241 -0.070924185 0.150647 0.09964849 0.03559954
-0.061140783 -0.020575806 0.06950961 -0.0026810952 -0.005729106 0.14624394 0.09628355 -0.017514203
0.14055046 0.11705597 -0.16087 -0.019643383 -0.085213214 0.09396944 0.02802375 0.07737418
-0.34383094 -0.22294904 -0.061400276 -0.37574273 -0.25078604 0.17158516 -0.009593574 -0.28224486
-0.10035404 -0.14087632 0.030635593 -0.043522246 0.20448168 -0.10042252 0.062037792 0.45120826
-0.077945605 -0.107960135 0.17527428 -0.18702222 -0.07891436 -0.1202378 0.10669369 0.10211959
0.10797596 0.111952364 0.2693932 0.19217196 0.16469435 0.011739813 0.15227838 0.10721256
-0.03277639 -0.17251569 -0.23244114 0.07935397 -0.053467758 -0.12593456 -0.08874505 -0.07142253
-0.010804752 -0.119313575 -0.14508852 -0.29807222 0.07458817 -0.23195225 -0.28242996 -0.163553
-0.044236604 -0.016538326 -0.1460951 -0.1496156 0.00092960696 0.038902394 0.015018509 -0.1063299
0.08229743 0.16778605 -0.06468903 0.00950419 0.1167223 0.13788003 -0.035228625 0.019841745
0.032315746 -0.11205198 -0.05066714 -0.24678227 -0.1167405 0.25208622 0.2499822 -0.38370484
0.13638748 0.09834259 -0.044187825 0.067137234 0.10941979 0.09364699 0.01200086 0.018711902
0.032400116 0.0227798 0.04738329 0.002244084 -0.03611926 0.042554334 0.04710454 0.027706547
0.021154698 0.080435954 0.0075236997 0.022059605 0.0059104334 -0.04032554 0.029150467 0.0070897313
-0.08671501 -0.028281337 -0.025081052 0.031883538 0.041108713 0.05650149 -0.029524881 0.011862013
0.05401979 -0.03833425 -0.01867496 0.07319046 0.07893538 -0.0053342152 -0.010423848 0.002652713
00000000: 8f5a 4d3e 7a9b e73e d11a ca3e 119d 813e
00000010: 9cad 8f3e 7f1e b43e b42d f73c 3540 21bd
00000020: cdef 283e 16b3 553d 2b79 fe3d bfcf 723e
00000030: 462e d43d 7ca1 2e3e 75f1 333e 11bf 4d3e
00000040: b8df 5e3e 6be3 903d 52df 3abd 2372 033f
00000050: 3b79 663e da20 8f3d bfad 643e ed89 bc3e
00000060: d7bc 033f ecfe 903e 387e c23e a2ee 533e
00000070: ae97 9b3e 0cef d2bc 06df 213e 6453 77bd
00000080: 89f8 59bd 196f 473e bacb 843d 290e b03d
00000090: e021 a73d c6c8 cb3d ba81 3dbe c036 7d3d
000000a0: 39b4 53be 7bc9 23be e743 753d 82c9 bbba
000000b0: 72e4 c33d 5f3e 0e3e f4af 053e 77e3 c33d
000000c0: 7b8f a83c 734c 2b39 d95f 06be 8d07 373e
000000d0: dde4 91bc 048e c1be 01cd ddbd 21f4 333d
000000e0: 4972 573e 583d d4bd a125 cd3b d23a 20bd
000000f0: 5ce5 90be 0919 75be 639b 77be d97e 3abd
00000100: 5e08 efbd 831a 2c3d cd98 97be 0402 2ebe
00000110: c170 acbd 05d9 34be ee3f 5fbe a292 3dbe
00000120: c1d0 173d 4481 0fbd 43ed a13d ee11 99be
00000130: fe1f 84be 2fd5 2ebe 742c f8b9 d16b 22bd
00000140: 0013 c5bd 41e8 45bc 1847 0f3b 705f 143e
00000150: e568 b13d 011e aa3d 9ba9 e73c 54ac 773d
00000160: 3132 7a3d 72f3 b0bc 0fd7 c4bd 4718 e4bc
00000170: ad12 88bc 3cf5 a2bd 35b5 56bd da59 393d
00000180: 7128 13be 3dbe f1bb b949 783d cd07 72bd
00000190: 16d5 f03d 5c76 ea3d 8875 cb3c 5d06 263d
000001a0: 0dd9 dc3c d413 2bbe b85c 74bd 04f8 32bd
000001b0: e1f5 41be 1679 92bd 557a 403d 4fb6 2cbe
000001c0: bc58 63bd 430e 11be b4e5 41be 5e92 ba3d
000001d0: fa67 8d3d 5b5e 5dbe 332a 86bd 200a c8bc
000001e0: a327 8abc 34c6 063d ef12 833d 812a 383d
000001f0: b340 91bd 3543 1a3e 8214 cc3d d3d0 113d
00000200: c26e 7abd 988e a8bc 0e5b 8e3d 50b5 2fbb
00000210: 39bb bbbb f9c0 153e 4f30 c53d f279 8fbc
00000220: 76ec 0f3e 0abb ef3d 1bbb 24be 29eb a0bc
00000230: 4484 aebd 0d73 c03d 1092 e53c 5b76 9e3d
00000240: 9c0a b0be c14c 64be db7e 7bbd 5a61 c0be
00000250: 0767 80be 05b4 2f3e 5e2e 1dbc 6682 90be
00000260: 6b86 cdbd e241 10be 7ff7 fa3c 6244 32bd
00000270: a563 513e 52aa cdbd 571b 7e3d c504 e73e
00000280: f2a1 9fbd 341a ddbd 1a7b 333e c182 3fbe
00000290: da9d a1bd 3c3f f6bd 3982 da3d 1324 d13d
000002a0: 8022 dd3d 4847 e53d e8ed 893e bac8 443e
000002b0: a3a5 283e 5858 403c ddee 1b3e 4292 db3d
000002c0: 8940 06bd f4a7 30be 0d05 6ebe 5684 a23d
000002d0: 0201 5bbd fdf4 00be f7bf b5bd fa45 92bd
000002e0: 6a06 31bc ad5a f4bd 1692 14be ec9c 98be
000002f0: afc1 983d e484 6dbe a99a 90be 707a 27be
00000300: 7131 35bd 627b 87bc f499 15be d534 19be
00000310: deb0 733a 1e58 1f3d 3110 763c 7ec3 d9bd
00000320: 8e8b a83d 1bd0 2b3e af7b 84bd 76b7 1b3c
00000330: 1a0c ef3d 6c30 0d3e e44b 10bd 288b a23c
00000340: 845d 043d 827b e5bd 5988 4fbd 7eb4 7cbe
00000350: a515 efbd 7211 813e 55fb 7f3e f674 c4be
00000360: 29a9 0b3e d767 c93d 4bfe 34bd 3f7f 893d
00000370: 7c17 e03d fec9 bf3d 419f 443c b449 993c
00000380: fcb5 043d b49c ba3c fb14 423d 7b11 133b
00000390: caf1 13bd 744d 2e3d b1f0 403d d7f8 e23c
000003a0: 9e4c ad3c 9bbb a43d 5e89 f63b 58b6 b43c
000003b0: 4fac c13b 652c 25bd f6cc ee3c fa50 e83b
000003c0: a497 b1bd 43ae e7bc c776 cdbc 5098 023d
000003d0: 9c61 283d 1b6e 673d 2ade f1bc e358 423c
000003e0: db43 5d3d 6004 1dbd 3bfc 98bc e1e4 953d
000003f0: dfa8 a13d a4ca aebb cac8 2abc 24d9 2d3b

cell_list.0.conv.bias f4 [32]
0.049502715 -0.09985446 0.0434403 0.19036601 0.060582764 0.23086041 -0.045126528 -0.008198923
-0.19248635 -0.6498225 -0.4466427 -0.46202368 -0.42193428 -0.7163151 -0.3880363 -0.6388978
0.10081357 -0.41228473 0.14985569 0.084665194 0.07155639 0.16966939 -0.04227107 -0.015630022
-0.13225022 0.09827769 0.068476945 -0.07718559 -0.079565115 0.06473197 0.108424015 -0.0484816
00000000: 5cc3 4a3d 7f80 ccbd 75ee 313d 4fef 423e
00000010: a225 783d ac66 6c3e 98d6 38bd c754 06bc
00000020: 241b 45be c45a 26bf 5aae e4be 5e8e ecbe
00000030: c507 d8be 6d60 37bf b2ac c6be ce8e 23bf
00000040: 5877 ce3d fc16 d3be c573 193e f264 ad3d
00000050: 288c 923d d0bd 2d3e 6e24 2dbd 880a 80bc
00000060: 9a6c 07be d045 c93d a43d 8c3d 7b13 9ebd
00000070: 09f3 a2bd 3292 843d 690d de3d a494 46bd

cell_list.1.conv.weight f4 [32, 16, 3, 3]
0.17085393 -0.05014928 -0.24707003 -0.052173086 -0.062124047 -0.4043046 0.28599232 0.07393755
-0.34978965 -0.31409496 -0.02129529 0.33245814 -0.053937703 0.35318902 -0.491353 0.07725645
0.8379408 -0.11362945 -0.32254604 -0.21815528 0.118617535 -0.29058012 -0.06909641 -0.2951736
-0.4659743 -0.013261902 -0.33896005 -0.35388815 -0.54868495 -0.3233575 -0.22418736 -0.4504207
-0.45662448 -0.17793775 0.18312751 0.06478112 0.020033631 -0.05591783 0.089249745 -0.10878318
-0.56127626 -0.32114825 -0.40430436 -0.27760375 -0.19616926 -0.15163018 0.053926397 0.49599534
-0.24370793 -0.120233215 0.26073605 -0.1114516 -0.0072407043 -0.28578973 0.13612586 -0.01304286
-0.17813155 -0.05984961 -0.18276101 -0.0081226695 -0.42691985 -0.35002685 -0.48393366 0.21694559
-0.13961273 -0.36305118 -0.02348742 -0.20952787 0.29211393 -0.0372992 0.18850891 0.24541816
-0.15165237 0.041596573 0.10820497 -0.17697373 -0.050617374 0.030901095 0.062617466 -0.029332113
0.06587705 -0.04190087 -0.0065295994 0.16501617 -0.13628002 -0.017698567 -0.13749866 -0.0760926
0.078005545 -0.0892454 0.047660075 -0.010654185 -0.07221223 -0.0369836 -0.092815794 -0.024290778
-0.1390013 -0.10133322 -0.040618278 0.032052122 -0.009575166 0.00047024025 -0.14945842 -0.15696116
-0.08840936 -0.09038126 -0.13142328 -0.04789213 0.054364935 -0.0054105273 -0.008407992 0.13084674
0.070368536 -0.04037988 0.060604747 0.0035448133 -0.00668445 -0.07542011 0.004553849 -0.0079423785
-0.018616688 -0.010084886 -0.022398865 -0.075785324 -0.105101705 0.06624716 0.10044128 0.09318804
0.18208896 0.055374224 -0.06424723 -0.012419231 0.01638513 0.060996186 0.06953446 0.01173057
-0.01852977 0.049536403 -0.103423044 -0.017894942 -0.050724596 -0.0503778 -0.012835844 0.070220284
0.14386065 0.7311321 -0.25184998 0.5019686 0.63148326 -0.047354333 0.35300836 -0.0640007
-0.45567507 -0.35794526 0.48371175 0.23989628 0.016878985 0.88677096 -0.19780248 0.04687268
0.3640781 0.3863817 -0.2689124 0.13541447 -0.108458504 -0.46933082 -0.3541029 -0.360972
-0.6444127 -0.72574824 -0.6343076 -0.027061809 0.26944765 0.16089208 -0.0972092 0.067637846
-0.25720924 -0.020683499 -0.41496035 -0.13750875 0.41597617 -0.70993406 -0.2876282 -0.74813867
-0.71629655 -0.33450562 -0.4029922 0.15319604 0.020215798 -0.15862331 0.086849004 -0.035945985
0.08608731 0.16875693 0.21171962 0.13676828 -0.115127675 0.020199126 -0.44274503 -0.57676435
0.13941292 -0.38240004 -0.40723744 -0.13169597 0.057613794 -0.07115461 -0.114869244 0.25618812
0.23746179 0.44165158 0.56832397 0.14386395 -0.07192065 0.30401197 -0.2322932 0.108258694
0.07608493 0.07771536 0.03438361 0.04523702 0.06932877 0.06998993 0.038821533 0.040693644
0.028952971 0.0012489731 0.0055595627 -0.015958883 -0.010653867 0.009968137 -0.0069107357 0.027116071
0.02485923 -0.035616767 -0.100107566 -0.07757171 -0.0081506735 -0.09978418 -0.033685096 -0.017577523
-0.06797282 -0.042309575 -0.08253464 -0.035063542 -0.029388221 -0.038503725 -0.104486816 -0.079472266
-0.02026625 -0.054738585 -0.033722475 0.010193343 -0.0009932136 0.013870372 0.012609341 -0.008500402
00000000: 55f4 2e3e 5569 4dbd edff 7cbe 72b3 55bd
00000010: c975 7ebd 0301 cfbe 966d 923e 926c 973d
00000020: a117 b3be 0ed1 a0be 7673 aebc f437 aa3e
00000030: c8ed 5cbd 31d5 b43e 9f92 fbbe a138 9e3d
00000040: 4a83 563f 8fb6 e8bd c124 a5be 1964 5fbe
00000050: c0ed f23d ebc6 94be 6b82 8dbd fe20 97be
00000060: 2f94 eebe 7348 59bc 2c8c adbe d430 b5be
00000070: 9e76 0cbf 1d8f a5be 5f91 65be 8b9d e6be
00000080: afca e9be 5035 36be c785 3b3e f7ab 843d
00000090: 921d a43c 180a 65bd 92c8 b63d b7c9 debd
000000a0: cdaf 0fbf 8b6d a4be fb00 cfbe 1422 8ebe
000000b0: 98e0 48be f144 1bbe ede1 5c3d 1af3 fd3e
000000c0: 928e 79be d53c f6bd 327f 853e bd40 e4bd
000000d0: 6e43 edbb 0853 92be 9464 0b3e b8b1 55bc
000000e0: 1e68 36be dd24 75bd b425 3bbe f214 05bc
000000f0: 3d95 dabe b836 b3be 27c6 f7be fc26 5e3e
00000100: a4f6 0ebe d8e1 b9be b168 c0bc 798e 56be
00000110: f58f 953e 0cc7 18bd 7b08 413e e64e 7b3e
00000120: c24a 1bbe 2b61 2a3d 919a dd3d 9a38 35be
00000130: 2a54 4fbd 4b24 fd3c 963d 803d e649 f0bc
00000140: 8cea 863d 3fa0 2bbd 40f6 d5bb 00fa 283e
00000150: fd8c 0bbe 96fc 90bc 73cc 0cbe 70d6 9bbd
00000160: 5fc1 9f3d 4bc6 b6bd 3637 433d e48e 2ebc
00000170: 01e4 93bd 1e7c 17bd 3516 bebd 74fd c6bc
00000180: 5b56 0ebe cb87 cfbd 5a5f 26bd 1649 033d
00000190: 28e1 1cbc 948a f639 a10b 19be 6dba 20be
000001a0: f70f b5bd cf19 b9bd d393 06be 8a2a 44bd
000001b0: c4ad 5e3d cb4a b1bb adc1 09bc b0fc 053e
000001c0: 611d 903d 6065 25bd af3c 783d 1950 683b
000001d0: 3b09 dbbb dc75 9abd 7438 953b c020 02bc
000001e0: 0682 98bc 143b 25bc d37d b7bc 5635 9bbd
000001f0: 903f d7bd 97ac 873d 28b4 cd3d 5fd9 be3d
00000200: 8775 3a3e 15d0 623d 0d94 83bd 087a 4bbc
00000210: 1c3a 863c 23d7 793d 1568 8e3d 9431 403c
00000220: bfcb 97bc afe6 4a3d 76cf d3bd 6a98 92bc
00000230: 98c4 4fbd f458 4ebd 6f4d 52bc a7cf 8f3d
00000240: 3550 133e 792b 3b3f 7bf2 80be 0481 003f
00000250: e3a8 213f 9ef6 41bd 83bd b43e cd12 83bd
00000260: 3e4e e9be 9a44 b7be 11a9 f73e 5fa7 753e
00000270: cc45 8a3c 6c03 633f bc8c 4abe 91fd 3f3d
00000280: 7268 ba3e d2d3 c53e e3ae 89be 17aa 0a3e
00000290: 7e1f debd 214c f0be fa4c b5be 52d1 b8be
000002a0: 3bf8 24bf a3ca 39bf fc61 22bf bab0 ddbc
000002b0: 0bf5 893e e5c0 243e 9e15 c7bd b685 8a3d
000002c0: eeb0 83be 7170 a9bc af75 d4be 18cf 0cbe
000002d0: d4fa d43e 3dbe 35bf 0144 93be 0486 3fbf
000002e0: 365f 37bf 5244 abbe fe54 cebe 6cdf 1c3e
000002f0: 9a9b a53c 266e 22be e4dd b13d 193c 13bd
00000300: 8b4e b03d 9ece 2c3e 07cd 583e fc0c 0c3e
00000310: 0fc8 ebbd a378 a53c 7aaf e2be d4a6 13bf
00000320: 43c2 0e3e f0c9 c3be 6d81 d0be 4fdb 06be
00000330: 71fc 6b3d 82b9 91bd 9140 ebbd 172b 833e
00000340: 2f29 733e 2820 e23e ae7d 113f 1251 133e
00000350: 224b 93bd 75a7 9b3e 45de 6dbe bcb6 dd3d
00000360: 6ad2 9b3d 3b29 9f3d d4d5 0c3d 744a 393d
00000370: 3efc 8d3d e156 8f3d 5403 1f3d 61ae 263d
00000380: c82e ed3c 95b4 a33a fe2c b63b 34bc 82bc
00000390: 8f8d 2ebc 6651 233c 7473 e2bb 8622 de3c
000003a0: 95a5 cb3c e3e2 11bd 3205 cdbd ebdd 9ebd
000003b0: 678a 05bc a65b ccbd 62f9 09bd bdfe 8fbc
000003c0: 5535 8bbd ce4c 2dbd ec07 a9bd ca9e 0fbd
000003d0: 91bf f0bc 15b6 1dbd 2ffd d5bd 5bc2 a2bd
000003e0: 6805 a6bc 9135 60bd 9420 0abd fb01 273c
000003f0: b82e 82ba 8f40 633c 6997 4e3c 4545 0bbc

cell_list.1.conv.bias f4 [32]
0.19649802 0.40800884 0.4667068 0.39067248 0.30546898 0.32705152 0.23408145 0.24721913
-0.50780946 -0.81547636 -0.29867843 -0.25509858 -0.39231896 -0.39753917 -0.64473337 -0.36505058
0.079843245 0.43051708 0.14683549 0.22482194 0.023390431 0.23529795 0.11752508 0.06559225
0.0026557895 0.021500962 0.019842196 -0.06396296 -0.11517154 -0.16729034 -0.120673455 0.06301994
00000000: c736 493e 89e6 d03e 32f4 ee3e 3906 c83e
00000010: 6e66 9c3e 4c73 a73e 0cb3 6f3e 0327 7d3e
00000020: cdff 01bf 0fc3 50bf 61ec 98be 489c 82be
00000030: 08de c8be 418a cbbe 3f0d 25bf e9e7 babe
00000040: db84 a33d bc6c dc3e 0b5c 163e b937 663e
00000050: 4a9d bf3c f2f1 703e fdb0 f03d 3b55 863d
00000060: c10c 2e3b c922 b03c 1a8c a23c 03ff 82bd
00000070: 0edf ebbd 294e 2bbe a523 f7bd 9910 813d

cell_list.2.conv.weight f4 [32, 16, 3, 3]
-0.01890146 0.019562883 0.021566385 -0.092135094 -0.05200433 0.09539899 -0.033272736 -0.03267491
0.16106875 0.10669298 0.20152597 0.17587923 -0.44813743 -0.22621928 0.059441198 -0.1585453
0.05055344 0.14011802 -0.11492336 0.14164378 0.16076867 0.009063213 -0.12452002 -0.15660805
-0.22569346 -0.1067586 -0.20709145 -0.0718926 -0.20708765 -0.28373 -0.037661154 -0.11277583
0.15726948 0.108992636 -0.03513391 0.06207375 0.20949852 -0.14431876 0.14969735 0.4832749
-0.02233756 -0.22006756 0.057449218 -0.19273752 -0.40802202 0.0052166157 0.15277943 0.12925138
-0.057917986 0.086438544 0.17704982 0.056242168 0.25165424 0.30292878 -0.07227781 -0.072313234
0.016583748 0.23944645 0.024608891 -0.07555114 -0.11920282 0.021469967 -0.15415977 -0.07532568
0.08676647 -0.042205688 -0.19170132 -0.058544964 0.057506625 0.01703278 0.12535374 0.22166035
0.06766957 0.06714691 0.06866914 -0.022198278 0.012739328 0.08958594 0.030920343 -0.007830369
0.029675543 -0.035110433 -0.06716751 -0.07449887 -0.02554867 -0.022582324 -0.0361147 0.013305427
0.047056347 0.040705536 0.047241837 0.10468823 -0.044928186 -0.008406711 0.012207865 0.056354266
-0.09674312 -0.088961475 0.06332983 -0.115299 0.006244351 -0.16684116 -0.11284245 -0.02678331
-0.03193513 -0.067319565 -0.023731098 -0.14891134 0.08038019 0.030723479 0.017448826 -0.076546706
-0.030173909 0.01962469 -0.07764533 -0.049548537 -0.06466394 -0.056009475 -0.13907114 -0.09578904
-0.1451854 -0.21607369 -0.14773309 0.004113319 -0.038279045 -0.08374431 0.008017676 0.116761975
0.15484549 -0.016132867 0.029035749 0.12490171 -0.010048759 0.11731367 0.03646004 0.035014167
-0.051851787 0.12228997 0.039165497 -0.04287407 -0.008529786 0.15121052 -0.012910296 0.06334544
0.16613668 0.43052554 0.4039604 -0.799954 -0.033681553 0.3732756 0.40583494 0.17596258
0.33664373 -0.023292188 -0.20878409 0.04160525 -0.115209624 0.30006182 -0.07457315 -0.06053765
-0.05014697 0.03047584 -0.7608513 -0.5115316 0.010551401 -0.9813964 0.04399929 0.70548743
-0.26297548 -0.06933417 -0.5080612 -0.36102933 -0.3209893 -0.36696535 -0.50689983 -0.5225407
-0.0053272434 -0.86045915 -0.5495853 -0.071351 -0.076649934 -0.08745749 0.28717947 -0.042558197
-0.23991664 0.009890005 0.5706329 -0.039347976 0.1286752 0.20904449 -0.124706656 0.0049311155
0.21650743 -0.022706438 0.090611 0.19358636 0.42443344 0.5952663 -0.30343118 -0.22226143
0.50330305 -0.36061957 -0.3961551 -0.23965457 0.92276704 0.5964038 -0.1261546 0.32095096
0.19027026 -0.063031696 0.31915775 0.24588262 0.17570095 -0.18923126 -0.07077198 -0.072094
0.004593207 0.0054226993 0.003059253 0.0066090976 0.003518476 -0.0072825905 0.00028350655 -0.013553348
-0.003837201 0.012528143 -0.0017765146 0.0015689846 0.00015151335 -0.0011960769 -0.0020143408 0.0045018937
0.0056822556 -0.0028079008 -0.019172328 -0.029105999 -0.017725553 0.015537424 0.017455645 -0.011548262
-0.028635716 -0.029035576 -0.001555979 -0.020702817 -0.04769934 -0.04221094 -0.022258028 -0.026768703
-0.027137266 -0.052696303 -0.024531433 -0.012781939 1.51431495e-05 0.0012572692 -0.008515886 -0.014605243
00000000: 3cd7 9abc 5742 a03c fdab b03c 53b1 bcbd
00000010: 7e02 55bd 8c60 c33d fe48 08bd 20d6 05bd
00000020: 35ef 243e d981 da3d d35c 4e3e af19 343e
00000030: 4572 e5be 07a6 67be 9d78 733d b359 22be
00000040: 2011 4f3d 197b 0f3e f05c ebbd 110b 113e
00000050: 8ba0 243e df7d 143c 5a04 ffbd dc5d 20be
00000060: 301c 67be 41a4 dabd c80f 54be 6d3c 93bd
00000070: c90e 54be 0f45 91be 9542 1abd 04f7 e6bd
00000080: 400b 213e 8837 df3d 93e8 0fbd 0b41 7e3d
00000090: c886 563e 4cc8 13be 434a 193e cf6f f73e
000000a0: 42fd b6bc 6459 61be df4f 6b3d fc5c 45be
000000b0: 43e8 d0be 25f0 aa3b 3672 1c3e 795a 043e
000000c0: 693b 6dbd b106 b13d 8c4c 353e 305e 663d
000000d0: d3d8 803e 7b19 9b3e 6306 94bd f618 94bd
000000e0: a4da 873c 7331 753e 9698 c93c 8eba 9abd
000000f0: 9c20 f4bd c9e1 af3c 0fdc 1dbe 5a44 9abd
00000100: 9eb2 b13d dfdf 2cbd 5a4d 44be d8cc 6fbd
00000110: 118c 6b3d 5488 8b3c bb5c 003e eefa 623e
00000120: 5896 8a3d 5284 893d 68a2 8c3d 2ad9 b5bc
00000130: 9db8 503c d578 b73d a94c fd3c f34a 00bc
00000140: 201a f33c f5cf 0fbd 1f8f 89bd dd92 98bd
00000150: 724b d1bc 91fe b8bc 02ed 13bd 01ff 593c
00000160: 28be 403d d9ba 263d a880 413d c866 d63d
00000170: 9e06 38bd 4dbc 09bc 7f03 483c bbd3 663d
00000180: 4221 c6bd 6f31 b6bd 12b3 813d e221 ecbd
00000190: 6a9d cc3b 69d8 2abe f119 e7bd ac68 dbbc
000001a0: 69ce 02bd d7de 89bd b867 c2bc 377c 18be
000001b0: 5e9e a43d ceaf fb3c d7f0 8e3c 85c4 9cbd
000001c0: 462f f7bc f5c3 a03c 8404 9fbd 68f3 4abd
000001d0: 876e 84bd 316a 65bd aa68 0ebe 0b2d c4bd
000001e0: 7bab 14be 6c42 5dbe 5847 17be 05c9 863b
000001f0: 7dca 1cbd 2382 abbd 925c 033c e720 ef3d
00000200: d18f 1e3e 1329 84bc 61dc ed3c 78cc ff3d
00000210: 8da3 24bc 2642 f03d 1f57 153d 046b 0f3d
00000220: 8a62 54bd 2a73 fa3d 006c 203d b99c 2fbd
00000230: 84c0 0bbc eed6 1a3e b585 53bc 41bb 813d
00000240: bc1f 2a3e d86d dc3e e6d3 ce3e c9c9 4cbf
00000250: abf5 09bd fb1d bf3e 99c9 cf3e 892f 343e
00000260: 915c ac3e 42cf bebc 7fcb 55be 446a 2a3d
00000270: 06f3 ebbd b4a1 993e cfb9 98bd 54f6 77bd
00000280: e966 4dbd 78a8 f93c 27c7 42bf bcf3 02bf
00000290: c9df 2c3c cb3c 7bbf 9938 343d d39a 343f
000002a0: b9a4 86be 13ff 8dbd 4c10 02bf d6d8 b8be
000002b0: b658 a4be e2e2 bbbe 30c4 01bf 3ac5 05bf
000002c0: 2890 aebb 0d47 5cbf 9fb1 0cbf 7920 92bd
000002d0: a4fa 9cbd ea1c b3bd 3009 933e 8151 2ebd
000002e0: b5ac 75be b009 223c ff14 123f 582b 21bd
000002f0: 6ec3 033e c20f 563e 3466 ffbd 3295 a13b
00000300: 20b4 5d3e da02 babc 4392 b93d 813b 463e
00000310: 574f d93e 5f63 183f 555b 9bbe 8098 63be
00000320: 78d8 003f 21a3 b8be d7d4 cabe 0268 75be
00000330: 763a 6c3f ebad 183f ac2e 01be af53 a43e
00000340: 35d6 423e c316 81bd a568 a33e a7c8 7b3e
00000350: f3ea 333e d7c5 41be e6f0 90bd 05a6 93bd
00000360: 9d82 963b e6b0 b13b c07d 483b 2191 d83b
00000370: 3b96 663b cca2 eebb 9ba3 9439 dd0e 5ebc
00000380: 8d79 7bbb d742 4d3c f0d9 e8ba 63a6 cd3a
00000390: 8edf 1e39 aec5 9cba 0803 04bb 9f84 933b
000003a0: 3732 ba3b c204 38bb 490f 9dbc b46f eebc
000003b0: 2e35 91bc ae90 7e3c 24ff 8e3c ec34 3dbc
000003c0: 7395 eabc 04dc edbc fef1 cbba f498 a9bc
000003d0: 6260 43bd 61e5 2cbd 7856 b6bc 0a4a dbbc
000003e0: f94e debc 14d8 57bd 25f6 c8bc 566b 51bc
000003f0: 550f 7e37 f4ca a43a 3786 0bbc d44a 6fbc

cell_list.2.conv.bias f4 [32]
0.059157956 0.4692574 0.16747573 0.20478916 0.032444965 0.123925455 0.008348493 0.045850746
-0.17868194 -0.88135254 -0.24117015 -0.190721 -0.47826216 -0.21129997 -0.48361257 -0.3951218
-0.22950509 0.5992257 0.20946485 -0.07391277 -0.10713799 -0.006970324 -0.38615912 -0.017085493
-0.056451213 0.014377703 -0.005290762 -0.040557265 0.05947816 0.02172092 -0.07626147 -0.021129608
00000000: 9d4f 723d 8242 f03e c27e 2b3e 40b4 513e
00000010: 03e5 043d a1cc fd3d 1ec8 083c fecd 3b3d
00000020: 66f8 36be 52a0 61bf 4ff5 76be 5e4c 43be
00000030: c7de f4be 055f 58be 119c f7be 684d cabe
00000040: 6203 6bbe db66 193f f47d 563e 945f 97bd
00000050: 2a6b dbbd 5167 e4bb a6b6 c5be e0f6 8bbc
00000060: 6339 67bd 7590 6b3c 215e adbb 601f 26bd
00000070: 5f9f 733d 12f0 b13c f92e 9cbd 0018 adbc

batchnorm_list1.0.weight f4 [8]
1.043128 0.926222 0.9391882 0.9858163 0.91937673 0.9666488 0.97601587 0.89929056
00000000: 3885 853f e31c 6d3f a36e 703f 755e 7c3f
00000010: 465c 6b3f 4c76 773f 2ddc 793f e837 663f

batchnorm_list1.0.bias f4 [8]
0.03049395 -0.012887268 0.061841067 -0.010227142 0.051905297 -0.03353406 0.018001549 0.0065792636
00000000: 73ce f93c 1f25 53bc 0f4d 7d3d be8f 27bc
00000010: a69a 543d 035b 09bd fc77 933c dd96 d73b

batchnorm_list1.0.running_mean f4 [8]
-0.15140796 0.0053498847 -0.04875632 0.0076795663 0.023943927 -0.027839541 -0.07345347 0.0071807243
00000000: b00a 1bbe 164e af3b b5b4 47bd dfa4 fb3b
00000010: 0e26 c43c c00f e4bc c66e 96bd 484c eb3b

batchnorm_list1.0.running_var f4 [8]
0.10015322 0.0033291134 0.061100513 0.029965265 0.044335708 0.020295845 0.084150866 0.025106639
00000000: 221d cd3d 412d 5a3b 8844 7a3d b779 f53c
00000010: 5c99 353d 7943 a63c 4a57 ac3d 70ac cd3c

batchnorm_list1.1.weight f4 [8]
1.0544122 0.8981989 1.0110295 0.9478614 0.94474125 0.9537491 0.99934757 0.976344
00000000: fbf6 863f 5df0 653f 6a69 813f 0ba7 723f
00000010: 90da 713f e728 743f 3ed5 7f3f aef1 793f

batchnorm_list1.1.bias f4 [8]
-0.0070492807 0.016023878 0.006878807 -0.0050459593 -0.004304303 -0.015891388 -0.020754235 0.015193479
00000000: a7fd e6bb 8244 833c 9e67 e13b 9358 a5bb
00000010: 1c0b 8dbb a82e 82bc c904 aabc 12ee 783c

batchnorm_list1.1.running_mean f4 [8]
0.025221288 0.004892338 -0.04355979 0.010765175 -0.041453287 -0.050567232 0.039025337 -0.022588091
00000000: e09c ce3c e84f a03b c06b 32bd 6b60 303c
00000010: ecca 29bd 961f 4fbd 08d9 1f3d a90a b9bc

batchnorm_list1.1.running_var f4 [8]
0.041371584 0.023336513 0.089210376 0.03917995 0.026483629 0.043184184 0.06348622 0.07185335
00000000: 4075 293d 372c bf3c eeb3 b63d 287b 203d
00000010: 32f4 d83c e6e1 303d 1005 823d d927 933d

batchnorm_list1.2.weight f4 [8]
0.9752297 0.9536396 1.1356221 1.1168749 1.0364841 1.1561878 1.0205144 1.1358887
00000000: a7a8 793f ba21 743f 115c 913f c2f5 8e3f
00000010: 83ab 843f f6fd 933f 37a0 823f cd64 913f

batchnorm_list1.2.bias f4 [8]
-0.000107174455 -0.00030294704 0.00094751315 0.0011325055 0.002141783 -0.00025387428 0.0006633122 -0.00021069782
00000000: d9c2 e0b8 ddd4 9eb9 8862 783a 9470 943a
00000010: 285d 0c3b 6e1a 85b9 21e2 2d3a c4ee 5cb9

batchnorm_list1.2.running_mean f4 [8]
0.007694437 0.007417175 -0.015557499 -0.018579544 0.041373048 0.020650147 -0.03184987 0.012727483
00000000: 9e21 fc3b c60b f33b e1e4 7ebc 2134 98bc
00000010: c976 293d 7f2a a93c 0275 02bd ef86 503c

batchnorm_list1.2.running_var f4 [8]
0.024180181 0.0462181 0.0690991 0.051225163 0.03471639 0.06763573 0.007696676 0.041382585
00000000: 8415 c63c 314f 3d3d d483 8d3d 7ad1 513d
00000010: c632 0e3d 9a84 8a3d 6634 fc3b c980 293d

batchnorm_list2.0.weight f4 [8]
0.6909914 0.08846657 0.47275034 0.32280204 0.66487914 0.2717068 0.80329984 0.31579158
00000000: d0e4 303f f62d b53d 550c f23e 4f46 a53e
00000010: 8535 2a3f 271d 8b3e 0fa5 4d3f 6faf a13e

batchnorm_list2.0.bias f4 [8]
0.012501629 -0.026697138 -0.006539207 0.0007598303 -0.007703274 0.00010212673 0.003832483 -0.010382764
00000000: a2d3 4c3c f5b3 dabc d846 d6bb 592f 473a
00000010: bf6b fcbb df2c d638 652a 7b3b 781c 2abc

batchnorm_list2.0.running_mean f4 [8]
-0.18020117 0.0370436 0.0049036965 -0.08132349 -0.082844846 0.025893675 -0.0824767 0.0051222853
00000000: a886 38be 08bb 173d 30af a03b ee8c a6bd
00000010: 8faa a9bd f91e d43c 8be9 a8bd d8d8 a73b

batchnorm_list2.0.running_var f4 [8]
0.86393005 0.04848276 0.45099357 0.3095386 0.70416105 0.1488306 0.69612736 0.2091187
00000000: 852a 5d3f dc95 463d a1e8 e63e d87b 9e3e
00000010: e643 343f 0c67 183e 6735 323f 3623 563e

batchnorm_list2.1.weight f4 [8]
0.6519496 0.12979236 0.85512835 1.1618109 0.89377743 0.88274276 0.66454715 0.9661667
00000000: 2be6 263f 4ae8 043e b1e9 5a3f 38b6 943f
00000010: 99ce 643f 6efb 613f c31f 2a3f b356 773f

batchnorm_list2.1.bias f4 [8]
-0.0016717418 0.0025223726 -0.0026819878 -0.0040782117 -0.0029005597 -0.0024867174 -0.005631004 0.0040044626
00000000: 591e dbba 644e 253b 4ac4 2fbb 85a2 85bb
00000010: 5117 3ebb 32f8 22bb 4984 b8bb de37 833b

batchnorm_list2.1.running_mean f4 [8]
0.07159227 -0.0118377255 -0.100373276 -0.08788078 -0.1987679 0.04709601 0.035553906 0.043452553
00000000: f89e 923d 05f3 41bc 8190 cdbd d7fa b3bd
00000010: d089 4bbe bfe7 403d f9a0 113d 4efb 313d

batchnorm_list2.1.running_var f4 [8]
0.6005327 0.094264455 1.2154089 2.021544 1.469615 1.2916204 0.64346826 1.2772166
00000000: 83bc 193f b90d c13d 8592 9b3f fa60 0140
00000010: 581c bc3f d153 a53f 56ba 243f d57b a33f

batchnorm_list2.2.weight f4 [8]
1.0122404 0.17762613 0.9269382 0.9805761 0.65769225 1.3115907 0.6185916 1.0471671
00000000: 1891 813f a0e3 353e d24b 6d3f 0907 7b3f
00000010: 855e 283f 34e2 a73f 055c 1e3f 9209 863f

batchnorm_list2.2.bias f4 [8]
0.00025197258 0.017697407 -0.0012118063 -0.0002642002 -0.0011784849 0.00029952778 0.0018642669 -0.000225343
00000000: 301b 8439 27fa 903c 79d5 9eba 5a84 8ab9
00000010: 6477 9aba f009 9d39 6b5a f43a 0d4a 6cb9

batchnorm_list2.2.running_mean f4 [8]
0.06429813 -0.043260906 -0.008831042 -0.19129409 0.15548177 -0.06803117 0.09400376 0.091240324
00000000: bdae 833d 5932 31bd 13b0 10bc 99e2 43be
00000010: 9d36 1f3e ed53 8bbd 0b85 c03d 35dc ba3d

batchnorm_list2.2.running_var f4 [8]
1.8483061 0.17806098 1.2904539 1.7830079 0.7870663 2.8374674 0.80810094 2.2961426
00000000: 4b95 ec3f 9e55 363e 982d a53f 9a39 e43f
00000010: 2d7d 493f 1199 3540 b4df 4e3f 00f4 1240
