models/convlstm/saved_models/lr_0.0001/epoch_4620.pt (torch, 68130 bytes, 30 tensors)

cell_list.0.conv.weight f4 [32, 16, 3, 3]
0	0x3ed02147	0.4065039
1	0x3f370f6a	0.71507895
2	0x3f7af5b7	0.9803118
3	0x3efe4ea7	0.49669382
4	0x3e308009	0.17236342
5	0x3e4db059	0.20086803
6	0x3ddfcac1	0.10927344
7	0xbe64a104	-0.22327048
8	0x3dd3bbd0	0.10338557
9	0x3e4cca7d	0.19999118
10	0x3ece9e27	0.40355036
11	0x3ef6012a	0.48047763
12	0x3e5a24ec	0.21303147
13	0x3f145934	0.57948613
14	0x3eac318a	0.33631545
15	0x3eabbafa	0.3354109
16	0x3eb8e8ec	0.36115205
17	0x3d95c9e9	0.07313902
18	0xbc949c9f	-0.018141089
19	0x3f265ce8	0.64985514
20	0x3e0df0ed	0.13861437
21	0x3f3f9f13	0.74852103
22	0x3eafe77e	0.34356302
23	0x3f04ce53	0.51877326
24	0x3f5f0faa	0.87133276
25	0x3f15e22e	0.5854825
26	0x3eaa15df	0.3321981
27	0x3ed6a16b	0.41920027
28	0x3f49bbad	0.78801996
29	0x3e00d5f3	0.12581615
30	0x3e22725c	0.15863937
31	0xbe9aae48	-0.3021109
32	0xbd7169d8	-0.05893883
33	0x3e791621	0.24324848
34	0xbd833cbe	-0.0640807
35	0xbc814f02	-0.015784744
36	0x3e3cade2	0.18425706
37	0x3e3c450c	0.18385714
38	0xbe870560	-0.26371288
39	0x3d0b1e1c	0.03396426
40	0xbef71a35	-0.48262182
41	0xbe742d1f	-0.23845337
42	0xbc30f434	-0.01080041
43	0xbdda7a22	-0.10667826
44	0x3ce22415	0.027605096
45	0x3ee6f404	0.45108044
46	0x3e619097	0.22027813
47	0xbc664b95	-0.014056106
48	0xbe20f0f9	-0.15716924
49	0xbd1ba769	-0.03800145
50	0xbedfc9c2	-0.43708616
51	0xbd4f6129	-0.05062977
52	0xbe43a8d7	-0.19107376
53	0xbece2e02	-0.40269476
54	0xbefcb450	-0.49356318
55	0xbcf3e8df	-0.029774128
56	0xbd1d0847	-0.038337972
57	0xbe9ff555	-0.3124186
58	0xbd96de32	-0.07366599
59	0xbec4a152	-0.38404328
60	0xbf1a3761	-0.6024075
61	0xbef2205b	-0.4729031
62	0xbeb0d135	-0.34534612
63	0x3e736df7	0.23772417
64	0xbd8bfaad	-0.06834922
65	0x3dcbdcc6	0.099542186
66	0xbf2ba21f	-0.6704425
67	0xbf0242e0	-0.50883293
68	0xbe9cde80	-0.30638504
69	0xbe08f9dd	-0.13376565
70	0xbda2faff	-0.0795803
71	0xbe4beaf5	-0.19913848
72	0x3dfb9ea2	0.12286116
73	0x3d85fb20	0.06542039
74	0xbd3abbc8	-0.04558924
75	0xbe01b4f3	-0.12666683
76	0xbe5e46af	-0.21706651
77	0x3c0c92c1	0.008579911
78	0xbdc6cb17	-0.09706705
79	0x3b0a8920	0.0021138862
80	0x3c6c64d6	0.014428338
81	0xbddea407	-0.108711295
82	0xbc69d19f	-0.014271169
83	0x3d86e214	0.0658609
84	0x3d859d32	0.06524123
85	0x3d007bb7	0.031367984
86	0xbb21761a	-0.0024637044
87	0xbdbfc548	-0.093638
88	0x3b024715	0.0019878794
89	0xbd25833d	-0.04040836
90	0x3bfe8928	0.007767815
91	0x3c03d039	0.00804525
92	0x3c820472	0.01587126
93	0xbdb8a5cb	-0.090159975
94	0xbda6a166	-0.08136253
95	0xbc7af524	-0.015317235
96	0xbc73526e	-0.014851196
97	0xba12807d	-0.0005588604
98	0x3b86c456	0.0041127605
99	0x3d470e47	0.0485976
100	0x3dac21f2	0.08404912
101	0x3df92628	0.12165481
102	0x3dc8ff9f	0.09814381
103	0xbc6c1032	-0.014408158
104	0xbb3aaf15	-0.0028485705
105	0xbdabe992	-0.083941594
106	0x3d4200a8	0.047363907
107	0xbe181ae4	-0.14854008
108	0xbd27baa4	-0.04094948
109	0xbdbb27f2	-0.09138478
110	0x3cea3b65	0.028592775
111	0xbcd9e9b3	-0.026600694
112	0xbdcffad9	-0.10155267
113	0xbd1b6026	-0.03793349
114	0xbde10919	-0.10988063
115	0x3d469187	0.04847863
116	0xbc0918f1	-0.008367763
117	0xbdc809f4	-0.097675234
118	0xbdd6d1da	-0.10489245
119	0xbd8d8c20	-0.06911492
120	0xbe2afbf0	-0.16697669
121	0x3bec5447	0.007212195
122	0x3b3f5399	0.0029194115
123	0x3e023b5b	0.12717955
124	0xbc070557	-0.008241019
125	0x3da584a4	0.0808194
126	0xbc64de21	-0.013968975
127	0x3dcca4c5	0.09992365
128	0xbdc230a5	-0.094819345
129	0xbcef57a8	-0.029216602
130	0x3d3c214e	0.0459302
131	0xbce88207	-0.028382314
132	0x3b776367	0.0037748457
133	0x3dd05cbe	0.10173939
134	0xbd2cb58a	-0.042165317
135	0xbd8c31de	-0.06845449
136	0x3ddfe74f	0.109327905
137	0x3dafdb4a	0.08586748
138	0xbd8797d4	-0.06620756
139	0x3c984a0c	0.018589996
140	0x3d6797dc	0.05654131
141	0xbe0b563a	-0.13607112
142	0x3dbc2ee6	0.09188633
143	0xbd3ba1ee	-0.045808725
144	0xbf04eab6	-0.5192064
145	0xbf03f5e1	-0.51547056
146	0xbdb89132	-0.09012069
147	0xbedf6f67	-0.4363968
148	0xbe1b53ca	-0.15168682
149	0x3e44d279	0.19220914
150	0x3e61dd42	0.2205706
151	0xbe507ec0	-0.20360851
152	0xbe6a3840	-0.2287302
153	0xbe93050e	-0.28714794
154	0x3d2b7881	0.04186297
155	0xbe052d77	-0.13005625
156	0x3f03ea6b	0.5152957
157	0xbe26e129	-0.1629683
158	0x3bcecd7c	0.0063111167
159	0x3f15bfaa	0.5849558
160	0xbe5b019b	-0.21387331
161	0xbe45d7a6	-0.19320545
162	0x3f114286	0.5674213
163	0xbe5486ee	-0.20754597
164	0x3da85777	0.082198076
165	0xbe5b29a2	-0.214026
166	0x3e287668	0.16451418
167	0x3ebc0584	0.36722958
168	0x3de59e17	0.11211794
169	0x3dacf712	0.084455624
170	0x3e5fcf15	0.2185634
171	0x3e904a8c	0.28181875
172	0x3e81bf0f	0.2534108
173	0xbc792351	-0.015206174
174	0x3e3edcfc	0.18638986
175	0x3d6aafc5	0.057296533
176	0xbe0592c9	-0.13044275
177	0xbe76fd05	-0.24119957
178	0xbe53967b	-0.20662872
179	0x3dfec56a	0.124399975
180	0xbc1d2180	-0.009590507
181	0xbe13ccf0	-0.14433646
182	0xbe2ad0f1	-0.16681267
183	0xbd669b87	-0.056300666
184	0xbbcd9c2d	-0.006274721
185	0xbe7f2dd9	-0.24919833
186	0xbde20491	-0.11036027
187	0xbec24469	-0.37942818
188	0x3dc7fd7f	0.097651474
189	0xbe5ec0fa	-0.21753302
190	0xbedbff5b	-0.42968258
191	0xbe21875d	-0.15774293
192	0xbce43557	-0.027857466
193	0xbc8ca220	-0.017167151
194	0xbe75f731	-0.24020077
195	0xbe0025d2	-0.12514427
196	0x3e8b539a	0.2721222
197	0x3d8854c9	0.066567965
198	0x3c866d00	0.016409397
199	0xbe857d01	-0.26071933
200	0x3de7f564	0.113261014
201	0x3e31e62b	0.17372958
202	0xbec30541	-0.38089946
203	0xbe054956	-0.13016257
204	0x3e7e1c3a	0.24815455
205	0x3e0d837d	0.1381969
206	0x3dc36a29	0.09541733
207	0x3d63e267	0.055635836
208	0xbbabc712	-0.005242237
209	0xbe470839	-0.1943673
210	0xbdb14a4f	-0.08656751
211	0xbec6f6ec	-0.3886026
212	0xbe65703f	-0.224061
213	0x3ed4915f	0.4151716
214	0x3f26578b	0.6497733
215	0xbf4706e4	-0.7774489
216	0x3e443990	0.19162583
217	0x3da40adb	0.08009883
218	0xbd95ad10	-0.073084
219	0x3d3c5499	0.045979116
220	0x3d466967	0.048440363
221	0x3dad9d1e	0.08477233
222	0x3d52f400	0.051502228
223	0xbc0e70b7	-0.0086938655
224	0x3be0947f	0.0068536396
225	0x3bbde4b5	0.0057950863
226	0x3cae7d1c	0.021299891
227	0xbd4af411	-0.049549166
228	0xbd87419f	-0.06604313
229	0x3d25bd0a	0.040463485
230	0x3d445d91	0.047940794
231	0xbb0f9929	-0.002191136
232	0x3cd5120a	0.026009578
233	0x3d12474a	0.035712518
234	0xbc2e4178	-0.010635726
235	0xbda0da3e	-0.078541264
236	0xbbbdf438	-0.0057969354
237	0xbd17534b	-0.03694467
238	0x3d234a5e	0.039865844
239	0x3d120dee	0.035657816
240	0xbdf0546a	-0.11734851
241	0xbd255ba5	-0.040370602
242	0xbd56cb2f	-0.052439865
243	0x3b916344	0.004436882
244	0x3aee3aff	0.0018175541
245	0x3ca67726	0.020320486
246	0xbcac30ba	-0.021019328
247	0x3d59ee7f	0.053205963
248	0x3de73eb9	0.1129126
249	0xbd065330	-0.032794178
250	0xbd861a6e	-0.0654801
251	0x3c7809fc	0.015139099
252	0x3cda3934	0.026638605
253	0x3bb07e0a	0.005386119
254	0xbc702bc1	-0.014658869
255	0xbca78320	-0.020448267

cell_list.0.conv.bias f4 [32]
0	0x3d10eb19	0.035380457
1	0x3d048ba1	0.032359723
2	0x3e3b4a86	0.18290147
3	0x3e72ecfd	0.23723216
4	0x3e759df4	0.23986036
5	0x3f0ecc18	0.5578017
6	0x3e83e7de	0.25762838
7	0xbd65bc60	-0.05608785
8	0xbf7f4f67	-0.99730533
9	0xbfc36f31	-1.5268308
10	0xbf9a0dac	-1.2035422
11	0xbf86e898	-1.0539732
12	0xbf87fa7d	-1.0623318
13	0xbf9637e4	-1.1735806
14	0xbf89b8f0	-1.0759563
15	0xbfb41702	-1.4069521
16	0x3aa586a0	0.0012628622
17	0xbf4ff37a	-0.8123089
18	0x3e7de3e2	0.24793962
19	0x3de232dc	0.11044857
20	0x3e9c2235	0.30494848
21	0x3f0ef2a0	0.55838966
22	0x3dc851bf	0.09781217
23	0x3d1dce11	0.0385266
24	0xbe58c58e	-0.21169111
25	0x3e0494a5	0.12947328
26	0x3e49411f	0.19653748
27	0xbddd05f0	-0.10792148
28	0xbe05e996	-0.13077387
29	0x3dde0251	0.108402856
30	0x3e7f46a1	0.24929287
31	0xbd622611	-0.055212084

cell_list.1.conv.weight f4 [32, 16, 3, 3]
0	0x3e9c5909	0.30536678
1	0xbee1355d	-0.43986025
2	0xbecc09e2	-0.3985129
3	0x3ed0070b	0.40630373
4	0x3ec5d779	0.38640955
5	0xbf303673	-0.6883308
6	0x3fa13de0	1.2597008
7	0x3f2c33db	0.67266625
8	0xbf32a332	-0.69780266
9	0xbf494522	-0.78621113
10	0xbd0dad4e	-0.034589104
11	0x3f89f277	1.0777119
12	0xbf374eb8	-0.7160449
13	0x3f9adbd0	1.2098331
14	0xbf150414	-0.5820935
15	0xbef616c9	-0.4806426
16	0x3fc5100b	1.5395521
17	0xbf5a8ec1	-0.85374075
18	0xbf8eed0b	-1.116609
19	0xbedbd207	-0.42933676
20	0xbeb2cd0e	-0.3492207
21	0xbf46443d	-0.77447873
22	0xbd3ef3c5	-0.046619195
23	0xbcb03707	-0.021510614
24	0xbf8d0aa9	-1.1018878
25	0xbf26fbbc	-0.65227866
26	0xbf39eb08	-0.72624254
27	0xbe0b194a	-0.13583866
28	0xbf1fc501	-0.6240998
29	0xbeac5581	-0.33658984
30	0xbec6d1d3	-0.38831958
31	0xbf1e4231	-0.6181975
32	0xbec6d52e	-0.38834518
33	0xbe3aca9a	-0.18241349
34	0xbd867185	-0.06564621
35	0x3e0afa27	0.13571988
36	0x3e52c8e8	0.20584452
37	0xbe09466f	-0.13405775
38	0xbf0d3e93	-0.55173606
39	0xbe92b52f	-0.28653857
40	0xbf19371f	-0.59849733
41	0xbeb51e5b	-0.35374722
42	0xbefc581f	-0.4928598
43	0x3e27bc82	0.16380504
44	0x3e2d53f3	0.16926555
45	0xbf7b7958	-0.9823203
46	0x3e97647e	0.29568857
47	0x3f88161e	1.063175
48	0xbf921b32	-1.1414549
49	0x3efe5d94	0.4968077
50	0x3fb6b2cf	1.4273318
51	0xbd424b97	-0.04743537
52	0xbe39da93	-0.18149786
53	0xbeb2ae17	-0.34898445
54	0x3f2c248a	0.67243254
55	0xbf2ed6d5	-0.6829656
56	0xbf38a844	-0.7213175
57	0xbeb117f9	-0.34588602
58	0xbf580540	-0.8438301
59	0xbf572bdd	-0.84051305
60	0xbf311c6c	-0.69183993
61	0xbf0fc8a0	-0.56165504
62	0xbf4aedc1	-0.79269034
63	0x3f04f66b	0.51938504
64	0xbe9c225d	-0.30494967
65	0xbf78311f	-0.9694995
66	0x3ea76b11	0.32698873
67	0x3e804f44	0.25060475
68	0x3ed5301b	0.41638264
69	0x3ec2422a	0.37941104
70	0x3f408094	0.75196195
71	0x3f2a4471	0.66510683
72	0xbbdb097a	-0.0066844793
73	0x3d0c28b3	0.0342185
74	0x3d374145	0.04473998
75	0xbcb63f17	-0.02224688
76	0xbd7cd32a	-0.06172482
77	0x3db17c38	0.08666271
78	0xbe037639	-0.12838067
79	0xbe08cfc1	-0.13360502
80	0x3dcc93d3	0.09989133
81	0xbc2de214	-0.010612983
82	0x3c2bafec	0.010478955
83	0x3db9c85c	0.09071419
84	0xbe4c1b0c	-0.19932193
85	0xbd1c7a3f	-0.03820252
86	0xbd550f00	-0.05201626
87	0xbc192d57	-0.009349189
88	0x3cb866fc	0.022510044
89	0x3dc4da4b	0.096119486
90	0x3e056d2d	0.13029929
91	0xbdfd1644	-0.123577625
92	0x3d8c04e8	0.06836873
93	0xbe05ef0c	-0.1307947
94	0xbd79d15e	-0.060990684
95	0x3cbf26f7	0.02333401
96	0xbd656f3c	-0.056014284
97	0xbd1821b0	-0.037141502
98	0xbe1d780d	-0.15377827
99	0xbe064a8a	-0.13114372
100	0xbd80f813	-0.062973164
101	0xbda3592c	-0.079759926
102	0xbe53ef76	-0.20696816
103	0xbe4beef2	-0.19915369
104	0xbdc08aba	-0.0940146
105	0xbe19ea89	-0.15030874
106	0xbd8a43e1	-0.06751228
107	0xbd2e0a36	-0.042490207
108	0xbc8a70fd	-0.01689958
109	0x3d6f6dc5	0.058454294
110	0x3b6836b1	0.003543299
111	0x3d838ba0	0.06423116
112	0x3dbe9a38	0.09306759
113	0xbdf3e27d	-0.119084336
114	0x3dae2a4e	0.08504163
115	0x3d1825d4	0.03714545
116	0xbd18044d	-0.037113477
117	0xbdda651e	-0.10663818
118	0x3ca7b9a4	0.020474263
119	0x3c4e2084	0.0125809945
120	0x3ce870d2	0.02837411
121	0xb9b05e3c	-0.00033639546
122	0x3aaf2baa	0.0013364453
123	0x3df03b60	0.11730075
124	0xbdea083b	-0.11427351
125	0x3dfc9ed1	0.12334979
126	0x3e5f349c	0.21797413
127	0x3e007dcf	0.12547992
128	0x3e6e5ec1	0.23278333
129	0xbc9ecca0	-0.019384682
130	0xbd95c1be	-0.07312344
131	0xbe2099b4	-0.15683633
132	0x3d7c6d9d	0.061627973
133	0x3cd56395	0.026048461
134	0x3dd20f49	0.10256822
135	0x3da0a344	0.078436404
136	0xbdde2b1e	-0.10848068
137	0x3c419157	0.011814437
138	0xbe2b2548	-0.1671344
139	0xbd120c1e	-0.035656087
140	0x3d79605a	0.060882904
141	0xbe168854	-0.14700443
142	0x3d1d4f78	0.038405865
143	0xbba9a1e7	-0.005176771
144	0x3f6c20ce	0.92237556
145	0x3f01bc45	0.506779
146	0xbd3e1a13	-0.046411585
147	0x3ec6227d	0.38698187
148	0x3fa470d2	1.284693
149	0xbeab56fb	-0.33464798
150	0x3ee3557f	0.44401166
151	0x3e305528	0.17219985
152	0xbf00b23f	-0.5027198
153	0xbe7a4f06	-0.24444208
154	0x3e0d2ae3	0.13785891
155	0xbefb4fbb	-0.49084267
156	0x3e25ddf8	0.16197956
157	0x3f7f9102	0.9983064
158	0xbd74c4e9	-0.0597581
159	0x3f3b40b3	0.731456
160	0x3ef03ac8	0.46919847
161	0x3d3e2dab	0.04643027
162	0xbeb76daa	-0.35825855
163	0x3ea49ce8	0.3215096
164	0xbda3cc24	-0.07997921
165	0xbf42e794	-0.7613461
166	0xbf6fd970	-0.9369116
167	0xbecdba21	-0.40181068
168	0xbf68d8aa	-0.90955603
169	0xbf68bd68	-0.9091401
170	0xbf05589f	-0.5208835
171	0xbe1aa592	-0.15102223
172	0x3d8de3b1	0.06928194
173	0x3debaca3	0.11507537
174	0xbeae9d61	-0.34104446
175	0x3e27d280	0.16388893
176	0xbf21f1d4	-0.63259625
177	0x3d0fa758	0.0350717
178	0xbf3767b2	-0.716426
179	0x3d1607b5	0.036628444
180	0xbdf6efb1	-0.12057436
181	0xbf9fe7f1	-1.2492658
182	0xbed1059e	-0.40824598
183	0xbfbfcda2	-1.4984629
184	0xbf3ed253	-0.7453968
185	0xbf2d6558	-0.67732763
186	0xbf3cdd72	-0.737754
187	0xbe4da2ce	-0.20081636
188	0x3e64fa91	0.22361208
189	0x3cf40131	0.029785724
190	0x3e4c8b21	0.19974948
191	0xbddd7b92	-0.10814585
192	0x3d96771a	0.073469356
193	0x3f233c88	0.6376424
194	0x3f122c60	0.5709896
195	0x3e0c4692	0.13698795
196	0xbefaf46c	-0.49014604
197	0xbe43a98f	-0.1910765
198	0xbf2bca64	-0.671057
199	0xbf8ce191	-1.1006337
200	0x3e633013	0.22186308
201	0xbf09f6e7	-0.5389237
202	0xbe94136f	-0.28921077
203	0xbdf6da8a	-0.12053402
204	0xbe14140a	-0.1446077
205	0xbea4e490	-0.3220563
206	0xbe9d3302	-0.30702978
207	0x3f63ea68	0.8902955
208	0x3dc9c520	0.09852052
209	0x3f79b603	0.9754335
210	0x3f847199	1.0347167
211	0xbe536441	-0.20643713
212	0x3e5b95fe	0.21443936
213	0x3f41313f	0.7546577
214	0x3dc599d4	0.09648481
215	0x3ea16494	0.31522048
216	0x3e282c96	0.16423258
217	0x3e35c3e9	0.17750515
218	0x3d9ce09a	0.07660027
219	0x3bc56a5b	0.0060246415
220	0x3db5362b	0.08848222
221	0x3d69b948	0.057061464
222	0x3d80fa07	0.06297689
223	0x3d28a92f	0.04117697
224	0x3d111f37	0.03543016
225	0x3c03c612	0.008042829
226	0x3c3e6898	0.011621617
227	0xbc6a46d7	-0.014299116
228	0xbb566f19	-0.0032720028
229	0xb98c5134	-0.00026763382
230	0x3c3a67eb	0.011377315
231	0x3d00b990	0.031426966
232	0x3ce3c8b2	0.02780566
233	0xbb60c362	-0.0034296145
234	0xbd1f15ab	-0.038839024
235	0xbd94d23c	-0.072666615
236	0x3caddbb7	0.021222932
237	0xbd6eed01	-0.058331493
238	0xbda238f8	-0.07921022
239	0xbbdddc0b	-0.006770616
240	0xbd51b201	-0.05119515
241	0xbcc788c4	-0.024357207
242	0xbd6fef7b	-0.058577996
243	0xbdc56eeb	-0.096402965
244	0xbdae8f4e	-0.08523427
245	0xbdde58ac	-0.108567566
246	0xbde7dfec	-0.113220066
247	0xbe1c2386	-0.15247926
248	0xbda2fc25	-0.07958249
249	0xbd81fe7f	-0.063473694
250	0xbd4055a6	-0.04695668
251	0x3ca300ac	0.019897781
252	0x3c07d731	0.008291052
253	0x3bc438f0	0.005988233
254	0xbbc3d40b	-0.005976205
255	0xbbff00ca	-0.0077820765

cell_list.1.conv.bias f4 [32]
0	0xbe43cda4	-0.19121414
1	0x3e36abf5	0.17839034
2	0x3f1cb5b2	0.61214745
3	0x3f3816dc	0.7190988
4	0x3f3a8f13	0.72874564
5	0x3f0d304c	0.5515182
6	0x3e443806	0.19161996
7	0x3eb3caee	0.3511576
8	0xbfb5ad93	-1.4193596
9	0xc010c316	-2.261907
10	0xbfa03e4c	-1.2519011
11	0xbfa78f75	-1.3090655
12	0xbf9d5804	-1.2292485
13	0xbf88625d	-1.0655018
14	0xbfcc702c	-1.5971732
15	0xbfa0109e	-1.2505071
16	0xbe102530	-0.14076686
17	0x3f628f9f	0.885004
18	0xbd086b8e	-0.033305697
19	0x3df5e15e	0.12005876
20	0x3dedfa77	0.11620038
21	0x3ecce03e	0.40014833
22	0xbd9fc28a	-0.07800777
23	0xbb47fddf	-0.003051631
24	0xbd35d3ef	-0.04439157
25	0x3c96dbab	0.018415293
26	0x3de555f8	0.11198038
27	0xbd379e42	-0.04482866
28	0xbe258d14	-0.16167098
29	0xbe941c92	-0.28928047
30	0xbe2fb829	-0.17160095
31	0x3e287973	0.16452579

cell_list.2.conv.weight f4 [32, 16, 3, 3]
0	0xbe96353e	-0.29337496
1	0xbdf41ae5	-0.11919192
2	0x3e259363	0.16169505
3	0xbe6b3980	-0.22971153
4	0x3d5bc12a	0.053651012
5	0x3d50747a	0.05089233
6	0x3de0f965	0.10985068
7	0xbe2602d8	-0.16212022
8	0x3df1e139	0.11810536
9	0xbede20ad	-0.43384305
10	0x3e795251	0.24347807
11	0xbdd59acb	-0.10429915
12	0xbf9688c7	-1.1760491
13	0xbef221e8	-0.47291493
14	0x3eb16df4	0.346542
15	0xbd9d37aa	-0.07676633
16	0xbc8f93ef	-0.017526595
17	0x3ea9cb04	0.331627
18	0xbec3671d	-0.38164607
19	0x3be2d84d	0.0069227577
20	0x3e34965a	0.1763548
21	0xbe25e3c8	-0.16200173
22	0xbf22f1b7	-0.6365008
23	0xbefff4ba	-0.499914
24	0xbf1aa930	-0.6041441
25	0xbe7fe89d	-0.24991079
26	0xbe8743b5	-0.26418844
27	0xbe51b170	-0.20477843
28	0xbeb10a03	-0.3457795
29	0xbf64c289	-0.8935934
30	0xbee46be6	-0.4461357
31	0xbee42e77	-0.445667
32	0xbea11f4b	-0.31469187
33	0xbe2515ce	-0.16121599
34	0xbecd3278	-0.40077567
35	0xbe9e43d0	-0.30911112
36	0x3f24979a	0.64293826
37	0xbd845352	-0.064612046
38	0x3e10c273	0.14136676
39	0x3f890aa9	1.0706378
40	0x3eb11dd2	0.34593064
41	0xbeb51de9	-0.35374382
42	0x3ed43102	0.4144364
43	0xbd087dbf	-0.033323046
44	0xbe15956b	-0.1460778
45	0x3e1028ee	0.14078113
46	0x3ec28bcd	0.37997285
47	0x3d9c2a3d	0.07625244
48	0x3d4b468b	0.049627822
49	0x3ed4c21c	0.41554344
50	0x3f7273cf	0.9470796
51	0xbd9ff127	-0.07809668
52	0x3ec66c5e	0.38754553
53	0x3f19460e	0.5987252
54	0x3da97844	0.08274892
55	0xbe9b4622	-0.30326945
56	0xbd925651	-0.0714537
57	0x3f2117dd	0.6292704
58	0x3e385208	0.18000042
59	0xbebfb709	-0.37444332
60	0xbe892cff	-0.26792142
61	0xbe42609e	-0.18982169
62	0xbe6abfbb	-0.22924702
63	0xbede7395	-0.43447557
64	0x3db907d5	0.09034697
65	0xbd06559b	-0.032796483
66	0xbe501e96	-0.20324168
67	0x3d64bfe4	0.055847064
68	0x3eb1d103	0.34729776
69	0x3dd1768c	0.10227689
70	0x3f00f8d4	0.5037968
71	0x3f17bf2f	0.592761
72	0x3d4cdda2	0.050016053
73	0x3cabe954	0.020985283
74	0x3bcc6fa7	0.006238896
75	0x3c2d24c6	0.0105678495
76	0xbac501ee	-0.0015030482
77	0x3d470875	0.04859205
78	0x3cf7e6a8	0.030261353
79	0xbd2758bf	-0.04085612
80	0xbcda1fd3	-0.026626503
81	0xbd7b10b9	-0.061295245
82	0x3d36b21f	0.044603463
83	0xbddd3433	-0.10800972
84	0xbd677524	-0.0565082
85	0x3af5df17	0.0018758503
86	0xbbe0a42f	-0.0068555097
87	0x3d1d8565	0.038457293
88	0x3b466534	0.0030272724
89	0xbd475c42	-0.04867197
90	0x3e6fd9cb	0.23422925
91	0x3e62af4f	0.22137187
92	0x3e387062	0.1801162
93	0x3dce0e06	0.100612685
94	0x3dc995bd	0.098430134
95	0x3da0127e	0.07816027
96	0xbd28848f	-0.041142043
97	0xbd017e4c	-0.031614587
98	0x3bec4b21	0.0072111045
99	0x3d9b3ded	0.07580171
100	0x3d060285	0.032717247
101	0xbdaf2662	-0.08552243
102	0xbe4d45e8	-0.20046198
103	0xbe220928	-0.15823805
104	0xbdb79498	-0.08963889
105	0xbda57589	-0.08079059
106	0xbd833f2e	-0.06408535
107	0xbe865782	-0.26238638
108	0xbd4ff753	-0.050772976
109	0xbdf04182	-0.117312446
110	0xbd1ecaac	-0.0387675
111	0xbd3c114e	-0.04591494
112	0xbc397eaa	-0.011321703
113	0xbd161150	-0.036637604
114	0x3cfa2995	0.030537406
115	0xbdb34e4e	-0.0875517
116	0xbdd11e70	-0.102108836
117	0x3dc15e1d	0.09441779
118	0x3d0cd141	0.034379248
119	0x3d9147d5	0.07093779
120	0x3d24cf19	0.040236566
121	0xbe7b473c	-0.24538893
122	0xbe8aeaba	-0.27132207
123	0xbc37a4eb	-0.011208753
124	0x3d07e5c5	0.03317811
125	0xbe2b8f74	-0.16753942
126	0xbdd46846	-0.10371451
127	0x3d265233	0.040605735
128	0x3e04aa6c	0.12955636
129	0xbd895e25	-0.0670741
130	0x3dc17ef8	0.094480455
131	0x3d5c7ec4	0.05383183
132	0xbbdd21b1	-0.006748401
133	0x3e364ef7	0.1780356
134	0x3d756f2a	0.059920467
135	0x3ce2a222	0.027665202
136	0x3d3f8aec	0.046763346
137	0x3d0c946d	0.034321237
138	0xbd472ee0	-0.048628688
139	0xbcab8739	-0.020938503
140	0x3cffc1da	0.031220365
141	0x3e2e2232	0.17005232
142	0x3ca025f9	0.019549357
143	0x3e1e1d29	0.15440811
144	0x3f58cc47	0.846867
145	0x3fc40531	1.5314084
146	0x3db0535c	0.086096495
147	0xc01a057e	-2.4065852
148	0x3ec1e5b6	0.37870568
149	0x3eadb943	0.33930406
150	0x3f3f429a	0.74711
151	0x3e1dce31	0.15410687
152	0x3ed7d14e	0.42151874
153	0x3e8e9c65	0.27853695
154	0x3da3ce08	0.07998282
155	0x3d537429	0.05162445
156	0x3c0adaf1	0.008475051
157	0x3dd8d7bb	0.10588022
158	0x3d492644	0.04910876
159	0xbe6ddabe	-0.23227975
160	0x3cb7f5e7	0.022456123
161	0x3df684a3	0.12037017
162	0xbfaba9b6	-1.3411167
163	0xbf93bdc4	-1.1542287
164	0x3e39c11d	0.18140073
165	0xbfdbe9ff	-1.7180785
166	0xbf331a15	-0.69961673
167	0x3f8ec61e	1.115421
168	0xbb55fd50	-0.0032652207
169	0xbb82c386	-0.0039905934
170	0xbf2170b2	-0.63062584
171	0xbf97fef5	-1.1874682
172	0xbe160bf0	-0.14652991
173	0xbf97af4e	-1.1850374
174	0xbf9597b5	-1.1686922
175	0xbfed50e0	-1.8540306
176	0xbe912bec	-0.28353822
177	0xbf662fe7	-0.89916843
178	0xbe9ff242	-0.31239516
179	0x3dcfa248	0.101383746
180	0x3d041e74	0.032255605
181	0x3e1ba5dd	0.1519999
182	0x3e970c36	0.29501504
183	0xbccb5b4f	-0.024823813
184	0x3dcf58a5	0.101243295
185	0x3db97846	0.090561435
186	0x3f96672c	1.1750236
187	0x3c421995	0.01184692
188	0x3e99ca16	0.30036992
189	0x3f4130f6	0.75465333
190	0x3d3d14f8	0.046162575
191	0x3e83cd9e	0.2574281
192	0x3ec4cfca	0.3843978
193	0xbeb8f38c	-0.36123312
194	0xbd75fa4e	-0.060053162
195	0x3f2b82f2	0.6699668
196	0x3f831127	1.023961
197	0x3f2743c1	0.6533776
198	0xbf30368d	-0.6883324
199	0xbf5c756d	-0.8611668
200	0x3f84d62f	1.0377864
201	0xbf17eb3f	-0.5934333
202	0xbfa3dc9e	-1.2801702
203	0x3f5295f6	0.8226007
204	0x3fb63bb7	1.4236974
205	0x3fb7c9f6	1.4358509
206	0x3e539241	0.2066126
207	0x3f1810cd	0.59400636
208	0x3ecc3527	0.39884302
209	0xbe05630b	-0.13026063
210	0x3f765b0c	0.96232677
211	0x3e0894a6	0.13337955
212	0x3def3822	0.11680628
213	0xbf1943f7	-0.5986933
214	0x3db0e915	0.08638207
215	0xbb63f4dd	-0.00347834
216	0x3cc61b26	0.024182867
217	0x3c8f0b42	0.017461423
218	0x3a93b144	0.0011268039
219	0x3b8e9f48	0.004352484
220	0x3ac107f4	0.0014727102
221	0x3c1fe88a	0.0097600315
222	0x3bae85ed	0.005326024
223	0xbb17f5dd	-0.0023187317
224	0x3b6f35e5	0.003650063
225	0x3c2c0cca	0.010501096
226	0x3c07713a	0.008266741
227	0xbb9dae82	-0.0048120627
228	0xba16ff0a	-0.00057600497
229	0x3b17722d	0.0023108826
230	0x3a44a239	0.00075009797
231	0xbad8d289	-0.0016542237
232	0x39c23df5	0.00037048725
233	0x3b4ac2ac	0.0030938787
234	0x3cac9700	0.021068096
235	0xbd377b01	-0.04479504
236	0xbbeea4cf	-0.0072828303
237	0xbcd6fe46	-0.026244294
238	0x3cc87f11	0.024474652
239	0xbc3862de	-0.0112540405
240	0xbd10e289	-0.03537229
241	0xba1e26b0	-0.00060329866
242	0xbc606d1f	-0.0136978915
243	0x3b2ed7fb	0.0026679027
244	0xbbee3ace	-0.0072701937
245	0xbc8e2123	-0.017349785
246	0xbc62f8d6	-0.013853272
247	0xbcf306b5	-0.029666284
248	0xbcc7adfe	-0.024374958
249	0xbc292d50	-0.010325745
250	0xbbbe6abf	-0.005811065
251	0x3b451a7e	0.0030075605
252	0x3adde33c	0.0016928683
253	0xbbbfe007	-0.0058555636
254	0x3935f70e	0.0001735354
255	0xbc88f680	-0.016719103

cell_list.2.conv.bias f4 [32]
0	0xbeb14f0e	-0.34630626
1	0x3eca6f7b	0.39538178
2	0xbec3b2b8	-0.3822229
3	0xbe8d5edf	-0.27611443
4	0xbec1488b	-0.37750658
5	0xbe98c6fc	-0.29839313
6	0xbec3a8cf	-0.38214728
7	0xbf1861fc	-0.5952451
8	0xbf2a2801	-0.6646729
9	0xc02c43d9	-2.691641
10	0xbf893e64	-1.0722165
11	0xbf210f71	-0.62914187
12	0xbf62846c	-0.8848331
13	0xbf4811ca	-0.78152144
14	0xbf8581fa	-1.0430291
15	0xbf77e58b	-0.9683463
16	0xbf8d1269	-1.1021243
17	0x3f6ed760	0.93297386
18	0xbf2669cf	-0.650052
19	0xbf765bbb	-0.9623372
20	0xbf8531c0	-1.0405807
21	0xbf277c8e	-0.6542443
22	0xbf6edfe1	-0.9331036
23	0xbf5e2802	-0.867798
24	0xbd99da24	-0.0751231
25	0x3de73a28	0.11290389
26	0x3d1875ab	0.037221592
27	0x3cda1ded	0.026625598
28	0x3d584410	0.052799284
29	0x3afe62db	0.0019408123
30	0xbe4c6542	-0.19960502
31	0x3c908574	0.01764176

batchnorm_list1.0.weight f4 [8]
0	0x3f535737	0.82554954
1	0x3f4366e6	0.76328886
2	0x3f606dc0	0.87667465
3	0x3f53220f	0.82473844
4	0x3f3bd38d	0.73369676
5	0x3f4fd414	0.8118298
6	0x3f493592	0.78597367
7	0x3f34a519	0.7056442

batchnorm_list1.0.bias f4 [8]
0	0xbe14c8a0	-0.14529657
1	0xbd2fe2a5	-0.042940754
2	0x3dcb3cf6	0.09923737
3	0x3e048cf1	0.1294439
4	0x3e421c72	0.18956164
5	0xbdd132ea	-0.10214789
6	0xbcf1361f	-0.029444752
7	0x3d52426b	0.051332872

batchnorm_list1.0.running_mean f4 [8]
0	0xbe153b6d	-0.1457345
1	0x3bc1d5c5	0.005915376
2	0xbcf2253a	-0.029558767
3	0x3b3f5565	0.0029195186
4	0x3bf69fd2	0.0075263763
5	0xbbdeffbc	-0.0068053883
6	0xbd402ee8	-0.046919733
7	0x3b8175d2	0.003950813

batchnorm_list1.0.running_var f4 [8]
0	0x3db94944	0.090471774
1	0x3b6bbd3e	0.0035970951
2	0x3d434b4c	0.04767923
3	0x3cb86b8d	0.022512222
4	0x3d188ef6	0.037245713
5	0x3cb2f4d1	0.021845253
6	0x3d956a3e	0.07295655
7	0x3ca1a1cc	0.019730471

batchnorm_list1.1.weight f4 [8]
0	0x3f75d09b	0.9602143
1	0x3f4acbc9	0.792172
2	0x3f5f76a4	0.87290406
3	0x3f64929e	0.8928622
4	0x3f60eace	0.87858284
5	0x3f593cdb	0.84858483
6	0x3f61d755	0.88219196
7	0x3f6ef9b1	0.9334975

batchnorm_list1.1.bias f4 [8]
0	0xbd8a7927	-0.06761389
1	0x3d840c63	0.06447675
2	0xbce94649	-0.028475897
3	0x3da4ef50	0.08053458
4	0xbd3d91f0	-0.046281755
5	0xbd95a5ac	-0.0730699
6	0x3d448167	0.04797497
7	0xbca47654	-0.020075954

batchnorm_list1.1.running_mean f4 [8]
0	0xbb7bb039	-0.0038404597
1	0x3be77b79	0.0070642796
2	0xbce20fda	-0.02759545
3	0x3d123dfe	0.03570365
4	0xbd277f7e	-0.04089307
5	0xbd58aa3d	-0.052896727
6	0x3d37455b	0.044743877
7	0x3bb12f89	0.005407278

batchnorm_list1.1.running_var f4 [8]
0	0x3ce5fdb5	0.028075079
1	0x3cebf064	0.02880115
2	0x3d650a58	0.055918068
3	0x3d0bdc2a	0.03414551
4	0x3cc2824b	0.02374377
5	0x3cd31cb1	0.025770517
6	0x3d5f9a92	0.05459077
7	0x3d4b1087	0.04957631

batchnorm_list1.2.weight f4 [8]
0	0x3f68ddeb	0.9096362
1	0x3f648757	0.8926901
2	0x3f85b10b	1.0444654
3	0x3f7f4cfc	0.99726844
4	0x3f736db0	0.95089245
5	0x3f7efe8c	0.9960716
6	0x3f72822d	0.9472988
7	0x3f7f88a4	0.9981787

batchnorm_list1.2.bias f4 [8]
0	0xba9a52b6	-0.0011773917
1	0x3aacc845	0.0013182244
2	0xbb2fc51a	-0.0026820363
3	0x3ab9fc73	0.0014189616
4	0x3a05fd48	0.0005111289
5	0x39b763ff	0.00034978983
6	0xbb21b821	-0.00246764
7	0x3ac9ae01	0.001538694

batchnorm_list1.2.running_mean f4 [8]
0	0xbb6e5aac	-0.0036369963
1	0x3c1aa067	0.009437657
2	0x3b3d3d7b	0.0028875757
3	0xbbc5faca	-0.0060418593
4	0x3c4eca9a	0.012621546
5	0x3b0209fc	0.0019842377
6	0xbc721c20	-0.014777213
7	0xbb7e7478	-0.0038826745

batchnorm_list1.2.running_var f4 [8]
0	0x3bed07de	0.007233604
1	0x3d69d840	0.057090998
2	0x3bad00e6	0.005279648
3	0x3becf31a	0.0072311284
4	0x3bff6f2b	0.0077952347
5	0x3cc421f5	0.023941973
6	0x3acabd1f	0.001546774
7	0x3c127aee	0.0089404415

batchnorm_list2.0.weight f4 [8]
0	0x3eed5e74	0.46361125
1	0x3dc0f5a8	0.09421855
2	0x3e2e2bd2	0.17008904
3	0x3dae7446	0.08518271
4	0x3e2f968c	0.17147273
5	0x3de47c63	0.111565374
6	0x3eb8dfef	0.36108348
7	0x3e0432b8	0.12909973

batchnorm_list2.0.bias f4 [8]
0	0x3d3ef808	0.04662326
1	0xbd6e7989	-0.058221374
2	0xbaf282d3	-0.0018502123
3	0xbc93f3cf	-0.018060593
4	0x3bc99f28	0.006153006
5	0xbc562b03	-0.013071778
6	0xbb5a907b	-0.0033350277
7	0xbcef25e8	-0.02919288

batchnorm_list2.0.running_mean f4 [8]
0	0xbe258055	-0.16162236
1	0x3ce523f8	0.027971253
2	0xbc8adf78	-0.016952261
3	0xbd84cd02	-0.06484415
4	0xbd9f39fc	-0.077747315
5	0x3d205f85	0.039153595
6	0xbd7b17c9	-0.06130198
7	0x3ad8fae4	0.0016554263

batchnorm_list2.0.running_var f4 [8]
0	0x3eeafd4d	0.45896378
1	0x3d0fb7a1	0.03508723
2	0x3e42704d	0.18988152
3	0x3e01de93	0.12682562
4	0x3e2ca2cc	0.16858977
5	0x3d99aba8	0.07503444
6	0x3e8e6557	0.2781169
7	0x3dc08ccd	0.094018556

batchnorm_list2.1.weight f4 [8]
0	0x3e7b862c	0.24562901
1	0x3e6e1c96	0.23253092
2	0x3e366d6f	0.17815183
3	0x3efe7883	0.49701318
4	0x3e3cb76e	0.18429348
5	0x3e58f2f1	0.21186425
6	0x3e26ad92	0.1627715
7	0x3e753b75	0.23948462

batchnorm_list2.1.bias f4 [8]
0	0xbcac5338	-0.021035776
1	0x3d3fbc88	0.046810657
2	0xbc77bbf1	-0.015120492
3	0x3b491710	0.0030683912
4	0xbbf70746	-0.007538709
5	0x3c81e211	0.015854867
6	0xbabe2d98	-0.0014509438
7	0x3c24ce74	0.010058988

batchnorm_list2.1.running_mean f4 [8]
0	0xbcbb8cf3	-0.022894358
1	0x3d4b9ab4	0.049708083
2	0xbbd3a71a	-0.006459129
3	0x3d153928	0.03643146
4	0xbdef9748	-0.116987765
5	0xbcdd5e6f	-0.027022569
6	0x3c858c8f	0.016302375
7	0x3d70f991	0.058831755

batchnorm_list2.1.running_var f4 [8]
0	0x3dbf27f4	0.09333792
1	0x3dfe6e6f	0.12423407
2	0x3e1b2f8a	0.15154853
3	0x3e9179f8	0.28413367
4	0x3ddb5d33	0.10711136
5	0x3e3402b3	0.17579155
6	0x3dffd5b6	0.12491934
7	0x3e270703	0.16311269

batchnorm_list2.2.weight f4 [8]
0	0x3f28ab19	0.65886074
1	0x3ea74289	0.3266795
2	0x3e42511c	0.18976253
3	0x3f472dab	0.7780406
4	0x3ee21370	0.44155455
5	0x3f9b5adf	1.2137107
6	0x3daa8189	0.08325488
7	0x3f40c9a9	0.7530771

batchnorm_list2.2.bias f4 [8]
0	0x39f94437	0.00047543805
1	0x3d982bc9	0.07430226
2	0x39e36ccd	0.00043377877
3	0xba052e2c	-0.00050804275
4	0xba7d5741	-0.0009664186
5	0x39a871f7	0.00032128367
6	0xbab8786e	-0.0014073977
7	0xba7f6e9b	-0.00097439595

batchnorm_list2.2.running_mean f4 [8]
0	0x3d8e72c3	0.06955483
1	0xbbd0a37c	-0.006367145
2	0xbc8ce110	-0.017197162
3	0xbddb5c49	-0.10710961
4	0x3df691f9	0.12039561
5	0xbe08d031	-0.13360669
6	0xbd25341b	-0.040332895
7	0x3bc383f1	0.0059666564

batchnorm_list2.2.running_var f4 [8]
0	0x3f36fb56	0.7147726
1	0x3e58fda3	0.21190505
2	0x3d9c4d5c	0.07631943
3	0x3f6e96c4	0.931988
4	0x3eaab410	0.33340502
5	0x4023b49d	2.5578988
6	0x3d117235	0.035509307
7	0x3f5bc865	0.8585265
