models/convlstm/saved_models/lr_0.0001/epoch_2800.pt (torch, 167458 bytes, 10 tensors)

encoder_1_convlstm.conv.weight f4 [48, 20, 3, 3]
00000000: a97e 30bd 4d38 a1bd a405 953d f276 793c
00000010: f86e 903d 6acd 053d 4130 d73d f0c1 a23d
00000020: 5317 bf3d 5b4e 53bd f4e2 45be 94b1 38be
00000030: 0e0c dbbc 2046 64bb cb97 c4bc dc46 ce3d
00000040: f3dc 26bd 2cc0 f73c 5a80 623c 641a fa3d
00000050: 5631 6e3e 0b2a 543e b699 4f3e a5ea c93c
00000060: c252 033c cee4 8b3d 766d 643d f2f2 953b
00000070: 039a 753d 3bb9 9f3d 05f4 283b a1aa a9bd
00000080: 18b6 023d 5c93 4fbc 82a2 303d 90ec ecbc
00000090: 46de 34be 0d0a 38bd 6e93 193c 9bf4 50bd
000000a0: 2c14 8ebd 3a5e c0bd eac9 96bd 3050 e3bd
000000b0: 5f1c 2fbe 78fa adbd 4408 2e3e 0926 1c3e
000000c0: 5829 9b3d 3971 ff3c 6b86 ef3c c050 893c
000000d0: 8c7d 9a3d 52b1 ce3d 0614 17bd f1c2 3dbd
000000e0: 9c70 7cbe 84eb 893c 4faf 1bbd 0b5b e5bd
000000f0: 7630 083e 8dd0 c0bd 79f3 78bd c9e2 63bd
00000100: 5dd7 f9bd 438e 51bd d722 b2bd 9bdf 30bb
00000110: 1d8c 89ba dbe4 e5bc a53f babd daf9 0cbe
00000120: 8e94 823c db92 7cbc bced 42bd d389 09bd
00000130: 1e9c 22bd dfb1 7abb 53e1 acbd 6d7d 04be
00000140: e38d 24be b104 f23d ca12 ef3d 7c79 183e
00000150: b7b8 0d3e 0b28 4a3e eef2 c73d 9782 1a3e
00000160: db01 053e f1dd 3e3d 2a76 d8bd cbc7 a7bc
00000170: 4718 543d f2ca d2bd 4148 4bbc c050 34bc
00000180: 7cc3 243d 8f31 dcbd 921b f8bd 2ba2 183e
00000190: 3a45 cdbc 6226 543c 273f 433e 3b6c 233e
000001a0: 99c1 d13d 9869 b7bc c74d b53d 0c95 5b3d
000001b0: 8495 bebd c39b b0bd 8c79 773c 29b9 a2bb
000001c0: 42d0 91bc 05d3 9bbc 1776 bfb9 4b00 62bc
000001d0: b34a cbbc c917 163e 82d9 a037 ad0b f53d
000001e0: 5d07 ba3c 4d7d 5f3d 9e18 423d 2b79 ba3d
000001f0: 1ada 5f3d 4c40 333e 88e3 67bd 3f16 87bc
00000200: 9e22 923c d0b7 333d 2048 4c3d 170f b03d
00000210: 1fd0 70bc 7f56 16bc 0508 eb3d 1a9f 433d
00000220: 579d 9b3d 71f5 f93d 65d7 843d cb71 29bd
00000230: 7a23 8bbb 40ea 043e e38f d23d 7b74 203e
00000240: 5096 3ebe 7121 b2bd b125 30bd f4ac 53be
00000250: 3355 2fbe 1bf3 6abd f8a2 f4bd 8cad 38be
00000260: acfc 563e c699 59be f54f dcbd a4a3 f63d
00000270: a951 fabd b3b3 abbd d606 93bd e704 9dbc
00000280: fa63 a6bc d63b 69bc b362 9c3e 3872 273e
00000290: 0f6f 063e 87d0 253e fd53 3f3e 5036 b13c
000002a0: c265 693e d6b2 313e 60e9 223d f995 593e
000002b0: 0c5d 213d 0ad3 ed3d 8a00 093d b133 29bb
000002c0: 2c57 89bd 285d 913e aec8 0c3e 3167 153c
000002d0: 3d8c af3d 150b 6b3d 8e1d ee3d 73e8 063d
000002e0: 7e89 a53d dc79 bb3d 8b5c 0ebd f6b6 d83d
000002f0: 451e 183d 4f87 42bd 0e48 813d 3da0 99bc
00000300: e15b 32bc 1428 343e acd8 38bc 2010 de3c
00000310: 88f7 6a3d 449d 6e3e 846f 27be 42af f0bd
00000320: 3597 40bd 98c2 23be 0a99 98bd 9184 d0bb
00000330: 34d5 9bbb ce25 ff3d 7c58 02be 6dde a63c
00000340: b530 97bd 3055 a1bd cc68 acbc 34ed 193d
00000350: 18fe e13a b21e 13bd 1294 403d 3e84 05bd
00000360: 03e8 413d 2da9 2f3e 0ef5 ba3d 33ce f6bd
00000370: ef30 bebd 69b3 21bd da2a cabc 1a7a 303d
00000380: 7436 99bd a1ba a7b9 461d f2bd ed9b eebd
00000390: d79d 31be 3011 bcbd 80f9 923d 1b37 b73c
000003a0: 386a d23c d352 653d b716 9c3d 2e6a 443e
000003b0: b79b 9d3c f177 253e 9cc2 273e 2ceb e43d
000003c0: 9b53 a73d 9e2a b8bd 56ab e43d 8182 933d
000003d0: 8dbc 283c 4cb3 cf3d bef5 c1bd b3e2 043d
000003e0: 1eb6 33bd 0344 80be 94db 1fbe 0fdd e7bd
000003f0: 5824 aabd bec0 46bc 2562 01be c037 4ebd
-0.043089543 -0.07872067 0.072764665 0.015226113 0.070524156 0.0326666 0.105072506 0.07947147
0.093306206 -0.051588397 -0.19324857 -0.1803649 -0.026739147 -0.0034831837 -0.023998162 0.10072109
-0.040738057 0.030243002 0.013824547 0.12212065 0.23261008 0.20719163 0.2027348 0.02464802
0.0080153365 0.068307504 0.055768453 0.0045760805 0.05996133 0.07799002 0.0025780213 -0.08284498
0.03191194 -0.012669411 0.04312373 -0.028921396 -0.17662916 -0.04493146 0.009373529 -0.051014524
-0.06937441 -0.09392972 -0.07362731 -0.11099279 -0.17100666 -0.08495039 0.1699534 0.15248884
0.07576245 0.031181918 0.0292389 0.016762137 0.075434774 0.10092415 -0.03688433 -0.04632849
-0.24652332 0.016835935 -0.038008984 -0.11199006 0.13299736 -0.09414778 -0.06077907 -0.0556362
-0.121992804 -0.051161062 -0.086980514 -0.0026988748 -0.0010494028 -0.028063228 -0.090941705 -0.13767186
0.015939977 -0.015415872 -0.047590002 -0.033578705 -0.039699666 -0.0038252992 -0.08441415 -0.12938471
-0.1606975 0.11817301 0.116735056 0.14890093 0.13839994 0.19741838 0.09763132 0.15088879
0.12988989 0.04659838 -0.10569413 -0.02048101 0.051780965 -0.10292615 -0.012407363 -0.01100558
0.04022549 -0.1075164 -0.121146336 0.14905612 -0.025057424 0.012948604 0.1906706 0.15959255
0.10242004 -0.022389218 0.088527255 0.05360894 -0.093058616 -0.08623459 0.015104663 -0.0049659205
-0.0177995 -0.01902152 -0.00036518343 -0.013794015 -0.024815893 0.14657511 1.9174771e-05 0.119651176
0.02270859 0.054562856 0.047386758 0.09105142 0.054651357 0.17504996 -0.056613475 -0.0164901
0.017838772 0.04387647 0.04987347 0.08596628 -0.014698057 -0.009175896 0.11476139 0.047759153
0.075983696 0.12205017 0.06486396 -0.041368287 -0.0042461725 0.12979984 0.102813505 0.15669434
-0.18612027 -0.08697785 -0.043004695 -0.20671445 -0.17122345 -0.05736075 -0.11945146 -0.18034953
0.20994824 -0.21250066 -0.10757438 0.12042931 -0.12222607 -0.08383884 -0.07179038 -0.019167377
-0.020311344 -0.014235457 0.30544052 0.16352165 0.13128303 0.16192828 0.18684383 0.021632344
0.22792724 0.17353377 0.039773345 0.21248616 0.039395377 0.11612518 0.03344778 -0.0025818164
-0.0670608 0.28391385 0.13748428 0.009118841 0.0857167 0.057383616 0.11626731 0.032936525
0.08082865 0.09154102 -0.034756225 0.10581772 0.037138242 -0.04749232 0.063125715 -0.018753165
-0.010886163 0.17593414 -0.011282127 0.027107298 0.05736497 0.2330218 -0.16351134 -0.11752178
-0.047019202 -0.159922 -0.07451065 -0.0063634594 -0.0047556404 0.124583825 -0.12729067 0.020369733
-0.07382337 -0.07877576 -0.021046065 0.03757973 0.0017241864 -0.035917945 0.04701621 -0.03259682
0.047340404 0.17154379 0.09128772 -0.12051048 -0.09286677 -0.03947774 -0.024678636 0.043085195
-0.07481089 -0.00031991772 -0.1182199 -0.11650834 -0.17345367 -0.09182966 0.071764946 0.022365144
0.025685415 0.05598719 0.0762152 0.1918113 0.01923929 0.16159035 0.16382831 0.11177668
0.08170243 -0.089925036 0.11165492 0.07202626 0.01029886 0.1014162 -0.094707 0.03244276
-0.043874852 -0.2505189 -0.15611106 -0.113214605 -0.08307713 -0.012130914 -0.12635095 -0.050346136

encoder_1_convlstm.conv.bias f4 [48]
00000000: e54e ac3d a15d 1c3d 4680 a73d c424 61bd
00000010: 421c 173c 3dc4 483d 9ebc 143e bffd d83d
00000020: 9521 ba3d 2e0c 353d 5bb9 053e d33a c73d
00000030: 26c8 db3d 6fc7 c33d 534f c33d ab3f 043c
00000040: 9bcf a8bc 005d aabc 9006 9e3d ee0f 003e
00000050: 1ba0 803d 9596 c53d 2d9e 603d 275f 0e3e
00000060: cd3f c03a 72c0 b43c ca24 613d ccb7 2e3e
00000070: 1a80 a63d 8f57 463c 08c7 da3d bfbe 8fbb
00000080: 4f20 5a3d 17a7 db3d c7ea 1d3e 0e6a 083e
00000090: dcb2 98bc 42a2 c63d 9207 cbbd 1423 4d3d
000000a0: 5181 4b3b 97e1 fc3c 2626 adbb 0521 9b3d
000000b0: 2846 9ebc f922 13bd 1c93 a03d 3780 bc3d
0.084134854 0.03817523 0.08178763 -0.054966703 0.009223046 0.049015272 0.14525077 0.10595273
0.090884365 0.04420107 0.13058989 0.09728017 0.10731535 0.09559523 0.09536614 0.00807182
-0.020606807 -0.020796299 0.077160954 0.12506077 0.06280538 0.09647862 0.05483835 0.13903485
0.0014667452 0.022064421 0.054966725 0.170623 0.08129902 0.0121058365 0.106824934 -0.0043867524
0.053253468 0.10725229 0.15421592 0.13321707 -0.018639974 0.09698917 -0.09913553 0.05008228
0.003105242 0.030869288 -0.0052840887 0.07574657 -0.019320562 -0.035922024 0.07840559 0.092041425

encoder_2_convlstm.conv.weight f4 [48, 24, 3, 3]
00000000: 5370 a6bd 338b 3e3c af25 343d e03f e93d
00000010: 4392 4e3d 081c 173c 9558 913d da47 833d
00000020: dad6 443c 866d 8d3d 9ffc 5a3d 79b1 90bc
00000030: 51e7 d7bd f8cf 31be 4494 bdbd 8551 763d
00000040: 3c20 7c3d ce50 453e d575 01be 9303 ecbd
00000050: 3091 c4bd 0e5b 5c3c 7dbb 2abd 3dad bbbc
00000060: 8f6d 103d a277 e3bc c02d 643c d303 07bd
00000070: 21eb 043d f0b5 c93d ea19 bfbc 86eb 7c3c
00000080: 2f13 433d c90c 1b3b f3af ac3d f3bb da3d
00000090: 6435 32be b595 97be e885 42bd 7a44 e2bd
000000a0: 7c3c 03be 8369 7e3b f387 83bd 5d3a 7f3d
000000b0: cb2c 1a3c c323 7abd 66f0 15be 3c8d 50be
000000c0: 4feb 25be ed73 4fbe 3332 48be 9dc3 2dbd
000000d0: c164 dabd 07a1 5fbe 5a9c 30be 5a1b c3bd
000000e0: e4b1 f9bd 6479 94bc 07ec afbc b7e3 b9bd
000000f0: 38bd d63d ea46 4cbd b0ee 193d 7088 563e
00000100: d99c cd3c 4f97 50bd bae6 583d cf07 553d
00000110: acce a13d 11cb 603d f1ae 073d 1d77 a5bd
00000120: a655 07be dc33 f7bc 711c 453d 9b5c 5abd
00000130: 9b2b f6bd 0988 c0bd ac69 5d3d 4e0b 133d
00000140: 3261 1ebd 5ad4 66bd 101d b23d 7388 ff3d
00000150: edc3 10bd cc11 a13c 0e55 b7bc 9a20 ea3d
00000160: 592e 49bc e464 89bd 783e f33d fdae f03d
00000170: 358a 063e f601 6b3b 53c0 73bd 7071 b03d
00000180: d932 fabd 5ec4 2ebd 8ec6 013d 27b1 a33d
00000190: f7ba 583e a643 823e 1925 233e 8ad1 ce3d
000001a0: d02b 793e 487d 1e3e 2f45 b73d 6bfa 683e
000001b0: 4756 013e 59a5 663e 5554 663e 3cc8 f23d
000001c0: 8e67 6b3e 4c08 563e 21dc 34bd 3893 1b3e
000001d0: f8a1 f7bd 7471 b1be 21ea 0bbe 2af5 04be
000001e0: 63c0 8cbe 18ad 0dbe 677b 11bd 3586 c0bc
000001f0: 969d 33bd 600c 6abe 3160 09be ffa8 843d
00000200: 11b4 9bbd 258d ebbb 9956 133d e8e1 62be
00000210: 8b7e 283e e0ed 223e 1a18 5eba dc7b 14be
00000220: b540 3dbe 853f adbd 2b8e 2b3a 478a 9d3d
00000230: 81e1 ea3d 49d6 6b3d 12e7 ad3d 7347 103e
00000240: 6154 26be 6321 53bd 4acb 3bbd a11d d7bb
00000250: 2370 56bc 9f95 af3a 275e fc3c c230 273e
00000260: 9d6d d73d 4836 58be 2d83 6a3d a3ef bcbd
00000270: 9f54 313e dcca a73d 8a72 cf3c 56b4 3bbe
00000280: 0242 8abe 93a0 aebe d6c8 74bd c0d1 bfbc
00000290: 39c3 a13d f0d1 65bd 8a09 233c c290 4f3d
000002a0: 50ec 5f3e 2cae d23d 28ef a9bc 2027 4ebc
000002b0: cd3c a33d 2476 8e3e 7a48 dcbd 0363 103e
000002c0: e632 e93d d6bf e43d b31c 0c3e fe18 c13d
000002d0: 5135 ae3d 872d c33d 3de6 9b3e ae14 673d
000002e0: ce01 fcbb 34ec 2b3e ba09 703d 43a9 273e
000002f0: ba1a be3d ad60 0e3e 04ee b3bc a0d7 5abe
00000300: a6a5 113e d358 08bd 4493 873c afd9 71be
00000310: 2c01 b3be 7d8d 58be fd3f 623e 4826 7d3e
00000320: d147 0b3e fc95 163e f434 c63d 5630 9a3d
00000330: c163 b43d db4c e03c bf3e 4bbd aa7c 813d
00000340: 7381 0f3e 7ba8 7b3d 93ff 903d d741 3d3d
00000350: a2b7 32bc a596 7cbd 23ea 26be 00e9 3cbd
00000360: f1a4 87b9 f48d 503c 170d 91bb 32af 023e
00000370: 9db6 813b a347 183d 9734 8c3d bda4 b63d
00000380: c68b 10bb 68ea c2bc f88e 423a b4ae bebd
00000390: ba26 00be 4b44 f8bd f07a 1abe 3abf c7bd
000003a0: 1f1a 00be e1d0 51bd a9a8 93bc 36c7 db3b
000003b0: c807 3cbd 401c 9c3d a1c3 933c a5ce 15b9
000003c0: 89c1 8e3d f152 90bd ae9a 0abe 2dcf 033e
000003d0: 5bc8 583e 88f0 643e 7e0b a83e 5b26 0d3e
000003e0: 0e53 0a3e e43c 4b3d f961 153e fb93 433e
000003f0: 83d7 203d 67c7 23bd ca01 9fbb 346c 853d
-0.08126893 0.011629867 0.04398125 0.11389136 0.050432455 0.009222992 0.07096974 0.06410189
0.012014115 0.069056556 0.053463574 -0.01766275 -0.10542167 -0.1736449 -0.09256795 0.060136337
0.06155418 0.19269106 -0.12642606 -0.11524119 -0.09598005 0.0134494435 -0.04168271 -0.022909755
0.035260733 -0.027767006 0.013926923 -0.03296263 0.0324508 0.09849155 -0.023327786 0.015437013
0.047625717 0.0023658744 0.08431997 0.1068038 -0.1740318 -0.29606405 -0.047490984 -0.11048217
-0.12816042 0.0038820214 -0.06422415 0.06231152 0.009410094 -0.06106926 -0.14642486 -0.20366377
-0.16203044 -0.20259066 -0.195504 -0.04242288 -0.106637485 -0.21838771 -0.17247143 -0.09526701
-0.12192133 -0.01812429 -0.021474851 -0.09076636 0.10485309 -0.049872316 0.037581146 0.20950484
0.025099205 -0.05092555 0.052954413 0.0520094 0.07900748 0.05488116 0.03312582 -0.0807936
-0.13216266 -0.030176096 0.048122827 -0.05331097 -0.12020036 -0.09400947 0.054055855 0.035899453
-0.03866691 -0.056354858 0.086969495 0.124771975 -0.0353431 0.019661807 -0.022379424 0.114319995
-0.012279117 -0.067086965 0.11877149 0.11752126 0.1313866 0.0035859323 -0.059509587 0.086153865
-0.1221673 -0.04266774 0.031683497 0.079927735 0.21165071 0.25442237 0.1593212 0.1009856
0.2433312 0.15477479 0.089487426 0.22751777 0.12630568 0.22524013 0.22493108 0.11854598
0.22988722 0.20901603 -0.044155244 0.15192878 -0.1209144 -0.3465687 -0.13663532 -0.12984148
-0.2749053 -0.13835561 -0.035518076 -0.023501495 -0.043851458 -0.22856283 -0.134156 0.06477546
-0.07602704 -0.0071884566 0.035971258 -0.22156489 0.16454522 0.15911055 -0.00084722193 -0.14500374
-0.18481715 -0.08459381 0.0006544317 0.0769239 0.11468793 0.057577405 0.08491339 0.14089756
-0.16243125 -0.051545512 -0.04584817 -0.0065648113 -0.013088259 0.0013396031 0.030806614 0.16327193
0.10518954 -0.21114457 0.057254005 -0.092253946 0.17317437 0.08192989 0.025323171 -0.18330511
-0.27003485 -0.34106883 -0.059761845 -0.023415446 0.07898564 -0.056108415 0.009951005 0.05067516
0.2186749 0.10287127 -0.020743921 -0.01258257 0.07970581 0.2782451 -0.10756011 0.1410027
0.11386661 0.11169402 0.13682823 0.09428595 0.08506263 0.09530168 0.30449095 0.056416206
-0.007690645 0.16789323 0.058603026 0.16373162 0.092824414 0.13904066 -0.02196408 -0.21371317
0.14223346 -0.033287834 0.016549714 -0.23618196 -0.34961832 -0.21147723 0.22094722 0.24721634
0.13601615 0.14705652 0.09678069 0.075287506 0.08808089 0.027380398 -0.049620386 0.06322606
0.14014225 0.061439972 0.07079997 0.046205368 -0.010908039 -0.061667103 -0.16300254 -0.046120644
-0.00025872097 0.012729157 -0.0044266093 0.12762144 0.003958537 0.037177693 0.06845968 0.0891814
-0.0022055968 -0.023793414 0.00074218167 -0.09310666 -0.12514773 -0.12122401 -0.1508596 -0.097532704
-0.12509964 -0.051224593 -0.01802476 0.0067070974 -0.04590586 0.07622576 0.01803762 -0.00014286728
0.06970508 -0.0704707 -0.13535568 0.12872 0.2117018 0.2235738 0.32821268 0.13784163
0.13508245 0.049618617 0.14588155 0.19099419 0.039268028 -0.039985087 -0.004852508 0.06514779

encoder_2_convlstm.conv.bias f4 [48]
00000000: 033e bf3d ab98 003e adb7 a63d 31a3 c83d
00000010: 9f20 963d 5c30 9a3d 4109 df3d bbd7 9a3d
00000020: dab8 7f3c 5605 7c3d 6e1a 6f3d d8f1 2e3d
00000030: c9d4 463e a295 583d d14f 873d 2449 af3d
00000040: 5624 c43d 6152 a83d 7a2e 6a3d 5421 0e3d
00000050: 8064 d93d cca9 f23d 4acc 8e3d 8eb1 c03d
00000060: ff1a 3b3e 5e0e d23d 8bff a03d 2d91 a93d
00000070: a2fa 0e3e 501f c23d 7e51 733d ba6a 133e
00000080: 0d3a 1b3e 5ee6 a03d a11f 2f3e 6968 d2bc
00000090: 02d2 253e 5104 39bd 4c6c d0ba a58e a93d
000000a0: d044 c5bd 9015 9dbc 23ed 493d c66c ad3d
000000b0: fa7b c23d ba52 37bc 648c a13d aafa 8b3d
0.09338 0.12558238 0.08140502 0.09796751 0.07330441 0.07528755 0.10890437 0.075606786
0.015608037 0.061528526 0.058374815 0.04271111 0.19417109 0.052877076 0.06607021 0.08558872
0.09577243 0.082188375 0.05717323 0.034699753 0.10614872 0.118487924 0.06972559 0.09408866
0.18272017 0.102566466 0.07861241 0.08279643 0.13962796 0.09478629 0.05940389 0.14396182
0.15158863 0.07856439 0.17101909 -0.025684552 0.16193393 -0.045170132 -0.0015901416 0.082791604
-0.096322656 -0.01917532 0.049298417 0.084680125 0.09496303 -0.011189157 0.078881055 0.0683492

decoder_1_convlstm.conv.weight f4 [48, 24, 3, 3]
00000000: 651a 993e 3634 223e f7c8 2abe 6d05 b13c
00000010: 5cf1 b23d c0f6 ba3e 9bd9 a7bc 16d7 e9bc
00000020: 1664 b73d 6c4c 34be 4f8d 73be 73a8 67be
00000030: 1fcc c0be 3be7 b9be c4c4 2ebe d054 543d
00000040: 30a0 18bd 93ca 203e c126 c039 c0ff 40be
00000050: 7393 663e 7d57 58be 0ffa 71be cea8 cc3b
00000060: 14d3 94bd 5409 81be a32f 47be db2a 543d
00000070: 7356 463d 6e23 893d d739 de3d 8b25 ef3d
00000080: 4536 fd3d 87d8 993d 6fb7 173e 5c69 363e
00000090: edd3 a0be 204a 99be 0aee aabe c4e8 df3c
000000a0: 1813 053d 2e2e 1bbe fb05 833d 6aa7 1fbe
000000b0: 9a1c 433d b7d4 b6bc ad1d 6fbd 0d33 19be
000000c0: 2338 63be 8b52 aabe 1efa 51be afbf abbd
000000d0: 5939 bebd 46d1 5bbc b6f1 a63d f3d7 893e
000000e0: cf1d d33d 4213 4c3d 263a 093d 00d6 5b3e
000000f0: 2ad8 703e fc43 223e 296f 653e 3d72 3f3e
00000100: 4664 7bbe f73e 633e ecce 483e 8056 883e
00000110: 3685 2f3e 36f3 5c3d 901f 233c 1621 b0bc
00000120: 72a9 323e a951 2a3e 57b3 9f3e 6d39 e03d
00000130: 9081 8f3e 7aaf 8a3e cac1 f83c e276 483d
00000140: 98db 863e da30 a73d 5e4b 82bd ab21 95bd
00000150: 94c3 64be d9a0 4abe df21 89be 4b60 1cbe
00000160: 228a 21be 705a 20bd 3f21 243e bd93 5b3e
00000170: 707b b43e 0be8 513e 3783 853e cb9b a83e
00000180: 2d5a 833d 4eac 5c3d 78bf 163e dee8 833e
00000190: f889 e13e ad1b ba3e 7406 2e3e 54ac 0e3e
000001a0: e203 4c3e c379 e4bd b56b 113e a807 adbd
000001b0: 0110 a73c 1452 aebd 657d 8bbe 9a1d 9d3d
000001c0: 4537 48be 30c6 a5be 71f0 423e 3f43 7bbd
000001d0: e0d3 e1bd 6472 d5bc cdd9 34bd 7aba 9bbb
000001e0: 2890 bbbc 3f3c cabc cbed bbbc fac5 5dbe
000001f0: a18a e4bd 20aa 2bbc 7df7 b63b 81cf e33d
00000200: bf8e 74bd 2420 733d 5183 8a3d e2d1 babd
00000210: 46f7 103d 5aa7 ba3d 109f fe3d c022 a6be
00000220: b36a 29be 590d 883e ca24 2cbe 7b88 1bbe
00000230: 0664 d3bc 56f3 6abd e7f8 1ebd f28e 49be
00000240: 19e1 843e 7e8c 613e d6a4 543e 0360 313e
00000250: ce79 ee3d f7f4 563c 4c73 6f3e 44a1 7a3e
00000260: d318 0b3e d97b 063e f361 44be 01a2 053e
00000270: d1cf 523e 3623 e73d 33d6 4e3d a0d4 2fbe
00000280: 72d5 edbc 1a5b aabd 139c aa3d 8c82 283e
00000290: 2732 0dbe e56b 163e 94d6 003e 68cc dc3d
000002a0: 393e 98bd 1f0a 23bd 8c8b 25be 9e6a b0be
000002b0: d34a afbe 6905 f8bd 29fc 263e d9b1 d0bc
000002c0: c528 243c 7ff4 853d 7b85 ed3d 3300 99bd
000002d0: 8f34 94bd 788b 30bd 1afc 72bd a8cc 1c3c
000002e0: 1f46 043e 8375 71bd a84c 163e 2d64 b23d
000002f0: f650 92bc 6ee6 443e 5829 fe3d 6049 d0bd
00000300: d4c5 173e 8b0f 543d 1d8b 41bd af1c 0d3e
00000310: 5770 423e 216c d33c d00b 853d da1a 303d
00000320: 2e72 66bc d136 13bd e782 d1bc 49db 44bd
00000330: 5b4b 6a3d 2880 ac3b 4313 b9bd 3756 a8bd
00000340: 23dd 09be 4a9e c33d 9593 3cbe 894b 5abe
00000350: 89ab cebc 75b2 80be 0f67 07be db4d 1fbe
00000360: 290a f33e 3606 fa3d 23d5 973d 5677 f8bd
00000370: ee6e 133e e25c edbd e470 0a3e 93d8 693c
00000380: 4f7f 2e3e dce3 4abf 6bad 0dbf d850 8dbe
00000390: ea37 48bf aa05 3abf f7f1 e9be e5f8 febe
000003a0: 52f1 3ebc 7cdd fa3d 4faf 0c3c 7c19 6abe
000003b0: d63e a4be c313 8a3e 783e 9abe b2bb 93bd
000003c0: 8818 94be e30c 71be 9f6f a5be 8c5f 5c3c
000003d0: 4935 02bd 7db8 c1be e7ea 1ebd ac18 a83e
000003e0: aeaa 0fbd bf85 61be 63de 05bd 0d26 a3bb
000003f0: 08ef a5bd 2540 aabd f674 e53d 56a2 21bc
0.2990295 0.1584023 -0.16678225 0.021609033 0.08737442 0.3651638 -0.020489505 -0.028544944
0.08954637 -0.17607278 -0.23784374 -0.22622852 -0.37655732 -0.36309227 -0.17067248 0.051838696
-0.03726214 0.15702276 0.00036649968 -0.18847561 0.22517185 -0.21127124 -0.23630546 0.006245709
-0.072668225 -0.2520243 -0.19451766 0.051798683 0.04842229 0.06696211 0.10850876 0.11677083
0.12363867 0.075120024 0.14816068 0.17813629 -0.31411687 -0.29939365 -0.33384734 0.027332671
0.032488912 -0.15154335 0.06397625 -0.15591207 0.0476347 -0.022318227 -0.05837791 -0.1496088
-0.22189383 -0.332661 -0.20505568 -0.0838617 -0.09288282 -0.013416594 0.081515715 0.2692257
0.1030842 0.049823053 0.03350272 0.21468353 0.2351996 0.15846246 0.22405685 0.18695922
-0.2454997 0.22191988 0.19610184 0.26628494 0.1714066 0.05394288 0.009956256 -0.021500152
0.17447451 0.16632713 0.31191513 0.10948453 0.28028536 0.27087003 0.030365843 0.0489415
0.26339412 0.081636146 -0.063620314 -0.07281812 -0.22340232 -0.19787921 -0.26783654 -0.15271108
-0.1577535 -0.039148748 0.16028307 0.21443076 0.35250425 0.20498674 0.2607667 0.3293136
0.06413684 0.05387526 0.14721477 0.257636 0.44050574 0.3634924 0.16994649 0.13932925
0.19923356 -0.11156037 0.14201243 -0.08448726 0.020393373 -0.08511749 -0.27244106 0.07671662
-0.19552334 -0.32377768 0.19037034 -0.061343428 -0.1102674 -0.026055522 -0.044153024 -0.0047524543
-0.022895887 -0.02468693 -0.022940537 -0.21657553 -0.11159254 -0.010477573 0.005583702 0.111235626
-0.059706446 0.059356824 0.06763328 -0.09122063 0.03539207 0.09113951 0.124326825 -0.32448387
-0.16544609 0.26572683 -0.16810909 -0.15188782 -0.02580453 -0.05736097 -0.03881159 -0.19683436
0.25952986 0.2202625 0.20766005 0.17321782 0.11644326 0.013119928 0.23383826 0.2447558
0.13583688 0.13133182 -0.1917799 0.13050081 0.20587088 0.11286013 0.050497245 -0.17170954
-0.029032443 -0.083181575 0.0833055 0.1645605 -0.13788663 0.14689596 0.12581855 0.10781175
-0.07433743 -0.039804574 -0.16166514 -0.34456342 -0.34236774 -0.12110407 0.16307129 -0.02547543
0.010019486 0.065407746 0.11597725 -0.07470741 -0.07236587 -0.043101758 -0.059322454 0.009570278
0.12917374 -0.05894996 0.1467768 0.08710513 -0.01786087 0.19228527 0.124102294 -0.10170245
0.14821559 0.051772635 -0.04725181 0.13780473 0.18988167 0.025808396 0.06496394 0.042994358
-0.0140653085 -0.03594095 -0.025575114 -0.04806069 0.05720077 0.005264301 -0.09036877 -0.08219569
-0.13463263 0.095516756 -0.18415673 -0.21317877 -0.025228279 -0.25136152 -0.13222907 -0.15557043
0.4746869 0.12208216 0.074136995 -0.121321365 0.14397785 -0.115899816 0.13519627 0.014272827
0.17040752 -0.79253936 -0.5534274 -0.2760074 -0.7821032 -0.7266489 -0.45692417 -0.49799266
-0.011654215 0.12249276 0.008586719 -0.22861284 -0.3207919 0.26968202 -0.30125785 -0.072135344
-0.28924966 -0.23540072 -0.32311723 0.0134505145 -0.031789098 -0.37836066 -0.03879824 0.32831323
-0.035074882 -0.22023676 -0.032682788 -0.0049789012 -0.08102232 -0.08313016 0.11203949 -0.009865364

decoder_1_convlstm.conv.bias f4 [48]
00000000: 8261 e63d 39c2 5f3e 36d7 173e fed2 ae3e
00000010: e807 903d 07da 9f3e 7904 f33c c20a d93d
00000020: 304e ef3d c722 e73d 5767 8e3e f212 133e
00000030: 5dae 573d b599 383b 75f5 fa3d e43b 843d
00000040: 2031 9e3d ef4d 263e 1cdd eb3d 9dce 77bc
00000050: 2178 f83c 1cb0 623d 331c c03d 6a76 ce3d
00000060: c36c 143e 9693 323e 9b29 723e 61e7 243e
00000070: 6ee3 f33d 7f85 6d3e a5d3 3c3e 411c 393e
00000080: 01d3 523e 8727 d13d 2985 813e 665c 493e
00000090: e4c0 69bd cbe8 863d 7e8a 28be e3e2 06be
000000a0: 053f 32bd cf9a 2abc 7e6e af3d 4dd3 59bd
000000b0: 555f 9fbc 5971 0dbd 8f96 55bd ee13 873d
0.11249067 0.21851434 0.1482819 0.3414535 0.07032758 0.3122103 0.029665219 0.10597755
0.11684835 0.1128593 0.27813217 0.14362696 0.05265652 0.0028167788 0.122538485 0.06456736
0.077242136 0.16240667 0.11516783 -0.015124944 0.03033072 0.055343732 0.093803786 0.100811794
0.14494614 0.17439112 0.23648684 0.16103889 0.11908613 0.23195456 0.18440111 0.18077184
0.20588304 0.10212617 0.25296906 0.19664153 -0.05706872 0.065873705 -0.1645908 -0.13172488
-0.04351713 -0.010412886 0.085659966 -0.053180028 -0.019454638 -0.034531925 -0.052145537 0.06595598

decoder_2_convlstm.conv.weight f4 [48, 24, 3, 3]
00000000: f8d6 d5bb 7e93 13bd 4f0a d9bd 12d6 83be
00000010: 455d 07be 082a ddbd 76f6 5dbd f847 2abd
00000020: 6f86 dabd c756 c9bd 6c83 d4bd 7f6a 83bb
00000030: adbf bd3d 9fe5 1b3e f232 fa3d 9ad6 32bd
00000040: 5f36 21bd 0317 913c def5 0cbd ed9d 963d
00000050: efc0 5f3d 9f08 8ebd c23c 82bc e0e4 16be
00000060: 0d9f f43c 20e4 183d ee9f c1bd 43c6 0f3e
00000070: 8200 193e 6316 c8be 5db1 05bf 9899 ddbe
00000080: c983 22bf a017 32be 45df 793e 94f5 80be
00000090: 7c55 70be 2230 0ebe bb4d a83d cf0d 8abe
000000a0: 7839 b93c 4c50 8f3d f19a 493e f8c5 6b3d
000000b0: 9af7 debd 041a 62be d334 ad3e c621 2ebe
000000c0: e9b1 653c f1a8 013e df3f 9cbd 312c 3f3f
000000d0: 2dad b3bd eb63 98be 4952 28bd 03a7 c63d
000000e0: e919 95be fe72 efbd e831 c7bd b109 58be
000000f0: 3159 80be 5dc7 0bbe 92ff 4bbe bdc7 9fbc
00000100: 44d2 9f3c b4ce 8e3e 1181 583d 37bf 563e
00000110: e21e 943d 733d 533e dc92 343e 0183 01be
00000120: 2573 923d b63a 0a3e 128d 8a3c 41c1 0bbe
00000130: 599b f3bd 69f9 09be 6fe8 233d 87e8 d5bd
00000140: c1b7 3abe 5704 313d 6a32 3c3d 346f b93d
00000150: 02aa 04be c59a 0fbd 9642 87bb 53cc 823c
00000160: 1c78 b1bc e79b cabd 2f22 3d3d 6749 dd3d
00000170: f656 bfbc 798c e4bd 9167 18be 6af4 d5bd
00000180: 7159 88bd 1f08 11bc def2 1ebe b6e1 d1be
00000190: 7627 863e 16d6 84be 3968 fc3e 9411 2ebe
000001a0: 5b21 f0be a543 b2be 2c2b febe 2d4b dbbe
000001b0: d788 45be 9887 6fbd d632 fcbd f1cc 04bf
000001c0: 3d6e 30bf 716f 38be 785e 863d 8bdf 2cbe
000001d0: d040 abbd 4680 0bbe 2572 8f3d da9b afbc
000001e0: 75d9 76bd 2ab3 1e3e 224c d73d 6224 863e
000001f0: 8a31 a4bc 2ab8 62be 8331 703e aeec 5a3e
00000200: 78cf 2e3e 64bd a53e 64b8 4a3f ee45 bf3e
00000210: 2f2c b33d 19f1 0d3e a186 10be b1e4 943d
00000220: df6c 40bc b39e 99be e580 233e 1912 4d3d
00000230: 9629 eb3d b8b4 dc3e cdb3 903e ed4e ef3c
00000240: 8f11 aabd 3ce3 b13e 6362 063f 9521 e23d
00000250: 499b ed3d 37d6 283e 06d1 4a3e 6b84 723e
00000260: ecaa a83e 363a e2ba d7c9 c53d 8466 a53c
00000270: 3998 3e3c de57 9abd ec34 c3bd 4d11 913d
00000280: 3047 e4bc 289f 64be 2404 2abf 59fc 1dbf
00000290: 6993 90bd 6a2a 4e3e 262d 1ebf 2e4a 31bd
000002a0: 78ba cdbb 9ee7 493d 542d e0bd 4983 91be
000002b0: 2a8d f8bd 1dce a23e 977f 503e a82a a63b
000002c0: 6a97 0e3e 98fc 6a3d b3c5 82bc 3d51 d4be
000002d0: df25 64be aae4 97be ad1c 84be cd4e 533d
000002e0: 8eea 1c3e da7b 923d c613 4bbe 122c bb3d
000002f0: ecaa 213e ce2d 88bc 4a02 e93d 7e61 7d3d
00000300: f3f3 f0bd b8b4 53bd 84e4 1dbe 9844 bfbd
00000310: 72a6 cfbd 40b9 0fbe 4c53 ad3d d0cc 86bd
00000320: c5f5 9d3d d351 fa3c 5afe 53be ed80 0e3e
00000330: a9aa ab3e 4379 373c 7767 d73d 33a2 dfbe
00000340: ec38 11bf ba64 e8be d98f 8dbe 8d52 c7be
00000350: 8a2f 11bf 0358 2ebe 637c 0ebe a584 64be
00000360: f4c5 f1bd a1d4 7bbe 9d8d 50bd f5af 813d
00000370: 1dce de3c fccc 333d cc9a 813b 3cff afbd
00000380: 1c20 10be 8e97 283e b293 813e cb00 2abd
00000390: 2693 693c 0abe 913d cada d93d 47be 803d
000003a0: deab d03d fa95 1c3e 3fbc bcbd 56fe 49be
000003b0: cb4d c3be 9428 dd3c ed3c 00be 6fc0 05be
000003c0: 41e9 bcbc 04e6 c1bd 32bc 94bd 1f2a 6dbe
000003d0: 8c6c 6abe 289a 55bd 48db 9dbe 00e0 55be
000003e0: bf8d 95bd d48f b8bd 4e63 313e 5ae8 dbbc
000003f0: 6fb7 c43c a43e ec3c fb8c 8d3d 5575 073d
-0.0065258704 -0.03602933 -0.10597669 -0.2574926 -0.13219173 -0.107990324 -0.05419012 -0.04157254
-0.106701724 -0.098310046 -0.10376629 -0.004010498 0.09265075 0.15224312 0.12216748 -0.04366169
-0.039358493 0.017711168 -0.034414165 0.07354341 0.054627355 -0.06935238 -0.015898112 -0.14735746
0.029860998 0.037326932 -0.09454332 0.14040475 0.149416 -0.3907958 -0.5222376 -0.43281245
-0.6348234 -0.17391825 0.24401577 -0.2518736 -0.2347011 -0.13885549 0.08217951 -0.2696366
0.022610411 0.06997737 0.19688012 0.057561845 -0.1088707 -0.22080237 0.33829364 -0.17005071
0.014019468 0.12662102 -0.0762937 0.74676806 -0.08773265 -0.2976373 -0.0410941 0.09699824
-0.2912133 -0.11691855 -0.09726316 -0.21097447 -0.25068048 -0.1365027 -0.19921711 -0.019504422
0.019509442 0.27892077 0.052857462 0.2097138 0.07232453 0.2062891 0.17634147 -0.1264763
0.07150868 0.13498959 0.01691297 -0.1364794 -0.118948646 -0.13474049 0.040016588 -0.10444742
-0.18234159 0.04321703 0.045946516 0.090544134 -0.12955478 -0.03505971 -0.0041278107 0.01596657
-0.021663718 -0.09893017 0.04617518 0.10805016 -0.023356896 -0.111596055 -0.14883257 -0.10447009
-0.066576846 -0.008852034 -0.15522334 -0.40992516 0.2620198 -0.25944585 0.49298266 -0.16998893
-0.46900448 -0.34817234 -0.49642313 -0.42830792 -0.19290482 -0.05847892 -0.12314384 -0.51875216
-0.6891821 -0.18011262 0.06560987 -0.1688215 -0.083619714 -0.13623151 0.07004193 -0.02143662
-0.060265977 0.15498033 0.10512568 0.26199633 -0.020043153 -0.22140566 0.23456387 0.21379349
0.1707133 0.32371056 0.7918761 0.3735804 0.08748662 0.13861503 -0.14113857 0.07270182
-0.011744707 -0.3000389 0.15967138 0.050066087 0.11482541 0.43106627 0.28262177 0.02921244
-0.0830413 0.3474368 0.52493876 0.110415615 0.11601884 0.16487966 0.19806299 0.23683326
0.32942903 -0.001725978 0.096576385 0.020190485 0.011632972 -0.075362906 -0.095315784 0.07083378
-0.027865976 -0.22326338 -0.6641257 -0.61713177 -0.07059366 0.20133367 -0.6178764 -0.043283634
-0.0062783323 0.049293153 -0.10946146 -0.28420475 -0.121363 0.31797877 0.20361172 0.005071003
0.13924947 0.0573698 -0.015963411 -0.4146823 -0.22280072 -0.29666644 -0.25803128 0.051588822
0.1532385 0.07152529 -0.19831762 0.09139265 0.15787858 -0.016623404 0.1137739 0.061860554
-0.117652796 -0.05168602 -0.15419203 -0.09339255 -0.10139169 -0.14035511 0.08463153 -0.06582034
0.077128924 0.030556595 -0.20702496 0.13916369 0.3352864 0.011198345 0.10517781 -0.43678436
-0.5672748 -0.45389348 -0.2764881 -0.3893017 -0.56713164 -0.17025761 -0.13914637 -0.22316225
-0.11805335 -0.2459283 -0.050916303 0.06332389 0.027197892 0.04389666 0.003955221 -0.08593604
-0.14074749 0.16464064 0.25307995 -0.041504662 0.014256274 0.07116325 0.10637434 0.062862925
0.10189031 0.15291587 -0.092155926 -0.19725928 -0.3814529 0.026996888 -0.12523241 -0.13061689
-0.023060443 -0.094677 -0.07262458 -0.23160599 -0.2289297 -0.052148968 -0.3083136 -0.2088623
-0.073024265 -0.09011808 0.17323038 -0.026844192 0.02401325 0.028838463 0.069116555 0.03307088

decoder_2_convlstm.conv.bias f4 [48]
00000000: 09e2 5a3e f292 d03d d48b 283e bcbc 2e3e
00000010: f5be 8e3e 1b49 6d3e e5eb c73e 9b59 01bd
00000020: c8ed 0e3e 3620 b83e 6a72 4f3e e890 8f3e
00000030: d6b1 d63d 56ae a23d 30e3 383d 238c 0a3e
00000040: b0da e03d 788f f63d ab42 953d bc5e c03d
00000050: b301 963b 37b5 143d d828 573d bf7a 133e
00000060: 6ab2 b73d 29e5 2a3d 43e9 8b3e 925b 553e
00000070: 0fd3 823e 04c2 2f3e 2a09 9e3e cf40 093e
00000080: 785b 873e ab50 ba3e 4453 0e3e 24dd 9a3e
00000090: 5047 9dbc 6b2c 4cbd 965b 31bd bf2c 82bd
000000a0: 915b 803d bddb 17be d515 5cbd d0b6 353d
000000b0: a7d2 0d3e 1a60 6bbc 72ad ab3d ff03 2dbd
0.21375288 0.101842776 0.1645959 0.17064184 0.27880064 0.23172419 0.3904716 -0.031579595
0.13957894 0.35962075 0.20258489 0.28040242 0.10483138 0.07943408 0.045138538 0.1353002
0.10979211 0.12039083 0.072881065 0.09393069 0.0045778393 0.036305632 0.052529186 0.14402293
0.08969577 0.04172245 0.27326402 0.20835713 0.2555165 0.17163855 0.30866367 0.13403629
0.26436973 0.3638967 0.13898951 0.30246842 -0.019199044 -0.049847048 -0.043300234 -0.06356191
0.06267465 -0.14829917 -0.05373176 0.044363797 0.13849889 -0.014366174 0.083826914 -0.04224014

decoder_CNN.weight f4 [8, 12, 1, 3, 3]
00000000: ff64 a2be bb8a 7fbd e558 f4be 33f3 8f3f
00000010: 9e3c 4abf d30b 3bbf 8c91 4cbf 042e 04bf
00000020: 0b93 7dbf 7996 59be 7f43 b3be 2443 ce3e
00000030: 65dd 8fbe 86fe 1abe c30f ad3f ae9d 873e
00000040: 7096 3ebe abed bfbe 5d8a f13f 02d2 943f
00000050: 70f6 1a40 763e e13f 20da f43f 82b0 3a3f
00000060: a38a f03f 8b94 0b40 1ecd 933f 7d17 d43f
00000070: aa00 1240 6d7d 0cc0 a883 933f 45c0 ab3e
00000080: ab99 223f ca9c ff3e 437f 51bf 6bf2 a03e
00000090: 5ace 5ebe c807 95bf 6779 05be 5dc4 863e
000000a0: 6489 2ebf d7b5 94be 10ce bd3f 4cdb 7abf
000000b0: 916a f63d ecdd 133f fde2 9dbe 16bb df3e
000000c0: 3d0a 773e 416c ffbd 70de 3e3f 4b8d e43e
000000d0: f882 6d3f c977 083f 1017 1abf 235c 9cbf
000000e0: 3bbe 89bf d9ab a13f bf3c 113f 1699 bcbd
000000f0: f9e7 02be 6d32 5ebd 63f9 c3be 4a41 d93d
00000100: 5741 bf3e 67fc dbbc 1fa3 d13d fe1d 86be
00000110: ddfc 8cbe 249e bcbe 7d82 babe 5db0 663d
00000120: add3 d4bf 22e2 1e3f 1fed 46be adf7 453f
00000130: 4609 1ebf e87c 47bf 4c5a 0ac0 3ed5 b5bf
00000140: f660 f23f 75fa 883f 9281 df3c 27c9 1b3f
00000150: 6faa d53e 126f 3abf 053b 773d 6dd5 9c3f
00000160: f00f 893f cb51 a63f 2862 2e3d fdcf 7dbf
00000170: b383 35bc c6a8 1fbe f402 673e 54dc c4bd
00000180: 0f5c 01bf f2af fc3f 2d96 053f 1302 d43c
00000190: e4d3 943e 4fd0 183d 165a 363e 67be 973f
000001a0: c28b a4be e4ff 22be 5a31 4d3f 97c5 223f
000001b0: c10d 7fbf 082d 4c3e 560e 88be 1c56 a7bf
000001c0: f007 9ebf b3ae 59bf 90f2 443f 43a1 be3c
000001d0: c207 1cbe 5aa0 fabe 582f f33f e8b4 b03f
000001e0: 5371 3140 bdda 0f40 98bd 823e 76af 8dbe
000001f0: 2773 383f 3d70 5d3f 2b18 eabe 1991 8e3e
00000200: 31cb 333e e0ad 94bf 258f ee3e 85da 583f
00000210: b57d 11bf 6d70 113e ce16 0b3f 6310 22bf
00000220: ab39 d6be efc7 93bf b4fb 66bf 7005 b13e
00000230: 4bfc 2b3f 9140 37be 2f0a 6ebd e069 943e
00000240: 2449 433c 69d9 2a3f 2d74 61be 438a 6c3f
00000250: ed87 fb3f 7c62 4bbf 10f3 8c3e 8f99 3e3f
00000260: de30 6d3e 917a e33e bf3a af3f 8c19 0ebe
00000270: 0ca8 07be e53a 833e bcb3 613e ec2a f53d
00000280: e989 8b3d 3601 37be 4119 b2bf 1420 2bbe
00000290: 7975 15bf b0ce 4dbd 04ad 08bf eb2c b13c
000002a0: ee97 293e b9cf 3c3f c575 363e e729 c3bf
000002b0: c05c 3abf ac44 36bf 18fd b53e 51cb a8bf
000002c0: cd1c a5bf a496 0abe 1d70 86bf eca8 7abf
000002d0: 28fb 1a3f 0213 5fbf 175d 30bf db18 dfbc
000002e0: 4c5f a6be 884c 3f3e 480a 9d3e dea3 263f
000002f0: e859 83be 9efb f23e 2048 923f c45d 61be
00000300: 8670 c9be c188 da3e e6a7 58bf 9a81 f03d
00000310: 79e3 d1bd 853b 74be 9f93 7abe ebd0 723d
00000320: 3c5c ee3f e8b8 473f 9850 5d3f a14f fd3e
00000330: 3930 e8be 2348 423e e293 f33e 2fcd 66bf
00000340: 7ef8 5cbe de64 3b3f 707e 193c 69d3 5a3d
00000350: 2895 86bf 47be 2c3d bd5c 4bbe 86bd 90bf
00000360: 2476 a9be 9b5a 9abe 4935 923f 5163 803f
00000370: ab6e 54bf 10ac 313f f491 ed3f 5308 e13f
00000380: 666a 49bf 98d3 343f acbb 5740 394f 2340
00000390: 68ac b23f 06ff 323f 9c1e 1b40 cb9a 80bf
000003a0: 5882 6f3f ff73 8e3f e8e5 053f 421e 4a3f
000003b0: 0182 c63f dfe9 803f 0b0a 693f 7349 09bf
000003c0: 6738 473f 432a f33f b087 37bf 8621 4bbf
000003d0: ed9f e63e 4c73 09bd 2682 2abf cb78 8b3f
000003e0: 888c 353f c0c7 fdbe 40e9 75be 36c7 23bd
000003f0: e534 99be 65c6 303f fb7a d8be 6593 26bf
-0.3171768 -0.062388163 -0.4772407 1.1246094 -0.78998744 -0.7306492 -0.79909587 -0.51632714
-0.99052495 -0.21248807 -0.35012433 0.402856 -0.28098598 -0.15136155 1.3520435 0.26487488
-0.18612075 -0.37486014 1.887035 1.1626589 2.4212914 1.7597187 1.9129066 0.7292558
1.8792309 2.1809413 1.1546972 1.6569668 2.2812905 -2.1951554 1.1524553 0.33545128
0.6351573 0.49924308 -0.8183481 0.3143495 -0.21758404 -1.1643 -0.13034593 0.26321688
-0.6817839 -0.29044983 1.482851 -0.9799087 0.12032045 0.577605 -0.3083724 0.43697423
0.24125 -0.1247182 0.7455816 0.44639048 0.9277797 0.5330778 -0.6019144 -1.2215618
-1.0761179 1.2630569 0.56733316 -0.09208886 -0.12783803 -0.05424731 -0.38276204 0.10608156
0.37354538 -0.026853753 0.10236191 -0.26194757 -0.2753667 -0.36839402 -0.3642768 0.056320537
-1.6627098 0.620638 -0.19426392 0.7733105 -0.617329 -0.77924967 -2.1617613 -1.4205701
1.893584 1.0701433 0.027283464 0.6085381 0.41731593 -0.7282573 0.06035902 1.2252632
1.0707989 1.2993711 0.042574078 -0.9914549 -0.011078763 -0.15591726 0.2255972 -0.09612337
-0.50531095 1.9741194 0.52182275 0.025879895 0.2906791 0.037308034 0.17807803 1.1854981
-0.32137877 -0.15917927 0.8015343 0.6358275 -0.9963036 0.19939053 -0.26573437 -1.3073153
-1.2346172 -0.85032195 0.7693262 0.023270255 -0.15237334 -0.48950464 1.8998823 1.3805208
2.7725418 2.2477257 0.25535274 -0.2767293 0.7205071 0.8649939 -0.45721564 0.27845076
0.1755798 -1.1615562 0.46593586 0.84708434 -0.5683244 0.14203043 0.5433167 -0.63306254
-0.41840872 -1.154539 -0.9022782 0.3457446 0.67181844 -0.17895724 -0.05811518 0.28987026
0.011919294 0.6673799 -0.22016974 0.9239847 1.9650856 -0.7944715 0.27529192 0.7445306
0.23163173 0.44429448 1.3689803 -0.13876933 -0.13247699 0.2563087 0.2204122 0.11971077
0.06813414 -0.17871556 -1.3913957 -0.16711456 -0.58382374 -0.05024594 -0.53389 0.021627864
0.16561863 0.7375446 0.17818363 -1.5247163 -0.72797775 -0.71198535 0.35544658 -1.3187047
-1.2899414 -0.13534027 -1.0502964 -0.97914004 0.60539484 -0.8713838 -0.68892044 -0.027233532
-0.3249458 0.18681538 0.30671906 0.6509379 -0.2565453 0.47457594 1.1428261 -0.22008425
-0.3934366 0.4268246 -0.8463119 0.117434695 -0.10248465 -0.2385083 -0.24470375 0.05928127
1.8621898 0.7801652 0.864511 0.49474815 -0.4534929 0.1897283 0.47573763 -0.90156835
-0.21579167 0.73200786 0.009368524 0.053424273 -1.0514269 0.04217365 -0.19859596 -1.1307838
-0.33097947 -0.3014725 1.1422511 1.0030309 -0.82981366 0.6940317 1.8560166 1.7580665
-0.78677976 0.70635366 3.3708296 2.5517104 1.3958864 0.69920385 2.4237432 -1.0047239
0.93558264 1.1129149 0.52303934 0.7895242 1.5508424 1.0071372 0.9103095 -0.536277
0.7782044 1.8997272 -0.7169142 -0.7934803 0.4504389 -0.03355722 -0.6660484 1.0896238
0.7091756 -0.4956646 -0.24014759 -0.039984904 -0.29923168 0.69052726 -0.42281327 -0.65068656

decoder_CNN.bias f4 [8]
00000000: eba1 c43e 7b3a 6c3c 6e09 1fbf f7f4 e2be
00000010: 0e84 b43e cab4 b4be 10bc 18bf 1737 c5be
0.38404784 0.01441824 -0.62123764 -0.44327518 0.35257 -0.3529418 -0.5966196 -0.38518593
