models/convlstm/saved_models/lr_0.0001/epoch_770.pt (torch, 68090 bytes, 30 tensors)

cell_list.0.conv.weight f4 [32, 16, 3, 3]
000000 4c ca 45 3e d1 74 a0 3e df cd 51 3e e7 61 49 3e
       0.19315451 0.31339124 0.2048869 0.19666253
000010 1c ef 4a 3e b1 25 7c 3e 7b 8c 7a 3d 31 90 13 3d
       0.19817775 0.24623753 0.06116913 0.036026184
000020 06 46 29 3e 0c 8f bf 3b e5 cd 9e 3d 16 32 1e 3e
       0.16530618 0.00584591 0.07754115 0.15448794
000030 f5 61 5c 3d 5c 0d e7 3d 71 94 1a 3e 2d a5 34 3d
       0.053804357 0.11281845 0.15095688 0.044102836
000040 6f 2a c1 3d e8 a5 56 3d d2 90 08 bd 6c 99 51 3e
       0.09431922 0.052404314 -0.033341236 0.20468682
000050 ab 0d 09 3e 5b 28 4b bd 3a 61 fe 3d 3d cc 34 3e
       0.1338412 -0.049599033 0.12420888 0.17656036
000060 a4 2c 7e 3e 9f 84 27 3e 83 81 2d 3e 7b 5c 11 3e
       0.24821717 0.16359185 0.16943936 0.14195435
000070 d7 f3 18 3e 2b 8c 96 bd 15 5f 0a 3e d6 07 9b bd
       0.14936768 -0.07350954 0.13512833 -0.07569854
000080 92 60 3a bd b1 1c 26 3e b4 1c a3 3d 7e ce 63 3d
       -0.045502253 0.16221882 0.07964459 0.05561685
000090 9b 26 a5 3d e6 c1 d6 3d d5 77 f4 bd 11 2d f2 3d
       0.08064004 0.10486202 -0.11936919 0.11825002
0000a0 51 45 b5 bd d9 e8 91 bd 4b e7 7d 3d 2b d7 8a 3d
       -0.08851112 -0.0712449 0.061988156 0.06779321
0000b0 ea eb 78 3d 79 21 4a 3d 0a 2f 20 3d bf 08 97 3d
       0.06077186 0.04934833 0.03910736 0.07374715
0000c0 50 20 93 bd c1 3f fe 3c 21 f7 3e bc 40 42 52 3e
       -0.071838975 0.03103626 -0.0116556 0.20533085
0000d0 a3 c1 99 3d 9a 64 27 be 85 86 99 bd b2 24 d4 bc
       0.075076364 -0.1634697 -0.07496361 -0.025896404
0000e0 82 f5 0f 3e d8 4e b0 bd a5 61 d2 bb 7d 51 c8 3a
       0.14058498 -0.08608788 -0.0064203315 0.0015283074
0000f0 d7 51 9b bd 25 1a 08 be f9 46 ef bd 84 83 d9 3c
       -0.07583969 -0.13291223 -0.11683459 0.02655197
000100 f2 47 9c bd 10 69 a1 bc cc 81 0e be 22 38 81 bd
       -0.0763091 -0.019703418 -0.13916701 -0.063095346
000110 7e 6d 7f bb 2f c9 e0 bd 55 ae 28 be 17 cc 82 bd
       -0.0038975175 -0.10975873 -0.16472752 -0.06386583
000120 1c 40 68 bd cc d5 95 bd 37 23 a2 3d 62 1d 3d be
       -0.056701764 -0.07316169 0.07916873 -0.1846824
000130 16 07 63 be 48 e0 50 be 33 37 47 bc e5 0b 24 bd
       -0.22170672 -0.20398057 -0.012159157 -0.040050406
000140 9c a4 e9 bd 0e e3 b3 3d 4b 0c d3 3d 7b 7f d6 3d
       -0.1140835 0.087835416 0.10305079 0.10473534
000150 5c 32 e5 3d 04 b6 67 3d 26 de 5f 3c 1d 53 47 3b
       0.11191246 0.056570068 0.013663804 0.003041453
000160 e6 5d 9f 3d c5 0a a8 3d 88 ac 31 bd bf 32 ad bd
       0.077815816 0.08205179 -0.04337743 -0.08456945
000170 4a bc da bd ee 0f d5 bd 8a 03 36 bd 8b df 38 bb
       -0.106804445 -0.10403429 -0.04443697 -0.0028209414
000180 a6 a6 1d be 52 ec 91 bd 41 9c 78 3d 74 c8 2c 3d
       -0.15395603 -0.07125153 0.06069589 0.042183354
000190 2a f6 bd 3d 7c 47 d0 3d 09 cd c9 3d 17 a8 da 3d
       0.09275468 0.101698846 0.098535605 0.10676592
0001a0 e0 62 47 3d 9e f0 1e be ea 90 89 bc c4 05 d6 3c
       0.04867828 -0.15521476 -0.016792733 0.026125796
0001b0 5e 35 0d be 65 a0 c8 bd ee 8c 02 be 8d f7 9c bd
       -0.13789889 -0.09796218 -0.12749073 -0.07664404
0001c0 83 f1 9c bc 18 46 34 be a7 4c 01 be 74 b5 3f 3c
       -0.01915813 -0.17604864 -0.12626897 0.011700977
0001d0 52 fd 25 3d 1f 08 08 be 1a da 38 3d 5f a1 3a bd
       0.04052479 -0.13284348 0.045129873 -0.04556405
0001e0 ff c9 88 3d c8 3b cb 3b 7e 9d bc 3c 6c 9e 8b 3c
       0.06679153 0.006202195 0.023024317 0.017043315
0001f0 0f df a7 3c a2 e0 41 3e 75 a8 00 bd 19 7d a2 bc
       0.020492105 0.18933347 -0.031410653 -0.019835042
000200 ad 99 5e 3d 48 ce 95 3b ec 18 da 3c e5 12 c6 3c
       0.054345775 0.00457171 0.026623212 0.024178931
000210 b3 8e 47 bb fe ae b7 3d 82 57 a5 3d a9 50 ec 3d
       -0.0030450046 0.08968924 0.080733314 0.11538822
000220 92 1c 85 3d ed f8 03 3e 59 19 26 bd 69 e4 e9 bd
       0.0649959 0.12887926 -0.040551517 -0.11420519
000230 b4 e3 62 bd 8f 1d 63 3d 17 3e f7 3c cb 22 72 3c
       -0.055392936 0.05544811 0.030180974 0.014778803
000240 0b c8 50 be 5b 92 cb bd 46 70 99 bd d0 f6 83 be
       -0.2038881 -0.099400245 -0.074921176 -0.2577424
000250 0e e1 3d be 6b 4b da 3d ec 3b db bd f1 d8 75 be
       -0.18542883 0.10658916 -0.107047886 -0.24008538
000260 e1 e9 a1 bc f3 77 d0 bd c3 e0 1d 3d 7f fc 73 bc
       -0.019764842 -0.101791285 0.038544428 -0.014891743
000270 17 9e 0a bc 9f 8e 90 bd 0f 34 1d 3d ef 23 89 3e
       -0.008460543 -0.07058453 0.038379725 0.26785228
000280 93 e7 9f 3c 9e 0f 46 3d bc 82 2d 3d 99 a5 16 be
       0.019519603 0.048354737 0.042361006 -0.14711608
000290 ea 39 0d bd 8f 82 f2 bd 98 3a 89 3d d9 d6 56 38
       -0.03447906 -0.11841308 0.06700629 5.122167e-05
0002a0 be b9 7f 3d 86 93 0e 3d ad fc 0b 3e 56 49 e9 3d
       0.062432997 0.034808658 0.13670607 0.11390941
0002b0 76 7a 05 3d d1 23 b4 3c d1 db e3 3d f4 63 e2 3d
       0.03258749 0.021989735 0.11125911 0.11054221
0002c0 7d 91 25 bd d7 d7 07 be 56 92 47 be eb 2e 6e 3d
       -0.04042195 -0.1326593 -0.19489416 0.058150213
0002d0 5d fa 55 bd 8b d0 f0 bd 95 af f6 bc 11 e5 7b bd
       -0.05224072 -0.117585264 -0.03011302 -0.06149775
0002e0 1b 8b 9c bb 16 0c df bd f2 26 dd bd 51 b7 72 be
       -0.004777325 -0.10890977 -0.10798444 -0.23702742
0002f0 14 cc 72 3d 24 3d 1d be b6 db 3e be 34 81 90 bd
       0.059276655 -0.15355355 -0.186385 -0.070558935
000300 82 f8 db bd 51 05 a6 bc 86 b3 c2 bd 86 3a 00 be
       -0.107407585 -0.020266207 -0.09506898 -0.12522325
000310 3e b1 39 bd 89 2e 39 bd ef 94 4f bc 64 b8 d6 bd
       -0.045335047 -0.045210395 -0.012669786 -0.104843885
000320 32 07 0a 3e 5d 0a bc 3d 62 ca 05 3d 2a 3d 49 bb
       0.13479307 0.09181664 0.03266371 -0.0030706623
000330 98 73 23 3d b4 28 ed 3d f8 11 16 bc d7 80 51 3d
       0.03990516 0.11580029 -0.0091595575 0.051148262
000340 50 71 ac 3d ab 15 b9 bd 91 66 2e bc 01 78 23 be
       0.0842005 -0.09037336 -0.010644571 -0.15963747
000350 a5 09 a6 bd 3c 83 47 3e e2 1d 14 3e f9 a6 72 be
       -0.08107308 0.19483656 0.14464524 -0.23696508
000360 7d 49 12 3e fa 15 0b 3e bd bb 02 ba f6 bf 00 3e
       0.14285846 0.13582602 -0.00049870816 0.12573227
000370 d6 76 0a 3e a6 84 a1 3d ba d9 c0 3d 5d 29 00 3d
       0.13521895 0.07886629 0.09416528 0.031289447
000380 05 f3 33 3d 97 de e8 bb f0 aa 49 3d d3 19 28 bc
       0.043932933 -0.007106613 0.049235284 -0.010260063
000390 2f 6e 65 bd 5f f4 f3 3c dd ae bd 3c cd 10 57 bc
       -0.056013282 0.029779611 0.02315467 -0.013126564
0003a0 c7 28 b4 bc 6f 62 d3 3c c0 df 1c 3d 6f b3 99 3d
       -0.0219921 0.025803773 0.038299322 0.07504927
0003b0 22 94 1f 3c 41 3c 35 bd 04 99 14 3d bc a2 dd 3c
       0.009739907 -0.044246916 0.03627874 0.027055137
0003c0 a8 0b 60 bd de 21 2c bd 33 f6 ca bc fb 46 f8 3c
       -0.054698616 -0.042024486 -0.0247756 0.030307284
0003d0 41 77 4a 3d 51 88 98 3d 31 cb 1e bd 62 34 7e 3c
       0.049430136 0.07447875 -0.038767997 0.015515419
0003e0 e7 cf 90 3d f4 43 f7 bc aa f3 19 bd 23 6d c9 3d
       0.07070904 -0.03018377 -0.03758589 0.09835269
0003f0 ec 84 9c 3d 63 f8 37 bb 17 32 a8 3c 6a 55 6d bc
       0.0764254 -0.0028071634 0.020531697 -0.014485696

cell_list.0.conv.bias f4 [32]
000000 49 b6 ad 3d 97 4c 12 be a0 f0 94 bc 2e 0d e6 3d
       0.08482034 -0.14287029 -0.018181145 0.112329826
000010 af fd 2d 3d 18 68 6e 3d 36 a1 92 bd f8 41 7d 3c
       0.04247826 0.05820474 -0.07159655 0.015457623
000020 dd 6c 73 bd 06 cd 70 be f2 b4 24 be d5 92 7d be
       -0.059429992 -0.2351571 -0.1608465 -0.24763043
000030 da 63 90 be 9e 7e b0 be eb 63 ef bd 46 13 89 be
       -0.2820118 -0.344716 -0.1168898 -0.26772517
000040 b3 15 9c 3d 91 b4 21 be b2 32 f3 3d 83 76 20 3d
       0.07621326 -0.15791537 0.11874904 0.03917552
000050 fa 19 a4 bc f9 5e 1f 3d 1f d6 ab bd ca f4 0b bb
       -0.020031918 0.038908932 -0.0839045 -0.0021355622
000060 90 9d ca bd de 2d 27 3d f1 1e 6c 3d b7 a9 93 bd
       -0.09893334 0.040815227 0.057646696 -0.07210105
000070 76 52 4f bd da 4a 01 3d 22 ef a2 3d 21 32 71 bc
       -0.05061575 0.031565525 0.07955767 -0.014721424

cell_list.1.conv.weight f4 [32, 16, 3, 3]
000000 40 86 02 3e af 72 dc bc 5b f3 14 be 51 fe c6 bc
       0.12746525 -0.026910154 -0.14545958 -0.02429119
000010 20 fc a4 bd f0 b6 05 be 53 37 84 bc 6e 95 a5 bd
       -0.080559015 -0.13058066 -0.016139662 -0.08085142
000020 8a c8 1a be 75 c3 19 be e6 97 fd bb 3f a7 45 3e
       -0.15115562 -0.15015967 -0.007739055 0.1930208
000030 91 8d 2a bd 5c a9 62 3a c9 bf 3e be 8f 34 24 3e
       -0.041638914 0.00086464523 -0.18627848 0.16035675
000040 d8 5c aa 3e 79 fb 05 3e 8a 58 96 bd b1 f1 eb bc
       0.3327396 0.1308421 -0.07341106 -0.02880177
000050 db c3 51 bd 8b 45 0f be 3f 20 c1 bd a5 a6 3d be
       -0.051212173 -0.13991372 -0.094299786 -0.18520601
000060 48 00 32 be b6 7b 86 bd 95 94 05 be af 1e 7a be
       -0.1738292 -0.06566565 -0.13044961 -0.24425767
000070 88 2f 83 be 6c 15 d3 bd 79 f9 af bd eb cb 3a be
       -0.256222 -0.1030682 -0.08592505 -0.18241851
000080 ea bd 4f be 02 72 9f bd ac f5 1c 3e bd 18 45 3d
       -0.2028729 -0.07785417 0.15328091 0.048119295
000090 0c 0d 39 3d 22 9b 30 38 9e c4 a6 3d b2 af 8e bd
       0.045178458 4.210615e-05 0.081429705 -0.06967105
0000a0 e6 7d 86 be e7 f3 e2 bd 1f 37 50 be c9 2d 49 be
       -0.26267928 -0.11081677 -0.20333527 -0.19646372
0000b0 82 a5 10 be 46 57 52 bd 8a 61 53 bc 49 9c 03 3e
       -0.14125636 -0.05135276 -0.012901673 0.12852587
0000c0 5a 1c ab bc b9 5b 63 bd 3e 83 05 3d 9e f3 14 3d
       -0.020887543 -0.055507395 0.032595865 0.036365144
0000d0 90 d0 9f 3c c1 23 09 be 73 13 67 bc 3c 0f f5 bb
       0.01950863 -0.13392545 -0.014103758 -0.0074786227
0000e0 81 e0 1d be fd 7d da bc 73 01 f8 bc 21 80 20 3e
       -0.15417673 -0.026671404 -0.030274129 0.15673877
0000f0 a1 17 4b be 25 70 3d be 7c 46 45 be 81 82 a4 3d
       -0.19833232 -0.18499811 -0.19265169 0.08032704
000100 32 a9 0e be af 69 df bd 0d 7f 4a bd 50 70 18 be
       -0.1393173 -0.109088294 -0.04943757 -0.14886594
000110 94 80 53 3d 4f 1b ab bd a1 1d f5 3a e4 dc 3f 3d
       0.051636294 -0.08354818 0.0018700847 0.046841517
000120 74 29 c9 bd 91 22 0d 3d 2c a0 20 3c 26 ba fc bd
       -0.0982236 0.034456793 0.009803813 -0.123401925
000130 bd e0 0e 3c 95 40 87 3c 0e ba 88 3c 39 c5 4b 3c
       0.008720574 0.016510287 0.01669028 0.012437158
000140 1f 2c 7d bb 83 f4 0f bd f3 cc 24 3d ee 55 05 3e
       -0.0038631035 -0.035145294 0.040234517 0.13021061
000150 be 7b a7 bd c9 90 5f bc 65 17 dc bd 65 b4 4a bd
       -0.08177899 -0.013645359 -0.1074665 -0.049488444
000160 b8 2e 6c 3d 83 f8 99 3b 71 05 66 bd f4 dd 23 3d
       0.057661742 0.0046988144 -0.056157533 0.040006593
000170 3e c6 73 bd 76 54 19 3d a2 04 02 bd ab d3 66 bd
       -0.05951523 0.037434064 -0.0317427 -0.056354206
000180 fa ce 98 bd 8e f6 5c bd a1 17 f5 3c 32 42 28 bd
       -0.07461353 -0.05394607 0.029918494 -0.041078754
000190 39 3c 9f bc 54 21 d0 3c 96 07 c8 bd a6 66 19 be
       -0.019437896 0.025406517 -0.09767072 -0.14980564
0001a0 ad f7 1e be a7 38 97 bd 51 13 de bc 62 54 8e bd
       -0.15524168 -0.073838525 -0.02710882 -0.069496885
0001b0 2a 38 95 3d 8e 40 40 bd 6a f2 4c 3b 84 3c 6b 3d
       0.07286103 -0.046936564 0.003127242 0.05743076
0001c0 b8 6c 84 3d 36 4b ba 3d f1 e6 80 3c 28 d5 53 3c
       0.06466049 0.090963766 0.015735121 0.012929238
0001d0 db ce 15 bd bf 0f c7 bd b4 83 e9 bc 37 79 8b 3d
       -0.036574226 -0.097198 -0.028505184 0.06810229
0001e0 76 af 75 bd 90 b0 6c 3c ee 41 0c 3c 72 0f 1e 3d
       -0.059981786 0.014446393 0.008560641 0.03858895
0001f0 55 f5 9d bd 8a 72 48 3d fb 0c 98 3c e8 75 ca 3d
       -0.07712809 0.048937358 0.018560877 0.0988577
000200 3f f3 17 3d ac 68 31 3d 02 0c fc 3c ca 31 a3 3d
       0.037097212 0.043312714 0.030767445 0.07968481
000210 5f 35 1b 3d 03 33 ee 3c cc 58 fb 3d 10 f5 b4 3c
       0.037892696 0.029077059 0.12272796 0.022089511
000220 25 27 0e bb f0 bc 0e bd 3f 77 2f bd f0 88 72 bd
       -0.0021690812 -0.034848154 -0.04283833 -0.059212625
000230 2d 35 1e be ac 89 d2 bc 18 b1 62 3d d4 f3 86 3d
       -0.15449972 -0.025700413 0.05534467 0.06589475
000240 03 12 2f 3e 15 6c ad 3e 4d 51 d3 bd e7 6b 86 3e
       0.17096715 0.33871523 -0.10318241 0.26254198
000250 6c e1 9f 3e 2d 24 65 3d ac 54 c9 3d 98 04 e2 bd
       0.3122667 0.055942703 0.09830603 -0.110360324
000260 24 f5 95 be f5 5b df bd 18 a7 56 3e c3 c2 2e 3e
       -0.2928859 -0.10906211 0.20962179 0.17066483
000270 f6 12 e9 bc 87 c3 ef 3e 0e 10 4b bd ed ba 67 be
       -0.028451424 0.46828863 -0.049575858 -0.226299
000280 8c 35 d9 3d 34 7f d3 3d d9 3b f1 bd 26 3c c0 3c
       0.106059164 0.103269964 -0.11778993 0.023466181
000290 7a d9 aa bd 24 c1 b6 be e5 2a 7a be 2f 06 94 be
       -0.083422616 -0.3569423 -0.24430425 -0.28910968
0002a0 21 76 b3 be b5 94 dd be 56 f2 b6 be 7b d5 b2 3b
       -0.35051063 -0.43277517 -0.35731763 0.0054575778
0002b0 b5 24 1f 3e 43 11 da 3d 1f 61 cd bd c4 99 76 bd
       0.15541346 0.10647824 -0.1002829 -0.060205236
0002c0 fd dd 99 bd 2a a6 9b bc ad 61 64 be de 0d 74 be
       -0.07513044 -0.019000132 -0.22302885 -0.23833415
0002d0 00 46 b5 3e 93 13 c6 be bc c3 a7 be b6 d0 d8 be
       0.35404968 -0.3868681 -0.3276652 -0.42346734
0002e0 85 f3 e8 be 80 d8 4a be dc 7e 88 be 09 0d 24 bd
       -0.4549829 -0.1980915 -0.26659286 -0.040051494
0002f0 16 20 2f be fb 46 94 bd c9 b8 38 3d 4c 49 44 bd
       -0.17102084 -0.07240101 0.0450981 -0.047921464
000300 69 1d 7c 3d 79 c5 01 bc 1b 1f 0c 3e a7 c7 76 3e
       0.061551485 -0.007920616 0.13683741 0.24099599
000310 13 44 6d 3d 85 d6 7b 3d 9f 44 a9 be 1b 76 b1 be
       0.05792625 0.06148388 -0.33060166 -0.3466042
000320 05 44 25 3e ed 0b 99 be 50 77 9a be 39 c3 07 be
       0.16139229 -0.2989191 -0.30169153 -0.13258065
000330 02 f8 c5 3d 81 f2 01 3d 64 c1 38 be ba aa a5 3d
       0.09666444 0.03172541 -0.18042523 0.08089204
000340 9a e9 73 3c 52 98 2b 3e 9e 12 57 3e cb df 50 3e
       0.014887238 0.16757324 0.21003196 0.2039787
000350 3c 10 55 bd 35 cd 5e 3d 64 7e 32 be 59 15 3e 3d
       -0.052017435 0.05439492 -0.17431027 0.046407077
000360 4d b5 01 3d f6 87 d0 3c 0f f9 73 3b d2 c0 02 3d
       0.031667043 0.025455456 0.0037227308 0.03192217
000370 cc a5 17 3d 02 4c d3 3c 45 bd b6 3d d4 37 26 3d
       0.03702335 0.02579308 0.08922819 0.040580586
000380 63 b8 61 3c ab 78 01 bc 6c b8 66 3c f0 b5 82 3b
       0.013776871 -0.007902305 0.014082056 0.003988974
000390 64 4c 1f bb 1e ca a4 3a be 50 3e bb aa fb 3a 3c
       -0.0024307007 0.0012572443 -0.0029039825 0.01141254
0003a0 bc e9 a0 3b 1d f1 fb bc a3 64 c2 bd 50 99 3f bd
       0.004910676 -0.03075462 -0.09491851 -0.04677707
0003b0 42 7c 6b 3c 0e 15 ae bd ac aa 89 3c e1 e5 39 3d
       0.014372887 -0.085001096 0.016805016 0.045385245
0003c0 38 af ab bd e5 ed 5d bd 17 11 42 bd d2 52 ea bb
       -0.0838303 -0.054181952 -0.04737958 -0.007150986
0003d0 da 2a a3 bb 17 a3 b9 bc 44 f7 8a bc b1 33 ff bc
       -0.0049794735 -0.022660775 -0.016963609 -0.031152578
0003e0 0e 7c 7a 3b 88 cb 76 bd b2 cc 6c bd 9e 69 3b bc
       0.0038220915 -0.060252696 -0.0578124 -0.011438755
0003f0 38 c7 cd bc a0 93 44 3c d1 da fe bb 7c 93 6c bc
       -0.025119409 0.011998087 -0.00777755 -0.01443946

cell_list.1.conv.bias f4 [32]
000000 51 80 92 3d 5f cd f4 3d e6 86 38 3e c6 54 5f 3e
       0.07153381 0.11953234 0.1802021 0.21809682
000010 28 53 36 3d 78 65 26 3d 87 8d 01 3d c0 89 24 3e
       0.044512898 0.040624112 0.03162911 0.16068172
000020 24 c1 37 be ff d5 a9 be da 02 9d bd 93 00 36 bd
       -0.17944771 -0.3317108 -0.076665595 -0.04443414
000030 ac 8d bd bd ee dc b5 bd b9 13 48 be 55 d3 eb bc
       -0.092555374 -0.088800296 -0.19538774 -0.028787294
000040 17 a7 85 3d f8 c1 1a bd 73 9e bb 3d ee 93 1f 3e
       0.065260105 -0.03778264 0.09161081 0.15583774
000050 27 32 f6 bb 06 f1 cd 3d 9e 58 30 3d dc 24 dc 3d
       -0.007513303 0.10055737 0.043053262 0.10749218
000060 65 23 8a 3c 76 ab 27 3c de 2f 3d bb 92 46 0f 3d
       0.01686258 0.010233751 -0.0028867642 0.03497941
000070 83 4e 53 bd 75 56 b5 bd 1a 4a 6c bd 4a 20 a0 3c
       -0.051588546 -0.08854381 -0.057687856 0.019546647

cell_list.2.conv.weight f4 [32, 16, 3, 3]
000000 8f a5 ac 3d 70 b0 a8 3d fa ae c5 3c 54 13 a1 3c
       0.08430015 0.08236778 0.024131287 0.019662537
000010 ed df d5 3c 67 eb bc 3d 9a 43 4e 3d 2f 69 86 bd
       0.026107753 0.09224587 0.05035744 -0.06563031
000020 36 35 c3 3d 6e 7a 44 3e 6a 3f a6 3d 1c 34 8d 3d
       0.095316336 0.19187328 0.08117564 0.06894705
000030 87 7c 33 be 27 f1 f8 bd 53 2d 84 bd d9 d8 9d bd
       -0.17527972 -0.12155371 -0.064539574 -0.07707376
000040 a2 91 32 3b 26 73 8c 3c 73 a9 90 bd 1d f6 95 3d
       0.0027247448 0.01714475 -0.0706357 0.07322333
000050 80 ca 57 3d d6 ff 85 bd fe 0b b9 bd 25 68 1f be
       0.052683353 -0.065429375 -0.090354905 -0.15567072
000060 5d 7b b0 bd 2e 63 83 bd fa ee 49 be b4 ac 98 bd
       -0.0861728 -0.064154014 -0.19720069 -0.074548155
000070 4c 83 02 be 55 a3 1d be fb 91 be bb 11 e1 b4 bd
       -0.12745398 -0.15394337 -0.005815742 -0.088319905
000080 88 98 2d b9 e0 0a 96 bc 2a 34 08 be 70 a4 04 bd
       -0.00016555388 -0.018315732 -0.13301149 -0.032383382
000090 16 b6 d1 bd 4a 62 18 be 8c f6 85 3d 17 b5 33 3e
       -0.10239808 -0.14881244 0.06541166 0.17549549
0000a0 07 ca 2e bd 4f 97 84 bd 0c b4 b9 3c 1f 40 f1 bd
       -0.042673137 -0.06474172 0.02266886 -0.11779808
0000b0 2e 75 80 be 72 88 97 3c 1c 24 12 3e 47 27 af 3d
       -0.250894 0.01849768 0.14271587 0.085524134
0000c0 cc 8b 04 bd 8d 0f 09 3d 56 f8 6a 3d e5 c6 8e bd
       -0.032359883 0.033462096 0.057365738 -0.0697153
0000d0 17 01 19 3d 31 a6 4e 3d bb 2b 49 bd f9 45 bb 3c
       0.037354555 0.05045146 -0.04911397 0.022860514
0000e0 e2 de c4 3c c8 97 cb 3d b0 fa ab 3c bf c8 3a bc
       0.02403206 0.09941059 0.02099356 -0.011400401
0000f0 34 69 d1 bd 8d 1a c6 3b c0 bd de bd c0 af bb 3c
       -0.10225144 0.0060456456 -0.10876036 0.022910953
000100 49 43 6b bd fc 87 9d bd 6d ba 26 3c b6 2b 89 bd
       -0.057437215 -0.076919526 0.010176283 -0.0669779
000110 e5 d5 9a 3b 0c cd 7d 3d e7 de df 3d 98 88 2f 3e
       0.0047252052 0.061963126 0.10931187 0.1714195
000120 1e 52 d6 3c a4 5c d5 3d 87 1b 39 3b d5 09 f7 3c
       0.026162203 0.104180604 0.0028245167 0.030156055
000130 6b 4e f8 bb a4 fd 92 3d 25 06 12 3e a0 a9 17 3d
       -0.0075777075 0.07177284 0.14260156 0.037027
000140 c9 a1 50 3d 41 fa 71 3c 61 9e 2f bd 17 cd 34 3c
       0.05093554 0.014769138 -0.04287565 0.011035225
000150 3d cc 25 bd 5b ad 2b bd a5 fb 49 bd f9 82 ae bc
       -0.04047798 -0.04191337 -0.049312253 -0.021302687
000160 73 f9 0e 3c 1b fc b8 3c 66 e4 fc bc da 31 b6 3c
       0.0087264655 0.02258115 -0.030870628 0.022240568
000170 ac f7 72 bd 07 c2 31 bc 95 c0 22 bd 81 aa f3 3c
       -0.05931823 -0.010849482 -0.03973444 0.029744389
000180 eb 48 d8 3c 72 18 2d bd bc 40 87 3d e4 ac d5 3c
       0.026401957 -0.04225964 0.06604144 0.026083417
000190 4b 3a 2c 3d a9 49 a5 bc 33 48 e1 bd a1 3c 22 bd
       0.04204778 -0.020176725 -0.11000099 -0.0396086
0001a0 1f 1b 2c 3d 5c 7b 12 bc b9 40 22 3c 70 5a be bd
       0.042018052 -0.008940544 0.009903126 -0.09294593
0001b0 ff f3 87 3d d1 61 93 3d 1f 6f 91 3c cd 7b 64 3b
       0.066383354 0.071963914 0.017753182 0.003486383
0001c0 e7 d0 b6 3b 00 6e f4 3c 95 36 0d 3b 19 e4 67 3d
       0.0055791023 0.029837608 0.0021547426 0.056614015
0001d0 ef be 28 bd 7d 2a 16 bb 05 72 e5 bd b2 54 1b bc
       -0.041197713 -0.0022913509 -0.11203388 -0.009480642
0001e0 87 67 48 be f6 52 1b be 5f b4 84 bc e8 7b fe bc
       -0.19570743 -0.15168366 -0.016199289 -0.031064942
0001f0 d8 30 40 bc 6b ec 0e 3a 0e a1 61 3d 5e 0b c7 3d
       -0.011730395 0.0005452099 0.055085234 0.09718965
000200 37 d5 57 3d 62 8c 14 3d ec a8 60 3d ab 11 72 3d
       0.052693572 0.036266692 0.054848596 0.05909888
000210 f8 7d ab bd 99 a2 a0 3c 75 d1 41 bd a2 79 52 bc
       -0.08373636 0.019608783 -0.047318894 -0.012846382
000220 38 16 ef 3c 44 54 05 3e 44 2e 1e bc c5 0b 93 bd
       0.0291854 0.13020426 -0.009654585 -0.07179979
000230 a9 f4 f4 bc 5c 52 7a 3d 43 9e 9f 3c bf 8e 82 3d
       -0.02990182 0.0611137 0.019484645 0.06374883
000240 d2 8b 1c 3c c4 bb a8 3e 21 e9 cb 3d 0c 57 81 be
       0.00955482 0.32955754 0.09956575 -0.25261724
000250 a2 b6 0d be 40 2f 24 3e ca 60 6d 3e 2d be 2a 3e
       -0.138392 0.1603365 0.23181453 0.16674109
000260 75 cc 4b 3e 4c f8 a9 bc 0f ff ba bd 82 50 4b bd
       0.19902213 -0.02074828 -0.0913068 -0.049637325
000270 a7 a4 4a be 7b 1e 58 3e 89 42 ac bd fa 47 95 bd
       -0.19789372 0.21105377 -0.08411128 -0.07289119
000280 d4 64 e2 bd 00 70 f4 3d 38 22 ae be a3 a3 7b be
       -0.11054388 0.11935425 -0.34010482 -0.24574141
000290 14 3d 88 3c 20 7c dd be 1b 5e ed bb b0 38 c2 3e
       0.016630687 -0.43258762 -0.0072438843 0.37933874
0002a0 da b6 96 be 66 ec 73 bd ef 76 a3 be f2 6e 56 be
       -0.2943638 -0.05955162 -0.31926677 -0.2094076
0002b0 29 ce 24 be 2c c8 83 be 37 78 87 be bf 82 b9 bd
       -0.16094269 -0.25738657 -0.26458904 -0.09058141
0002c0 f5 a7 c1 3d 76 93 c1 be 88 9b f2 be 45 f1 a0 bd
       0.094558634 -0.37807816 -0.47384286 -0.078585185
0002d0 43 43 ab bd 68 aa 5b be d3 d2 8e 3d 23 43 a5 bd
       -0.083624385 -0.21451724 0.06973805 -0.08069446
0002e0 48 0a 37 be 62 06 05 be 20 66 84 3e ba cb 86 3d
       -0.17875016 -0.12990716 0.25859165 0.065818265
0002f0 ef 3b 32 bd 21 45 e1 3c ea 10 7e bd 0b 29 04 ba
       -0.04351419 0.027498784 -0.06202785 -0.0005041516
000300 83 8a 07 3e ea e6 60 bc fc f6 e3 3c 58 b7 26 3d
       0.13236432 -0.013726929 0.027827732 0.040702194
000310 6f 87 2f 3e f9 b2 93 3e 97 4e 07 be 48 87 cf bd
       0.17141508 0.28847483 -0.13213573 -0.10133225
000320 38 35 22 3e 40 cb 1d 3d e9 9c ab bd f8 b8 5d be
       0.15840614 0.038523912 -0.083795376 -0.21652591
000330 0e 30 cd 3e 60 9b f4 3e 0a 07 03 bd 43 b1 6e 3e
       0.40075725 0.47774792 -0.031989135 0.23309807
000340 c0 05 6e 3e 75 91 1f 3d c3 6f 80 3e e1 1e 3d 3e
       0.23244381 0.038957078 0.25085267 0.1846881
000350 a5 a7 55 3e cd cf 7b 3d 7c c2 8f bc 4f fd 16 3e
       0.20864733 0.06147747 -0.017548792 0.14745067
000360 ac db d6 3b 5d fa 31 3c 1e a7 63 3b 37 48 65 3c
       0.0065569486 0.010862914 0.003473706 0.013994268
000370 ba 62 cc 3b 16 3d 04 bb fb a2 bf bb 56 34 1d bc
       0.006237355 -0.0020178012 -0.005848286 -0.009594997
000380 4b 3f ca bb 52 04 c2 3a 6f fd e3 ba 6c 0b b6 3b
       -0.006172096 0.0014802313 -0.0017394255 0.005555561
000390 da d3 c2 bb 86 10 84 bb ed ba 1f bc 45 d5 ed bb
       -0.005945665 -0.00403029 -0.009749156 -0.0072580897
0003a0 b0 e9 ea bb 67 26 22 bc d6 97 88 3c 52 9c 52 3d
       -0.007168971 -0.009896851 0.016673964 0.05141861
0003b0 af 59 9b 3c dd 15 22 3d de 3d 30 3d 95 82 8c 3c
       0.018963663 0.03957163 0.04302775 0.01715211
0003c0 89 9d 87 bc 70 21 04 bd 6a 8b 1e 3c be 91 bc bc
       -0.01655461 -0.03225845 0.009676794 -0.023018714
0003d0 e8 5d c5 bc 0e 37 29 bd 41 51 e5 bc ca 30 e3 bc
       -0.02409263 -0.04131227 -0.027992846 -0.027733225
0003e0 dd e3 5c bc 96 49 86 bd 6d ff 27 bd 6b 25 10 bd
       -0.013482061 -0.06557004 -0.041015077 -0.035191935
0003f0 c1 2f ea 3c 9a a3 a1 3c 0a 44 e5 b9 a9 81 30 ba
       0.028587224 0.019731332 -0.00043728977 -0.0006733188

cell_list.2.conv.bias f4 [32]
000000 4f 90 19 3e af ce 94 3d b6 e5 32 3e 86 1a 40 3e
       0.14996456 0.07265984 0.1747044 0.18760118
000010 c4 b2 d9 3d f0 64 70 3e b3 da d8 3d 58 01 63 3e
       0.106298 0.23476005 0.105885886 0.22168481
000020 10 e7 98 bd 16 6b af be 83 bc 6e bd 52 df c1 bd
       -0.07465947 -0.34261388 -0.058285248 -0.09466423
000030 8b 1b 77 be 7e 8e aa bd 08 ac 7b be 43 99 72 be
       -0.241316 -0.083279595 -0.24577343 -0.23691277
000040 78 e6 62 3b 10 dc 15 bd 0b 42 55 3e 6a c3 85 3d
       0.0034622233 -0.03658682 0.20825975 0.06531413
000050 e3 f1 9c 3c 1b 66 2c 3e 07 5f c5 bd 3a 47 97 3d
       0.01915831 0.16835825 -0.09637266 0.07386632
000060 bd 1c aa bd 6a be d3 3c 7d a6 bc bc 74 40 3a bd
       -0.08306263 0.025847632 -0.023028607 -0.045471624
000070 37 d1 c4 3d 88 20 2c 3d 7c 03 10 3b 6e 06 11 3d
       0.09610217 0.04202321 0.0021974733 0.035406522

batchnorm_list1.0.weight f4 [8]
000000 ad 4d 87 3f a5 1a 75 3f 17 87 76 3f 6e e8 80 3f
       1.057058 0.9574378 0.9629988 1.0070932
000010 93 e3 73 3f 2b 54 74 3f 6c 98 81 3f e2 fc 6f 3f
       0.95269126 0.9544093 1.012464 0.93745244

batchnorm_list1.0.bias f4 [8]
000000 d9 cd 03 38 3d 3b a4 bc c2 d8 6d 3d 3b 36 15 bc
       3.1424544e-05 -0.020047778 0.058068044 -0.009107168
000010 22 c3 84 3c 91 64 22 bc de 6a 1a 3d 4a 1f 26 3a
       0.016206328 -0.009911672 0.037699573 0.000633706

batchnorm_list1.0.running_mean f4 [8]
000000 57 8d 0b be 39 b4 83 3b 9f fc 5d bd 88 46 e8 3b
       -0.13628136 0.004019287 -0.054195996 0.007088486
000010 a5 53 74 3c 0c 1b eb bc 45 1a b3 bd d3 8b 92 3c
       0.014912521 -0.02869942 -0.08745245 0.017888939

batchnorm_list1.0.running_var f4 [8]
000000 9f f0 d9 3d d4 21 45 3b 6b 5f 97 3d 49 4e 25 3d
       0.10641598 0.0030079978 0.073912464 0.04035786
000010 49 08 59 3d b7 4d 1a 3d 58 c1 d1 3d 06 10 1e 3d
       0.052986417 0.03767177 0.102419555 0.0385895

batchnorm_list1.1.weight f4 [8]
000000 35 60 83 3f 46 a5 71 3f b3 e3 86 3f 32 63 6e 3f
       1.0263735 0.9439281 1.0538238 0.9312011
000010 56 26 74 3f c7 ae 7c 3f 83 b7 86 3f 1d e1 7f 3f
       0.95370996 0.9870419 1.0524753 0.9995287

batchnorm_list1.1.bias f4 [8]
000000 11 e3 5a bb 28 a0 9d 39 3b fc c9 3b 2b d7 d4 37
       -0.0033399502 0.000300647 0.0061641014 2.5372565e-05
000010 3f 70 fc 39 63 2f 11 bb 94 54 9f bb 59 e2 ed 3a
       0.00048148815 -0.0022153489 -0.0048623774 0.0018149122

batchnorm_list1.1.running_mean f4 [8]
000000 c7 30 0e 3d ec c1 d8 3b 39 42 5f bd e1 3f f6 3c
       0.034714486 0.006614914 -0.054506514 0.030059757
000010 08 f5 67 bd b1 69 7c bd 84 f7 29 3d 0b 26 c1 bb
       -0.056630164 -0.061624233 0.041495815 -0.0058944277

batchnorm_list1.1.running_var f4 [8]
000000 59 f3 a8 3d 06 bb a4 3c 58 d4 c4 3d 14 7b 86 3d
       0.0824954 0.020108711 0.09610814 0.06566444
000010 24 4b 73 3d 46 7c 8b 3d e9 55 bf 3d fa 79 f4 3d
       0.05939783 0.06810813 0.09342558 0.11937328

batchnorm_list1.2.weight f4 [8]
000000 7b 61 77 3f 3b 0e 68 3f 1f 41 92 3f 22 9e 8e 3f
       0.9663312 0.90646714 1.1426123 1.1142008
000010 c2 a3 82 3f 65 b5 8c 3f 46 ba 86 3f e8 43 92 3f
       1.0206225 1.0992857 1.0525596 1.1426973

batchnorm_list1.2.bias f4 [8]
000000 54 5c 29 b8 a2 5e fe 39 0f 1f 36 3a 90 31 e9 39
       -4.0378727e-05 0.00048517162 0.0006947377 0.0004447815
000010 97 af b6 b8 87 e4 c2 39 2b a3 9a b9 e4 9b 6c 39
       -8.7111424e-05 0.0003717283 -0.0002949474 0.00022564788

batchnorm_list1.2.running_mean f4 [8]
000000 e6 0e 68 3c 97 06 2b 3c 6d 97 51 bd 52 5d 11 bd
       0.014163708 0.010438583 -0.0511698 -0.035489388
000010 9c c7 94 3d 37 c5 69 3d 18 35 3d bd 3e 7c 23 3d
       0.07264635 0.057072844 -0.046193212 0.03991341

batchnorm_list1.2.running_var f4 [8]
000000 4a 08 55 3d 2f e7 23 3d 66 fc d2 3d ec c2 a4 3d
       0.05200986 0.040015396 0.103020474 0.08044991
000010 e0 27 59 3d dd e2 c8 3d 03 c0 85 3c 38 f5 94 3d
       0.053016543 0.09808896 0.01632691 0.07273334

batchnorm_list2.0.weight f4 [8]
000000 a6 db 69 3f c3 1f 3a 3f a4 73 4a 3f 9a cc 22 3f
       0.9135078 0.72704715 0.79082704 0.6359345
000010 89 f1 3d 3f a8 c1 3c 3f 24 1a 7d 3f 47 56 34 3f
       0.7419668 0.73732996 0.9886801 0.7044415

batchnorm_list2.0.bias f4 [8]
000000 9c 72 d9 3b f0 13 ce 3b 6c e7 94 3b 8b 45 24 bb
       0.006635977 0.006288998 0.004544189 -0.0025065865
000010 6a 72 29 bb 81 e7 ad 39 ca 31 68 3b d9 ce b2 b9
       -0.002585555 0.00033169615 0.0035430067 -0.0003410492

batchnorm_list2.0.running_mean f4 [8]
000000 96 a0 23 be 93 52 a1 3d d2 d9 8e 3c e3 2c 9b bd
       -0.15979227 0.07877078 0.01743785 -0.07576921
000010 72 98 a4 bd 1e ce 49 3c b1 4b a3 bd 30 fc fb 3c
       -0.08036889 0.012317209 -0.07973421 0.0307599

batchnorm_list2.0.running_var f4 [8]
000000 9f 0e 96 3f 6b 52 68 3f 3e d7 41 3f 16 ec 2f 3f
       1.1723212 0.9075076 0.7571906 0.68719614
000010 01 aa 68 3f b6 c0 22 3f 73 ac 79 3f b4 40 25 3f
       0.90884405 0.63575304 0.9752876 0.64551854

batchnorm_list2.1.weight f4 [8]
000000 03 ea 70 3f d7 45 29 3f de da 89 3f 77 cd 87 3f
       0.94107074 0.6612219 1.0769918 1.0609578
000010 c0 85 7d 3f c3 3e 8c 3f 49 40 72 3f d8 a9 8b 3f
       0.9903221 1.0956653 0.9462934 1.0911207

batchnorm_list2.1.bias f4 [8]
000000 17 7b 37 b9 81 30 a6 ba 89 55 31 ba 89 1f 88 ba
       -0.00017498095 -0.001267925 -0.000676476 -0.0010385375
000010 d2 c0 e7 38 c0 0b da b9 d5 20 96 ba b7 24 b4 b9
       0.00011050854 -0.00041588955 -0.0011453877 -0.0003435963

batchnorm_list2.1.running_mean f4 [8]
000000 53 a5 c9 3d c5 fd bf bc 55 5f 0b be 22 42 19 bc
       0.09845986 -0.023436436 -0.13610585 -0.009354146
000010 07 d3 28 be 0a 03 c6 bb a3 45 7b 3d 99 b6 4e bc
       -0.1648675 -0.0060428428 0.061345708 -0.012616777

batchnorm_list2.1.running_var f4 [8]
000000 3c 9b 9b 3f 02 bd 2d 3f 44 39 ef 3f 33 0c df 3f
       1.2156749 0.6786653 1.8689351 1.7425598
000010 84 a7 af 3f a8 17 cb 3f fc 6b a6 3f 48 03 01 40
       1.3722997 1.5866594 1.3001704 2.0158253

batchnorm_list2.2.weight f4 [8]
000000 31 e3 6f 3f 98 2c 31 3f 8f de 72 3f de 1f 7c 3f
       0.9370604 0.6920867 0.9487085 0.98486125
000010 f5 d6 5a 3f 77 66 86 3f d9 88 46 3f 63 e7 70 3f
       0.8548425 1.050002 0.7755256 0.9410307

batchnorm_list2.2.bias f4 [8]
000000 34 07 3e 35 c1 72 12 38 a7 31 d7 b7 00 fb 19 39
       7.0791e-07 3.4915985e-05 -2.5653118e-05 0.00014684722
000010 b0 59 08 ba 5c 57 7c 39 76 3a be 38 df b9 a7 b9
       -0.0005201353 0.00024065137 9.070795e-05 -0.00031991207

batchnorm_list2.2.running_mean f4 [8]
000000 82 30 c6 3d a7 68 22 bd 86 6a bd bc c0 6c 3a be
       0.09677221 -0.039650586 -0.023122083 -0.18205547
000010 eb 0e c7 3d 7e 3f a7 bc b5 29 ca 3d ef 09 19 3e
       0.09719642 -0.020416018 0.09871236 0.14945196

batchnorm_list2.2.running_var f4 [8]
000000 14 f7 b6 3f 7d c6 66 3f 33 fa ca 3f 89 15 d8 3f
       1.4294152 0.9014662 1.5857605 1.6881572
000010 67 eb af 3f 8b d0 c9 3f e8 4d a6 3f 3b 67 d6 3f
       1.3743714 1.5766767 1.2992525 1.6750253
