models/convlstm/saved_models/lr_0.0001/epoch_4000.pt (torch, 167458 bytes, 10 tensors)

encoder_1_convlstm.conv.weight f4 [48, 20, 3, 3]
00000000: fdf6 04bc d2f8 e7bd d570 553d 0abe ccbd
00000010: f049 f3bd 82f6 6abd 718a 23bd 5b5d 913c
00000020: b36d 3ebd 0b03 5abd adcc 69bd ddae 3c3c
00000030: b7c6 463d ae63 af3b 2d2b c3bc bf2c e3bd
00000040: 4260 c93c 7a4c 4fba b04f 5bbd af2b 9b3c
00000050: e3c6 08bd c842 c9bd f04b 0abd 62c7 10bd
00000060: 67c7 abbd 5920 073d 0d47 12be 31ec 66bd
00000070: 6531 57bc e4df 90ba fe6c 09be 19b6 1bbb
00000080: 342a 9bbd e02b 2cbb b9a4 9e3d 0cc1 29bd
00000090: a5a2 313d 7c90 2f3c 0ac9 16bd 0073 c5bd
000000a0: 33f7 96bd ffd4 74bc bf72 abbd 650d 89bc
000000b0: 4888 09be 10d7 9b3b 988a 143e 79f0 453d
000000c0: 9f0d 42bd aa7c 523c a670 e0bc 4a73 d83b
000000d0: a92d 833c eb8c c8bd 2e75 b8bd 00fb d0bc
000000e0: e665 853c 738b b13c 865d 6d3c d797 7c3d
000000f0: fe6a 0ebc 9491 ac3c 9346 ba3d 558b 003c
00000100: 2be5 1ebd 463d f5bb 50c8 cd3c 096d 7b3d
00000110: 2de0 3fbd a06c c63d c410 b73d ee06 5abd
00000120: 6251 d23d 9688 6f3d 5ae2 b1bc 4522 153d
00000130: 1a23 233d 2e39 f43d e8df 273d 91ee 0b3d
00000140: 7b44 683d 728a f63c 87d1 153d c184 01bd
00000150: 5d72 433d f5d4 253d 5a6b 8cbd d37c da3c
00000160: 2483 453c 06e1 3abd 967f a23b 5215 3cbd
00000170: 220b a23d de5a 563d 02e9 58bc cef2 873d
00000180: 5bf3 db3c d0a0 093d 07cc c0bc 56d0 e03b
00000190: ea5e 493d 444d 29bd 29ec a83d 40f4 6f3d
000001a0: 4d80 d13d 4aeb 3d3d e5cb b63c 402a 0a3d
000001b0: 9f9e b63c 0428 b4bc 4730 53bd 52de cabd
000001c0: 9c54 c73c f8f2 3e3d 133d 81bc 85af 22bd
000001d0: 6ff6 133e 0556 82bd 6925 b03c f06d 383d
000001e0: 2811 6bbd 7e8c 9abd 616c c7bc 56ab c1bd
000001f0: 52bd 383d ec23 183d 5d30 313d ae09 b03c
00000200: 3d7b 66bc 2064 0d3c 0005 a6bc 8073 6c3b
00000210: aecf be3c f5ed 88bc 9485 6fbd 26b0 3ebd
00000220: 7da3 fbbc c4df e0bc 3ff9 883c 1b6e 053b
00000230: 38c4 b9bc b0e8 97bd fd1c 25bd d34d c2bd
00000240: 8629 65bd 5566 373d ea17 aebc 7be7 813b
00000250: f1f4 1b3d e45d cebd 35ae b13d b64c 3fbd
00000260: 3852 66bd 50ba a03b 272e 9cbd 4d9c b7bd
00000270: 5d2c b1bd fc74 233c 41e0 b0bc 764a 46bd
00000280: 8c6c c3bc 36c8 f9bb a5c3 a4bd 44be 0b3b
00000290: f82c 2f3d 5050 21bd cfe1 aabd 44f8 e6bd
000002a0: 62e7 023d 5795 2e3d fa09 9c3c 5f2b 713d
000002b0: acf7 be3d 86f5 4e3d a98c fd3b 2278 c13d
000002c0: ebc9 98bd 27d5 733c 4f17 033e c47e 15ba
000002d0: d829 e13c aa68 f43c 4a62 73bd eb8c a0bd
000002e0: 97cc b63c c416 3f3d 3458 ca3c 3c24 eb3d
000002f0: 2337 b43d 62b5 b1bc 7534 45bd 8bfb 9f3c
00000300: 68e7 173d 508d cd3d 90d4 de3d 108c be3d
00000310: c838 383d 21e1 e63d 3f17 3a3d 2348 dcbd
00000320: b704 56bd c962 6bbd a771 953c d53d 91bd
00000330: 68b6 b43b ee02 26bc be2f 78bd 453c 52bd
00000340: 8267 863d adc2 003d 0d79 b8bc d686 71bd
00000350: 9516 513c e1cd 8c3c b8a7 093d 8983 e9bc
00000360: d1fe 6e3d 410a 66bd 46c9 47bd 5149 73bd
00000370: d426 17bd e0bc ffbd f88b aa3b b017 9cbd
00000380: d698 45be d747 a8bc 547c 083c a60c 9abd
00000390: 2b6b 8e3d cd99 ba3c 7a1d 9e3c 473c 7e3d
000003a0: 3745 32bd fa63 773d 0c21 f4bd e262 5f3d
000003b0: f1e4 353e 65c9 e43c 0d87 293e 206c 803d
000003c0: 866f b3bc 2eb5 58bc ae37 60bc d4b8 67bd
000003d0: d18a 5cbd 3a4c 903c 55fd 313c 07a6 a5bd
000003e0: 2133 033c d746 85bc 7a4b 3fbd de0a 463d
000003f0: 1fb8 8e3b ad4e 003d f112 a33d a24c ab3d
-0.008115527 -0.113267556 0.052109558 -0.099971846 -0.11879337 -0.057363994 -0.03992695 0.01774471
-0.046491336 -0.05322556 -0.05707996 0.0115163 0.048529353 0.005352459 -0.023824299 -0.11092519
0.024582032 -0.0007907819 -0.053542793 0.018941728 -0.0333928 -0.09827191 -0.033763826 -0.035346396
-0.08387642 0.032989834 -0.14284916 -0.056377593 -0.013134335 -0.0011053053 -0.13420483 -0.0023759662
-0.07576409 -0.0026271269 0.07746262 -0.04144387 0.043368 0.0107156 -0.03681282 -0.09641075
-0.07371368 -0.01494336 -0.083714955 -0.01673002 -0.13430893 0.004755862 0.14505994 0.048325036
-0.04737627 0.012847105 -0.027397465 0.0066055404 0.016012983 -0.09792503 -0.09006725 -0.025510311
0.01628394 0.02167294 0.01448763 0.061668243 -0.008692501 0.02106551 0.09095492 0.007845719
-0.03879277 -0.007484111 0.02511993 0.06138328 -0.04684465 0.09688687 0.08938745 -0.053229265
0.10269429 0.058479868 -0.021714378 0.036409635 0.039828397 0.11924969 0.040985018 0.03416306
0.056705933 0.030095313 0.036576774 -0.031620745 0.047716487 0.040486295 -0.06856413 0.026670849
0.012055192 -0.045624755 0.004959057 -0.04591877 0.0791228 0.05233275 -0.013239147 0.06638108
0.02684944 0.03360063 -0.023534788 0.006860773 0.049162783 -0.041333452 0.08248169 0.058582544
0.102295496 0.046366967 0.022314021 0.0337317 0.022292433 -0.021991737 -0.051559713 -0.099056855
0.024332337 0.04661843 -0.015776193 -0.03971817 0.14449476 -0.06364063 0.021502214 0.04502672
-0.05738941 -0.07546328 -0.024343671 -0.09456508 0.045102425 0.037143633 0.043259013 0.02148899
-0.014067468 0.008629829 -0.020266056 0.0036079586 0.023292389 -0.01671503 -0.058477 -0.046554707
-0.030717606 -0.02745045 0.016720412 0.0020359817 -0.022676572 -0.074174285 -0.04031085 -0.094875
-0.055947803 0.044775326 -0.021251637 0.003964362 0.03807539 -0.10076502 0.086758055 -0.046704017
-0.056230754 0.0049050227 -0.0762599 -0.08965359 -0.0865104 0.009976622 -0.021591308 -0.048410855
-0.02385547 -0.007622744 -0.08045129 0.0021323124 0.042767495 -0.039383233 -0.08343851 -0.11277822
0.031958945 0.04262289 0.019047726 0.058879253 0.093245834 0.05052712 0.0077377153 0.09446742
-0.07460388 0.014882362 0.1280186 -0.00057027885 0.027485773 0.029835064 -0.059419908 -0.07839378
0.022314353 0.04665257 0.024700262 0.114815205 0.08799579 -0.021692935 -0.04814573 0.019529125
0.03708592 0.10036719 0.10880387 0.093040586 0.044976026 0.11273409 0.045432325 -0.107559465
-0.05225059 -0.057467256 0.01824267 -0.07091872 0.0055149086 -0.010132534 -0.060592405 -0.05132701
0.06562711 0.031435657 -0.022518659 -0.05896648 0.012761732 0.017188014 0.033607215 -0.028505104
0.05834848 -0.056162123 -0.048775934 -0.05939609 -0.036902264 -0.12487197 0.005204674 -0.076217055
-0.19296584 -0.020542068 0.008330423 -0.07521944 0.069540344 0.022778416 0.019301165 0.062069204
-0.04352304 0.06039808 -0.11920366 0.05453766 0.17763115 0.027928064 0.16555424 0.06270623
-0.021903764 -0.01322679 -0.01368515 -0.05657275 -0.053843323 0.017614473 0.010863622 -0.08088308
0.008007796 -0.01626913 -0.04670284 0.048350208 0.004355445 0.03132503 0.07962597 0.08364226

encoder_1_convlstm.conv.bias f4 [48]
00000000: ef02 933b 431c e43d 5ec2 793d 00fe 34bd
00000010: dd6c 923d 0873 433d eb03 d13d f2c1 193d
00000020: a9c3 bb3d 5d48 d73d 4c94 c23d 624c 7e3d
00000030: b7a8 ac3d 6dc4 173d abb4 223d ea63 fb3d
00000040: e02e 053e 3f3d fd3d afc4 c43c be7f f73b
00000050: 0eba db3d 288b ac3d 7a30 5fbc 67ba d53d
00000060: e519 e83d 65ac 233d 1bbd 093d 9f82 873d
00000070: a3d2 cb3d 2b86 873d 8ff3 0b3e 3774 783d
00000080: 6145 2b3e 6881 9e3d 3ff9 c93b f6bb 173e
00000090: 275b 76bd b2a1 203b 5221 8d3d 22b8 803d
000000a0: d1ae 1abb 1371 aebd b063 83bd fb18 cebb
000000b0: 071b bcbd 43d9 a0bd 6cc0 89bd fa75 ecbc
0.0044864337 0.11138203 0.06097638 -0.044187546 0.0714967 0.047717124 0.102058254 0.037538476
0.091681786 0.10511849 0.09500942 0.062084563 0.08430617 0.03705256 0.03972308 0.122749165
0.13006163 0.123651974 0.024019567 0.00755307 0.107288465 0.084249794 -0.013622398 0.10435944
0.11333064 0.03995933 0.03362761 0.06616711 0.09952285 0.066173874 0.13667129 0.060657706
0.16725685 0.07739526 0.0061637457 0.14817795 -0.060145523 0.002451044 0.06891121 0.062851205
-0.0023602734 -0.08517661 -0.06415498 -0.006289599 -0.091848426 -0.078539394 -0.06726155 -0.02886485

encoder_2_convlstm.conv.weight f4 [48, 24, 3, 3]
00000000: 4ece c1bd c7b1 82bd 9681 ee3d 4bcc c4bd
00000010: a887 07bd 9cfa 723d 50c8 40bd 21b6 ab3c
00000020: d12f c0bd 09e7 8ebd b72f 8b3d 7d0d 3fbd
00000030: 1805 b63b dbca 5b3c dab5 133d 7a3e 64bc
00000040: 3f1b af3c 0915 89bd c4cb 78bc 6e3f 0a3d
00000050: cbcc b73c ec64 d33d f4a6 953d 7cd0 d83c
00000060: e3a4 a9bb b62d 9a3d a1b7 0c3d 7808 9fbb
00000070: cab3 e3bc cc6c f63c 4a64 963c 2b2e 553d
00000080: eb82 c13d 90b9 a3bd 0c31 58bb c7c4 29bd
00000090: 02db a7bd 7b36 e53d 424d d33d 153d d5bc
000000a0: cac8 5b3c d8b5 35bd 0206 923d e038 92bc
000000b0: 6ee5 00bc 444e 3a3c 2377 7d3b f331 dabc
000000c0: b088 cbbd 369b 87bc 8eda c4bc 8fa3 4dbd
000000d0: 8363 f0bd e99d 58bd c708 333d 1cfd f0bc
000000e0: f69a 65bd e998 bdbd bbfa 81bd a329 e8bc
000000f0: 3e26 8fbd a503 bc3a 8ed3 87bd e50e 79bd
00000100: 7365 81bc af73 953c 9159 3abb ca12 90bd
00000110: 4f50 c83c f090 4cbc 1617 ba3b 8368 913c
00000120: 3867 5d39 506b 4b3d c3a5 8ebd c57c 11bd
00000130: fcce c5bd 01f7 d9bc 9401 de3c 082e c9bd
00000140: 00ba 22bd 4ff5 ea3d f374 a63d 3995 c1bc
00000150: da81 39bd 78d5 4bbd de9f 48bc 088e 493c
00000160: 2f67 4a3d 1e1f 5f3d b52a 943d 3203 833d
00000170: 9154 193d ffcb 353e e7f2 6f3c 9aad 3bbd
00000180: 33b5 073e 65e5 823d 10bf 073e 47a5 a4bb
00000190: 2c31 303d 6bbd 263c ccfc 413d 1799 6f3d
000001a0: 6dd0 b93c 4526 883d 6bd5 2bbd 53be 4d3c
000001b0: 141a 12bd 1db6 25bd 93a7 5b3d 09bf 3cbd
000001c0: a55f d1bc f526 a73c b26f cb3d 6dd4 8fbc
000001d0: 24c7 2cbb 8293 11bd 51f5 03bd 7981 45bd
000001e0: 3a88 7c3d 7f4c ea3d d76d 84bc 233e 01bc
000001f0: 339c 393d 3606 6b3c 1613 763d f63c 433e
00000200: cf35 a13c 7eae 393e 1eaf 293e 17a6 b93d
00000210: ecea 813d 0fa1 863d a457 28bd 0ee0 a83c
00000220: b007 b63d f6b6 893c b5e5 163e ca9c 163e
00000230: 6d41 963d 0336 ea3d bc78 033e f590 4a3d
00000240: cbe3 7fbd c666 12be 712a bdbd 568d 46bd
00000250: f76c 60bd c802 0bbe dce4 a3bd 002b ebbd
00000260: c219 40bd 8079 cf3d f14a 1a3e d0fa ae3d
00000270: 46cd 953d 1076 393e 6df2 463e e026 c43d
00000280: 7f5a 2b3e 6c16 3f3e 91c4 043e d454 b83d
00000290: 1270 f2bc 6c0b 543d ed8f 893d 5a0d 9bbd
000002a0: 5e2b 8e3c 6679 6bbc 14fb 563d ae81 623c
000002b0: 972d e8bc ce7e 113b 7a0a a6bc 4b84 8e3d
000002c0: 8e3a 053e 3c65 5a3b ee46 a23d 96b2 0c3e
000002d0: f576 b43d 98e9 75bb 8a48 e33c 1192 813b
000002e0: 6a14 88bc 3ba6 2cbd 52cb 463d 776b 66bc
000002f0: 725b 2a3d 14d5 2abc 465b 31bc 3515 90bc
00000300: 1034 673b c8c9 b83d 83f0 2e3d 4a43 173c
00000310: 57b5 fa3d 2caa 123e cf2a 7c3d abb4 d53d
00000320: 65b1 233d 5b7a 0f3e de43 ce3d 53a2 383e
00000330: 4466 763c f5e4 a03d 4589 063e 56d2 c23c
00000340: ed81 4c3d 2747 f73d e135 db3c af85 103e
00000350: 0e54 3b3e 5b46 453c dea2 b33d 9480 043e
00000360: 48d9 d63d 47e8 9eba c45c d93d 3b6c 873d
00000370: 24f8 a63c c457 373d b786 7b3c 5e6c a7bc
00000380: fbd9 193c d4bf 7b3d b713 8e3d 7292 273e
00000390: 2335 06bd edab 823d 7960 0f3e da46 8a3d
000003a0: dd84 81bc 7124 b53d 46c5 963d 3aaa 1f3e
000003b0: 4029 3a3e 3f88 dc3d 91d8 9d3c 080d ea3c
000003c0: 8d23 c03c b6d9 983d e21b 0a3e 274c 423c
000003d0: 0d10 1d3d 57cb 723c a222 0fbd 55ed 973c
000003e0: cddf ef3d 1ebc 8b3b d3bb b43d 4a8f 9dbd
000003f0: d0f1 0b3d d2b5 efbd d694 e1bc d13e e6bd
-0.094631776 -0.063815646 0.1164581 -0.09609278 -0.033088356 0.05932103 -0.047066033 0.02096087
-0.0938412 -0.0697766 0.0679621 -0.046643723 0.0055548064 0.013415064 0.0360621 -0.013930911
0.021375297 -0.06693465 -0.0151853 0.033751898 0.02243652 0.10321984 0.073072344 0.0264666
-0.0051771267 0.0752825 0.03435481 -0.0048533045 -0.027795691 0.030081175 0.018358368 0.052045982
0.09448799 -0.079943776 -0.0032988219 -0.041447427 -0.08196069 0.11192032 0.1031747 -0.026030103
0.013414571 -0.044362873 0.07130052 -0.017849386 -0.0078672 0.011371199 0.0038675747 -0.026635146
-0.099381804 -0.016553503 -0.024029996 -0.05020481 -0.1173773 -0.05288497 0.043709543 -0.029417567
-0.056055985 -0.09257681 -0.06346651 -0.028340166 -0.06989716 0.0014344348 -0.06632148 -0.06080522
-0.015795445 0.018243639 -0.0028434733 -0.07034834 0.024452357 -0.012485728 0.0056790216 0.01775003
0.00021114654 0.049662888 -0.0696521 -0.03551938 -0.0965862 -0.026607038 0.027100362 -0.09823233
-0.039728165 0.1147257 0.08127775 -0.023630725 -0.04528985 -0.049764127 -0.012245147 0.012301929
0.04941481 0.054473035 0.07234708 0.06397094 0.037434164 0.177536 0.014645315 -0.045819856
0.13252716 0.0639141 0.13256478 -0.0050245854 0.043015644 0.010176997 0.047360227 0.058495607
0.022682393 0.06647924 -0.041951578 0.012557584 -0.0356694 -0.04045688 0.053626608 -0.046080623
-0.025558302 0.020404318 0.099334136 -0.017557347 -0.0026363814 -0.035541065 -0.032216374 -0.048219178
0.061653353 0.11440372 -0.016165657 -0.00788835 0.04531498 0.0143447425 0.060076796 0.19066224
0.019678978 0.1813297 0.16570708 0.09064882 0.06343636 0.06573688 -0.041099206 0.02061465
0.08888185 0.016810875 0.14736064 0.14708248 0.07336698 0.11436083 0.12839025 0.049454648
-0.0624731 -0.14297017 -0.09236611 -0.048474632 -0.054791417 -0.1357528 -0.08002636 -0.11482811
-0.046899565 0.10130596 0.1506765 0.085439324 0.073145434 0.18111444 0.19428416 0.09577727
0.1673374 0.18660897 0.12965609 0.09000555 -0.029594455 0.051768705 0.06716905 -0.07570906
0.017354663 -0.014372205 0.05248554 0.013824863 -0.028342051 0.0022200826 -0.020268667 0.06958827
0.13010618 0.00333245 0.07923685 0.1374 0.08811752 -0.0037523266 0.02774455 0.00395418
-0.016611297 -0.042150717 0.048533745 -0.014063708 0.041591115 -0.010426778 -0.010824984 -0.017588237
0.0035278834 0.09022862 0.04270984 0.009232352 0.12241619 0.14322728 0.061564263 0.1043485
0.0399641 0.14011519 0.100715384 0.18030672 0.01503903 0.0785617 0.13138302 0.023781937
0.049928594 0.12074118 0.02675909 0.14113496 0.18293783 0.0120407 0.08771299 0.12939674
0.10490662 -0.0012123667 0.10613397 0.0661244 0.020381995 0.044761434 0.015351943 -0.020437416
0.0093903495 0.06146224 0.06937354 0.16364458 -0.03276552 0.063804485 0.14001645 0.06751795
-0.015810424 0.08844841 0.07361846 0.1559228 0.18179798 0.107681744 0.019268306 0.028570667
0.023454452 0.074634 0.13487199 0.011858976 0.038345385 0.014818988 -0.034945138 0.018545786
0.117126085 0.0042643687 0.08824887 -0.07693346 0.034166157 -0.11704601 -0.02753679 -0.1124245

encoder_2_convlstm.conv.bias f4 [48]
00000000: 16d3 073e 8d92 cc3d 216a 4e3d 4faf 943d
00000010: 2946 dbbb 1c07 9a3d 1580 073e c9a5 013e
00000020: 9149 a63d 5b4d 383d 8997 f33c c11e a63d
00000030: 824e 633d fbf1 703d 1ac8 6b3d db4a 4a3d
00000040: cca0 c93d 33bd 003e c7d9 d13d 2d62 d33d
00000050: 34af 983d e38d 363d 7f3d a73d 17f7 7c3d
00000060: fbc4 443d b30b e83d 63bb 393e 4f3c b03d
00000070: 2e44 063d 59aa 183e 31a2 073e 8620 0c3e
00000080: 6f26 9d3c dad1 f73c 763f 213e 431f f93d
00000090: 08d1 1bbd 2603 483d 2f66 e43c b19e 303c
000000a0: 9c11 9abd f6dd 223d 9ca7 58bd 3b4d 8bbc
000000b0: f849 2d3b 9d78 a1bc 0f81 633d 9a5c 743d
0.13264117 0.0998889 0.05039418 0.0726 -0.0066917134 0.07520887 0.13232453 0.12660898
0.081195004 0.044995647 0.029735344 0.081113346 0.055494793 0.05882452 0.05756388 0.049387794
0.09845123 0.12572174 0.10246616 0.1032146 0.07455292 0.044568907 0.08166026 0.06175908
0.048039418 0.113303564 0.18137889 0.08605253 0.032779865 0.14908732 0.13245465 0.13684282
0.019183366 0.030251432 0.15746865 0.12164166 -0.038041145 0.048831128 0.027880756 0.0107800225
-0.0752289 0.03976246 -0.05289422 -0.0170046 0.0026441794 -0.019710833 0.055543 0.059658624

decoder_1_convlstm.conv.weight f4 [48, 24, 3, 3]
00000000: 52fe fd3d 92e5 dc3d 5216 2e3e 8de8 5b3e
00000010: a65d 2a3e 4235 b63d 64fe 8f3e afaa 143e
00000020: 86c7 95bd 7e70 083e 824d 0e3e 852a 123e
00000030: 5365 223e 81df 103e 12d0 5d3d 7c6e 69bc
00000040: 85d1 3a3e c33c b83d 359d 8abc bd36 533d
00000050: e1e2 e73d 5bcf 853c 1275 6f3e 0fd7 e5bc
00000060: 1342 a43d 40b4 543e 173f 9a3c 1089 483e
00000070: b6f7 d83d 577d dd3d ca3f 8d3e ac23 b23d
00000080: d0b8 563d 5575 893e 9838 2e3e c5f1 dcbc
00000090: dba9 68be 2eb5 f9bd b135 83be 73e3 49be
000000a0: c1dd 3bbe 62f3 65be 4c7d 44be 4989 c8be
000000b0: 6e69 a4be e493 263e e919 e13d 4aed 963d
000000c0: 0825 263e 47ec 1c3e 4f61 083e c0ea 4b3e
000000d0: f066 1f3e c7d1 623e 1ea2 b4bd 97be b83d
000000e0: 68fa fe3b 2b40 803d c6fb b03d 65fc 8b3c
000000f0: 7beb 693e fdac fb3d 65cb ca3d f4ec 433d
00000100: 8ae3 bc3d 8a46 b83d 3c61 9d3d c81c 783d
00000110: ee44 2a3e e440 ed3d ab56 b23d e68b 9a3e
00000120: 6070 88bd c6d0 0bbd 8826 75bc 9580 5abd
00000130: c30b 8abe ec1c 9dbc 65c8 4ebd 13e5 b9bd
00000140: 504f 8f3d a906 ca3d 0884 843d 3412 563e
00000150: 745d 823d 06bf e73c 2b16 413e dd7b 753e
00000160: 74a8 2e3e 0fa6 0e3e 5b86 003e bc66 403e
00000170: bf79 cc3d f611 063e 4da7 d03d 53e3 a23d
00000180: 6be4 013e bf02 0d3e 1bf6 4d3e 1ce2 a63d
00000190: 5901 0dbc 00a0 723e c938 033e 5203 de3d
000001a0: 3424 2e3d 370e 083e 22db 633e 4bc8 953e
000001b0: b198 e43d 190b 8d3c 02f5 7939 e9b4 2dbc
000001c0: f989 a03c d1b8 d63d 24fd dc3a e9bf 603c
000001d0: ccce 6f3d 8338 373d ef30 86bd c4f2 42bd
000001e0: dbc7 db3c 8ce2 c9bc 617d 833d 46ec fb3b
000001f0: 2e79 58bd e1a7 f33c 6f0f 28bb 0a2a bfbd
00000200: 974d 7a3d 33ed 91bd 5d83 89bd d327 853d
00000210: c2ec a8be a667 a0be afbd ad3c a07c eabc
00000220: 484c 793c 5cbc 693d 8645 043d 2ae8 cfbc
00000230: cc37 a439 75c6 193e db3e 69bd 2051 2dbd
00000240: ab23 333c 6d48 87bd f4a7 143d 9e86 cebd
00000250: a747 453c a727 5d3d 29e6 b9bd 5ce1 7dbd
00000260: 5158 2c3d 0687 513c 1908 973d 3f4c 00bd
00000270: 1931 17bd f7f6 86bd 70e0 1bbd 569b 88bc
00000280: d498 68bd a98b d73d a834 883b c1ce 7fbd
00000290: 838a 703c 4073 c4ba 768f 643e cde0 c33c
000002a0: 7822 ff3d 04b6 343e 3f07 f6bc c61a d13d
000002b0: 32fb 2e3d c759 aabc eab1 efbc 9ab3 e83d
000002c0: 8b3d b7bc df3c bb3c 6736 08bc 38b8 543d
000002d0: 55e8 dc3c 0ab1 353d bca9 57bd e4d6 64bc
000002e0: c6d5 773d 891a 2a3d 8874 88bc fcb9 e73d
000002f0: bb30 e53c f34a 3b3d acd6 a43d 0a20 adbb
00000300: 3306 16bc a5b3 efbc a489 7ebc 4956 46bc
00000310: 3cbb 32be c77d 04be aa8d 7b3d 0465 a23d
00000320: fe5c 77bd 976a 883d f1bb ca3d 992e 6fbd
00000330: b960 263b 2f4c c43d c51f b23c 77eb b0bb
00000340: 8f7f c03d d4ef e63c 91d3 7d3b bbea a3be
00000350: 0de2 2a3d 864f 1abe dc30 babd cb01 803d
00000360: 8bd9 263e 8dbf b03e 21f0 5b3e 5c10 653e
00000370: de2f b53e 0a1d 4d3e a25e 343e 71d5 003e
00000380: b1c3 303e 6731 b53c 7609 b83e 4a4a cd3e
00000390: e2e7 743e 6858 913e 978f 733e 4424 2e3e
000003a0: fae9 3f3e 1892 463d 0c42 a1bc b541 47bd
000003b0: 473b 2bbc c8dc 8d3d 8674 063d 1f14 a73d
000003c0: 7cf8 2f3d 37d6 9a3c 75be 0f3d eb1e ebbd
000003d0: 6c11 2cbe 41ed af3d 2a18 163d a3db 683e
000003e0: f3fb 5b3e 22f7 4e3e 5787 4a3e dea2 293e
000003f0: cf38 39be 0261 99bb 3bad 6e3c 9618 95be
0.124020234 0.107859746 0.17000702 0.2147543 0.16637287 0.08896877 0.28123772 0.14518236
-0.07313447 0.13324162 0.13896754 0.14274032 0.15858965 0.1414776 0.05415351 -0.014247533
0.18243988 0.089959644 -0.016920665 0.051565874 0.113225706 0.016334226 0.23384503 -0.02805665
0.08020415 0.20771885 0.018828912 0.19583535 0.10594122 0.10814922 0.2758773 0.0869821
0.052422345 0.2684733 0.17013776 -0.026970753 -0.22721045 -0.121927604 -0.256269 -0.19715671
-0.18346311 -0.22456124 -0.19188422 -0.3916724 -0.32111686 0.16267353 0.1099127 0.07369478
0.16225064 0.15324508 0.1331837 0.19913769 0.15566611 0.22150336 -0.08819984 0.09020727
0.0077813156 0.06262239 0.08641772 0.017088125 0.22843735 0.12288854 0.09902076 0.047833398
0.09223087 0.08997829 0.076845616 0.060574323 0.16627857 0.115846425 0.08707937 0.3018486
-0.06662059 -0.03413465 -0.0149628 -0.05334528 -0.26962098 -0.01917883 -0.05048408 -0.090768956
0.069975495 0.098645516 0.064704955 0.20905381 0.06365481 0.02828933 0.18856113 0.23973031
0.17056447 0.13930534 0.12551253 0.1878919 0.09984159 0.13092789 0.1018816 0.07953515
0.12684791 0.13770579 0.20113413 0.08148596 -0.008606278 0.23693848 0.1281463 0.10840477
0.042514995 0.13286673 0.22251561 0.29254374 0.11161936 0.017217206 0.00023837763 -0.010602214
0.01959704 0.1048447 0.001686011 0.01371763 0.058546826 0.04473163 -0.06552302 -0.0475948
0.026828697 -0.024644159 0.064203985 0.007688078 -0.05284994 0.029743137 -0.0025643965 -0.0933419
0.06110915 -0.0712532 -0.06714509 0.065017365 -0.32993132 -0.31329077 0.021208612 -0.028623879
0.015215941 0.0570644 0.032292865 -0.02537926 0.0003132209 0.15017112 -0.05694471 -0.042313695
0.010933797 -0.06605611 0.036292985 -0.1008427 0.012041009 0.053992894 -0.09077103 -0.061982498
0.042076413 0.01278854 0.073745914 -0.031322714 -0.036912058 -0.065900736 -0.038055837 -0.016675632
-0.056786373 0.10524685 0.0041566677 -0.062453035 0.014681461 -0.001498796 0.22320351 0.023910904
0.12457746 0.17647558 -0.030032752 0.10210185 0.042720027 -0.020794762 -0.02925964 0.11362381
-0.022368213 0.022856174 -0.008313752 0.051933497 0.026966253 0.04435829 -0.052652106 -0.01396725
0.060506605 0.041529212 -0.016657129 0.113147706 0.027977338 0.045725774 0.08048758 -0.0052833604
-0.009156751 -0.029260466 -0.015535746 -0.012105533 -0.17454237 -0.12938605 0.0614144 0.079294235
-0.06039142 0.066609554 0.09899128 -0.05839405 0.002538724 0.09584843 0.021743665 -0.0053991633
0.0939933 0.02819053 0.003873084 -0.32015023 0.041719485 -0.15069398 -0.090913504 0.06250342
0.16293924 0.34521142 0.2147832 0.22369522 0.35388082 0.20030609 0.17614225 0.12581421
0.1726215 0.022118283 0.35944718 0.4009574 0.23916581 0.2838776 0.23785244 0.17006022
0.18741599 0.04847917 -0.019684814 -0.048646647 -0.010451145 0.06926876 0.03282597 0.08158135
0.042961583 0.018900974 0.035093743 -0.114805065 -0.16803521 0.085901745 0.03664414 0.22740035
0.2148283 0.20211461 0.1977819 0.16566035 -0.18088077 -0.0046807537 0.014567669 -0.2912032

decoder_1_convlstm.conv.bias f4 [48]
00000000: 52fa c43d ec87 093e 091f 0e3e e014 0e3d
00000010: 4885 313e e6bc a63c 7d53 243e 5483 133d
00000020: 3248 da3d 51e2 a93d 7db6 153e e39c 103e
00000030: 4541 cabc 0c41 64bb 2a78 e0bc 12e4 2ebd
00000040: 603f 813d d1bd 453c 0055 623d ef07 71bd
00000050: 0d31 b23d 5006 a93d 6fec 723b 4237 ea3d
00000060: 6b93 113e 70a4 623e d995 6b3e 3a63 3d3d
00000070: dc4d cd3d e593 303e abfb 9b3d 9383 ec3c
00000080: e0f2 b73d e1ab 5c3d 3ef2 023e 75d2 703d
00000090: 46cf 2d3d 822e 8a3d ad13 30bc ce2d 1f3d
000000a0: 8d90 6d3d ecd4 d8bc 7bde 5e3d 5b47 d2bd
000000b0: bae6 c0bd 5a69 66bc 4ebe 24bc ad7d 68bc
0.09618057 0.13430756 0.13879026 0.034687877 0.17335999 0.020353746 0.16047473 0.036013916
0.106583014 0.082951196 0.14620395 0.14122348 -0.024689326 -0.003482881 -0.027401049 -0.042697974
0.06310916 0.012069182 0.055256844 -0.058845457 0.08700762 0.08253157 0.0037067195 0.11436321
0.14216392 0.2213304 0.23006381 0.046237208 0.10024616 0.17243917 0.07616361 0.028871333
0.089818716 0.053874854 0.1278772 0.058794457 0.042434 0.06747152 -0.010746879 0.038862042
0.057999182 -0.026468717 0.054411393 -0.10267516 -0.094190076 -0.014063204 -0.010055138 -0.01419012

decoder_2_convlstm.conv.weight f4 [48, 24, 3, 3]
00000000: 759d 273d e303 453e 58bc 823e 82ca 25be
00000010: dc05 2fbc 5a1f dc3c 49ce 25bc 693d 4a3e
00000020: c6e0 11be fdfc 863e c577 a03e fb41 8a3e
00000030: af35 8d3c e370 5a3e b9f6 643e 1cde bdbd
00000040: 9dac 9e3d 6d45 de3d f573 1b3b 60b9 3b3e
00000050: 245f f1bd 74b5 55be e7e1 9cbe ee99 2dbf
00000060: 0132 a7be 950f 58bf 6a17 f5bd f079 2a3e
00000070: 5ace f2bc 0131 c53d 3df6 bd3e b298 fc3e
00000080: 3dae c63e 5e3c d13e 3ff9 fb3e cda0 04be
00000090: d863 bf3e be1c ef3e 341c e33e 1e96 553d
000000a0: 25ab 843e c6db 4b3e c989 cbbd 56f9 7f3d
000000b0: 1825 c03d 3ef7 253e cdd3 9a3e 7913 5a3e
000000c0: 7ef8 403d 7077 ff3e d6ca 4cbe 9fa3 6d3e
000000d0: 004f 7e3e 80f0 04be 2d3b 1cbd a6de e8bd
000000e0: bc20 55be ea59 4c3d fa95 b9be 5905 043f
000000f0: 04ec 87bd d23a 8b3e e919 393f af8a 30bd
00000100: fdde 73be 2958 77be ae57 d83d 888f 00bd
00000110: e4dd 10be 11d1 4c3e c69f c3bc d93b 59bd
00000120: b1c1 6cbd 0108 2fbe f55e 8cbe 8886 833c
00000130: 35a0 ecbd d534 17be 79e6 2d3e fceb 6bbd
00000140: 5f28 4ebc fb57 95be de80 d0be d116 a7be
00000150: 4720 df3d dff1 17be 13ec 52be 8033 0a3e
00000160: 803a cbbd 6059 6ebe 9cd8 8cbd 4686 7fbe
00000170: 9b6d 1abe 13a8 323d 2c59 99bc 5fb8 10be
00000180: f3ae 1c3e fbbb 2e3d e1ee bfbe 9b00 8f3d
00000190: f405 913e d6fb 593e 1885 9fbd 9c65 173d
000001a0: dc04 40be 4123 87be 9214 18be fab2 15bf
000001b0: 84ee e4bc 8df8 22be aafe 1ebd c75d 38bd
000001c0: bf05 1cbe 6f0f 2abe 1b8b b5be 1494 8cbe
000001d0: 9868 48bd 051a 03be 7332 42be dc72 09be
000001e0: 7e7e b8bc 0775 1ebe aa8c 50be 3a4c 88be
000001f0: 9b41 85be 8843 5fbe 8657 a0bc c95d 04bc
00000200: 7dd7 a4ba 7453 95bb 136f 743d 8888 613e
00000210: f80b cebd 1cb8 57bc 7754 273c 95ed 1d3e
00000220: 1ff2 c83d f67d 8d3d 330f 76be c727 94be
00000230: 8eed aabe 59d0 583c db83 71bd 1757 87be
00000240: 8fee a73c 334d d63d 3532 633d e0f0 b23b
00000250: 20eb 0ebc 797b 0d3e 9b85 bf3d 0149 623e
00000260: ae93 353e 6e16 7bbd 89b1 563b c547 073b
00000270: 0fb0 103d 89a2 023e a0e9 8c3d 1065 083c
00000280: c212 1b3d e0ec 883e 76ae bdbd 14af dc3b
00000290: a923 71bd faf5 a53c 0116 b13d 89c5 173e
000002a0: ec9f c5bd 463c 1dbd d76f d33d 9e12 04be
000002b0: 70fd 6fbd 0172 103c 0c14 853e a0dd 883e
000002c0: b0f4 8c3e e933 c2bd 0b23 19bd 0dcd 903e
000002d0: 0893 31bd ab23 863d ffec a33d 4675 403e
000002e0: ded7 683e e06c 8a3e 65c1 b93e 582d 493e
000002f0: 6846 903e b188 9dbd 4142 b7bc f9e0 77bd
00000300: cda6 28be 23a9 48be bf79 0dbe 263d 93be
00000310: a776 37be c94f 1abe ac5c 9fbd ddb7 54bc
00000320: 6530 d63b 87a8 743d 5622 1a3e 59e5 2e3e
00000330: b877 56bd 24fb bcbb 52f4 453e 6c66 133e
00000340: 554d 033e 01ef 4a3d de16 203e 1e26 963d
00000350: 00da e03d 2c0f 323e 2abd 8a3e b374 553e
00000360: 70b1 be3c d7b5 eb3d b629 d33d 7786 083e
00000370: 6131 c53e 4310 9c3e f75a b73e 0976 c33e
00000380: df2a c73e 65df c63e ca9e d63e 958c f13e
00000390: 4842 b33e 06f5 d43e 8dd1 cc3e e92f 943e
000003a0: 9530 963e 46a4 653e 219c 9abe a839 a5be
000003b0: 2ee0 90be 7845 6a3e 6fb9 5cbd fe6d b8be
000003c0: 5ea7 c63d 8350 803d 42fa 27bd 3922 643e
000003d0: ab62 5b3e 1792 4a3e 91bc 86bd 1689 92bd
000003e0: fcc1 b73d 82a4 fdbc ca45 3c3d dd42 ec3d
000003f0: 0056 993e 7407 bf3e 1a4f f43e 20b6 273e
0.040921647 0.19239764 0.2553432 -0.16190532 -0.010682549 0.026870418 -0.010119983 0.19749989
-0.142459 0.2636489 0.31341377 0.27003464 0.017237512 0.21332125 0.22359742 -0.092708796
0.07747767 0.10853086 0.0023720239 0.18332434 -0.11785725 -0.2087 -0.306411 -0.67813003
-0.32655337 -0.84398776 -0.119673565 0.16648078 -0.029639412 0.096284874 0.37101927 0.49335247
0.38804808 0.4086637 0.49213597 -0.12951966 0.37380862 0.46701616 0.44357455 0.052145116
0.25911823 0.19908056 -0.0993839 0.062493645 0.09382075 0.16207597 0.30239716 0.2129649
0.04711198 0.4989581 -0.19999251 0.23206948 0.24834824 -0.12982368 -0.038142372 -0.11370592
-0.20813268 0.049890436 -0.36247236 0.5157066 -0.06636813 0.27193314 0.7230516 -0.04310101
-0.23815532 -0.24154724 0.105635986 -0.031386882 -0.14147145 0.20001628 -0.023879897 -0.05303559
-0.057801906 -0.17092897 -0.27416196 0.01605536 -0.115539946 -0.14766248 0.1698245 -0.0575981
-0.012582867 -0.29168686 -0.40723318 -0.32634595 0.10894828 -0.1483836 -0.20597868 0.13496208
-0.09923267 -0.23276281 -0.068772525 -0.24953565 -0.15080874 0.04361732 -0.018719278 -0.14132832
0.15301113 0.04265974 -0.37486938 0.06982537 0.28324854 0.21287474 -0.077890575 0.036962137
-0.18751854 -0.26394084 -0.14851597 -0.5847622 -0.027945764 -0.15915127 -0.038817085 -0.045011308
-0.15236567 -0.1660745 -0.35457692 -0.27456725 -0.048927873 -0.12802894 -0.18964557 -0.13422722
-0.022521254 -0.1547433 -0.20366159 -0.26620656 -0.26026616 -0.21803105 -0.019572984 -0.008079001
-0.0012576428 -0.0045570675 0.05967624 0.22024739 -0.100608766 -0.013166454 0.010213009 0.15422662
0.09811806 0.06908791 -0.24029236 -0.28936598 -0.33384365 0.013233268 -0.058963638 -0.26433632
0.020499496 0.10463943 0.055467803 0.0054608434 -0.00872305 0.13816632 0.09351655 0.22098161
0.17732117 -0.061300687 0.0032759628 0.0020642143 0.035324153 0.12757315 0.06880498 0.008324876
0.037859686 0.2674322 -0.092617914 0.006734738 -0.0588719 0.020258892 0.08646775 0.14821447
-0.09649643 -0.03838756 0.10324066 -0.12897727 -0.058591306 0.008816243 0.25991857 0.26731586
0.27530432 -0.09482557 -0.037386935 0.2828144 -0.04335311 0.06549772 0.08004188 0.18794736
0.22738597 0.2703619 0.3628036 0.19646204 0.28178716 -0.076920874 -0.02237046 -0.060517285
-0.1646988 -0.1959577 -0.13815974 -0.2875759 -0.17916356 -0.15069498 -0.07781348 -0.01298329
0.006536531 0.059731033 0.1505216 0.17079677 -0.052360266 -0.005767243 0.19331482 0.1439454
0.12822469 0.049544338 0.15633723 0.07331489 0.1097908 0.173886 0.27097446 0.20845298
0.023277968 0.115092926 0.1031069 0.13332544 0.38514236 0.30481157 0.35811588 0.3817599
0.38899896 0.38842312 0.4191802 0.47177568 0.35011506 0.41593188 0.40003625 0.28942803
0.2933394 0.22425947 -0.30197242 -0.3227055 -0.28296036 0.22878063 -0.05388778 -0.36021417
0.096998915 0.062653564 -0.04101015 0.2227868 0.21424358 0.19782291 -0.06578935 -0.07155053
0.089725465 -0.030962233 0.045964994 0.11536191 0.29948425 0.37310374 0.477166 0.16378069

decoder_2_convlstm.conv.bias f4 [48]
00000000: 572e e339 fb87 223e f85a b33d e702 af3c
00000010: bce0 1dbb 3632 203d 550c 1d3e 1f93 51bd
00000020: d04f a13d 7705 8d3d a84f a53e 286e 0abd
00000030: 3346 bb3d 871d 3c3d 1cc5 f9bb 98bf 033e
00000040: 66de 8e3d aa3e 6a3c 886a 083e 5c53 cb3c
00000050: ed9f c13d 1eef c63d 8057 803d bae2 523d
00000060: 80a4 3a3e 3e4e e93d 093c f03d 0c04 083e
00000070: 4254 b03d be9b b93d 2f90 073e 156f f63d
00000080: 2104 673e 46a8 3d3d 51b6 563e 1aa2 163e
00000090: 530d 4e3d 2829 583d b156 823d 2b4c 643c
000000a0: c5e3 adbc 67da d73c cbed 873d bdbe 753c
000000b0: 8f3f 15bd d807 513d 698b 83bc 50cd a93d
0.0004333134 0.15872185 0.08757585 0.021363689 -0.002409025 0.039110385 0.15336736 -0.051165696
0.07876551 0.06885808 0.32287335 -0.03379646 0.09144249 0.045926597 -0.007622374 0.12866056
0.06976013 0.014297167 0.13321888 0.024820022 0.094543315 0.09713577 0.06266689 0.051485755
0.18226814 0.11391877 0.11730201 0.13282794 0.08609821 0.090629086 0.13238595 0.12032906
0.22560169 0.046303056 0.20967986 0.14710274 0.050305676 0.052773625 0.06364191 0.0139341755
-0.021226773 0.02634926 0.06637152 0.014999089 -0.036437567 0.05103287 -0.016057687 0.082911134

decoder_CNN.weight f4 [8, 12, 1, 3, 3]
00000000: 097d c43f 4e3b 03be faec cd3f a081 4d3c
00000010: 1300 17bf 6ef7 0cbf d1d0 b7bd a896 8c3f
00000020: f992 f83d c314 dcbf 0daa a5be 893e c83f
00000030: 9ae5 38bf c57d cfbf 024c a7be 050e 803e
00000040: 12e4 93be 5724 05bf 2c56 133f 6c63 f83e
00000050: f727 423f 7e28 e93d c311 fa3e 0721 9f3d
00000060: bc3d 803c a87b 7bbd 1188 083f d00b 21bf
00000070: 142f cc3e f101 713d 2e7d 2fbf 00fe 933f
00000080: dd55 823f 81c9 c43f bf2b 20be 46fd c2bc
00000090: 1476 e33c a69c d63f a138 593f 4a60 b33f
000000a0: 735e 5c3f 50a5 d63f 3d55 0440 2fd1 853f
000000b0: f499 893f 674b 89bf eaaa 5c3f d407 bfbf
000000c0: 4987 b3bc 13e1 dd3e 694c 9ebf 3cc1 00bf
000000d0: 38b1 233f 4b72 b93e a1d4 6dbf ec9d 743e
000000e0: 6da5 3d3e 918c 57bf a1c7 5bbe 619c a5bf
000000f0: 8ed4 21bd 38de 183f 7bbb 8a3e 08b8 f9be
00000100: 7849 2bbf 814b e3be 0bb1 f3be fe9e 09bf
00000110: 7136 0bbf aae9 98bf 8937 5cbe 2493 103e
00000120: 3d64 e83e a3ab 20be e9ee 45be e2a3 74bf
00000130: a551 95be 85a9 923e 92a0 313e f647 90bf
00000140: 06c1 f1bf 7666 f33d 8957 ac3e 9fb7 003e
00000150: a423 c3be 8559 763f cf62 863f d9e6 b9bd
00000160: 0f79 053f daab 7b3e 1693 2abf ef56 0f3d
00000170: 27f8 97bf 3ac8 17bf 22cb eebd 2152 3ebf
00000180: b37e 48bf 217a 93bf 360a 98bf db65 153e
00000190: 48da 5ebe e345 8cbf 0231 d23e 9da7 f73e
000001a0: ab74 1cbf e9e1 86be eeaf ac3e fa3d 163e
000001b0: 9551 80bc 55dd e93d 5db0 4d3f c2df 453f
000001c0: 1b1d 123f 0c54 143f 4da7 0bbe a9b6 c0be
000001d0: 6e0f c7be a6bf 573f 5fd5 b33e ed07 7c3f
000001e0: 3ff3 973f 7ca6 d93d 09cc c63e d58e 77bc
000001f0: 6135 72bf 5999 e0be 645b 293f 47ea 40bf
00000200: 4d9b 95be 3b38 2f3f 0180 d0be c6c4 3e3f
00000210: c0ac 1abe 4b35 bc3e 0f63 51be 15ec b23f
00000220: f69b 453f 45af 0e3e 6db4 a3be 5cc3 3cbf
00000230: 52fe e7be 2a99 e9bd 0d49 2d3f 3013 df3e
00000240: 720e 9bbe 3887 183f 9265 d53e 3da3 29bf
00000250: 969e 78bf 789d c03e 1017 0bbf c998 6e3e
00000260: 8861 b23e bf0c 49bf 81b6 62bf 0a36 1b3f
00000270: 31ba 74be 390b 79be e822 cd3e 19d8 2bbe
00000280: 00d2 863e 5e38 49be df86 1b3f dd2f 06bf
00000290: 2705 023e 2673 903e edfc 66bd ca1f aa3e
000002a0: 5ea2 81be e3b9 01be 79ee e7bc 271b 2dbf
000002b0: 6802 88bf dd31 8abf 7d11 8abf 677c 9ebf
000002c0: b162 a9bf 559b e33d b0d7 ddbe 9a9a 0bbf
000002d0: b0a3 c3be fb90 13be cdc4 57be 1c77 f2be
000002e0: 55a5 e33e 231e abbe 6254 8c3e 02b8 623e
000002f0: c155 423f 03e9 46bf 8784 96be 01a3 e93e
00000300: d1e5 5bbf 8989 42bf 0f53 2fbf c070 96be
00000310: f14a 8ebf d59c bbbf ef1c d7be 6a34 61bf
00000320: a82c f4bd aaeb f4be 5941 38be b55b cd3e
00000330: b84b d7bc 091d 523e 7a82 ad3e 0a67 053e
00000340: d33e b8be 63f9 2e3e 5915 23bf 78a2 cabf
00000350: d7f5 58bf 786b 27bf b65d 73bf 4388 62bf
00000360: 68dd a33f b56b 2abf fffb 45be a52b fd3c
00000370: 77ad a4bf 4e61 4a3f 0647 b0bf 33d7 ef3d
00000380: e5d4 5a3f 9d78 62bf 2860 fbbe 79e9 2fbf
00000390: d1e8 56bf 64f5 abbf a407 01be decd 0abf
000003a0: fe67 38bf ffa0 9a3e fb81 a43e 1bda b1be
000003b0: 18fd 22bf b52f acbf fc29 d2bf 73ba 9ebf
000003c0: bb5d 4fbf 8222 a3bf 48cd 90bc 41e6 413f
000003d0: bac3 a8be f6f0 c8bf 8861 85be 9ca1 9fbf
000003e0: 05e0 9cbf ef73 5fbf b0ba d1bc 651c fcbf
000003f0: 92fd 703e 8506 173e bf79 e93d 967c aebe
1.5350658 -0.12815592 1.6087945 0.012543112 -0.5898449 -0.5506505 -0.089753754 1.0983477
0.12137408 -1.7193836 -0.323563 1.5644084 -0.72225344 -1.6210257 -0.32675177 0.25010696
-0.2888494 -0.52008575 0.5755336 0.48513353 0.7584223 0.113846764 0.48841676 0.07769971
0.015654437 -0.061397225 0.5333262 -0.6290865 0.39879668 0.058839742 -0.68550384 1.156189
1.0182453 1.5373994 -0.15641688 -0.02380241 0.027766265 1.6766555 0.84852034 1.401376
0.8608162 1.6769199 2.0677025 1.0454463 1.0750108 -1.0726136 0.86198294 -1.4924264
-0.021915095 0.4333578 -1.2367069 -0.5029485 0.6394229 0.3622001 -0.9290257 0.23888367
0.18520136 -0.8419886 -0.21462871 -1.2938348 -0.03950935 0.5971408 0.2709616 -0.48773217
-0.6690898 -0.44393542 -0.4759601 -0.5375823 -0.54379946 -1.1946309 -0.2150556 0.1411863
0.45388976 -0.15690474 -0.19329418 -0.95562565 -0.29163852 0.28644958 0.17346409 -1.1271961
-1.8887031 0.11884777 0.33660534 0.12570046 -0.3811313 0.96230346 1.0498904 -0.09077234
0.52137846 0.24577275 -0.66630685 0.034995016 -1.1872605 -0.59289896 -0.11659838 -0.7434407
-0.7831833 -1.1521646 -1.1878116 0.14589636 -0.21762955 -1.0958828 0.41053015 0.48370066
-0.6111552 -0.2634423 0.33727974 0.1467208 -0.015663901 0.11419169 0.80347234 0.7729455
0.5707566 0.57940745 -0.13638039 -0.3763936 -0.3887896 0.8427681 0.35123727 0.98449594
1.1871108 0.106274575 0.3882754 -0.015109737 -0.946127 -0.43866995 0.66155076 -0.7535748
-0.29220048 0.68445176 -0.4072266 0.74519 -0.15104961 0.3675941 -0.20447944 1.3978297
0.771911 0.13934048 -0.3197359 -0.73735595 -0.45311219 -0.11406167 0.6768959 0.43569326
-0.30284458 0.5958133 0.41679054 -0.66264707 -0.9711698 0.3762014 -0.54332066 0.2330047
0.34840035 -0.78535074 -0.8855973 0.6062933 -0.23899151 -0.24320687 0.40065694 -0.16781653
0.26332092 -0.19650409 0.6075267 -0.52416784 0.12697278 0.2821285 -0.056393553 0.33227378
-0.2531919 -0.12668566 -0.028311955 -0.67619556 -1.0625734 -1.0796467 -1.0786587 -1.2381715
-1.3233243 0.111136116 -0.4332862 -0.5453278 -0.3821082 -0.14410774 -0.21071167 -0.47356498
0.44462076 -0.3342143 0.2740813 0.22140506 0.759121 -0.776993 -0.29397985 0.45632175
-0.85897547 -0.7599111 -0.6848611 -0.29382896 -1.111662 -1.4657236 -0.42014262 -0.879706
-0.1192258 -0.47836047 -0.17993678 0.4010903 -0.026281223 0.20518889 0.33888608 0.13027588
-0.3598543 0.17087321 -0.6370445 -1.5830832 -0.8475012 -0.6539836 -0.95064867 -0.8848917
1.2801943 -0.665706 -0.1933441 0.0309046 -1.2865437 0.79054725 -1.3771675 0.11710968
0.854811 -0.8846529 -0.490968 -0.68715626 -0.83949 -1.3434262 -0.12600571 -0.5422038
-0.7203368 0.30200955 0.32130417 -0.34736714 -0.6366744 -1.3452059 -1.6419063 -1.240065
-0.81002396 -1.2744906 -0.01767601 0.75741965 -0.32961828 -1.5698535 -0.26050973 -1.2471194
-1.2255865 -0.87286276 -0.025601715 -1.9696165 0.2353423 0.14748581 0.11400174 -0.34079427

decoder_CNN.bias f4 [8]
00000000: 9df3 8c3d 9d31 ed3c 7651 3ebe 38af dc3b
00000010: 2198 26bd 6ba9 8b3c 23de f2be 66bb 9abe
0.06882403 0.028954322 -0.18585762 0.006734755 -0.040672425 0.017048558 -0.47435102 -0.302211
