models/convlstm/saved_models/lr_0.0001/epoch_3290.pt (torch, 68130 bytes, 30 tensors)

cell_list.0.conv.weight f4 [32, 16, 3, 3]
0.3017624 0.6452781 0.73319626 0.38334718 0.23901384 0.25936073 0.08646706 -0.14945596
0.15896656 0.1441672 0.26194316 0.3606084 0.11692536 0.37584528 0.2929082 0.3384375
0.3562062 0.113426715 -0.07972392 0.6586318 0.17675683 0.45366648 0.29425117 0.5234294
0.85601157 0.4009571 0.3896806 0.32724085 0.59899044 0.08696403 0.14838228 -0.1614167
-0.05547621 0.16874924 -0.05038821 0.022399897 0.09233863 0.13791633 -0.24746066 0.003153065
-0.38017875 -0.20844972 -0.00758179 -0.097792305 0.054934498 0.3239903 0.23503694 0.05645596
-0.037797917 -0.0043730116 -0.3564379 0.039526086 -0.15051016 -0.45834553 -0.30379346 0.012830903
0.09020935 -0.26206374 -0.0126638105 -0.2106675 -0.5383933 -0.34283006 -0.312947 0.040432855
-0.12673594 0.09153565 -0.4919009 -0.34244075 -0.19369034 -0.16097862 -0.16506253 -0.25004175
0.086830586 0.060441386 0.030419378 -0.21316287 -0.24090002 -0.040619932 -0.068066806 -0.00639924
-0.035495114 -0.04087825 -0.055380143 0.063035324 0.07943712 0.051489696 0.019992182 -0.037800826
0.027127149 -0.06957748 -0.03028439 -0.01544697 0.0036421837 -0.07216687 -0.07368961 0.021303363
-0.043694604 -0.018859008 0.06553399 0.030938737 0.09692491 0.08944783 0.035586387 0.005505552
0.009208157 -0.069547616 -0.040944546 -0.15228795 -0.09019196 -0.0776527 0.038664546 -0.07110817
-0.079983905 -0.075721286 -0.11882999 0.1103867 0.018410979 -0.04632997 -0.10676462 -0.017724581
-0.15968803 0.016874991 -0.02131207 0.104548894 -0.017360957 0.11135514 0.06382185 0.14186268
-0.08564365 -0.0101553425 0.051771753 -0.013184003 -0.0201968 0.10300439 -0.048388477 -0.096615806
0.1434709 0.09837292 -0.085803695 -0.00956678 -0.028741024 -0.0379769 0.014371228 -0.0389988
-0.48206288 -0.44133446 -0.07741413 -0.37902674 -0.19202554 0.1925948 0.1299178 -0.22230999
-0.18738258 -0.24142648 0.023759607 -0.09788516 0.40795904 -0.13512014 0.045341622 0.56213605
-0.13243769 -0.18377483 0.3574478 -0.19414477 -0.017764876 -0.17780542 0.14631177 0.26071572
0.11005708 0.12770942 0.24534528 0.25869235 0.22515433 -0.012958977 0.17846462 0.08545733
-0.08227422 -0.21438223 -0.23312587 0.08635446 -0.034680866 -0.13738357 -0.14275315 -0.06107816
-0.010125234 -0.1871104 -0.12909672 -0.34072718 0.07546513 -0.25329798 -0.3846107 -0.17730395
-0.015193869 -0.018622963 -0.19945689 -0.12240207 0.16620104 0.122349866 -0.035210513 -0.13349444
0.08982729 0.15295038 -0.33287624 -0.07060128 0.19173932 0.12697595 0.052835196 0.034658294
0.0010874888 -0.16536808 -0.08286987 -0.3334937 -0.1749877 0.34775722 0.45416027 -0.6661949
0.17301802 0.06791457 -0.072658114 0.05921765 0.054810107 0.077127516 0.036320645 0.006483817
0.015967134 0.0047652856 0.04284419 -0.032117907 -0.059853528 0.041415457 0.049195252 0.0129097095
0.033759635 0.05119445 -0.0078464355 -0.0816466 -0.008911621 -0.03556774 0.029416157 0.052927278
-0.1189075 -0.03518736 -0.047169186 0.00732547 0.013963704 0.041594353 -0.0116151385 0.024325047
0.09786857 -0.04846486 -0.02567856 0.02909228 0.041169945 -0.0056745186 -0.025129609 -0.005931246
00000000: 9a80 9a3e f230 253f c0b2 3b3f 1546 c43e
00000010: 0bc0 743e eeca 843e a415 b13d fc0a 19be
00000020: 21c8 223e 91a0 133e 6a1d 863e aaa1 b83e
00000030: 9076 ef3d cb6e c03e 10f8 953e ae47 ad3e
00000040: a960 b63e 444c e83d 4b46 a3bd 189c 283f
00000050: beff 343e f946 e83e 17a8 963e 78ff 053f
00000060: 9323 5b3f 404a cd3e 3784 c73e 1d8c a73e
00000070: 7057 193f 331a b23d 86f1 173e 6b4a 25be
00000080: 063b 63bd 9acc 2c3e de63 4ebd fd7f b73c
00000090: 091c bd3d f039 0d3e 5466 7dbe a7a3 4e3b
000000a0: caa6 c2be d873 55be aa70 f8bb 5547 c8bd
000000b0: ff02 613d 0ee2 a53e 86ad 703e 5d3e 673d
000000c0: fdd1 1abd 7b4b 8fbb 077f b6be 1be6 213d
000000d0: 561f 1abe 44ac eabe d18a 9bbe b538 523c
000000e0: aebf b83d 382d 86be df7b 4fbc 39b9 57be
000000f0: 25d4 09bf 6c87 afbe 973a a0be ec9c 253d
00000100: 11c7 01be 0b77 bb3d 6fda fbbe 6554 afbe
00000110: c356 46be 94d7 24be 2706 29be 7905 80be
00000120: 3cd4 b13d 6391 773d 0f32 f93c 5e47 5abe
00000130: 7fae 76be 1661 26bd 9c66 8bbd b7b0 d1bb
00000140: 5363 11bd f46f 27bd 4ad6 62bd aa18 813d
00000150: eeaf a23d dce6 523d a5c6 a33c 0ad5 1abd
00000160: c139 de3c a37e 8ebd f816 f8bc 4a15 7dbc
00000170: b4b1 6e3b 39cc 93bd 94ea 96bd 6484 ae3c
00000180: 1df9 32bd 357e 9abc af36 863d 3c73 fd3c
00000190: 9180 c63d 6d30 b73d 08c3 113d eb67 b43b
000001a0: cfdd 163c fb6e 8ebd 78b5 27bd 5ff1 1bbe
000001b0: 90b6 b8bd 6108 9fbd b75e 1e3d 29a1 91bd
000001c0: 9ace a3bd c313 9bbd 235d f3bd 6c12 e23d
000001d0: 9fd2 963c 7fc4 3dbd 69a7 dabd 2433 91bc
000001e0: 4285 23be 6c3d 8a3c a696 aebc bb1d d63d
000001f0: 9138 8ebc 2a0e e43d 08b5 823d 7344 113e
00000200: f065 afbd 9862 26bc 9e0e 543d b701 58bc
00000210: c273 a5bc f7f3 d23d ff32 46bd 82de c5bd
00000220: 09ea 123e be77 c93d d9b9 afbd fcbd 1cbc
00000230: 4c72 ebbc aa8d 1bbd 4d75 6b3c 35bd 1fbd
00000240: f2d0 f6be 97f6 e1be 4d8b 9ebd cb0f c2be
00000250: 58a2 44be 9237 453e 2c09 053e 3ba5 63be
00000260: 38e1 3fbe 8138 77be 82a3 c23c 0478 c8bd
00000270: 02e0 d03e ef5c 0abe 23b8 393d 26e8 0f3f
00000280: bf9d 07be 782f 3cbe 6603 b73e e3cd 46be
00000290: a587 91bc a012 36be c1d2 153e 887c 853e
000002a0: 9b65 e13d 42c6 023e cb3b 7b3e 5373 843e
000002b0: db8e 663e e451 54bc 6ebf 363e 4104 af3d
000002c0: 637f a8bd 0487 5bbe 8cb8 6ebe 9bda b03d
000002d0: 860d 0ebd 47ae 0cbe e22d 12be 182d 7abd
000002e0: 4fe4 25bc de99 3fbe ee31 04be cb73 aebe
000002f0: 768d 9a3d 46b0 81be b2eb c4be 2b8f 35be
00000300: b5ef 78bc 2f8f 98bc 6d3e 4cbe f0ad fabd
00000310: 9b30 2a3e 9192 fa3d e638 10bd c4b2 08be
00000320: 5ff7 b73d 069f 1c3e c16e aabe 6797 90bd
00000330: 5057 443e fc05 023e b869 583d dbf5 0d3d
00000340: 128a 8e3a 4056 29be aeb7 a9bd b0bf aabe
00000350: fa2f 33be 3c0d b23e b287 e83e c08b 2abf
00000360: a32b 313e cb16 8b3d c7cd 94bd 358e 723d
00000370: 9080 603d 08f5 9d3d f5c4 143d 3376 d43b
00000380: 82cd 823c 1d26 9c3b 647d 2f3d 118e 03bd
00000390: f928 75bd 41a3 293d f680 493d 3f83 533c
000003a0: 8b47 0a3d 46b1 513d 568e 00bc 5536 a7bd
000003b0: 0c02 12bc 7baf 11bd 27fa f03c 46ca 583d
000003c0: c685 f3bd 9f20 10bd 7a34 41bd 7f0a f03b
000003d0: 05c8 643c d75e 2a3d 6c4d 3ebc 5245 c73c
000003e0: 516f c83d 1783 46bd d85b d2bc ef52 ee3c
000003f0: d1a1 283d 50f1 b9bb 9cdc cdbc e65a c2bb

cell_list.0.conv.bias f4 [32]
0.018963559 -0.00026592298 0.12853414 0.2503834 0.16732827 0.42216438 0.12332549 -0.035959814
-0.5951035 -1.1981993 -0.8950117 -0.7381178 -0.81471604 -0.9730828 -0.7731279 -1.056758
0.060658183 -0.7051901 0.18728681 0.11988127 0.2119279 0.4034725 0.04459608 0.025557797
-0.18470614 0.12584592 0.13268049 -0.10044823 -0.10193872 0.09074021 0.18826374 -0.062016055
00000000: 7759 9b3c 946b 8bb9 749e 033e 4132 803e
00000010: 1a58 2b3e ee25 d83e 1392 fc3d 994a 13bd
00000020: b458 18bf 985e 99bf 7d1f 65bf 4af5 3cbf
00000030: 3b91 50bf f41b 79bf b6eb 45bf d943 87bf
00000040: b774 783d 5787 34bf 1dc8 3f3e 5084 f53d
00000050: a103 593e f393 ce3e 61aa 363d 965e d13c
00000060: 9b23 3dbe c1dd 003e 65dd 073e cdb7 cdbd
00000070: 3fc5 d0bd 01d6 b93d 36c8 403e 8c04 7ebd

cell_list.1.conv.weight f4 [32, 16, 3, 3]
0.22437508 -0.2878182 -0.31649378 0.12155228 0.12683077 -0.6107863 0.8449307 0.44580194
-0.59097797 -0.5666833 -0.10713758 0.6334336 -0.3225123 0.8943342 -0.622452 -0.2590372
1.3934183 -0.70761037 -0.7471161 -0.4091124 0.05893883 -0.4972566 0.074382894 -0.15209286
-0.737614 -0.28664893 -0.59269637 -0.17062679 -0.7053897 -0.28258458 -0.3852594 -0.6798474
-0.5078694 -0.2680077 0.1254962 0.08158064 0.1714077 -0.014357296 -0.21106614 -0.21061942
-0.6429891 -0.49138105 -0.49472675 -0.0002480261 -0.03495008 -0.5228354 0.2124256 0.9185678
-0.7859326 0.03460363 0.958863 0.050058853 0.052025907 -0.52044195 0.51389784 -0.4065477
-0.36405703 -0.21890762 -0.6279298 -0.50021577 -0.55239946 -0.55012214 -0.7409824 0.56117857
-0.13337883 -0.7016608 0.19693482 -0.11211853 0.40524134 0.0789917 0.665871 0.5049593
-0.070762105 0.05183656 0.13923317 -0.1749234 -0.053577922 0.064786114 0.028178683 -0.1318148
0.11552415 -0.04728215 -0.0044076857 0.13563605 -0.17723744 -0.04534071 -0.05753948 -0.06583504
0.042151075 0.083833836 0.18576166 -0.14205192 -0.044835817 -0.072305165 -0.10300877 0.02098663
-0.12861149 -0.11133378 -0.118838266 -0.067479424 -0.014308626 -0.05265042 -0.20235342 -0.17903094
-0.06143213 -0.16678597 -0.11866845 -0.036068566 -0.033059403 0.030564139 0.0038785068 0.08298467
0.08128855 -0.091700055 0.09304036 0.018217131 -0.059659995 -0.047043975 0.0413931 0.0106666
-0.0067993375 -0.01881613 -0.0089714015 -0.012052662 -0.04061396 0.11647343 0.225229 0.13903895
0.31404364 0.036659054 -0.06385417 -0.16144988 0.06553536 0.061849456 0.095935084 0.07218396
-0.06324411 0.044995334 -0.1239796 -0.024555665 0.030228361 -0.10009776 -0.0054945378 0.036548212
0.5591215 0.7307342 -0.22311023 0.46902397 1.019667 -0.16261257 0.46363086 0.098307006
-0.55188024 -0.42984787 0.30227074 -0.17392918 0.049550507 1.0857179 -0.23584339 0.47495747
0.49932656 0.28333396 -0.38207623 0.25739738 -0.15901417 -0.61679053 -0.68544334 -0.2541826
-0.8587343 -0.84402794 -0.6075764 -0.09227764 0.18454733 0.16382475 -0.25512978 0.046461165
-0.55039054 0.013149124 -0.6726963 -0.013083137 0.025186263 -1.0792743 -0.47793308 -1.2607306
-0.82937974 -0.6044746 -0.5919119 0.036750946 0.24031872 -0.07406586 0.20022796 -0.02355585
0.07255991 0.49876195 0.43495312 0.19481891 -0.3645885 -0.055581592 -0.5027647 -0.7895518
0.17334187 -0.32862735 -0.30242163 -0.0669013 -0.17163609 -0.24086465 -0.291104 0.62429863
0.23692359 0.7800187 0.95254606 -0.04419687 0.034258656 0.6798851 -0.16235638 0.2407237
0.13219443 0.14174579 0.05591845 0.013351441 0.07850853 0.0502507 0.0621808 0.03252576
0.035273235 0.008979953 0.006581988 -0.009496054 -0.0021225056 0.0024544806 0.011371047 0.028664837
0.0292126 -0.00932867 -0.06712924 -0.08589111 0.020299658 -0.05828343 -0.058105487 -0.01682221
-0.04178673 -0.03489403 -0.065046206 -0.09166451 -0.068141684 -0.10554078 -0.10363834 -0.13485363
-0.06123399 -0.05109639 -0.0391732 0.017296975 0.009202428 0.0065490813 -0.0012534577 -0.0032648563
00000000: 95c2 653e e85c 93be 790b a2be 67f0 f83d
00000010: eddf 013e 7e5c 1cbf 614d 583f 2740 e43e
00000020: 554a 17bf 2812 11bf f36a dbbd b428 223f
00000030: 5520 a5be 16f3 643f 0459 1fbf 86a0 84be
00000040: 885b b23f f425 35bf 0043 3fbf 2e77 d1be
00000050: d869 713d 6b98 febe 0f56 983d 3bbe 1bbe
00000060: 45d4 3cbf a6c3 92be f3ba 17bf cab8 2ebe
00000070: 6b94 34bf edae 90be b840 c5be 7b0a 2ebf
00000080: bb03 02bf 4e38 89be 1382 003e c013 a73d
00000090: 8085 2f3e dd3a 6bbc b921 58be 9eac 57be
000000a0: ef9a 24bf 4c96 fbbe d34c fdbe 8009 82b9
000000b0: d127 0fbd 8ad8 05bf 1986 593e 4227 6b3f
000000c0: e132 49bf 89bc 0d3d 0c78 753f 830a 4d3d
000000d0: 1e19 553d af3b 05bf cf8e 033f 0527 d0be
000000e0: af65 babe 5229 60be 02c0 20bf 240e 00bf
000000f0: 0d6a 0dbf ced4 0cbf 06b1 3dbf 66a9 0f3f
00000100: 7694 08be 0ba0 33bf 48a9 493e 669e e5bd
00000110: cb7b cf3e 67c6 a13d 8676 2a3f 0345 013f
00000120: b9eb 90bd 9352 543d 2493 0e3e 1f1f 33be
00000130: 8674 5bbd 95ae 843d fbd6 e63c 75fa 06be
00000140: ed97 ec3d edaa 41bd 596e 90bb 2de4 0a3e
00000150: bb7d 35be 2eb7 39bd 85ae 6bbd 85d4 86bd
00000160: 9ba6 2c3d 13b1 ab3d 4e38 3e3e 0f76 11be
00000170: c3a5 37bd bb14 94bd 43f6 d2bd 27ec ab3c
00000180: bbb2 03be f702 e4bd 7a61 f3bd a732 8abd
00000190: ba6e 6abc f8a7 57bd bc35 4fbe e353 37be
000001a0: 42a0 7bbd f1c9 2abe 7208 f3bd a2bc 13bd
000001b0: 4c69 07bd a561 fa3c 8c2e 7e3b def3 a93d
000001c0: 9c7a a63d 3dcd bbbd f28b be3d 183c 953c
000001d0: 0a5e 74bd 2fb1 40bd d08b 293d f7c2 2e3c
000001e0: facc debb 4924 9abc c9fc 12bc 8778 45bc
000001f0: d35a 26bd 9f89 ee3d 6ea2 663e 3a60 0e3e
00000200: 54ca a03e ce27 163d fac5 82bd 1e53 25be
00000210: 6737 863d db55 7d3d 9d79 c43d 2fd5 933d
00000220: 2186 81bd 074d 383d 04e9 fdbd f628 c9bc
00000230: 78a1 f73c 0e00 cdbd 860b b4bb 94b3 153d
00000240: 9622 0f3f 6611 3b3f 0277 64be e923 f03e
00000250: 7384 823f e983 26be 0661 ed3e 2f55 c93d
00000260: 0648 0dbf 0515 dcbe 3bc3 9a3e 7e1a 32be
00000270: 79f5 4a3d cef8 8a3f ee80 71be a02d f33e
00000280: bba7 ff3e 2611 913e 7f9f c3be 97c9 833e
00000290: 9cd4 22be fce5 1dbf 3779 2fbf 3924 82be
000002a0: 03d6 5bbf 3712 58bf 208a 1bbf 0ffc bcbd
000002b0: faf9 3c3e adc1 273e 5fa0 82be 104e 3e3d
000002c0: 65e6 0cbf 6c6f 573c d335 2cbf a75a 56bc
000002d0: 6c53 ce3c a925 8abf a5b3 f4be 9f5f a1bf
000002e0: 3b52 54bf d9be 1abf 8a87 17bf 2988 163d
000002f0: 1c16 763e d7af 97bd 8f08 4d3e 33f8 c0bc
00000300: 4a9a 943d ba5d ff3e 2db2 de3e 9c7e 473e
00000310: 58ab babe 86a9 63bd 30b5 00bf 1120 4abf
00000320: 8880 313e d841 a8be 02d7 9abe 8c03 89bd
00000330: 5fc1 2fbe 39a5 76be 950b 95be 09d2 1f3f
00000340: 199c 723e 4eaf 473f 0fda 733f c707 35bd
00000350: ce52 0c3d f30c 2e3f c040 26be 4680 763e
00000360: fa5d 073e cf25 113e bf0a 653d 01c0 5a3c
00000370: 15c9 a03d aed3 4d3d 4bb1 7e3d bb39 053d
00000380: ab7a 103d a720 133c b8ad d73b 5695 1bbc
00000390: bc19 0bbb 5adb 203b a14d 3a3c 85d2 ea3c
000003a0: 434f ef3c 47d7 18bc 0e7b 89bd aee7 afbd
000003b0: 784b a63c 9bba 6ebd 0500 6ebd bbce 89bc
000003c0: 9028 2bbd 0bed 0ebd f236 85bd 9aba bbbd
000003d0: de8d 8bbd c425 d8bd 5740 d4bd 1217 0abe
000003e0: 7ed0 7abd 734a 51bd 1474 20bd 63b2 8d3c
000003f0: c8c5 163c ad99 d63b 104b a4ba 33f7 55bb

cell_list.1.conv.bias f4 [32]
0.020865135 0.3288936 0.6228624 0.64917713 0.6419486 0.5445762 0.33061928 0.36711943
-1.0094551 -1.6481305 -0.872844 -0.79311603 -0.89056444 -0.77498835 -1.2502404 -0.91378725
-0.036171194 0.7449981 0.06494155 0.17593546 0.07533085 0.37573096 0.08523513 0.0035626492
-0.026798293 0.020750055 0.06873953 -0.05623041 -0.16034184 -0.24226856 -0.16443218 0.123654336
00000000: 5ced aa3c be64 a83e e973 1f3f 7930 263f
00000010: be56 243f 5969 0b3f ee46 a93e 14f7 bb3e
00000020: d335 81bf f1f5 d2bf b472 5fbf a709 4bbf
00000030: 08fc 63bf a365 46bf e107 a0bf f6ed 69bf
00000040: 3f28 14bd 32b8 3e3f 1300 853d 6d28 343e
00000050: 1047 9a3d cf5f c03e c18f ae3d 567b 693b
00000060: 1888 dbbc 05fc a93c 50c7 8c3d dc51 66bd
00000070: a730 24be 4015 78be e960 28be 7c3e fd3d

cell_list.2.conv.weight f4 [32, 16, 3, 3]
-0.18074188 -0.046709616 0.009118607 -0.24823835 -0.08150404 0.14267117 -0.028239569 -0.04657679
0.1588205 -0.31766495 0.14373608 0.06382875 -0.8943419 -0.43597373 0.20937115 -0.17577921
0.05582276 0.30356532 -0.15033063 0.10277948 0.16590187 -0.03630397 -0.35535324 -0.34791344
-0.50016344 -0.20861429 -0.20667438 -0.23297545 -0.47643715 -0.65694886 -0.24519633 -0.19750986
0.068911456 -0.046028096 -0.15728953 -0.021573765 0.60044426 0.035118416 0.24903218 0.9213514
0.22283359 -0.29804233 0.3940969 -0.009616435 -0.3301777 0.08643789 0.3361688 0.1711121
-0.030238396 0.3069687 0.61664563 -0.1005076 0.32888976 0.5260306 0.06382008 -0.21424164
-0.1382023 0.3706516 0.018511714 -0.19014487 -0.19420867 -0.13467109 -0.17250669 -0.23181297
0.14864914 -0.061801206 -0.27021042 0.026626403 0.22785282 0.0774921 0.28212044 0.46544746
0.1572095 0.025881933 0.041898113 0.06715316 0.044350155 0.06440777 -0.0072557223 -0.083454326
-0.08547544 -0.1021509 -0.0478752 -0.1241406 -0.07287289 -0.11710793 -0.021472266 0.029309507
0.031410526 -0.017595045 0.19997355 0.21387315 0.07240294 0.06489757 0.13329731 0.104963206
-0.16841577 -0.113610975 0.021512304 -0.06361094 0.035766255 -0.20377427 -0.21962006 -0.1701412
-0.06458879 -0.092046246 -0.072624385 -0.22516948 -0.019285573 -0.07433962 -0.0393938 -0.103152916
-0.073117144 -0.05248566 -0.04714451 -0.09637199 -0.13550325 0.026832327 -0.04348984 -0.02783889
-0.055654947 -0.3133803 -0.26671302 -0.090542905 -0.022082442 -0.07990573 -0.06949823 0.12974937
0.18362089 -0.110814154 0.10302619 0.08336424 0.052983426 0.15348913 -0.005653084 -0.0075041708
-0.05101443 0.011897377 0.028768059 -0.003241056 -0.022472123 0.126773 -0.044092942 0.092978045
0.73962456 1.0118132 0.324859 -1.7135504 0.2500789 0.36785722 0.6363145 0.09477905
0.36880776 0.21872023 -0.10920024 0.22013898 -0.04466874 0.12836145 0.004593761 -0.15407202
0.040769596 0.067745194 -1.1762795 -1.0674162 0.10239191 -1.5531007 -0.45255408 0.9765792
-0.13633662 -0.09852178 -0.66115093 -0.69326746 -0.22497503 -0.858399 -1.0408357 -1.2641166
-0.20444024 -0.803793 -0.30314162 -0.0024829297 -0.05944062 0.17799748 0.38875553 -0.008660447
-0.04526872 0.17482437 1.000473 0.022199277 0.26226488 0.6128354 -0.02165878 0.14269058
0.40169793 -0.18961683 0.02921654 0.609662 0.7899967 0.7208732 -0.6437516 -0.67238873
0.9233892 -0.53973716 -1.0698457 0.3280754 1.4032606 1.0965946 0.15574735 0.473184
0.22618414 -0.1338271 0.7054678 0.19130331 0.027469968 -0.4878341 0.090717435 -0.017854115
0.011238592 0.012244068 0.0037319937 0.0046589454 -0.0032766091 0.00801905 -0.002705202 -0.0074824365
0.0007110686 0.013082684 0.010308883 0.0005343831 0.0017694248 -0.00018963145 -0.0016023896 -0.00017428266
0.0012589426 0.0029376687 -0.00028376802 -0.020189336 -0.006416852 -0.004433915 0.006411652 -0.024580892
-0.025972351 -0.014597718 -0.012774672 -0.010470976 -0.015633034 -0.019139025 -0.022485403 -0.030144602
-0.024145858 -0.024401782 -0.011530973 0.00044853045 -0.00033821602 -0.011436354 -0.0032148939 -0.01518546
00000000: 6614 39be 9552 3fbd 3666 153c 3232 7ebe
00000010: 97eb a6bd 6418 123e ab56 e7bc 4ec7 3ebd
00000020: d7a1 223e fba4 a2be 8d2f 133e a6b8 823d
00000030: 97f3 64bf f337 dfbe 6465 563e 77ff 33be
00000040: 68a6 643d ea6c 9b3e 46f0 19be 0c7e d23d
00000050: 2ee2 293e 79b3 14bd dcf0 b5be b621 b2be
00000060: b60a 00bf fc9e 55be 73a2 53be 1e91 6ebe
00000070: 92ef f3be cd2d 28bf bf14 7bbe 0640 4abe
00000080: 7321 8d3d f587 3cbd 8210 21be 77bb b0bc
00000090: b7b6 193f 54d8 0f3d 4b02 7f3e afdd 6b3f
000000a0: 7d2e 643e 0199 98be 12c7 c93e 408e 1dbc
000000b0: 0d0d a9be 5906 b13d 511e ac3e 0338 2f3e
000000c0: 83b6 f7bc 002b 9d3e 7ddc 1d3f eed6 cdbd
000000d0: 3d64 a83e f1a9 063f 1ab4 823d 2962 5bbe
000000e0: e784 0dbe 0cc6 bd3e e1a5 973c 56b5 42be
000000f0: a3de 46be 38e7 09be 98a5 30be 6160 6dbe
00000100: 7b37 183e 4323 7dbd 0559 8abe 9d1f da3c
00000110: 4052 693e 2eb4 9e3d 1772 903e 214f ee3e
00000120: 87fb 203e 5906 d43c 5b9d 2b3d 9987 893d
00000130: 82a8 353d 39e8 833d 69c1 edbb 1aea aabd
00000140: bf0d afbd 7e34 d1bd c918 44bd 6d3d febd
00000150: 623e 95bd 48d6 efbd 9be6 afbc 7e1a f03c
00000160: 53a8 003d 7c23 90bc dec5 4c3e 9001 5b3e
00000170: fe47 943d 04e9 843d 177f 083e f3f6 d63d
00000180: 2f75 2cbe dfac e8bd 923a b03c 7446 82bd
00000190: a37f 123d 34aa 50be 15e4 60be 7f39 2ebe
000001a0: 2147 84bd be82 bcbd 18bc 94bd d492 66be
000001b0: c7fc 9dbc 5f3f 98bd 655b 21bd d641 d3bd
000001c0: 71be 95bd 34fb 56bd 9a1a 41bd ae5e c5bd
000001d0: 5dc1 0abe 78cf db3c 6722 32bd 620e e4bc
000001e0: 71f6 63bd 6273 a0be 9c8e 88be 8f6e b9bd
000001f0: 3de6 b4bc 9ea5 a3bd 1755 8ebd 05dd 043e
00000200: 1d07 3c3e 88f2 e2bd 65ff d23d dfba aa3d
00000210: 2605 593d 412c 1d3e 813d b9bb 8ce5 f5bb
00000220: 82f4 50bd 37ed 423c feaa eb3c e667 54bb
00000230: 7517 b8bc c8d0 013e cd9a 34bd 466b be3d
00000240: 0958 3d3f 1883 813f eb53 a63e 9f55 dbbf
00000250: 570a 803e c857 bc3e 82e5 223f 851b c23d
00000260: 5fd4 bc3e 32f8 5f3e 60a4 dfbd 1d6c 613e
00000270: 92f6 36bd 2f71 033e 4387 963b 0ec5 1dbe
00000280: 05fe 263d febd 8a3d 5490 96bf 18a1 88bf
00000290: dab2 d13d 01cc c6bf 2bb5 e7be 1801 7a3f
000002a0: d49b 0bbe c9c5 c9bd 3041 29bf fa79 31bf
000002b0: db5f 66be 09c0 5bbf 1b3a 85bf 93ce a1bf
000002c0: c858 51be 61c5 4dbf 6135 9bbe a6b8 22bb
000002d0: 0278 73bd f944 363e f70a c73e 8ce4 0dbc
000002e0: b16b 39bd 2905 333e 800f 803f 42db b53c
000002f0: 9547 863e c8e2 1c3f c16d b1bc 7b1d 123e
00000300: 5aab cd3e ea2a 42be 8657 ef3c cf12 1c3f
00000310: 393d 4a3f 258b 383f e8cc 24bf ab21 2cbf
00000320: 3c63 6c3f 372c 0abf b4f0 88bf 80f9 a73e
00000330: 0b9e b33f 365d 8c3f 3c7c 1f3e 2c45 f23e
00000340: d19c 673e f909 09be 8a99 343f 04e5 433e
00000350: b308 e13c 64c5 f9be 10ca b93d cb42 92bc
00000360: 1222 383c 589b 483c 7794 743b 11aa 983b
00000370: 61bc 56bb 5562 033c c249 31bb 3a2f f5bb
00000380: 0267 3a3a c158 563c 97e6 283c d815 0c3a
00000390: 0bec e73a ced7 46b9 4607 d2ba a5bf 36b9
000003a0: 1b03 a53a e785 403b b3c6 94b9 1b64 a5bc
000003b0: 7544 d2bb 604a 91bb d618 d23b de5d c9bc
000003c0: f8c3 d4bc 442b 6fbc dc4c 51bc 758e 2bbc
000003d0: d910 80bc 72c9 9cbc 4f33 b8bc d0f1 f6bc
000003e0: 89cd c5bc 3fe6 c7bc 68ec 3cbc bd28 eb39
000003f0: 9652 b1b9 8c5f 3bbc f8b0 52bb 70cc 78bc

cell_list.2.conv.bias f4 [32]
-0.1453983 0.40052956 -0.14072812 0.0008851702 -0.15797323 -0.16795155 -0.17429547 -0.36376095
-0.45564172 -1.9137892 -0.8088351 -0.43762398 -0.7486694 -0.52652293 -0.9184751 -0.7696098
-0.67218906 0.90623504 -0.22759691 -0.5722469 -0.6631508 -0.33098292 -0.739253 -0.47469196
-0.06486903 0.07721483 0.01701146 0.0155361295 0.050342713 0.000999937 -0.15480016 -0.012417853
00000000: 4be3 14be 3612 cd3e 081b 10be c40a 683a
00000010: bcc3 21be 7efb 2bbe 837a 32be e03e babe
00000020: df49 e9be 0bf7 f4bf d10f 4fbf 4010 e0be
00000030: cca8 3fbf 35ca 06bf 2f21 6bbf 2605 45bf
00000040: 9514 2cbf 05ff 673f 2a0f 69be c67e 12bf
00000050: 40c4 29bf 9876 a9be af3f 3dbf d30a f3be
00000060: 0eda 84bd cf22 9e3d 9e5b 8b3c 408b 7e3c
00000070: 2934 4e3d 5110 833a ef83 1ebe 4074 4bbc

batchnorm_list1.0.weight f4 [8]
0.92459893 0.8407799 0.9081641 0.88331354 0.8085988 0.86462134 0.87306076 0.77243507
00000000: 84b2 6c3f 5a3d 573f 717d 683f d620 623f
00000010: 5500 4f3f d357 5d3f e980 5f3f 4ebe 453f

batchnorm_list1.0.bias f4 [8]
-0.063774 -0.025318611 0.10382284 0.0789276 0.15941948 -0.099069424 -0.018261394 0.033906627
00000000: f19b 82bd fa68 cfbc 12a1 d43d cba4 a13d
00000010: dc3e 233e e9e4 cabd eb98 95bc ade1 0a3d

batchnorm_list1.0.running_mean f4 [8]
-0.15004994 0.0053536915 -0.035301972 0.004659489 0.011821331 -0.0130718285 -0.06077546 0.0042310865
00000000: b1a6 19be 056e af3b cd98 10bd a0ae 983b
00000010: 42ae 413c 392b 56bc b0ef 78bd eda4 8a3b

batchnorm_list1.0.running_var f4 [8]
0.09243489 0.0033575802 0.052171033 0.023173584 0.041116435 0.018236788 0.07906798 0.020717885
00000000: 814e bd3d d90a 5c3b 4bb1 553d 87d6 bd3c
00000010: b569 283d 5165 953c 65ee a13d 8eb8 a93c

batchnorm_list1.1.weight f4 [8]
1.0203984 0.8571067 0.93043846 0.9360036 0.93953305 0.9012805 0.9814247 0.93852746
00000000: 6a9c 823f 586b 5b3f 3731 6e3f ef9d 6f3f
00000010: 3d85 703f 52ba 663f a63e 7b3f 5643 703f

batchnorm_list1.1.bias f4 [8]
-0.046644293 0.05608611 -0.003117733 0.048302084 -0.033707187 -0.06854415 -0.012380027 0.011586438
00000000: 160e 3fbd 8dba 653d e152 4cbb 68d8 453d
00000010: 8c10 0abd e060 8cbd 99d5 4abc 0bd5 3d3c

batchnorm_list1.1.running_mean f4 [8]
0.0046550925 0.005323672 -0.04430907 0.02002262 -0.042675324 -0.045277677 0.04731092 -0.0018433032
00000000: bf89 983b 3372 ae3b 6d7d 35bd 7a06 a43c
00000010: 52cc 2ebd 1675 39bd 18c9 413d fe9a f1ba

batchnorm_list1.1.running_var f4 [8]
0.031155953 0.02667302 0.07116994 0.035602674 0.024971666 0.031334914 0.057355437 0.0552055
00000000: c53a ff3c 6181 da3c 8cc1 913d 1cd4 113d
00000010: 6191 cc3c 0a59 003d 89ed 6a3d 2a1f 623d

batchnorm_list1.2.weight f4 [8]
0.93751967 0.9447087 1.1303062 1.0860672 0.99372107 1.1136982 0.98307073 1.0741454
00000000: 4a01 703f 6ed8 713f e0ad 903f 4004 8b3f
00000010: 8164 7e3f aa8d 8e3f 86aa 7b3f 997d 893f

batchnorm_list1.2.bias f4 [8]
-0.0010715708 -0.0006378795 -0.004173985 0.0012202318 0.00054480374 0.0003350199 -0.0016742732 -0.00024687548
00000000: f373 8cba 5e37 27ba edc5 88bb 2ff0 9f3a
00000010: 29d1 0e3a 9ca5 af39 4973 dbba 116f 81b9

batchnorm_list1.2.running_mean f4 [8]
0.004006439 0.006600221 -0.005689998 -0.014065071 0.017960692 0.0011719282 -0.01807626 -0.0033641057
00000000: 7248 833b ab46 d83b 2a73 babb 2f71 66bc
00000010: 4d22 933c 639b 993a aa14 94bc 5478 5cbb

batchnorm_list1.2.running_var f4 [8]
0.013138449 0.05296088 0.017568199 0.019244364 0.013311286 0.03354292 0.002820819 0.017387506
00000000: a642 573c 82ed 583d 2feb 8f3c 5ba6 9d3c
00000010: 9517 5a3c 4d64 093d 7ddd 383b 3e70 8e3c

batchnorm_list2.0.weight f4 [8]
0.46507347 0.079346925 0.23912 0.08952177 0.39376518 0.11831122 0.5398477 0.16536911
00000000: 1c1e ee3e a480 a23d e0db 743e 3157 b73d
00000010: 979b c93e 274d f23d 7533 0a3f 8556 293e

batchnorm_list2.0.bias f4 [8]
0.025752002 -0.03909261 -0.013528829 0.0011163196 -0.0037522442 -0.008950734 0.009585126 -0.028874654
00000000: ddf5 d23c 931f 20bd 06a8 5dbc 7851 923a
00000010: 36e8 75bb 19a6 12bc ef0a 1d3c 8a8a ecbc

batchnorm_list2.0.running_mean f4 [8]
-0.18017086 0.02978725 -0.018891431 -0.06413968 -0.093958065 0.033079185 -0.0771881 -0.0034849918
00000000: b67e 38be 6404 f43c 34c2 9abc aa5b 83bd
00000010: 166d c0bd 0a7e 073d cb14 9ebd 7664 64bb

batchnorm_list2.0.running_var f4 [8]
0.50800353 0.03298958 0.24120523 0.13488007 0.32459927 0.0707709 0.47382557 0.102623455
00000000: 850c 023f 1520 073d 81fe 763e 001e 0a3e
00000010: e031 a63e 55f0 903d 4499 f23e 3f2c d23d

batchnorm_list2.1.weight f4 [8]
0.30021006 0.18265417 0.28828728 0.75011784 0.45717484 0.4857999 0.22675978 0.5082644
00000000: 22b5 993e b209 3b3e 649a 933e b907 403f
00000010: d212 ea3e c4ba f83e b733 683e 9e1d 023f

batchnorm_list2.1.bias f4 [8]
-0.0142368665 0.026088769 -0.003118594 0.009288314 -0.0072909617 0.0030628745 -0.00047234917 0.002039773
00000000: bf41 69bc 1db8 d53c 5361 4cbb 032e 183c
00000010: 05e9 eebb 82ba 483b a2a5 f7b9 b6ad 053b

batchnorm_list2.1.running_mean f4 [8]
0.001210977 0.025852732 -0.050171368 -0.03482893 -0.1737614 0.024262642 0.0012653338 0.037468314
00000000: a5b9 9e3a 1cc9 d33c 7e80 4dbd c8a8 0ebd
00000010: 82ee 31be 73c2 c63c 8fd9 a53a 6078 193d

batchnorm_list2.1.running_var f4 [8]
0.13027593 0.11155353 0.2446174 0.84917957 0.32151136 0.4898997 0.13323505 0.43876165
00000000: 0e67 053e 2d76 e43d fc7c 7a3e d563 593f
00000010: 239d a43e 22d4 fa3e c56e 083e 5ea5 e03e

batchnorm_list2.2.weight f4 [8]
0.89023536 0.23915488 0.6081228 0.9064311 0.5432321 1.3612875 0.22738068 0.97943354
00000000: 77e6 633f 04e5 743e f0ad 1b3f de0b 683f
00000010: 4211 0b3f ab3e ae3f 7bd6 683e 28bc 7a3f

batchnorm_list2.2.bias f4 [8]
0.0013765808 0.05248106 -0.0012900768 -0.0005671109 0.00017865081 -0.00083390996 0.006234629 0.0014745159
00000000: 636e b43a 61f6 563d cb17 a9ba 2baa 14ba
00000010: 3654 3b39 c09a 5aba dc4b cc3b 8b44 c13a

batchnorm_list2.2.running_mean f4 [8]
0.052412137 -0.020079663 -0.052761737 -0.1638178 0.14556415 -0.08924427 0.032751802 0.043585874
00000000: 1cae 563d 1b7e a4bc b11c 58bd dabf 27be
00000010: c50e 153e b3c5 b6bd c126 063d 1a87 323d

batchnorm_list2.2.running_var f4 [8]
1.4507014 0.19547862 0.5493781 1.5334203 0.55874103 3.6729898 0.1685935 1.8275247
00000000: 95b0 b93f 8c2b 483e 0ba4 0c3f 1e47 c43f
00000010: a709 0f3f 4412 6b40 c6a3 2c3e 54ec e93f
