models/convlstm/saved_models/lr_0.0001/epoch_4910.pt (torch, 68130 bytes, 30 tensors)

cell_list.0.conv.weight f4 [32, 16, 3, 3]
00000000: e595 da3e 36df 383f a3ca 843f 1e17 063f
00000010: 16f6 1f3e db2d 4c3e 042e de3d 49d6 79be
00000020: b16c b03d 3a51 543e 553d dc3e 6de2 fd3e
00000030: 9c76 733e 699c 203f 000d b23e 75a5 ad3e
00000040: a818 b93e 2513 673d e077 afba 6643 223f
00000050: 629f 053e b844 4f3f ac04 b63e 0b43 013f
00000060: 249a 5d3f 4260 213f 48e5 a43e 2c99 dd3e
00000070: 49e5 513f 5f4e 083e cde7 2a3e ee8a a8be
00000080: 454b 78bd 0129 893e ab73 70bd 6582 95bc
00000090: 5f55 4f3e d02a 423e b5bd 86be ca0a 413d
000000a0: f964 ffbe 5425 81be 2460 d3bb 712a d6bd
000000b0: 3685 b33c 327f ed3e 2355 5d3e 726a c2bc
000000c0: 71e1 40be 9988 2dbd aad6 e0be 6b57 82bd
000000d0: afd3 46be 7eb3 cabe fde5 09bf 78dc 12bd
000000e0: e3a8 81bd 908b 9bbe 565c a5bd 4faa d6be
000000f0: 49e5 18bf e882 ffbe 7dcf b5be dd26 943e
00000100: 1260 56bd 9d3b d43d 8cde 37bf 8ee2 0ebf
00000110: ce04 a5be 1fe1 0fbe 0bf6 82bd 42ed 35be
00000120: 7922 153e 75f0 653d 6bad 72bd 1b43 e7bd
00000130: 2125 46be 7847 343c 8152 c9bd a217 85ba
00000140: f677 bf3c 7e17 f1bd 1ff4 f43a e166 853d
00000150: 25f0 7d3d 312d 0a3d 4640 45bb e5c2 d4bd
00000160: d028 df3a 97bb edbc 853b 6a3c 5ca9 1c3c
00000170: 7951 2e3c 5b91 bdbd bb5b 9fbd ef28 fabc
00000180: 5420 b3bc fc08 193a 39df b6bb e7b9 4b3d
00000190: 42a3 b43d 5bc0 013e 5562 de3d 8302 5ebc
000001a0: a6bf ccba 9e45 b8bd b86f 673d bfc9 09be
000001b0: a3a3 0cbd 937a b7bd b0db d33c cd37 e4bc
000001c0: c216 c7bd f377 1bbd 2f7a dcbd db26 e93c
000001d0: 6446 0bbc 83dd ebbd e14a d5bd 86be 94bd
000001e0: 8701 20be 7794 8c3b 1b22 a53b 9141 f73d
000001f0: 12d2 64bc b125 8c3d b169 efbc 5dc3 b13d
00000200: b15c bfbd cea8 17bd 91c9 123d b636 1fbd
00000210: 120b 803c a390 c83d 3705 19bd 6ca4 82bd
00000220: bfa6 c93d 9eb8 b13d 60d7 8cbd 4ee2 a43c
00000230: 31c7 823d 951e 17be 4d56 c63d d1db febc
00000240: 891e 05bf 52bf 05bf eee3 b9bd d7fc e6be
00000250: b107 17be 36d5 413e 03e9 753e 9611 4fbe
00000260: a7fc 71be 4790 97be 3e3d 363d da28 07be
00000270: baeb 073f c275 2fbe 84fd 63bb bfdc 163f
00000280: 9b15 67be 8585 3dbe 972e 1d3f f37a 5abe
00000290: 1bac be3d 5a8a 62be 9387 2a3e ad4b c63e
000002a0: 9ff7 e33d aeb4 973d 3eb5 5d3e af1e 903e
000002b0: 6b07 843e 4199 5bbc b346 413e b15d 563d
000002c0: 30c9 0bbe 1f11 7bbe 0d6e 4bbe 4ee2 0a3e
000002d0: 1c5c ccbb 2c06 16be 2438 2fbe af2a 66bd
000002e0: cb62 83bb 42fb 83be 7e6d d9bd 0e7d c4be
000002f0: 37ab d43d 2710 5fbe e88e e0be e430 21be
00000300: c1f0 fcbc a9cd 81bc 32d5 7cbe f6f3 03be
00000310: 06d5 953e f20e 3d3d 409e 0f3d f0bf 96be
00000320: 524e ea3d 946e 363e 39e5 c3be 157b 08be
00000330: d777 823e 7bbb 0e3e 9c46 d83d 6549 743d
00000340: 1fe0 c3bb 020b 4ebe e130 adbd 3cf5 cbbe
00000350: c37d 70be 593f da3e 542f 303f 5594 4cbf
00000360: c799 483e 1d9a ae3d 5443 91bd 6915 463d
00000370: 2300 563d e31a b23d f05d 543d 345a 57bc
00000380: d6d5 893b ba46 173c 539a 8e3c 5da5 55bd
00000390: b775 84bd 9716 203d 78f0 3c3d 1f65 763a
000003a0: 187c bb3c a18d 113d 2a79 0cbc a86d 90bd
000003b0: da54 e9bb c2a9 14bd 27e1 173d 4709 f73c
000003c0: 4f05 fabd 89a8 2cbd dfca 5ebd 6a71 443b
000003d0: eaed 373b 1762 6f3c a69a cdbc 1988 573d
000003e0: 2531 e93d 993f f0bc a490 8cbd e5ab 463c
000003f0: 3f0a ed3c 3a7a c73b d100 2ebc 07b2 a1bc
0.42692485 0.7221559 1.037434 0.52379024 0.15621218 0.19939367 0.108486205 -0.2439815
0.08614481 0.2073411 0.43015543 0.49586812 0.23775715 0.6273866 0.34775543 0.33915296
0.36151624 0.056414742 -0.0013387166 0.6338409 0.13049081 0.8096423 0.3555044 0.50492924
0.86563325 0.630375 0.32206178 0.43280923 0.81990486 0.13311146 0.16689987 -0.32918495
-0.060618658 0.26789096 -0.05870406 -0.018250654 0.2024741 0.18961644 -0.2631661 0.04712943
-0.49881724 -0.25223792 -0.00645067 -0.10457314 0.021914106 0.46386105 0.21614508 -0.023732398
-0.18835999 -0.042366598 -0.43913776 -0.0636433 -0.19416688 -0.39590067 -0.5386656 -0.035854787
-0.06331041 -0.30379915 -0.08074252 -0.4192681 -0.5972486 -0.4990456 -0.35509863 0.289359
-0.052337714 0.10362933 -0.71823955 -0.55814445 -0.32230228 -0.1405072 -0.06394585 -0.17766288
0.14563932 0.05613752 -0.059247416 -0.11292096 -0.19350101 0.011003368 -0.098301895 -0.0010154138
0.023372632 -0.11772059 0.0018688476 0.06513763 0.061996598 0.033734504 -0.0030098124 -0.10388736
0.0017025713 -0.029020114 0.014296417 0.009561863 0.010639542 -0.0925624 -0.07781168 -0.030537097
-0.021866001 0.00058378256 -0.0055808094 0.049737837 0.088202015 0.12671034 0.10858599 -0.0135504035
-0.001562108 -0.089976534 0.056503028 -0.13455866 -0.034335744 -0.08958926 0.025861591 -0.02785864
-0.097211376 -0.03795619 -0.10765492 0.02846091 -0.008500669 -0.115168594 -0.10414673 -0.07262902
-0.15625583 0.0042901593 0.005039466 0.12073053 -0.0139661 0.068431266 -0.029225202 0.08679841
-0.09343851 -0.03702622 0.03583676 -0.038870536 0.015630279 0.09793212 -0.03735849 -0.06379017
0.098462574 0.08677791 -0.06877017 0.020127442 0.06385649 -0.1475776 0.09684429 -0.031110676
-0.5199972 -0.52245057 -0.09076677 -0.45114776 -0.14749028 0.1892899 0.24014668 -0.20221552
-0.23631535 -0.29602262 0.044492 -0.13199177 0.53094065 -0.17134765 -0.0034788558 0.5893058
-0.22566836 -0.18507965 0.61399215 -0.21335964 0.0931017 -0.2212309 0.1665328 0.3872961
0.11131214 0.07407509 0.2165117 0.2814841 0.2578691 -0.013403238 0.18874626 0.052335445
-0.13650966 -0.2451825 -0.198662 0.13562891 -0.006236566 -0.14650792 -0.1711126 -0.05619305
-0.00400958 -0.25777632 -0.10616587 -0.3837666 0.10384219 -0.21783505 -0.4385903 -0.15741307
-0.03087652 -0.015845137 -0.24690703 -0.12886032 0.29264086 0.04615683 0.03506303 -0.29443312
0.1144072 0.1781562 -0.3826082 -0.13328202 0.25482056 0.13938706 0.10560343 0.059640307
-0.005977645 -0.20121387 -0.084565885 -0.39835536 -0.23485474 0.42626455 0.68822217 -0.79913837
0.19589911 0.085254885 -0.0709292 0.048360262 0.052246224 0.086965345 0.0518474 -0.013144065
0.0042063994 0.009233171 0.017407572 -0.052159656 -0.06467765 0.039084043 0.046127766 0.00093992235
0.022886321 0.03553546 -0.00857381 -0.07052165 -0.007120711 -0.036294706 0.037079956 0.030155791
-0.12208044 -0.042152915 -0.05439269 0.0029974827 0.0028065392 0.014610789 -0.025098156 0.052620027
0.11386327 -0.0293272 -0.068635255 0.012125944 0.02893555 0.0060875686 -0.010620312 -0.01973821

cell_list.0.conv.bias f4 [32]
00000000: 6a80 223d 0daa 1b3d 3c2c 443e fb8c 763e
00000010: 8bfb 7f3e 0833 153f a12e 903e 0870 74bd
00000020: 322e 89bf 5065 cbbf 149e a3bf 3770 8fbf
00000030: 3d0e 8ebf 9213 9cbf d338 91bf 8b53 bcbf
00000040: b0e5 fcbb d937 54bf c5b7 833e 47fa dc3d
00000050: 2d3e a33e decb 153f d4cb e23d 629a 2a3d
00000060: 9333 5ebe 5987 043e ad73 553e 69bd ddbd
00000070: e0d3 0bbe 7393 e43d 5df2 843e f7a8 5cbd
0.039673246 0.03800397 0.19157499 0.24077217 0.249983 0.5828099 0.28160575 -0.059677154
-1.0717223 -1.5890293 -1.2782617 -1.120612 -1.1098095 -1.2193472 -1.1345466 -1.4712995
-0.0077178106 -0.82897717 0.25726143 0.10789924 0.31883374 0.585142 0.110740334 0.041651137
-0.21699362 0.12942256 0.20844908 -0.10827143 -0.13655043 0.11160936 0.25966159 -0.053872075

cell_list.1.conv.weight f4 [32, 16, 3, 3]
00000000: 44cb a73e 07c4 dfbe 8b25 cabe 1f1c e43e
00000010: 6184 da3e afe8 2cbf 6e34 ac3f 2ffc 373f
00000020: d382 35bf eb37 55bf 0d81 04bc 65da 933f
00000030: d003 50bf 5993 a63f cae1 0dbf 82c3 05bf
00000040: c493 c43f 4111 5abf 77ef 97bf 3e0a debe
00000050: 48f3 d5be a30d 53bf b492 99bd 4e43 2a3c
00000060: 4d21 96bf e2a3 35bf e22a 40bf 4a12 fbbd
00000070: c37a 14bf a50a babe dd1d c9be d867 16bf
00000080: cf42 babe f4a7 15be 89c0 c7bd 1dd0 0c3e
00000090: ae33 483e 3584 28be 5375 19bf fdfc 92be
000000a0: 8cb2 13bf 12f0 a2be 4945 fbbe f595 3f3e
000000b0: 51ec 4e3e 7cb2 89bf 6e42 a33e 5921 8a3f
000000c0: 6680 96bf 2b69 1d3f 415b c33f b773 8dbd
000000d0: a3fa 77be 23eb 93be 8ec3 2a3f f365 3cbf
000000e0: 8f01 47bf 0e73 babe de4a 5abf 77b8 64bf
000000f0: f97b 41bf 9a0e 0ebf f9e7 4dbf 02a9 fa3e
00000100: 95a3 b3be 9671 7fbf ab0a b33e c9a6 ac3e
00000110: 9569 df3e 1e37 f33e 3050 443f bacc 3a3f
00000120: 603f 6b3b 1177 f93c 7cb6 0b3d a8a2 0c3c
00000130: f24a 85bd e1ec c43d 97b1 1ebe 7a05 0bbe
00000140: 5a7e c63d 646d 8ebb 7993 323c 8aac 9c3d
00000150: c5bc 4abe b202 0fbd 0eaa 4abd 42de 75bc
00000160: 9883 9d3c 3b49 c73d 9914 db3d e9d0 04be
00000170: 6712 a93d 62e4 13be d896 6ebd cf0f 8b3c
00000180: 21c1 57bd 3c24 04bd 2eb8 19be 4e6e 01be
00000190: e5f3 8bbd 63a4 98bd 7f75 4ebe 5ae8 42be
000001a0: 1f12 cdbd f276 11be cd22 61bd d7ce 14bd
000001b0: 4634 71bc 0c33 4c3d cbc7 85bb 644e 843d
000001c0: ea85 b83d 6666 f8bd 898b a63d 5968 403d
000001d0: c4c9 debc a6b9 ddbd 134e 8d3c e57a 293c
000001e0: 733d 0e3d 1692 103c 20df 55ba e77f 113e
000001f0: e62a 00be 0624 f13d d204 543e 4bfe d23d
00000200: 89d5 593e e559 40bc fa04 86bd 6c85 1abe
00000210: c7f5 373d 495b e23c 2157 bf3d 239d 9f3d
00000220: 4d23 eebd 37ab 1239 0329 2cbe 68ca 0fbd
00000230: 3116 713d f687 0fbe ac0d 243d f631 153b
00000240: 3106 7b3f 3d65 f63e 6d14 80bc d27a ce3e
00000250: 448d a93f 3626 bcbe 3854 db3e e466 463e
00000260: 9935 f9be af3e 43be f005 cb3d 9619 0abf
00000270: 5334 493e 6da8 783f ffc2 8abc be65 463f
00000280: 5169 e93e 818b 853c dc21 b1be 0f19 a33e
00000290: d198 40bd 38d9 4cbf 921d 7bbf 7194 ddbe
000002a0: a80d 68bf f182 69bf d11b 03bf ae31 2cbe
000002b0: aef1 583d 6f33 a23d 1387 afbe 40ee 363e
000002c0: e83d 25bf 2b9a ec3c 7696 34bf f4df 7d3d
000002d0: 0748 09be 731a a2bf 1334 c9be 2bd7 c5bf
000002e0: aa7b 3bbf fe37 29bf 4059 42bf b001 7fbe
000002f0: 9a85 6a3e 66e0 763d a668 4a3e 618b 06be
00000300: 13ce 993d ae40 293f a906 133f 27c7 f33d
00000310: 9449 02bf 018b 4fbe 39f5 35bf 0969 94bf
00000320: fa87 763e afab 17bf ab7e 96be 3da2 1ebe
00000330: 2755 efbd 9fca a2be 7abf 9abe 3cf7 6f3f
00000340: 4b3b 9b3d f514 813f b501 853f 424a 6abe
00000350: 5666 773e d0a9 443f 104a 153e 6501 a53e
00000360: c40e 2d3e fdf6 413e f8fc aa3d ef6f a53b
00000370: ba7e bd3d f570 6a3d 3dc0 833d 7c1e 313d
00000380: 7141 0f3d e6dd 133c c39c 5b3c 94ff 7fbc
00000390: f1af 36bb 1bd5 38ba b870 2a3c e6a4 083d
000003a0: e776 d63c e01e 5ebb d5f1 0fbd 7254 92bd
000003b0: 714d be3c b73e 55bd 724b a4bd 5776 68bb
000003c0: e0d8 3bbd a69b babc 7f96 68bd b0bc ccbd
000003d0: a7fe b3bd 587f e1bd 1b30 e7bd fc9c 1fbe
000003e0: 6c40 a4bd fbe6 85bd 229f 43bd 3b06 9d3c
000003f0: 6465 003c 47c7 b23b 1a43 05bc b60a 0bbc
0.32772267 -0.43704244 -0.39481768 0.44552705 0.42679122 -0.67542547 1.34535 0.71869177
-0.70902747 -0.8328845 -0.008087409 1.1551024 -0.8125582 1.3013717 -0.5542265 -0.52251446
1.5357594 -0.8518258 -1.1869954 -0.4336719 -0.4178717 -0.82442683 -0.074986845 0.010392023
-1.1728913 -0.7095319 -0.75065434 -0.12259348 -0.5799982 -0.36336246 -0.39280596 -0.58752203
-0.36379096 -0.1461485 -0.0975352 0.13751264 0.19550964 -0.16456683 -0.5994465 -0.2870864
-0.57694316 -0.31823784 -0.49076298 0.18709548 0.20207335 -1.0757594 0.3188662 1.0791427
-1.1757934 0.614886 1.5262223 -0.069068365 -0.24216704 -0.28890333 0.6670464 -0.7359306
-0.77736753 -0.36415905 -0.8527049 -0.8934397 -0.7557979 -0.5549103 -0.8043209 0.48957068
-0.3508574 -0.99782693 0.34969077 0.33720997 0.4363524 0.4750299 0.76684856 0.7296864
0.0035895929 0.030452283 0.034109578 0.008583702 -0.06508435 0.096154936 -0.15497433 -0.13576308
0.096920684 -0.0043465365 0.010899418 0.07650097 -0.19798572 -0.03491468 -0.049478583 -0.015006604
0.019227788 0.097307645 0.10697288 -0.12970318 0.08255463 -0.1444259 -0.058249325 0.016975312
-0.052674416 -0.03226112 -0.15011665 -0.12639734 -0.068336286 -0.07453229 -0.20162009 -0.19033948
-0.10013222 -0.1420553 -0.05496483 -0.03633007 -0.014721936 0.04985337 -0.004082655 0.06460264
0.09009917 -0.12128906 0.08132083 0.046974514 -0.027195819 -0.10826425 0.017249143 0.010344242
0.03472657 0.008823892 -0.00081585534 0.14208947 -0.12516364 0.11774449 0.20704964 0.10302409
0.21272863 -0.0117401825 -0.06543918 -0.15089959 0.044912126 0.027631419 0.093427904 0.07793643
-0.11627827 0.00013987428 -0.1681252 -0.03510514 0.058859054 -0.14016709 0.0400521 0.0022765375
0.9805632 0.48124114 -0.01563474 0.4032808 1.3246236 -0.36747903 0.4283769 0.19375187
-0.48673704 -0.1906688 0.09913242 -0.5394529 0.19648866 0.97132 -0.016938685 0.77498996
0.45588163 0.016301872 -0.34596145 0.31855056 -0.047020737 -0.8001895 -0.98091996 -0.43277314
-0.9064584 -0.91215426 -0.5121432 -0.16815826 0.05296486 0.079199664 -0.3428274 0.17864323
-0.64547586 0.028882107 -0.70542085 0.061981156 -0.13406383 -1.2664322 -0.39297542 -1.5456289
-0.7323557 -0.6610106 -0.75917435 -0.24902987 0.22902527 0.060272597 0.19766483 -0.13139106
0.07510009 0.6611432 0.5743204 0.1190322 -0.5089352 -0.2026787 -0.71077305 -1.1594554
0.24075308 -0.59246343 -0.29393515 -0.15491576 -0.116861634 -0.31795213 -0.3022421 0.93736625
0.075796686 1.008452 1.0391146 -0.2287989 0.24160132 0.76821613 0.14579034 0.32227626
0.16900164 0.18941875 0.08349031 0.005048744 0.09252687 0.05723663 0.06433151 0.043241963
0.03497452 0.009025073 0.013404074 -0.015624899 -0.0027875865 -0.0007050798 0.010402851 0.033360384
0.026179744 -0.0033892915 -0.03514274 -0.07145013 0.023230286 -0.052061763 -0.080222026 -0.0035470927
-0.045861125 -0.022779297 -0.05678415 -0.09996927 -0.087888055 -0.11010617 -0.11288472 -0.15587229
-0.080201 -0.06538197 -0.047759183 0.01916801 0.007836673 0.0054558846 -0.008133674 -0.00848644

cell_list.1.conv.bias f4 [32]
00000000: cb49 75be e891 133e 1ad8 1b3f 18fb 363f
00000010: 2520 3b3f 01c6 0a3f 492a 273e 3a71 af3e
00000020: fe90 c0bf 3f37 18c0 1954 a9bf 30c9 b3bf
00000030: be71 a4bf 90fe 8ebf 9c13 d5bf 4fa8 a6bf
00000040: cde2 36be c34f 6a3f 0e76 2fbd 4273 ca3d
00000050: 79e5 f53d a4f6 cc3e 7943 d4bd da76 89bb
00000060: 8001 3fbd 4d88 9e3c 7e0c f13d a16d 3cbd
00000070: fbcc 25be 9872 98be e24b 2fbe 652b 303e
-0.23953931 0.14411128 0.6087662 0.7147689 0.73095924 0.5420838 0.16324724 0.34266073
-1.5044248 -2.378372 -1.322879 -1.4045773 -1.2847211 -1.1171436 -1.6646609 -1.3020114
-0.17859955 0.91527957 -0.042837195 0.09885265 0.12006659 0.40031922 -0.10364432 -0.0041950764
-0.04663229 0.019352103 0.11769961 -0.046002988 -0.16191475 -0.29774928 -0.17118791 0.17204054

cell_list.2.conv.weight f4 [32, 16, 3, 3]
00000000: 37bc abbe f794 e0bd e423 473e 97bb 66be
00000010: 337c c33d aebc 143d 6d01 1d3e c8b1 1fbe
00000020: dd74 ec3d 3fb6 e0be 3f4e 923e eb30 0dbe
00000030: a2d2 9abf 3623 f7be b7d8 b13e 7dc7 8abd
00000040: 7838 7abc c90c ac3e bbce d0be 82d1 8c3c
00000050: f4d7 453e fbee 2abe 93a8 26bf f2f1 04bf
00000060: 54d1 25bf a27a 81be b2db 91be ecb3 32be
00000070: 01aa a5be 3987 71bf 54e9 e8be a5c9 f4be
00000080: b470 c4be 733c 2fbe 88a6 d6be 5917 b0be
00000090: adc8 203f da95 a8bd b635 db3d c7dc 873f
000000a0: 3bda ac3e 8f9c bfbe b88c cc3e cc8b 82bd
000000b0: d791 f1bd a6ac 0d3e 6251 bb3e 0bcc 0c3d
000000c0: 246b 953d d0d2 dd3e df99 813f 1abb 65bd
000000d0: 9245 d43e 31a2 203f 5220 b73d 9ee4 9bbe
000000e0: db13 32bd 4a45 2b3f fc0d 5e3e fa65 cfbe
000000f0: 8555 87be 54de 3fbe 8008 62be d5fa f1be
00000100: 9547 933d aac0 bebc f103 47be 5848 433d
00000110: 4f93 b83e f3f6 bb3d ec6d 073f 9fb7 183f
00000120: 2b11 e53c 1ed6 813c ee14 e83a 4811 9ab9
00000130: 68d8 45bc 85c2 483d 208a 223d a899 d1bc
00000140: aa9d 83bb 4e02 6cbd ef7a 493d 5af6 fabd
00000150: 9d09 68bd d694 c63c 3bd1 9ebc 3234 c93c
00000160: 7552 933b f3f1 2cbd 7cc8 723e e230 583e
00000170: ffd0 303e d68e bc3d b9c7 963d a8dc 8c3d
00000180: b89b 6dbc ec05 e3bc 3d5c 12bc edae 903d
00000190: 2f8b a83c 458f 87bd 7597 2dbe 4dee 0dbe
000001a0: b88c debd f079 d9bd fe30 72bd 3ac3 82be
000001b0: 7ba9 33bd 54cb f5bd 43bb cfbc b463 34bd
000001c0: ddc4 043c 3a8c 9dbc b5c7 353d 1c5f 91bd
000001d0: 9544 c2bd 6030 e93d 2881 513d a9d1 b13d
000001e0: d4f1 6e3d ab55 5abe 847e 7ebe 018a 33bb
000001f0: c660 223d 2521 32be e446 f5bd b867 c33c
00000200: a3a9 ff3d 2f16 39bd a883 cc3d 41d4 543d
00000210: 9ddc 9dbc 325d 303e e93a 8f3d d4a9 0d3d
00000220: de08 713d 1eac 193d c8ca 4abd a662 80bc
00000230: 80b6 403d 21c8 2e3e eca8 d83c af5e 1b3e
00000240: 4555 583f 6bf4 d13f 1043 6a3d 86b6 21c0
00000250: 4753 d43e 9c0f ae3e 4f27 443f ff96 1c3e
00000260: 81fc df3e 5b87 8e3e 5b4f da3d b2fd cc3b
00000270: 6660 9a3c 1896 ee3d 0f32 403d 5abc 73be
00000280: 5eda c73c ed82 043e ca80 b0bf 4371 97bf
00000290: 415a 463e 09a2 debf 2159 3cbf 6e60 923f
000002a0: f4fc 5e3c b908 c2ba 208c 20bf 0ebd a5bf
000002b0: fa70 05be c8a8 9ebf 64eb 91bf b31d fdbf
000002c0: fed6 97be 94ed 6abf 9a0d 9ebe 0194 e53d
000002d0: e410 443d 382a 003e 26f4 913e 1e5c 03bd
000002e0: f142 003e 3b93 a53d 9ea0 9b3f 6133 633c
000002f0: e904 9c3e 5c78 453f 0d3a 553d 763a 953e
00000300: 866a bc3e 96ae c9be 24d5 90bd 20f1 2a3f
00000310: 147d 893f 1531 213f d7a0 34bf 53f9 5dbf
00000320: 0a0d 853f d4e6 1bbf 9e04 a4bf 9a84 673f
00000330: 5b78 b43f 48f0 be3f 425a 5a3e 3807 1d3f
00000340: 8646 de3e d8c4 08be baf3 7d3f 8db3 ec3d
00000350: cb1b 073e 783b 20bf 9dd7 a43d ebf3 84bb
00000360: 4ee3 c43c 9ebc 913c 0e76 84ba e8df a53b
00000370: a528 413b b790 403c 085c fb3b 0141 4dba
00000380: 5953 643b 83bb 313c ea19 003c e8e2 b0bb
00000390: 10cf cab9 3b5b 423b 0949 3b3a 20cb bbba
000003a0: a083 a43a e31c 563b 047e bb3c 98eb 46bd
000003b0: 6c87 a6bb 278b 09bd 1ece fc3c c93b 29bc
000003c0: 6ca8 1cbd 5946 773b 7e3c 7bbc a282 423b
000003d0: 4d00 efbb a786 8fbc cb6c 7fbc a136 e2bc
000003e0: bcc2 cebc 05a1 2cbc 8a1e a2bb 951e be3a
000003f0: f420 563b 2eae 87bb 171a 5e3b c658 7ebc
-0.33542034 -0.10965913 0.19447285 -0.22532497 0.095451735 0.03631275 0.15332575 -0.15595162
0.115457274 -0.43889043 0.28575322 -0.13788192 -1.209553 -0.4826905 0.34735653 -0.067763306
-0.015272252 0.33603504 -0.40782723 0.017189745 0.19320661 -0.16692726 -0.65100974 -0.5193168
-0.64772534 -0.25288874 -0.28487927 -0.17451447 -0.32356265 -0.9434696 -0.45490515 -0.47810093
-0.38367236 -0.17112903 -0.41923928 -0.34392813 0.62806207 -0.08231707 0.10703604 1.0614251
0.33760247 -0.37424132 0.3995111 -0.063743204 -0.11795395 0.13835391 0.36585528 0.034374278
0.07295826 0.433249 1.0125083 -0.056086637 0.41459328 0.62747484 0.089417115 -0.3044786
-0.043475967 0.669026 0.21685022 -0.4050749 -0.26432434 -0.18737155 -0.22073555 -0.47261682
0.071913876 -0.023285229 -0.19435097 0.047676414 0.36049888 0.09177961 0.529021 0.59655184
0.027962288 0.01584917 0.0017706433 -0.00029386044 -0.012075521 0.049013633 0.039682508 -0.025585964
-0.0040165978 -0.057619385 0.049189504 -0.12254019 -0.056649793 0.024240892 -0.019386878 0.024561021
0.0044959136 -0.04222293 0.23709291 0.21112397 0.17267226 0.09206931 0.07362313 0.06878024
-0.014502458 -0.027712785 -0.008933124 0.070646144 0.02057418 -0.06619123 -0.16952308 -0.13860436
-0.10866684 -0.10618961 -0.059128754 -0.2553957 -0.0438628 -0.120016724 -0.025357848 -0.044040397
0.0081035765 -0.019231904 0.04437991 -0.07098219 -0.09485737 0.1138618 0.051148564 0.086825676
0.058336094 -0.21321742 -0.2485295 -0.002739549 0.03964307 -0.17395456 -0.11976412 0.023853168
0.124835275 -0.04518717 0.09986049 0.051960234 -0.019270236 0.17223051 0.06993658 0.03458579
0.058846347 0.03751766 -0.049509794 -0.01567204 0.047049046 0.1706853 0.026447736 0.15172838
0.8450511 1.6402715 0.057192862 -2.5267653 0.41469786 0.33996284 0.7662248 0.15291975
0.43747333 0.27837643 0.10659667 0.006255829 0.018844794 0.11649722 0.04692274 -0.23802319
0.024396118 0.12940569 -1.3789303 -1.183144 0.19370367 -1.7393199 -0.735735 1.1435678
0.013610113 -0.0014803625 -0.62713814 -1.294832 -0.13031378 -1.2395258 -1.139996 -1.9774688
-0.29656214 -0.91768765 -0.30869752 0.1120987 0.04786767 0.12516105 0.28506583 -0.03207027
0.12525536 0.080847226 1.2158391 0.01386723 0.30472496 0.7713678 0.052057315 0.29146165
0.3680002 -0.3939101 -0.07071903 0.6677418 1.0741296 0.6296552 -0.7055792 -0.86708564
1.0394604 -0.6089909 -1.2813909 0.9043671 1.409923 1.4917078 0.21323493 0.6133914
0.4341318 -0.1335634 0.9920002 0.11557684 0.13194196 -0.6259074 0.080489375 -0.0040573976
0.024034169 0.017790135 -0.0010105984 0.005062092 0.002947369 0.011753253 0.007670883 -0.0007829816
0.0034839718 0.010847929 0.007818678 -0.005398143 -0.00038682716 0.0029656428 0.0007144367 -0.0014327504
0.0012551434 0.0032671026 0.022887237 -0.048564523 -0.0050820615 -0.03357997 0.030860003 -0.010329195
-0.038246557 0.003773114 -0.015334247 0.0029679914 -0.007293737 -0.017520262 -0.015589903 -0.02761394
-0.025239341 -0.010536437 -0.004947488 0.0014504964 0.003267345 -0.004140637 0.0033890062 -0.015524095

cell_list.2.conv.bias f4 [32]
00000000: 7ecd bfbe 366e cc3e ce90 ebbe ab7f a2be
00000010: dd10 ddbe 982c a6be b81f dcbe 47f6 1bbf
00000020: 8f8c 34bf 21f3 35c0 a6d8 89bf 0257 26bf
00000030: 4bd8 66bf 7a7e 4ebf 7654 85bf 4085 81bf
00000040: 049c 98bf 5fe3 6f3f 4814 41bf 3a1c 81bf
00000050: 75f7 8dbf c800 38bf b929 7abf 7a00 72bf
00000060: 78f5 97bd e2fa ee3d 21fc 253d b234 e23c
00000070: 735a 5b3d 86a6 cfba 6612 57be c07d 873c
-0.37461466 0.39927834 -0.46008915 -0.31738028 -0.43176928 -0.32455897 -0.4299295 -0.60922664
-0.70526975 -2.8429644 -1.0769241 -0.64976513 -0.90173787 -0.8066174 -1.04164 -1.011879
-1.1922612 0.93706316 -0.7542157 -1.0086739 -1.1091143 -0.7187619 -0.97719914 -0.9453198
-0.07419866 0.11668946 0.040523652 0.027613018 0.053553056 -0.0015842475 -0.21003112 0.016539454

batchnorm_list1.0.weight f4 [8]
00000000: ab98 4f3f ed0f 403f 6079 5d3f 57da 503f
00000010: 78d2 383f d872 4d3f 0646 453f fbc1 313f
0.8109233 0.750243 0.8651333 0.8158316 0.7219615 0.8025336 0.7705997 0.69436616

batchnorm_list1.0.bias f4 [8]
00000000: 8188 22be e29b 37bd 3c21 c53d 9d2a 073e
00000010: 5b52 413e 3094 ccbd c6df 01bd c2bd 573d
-0.15872385 -0.044826396 0.096254796 0.1319985 0.18879072 -0.09989202 -0.031707548 0.0526712

batchnorm_list1.0.running_mean f4 [8]
00000000: 4251 18be 2036 bf3b 1f37 f5bc 1ea8 f73a
00000010: 6d0d e93b 2a61 adbb 1179 45bd 7e5c 0b3b
-0.14874747 0.0058353096 -0.02993351 0.0018894707 0.007112196 -0.005291124 -0.04821116 0.0021264846

batchnorm_list1.0.running_var f4 [8]
00000000: b6bd bb3d f401 5f3b 4ff8 423d 3828 ba3c
00000010: bc8f 143d f4b2 b93c 3386 913d a038 a03c
0.09167044 0.0034028264 0.047600087 0.022724256 0.03626989 0.02266834 0.071056746 0.01955825

batchnorm_list1.1.weight f4 [8]
00000000: 4870 723f 15ea 473f 09b8 5d3f 7edf 623f
00000010: 747b 5b3f 8d86 553f 05ab 5b3f 40f5 6d3f
0.9470258 0.78091556 0.8660894 0.8862227 0.8573525 0.83408433 0.8580783 0.92952347

batchnorm_list1.1.bias f4 [8]
00000000: ceb2 8fbd 9470 873d cdea f5bc 28a6 ac3d
00000010: 385f 3dbd 00a1 8cbd 390c 703d c853 e3bc
-0.07016526 0.066132694 -0.030019188 0.08430129 -0.046233386 -0.06866646 0.058605406 -0.027749911

batchnorm_list1.1.running_mean f4 [8]
00000000: a077 b4bb a5ab fe3b 69bc d0bc 33cb 233d
00000010: e456 22bd 4dff 53bd 52ef 343d c4a7 be3b
-0.0055074245 0.0077719265 -0.025480466 0.039988708 -0.039633647 -0.051757146 0.044173546 0.005818339

batchnorm_list1.1.running_var f4 [8]
00000000: 90d7 e23c df64 e43c ef98 633d 3f0e 0c3d
00000010: 8efb bb3c bd66 c63c db42 5e3d d43b 463d
0.027690679 0.02788013 0.05556577 0.034193274 0.022947099 0.024218911 0.054262977 0.0483969

batchnorm_list1.2.weight f4 [8]
00000000: 7184 673f ef8f 623f 3f5f 833f f6b7 793f
00000010: 2928 723f 16ce 793f 79fb 713f f74c 7b3f
0.90436465 0.88500875 1.0263442 0.9754633 0.9459253 0.9758009 0.9452434 0.98164314

batchnorm_list1.2.bias f4 [8]
00000000: b2f2 efba 2342 1b3b e1be 29bb 5a70 9b3a
00000010: a058 8eba 54c8 1aba 4afc 94ba a0cc 963a
-0.0018306582 0.0023690544 -0.0025901126 0.0011859045 -0.0010860153 -0.0005904485 -0.0011366692 0.0011505075

batchnorm_list1.2.running_mean f4 [8]
00000000: 4219 7dbb 4de1 2d3c 25d9 6a3b 5340 abbb
00000010: bab0 443c a1ed 14b9 b6d6 70bc 5013 c4ba
-0.003861979 0.010612798 0.0035834995 -0.005226174 0.0120050255 -0.00014202904 -0.014699629 -0.0014959369

batchnorm_list1.2.running_var f4 [8]
00000000: d037 c13b a21c 653d 43b4 8b3b cb39 dc3b
00000010: 6b5f ec3b 3186 ca3c 4a5c ab3a cc8e fd3b
0.005896546 0.05593551 0.004263432 0.0067207566 0.007213523 0.02472219 0.0013073769 0.00773797

batchnorm_list2.0.weight f4 [8]
00000000: 593c e93e 76fd c93d ab26 303e 6fa2 b03d
00000010: d447 1b3e 74b1 e33d e5cf a83e 67bc 003e
0.45553854 0.09862797 0.1720225 0.08624732 0.15164119 0.11117831 0.3297111 0.1257187

batchnorm_list2.0.bias f4 [8]
00000000: 1c14 373d f889 80bd 1b08 08ba 09cf afbc
00000010: c063 aa3b 00e1 65bc 6d5e 76bb d345 e9bc
0.044696912 -0.062763155 -0.0005189196 -0.021461027 0.0051998794 -0.014030695 -0.0037592903 -0.028475678

batchnorm_list2.0.running_mean f4 [8]
00000000: 02bc 28be 7f77 d83c f4a7 7dbc 068b 8bbd
00000010: 980b 98bd 86f6 233d c226 8abd 7809 843b
-0.1647797 0.026424168 -0.015481938 -0.06813626 -0.07424086 0.040030025 -0.06745674 0.004029449

batchnorm_list2.0.running_var f4 [8]
00000000: 561e e03e 1e8f 103d 5b5b 433e 9cf0 033e
00000010: cf4f 243e 03b3 9e3d 3a13 8f3e f047 bd3d
0.43773144 0.035292737 0.19077818 0.12884754 0.1604607 0.077489875 0.27944356 0.092422366

batchnorm_list2.1.weight f4 [8]
00000000: 4459 7e3e 6cdb 793e 4700 303e 9db1 f33e
00000010: 741d 293e 24e9 313e 9f49 203e 99c7 603e
0.2483874 0.24400109 0.17187606 0.47596446 0.16515142 0.17374092 0.15653084 0.2195114

batchnorm_list2.1.bias f4 [8]
00000000: f2e2 acbc 4579 5c3d b7a0 90bc e394 293a
00000010: b2e0 0fbc 349f 923c f325 25bb 1eb3 3d3c
-0.02110431 0.05382659 -0.01765476 0.0006469024 -0.008781599 0.01789818 -0.0025199621 0.011578349

batchnorm_list2.1.running_mean f4 [8]
00000000: 6cc2 d5bc 2f79 5a3d ba78 95ba 2483 403d
00000010: d7db e3bd bbca 18bd f027 943c ad68 813d
-0.026093684 0.053338226 -0.0011403777 0.047000065 -0.111259155 -0.037302714 0.01808545 0.063187934

batchnorm_list2.1.running_var f4 [8]
00000000: 295a c03d e463 013e 9671 173e 063d 843e
00000010: ee85 c33d 8a83 0e3e 257f fc3d 8bb9 153e
0.09392197 0.12635761 0.14789423 0.25827807 0.095470294 0.13917366 0.123289384 0.1462156

batchnorm_list2.2.weight f4 [8]
00000000: 8785 193f 7583 b43e d967 123e b329 3c3f
00000010: b394 cf3e d51d 993f 363e 953d d09a 323f
0.5996937 0.35256544 0.14297427 0.7350113 0.40543136 1.1962229 0.072872564 0.69767475

batchnorm_list2.2.bias f4 [8]
00000000: 097b 9db8 5ad9 a93d b653 4f3b 4a03 03b9
00000010: aa6d 48ba d2f4 b539 cf22 10ba 7b57 273b
-7.5092605e-05 0.0829341 0.003163559 -0.00012494359 -0.0007645736 0.00034705416 -0.0005498351 0.002553432

batchnorm_list2.2.running_mean f4 [8]
00000000: 534f 933d 7afb 97bb 9d52 3cbc 9b5a c5bd
00000010: f401 dc3d 4924 06be 16fa 3bbd b1b5 a43b
0.07192864 -0.0046381326 -0.011494306 -0.09636422 0.1074256 -0.13099779 -0.045892797 0.005026542

batchnorm_list2.2.running_var f4 [8]
00000000: c043 193f e5ec 5b3e 53f7 5d3d 4ad2 4a3f
00000010: cd03 923e adee 1d40 a663 fe3c 6d52 4b3f
0.59869003 0.21477087 0.054190945 0.79227126 0.28518525 2.4676926 0.031053375 0.79422647
