models/convlstm/saved_models/lr_0.0001/epoch_3500.pt (torch, 68130 bytes, 30 tensors)

cell_list.0.conv.weight f4 [32, 16, 3, 3]
0.32171768 0.6624049 0.7746961 0.4038023 0.23129226 0.24669841 0.092402704 -0.15859604
0.15378289 0.15616328 0.2840316 0.38338622 0.12661427 0.4075325 0.30314878 0.34029302
0.36092934 0.11302588 -0.07390696 0.6674298 0.17070146 0.50344735 0.3052129 0.53225666
0.8693838 0.4254036 0.37865242 0.34406775 0.6338783 0.09492554 0.14990151 -0.18361117
-0.055368498 0.17589733 -0.057906535 0.012572137 0.103951626 0.14570373 -0.25271624 0.0034876016
-0.39845675 -0.20947918 -0.009755255 -0.10142865 0.048989747 0.34922048 0.2346869 0.04382451
-0.050267164 -0.011196901 -0.37881666 0.024577139 -0.15997364 -0.45131972 -0.3343493 0.0016562964
0.06850081 -0.28041187 -0.026595574 -0.24105056 -0.5589532 -0.36116093 -0.31923974 0.06646153
-0.118359424 0.093085445 -0.51709944 -0.3641343 -0.21512932 -0.15310776 -0.15357922 -0.24771576
0.08500632 0.063555114 0.013528181 -0.1915468 -0.24322686 -0.02577101 -0.07419848 -0.0049886974
-0.02156606 -0.05226203 -0.054977287 0.059106756 0.07067022 0.045353387 0.013933204 -0.046971705
0.020801395 -0.06814077 -0.020116566 -0.0063646873 0.0129132895 -0.07176773 -0.07663461 0.01679591
-0.03554562 -0.016417038 0.05304506 0.03961522 0.09159757 0.0872847 0.04364741 0.00029042445
0.007519022 -0.06407723 -0.02388685 -0.16399114 -0.076197766 -0.08253525 0.032839116 -0.060926378
-0.08882674 -0.066098996 -0.113978535 0.10534904 0.015106585 -0.04566141 -0.1050963 -0.025616031
-0.17545952 0.008785876 -0.021375889 0.11312875 -0.0073769735 0.115552835 0.049047746 0.14514491
-0.08950107 -0.008946207 0.050683226 -0.016593967 -0.024205148 0.09998359 -0.05408994 -0.095312156
0.13996102 0.09951281 -0.07538743 -0.004548753 -0.0075789997 -0.063832305 0.031190028 -0.045959786
-0.49332437 -0.4602384 -0.08110609 -0.3849961 -0.18300645 0.19384147 0.14514714 -0.21655259
-0.19357882 -0.25077388 0.024807023 -0.104876496 0.42950222 -0.13922241 0.041909974 0.5675132
-0.14176269 -0.1896621 0.3910039 -0.19471867 -0.00021418146 -0.18367307 0.1499269 0.27588874
0.11094544 0.12206065 0.23882699 0.2664203 0.23128887 -0.014774886 0.17920761 0.0812635
-0.091983885 -0.21963766 -0.23009658 0.09079921 -0.029473923 -0.13795325 -0.14717944 -0.060223028
-0.01015256 -0.1994837 -0.12717894 -0.34850717 0.07884984 -0.24495909 -0.3920967 -0.17400584
-0.01780754 -0.018321257 -0.2089693 -0.118728824 0.1821587 0.11987067 -0.033283 -0.14595959
0.09467024 0.15447757 -0.34901008 -0.08345515 0.20110182 0.1274563 0.059316963 0.03615327
-0.0014255462 -0.1707704 -0.085484885 -0.3441776 -0.18303916 0.36071748 0.48456085 -0.6913216
0.17915095 0.06663342 -0.07561829 0.059106976 0.05160747 0.07797708 0.04047091 0.005027116
0.01796067 0.0014341378 0.04066832 -0.03240024 -0.060678493 0.040657684 0.049591374 0.0076620993
0.032155562 0.04829875 -0.008073478 -0.0842541 -0.008970935 -0.034988355 0.029929684 0.052269403
-0.11701587 -0.038505685 -0.050876588 0.00612124 0.012746824 0.038647454 -0.009191874 0.03033984
0.10411915 -0.049895808 -0.032702714 0.025481142 0.037035458 -0.0070176413 -0.02599239 -0.0069968035
00000000: 2eb8 a43e 5e93 293f 7c52 463f 2dbf ce3e
00000010: e1d7 6c3e 829e 7c3e a13d bd3d 0067 22be
00000020: 4379 1d3e 44e9 1f3e 976c 913e 334b c43e
00000030: 2ca7 013e 1aa8 d03e 5136 9b3e e33a ae3e
00000040: bbcb b83e 1d7a e73d 885c 97bd aedc 2a3f
00000050: 5dcc 2e3e ede1 003f dd44 9c3e f941 083f
00000060: f08f 5e3f 80ce d93e bbde c13e a629 b03e
00000070: d945 223f 5268 c23d c87f 193e 9104 3cbe
00000080: 14ca 62bd 6e1e 343e 672f 6dbd 5dfb 4d3c
00000090: 97e4 d43d 5c33 153e 0664 81be 3f90 643b
000000a0: 8602 ccbe b681 56be 81d4 1fbc d3b9 cfbd
000000b0: 79a9 483d 07cd b23e c351 703e 5481 333d
000000c0: f1e4 4dbd 3573 37bc 42f4 c1be ff55 c93c
000000d0: 21d0 23be 6113 e7be d52f abbe 1618 d93a
000000e0: 274a 8c3d 2592 8fbe f6de d9bc f5d5 76be
000000f0: 8f17 0fbf 16ea b8be 6473 a3be fc1c 883d
00000100: 6d66 f2bd 95a3 be3d a160 04bf d06f babe
00000110: dc4a 5cbe 48c8 1cbe df43 1dbe 33a9 7dbe
00000120: cb17 ae3d 2f29 823d 4ea5 5d3c d824 44be
00000130: 7610 79be ba1d d3bc 5ff5 97bd 3a78 a3bb
00000140: 4eab b0bc b610 56bd dd2f 61bd ed19 723d
00000150: 8cbb 903d 79c4 393d 1848 643c 6765 40bd
00000160: b067 aa3c 638d 8bbd 7fcb a4bc de8e d0bb
00000170: 4392 533c f6fa 92bd 9bf2 9cbd 9497 893c
00000180: 4998 11bd 067d 86bc c745 593d 9243 223d
00000190: 8297 bb3d 52c2 b23d a0c7 323d 1c44 9839
000001a0: 2162 f63b ec3a 83bd 5bae c3bc 4bed 27be
000001b0: 930d 9cbd 3e08 a9bd 4f82 063d f08d 79bd
000001c0: cbea b5bd e95e 87bd 946d e9bd 3dc1 d73d
000001d0: 9c81 773c 7507 3bbd bb3c d7bd b6d8 d1bc
000001e0: a9ab 33be a3f2 0f3c 7d1c afbc 0cb0 e73d
000001f0: 8aba f1bb f7a6 ec3d 4ae6 483d dea0 143e
00000200: 564c b7bd 1d93 12bc 3799 4f3d 12f0 87bc
00000210: e049 c6bc 32c4 cc3d 6a8d 5dbd 0533 c3bd
00000220: f151 0f3e 5fcd cb3d ba64 9abd b50d 95bb
00000230: 4259 f8bb 83ba 82bd 3b82 ff3c 5440 3cbd
00000240: 0395 fcbe 5ea4 ebbe f31a a6bd 351e c5be
00000250: 0b66 3bbe 617e 463e 74a1 143e f6bf 5dbe
00000260: 8739 46be 6f65 80be 1938 cb3c 7dc9 d6bd
00000270: b7e7 db3e 5290 0ebe cba9 2b3d 8c48 113f
00000280: 3d2a 11be c836 42be aa31 c83e 5564 47be
00000290: e695 60b9 cb14 3cbe 7086 193e 4a41 8d3e
000002a0: 5d37 e33d effa f93d 108f 743e 3e68 883e
000002b0: fdd6 6c3e 5d12 72bc 3382 373e 7a6d a63d
000002c0: 0c62 bcbd b2e8 60be 709e 6bbe f0f4 b93d
000002d0: 4c73 f1bc 9e43 0dbe 35b6 16be 6cac 76bd
000002e0: ec56 26bc 7445 4cbe 323b 02be 886f b2be
000002f0: 067c a13d 8ed6 7abe e6c0 c8be 962e 32be
00000300: 1ee1 91bc 7616 96bc 0cfc 55be 1928 f3bd
00000310: cf87 3a3e c17e f53d c153 08bd 6e76 15be
00000320: 79e2 c13d 5e2f 1e3e 73b1 b2be 89ea aabd
00000330: a3ed 4d3e e883 023e 58f6 723d 7415 143d
00000340: 65d9 baba 70de 2ebe b312 afbd 0c38 b0be
00000350: 9e6e 3bbe f6af b83e 5c18 f83e 74fa 30bf
00000360: 5973 373e 1a77 883d c3dd 9abd 281a 723d
00000370: 5b62 533d 73b2 9f3d d3c4 253d 81ba a43b
00000380: 4122 933c aef9 bb3a d393 263d 1db6 04bd
00000390: 038a 78bd ac88 263d 5320 4b3d 5912 fb3b
000003a0: 8db5 033d e9d4 453d 9f46 04bc 6a8d acbd
000003b0: d4fa 12bc f34f 0fbd 192f f53c 7118 563d
000003c0: 04a6 efbd 23b8 1dbd f863 50bd af94 c83b
000003d0: 0ed8 503c cb4c 1e3d 8499 16bc 428b f83c
000003e0: 6c3c d53d 8c5f 4cbd 48f3 05bd d4bd d03c
000003f0: 7eb2 173d 3ef4 e5bb feed d4bc 7145 e5bb

cell_list.0.conv.bias f4 [32]
0.019120015 0.007414271 0.13830867 0.24957195 0.18197204 0.44627902 0.14512959 -0.040372677
-0.6642499 -1.2569383 -0.94780445 -0.78265285 -0.862666 -1.0025593 -0.8221092 -1.1186087
0.051680543 -0.72761124 0.1965756 0.12027907 0.22793435 0.4316458 0.053191584 0.028440546
-0.1902272 0.1270665 0.14380774 -0.10239958 -0.10644199 0.09332584 0.19957888 -0.06104112
00000000: 94a1 9c3c 6af3 f23b caa0 0d3e ca8f 7f3e
00000010: e156 3a3e af7e e43e da9c 143e d25d 25bd
00000020: 480c 2abf 5be3 a0bf 50a3 72bf f05b 48bf
00000030: aed7 5cbf dd53 80bf c075 52bf 922e 8fbf
00000040: faae 533d bb44 3abf 1d4b 493e e054 f63d
00000050: 9f67 693e ae00 dd3e 6bdf 593d 26fc e83c
00000060: ebca 42be b81d 023e 5642 133e dfb6 d1bd
00000070: 42fe d9bd 9e21 bf3d 685e 4c3e 4106 7abd

cell_list.1.conv.weight f4 [32, 16, 3, 3]
0.2389359 -0.32959932 -0.3427324 0.17115597 0.1709966 -0.6411679 0.91211575 0.4862077
-0.60986036 -0.5968907 -0.111234896 0.6999357 -0.37647542 0.9431297 -0.62095547 -0.29664752
1.4408972 -0.74976313 -0.8076534 -0.41697407 -0.0055131167 -0.54479766 0.07644137 -0.13127078
-0.7872755 -0.3479359 -0.6105909 -0.16200928 -0.71196204 -0.27243274 -0.38255855 -0.6801708
-0.48925874 -0.2587753 0.101145096 0.098186836 0.18446311 -0.02225523 -0.26873475 -0.22961125
-0.64351505 -0.48410183 -0.49687654 0.03843988 0.0017892681 -0.59455264 0.2248525 0.94438934
-0.8663749 0.08321109 1.0280602 0.043753974 0.02451665 -0.51020885 0.5533314 -0.4526148
-0.4259015 -0.24214396 -0.68071395 -0.56206286 -0.546819 -0.5600494 -0.743863 0.58011824
-0.15286936 -0.7589623 0.22311273 -0.06736393 0.3969117 0.10848862 0.69439113 0.52061296
-0.058565307 0.05224135 0.12218788 -0.16034177 -0.055404976 0.06700978 0.0027771534 -0.1335252
0.11005955 -0.043701127 0.00073755474 0.12997447 -0.18222822 -0.04850862 -0.055543795 -0.053570405
0.036939505 0.092250794 0.19696073 -0.13626204 -0.027185688 -0.08419301 -0.095933415 0.029398717
-0.10883453 -0.095070474 -0.13598756 -0.09403213 -0.025833894 -0.06442638 -0.21902315 -0.18734106
-0.059523586 -0.16717276 -0.10940648 -0.034436453 -0.033103958 0.040658556 0.014725401 0.07362978
0.08733531 -0.09518116 0.09236074 0.018545397 -0.054019835 -0.06778788 0.037865665 0.013005922
-0.00023011325 -0.020416552 0.0013209472 0.0055225096 -0.04258445 0.12312202 0.23228955 0.14912668
0.3042623 0.01924003 -0.068078205 -0.17262696 0.08244363 0.05578365 0.09966805 0.07552804
-0.071962595 0.040326606 -0.12734397 -0.025282675 0.03975826 -0.112432115 -0.0018892405 0.023027766
0.6192031 0.70233864 -0.20002207 0.44924495 1.0698189 -0.18687066 0.4673546 0.11051697
-0.550994 -0.41723928 0.2746213 -0.2303441 0.057489745 1.0829357 -0.21736206 0.53227186
0.50080895 0.2375156 -0.383966 0.2714296 -0.15422726 -0.63991207 -0.73251057 -0.27175388
-0.88210666 -0.85421073 -0.59377027 -0.09613628 0.16725321 0.17471981 -0.26929513 0.064820886
-0.5680342 0.026896594 -0.6922156 -0.009520959 -0.0133089945 -1.1134733 -0.4720366 -1.306887
-0.8106288 -0.63083965 -0.61834633 0.0012626882 0.24162942 -0.06288174 0.20532754 -0.031849522
0.067002624 0.52639556 0.4662243 0.19346134 -0.39265254 -0.083600074 -0.5229444 -0.8341791
0.1835057 -0.33838248 -0.29848716 -0.058842044 -0.17844845 -0.2652463 -0.30033192 0.67527294
0.21565902 0.82092255 0.9775382 -0.07019104 0.063110456 0.6964172 -0.123389214 0.25969347
0.13644993 0.14819995 0.059489798 0.010946342 0.07723339 0.048613463 0.061299644 0.033459134
0.036322773 0.008976784 0.007161943 -0.00991179 -0.003244018 0.0014927394 0.012023253 0.029258085
0.028822917 -0.008089184 -0.0632908 -0.08487978 0.023156239 -0.059297226 -0.064273976 -0.013588673
-0.045663524 -0.031080987 -0.06357999 -0.09464864 -0.074020065 -0.109243646 -0.106043264 -0.14036202
-0.06452555 -0.053628836 -0.04093404 0.01807667 0.008954283 0.004366822 -0.002171123 -0.0034627577
00000000: 9dab 743e 3ec1 a8be 9f7a afbe 8343 2f3e
00000010: bc19 2f3e 9423 24bf 6b80 693f 37f0 f83e
00000020: cf1f 1cbf d4cd 18bf 1fcf e3bd fc2e 333f
00000030: 63c1 c0be f370 713f f0f6 1ebf 2fe2 97be
00000040: 526f b83f 7af0 3fbf 60c2 4ebf a07d d5be
00000050: 60a7 b4bb dc77 0bbf 4b8d 9c3d d96b 06be
00000060: e38a 49bf a724 b2be af4f 1cbf c3e5 25be
00000070: 2543 36bf 4e7c 8bbe b7de c3be ac1f 2ebf
00000080: 1f80 fabe 327e 84be 2925 cf3d 2e16 c93d
00000090: e6e3 3c3e 9a50 b6bc 9a97 89be 361f 6bbe
000000a0: 67bd 24bf 32dc f7be 9a66 febe 2373 1d3d
000000b0: e085 ea3a 9a34 18bf bc3f 663e 80c3 713f
000000c0: bfca 5dbf 936a aa3d 7a97 833f 5e37 333d
000000d0: 24d7 c83c 0c9d 02bf 20a7 0d3f 21bd e7be
000000e0: c30f dabe 96f4 77be 4543 2ebf 5ae3 0fbf
000000f0: 54fc 0bbf 665f 0fbf ce6d 3ebf a182 143f
00000100: c989 1cbe 5a4b 42bf aa77 643e 1af6 89bd
00000110: 0338 cb3e 482f de3d 9ec3 313f e446 053f
00000120: 2de2 6fbd 07fb 553d a43d fa3d a230 24be
00000130: 54f0 62bd 6c3c 893d e700 363b d4ba 08be
00000140: e766 e13d f4ff 32bd 7658 413a 0718 053e
00000150: 099a 3abe fab0 46bd e481 63bd a46c 5bbd
00000160: e14d 173d fced bc3d 13b0 493e 4788 0bbe
00000170: 85b4 debc 636d acbd bd78 c4bd 94d5 f03c
00000180: a3e4 debd 4fb4 c2bd 5340 0bbe eb93 c0bd
00000190: 9aa1 d3bc faf1 83bd 9b47 60be 56d6 3fbe
000001a0: 01cf 73bd 562f 2bbe 8110 e0bd 3d0d 0dbd
000001b0: 0498 07bd 9689 263d cf42 713c 36cb 963d
000001c0: dbdc b23d 57ee c2bd a127 bd3d 84ec 973c
000001d0: e743 5dbd 5fd4 8abd 0719 1b3d ca16 553c
000001e0: 8e4a 71b9 9d40 a7bc a223 ad3a 2bf6 b43b
000001f0: 086d 2ebd 6627 fc3d 50dd 6d3e aab4 183e
00000200: 45c8 9b3e 449d 9d3c 966c 8bbd 1fc5 30be
00000210: 35d8 a83d 667d 643d c31e cc3d 72ae 9a3d
00000220: 2061 93bd 832d 253d 7566 02be 9d1d cfbc
00000230: 8fd9 223d cf42 e6bd 64a0 f7ba baa4 bc3c
00000240: 1884 1e3f 77cc 333f 96d2 4cbe 6f03 e63e
00000250: d3ef 883f 065b 3fbe 1a49 ef3e b956 e23d
00000260: f10d 0dbf 63a0 d5be 2a9b 8c3e 53df 6bbe
00000270: 5e7a 6b3d a39d 8a3f 2994 5ebe f842 083f
00000280: 0435 003f 4a37 733e 3197 c4be d2f8 8a3e
00000290: c0ed 1dbe 47d1 23bf d085 3bbf 5323 8bbe
000002a0: bed1 61bf 8ead 5abf 5401 18bf 19e3 c4bd
000002b0: 6d44 2b3e c0e9 323e 0de1 89be d0c0 843d
000002c0: b06a 11bf 3f56 dc3c 0b35 31bf ccfd 1bbc
000002d0: f80d 5abc 4b86 8ebf c8ae f1be 1348 a7bf
000002e0: 5e85 4fbf b57e 21bf f24b 1ebf c980 a53a
000002f0: b46d 773e 24c8 80bd 6241 523e a574 02bd
00000300: ac38 893d dcc1 063f f4b4 ee3e bb1a 463e
00000310: c109 c9be 8436 abbd afdf 05bf c38c 55bf
00000320: ebe8 3b3e 7840 adbe 4fd3 98be 5b04 71bd
00000330: 31bb 36be 5dce 87be 1bc5 99be b0de 2c3f
00000340: b8d5 5c3e fb27 523f f23f 7a3f 52c0 8fbd
00000350: 0e40 813d 6648 323f 7cb3 fcbd 8bf6 843e
00000360: 88b9 0b3e bac1 173e 93ab 733d 4958 333c
00000370: 8a2c 9e3d e91e 473d 5615 7b3d 720c 093d
00000380: 30c7 143d 5c13 133c bbae ea3b 0f65 22bc
00000390: 9799 54bb 06a8 c33a 2efd 443c a7ae ef3c
000003a0: 0a1e ec3c 7f88 04bc 9b9e 81bd 73d5 adbd
000003b0: 27b2 bd3c a6e1 72bd 13a2 83bd 07a3 5ebc
000003c0: ad09 3bbd 8e9d febc 3a36 82bd 25d7 c1bd
000003d0: d597 97bd 22bb dfbd 362d d9bd 10bb 0fbe
000003e0: f925 84bd e9a9 5bbd 74aa 27bd 8615 943c
000003f0: fcb4 123c 8f17 8f3b 6649 0ebb 6fef 62bb

cell_list.1.conv.bias f4 [32]
-0.0114271045 0.30655318 0.6229835 0.66700995 0.6681904 0.55484325 0.3101261 0.37006667
-1.0785246 -1.7514986 -0.93327236 -0.8805366 -0.95456356 -0.8202408 -1.3112304 -0.98169446
-0.05033191 0.7679891 0.045685876 0.16884775 0.08197178 0.38429666 0.056363624 -0.0019994052
-0.030834522 0.02037874 0.07772219 -0.05117843 -0.16151929 -0.2502412 -0.16664563 0.1297893
00000000: c038 3bbc 8af4 9c3e d97b 1f3f 2ac1 2a3f
00000010: 870e 2b3f 350a 0e3f d9c8 9e3e 6179 bd3e
00000020: 180d 8abf 1b31 e0bf f0ea 6ebf d96a 61bf
00000030: 475e 74bf 4dfb 51bf 66d6 a7bf 5450 7bbf
00000040: d528 4ebd ef9a 443f 1d21 3b3d 6de6 2c3e
00000050: d2e0 a73d 88c2 c43e 8bdd 663d 7408 03bb
00000060: ae98 fcbc 51f1 a63c d02c 9f3d 79a0 51bd
00000070: 5065 25be 9d1f 80be 27a5 2abe 7ce7 043e

cell_list.2.conv.weight f4 [32, 16, 3, 3]
-0.19061507 -0.0581457 0.03164798 -0.24264593 -0.06744789 0.13749331 -0.030920638 -0.07584597
0.14481443 -0.35089496 0.14561649 0.036848627 -0.9362374 -0.43184656 0.23683916 -0.16547571
0.04044402 0.32385308 -0.19081742 0.07956529 0.15955962 -0.0739912 -0.41731718 -0.3820419
-0.50753504 -0.21245642 -0.20708415 -0.24664108 -0.4654279 -0.69041145 -0.29244733 -0.23686327
0.013031111 -0.0839748 -0.20393036 -0.06687541 0.6094213 0.017760526 0.24238507 0.96053255
0.24763128 -0.30911955 0.42007974 0.009058794 -0.30011362 0.11207375 0.36003965 0.17010216
-0.023625674 0.32931727 0.6759848 -0.10848374 0.3341372 0.53293306 0.07108552 -0.225348
-0.13537657 0.41857573 0.029917603 -0.2148281 -0.21613778 -0.16378556 -0.17310722 -0.26255935
0.14589024 -0.063141346 -0.25251687 0.03584051 0.25376716 0.08728472 0.31169903 0.4959996
0.14623423 0.03429507 0.04353133 0.06634424 0.03801886 0.058081307 0.0015157 -0.0798209
-0.07719429 -0.096909255 -0.037602752 -0.1125074 -0.06483943 -0.10870173 -0.012088234 0.033639107
0.02758531 -0.014235099 0.20428878 0.23224966 0.10441039 0.06363847 0.13685559 0.09660968
-0.1533366 -0.08711989 0.024560632 -0.037232514 0.047013063 -0.17852816 -0.22899626 -0.19208005
-0.06835154 -0.09085214 -0.07317628 -0.23292504 -0.02291749 -0.07865218 -0.038880005 -0.0984164
-0.0687934 -0.054052457 -0.03600268 -0.105306566 -0.14206411 0.03723922 -0.030760648 -0.005678915
-0.04610035 -0.31655872 -0.27181792 -0.09410388 -0.0212609 -0.093588695 -0.07418924 0.122186065
0.16389352 -0.106494255 0.111958064 0.0705807 0.053352676 0.14804505 -0.0012307962 0.0028059764
-0.031001953 0.00016201718 0.004113723 -0.015084492 -0.023002578 0.1394732 -0.025481978 0.11470382
0.793738 1.0980136 0.27554312 -1.8340764 0.2683378 0.36531428 0.65124637 0.10784533
0.3746586 0.24160022 -0.07843339 0.21152914 -0.034350872 0.113469705 0.018511886 -0.17004201
0.035478935 0.07765481 -1.2064121 -1.0835156 0.11626801 -1.5857766 -0.508309 1.0029687
-0.10956177 -0.08375959 -0.66017455 -0.76520663 -0.21788093 -0.922652 -1.0909246 -1.3615787
-0.21528769 -0.8134858 -0.29684246 0.01847216 -0.042343937 0.19446558 0.37258205 -0.0070632854
-0.014536089 0.16628416 1.0324188 0.026427172 0.27294907 0.64365757 -0.010430175 0.15797527
0.40789095 -0.21619308 0.014777168 0.63558483 0.8256806 0.71861184 -0.65452 -0.7253509
0.9643458 -0.5433121 -1.138243 0.41876066 1.4251614 1.1577151 0.17404084 0.49864343
0.25158194 -0.12517236 0.7558377 0.18819942 0.03919251 -0.50958484 0.098539084 -0.006913366
0.014995138 0.014063926 0.0038493709 0.0031790887 -0.0027707582 0.008737531 -0.00013133275 -0.0057250946
0.00071404036 0.012256781 0.010511892 -0.0008620691 0.0016512653 0.00026165525 -0.00093207305 -0.0008490485
0.001181472 0.003398755 0.005101767 -0.023664024 -0.004770004 -0.011039302 0.005970316 -0.02343661
-0.024462625 -0.012833231 -0.011683412 -0.004593451 -0.013296646 -0.017322991 -0.020502474 -0.030740632
-0.022419209 -0.021733228 -0.00988372 -0.00012733489 -0.0003065511 -0.011931866 -0.005183446 -0.01526436
00000000: 9930 43be 2f2a 6ebd 50a1 013d 2d78 78be
00000010: 1f22 8abd 0ccb 0c3e 474d fdbc 2255 9bbd
00000020: 3c4a 143e 81a8 b3be 7d1c 153e 96ee 163d
00000030: 41ad 6fbf fe1a ddbe f785 723e 7772 29be
00000040: a1a8 253d 12d0 a53e a465 43be 20f3 a23d
00000050: 9963 233e b388 97bd 99aa d5be ff9a c3be
00000060: d1ed 01bf 2d8e 59be de0d 54be 7b8f 7cbe
00000070: 914c eebe cebe 30bf a8bb 95be 498c 72be
00000080: 7180 553c fbfa abbd 1fd3 50be faf5 88bd
00000090: 0903 1c3f 867e 913c cb33 783e 76e5 753f
000000a0: 0e93 7d3e eb44 9ebe b114 d73e 566b 143c
000000b0: 7ea8 99be ec86 e53d 1e57 b83e 432f 2e3e
000000c0: a18a c1bc 469c a83e 570d 2d3f b92c debd
000000d0: 0814 ab3e 4d6e 083f 4995 913d a0c1 66be
000000e0: 28a0 0abe 8f4f d63e c315 f53c e6fb 5bbe
000000f0: 3953 5dbe 67b7 27be 0543 31be 2e6e 86be
00000100: 4064 153e 4050 81bd e449 81be 80cd 123d
00000110: c5ed 813e 55c2 b23d 0497 9f3e a9f3 fd3e
00000120: 6dbe 153e fd78 0c3d e84d 323d 7ddf 873d
00000130: aab9 1b3d aae6 6d3d 74aa c63a 2479 a3bd
00000140: 0a18 9ebd 5c78 c6bd 5805 1abd 486a e6bd
00000150: 89ca 84bd 039f debd ba0d 46bc 29c9 093d
00000160: 97fa e13c 553a 69bc 1431 513e dbd2 6d3e
00000170: 1dd5 d53d e354 823d df23 0c3e 4cdb c53d
00000180: 4504 1dbe ea6b b2bd 6133 c93c 1f81 18bd
00000190: c590 403d 16d0 36be ff7d 6abe a2b0 44be
000001a0: e4fb 8bbd b010 babd 72dd 95bd e783 6ebe
000001b0: 76bd bbbc 6514 a1bd a440 1fbd 8a8e c9bd
000001c0: 8ee3 8cbd 1c66 5dbd 8c77 13bd f8aa d7bd
000001d0: 4179 11be 2788 183d c1fd fbbc 3116 babb
000001e0: b8d3 3cbd fc13 a2be b82b 8bbe 89b9 c0bd
000001f0: 572b aebc 6eab bfbd 87f0 97bd b03c fa3d
00000200: b4d3 273e a919 dabd 454a e53d 9d8c 903d
00000210: 5688 5a3d 1f99 173e ab52 a1ba 79e4 373b
00000220: cff7 fdbc 28e3 2939 69cc 863b f224 77bc
00000230: e76f bcbc 10d2 0e3e 95bf d0bc d6e9 ea3d
00000240: 6a32 4b3f b68b 8c3f fd13 8d3e 04c3 eabf
00000250: 9263 893e 790a bb3e 15b8 263f 03de dc3d
00000260: 41d3 bf3e 0c66 773e afa1 a0bd 189b 583e
00000270: 80b3 0cbd ce62 e83d 3da6 973c 7e1f 2ebe
00000280: 5c52 113d 7c09 9f3d b66b 9abf a4b0 8abf
00000290: ec1d ee3d bafa cabf 8a20 02bf 4761 803f
000002a0: ec61 e0bd 268a abbd 3301 29bf 95e4 43bf
000002b0: 2e1c 5fbe ec32 6cbf 6ba3 8bbf 3648 aebf
000002c0: 6074 5cbe 9b40 50bf bcfb 97be ed52 973c
000002d0: d670 2dbd fc21 473e 13c3 be3e 2273 e7bb
000002e0: c728 6ebc 6546 2a3e 4d26 843f cc7d d83c
000002f0: fbbf 8b3e bec6 243f 53e3 2abc 45c4 213e
00000300: 15d7 d03e b861 5dbe ef1b 723c b0b5 223f
00000310: ce5f 533f f2f6 373f 9f8e 27bf 99b0 39bf
00000320: 5edf 763f 8016 0bbf f2b1 91bf cc67 d63e
00000330: b06b b63f 0230 943f c337 323e 314e ff3e
00000340: 59cf 803e 2f2d 00be 947e 413f 59b7 403e
00000350: 5388 203d 2774 02bf dcce c93d 8489 e2bb
00000360: 2bae 753c 626c 663c ba45 7c3b 4258 503b
00000370: 9c95 35bb dc27 0f3c 5eb6 09b9 9399 bbbb
00000380: 702e 3b3a aad0 483c 123a 2c3c 7afc 61ba
00000390: 456f d83a c62e 8939 5d56 74ba ae92 5eba
000003a0: 9fdb 9a3a a6bd 5e3b b92c a73b 0edb c1bc
000003b0: b24d 9cbb 30de 34bc a4a2 c33b 22fe bfbc
000003c0: d865 c8bc 7942 52bc c86b 3fbc a984 96bb
000003d0: 2dda 59bc f2e8 8dbc cef4 a7bc c7d3 fbbc
000003e0: 7da8 b7bc e209 b2bc 54ef 21bc 3385 05b9
000003f0: 98b8 a0b9 e07d 43bc e6d9 a9bb 5e17 7abc

cell_list.2.conv.bias f4 [32]
-0.17185579 0.39106482 -0.16585632 -0.053071614 -0.193719 -0.19406453 -0.21381588 -0.41775456
-0.49005118 -2.0438173 -0.8668471 -0.47561282 -0.7767883 -0.5690857 -0.95763683 -0.8015989
-0.7304762 0.9114555 -0.284741 -0.6455272 -0.73029405 -0.37697035 -0.78088325 -0.5402634
-0.06692798 0.08526918 0.019267425 0.01761596 0.04994637 0.0011582109 -0.16164736 -0.0051569385
00000000: f7fa 2fbe a639 c83e 3dd6 29be 9f61 59bd
00000010: 465e 46be dab8 46be 8df2 5abe ede3 d5be
00000020: fde7 fabe e7cd 02c0 b1e9 5dbf 8683 f3be
00000030: 99db 46bf 9aaf 11bf b027 75bf 9635 4dbf
00000040: 7d00 3bbf 2655 693f 93c9 91be 4541 25bf
00000050: 8df4 3abf 4202 c1be f7e7 47bf b44e 0abf
00000060: 8911 89bd 9ca1 ae3d b8d6 9d3c 594f 903c
00000070: 9194 4c3d 1ccf 973a e386 25be 89fb a8bb

batchnorm_list1.0.weight f4 [8]
0.907187 0.8259002 0.9056268 0.87115383 0.79624957 0.85548174 0.8569298 0.76101923
00000000: 683d 683f 326e 533f 28d7 673f f003 5f3f
00000010: 03d7 4b3f da00 5b3f c05f 5b3f 28d2 423f

batchnorm_list1.0.bias f4 [8]
-0.07829868 -0.028517688 0.10613548 0.08926881 0.16908279 -0.102693684 -0.021359526 0.03668677
00000000: 0f5b a0bd ed9d e9bc 8f5d d93d 91d2 b63d
00000010: 0a24 2d3e 1151 d2bd 2cfa aebc de44 163d

batchnorm_list1.0.running_mean f4 [8]
-0.14990002 0.005112948 -0.031925313 0.0051162583 0.011510088 -0.020503018 -0.056647845 0.006210075
00000000: 647f 19be 848a a73b 1ec4 02bd 49a6 a73b
00000010: cf94 3c3c f2f5 a7bc 9207 68bd e37d cb3b

batchnorm_list1.0.running_var f4 [8]
0.092695765 0.003120291 0.05138729 0.02137668 0.040126503 0.019050017 0.07848863 0.02027641
00000000: 47d7 bd3d cc7d 4c3b 7b7b 523d 261e af3c
00000010: b05b 243d c80e 9c3c a6be a03d b71a a63c

batchnorm_list1.1.weight f4 [8]
1.0068734 0.84660673 0.91876245 0.9288548 0.93338823 0.89586425 0.97072756 0.93878174
00000000: 3ae1 803f 38bb 583f 0434 6b3f 6ec9 6d3f
00000010: 88f2 6e3f 5c57 653f 9a81 783f 0054 703f

batchnorm_list1.1.bias f4 [8]
-0.051745992 0.060243018 -0.008071844 0.056832943 -0.038457762 -0.074038215 -0.005211249 0.009436812
00000000: 9bf3 53bd 62c1 763d c43f 04bc a9c9 683d
00000010: e385 1dbd 59a1 97bd 20c3 aabb dc9c 1a3c

batchnorm_list1.1.running_mean f4 [8]
0.0031667408 0.00045400122 -0.04219048 0.025458144 -0.036432758 -0.04959447 0.049731173 -0.005567659
00000000: 1889 4f3b 0307 ee39 edcf 2cbd 998d d03c
00000010: 843a 15bd 9223 4bbd eab2 4b3d e970 b6bb

batchnorm_list1.1.running_var f4 [8]
0.029651398 0.025788467 0.067531735 0.034808517 0.023394218 0.030664878 0.05570877 0.051936753
00000000: 7de7 f23c 5642 d33c 144e 8a3d 6093 0e3d
00000010: 3ba5 bf3c e934 fb3c e12e 643d a2bb 543d

batchnorm_list1.2.weight f4 [8]
0.9295004 0.9370646 1.1238065 1.0697211 0.9889441 1.0979415 0.97820276 1.060866
00000000: bdf3 6d3f 77e3 6f3f e4d8 8f3f 9fec 883f
00000010: 712b 7d3f 5989 8c3f 7f6b 7a3f 75ca 873f

batchnorm_list1.2.bias f4 [8]
-0.0004575316 0.00010742703 -0.004035226 0.0038842142 0.0008439002 0.001775686 -0.0020525416 -0.0008490441
00000000: dae0 efb9 734a e138 ee39 84bb 4d8e 7e3b
00000010: 2f39 5d3a 23be e83a ef83 06bb 6392 5eba

batchnorm_list1.2.running_mean f4 [8]
0.002966904 -0.0022219273 -0.004320005 -0.010257434 0.019136276 0.0025799428 -0.016649734 -0.0052276053
00000000: 6470 423b c19d 11bb d48e 8dbb cc0e 28bc
00000010: aec3 9c3c 4214 293b 0665 88bc 554c abbb

batchnorm_list1.2.running_var f4 [8]
0.012336326 0.050492864 0.014481047 0.014458109 0.012977631 0.031022292 0.0028058398 0.01601684
00000000: 4d1e 4a3c 9bd1 4e3d ea41 6d3c b4e1 6c3c
00000010: 21a0 543c 7622 fe3c 2ee2 373b bf35 833c

batchnorm_list2.0.weight f4 [8]
0.46607533 0.079457484 0.22889271 0.084725246 0.35454848 0.116011605 0.5027482 0.15987101
00000000: 6da1 ee3e 9bba a23d da62 6a3e 6e84 ad3d
00000010: 6187 b53e 7e97 ed3d 1bb4 003f 3ab5 233e

batchnorm_list2.0.bias f4 [8]
0.029422436 -0.04053751 -0.014302594 -0.001385399 -0.0030184356 -0.009991924 0.0076494776 -0.028462416
00000000: 5207 f13c a90a 26bd 6d55 6abc 4796 b5ba
00000010: f2d0 45bb 2bb5 23bc 78a8 fa3b 032a e9bc

batchnorm_list2.0.running_mean f4 [8]
-0.1746945 0.027571086 -0.014334405 -0.06250551 -0.09277184 0.022928117 -0.072121136 0.0018560948
00000000: 1de3 32be c2dc e13c dada 6abc e402 80bd
00000010: 2aff bdbd bfd3 bb3c 3fb4 93bd 3548 f33a

batchnorm_list2.0.running_var f4 [8]
0.49550322 0.03135779 0.22836573 0.12837154 0.29343724 0.073116824 0.44721594 0.10310454
00000000: 99b2 fd3e 0771 003d b5d8 693e d473 033e
00000010: 683d 963e 46be 953d 7df9 e43e 7928 d33d

batchnorm_list2.1.weight f4 [8]
0.2800525 0.19266509 0.25719413 0.69371283 0.3996587 0.43852997 0.20865679 0.45145464
00000000: 0b63 8f3e ff49 453e f3ae 833e 2a97 313f
00000010: 11a0 cc3e 0087 e03e 20aa 553e 1025 e73e

batchnorm_list2.1.bias f4 [8]
-0.016213918 0.028970877 -0.0036018167 0.009650151 -0.006777633 0.0028999485 0.00029178095 0.0036595417
00000000: 0dd3 84bc 5554 ed3c 750c 6cbb ab1b 1e3c
00000010: e816 debb 100d 3e3b 2dfa 9839 ecd4 6f3b

batchnorm_list2.1.running_mean f4 [8]
-0.006443293 0.020249091 -0.044119455 -0.009529409 -0.14620902 0.014574715 0.0052808337 0.029050978
00000000: 4222 d3bb 6ce1 a53c 9ab6 34bd 3d21 1cbc
00000010: d1b7 15be c9ca 6e3c d80a ad3b 51fc ed3c

batchnorm_list2.1.running_var f4 [8]
0.11153215 0.10915654 0.21640418 0.72462785 0.254632 0.43466297 0.129157 0.37616444
00000000: f86a e43d 778d df3d 0f99 5d3e 3681 393f
00000010: 205f 823e 258c de3e bc41 043e a098 c03e

batchnorm_list2.2.weight f4 [8]
0.85888195 0.2505651 0.53842384 0.888282 0.5371509 1.3404702 0.18983106 0.96035546
00000000: b0df 5b3f 124a 803e 25d6 093f 7366 633f
00000010: b982 093f 8794 ab3f 1363 423e dbd9 753f

batchnorm_list2.2.bias f4 [8]
0.0009856258 0.057528775 -0.0019443904 -0.0015566135 0.0006290997 -0.00026571733 0.0034124476 0.0024962917
00000000: 1d30 813a 4ba3 6b3d eada feba 4807 ccba
00000010: 2bea 243a fa4f 8bb9 5fa3 5f3b d398 233b

batchnorm_list2.2.running_mean f4 [8]
0.057037093 -0.02373772 -0.050565496 -0.15241106 0.15454417 -0.09930226 0.016710132 0.033416767
00000000: ba9f 693d 9b75 c2bc c41d 4fbd a511 1cbe
00000010: d440 1e3e fc5e cbbd b0e3 883c 05e0 083d

batchnorm_list2.2.running_var f4 [8]
1.3121821 0.19328128 0.45891947 1.3445058 0.51139015 2.7614746 0.12617232 1.6210947
00000000: 95f5 a73f 87eb 453e 7ef7 ea3e c418 ac3f
00000010: 77ea 023f 00bc 3040 5133 013e 0880 cf3f
