models/convlstm/saved_models/lr_0.0005/lr_0.0005/epoch_4700.pt (torch, 620962 bytes, 10 tensors)

encoder_1_convlstm.conv.weight f4 [96, 32, 3, 3]
0.01736907 -0.026976248 -0.0831982 0.03284411 -0.006684312 -0.08363345 0.21248144 0.045976266
0.10609051 -0.033441752 -0.02401855 0.018368514 0.034020185 0.0021889748 0.09659498 -0.02971426
-0.027060684 0.01437732 0.14869185 0.05232173 0.047538634 0.025632992 -0.1266176 0.018890053
0.18862651 0.21026403 -0.017603451 0.039647356 -0.031412035 0.05652317 -0.04301003 0.0068974867
0.02098622 0.16990112 -0.024378166 -0.1395173 0.02595812 -0.040349755 -0.071153566 -0.051762804
-0.062899776 0.0070794453 0.103739604 0.0111759715 -0.048726458 0.0031232075 -0.04225755 0.03514809
0.071460724 -0.030650174 0.059328854 0.10043498 -0.027571358 0.047136117 -0.06914834 -0.009728115
0.005587682 -0.12442536 -0.056597248 -0.03560437 -0.06618295 -0.004845192 -0.058769464 -0.0054812552
0.025341054 0.03267167 -0.024908831 0.046906438 0.009287601 -0.04282564 0.025721882 -0.051192213
0.07651362 0.1284853 0.11697233 0.045139812 0.006353373 0.041849192 0.20523524 0.08237539
-0.05334225 0.3675873 0.0018814602 0.07941451 0.16472954 -0.104979716 -0.013727028 0.32090563
-0.022338433 -0.030316906 0.029145056 0.040895686 0.029666688 -0.09762709 -0.033736162 0.031702854
0.059324663 0.12143594 0.036929674 -0.08474805 0.023634309 -0.057433743 -0.046220377 -0.07489146
-0.036797855 -0.2078428 0.017266238 -0.07296021 -0.29000944 0.19294305 0.025235748 -0.06399882
0.068602934 -0.032643355 -0.17919743 -0.1021604 -0.07509602 0.01822592 -0.06574676 -0.09252979
-0.06635084 0.018081963 0.027401872 -0.051033497 -0.028892733 0.038943503 -0.0905231 -0.12731977
-0.14117692 -0.0770443 -0.005389157 -0.08868171 -0.15805696 -0.113636315 -0.16301714 -0.13436124
-0.051029064 -0.004898923 0.039444797 -0.028882332 0.07899856 0.15941209 -0.021084797 -0.033246897
0.079647176 0.10802097 -0.033990633 0.08797144 0.029793171 0.015011221 0.10825887 0.06735811
-0.123003155 -0.061078507 0.039879598 -0.1417791 -0.007175856 -0.004939477 0.0029504376 0.026068492
-0.226248 -0.23915969 -0.12086357 -0.023125071 0.04765241 -0.14387825 -0.023561617 0.08476869
-0.056852587 -0.08514687 -0.05934343 0.0039183022 -0.017699601 0.013260013 0.068251364 0.053046778
-0.13968208 0.0114637455 -0.021009853 -0.02415608 0.22623535 0.05564811 -0.013980926 -0.05856878
0.1130918 0.035647094 -0.16201073 0.023093984 -0.114155814 -0.110744946 -0.26525423 -0.16717055
-0.056116138 -0.07373434 0.07020335 0.07257564 -0.19246776 0.01022653 -0.08343032 0.09376519
-0.009877677 -0.12610503 0.13137892 0.17244379 0.15252988 0.14351855 -0.17113504 0.00043334233
0.07376357 -0.021237813 0.013821208 0.0068146084 0.012057986 0.00040753966 0.029266 0.0131782135
0.1074176 0.15436922 -0.061701924 0.12998447 -0.0028089501 -0.023425024 -0.11585872 -0.018687785
-0.08514511 -0.16783169 0.05748803 0.075809196 -0.19515724 -0.03208056 0.04069006 -0.22159025
-0.24102817 0.0068502855 -0.030536164 -0.20410456 -0.06358718 -0.06593644 0.00085660524 0.004734219
-0.11409141 -0.058933854 -0.09513877 -0.07509353 -0.15991774 -0.06659335 -0.14993462 -0.06979126
-0.033663392 -0.040897835 -0.0381261 0.008297201 -0.084193915 -0.03390036 0.017527616 -0.17822921
00000000: 9449 8e3c 4bfd dcbc d163 aabd 8c87 063d
00000010: 1308 dbbb 0448 abbd bc94 593e 9c51 3c3d
00000020: fb45 d93d 38fa 08bd 8dc2 c4bc 9179 963c
00000030: c058 0b3d e774 0f3b 97d3 c53d 526b f3bc
00000040: 5eae ddbc da8e 6b3c ad42 183e 4f4f 563d
00000050: dfb7 423d 48fc d13c 0ba8 01be 50bf 9a3c
00000060: 4f27 413e 744f 573e 1d35 90bc 4465 223d
00000070: e8a9 00bd d784 673d 492b 30bd 5004 e23b
00000080: 4beb ab3c 8ffa 2d3e b8b4 c7bc a0dd 0ebe
00000090: 20a6 d43c c945 25bd f6b8 91bd 3c05 54bd
000000a0: 99d1 80bd b1fa e73b 6e75 d43d 6c1b 373c
000000b0: 6595 47bd baae 4c3b 4116 2dbd 72f7 0f3d
000000c0: 005a 923d 1316 fbbc d002 733d dbb0 cd3d
000000d0: 54dd e1bc cd11 413d a59d 8dbd ac62 1fbc
000000e0: e018 b73b b9d2 febd 84d2 67bd e3d5 11bd
000000f0: ed8a 87bd 6bc4 9ebb 40b8 70bd 1a9c b3bb
00000100: 0b98 cf3c bbd2 053d 9b0d ccbc f720 403d
00000110: 062b 183c f069 2fbd b2b6 d23c edae 51bd
00000120: 2cb3 9c3d a791 033e 308f ef3d 86e4 383d
00000130: f52f d03b 0f6a 2b3d 3029 523e 6eb4 a83d
00000140: 677d 5abd 6734 bc3e 549b f63a 13a4 a23d
00000150: dcae 283e 9bff d6bd 54e7 60bc be4d a43e
00000160: 17ff b6bc 295b f8bc 9dc1 ee3c 3c82 273d
00000170: 8e07 f33c b6f0 c7bd ee2e 0abd dada 013d
00000180: 6bfe 723d 68b3 f83d 9243 173d 6390 adbd
00000190: bd9c c13c a53f 6bbd 9451 3dbd b260 99bd
000001a0: 59b9 16bd bed4 54be ed71 8d3c 2a6c 95bd
000001b0: 1e7c 94be dd92 453e 33bb ce3c d011 83bd
000001c0: b27f 8c3d 0ab5 05bd 887f 37be 7939 d1bd
000001d0: f1cb 99bd 864e 953c 3da6 86bd 4280 bdbd
000001e0: f3e2 87bd a020 943c e479 e03c 8008 51bd
000001f0: 74b0 ecbc 3983 1f3d 2d64 b9bd 1d60 02be
00000200: af90 10be 67c9 9dbd 8797 b0bb c29e b5bd
00000210: afd9 21be 28ba e8bd f7ed 26be fe95 09be
00000220: da03 51bd 2587 a0bb de90 213d a49a ecbc
00000230: ffc9 a13d ec3c 233e 06ba acbc e62d 08bd
00000240: 0f1e a33d 193a dd3d c339 0bbd 5f2a b43d
00000250: cf10 f43c a0f1 753c d4b6 dd3d 0cf3 893d
00000260: 14e9 fbbd 752d 7abd ca58 233d 8a2e 11be
00000270: 7123 ebbb 56db a1bb 215c 413b 978d d53c
00000280: 8ead 67be 47e6 74be 5287 f7bd ca70 bdbc
00000290: 2c2f 433d d254 13be 4b04 c1bc 359b ad3d
000002a0: 42de 68bd 7b61 aebd 1912 73bd 1a65 803b
000002b0: c1fe 90bc 8740 593c 5fc7 8b3d 9447 593d
000002c0: d208 0fbe 6fd2 3b3c db1c acbc f9e2 c5bc
000002d0: 3daa 673e 46ef 633d 4110 65bc d1e5 6fbd
000002e0: ac9c e73d b002 123d 24e6 25be 982f bd3c
000002f0: 86ca e9bd 3fce e2bd 67cf 87be c22e 2bbe
00000300: 09da 65bd 0802 97bd c6c6 8f3d 8aa2 943d
00000310: 4516 45be 2d8d 273c 84dd aabd f707 c03d
00000320: fbd5 21bc ad21 01be 3288 063e 1b95 303e
00000330: cb30 1c3e 87f6 123e 063e 2fbe 3932 e339
00000340: 5b11 973d ecfa adbc 5972 623c 144d df3b
00000350: dc8e 453c 0cab d539 40bf ef3c 6fe9 573c
00000360: c2fd db3d f712 1e3e 28bb 7cbd a61a 053e
00000370: 5d16 38bb d6e5 bfbc 5647 edbd 2017 99bc
00000380: 8f60 aebd 12dc 2bbe 9278 6b3d da41 9b3d
00000390: 4dd7 47be e866 03bd 9faa 263d 8ee8 62be
000003a0: 17d0 76be 5c78 e03b fa26 fabc c900 51be
000003b0: ff39 82bd af09 87bd ce8d 603a 8221 9b3b
000003c0: c2a8 e9bd a064 71bd 1ed8 c2bd a3ca 99bd
000003d0: 7ac1 23be 1862 88bd 7688 19be b8ee 8ebd
000003e0: a0e2 09bd 7d84 27bd 1d2a 1cbd fcf0 073c
000003f0: dc6d acbd 1bdb 0abd 1396 8f3c b881 36be

encoder_1_convlstm.conv.bias f4 [96]
0.07180028 0.05522135 0.023518344 0.0908263 0.05423387 0.14229575 0.044853054 0.041047726
0.13893321 0.13648508 0.06282259 0.117573574 0.017479638 0.0427679 0.09139832 0.124783106
0.13411054 0.19775257 -0.01083675 0.003325448 0.05726507 0.036961783 0.09587887 0.100110866
0.08595053 0.16423272 0.08752464 0.09139499 0.1638696 0.04664482 0.038376387 0.041195866
0.08392913 0.20048061 0.114406556 0.10491767 -0.02591062 0.018721815 0.20226568 0.08141881
0.21200033 0.18763793 0.009840119 0.085132465 0.13597882 0.14146969 0.06242392 0.1358634
0.11437743 0.05825746 0.111662485 0.14786516 0.035932563 0.1545567 0.019821849 0.07797272
0.16258328 0.12324792 0.075061955 0.2822751 0.068091586 0.036417075 0.19522671 0.21195336
0.065721035 0.15638651 0.19081426 0.15976381 0.03253957 0.10467264 0.10888295 0.13181914
-0.019402886 -0.010195866 0.073321976 0.009144494 0.005300113 0.03967157 -0.060367078 -0.029576007
0.010157803 -0.08637272 0.029145336 0.025506672 0.0020039065 -0.072131604 0.09982514 0.03763031
-0.02108208 -0.04688003 0.070899144 -0.00085806474 0.0023040078 0.025713582 0.076208845 -0.012613848
00000000: 060c 933d c82f 623d 8ba9 c03c 2403 ba3d
00000010: 5624 5e3d fab5 113e d6b7 373d a921 283d
00000020: 8244 0e3e bfc2 0b3e 21a9 803d 6aca f03d
00000030: 7531 8f3c 652d 2f3d 0b2f bb3d 498e ff3d
00000040: 4654 093e a67f 4a3e a08c 31bc c2ef 593b
00000050: c78e 6a3d 3d65 173d 245c c43d ed06 cd3d
00000060: d506 b03d 9f2c 283e 1e40 b33d 4c2d bb3d
00000070: 6fcd 273e a40e 3f3d 8f30 1d3d ffbc 283d
00000080: 09e3 ab3d ca4a 4d3e fc4d ea3d 13df d63d
00000090: 8242 d4bc 7e5e 993c bc1e 4f3e e8be a63d
000000a0: 9d16 593e 2824 403e 7338 213c ee59 ae3d
000000b0: 083e 0b3e 6edd 103e 39b0 7f3d c61f 0b3e
000000c0: b73e ea3d 609f 6e3d 4daf e43d f769 173e
000000d0: 062e 133d 1d44 1e3e 6e61 a23c 29b0 9f3d
000000e0: 3b7c 263e 6869 fc3d 15ba 993d 5d86 903e
000000f0: 9a73 8b3d 122a 153d 83e9 473e 4d0a 593e
00000100: c098 863d c923 203e d064 433e 2099 233e
00000110: 3648 053d 9c5e d63d 06fe de3d 99fb 063e
00000120: cdf2 9ebc 900c 27bc d529 963d cad2 153c
00000130: 92ac ad3b a87e 223d 7843 77bd 6249 f2bc
00000140: ea6c 263c 2ee4 b0bd 33c2 ee3c 5ef3 d03c
00000150: f953 033b bcb9 93bd 1f71 cc3d 3d22 1a3d
00000160: 54b4 acbc 4605 40bd 9233 913d c0ef 60ba
00000170: d6fe 163b 4aa5 d23c 6213 9c3d 50aa 4ebc

encoder_2_convlstm.conv.weight f4 [96, 48, 3, 3]
-0.03182198 -0.01772288 0.056487836 0.07654985 0.09893345 -0.039513767 -0.034550365 0.26844022
-0.07718749 0.16374567 0.13028303 0.07060279 0.0867567 0.15599988 0.03843908 0.04640904
0.19714975 0.08538357 0.16795349 0.08965988 -0.016042933 -0.02890567 -0.0345949 -0.16871016
0.035680655 -0.030263932 0.013189508 0.0013473547 0.15846677 0.05001484 -0.0109756 -0.116930075
-0.060192242 0.23785356 -0.014516487 -0.16410132 0.09345754 0.008374459 -0.033197355 -0.2976013
0.24359566 -0.26071557 0.11551433 -0.2155258 -0.028453873 0.056896437 0.09518997 0.030109657
0.09065333 0.036247544 0.04415318 -0.0017085978 -0.060357936 0.1334564 0.0047769295 -0.018327728
0.012989393 -0.2186893 -0.0039060232 -0.08638009 -0.06823147 -0.13945892 -0.25366318 0.0019602166
-0.026589572 0.0838657 0.10416456 -0.019764213 0.031030647 0.09709334 -0.0035277344 0.13095546
-0.01432518 -0.035570912 -0.0038187245 -0.07610076 -0.07128358 -0.10678327 -0.08037756 -0.029652374
-0.15264042 -0.05968634 -0.02106373 -0.0066714673 -0.07917831 -0.23339903 -0.19332768 0.0065301373
-0.20807607 -0.08729589 -0.119307026 0.04384575 0.04720619 -0.027285822 0.10806183 0.06187381
0.0703081 0.07507922 -0.07925563 0.061677255 0.07476446 -0.17420815 -0.070799984 0.33113906
0.06650951 0.20633548 0.09706089 0.12955956 -0.16201916 -0.09705593 0.044380162 0.034049485
0.024932945 -0.025679857 -0.093905315 -0.044495728 -0.2850434 -0.048584223 -0.07078619 0.055497423
-0.155189 -0.2964108 -0.145141 -0.13939486 -0.13778593 -0.38284132 0.052530352 -0.106637895
0.07897829 0.2786322 0.0630896 0.08585793 0.023420218 0.16637051 0.29311302 0.051957518
0.04499768 -0.07765618 0.0058662794 0.13456152 -0.06297401 -0.032358237 0.02284467 0.023755684
-0.110290624 -0.04257194 -0.09160688 -0.12262953 -0.018085703 0.0032344793 0.23179743 0.12276881
0.06805765 -0.033746723 0.060282648 -0.03099758 0.025344793 0.17960723 -0.119699515 -0.1470749
-0.015145672 0.14773831 -0.220071 -0.014921442 0.1545209 -0.23737238 -0.07857608 -0.056692697
0.0053802184 -0.025499528 -0.071127005 -0.12253115 -0.010026003 0.18104607 0.05690177 -0.038331676
-0.12021019 -0.07292996 -0.1422818 0.07691992 -0.03527255 0.07541066 0.08259288 -0.008232756
0.053502746 0.018109756 0.054575883 0.009687704 0.14151986 0.06316511 -0.0045814347 0.090806246
0.112842865 -0.12289501 -0.13646911 -0.078433454 -0.1482786 0.014467012 0.1799974 0.1737951
-0.08503132 0.14309223 0.08589497 0.20804638 -0.033897847 0.23636076 0.072586454 0.02953478
0.045037307 0.0450097 0.17621107 0.11603618 0.20560692 -0.25697508 -0.1187355 0.12428392
-0.16374402 -0.39173222 -0.38357362 -0.009306348 0.16798894 -0.059058968 0.04568178 -0.068281
-0.039783515 0.01883219 0.042375308 0.13401386 0.3301858 -0.025167495 0.001373375 0.3312159
0.18778375 0.35915062 -0.077081315 -0.012041616 -0.03543671 -0.15603085 -0.1596322 -0.19330193
-0.011122359 -0.013823279 0.17481783 0.07769286 0.050563704 0.0904538 0.07240723 0.08292329
0.060770776 -0.03463266 0.0057292455 0.024515226 -0.09858962 -0.06658711 -0.15732723 0.043739118
00000000: c457 02bd 932f 91bc ca5f 673d 2bc6 9c3d
00000010: 9f9d ca3d 30d9 21bd af84 0dbd ff70 893e
00000020: 7a14 9ebd f2ac 273e ea68 053e 3298 903d
00000030: 7fad b13d 6fbe 1f3e 4c72 1d3d 6817 3e3d
00000040: a0e1 493e 95dd ae3d 00fc 2b3e 999f b73d
00000050: 786c 83bc 95cb ecbc 62b3 0dbd 5bc2 2cbe
00000060: e125 123d 11ec f7bc ce18 583c b999 b03a
00000070: 1d45 223e 5cdc 4c3d 01d3 33bc 0979 efbd
00000080: 248c 76bd e28f 733e 8fd6 6dbc 2d0a 28be
00000090: ab66 bf3d 0735 093c f3f9 07bd 335f 98be
000000a0: 2471 793e 837c 85be c792 ec3d ccb2 5cbe
000000b0: 1918 e9bc 3d0c 693d f6f2 c23d 87a8 f63c
000000c0: 74a8 b93d 4e78 143d f7d9 343d 07f3 dfba
000000d0: e239 77bd cba8 083e ca87 9c3b 0824 96bc
000000e0: 77d1 543c 16f0 5fbe 32fc 7fbb 0be8 b0bd
000000f0: f1bc 8bbd 52ce 0ebe 24e0 81be fa76 003b
00000100: 60d2 d9bc c8c1 ab3d 3b54 d53d 8fe8 a1bc
00000110: fc33 fe3c dfd8 c63d 9031 67bb 3019 063e
00000120: 29b4 6abc ceb2 11bd 9143 7abb b7da 9bbd
00000130: 20fd 91bd 30b1 dabd fd9c a4bd 89e9 f2bc
00000140: c54d 1cbe aa79 74bd d88d acbc 539c dabb
00000150: 3d28 a2bd 2800 6fbe b1f7 45be c3fa d53b
00000160: e511 55be 30c8 b2bd 3e57 f4bd 9a97 333d
00000170: 475b 413d 8486 dfbc 854f dd3d 646f 7d3d
00000180: b1fd 8f3d 22c3 993d c750 a2bd 4aa1 7c3d
00000190: 1c1e 993d 9f63 32be 95ff 90bd 0f8b a93e
000001a0: 2336 883d 9c49 533e dcc7 c63d 43ab 043e
000001b0: 5ae8 25be 42c5 c6bd f9c7 353d 7977 0b3d
000001c0: 2d40 cc3c 905e d2bc 6e51 c0bd 2741 36bd
000001d0: 35f1 91be 4000 47bd 5af8 90bd 4451 633d
000001e0: dde9 1ebe 28c3 97be d89f 14be 87bd 0ebe
000001f0: c117 0dbe c703 c4be 112a 573d f864 dabd
00000200: 5fbf a13d e1a8 8e3e 1f35 813d 48d6 af3d
00000210: c2db bf3c 085d 2a3e e912 963e 68d1 543d
00000220: 7d4f 383d 340a 9fbd eb39 c03b 7fca 093e
00000230: 85f8 80bd 128a 04bd bf24 bb3c 489b c23c
00000240: 0de0 e1bd ea5f 2ebd 639c bbbd 3125 fbbd
00000250: 7828 94bc 8ff9 533b 4e5c 6d3e 376e fb3d
00000260: cf61 8b3d 013a 0abd f0ea 763d a3ee fdbc
00000270: e29f cf3c f5ea 373e 0525 f5bd cd9a 16be
00000280: 8d25 78bc b648 173e 4b5a 61be 1079 74bc
00000290: ba3a 1e3e bf11 73be 7fec a0bd 9a36 68bd
000002a0: 8b4c b03b 63e4 d0bc 09ab 91bd 9df1 fabd
000002b0: 1b44 24bc 2464 393e d511 693d ad01 1dbd
000002c0: c330 f6bd 4e5c 95bd 52b2 11be 3188 9d3d
000002d0: f379 10bd e770 9a3d 7526 a93d aee2 06bc
000002e0: b225 5b3d e95a 943c f68a 5f3d 2db9 1e3c
000002f0: 95ea 103e b65c 813d dc1f 96bb a0f8 b93d
00000300: 291a e73d 61b0 fbbd 8fbe 0bbe b8a1 a0bd
00000310: 58d6 17be 0c07 6d3c 3d51 383e 58f7 313e
00000320: e724 aebd c586 123e b4e9 af3d 1c0a 553e
00000330: 78d8 0abd 8e08 723e 35a8 943d ecf2 f13c
00000340: 0a79 383d 175c 383d ad70 343e 60a4 ed3d
00000350: 9f8a 523e 3d92 83be 992b f3bd 9188 fe3d
00000360: 83ac 27be 2091 c8be c363 c4be a779 18bc
00000370: 4b05 2c3e d1e7 71bd d11c 3b3d e9d6 8bbd
00000380: 0af4 22bd f745 9a3c bb91 2d3d ee3a 093e
00000390: 1d0e a93e 102c cebc d102 b43a 2195 a93e
000003a0: 624a 403e 97e2 b73e cfdc 9dbd 334a 45bc
000003b0: 1526 11bd 8dc6 1fbe a076 23be f1f0 45be
000003c0: 8e3a 36bc 097b 62bc 7203 333e 6f1d 9f3d
000003d0: e31b 4f3d d83f b93d 3e4a 943d b0d3 a93d
000003e0: c7ea 783d fada 0dbd 65bc bb3b 28d4 c83c
000003f0: 5be9 c9bd d35e 88bd 641a 21be ca27 333d

encoder_2_convlstm.conv.bias f4 [96]
0.107254915 0.0132198 0.17333041 0.11139897 0.15139288 0.041154616 0.12631918 0.041445706
0.067833595 0.13765997 0.045731343 0.106959656 0.14536184 0.11481975 0.07835019 0.017284973
0.037390016 0.058750115 0.07737791 0.07906353 0.055264425 0.096834145 0.039737333 0.112823434
0.08575279 0.10270114 0.1074769 0.055870716 0.19263728 0.051788565 0.10451516 0.09243156
0.11779196 0.19080122 0.10410194 0.13692772 0.11783427 0.1157129 0.036350664 0.08362719
0.04260039 0.015825685 0.0833648 0.17864451 0.11066218 0.046197865 0.11489554 0.10934838
0.11816739 -0.00056727865 0.15796542 0.12221613 0.041481994 0.05781375 0.090164386 0.018482108
0.08480679 0.14740737 0.07322635 0.08535563 0.12590607 0.099944696 0.025694992 0.07552319
0.013006708 0.033726774 0.035816442 0.12993994 0.08365272 0.037727933 0.07509749 0.03906218
-0.037436675 -0.0044756928 0.02160339 0.01648642 -0.065619506 0.015925698 0.017735315 -0.01709884
0.07706596 0.099506274 0.07318186 0.009147758 0.018808417 0.014522763 -0.07340838 -0.00610651
0.023411626 -0.047713216 -0.026417911 0.00092327513 -0.04685907 -0.059598364 0.032497056 -0.06363301
00000000: 77a8 db3d dc97 583c 877d 313e 2525 e43d
00000010: bc06 1b3e be91 283d d159 013e f9c2 293d
00000020: 57ec 8a3d bcf6 0c3e ca50 3b3d aa0d db3d
00000030: bcd9 143e 9e26 eb3d 1076 a03d 3799 8d3c
00000040: 4626 193d f6a3 703d 4f78 9e3d 0fec a13d
00000050: f35c 623d fb50 c63d 9dc3 223d f90f e73d
00000060: 299f af3d fa54 d23d d91c dc3d b1d8 643d
00000070: b542 453e 3f20 543d 0b0c d63d c24c bd3d
00000080: e93c f13d 6561 433e 6633 d53d c836 0c3e
00000090: 1853 f13d e3fa ec3d 6fe4 143d bb44 ab3d
000000a0: bf7d 2e3d dea4 813c 2abb aa3d 96ee 363e
000000b0: daa2 e23d f939 3d3d 5a4e eb3d 0bf2 df3d
000000c0: bf01 f23d 6db5 14ba b0c1 213e 734c fa3d
000000d0: 06e9 293d 1cce 6c3d 1ba8 b83d ca67 973c
000000e0: 2faf ad3d f5f1 163e b2f7 953d efce ae3d
000000f0: 85ed 003e ceaf cc3d 4e7e d23c e7ab 9a3d
00000100: 161a 553c 1625 0a3d 43b4 123d fa0e 053e
00000110: 1e52 ab3d 9b88 1a3d b6cc 993d aaff 1f3d
00000120: 3357 19bd d5a8 92bb 98f9 b03c 870e 873c
00000130: 8563 86bd 9c76 823c a749 913c de12 8cbc
00000140: c2d4 9d3d f2c9 cb3d 5fe0 953d 7ae0 153c
00000150: 1c14 9a3c e2f0 6d3c 2257 96bd 1e19 c8bb
00000160: bdc9 bf3c ef6e 43bd 606a d8bc f207 723a
00000170: 4cef 3fbd 6a1d 74bd a21b 053d 0652 82bd

decoder_1_convlstm.conv.weight f4 [96, 48, 3, 3]
-0.24069197 -0.3972819 -0.04457766 0.18832673 0.11555104 0.0029265766 -0.24795891 -0.0070170253
-0.0104578845 0.07212916 0.07116294 -0.07294037 0.14576328 0.16882078 0.0386034 0.089421876
0.049421918 0.012228666 0.035798628 -0.03221772 -0.008955815 -0.05281563 0.16186094 -0.091075264
-0.37269536 -0.14778768 0.056211244 0.46169844 0.2456722 -0.0063944985 0.06482778 0.093308024
0.07471274 0.017828273 0.12434546 0.086324215 -0.04148415 0.027631335 -0.025587313 -0.09404809
-0.084865436 0.05261624 -0.14465469 -0.12910838 -0.18229595 -0.11462018 -0.086312994 -0.014537989
-0.26341894 -0.26537386 -0.02439701 -0.21475987 -0.18379264 0.009061781 0.030314961 0.068791784
0.015154434 0.0654991 0.1212903 0.039078258 0.0027643114 0.14448828 0.118438385 -0.093576945
-0.055978887 -0.12700698 -0.045714967 -0.13764806 -0.20192383 -0.19071223 -0.053351026 -0.023635615
0.22078255 0.0595202 0.06540605 0.014632151 -0.06622527 -0.05601965 0.13213049 0.16708708
0.09788938 0.01490528 -0.004447228 -0.07804273 -0.03240878 -0.06729891 -0.18263753 0.07855
-0.0076474263 0.037065357 0.11399096 0.0081092445 -0.011770861 0.23573922 0.17289397 0.033406045
0.35235187 0.33367327 -0.051999573 0.17367041 0.04220381 -0.0061688237 0.078936 0.06281013
-0.019725116 0.031717457 -0.0040147197 -0.02413665 0.43305758 0.016471155 0.10327062 0.24412432
0.12338411 -0.088890396 0.24329318 0.14612685 0.06602495 -0.2785953 -0.22694747 -0.24489671
-0.0029780697 0.16535088 0.10088542 0.19157374 0.212219 0.026644517 0.06833031 -0.12848571
0.09303405 -0.15723507 -0.18289787 0.15297975 0.010575766 0.06853318 -0.024210934 -0.26043162
-0.14285278 0.10552298 -0.45695022 -0.39266738 0.11230137 -0.37186733 -0.17137516 -0.090003714
-0.0635501 0.03891372 -0.04763298 -0.13041577 0.004576852 0.18346088 0.046644133 0.018559096
0.020699466 -0.36284062 -0.10971016 -0.19518106 -0.47258008 -0.3609337 0.093767785 0.024224332
-0.08253676 -0.07258202 -0.018357052 -0.13973491 0.094124556 -0.029385291 0.09154405 0.08408738
0.0745436 0.03072088 0.05811585 0.073856756 0.048551135 0.057945684 -0.14429295 0.2810284
0.117798634 0.2647739 0.2009037 0.21770562 -0.10516344 -0.12808044 -0.1252923 -0.15387045
-0.04224686 -0.102327354 -0.2010029 0.10929384 -0.07350749 -0.19345048 0.08634235 0.18660212
-0.15737763 -0.20994455 -0.16920556 -0.038755313 -0.1027161 -0.13118644 0.08904323 -0.10036147
-0.02591351 0.12726974 0.17533195 0.071743876 0.29831776 0.17053361 0.11932317 -0.06742155
-0.053679988 -0.18821746 -0.1665801 -0.11491391 0.01593096 -0.0743185 -0.23827137 -0.102453314
-0.39017144 -0.21762429 -0.166179 -0.21944194 0.050798744 -0.3312751 -0.19012742 -0.1366606
-0.0704547 -0.11867373 -0.10882387 0.23844521 -0.03257017 0.01760482 -0.009456527 0.091277204
0.04800329 -0.021610383 -0.49064422 0.122978196 -0.060158767 0.021302214 -0.015270237 0.14572147
0.72908187 0.35353753 0.14271985 -0.20949626 0.14900541 0.17766397 0.2591859 0.45654997
0.13875937 0.72558206 0.19405137 0.067353845 0.20040874 0.056359172 -0.07454232 -0.10042171
00000000: f577 76be 8868 cbbe 1097 36bd b9d8 403e
00000010: 06a6 ec3d cfcb 3f3b f1e8 7dbe 13ef e5bb
00000020: 8c57 2bbc 74b8 933d e0bd 913d c361 95bd
00000030: f842 153e 5bdf 2c3e 991e 1e3d d122 b73d
00000040: a36e 4a3d be5a 483c 95a1 123d baf6 03bd
00000050: 69bb 12bc 3455 58bd e0be 253e ab85 babd
00000060: edd1 bebe a755 17be c33d 663d bd63 ec3e
00000070: 7e91 7b3e f188 d1bb 6dc4 843d 4718 bf3d
00000080: fe02 993d 990c 923c d5a8 fe3d c0ca b03d
00000090: 49eb 29bd 1c5b e23c 7c9c d1bc 499c c0bd
000000a0: eecd adbd 2084 573d 5c20 14be fd34 04be
000000b0: caab 3abe fcbd eabd dec4 b0bd bf30 6ebc
000000c0: d9de 86be 15df 87be 3ddc c7bc 03ea 5bbe
000000d0: 2334 3cbe dd77 143c 1557 f83c b5e2 8c3d
000000e0: 4e4a 783c 6424 863d 0c67 f83d 8610 203d
000000f0: 7329 353b bcf4 133e d38f f23d 45a5 bfbd
00000100: 1e4a 65bd 1e0e 02be 9e3f 3bbd 9df3 0cbe
00000110: 1fc5 4ebe 114a 43be 9b86 5abd 7a9f c1bc
00000120: d214 623e 74cb 733d 9bf3 853d b1bb 6f3c
00000130: 1da1 87bd dc74 65bd 374d 073e e018 2b3e
00000140: 3a7a c83d 4735 743c 0dba 91bb ded4 9fbd
00000150: 12bf 04bd 03d4 89bd 5505 3bbe d3de a03d
00000160: 4397 fabb d8d1 173d 1874 e93d a3dc 043c
00000170: 92da 40bc 9f65 713e 1e0b 313e c7d4 083d
00000180: 7767 b43e 39d7 aa3e 81fd 54bd a8d6 313e
00000190: e7dd 2c3d d823 cabb 33a9 a13d 99a2 803d
000001a0: 9196 a1bc 2aea 013d e98d 83bb 39ba c5bc
000001b0: b9b9 dd3e 84ee 863c 8c7f d33d bafb 793e
000001c0: cfb0 fc3d 2b0c b6bd d921 793e 47a2 153e
000001d0: 1738 873d 0ba4 8ebe eb64 68be 34c6 7abe
000001e0: b82b 43bb be51 293e 049d ce3d e82b 443e
000001f0: f04f 593e 9a45 da3c c3f0 8b3d c291 03be
00000200: a388 be3d 3b02 21be 9449 3bbe b9a6 1c3e
00000210: fa45 2d3c 205b 8c3d 0256 c6bc 4b57 85be
00000220: 0048 12be 6f1c d83d 61f5 e9be b30b c9be
00000230: 43fe e53d 6565 bebe f87c 2fbe de53 b8bd
00000240: 8e26 82bd fe63 1f3d cd1a 43bd b68b 05be
00000250: 6bf9 953b 2bdd 3b3e eb0d 3f3d 3f09 983c
00000260: ed91 a93c 3fc6 b9be b8af e0bd 8bdd 47be
00000270: 04f6 f1be 4dcc b8be 5309 c03d 1b72 c63c
00000280: 0809 a9bd e2a5 94bd 8761 96bc ab16 0fbe
00000290: 60c4 c03d 6cb9 f0bc 727b bb3d 0136 ac3d
000002a0: 51aa 983d 5baa fb3c e30a 6e3d 3642 973d
000002b0: 8edd 463d 7458 6d3d 88c1 13be f4e2 8f3e
000002c0: 6940 f13d 7290 873e b3b9 4d3e 39ee 5e3e
000002d0: ee5f d7bd 8527 03be a04c 00be 3790 1dbe
000002e0: 0b0b 2dbd 0191 d1bd b4d3 4dbe 73d5 df3d
000002f0: 188b 96bd e217 46be 42d4 b03d a014 3f3e
00000300: 9a27 21be b4fb 56be 3944 2dbe e4bd 1ebd
00000310: d25c d2bd bd55 06be 4c5c b63d 508a cdbd
00000320: 9248 d4bc 0053 023e 388a 333e 74ee 923d
00000330: 1bbd 983e 5da0 2e3e b55f f43d 4f14 8abd
00000340: 8cdf 5bbd 14bc 40be f993 2abe fc57 ebbd
00000350: a581 823c 4c34 98bd 69fd 73be 0bd3 d1bd
00000360: 8dc4 c7be e7d8 5ebe d42a 2abe 63b5 60be
00000370: 5812 503d e49c a9be c3b0 42be c2f0 0bbe
00000380: 8e4a 90bd 360b f3bd 0ddf debd fb2a 743e
00000390: 4c68 05bd fc37 903c 8def 1abc 8bef ba3d
000003a0: 199f 443d 4208 b1bc b835 fbbe fedb fb3d
000003b0: 0a69 76bd fb81 ae3c 0430 7abc 0238 153e
000003c0: 1ca5 3a3f df02 b53e 2725 123e 3086 56be
000003d0: e094 183e 8bed 353e 04b4 843e ebc0 e93e
000003e0: f016 0e3e bfbf 393f 67b5 463e d0f0 893d
000003f0: f337 4d3e e0d8 663d a5a9 98bd e6a9 cdbd

decoder_1_convlstm.conv.bias f4 [96]
0.05594581 0.05643595 0.12769182 0.049562283 0.026736926 0.055943176 0.12079926 0.056961108
0.08522167 0.015934713 0.157068 0.041404486 0.06826945 0.08709084 0.06877018 0.05900518
0.13753444 0.079896115 0.11203525 0.04981609 -0.014821172 0.010628089 0.19439797 0.08565845
0.057644922 0.052316584 0.062478174 0.03748787 0.07443711 -0.012865126 0.11425946 0.104732364
0.07449882 0.03259465 0.08066749 0.051426597 0.018818809 0.12369786 0.021288246 0.12825547
0.083124325 0.09310475 0.05797934 0.103904925 0.04652456 -0.0016657531 0.043914955 -0.008559794
0.11391129 0.12843034 0.04514458 0.1393838 0.038198147 0.14665835 0.1222235 0.09579251
0.04662033 0.12823002 0.1268492 0.1084213 0.10087954 0.08922222 0.14416935 0.12096696
0.11572351 0.088263385 0.07865806 0.10448451 0.060150664 0.0512875 0.10866301 0.07681653
-0.029264824 0.04114736 0.018692642 -0.047133315 0.038584694 0.063286915 -0.07980819 -0.031400204
0.054943644 -0.06849875 -0.037352122 0.038164437 0.04996756 0.018774081 0.056498118 -0.04242167
-0.09960804 0.05701805 -0.02065005 -0.053649027 -0.023690177 0.010248513 -0.017300405 0.067143366
00000000: 6f27 653d 6229 673d a5c1 023e d201 4b3d
00000010: 6607 db3c ac24 653d 9a65 f73d 0d50 693d
00000020: b388 ae3d 8489 823c 6fd6 203e c097 293d
00000030: dad0 8b3d af5c b23d 61d7 8c3d 6aaf 713d
00000040: d4d5 0c3e 93a0 a33d bd72 e53d f50b 4c3d
00000050: 80d4 72bc 7021 2e3c 4310 473e b36d af3d
00000060: 151d 6c3d ea49 563d 1de9 7f3d e18c 193d
00000070: 7c72 983d 40c8 52bc dd00 ea3d ec7d d63d
00000080: d692 983d f881 053d ff34 a53d b2a4 523d
00000090: e729 9a3c 4e55 fd3d b064 ae3c 6755 033e
000000a0: 163d aa3d b4ad be3d bf7b 6d3d 1bcc d43d
000000b0: 8990 3e3d 6655 daba 2be0 333d 613e 0cbc
000000c0: 534a e93d 3e83 033e 86e9 383d a0ba 0e3e
000000d0: a975 1c3d 9b2d 163e 5050 fa3d dd2e c43d
000000e0: f6f4 3e3d bb4e 033e c2e4 013e fd0b de3d
000000f0: ef99 ce3d 24ba b63d 21a1 133e 87bd f73d
00000100: 7300 ed3d 6fc3 b43d 7a17 a13d fafb d53d
00000110: 8b60 763d d712 523d b68a de3d fc51 9d3d
00000120: c9bc efbc 228a 283d 5021 993c dd0e 41bd
00000130: fc0a 1e3d 929c 813d 7a72 a3bd 809d 00bd
00000140: 960c 613d 1349 8cbd 8afe 18bd 5052 1c3d
00000150: c9aa 4c3d 1acc 993c 926a 673d 58c2 2dbd
00000160: 4dff cbbd c28b 693d 4b2a a9bc 15bf 5bbd
00000170: e711 c2bc 61e9 273c 94b9 8dbc 7682 893d

decoder_2_convlstm.conv.weight f4 [96, 48, 3, 3]
0.024176124 -0.03873053 -0.079481125 -0.027493324 -0.076896705 -0.16496429 -0.13367936 -0.06392515
-0.093027554 -0.15972815 -0.1302088 -0.0030659277 -0.09685766 0.0823206 -0.035698634 -0.08781595
-0.2406161 0.06356763 -0.008619011 0.086800136 0.028555911 -0.09393595 0.029723573 0.118760906
-0.04733836 0.08040871 0.23517819 -0.13259436 0.32183626 0.22516935 -0.35874486 0.2374374
0.14158808 -0.003944541 0.059343707 -0.001784571 0.010981085 0.071030274 0.031564802 0.029282007
0.063501105 0.061668057 -0.0021457926 0.02670348 0.08276598 -0.22047345 0.38851222 -0.0012663087
-0.31064168 0.25088167 0.1316909 -0.2240418 -0.09371664 0.055869833 0.05457212 0.03287313
-0.020869559 -0.011664066 -0.071681745 -0.17147368 -0.11846282 -0.24091186 -0.19061369 -0.020457774
-0.06182356 -0.06036245 -0.042370256 -0.18647687 -0.3961469 0.052300606 -0.07671214 -0.011482957
-0.12065989 -0.04637993 0.098336644 -0.21592842 0.031015761 0.10288169 0.13281095 0.033493053
0.18003432 0.06487159 -0.041058656 -0.085298024 0.067590624 -0.17320183 -0.269089 -0.27864453
-0.15834364 -0.17970082 -0.08966867 -0.059846863 -0.10960562 -0.0057268874 -0.0322525 -0.17785591
0.04570627 -0.14169137 -0.26381776 -0.13431278 0.060157225 0.015313863 -0.17980112 0.107086256
0.38512143 0.3562772 0.20060788 0.14616857 0.019390834 -0.023644853 -0.046640236 -0.04113149
0.034415033 0.13204238 -0.10705991 0.07441199 0.28179985 0.16881149 -0.0030709037 0.008468966
-0.16214438 -0.1674882 0.24741511 0.3156056 0.2528655 0.17478366 0.058073692 0.013578036
0.10917188 0.004011878 0.0549388 0.18892366 0.030717352 0.111546345 0.30607244 0.08503567
-0.19653676 -0.35412434 0.14934996 -0.4367549 -0.15368076 -0.21720746 -0.008765902 0.14012791
-0.043938518 0.018334007 -0.10458487 0.024241408 0.0635949 -0.043751422 -0.0025733244 -0.04719137
-0.13220392 -0.04280142 0.14818628 0.015712902 -0.04119196 0.31760907 0.15054195 0.019108286
0.11270662 0.08640639 0.02769834 -0.009105551 -0.106496826 -0.03563096 -0.24153903 -0.18768007
-0.12067576 -0.14169742 -0.0064547467 0.10754289 0.025877167 -0.04830132 0.16667792 0.096086755
-0.019937959 -0.14360514 0.16094293 -0.102128275 0.20168343 -0.081477396 -0.48726907 -0.018873507
0.1801635 0.10176383 0.21368498 -0.2272675 -0.109189324 -0.10499735 -0.15312237 -0.036912993
-0.07862457 -0.013831017 0.11496736 0.020172337 -0.07489676 0.08981969 0.31446388 0.16882448
0.07246195 0.08978793 -0.07229676 -0.20914245 -0.3032632 -0.10158787 -0.11384336 -0.13355006
0.016781632 0.286995 -0.08927836 -0.071153864 0.17266627 0.08275318 0.053276587 0.100307904
0.274012 0.3232994 0.09488445 0.038055576 0.019161811 -0.025082693 0.017453251 -0.036892492
0.051727604 -0.008353878 0.01581741 0.07323234 0.018140031 0.04602922 0.13159183 0.034989372
0.30797082 0.52203393 -0.13039033 -0.14220856 -0.03604259 -0.21920493 -0.062613934 -0.00068085163
-0.014132007 0.071962036 0.007938449 0.13620275 0.10227833 -0.014239761 -0.06487381 -0.08266057
-0.13504834 -0.22072642 -0.0728978 -0.028648214 0.30464703 0.020768847 -0.09165166 0.075251125
00000000: 020d c63c e7a3 1ebd 00c7 a2bd ae39 e1bc
00000010: 057c 9dbd 66ec 28be 3ee3 08be 30eb 82bd
00000020: 3b85 bebd c78f 23be 7555 05be bbed 48bb
00000030: 4f5d c6bd b497 a83d bb38 12bd d9d8 b3bd
00000040: 1164 76be bf2f 823d c136 0dbc 45c4 b13d
00000050: 16ee e93c 7e61 c0bd da7e f33c eb38 f33d
00000060: dee5 41bd 52ad a43d 8dd2 703e d1c6 07be
00000070: b9c7 a43e cb92 663e 68ad b7be ca22 733e
00000080: 77fc 103e 3541 81bb 6312 733d 44e8 e9ba
00000090: 02ea 333c 5278 913d 184a 013d d2e0 ef3c
000000a0: de0c 823d a597 7c3d 6da0 0cbb 42c1 da3c
000000b0: 3681 a93d cbc3 61be 13eb c63e 45fa a5ba
000000c0: 6d0c 9fbe 9073 803e fbd9 063e 376b 65be
000000d0: 82ee bfbd c4d7 643d 0487 5f3d faa5 063d
000000e0: a3f6 aabc a41a 3fbc e1cd 92bd cc96 2fbe
000000f0: a39c f2bd 99b1 76be 3c30 43be 1097 a7bc
00000100: b43a 7dbd 9e3e 77bd 6f8c 2dbd cbf3 3ebe
00000110: c4d3 cabe 2939 563d 411b 9dbd 0323 3cbc
00000120: 881c f7bd e2f8 3dbd b964 c93d 571c 5dbe
00000130: c414 fe3c a3b3 d23d 98ff 073e 0330 093d
00000140: eb5a 383e 65db 843d 1f2d 28bd bbb0 aebd
00000150: f46c 8a3d d25b 31be 09c6 89be 7faa 8ebe
00000160: d624 22be 7e03 38be 35a4 b7bd fc21 75bd
00000170: e978 e0bd 9da8 bbbb 331b 04bd dc1f 36be
00000180: 7f36 3b3d 8b17 11be 1f13 87be 4a89 09be
00000190: 6c67 763d ffe6 7a3c c91d 38be 0a50 db3d
000001a0: a32e c53e f769 b63e 276c 4d3e 37ad 153e
000001b0: 87d9 9e3c dab2 c1bc d509 3fbd 7e79 28bd
000001c0: c7f6 0c3d 1e36 073e 3a42 dbbd 5065 983d
000001d0: 1248 903e ebdc 2c3e 3741 49bb 6bc1 0a3c
000001e0: 2d09 26be 0782 2bbe 635a 7d3e 0f97 a13e
000001f0: 9677 813e 7dfa 323e aede 6d3d 6976 5e3c
00000200: 8295 df3d 1276 833b 8207 613d 3475 413e
00000210: f5a2 fb3c 6972 e43d 87b5 9c3e 2e27 ae3d
00000220: ef40 49be c94f b5be 32ef 183e 579e dfbe
00000230: 7d5e 1dbe a26b 5ebe dc9e 0fbc b17d 0f3e
00000240: e0f8 33bd 3331 963c 9830 d6bd eb95 c63c
00000250: 0b3e 823d b134 33bd 38a5 28bb bd4b 41bd
00000260: 7760 07be 8b50 2fbd 25be 173e 58b8 803c
00000270: e7b8 28bd a89d a23e ab27 1a3e fb88 9c3c
00000280: bad2 e63d d5f5 b03d a1e7 e23c 732f 15bc
00000290: 021b dabd c5f1 11bd 0256 77be 342f 40be
000002a0: da24 f7bd 2119 11be 5782 d3bb 723f dc3d
000002b0: 5afc d33c 9bd7 45bd 9ead 2a3e 22c9 c43d
000002c0: ee54 a3bc 3a0d 13be 39ce 243e a128 d1bd
000002d0: 1a86 4e3e 9fdd a6bd 557b f9be 9d9c 9abc
000002e0: c87c 383e 8e69 d03d 3cd0 5a3e d0b8 68be
000002f0: a79e dfbd da08 d7bd 1ccc 1cbe 1432 17bd
00000300: eb05 a1bd 7d9b 62bc 0274 eb3d 7540 a53c
00000310: 7963 99bd 63f3 b73d 6901 a13e 53e0 2c3e
00000320: ee66 943d bce2 b73d 5310 94bd 7029 56be
00000330: 5045 9bbe 4d0d d0bd b526 e9bd 59c1 08be
00000340: a279 893c 02f1 923e 93d7 b6bd 1eb9 91bd
00000350: 6dcf 303e 807a a93d 8d38 5a3d 3b6e cd3d
00000360: 4d4b 8c3e 8087 a53e c752 c23d 2ae0 1b3d
00000370: 3bf9 9c3c 387a cdbc 1ffa 8e3c 951c 17bd
00000380: 53e0 533d b4de 08bc 8393 813c d6fa 953d
00000390: 679a 943c 2389 3c3d 02c0 063e 0451 0f3d
000003a0: 5aae 9d3e 04a4 053f 0b85 05be 1f9f 11be
000003b0: 65a1 13bd 4277 60be bc3b 80bd 2e7b 32ba
000003c0: ef89 67bc d560 933d 4510 023c bc78 0b3e
000003d0: 4d77 d13d e34d 69bc 8fdc 84bd f249 a9bd
000003e0: 1d4a 0abe 1b06 62be 714b 95bd a9af eabc
000003f0: b2fa 9b3e 6e23 aa3c deb3 bbbd 431d 9a3d

decoder_2_convlstm.conv.bias f4 [96]
0.10936965 0.10809193 0.11480142 0.4234939 0.08446409 0.28986964 0.079555735 0.1801834
0.2586494 0.11460812 -0.005784358 0.19980213 -0.051860332 0.0042017135 0.16604276 0.043068256
0.11971328 0.17804155 0.041849755 0.024838777 -0.05726185 0.17884274 0.15278308 0.077537306
-0.007589027 0.03180788 -0.018315341 0.06113209 0.0054938407 0.011487549 -0.025819184 -0.021042673
0.087976426 0.09247005 -0.12734467 0.0003908574 -0.08561837 -0.06427115 0.04391102 0.033738583
-0.023444813 0.05368147 -0.007195279 0.012933158 -0.02224383 0.009697074 -0.032329403 -0.04366519
0.13360491 0.11223381 0.07511674 0.12325569 0.12920281 0.19848537 0.15885666 0.1840451
0.2247795 0.15123713 0.09698063 0.056573194 0.055941775 0.0021887172 0.16584672 -0.0042999256
0.026288245 0.116277866 0.07123891 0.09393687 0.050185807 0.15025327 0.108553044 0.06774379
-0.026619913 0.023684615 0.033398293 0.15623526 0.03733842 -0.14607938 0.0026039723 -0.09629324
0.004500559 0.1723323 0.13033381 0.021468922 0.06153415 0.008790818 0.019472903 0.06151907
0.01274068 -0.02659169 0.068376064 0.019587085 0.013512933 -0.058635306 -0.019232694 -0.040507533
00000000: 32fd df3d 4d5f dd3d 021d eb3d 31d4 d83e
00000010: 82fb ac3d cb69 943e 1eee a23d ff81 383e
00000020: b26d 843e a9b7 ea3d b68a bdbb ee98 4c3e
00000030: 806b 54bd 87ae 893b 1d07 2a3e 5768 303d
00000040: 3c2c f53d 8650 363e a66a 2b3d b17a cb3c
00000050: 678b 6abd 8d22 373e 2b73 1c3e e1cb 9e3d
00000060: 5fad f8bb fb48 023d 0e0a 96bc a465 7a3d
00000070: ad05 b43b 4636 3c3c c182 d3bc af61 acbc
00000080: fc2c b43d f060 bd3d a466 02be feeb cc39
00000090: af58 afbd 98a0 83bd 0bdc 333d 7831 0a3d
000000a0: 560f c0bc 1ae1 5b3d 60c6 ebbb 99e5 533c
000000b0: b138 b6bc 7ae0 1e3c d66b 04bd 45da 32bd
000000c0: bacf 083e d7da e53d ced6 993d 7b6d fc3d
000000d0: be4d 043e c03f 4b3e 52ab 223e 5276 3c3e
000000e0: 992c 663e e8dd 1a3e c89d c63d 4bb9 673d
000000f0: 3423 653d 9570 0f3b b9d3 293e 64e6 8cbb
00000100: 725a d73c 1723 ee3d b5e5 913d f961 c03d
00000110: a28f 4d3d fedb 193e 0f51 de3d 42bd 8a3d
00000120: 0112 dabc 3d06 c23c a6cc 083d 23fc 1f3e
00000130: 2cf0 183d d595 15be 68a7 2a3b 6435 c5bd
00000140: 6d79 933b e177 303e 3a76 053e 98df af3c
00000150: 3c0b 7c3d 5d07 103c a385 9f3c 6cfb 7b3d
00000160: 49be 503c d1d6 d9bc c008 8c3d 1875 a03c
00000170: 5965 5d3c 932b 70bd e28d 9dbc 3aeb 25bd

decoder_CNN.weight f4 [8, 24, 1, 3, 3]
0.23921093 0.12188247 0.04027291 0.29141828 0.103493705 -0.13396476 0.038386382 -0.007940964
-0.042965386 0.055957526 0.0015460349 -0.0035516087 0.02160595 0.009697967 0.041418158 0.11693578
-0.02397473 0.006190305 0.008213159 -0.02764495 -0.009104353 -0.028863724 -0.14896545 -0.116015226
-0.05956941 -0.08393405 -0.113903776 -0.3245624 -0.1132927 -0.32718763 -0.1930981 -0.27401808
-0.10513137 0.07621998 -0.11333482 -0.25459537 -0.041870836 -0.082526 0.07791564 0.12799726
0.10662625 0.01373828 0.016523598 0.03237961 -0.06994104 -0.12407154 -0.06862579 -0.011556598
-0.09604138 -0.08747892 -0.0033461216 -0.020493854 -0.024118736 0.044578675 -0.031606164 0.046884872
0.023200687 0.068411276 0.055305928 -0.016706428 -0.0029291944 -0.009362324 -0.05548381 -0.40005955
0.021345323 0.057744693 -0.051256247 -0.3752057 -0.0671656 0.18245623 -0.14021794 -0.09321467
0.040442564 -0.211846 0.057881113 0.13024163 -0.049755972 -0.14439397 0.016801901 -0.24802743
-0.029626338 -0.05413973 0.063914195 0.119372055 -0.085762404 -0.08350174 -0.051559493 0.058741618
0.03743361 0.026092336 -0.02272877 0.031129304 0.1232345 -0.0011351707 -0.017226044 0.05008651
0.011393861 0.010591626 0.05043155 0.08868219 -0.106545456 0.07269368 0.026351487 0.1747712
0.27644452 -0.036553293 0.018954892 0.040976822 0.055910446 0.07253645 -0.04254653 -0.036755744
0.13363713 -0.0077701765 -0.062426433 -0.018684205 -0.06903385 0.05148308 0.10888879 0.09735327
0.07742854 -0.015707161 0.031616434 -0.11437501 0.0096734 0.0101746805 0.024727643 0.025903279
0.02579147 -0.07263761 0.010199556 0.1245399 0.09151334 -0.08066152 0.002162623 0.090539545
-0.0039646993 0.01903044 0.013363049 0.12092138 0.009515401 -0.23255992 -0.07771648 0.031634968
-0.23532473 -0.18381555 -0.10703033 0.03157702 -0.17187373 -0.06270765 0.11158534 0.0014144033
-0.055766642 0.07924455 0.08566124 -0.13405971 -0.114354365 -0.26211956 -0.2375079 -0.01955329
-0.007865829 0.16077338 0.075222224 0.14087744 -0.08876274 0.1110211 -0.057933517 -0.17518605
0.006281077 0.11676044 0.20330614 -0.15001878 -0.30636996 0.12172055 -0.12356627 -0.15444043
0.079990976 -0.011133185 -0.04235275 -0.06234804 0.02698753 0.1722826 -0.17038196 0.28506878
0.15866324 -0.1724849 -0.111863345 -0.1310488 -0.12500001 0.02974024 -0.07483752 -0.022240771
-0.04096363 0.065085284 -0.11641044 -0.04802178 -0.021600816 0.021140002 -0.02061058 -0.04964837
-0.06569532 -0.047380712 -0.07594543 -0.10241576 -0.019549811 0.0062288526 0.05448457 -0.20430917
-0.087221965 -0.033618897 0.10607464 -0.0014216073 -0.010904659 0.0066820877 -0.1251408 -0.050089296
0.0035102041 0.018554721 0.2688235 -0.033154745 0.20297147 -0.034723803 -0.14007734 -0.038086537
-0.072091855 0.008388378 -0.018139724 0.38759688 -0.19134843 -0.21442167 0.034715984 0.055115353
0.04796629 -0.018544896 -0.06081316 0.018134864 0.21328557 0.094765656 0.11234488 0.021637732
0.0442431 -0.14841014 -0.03605569 0.28088102 -0.06145218 -0.2753427 -0.20649156 0.021947484
0.059916496 0.15346353 -0.038846664 0.22004026 0.31990656 0.16281934 -0.81299686 0.37174702
00000000: b6f3 743e 849d f93d 35f5 243d c734 953e
00000010: 82f4 d33d 0f2e 09be 0a3b 1d3d d11a 02bc
00000020: 79fc 2fbd b833 653d 53a4 ca3a 1bc2 68bb
00000030: f6fe b03c 39e4 1e3c 16a6 293d 077c ef3d
00000040: a766 c4bc 0bd8 ca3b 7c90 063c aa77 e2bc
00000050: 6d2a 15bc 9e73 ecbc 668a 18be 6499 edbd
00000060: 0eff 73bd 9de5 abbd 6246 e9bd 0b2d a6be
00000070: 0106 e8bd 2385 a7be 82bb 45be 194c 8cbe
00000080: 1e4f d7bd 3919 9c3d 161c e8bd 535a 82be
00000090: c180 2bbd 6403 a9bd 3c92 9f3d b711 033e
000000a0: dd5e da3d 8616 613c 7f5c 873c 7ba0 043d
000000b0: 3f3d 8fbd 3819 febd ae8b 8cbd e357 3dbc
000000c0: 58b1 c4bd 2628 b3bd 9b4a 5bbb bae2 a7bc
000000d0: a894 c5bc 2198 363d 7775 01bd 5a0a 403d
000000e0: 5e0f be3c 361b 8c3d 7888 623d ebdb 88bc
000000f0: baf7 3fbb 6f64 19bc fe42 63bd 9bd4 ccbe
00000100: 63dc ae3c b385 6c3d 12f2 51bd f61a c0be
00000110: 1e8e 89bd ced5 3a3e 4b95 0fbe 55e7 bebd
00000120: 1aa7 253d 28ee 58be bf14 6d3d 105e 053e
00000130: ebcc 4bbd 03dc 13be 24a4 893c e7fa 7dbe
00000140: efb2 f2bc 9fc1 5dbd 72e5 823d 5679 f43d
00000150: 33a4 afbd f602 abbd 0c30 53bd 0d9b 703d
00000160: fc53 193d 98bf d53c af31 babc e202 ff3c
00000170: 5f62 fc3d 02ca 94ba a21d 8dbc 8327 4d3d
00000180: 51ad 3a3c 8088 2d3c 5091 4e3d 029f b53d
00000190: 8134 dabd 6de0 943d 13df d73c 39f7 323e
000001a0: 238a 8d3e e8b8 15bd 4a47 9b3c 50d7 273d
000001b0: 5a02 653d fe8d 943d 4545 2ebd 318d 16bd
000001c0: 2cd8 083e f79c febb dcb2 7fbd 9e0f 99bc
000001d0: 9f61 8dbd ecdf 523d 1601 df3d 2761 c73d
000001e0: db92 9e3d 4eac 80bc 3c80 013d 723d eabd
000001f0: 2e7d 1e3c b4b3 263c a091 ca3c 1d33 d43c
00000200: a248 d33c 07c3 94bd 0a1c 273c c60e ff3d
00000210: 596b bb3d de31 a5bd cbba 0d3b cc6c b93d
00000220: 4fea 81bb bae5 9b3c b1f0 5a3c a1a5 f73d
00000230: 7ce6 1b3c 3024 6ebe d129 9fbd ab93 013d
00000240: f7f8 70be 253a 3cbe b832 dbbd e856 013d
00000250: abff 2fbe de6c 80bd db86 e43d 8063 b93a
00000260: 906b 64bd f74a a23d 296f af3d f346 09be
00000270: 9f32 eabd 8934 86be 4535 73be 392e a0bc
00000280: aedf 00bc c7a1 243e 1c0e 9a3d 2d42 103e
00000290: 3dc9 b5bd 085f e33d b24b 6dbd f963 33be
000002a0: 7ed1 cd3b 1920 ef3d 7c2f 503e 869e 19be
000002b0: 86dc 9cbe a048 f93d 5010 fdbd a225 1ebe
000002c0: 4fd2 a33d f667 36bc 147a 2dbd a960 7fbd
000002d0: f414 dd3c da6a 303e 9c78 2ebe 89f4 913e
000002e0: 9e78 223e e29f 30be 9c18 e5bd a831 06be
000002f0: 0100 00be cea1 f33c 6a44 99bd 4732 b6bc
00000300: 7bc9 27bd 6f4b 853d 9968 eebd 7cb2 44bd
00000310: 32f4 b0bc cc2d ad3c 85d7 a8bc 175c 4bbd
00000320: 458b 86bd 4712 42bd 4789 9bbd 5bbf d1bd
00000330: ed26 a0bc 671b cc3b 362b 5f3d 6c36 51be
00000340: 6ea1 b2bd f8b3 09bd a93d d93d 3a55 baba
00000350: 74a9 32bc 6af5 da3b e924 00be 6f2a 4dbd
00000360: 740b 663b 1200 983c 3ca3 893e 45cd 07bd
00000370: c1d7 4f3e 8c3a 0ebd 6f70 0fbe a100 1cbd
00000380: e5a4 93bd 686f 093c c299 94bc 1973 c63e
00000390: d8f0 43be 5b91 5bbe 5932 0e3d a3c0 613d
000003a0: 4d78 443d 77eb 97bc 3817 79bd 918f 943c
000003b0: 8867 5a3e 7f14 c23d 1315 e63d 9d41 b13c
000003c0: 4138 353d d4f8 17be 22af 13bd a3cf 8f3e
000003d0: 48b5 7bbd b8f9 8cbe 8672 53be 36cb b33c
000003e0: 006b 753d 8b25 1d3e ae1d 1fbd 3c52 613e
000003f0: cbca a33e 1dba 263e 9020 50bf a055 be3e

decoder_CNN.bias f4 [8]
-0.08667324 -0.054149177 -0.058264844 -0.067097425 0.26707757 0.17178513 -0.007576912 -0.08256276
00000000: bd81 b1bd 87cb 5dbd 1ea7 6ebd 606a 89bd
00000010: 64be 883e 71e8 2f3e bf47 f8bb aa16 a9bd
