models/conv3d/saved_models/lr_0.0001/epoch_7900.pt (torch, 189346 bytes, 102 tensors)

model1.0.weight f4 [16, 8, 3, 3, 3]
00000000: 51c1 44bc 5804 0dbc b34a e83c 58c9 593d
00000010: dfde 9fbc 74b3 833d 83c7 d8bc bcc2 17bd
00000020: fbe8 013d 977f 29ba fede 3739 7c49 dd3c
00000030: 29ce a73d d450 7fbd 3997 423d 55e9 b9bc
00000040: 4e8c f53c 5407 893d 9a7f 833c feee abbd
00000050: 4fc5 613d 540f a03d 661d 3fbd e76f 553c
00000060: 5666 98bc dda1 47bc a08e 8e3c 9f35 e13b
00000070: 9ae2 5e3c b6af 613c 919c dbbb d032 933b
00000080: d2ef ee3c 1a81 003d cebb 373a 58de abbc
00000090: 7784 80bd ebf3 c8bd 9f2e e1bd 088f bb3d
000000a0: 7645 99bc 41f7 493d 3e52 a2bd e529 0e3e
000000b0: 4916 58bd 39f0 c6bc f414 f43c e09d eebc
000000c0: 68ca 283d 52f4 8ebd 2cdc 093c aaa4 80bd
000000d0: 9b8b 2f3c 56e6 41bc baa7 003c 3539 4fbd
000000e0: 4284 37bc 3f8d f2bc 75a9 5b3c 83b8 66bd
000000f0: 534d 7f3c 0f49 4dbc 073f b2bc 9c85 eabc
00000100: c8d9 d3bc 3beb a23c b1e7 793d e381 b8bb
00000110: d9c0 01bc bf5c 87bc 7b18 e03d 3361 17bc
00000120: 7d31 373b 909c eabc 0a7e f23c 4497 993c
00000130: 5999 8e3c 4efc 59bc 1e9c 01bd 0b4f 333c
00000140: 8d24 eabb 4e19 cebc 6c3f a13d fe71 063b
00000150: 179c 34bc abce 9fbc ea26 9e3d 8819 4d3d
00000160: 379a 7f3c eeba 4ebd 0de0 72ba 72b8 cabc
00000170: deb0 713d 1c2d 143d 3aa4 2ebb 9e6a 02bd
00000180: 0963 bf3d b52f efbc 55b0 b63b 3eb8 7d3d
00000190: 4f6f 98bc 7a81 09bd 5b3d 823c bdb2 93bd
000001a0: b1e3 24bd 6eab baba d109 8d3c ceb2 fc3c
000001b0: 1812 d3bd 1d50 7abb 23ee 6bbc cbe7 08bc
000001c0: 63a8 eebc 5538 003d 2a2d 21bc 46c0 b33c
000001d0: 1376 193d 3e16 d5bd b405 f6bc f930 63bd
000001e0: 36e9 0fbe e5ec 1cbe 2d35 f93c 72b4 c33d
000001f0: b45a 8cbd f8ef 323c 270a c9bc e41d 1fbd
00000200: 97d3 a43c 7be9 583c f022 933c 925f 843d
00000210: 1073 87bc 4868 85bd 3ba7 00bc 0923 eb3c
00000220: 1ead 42bd 667a 32bc f990 a33c 3630 093c
00000230: b3c7 8f3c 1e50 97bc 6439 2fbd 21ac 0dbd
00000240: 0681 86bd 2563 923c d5db 59bd adf7 903b
00000250: f327 aebc a84d e4bc b935 aabd 80dc e83d
00000260: 3848 813d d8e2 85bc d0de 0abd 4a38 8fbc
00000270: 6ce9 4ebc a82b fabc 31ac 13bc 5337 f5bc
00000280: 46ff c33c d983 26bd 1f89 e4bb 630b 653d
00000290: 8f6f 83bb ebba 5fbc a6c4 e43c a042 7fbd
000002a0: 60a3 80bb 27dd 3a3c d1da 3a3c b84c 1cbd
000002b0: 1dda be3d 5840 62bd 2828 133d 0e56 11be
000002c0: 5ae1 5abe 82a7 bf3c ac1e afbe d177 a4bc
000002d0: e620 59bc bb47 c2bb 88bb 3c3c e0ed 2d3c
000002e0: 5a51 00bd f8e3 3ebd 490f 82bc eb70 d6bd
000002f0: be7c 6a3d 6010 7bbd aeb2 e43c ba55 6cbc
00000300: c4d7 743d 5f57 183d 8033 903a d7dc 483c
00000310: c9ef 2ebd 047a 103c 7db6 58bd 1ef5 2abd
00000320: a064 793c 7122 9cbd be22 d2bd 3a35 dabc
00000330: 20e5 093c f9a4 023d 08f4 a83d 8d99 babc
00000340: 6276 243c 373c 85bc e0d4 2d3d 6da7 1fbd
00000350: a80a 2abd 2e3d 79bd 466b 98bc 835f 983a
00000360: c673 623d 2464 77bd 5252 a1bc 4cc7 40bc
00000370: c08f 6e3d edf2 01bc 5759 acbc f317 0fbd
00000380: 54d3 1d3b c0e2 01be 6b3e a2bb 9a2e 92bc
00000390: 6692 3a3c c0cb b03d 5c31 0a3d 7370 053e
000003a0: f320 a33d 83e9 823b c7fa c8bb 82c3 00bd
000003b0: d800 f0bc fb65 40bc 2669 eabb f350 703d
000003c0: 337f e4bc e33c a13b f9a6 503c bd94 6dbc
000003d0: ed6e f7bb 00a4 8dbc 0e58 03bd 513d 2bbd
000003e0: 2ebb f53b 09a7 39bd 414a 203d c442 593d
000003f0: 16c2 68bd b8e5 aebc 689e 6938 cb2c 0b3e
-0.012008981 -0.008606993 0.028355932 0.053170532 -0.019515453 0.06430712 -0.026462322 -0.037050948
0.031716328 -0.0006465851 0.00017535311 0.02701258 0.08193619 -0.062332943 0.0475075 -0.02269427
0.029974129 0.06690851 0.016052056 -0.083951935 0.05511981 0.078154236 -0.046658896 0.013027168
-0.018603485 -0.012184587 0.017401993 0.006872847 0.013603831 0.013774803 -0.006702014 0.0044921413
0.02916709 0.03137312 0.0007008881 -0.020980045 -0.06275266 -0.09812149 -0.109952204 0.091581404
-0.01870988 0.049308065 -0.07925843 0.13883169 -0.052755628 -0.024284469 0.029795147 -0.029128015
0.041208655 -0.06980194 0.0084143095 -0.06281407 0.010714437 -0.0118347015 0.007852489 -0.050591666
-0.011200966 -0.029608367 0.013407101 -0.056328308 0.0155824 -0.012529626 -0.02175857 -0.028628163
-0.025860682 0.019887557 0.061011974 -0.005630718 -0.007919514 -0.016523717 0.10942169 -0.009239483
0.0027953081 -0.028639108 0.029601116 0.018748887 0.017407106 -0.013304783 -0.031643026 0.010944138
-0.0071454705 -0.02515855 0.07873425 0.0020514722 -0.011023543 -0.019507727 0.07722266 0.050073177
0.0156007325 -0.05047124 -0.00092649536 -0.024746154 0.059006564 0.036175832 -0.002664818 -0.03183996
0.09345061 -0.029197553 0.0055752196 0.061943285 -0.018607764 -0.033570744 0.015898397 -0.07211826
-0.040256206 -0.0014241764 0.017216595 0.03084698 -0.103061855 -0.0038194724 -0.014400038 -0.008356045
-0.029133027 0.031303722 -0.009837428 0.021942269 0.03746612 -0.10404633 -0.030032016 -0.055466626
-0.14053807 -0.15324743 0.030420864 0.095559016 -0.06853238 0.010921471 -0.024540974 -0.038846865
0.020120425 0.01323926 0.017960995 0.06463541 -0.016534358 -0.06514031 -0.007852371 0.02870323
-0.04752838 -0.01089344 0.01996659 0.008373311 0.017551279 -0.01847082 -0.04277934 -0.034587983
-0.06567578 0.017869541 -0.053188164 0.0044240565 -0.021259284 -0.02786906 -0.08311028 0.11370182
0.06312603 -0.01634352 -0.033903897 -0.017482895 -0.012628894 -0.030538395 -0.009013222 -0.029933607
0.023925435 -0.040653083 -0.006974354 0.055919062 -0.0040111016 -0.013655405 0.0279258 -0.062319398
-0.003925726 0.011405266 0.011404709 -0.038159102 0.093189456 -0.055237144 0.035926968 -0.14192984
-0.21375027 0.023395304 -0.34203088 -0.020076664 -0.0132524725 -0.005928961 0.01151932 0.010615796
-0.031327583 -0.046604127 -0.01587643 -0.10470756 0.05724787 -0.061294913 0.027917232 -0.014424736
0.059776083 0.0371927 0.0011001676 0.012259684 -0.042709146 0.008818153 -0.05290841 -0.04173767
0.015221745 -0.07623757 -0.10260533 -0.026636709 0.008416444 0.03189561 0.0824967 -0.022778297
0.01003799 -0.016264064 0.04243934 -0.03897803 -0.04151407 -0.06084936 -0.01860584 0.0011625144
0.05528619 -0.060398236 -0.019692574 -0.011766266 0.05824256 -0.007931453 -0.021038694 -0.03493495
0.002408226 -0.12684155 -0.0049512885 -0.017844487 0.011387443 0.08632612 0.03373848 0.13031177
0.07965269 0.003995122 -0.0061334106 -0.03143645 -0.029297277 -0.011743064 -0.007153648 0.05867095
-0.027892685 0.0049205883 0.012735122 -0.014500794 -0.007551065 -0.017290115 -0.032066397 -0.041806523
0.00749912 -0.045325313 0.039133314 0.05304219 -0.05682572 -0.021349773 5.5699056e-05 0.13591306

model1.0.bias f4 [16]
00000000: 3264 833e 1d6a 7b3e c539 9fbd cecc b53d
00000010: 81d9 723e f80a 293c b036 293e e5d0 b1bc
00000020: a244 b63d c52b a83d cf76 083e dd8f d13d
00000030: 85bf 2a3e 7a91 0e3e 22da 443e 8b24 3d3e
0.2566238 0.24552198 -0.077746905 0.08876954 0.23715784 0.010317557 0.16524768 -0.021706054
0.088998094 0.082114734 0.13326572 0.10232518 0.16674621 0.13922682 0.19223836 0.18470971

model1.2.conv.weight f4 [16, 16, 3, 3, 3]
00000000: 5511 ac3c 7b96 92bd a9d6 c03c 5583 23be
00000010: 31ab 053e 9bc0 243c 7be0 17bd 1a1c 4fbb
00000020: df9b 0b3c 183a 69ba b665 ef3d 590b e73d
00000030: 8050 fcbd fab8 103e 1f82 2abc 190d d33c
00000040: fe25 913d fd2b 03bd 6a60 40bd 0bed 05bd
00000050: 7229 ccbc 40a0 ad3b c392 3f3d 3637 0fbc
00000060: e91c 073a c277 2dbc 171e 4fbd d6af a3bc
00000070: 0756 b539 7256 a8bd 5ef2 a73d 0e72 153d
00000080: 1bde 813b c3fc 463d 4c67 6dbd 6f87 8fbd
00000090: 347c 373c e572 c63c 461a 8a3d 20ea 083e
000000a0: dd85 76bc 82be d83d 262c 77bd 5325 b53d
000000b0: afaf 2fbd aed4 a43a 77d6 7b3c 3e38 603c
000000c0: 8390 1abc b2c2 313d fc6b 0f3d b69a 333b
000000d0: 1b7b ccbd d08f d0bb 4491 9eb9 efe0 1e3c
000000e0: d5f8 8ebc af2e a8bd 9fc5 9abd 8329 c53d
000000f0: 2368 f23d 1665 98bd 8006 533d d9fc 05bb
00000100: 9bd1 e33d 8fec d4bd 0a70 ce3d 7a9e 52bd
00000110: d5a2 8cbd 0013 d63c ccde c13b 141c 10bc
00000120: 546c 2c3d 9f07 b13c cc3d b4bd de6f 1fbe
00000130: 83b0 99bd 0631 febc f06e 333c c089 dabd
00000140: 86c0 bc3d 38b5 763d 84a2 02be 56b0 cabd
00000150: 54d6 48bd 4b96 f53d f7f0 013e b370 56bd
00000160: 3b8c 6fbc fae3 2b3d afe1 19bd a460 cf3c
00000170: 8755 2a3d c326 c53d aaec c63c 38b2 543d
00000180: 73ab aabd 43d4 593d 822b 8b3c 3a6c b93b
00000190: 49e3 81bb 87b6 c7bc 9835 d1bd 8ae5 df3c
000001a0: 4b65 623d b4df 42bd 4615 903d fa09 513c
000001b0: 2ebb 10bd d764 a2bd ce63 99bd b23b fbbc
000001c0: 2ab5 e43d cc75 00be f3fd c73d 5bfb 333c
000001d0: b4ea 3cbd b0e6 01be ffcd 8bbd a398 803d
000001e0: 30fa 123c b8bf b5bd acf4 cabb dd31 d13b
000001f0: 261b 5c3d 1e85 04be 296c 06bd 0384 60bd
00000200: eddc a0bc 0d7d 06bd 2dc1 0fbc 1c89 21bd
00000210: 840b a03d 1fe1 d53c aed5 94bd 4af7 9ebd
00000220: 8edf 4f3c 74ef ebba 3996 103d d72a 7cbc
00000230: a2d7 2bbc 6788 763b fb71 8f3d 8dd7 743d
00000240: ffa8 4a3d c20b 62be cb0b f6bd 679e 6fbd
00000250: 1608 fe3d ebc4 9c3d c2ec f33d 28bd e4ba
00000260: 45c2 ce3d df54 9ebd 6c1c 3c3c 9708 34be
00000270: 7534 26bd db9f c13d e23c 1f3d d5aa f93c
00000280: 10e5 81bd 5909 8a3c 5b45 cdbc 0240 593d
00000290: e744 7ebd bcf4 823c 9768 c6bd 7c61 9a3b
000002a0: 16fb 44bd ba03 debc c358 c6bb 0af6 803c
000002b0: 5b3d 2dbc dbb5 a53a c0e2 16be 3ae1 903d
000002c0: 717d ae3d 3ad1 453c 5978 263e c4a6 073e
000002d0: a3d7 853c 46fd 91bd f1b0 603c b3ff 0e3d
000002e0: cb8c 663d 47f8 9dbd b2d7 babd 91d8 d63c
000002f0: a846 913d da44 853d 4c0d 21bd 284d 81bc
00000300: b66e 973d 7d5d a6bc dd53 9abd b4ba 2b3d
00000310: 1ccd d3bd 0788 c63d 3a30 76bd d2a8 bb3d
00000320: bee4 2abe 0253 2f3e 5979 b53c 6d7b 633d
00000330: f329 03bc 7fd6 883d 1215 d9bc 062c c4bc
00000340: 2677 98bd 7565 bbbd 978e 883d dcde 4b3d
00000350: 69ba 5d3d ef36 86bd 19aa 1a3d e743 8f3d
00000360: 952e d63c 07f3 0a3e 6158 093e 7ac7 573d
00000370: 3227 b3bd 8746 c6bc 3b82 16bd 62f0 f3bc
00000380: 5240 0a3d 5c12 81bd b1b9 093d c835 203d
00000390: 2f33 89bb 4930 2cbc e960 9ebd a043 8d3d
000003a0: e984 2bbc 7b64 27bd bc4e 49bd 24a4 5f3d
000003b0: 7c11 823d 4e12 f33c 10b6 03bd d21a bcbb
000003c0: 339c a4bb d149 f7bd 6c8f 7f3c baed e33b
000003d0: fbe7 cdbc 06ea 04bd 1a99 b7bb eca3 953d
000003e0: 4405 9a3c 0ec9 27bd 376c 68bc 83d7 d23d
000003f0: e5c2 55bd 4d5d 1ebe 412f 30bd a220 803c
0.021004358 -0.07157608 0.023539858 -0.15968068 0.13053586 0.010055686 -0.037079316 -0.0031602443
0.008521049 -0.0008896901 0.11689322 0.11281461 -0.12320042 0.14133063 -0.010407 0.025763081
0.070873246 -0.032024372 -0.046966948 -0.032696765 -0.024922106 0.0052986443 0.046770822 -0.008741191
0.0005154149 -0.0105876345 -0.050565805 -0.019981306 0.00034587106 -0.08219613 0.08200525 0.036485724
0.0039632446 0.048580896 -0.05795984 -0.07008254 0.011199046 0.024224708 0.067432925 0.13370562
-0.015046564 0.105832115 -0.060344838 0.0884501 -0.042892154 0.001257559 0.015370957 0.013685284
-0.009433868 0.043398567 0.03501509 0.0027405447 -0.09984418 -0.0063648 -0.0003024434 0.009697183
-0.017452637 -0.08212029 -0.075572245 0.09627058 0.11836269 -0.074411556 0.05151987 -0.0020444898
0.111239634 -0.103966825 0.100799635 -0.051420666 -0.06866995 0.026132107 0.005916452 -0.008795757
0.042095497 0.02161008 -0.08800849 -0.15570018 -0.0750437 -0.031029236 0.0109517425 -0.10670805
0.092164084 0.060231417 -0.12757307 -0.09896915 -0.049032524 0.11991557 0.12689577 -0.052353572
-0.014620836 0.041965462 -0.037568744 0.025314637 0.04158547 0.09626534 0.024282772 0.051927775
-0.083334826 0.053180944 0.01698852 0.0056586536 -0.003963862 -0.024379028 -0.102153 0.027331132
0.05527238 -0.04757662 0.070353076 0.012758726 -0.03533476 -0.0792939 -0.07489739 -0.030668113
0.11167367 -0.12544936 0.09765234 0.010985221 -0.046122268 -0.12685657 -0.068264 0.06279113
0.008970782 -0.08874458 -0.006193718 0.006384118 0.05373683 -0.12941405 -0.032817993 -0.054813396
-0.019636596 -0.0328341 -0.008774084 -0.0394374 0.078146964 0.026108323 -0.07267319 -0.077620104
0.012687577 -0.001800044 0.035299513 -0.015391073 -0.010488423 0.0037617923 0.07004162 0.059775878
0.049477573 -0.22074798 -0.12013968 -0.058500674 0.12403886 0.076547466 0.11910392 -0.0017451392
0.10095648 -0.077310316 0.011481386 -0.17581402 -0.04057737 0.09454318 0.03887642 0.030476967
-0.06342518 0.01685016 -0.025057485 0.05303956 -0.06207743 0.01598584 -0.09687918 0.004711328
-0.048091017 -0.027101386 -0.0060530617 0.01574232 -0.01057371 0.0012642698 -0.14734936 0.070742086
0.0852002 0.012073809 0.16256846 0.1324721 0.016338175 -0.07128386 0.013714061 0.034911823
0.056286614 -0.07713371 -0.09123172 0.026226314 0.07093555 0.06507273 -0.03931932 -0.015783861
0.07394163 -0.02030825 -0.07535527 0.0419261 -0.10341856 0.09693914 -0.060104586 0.09163059
-0.1668882 0.17121509 0.02215259 0.05553763 -0.008005607 0.06681537 -0.026499305 -0.023946773
-0.07444601 -0.09150211 0.06667822 0.049773082 0.054132853 -0.065534465 0.037759874 0.06995373
0.026145259 0.1356927 0.1341262 0.05268047 -0.0874771 -0.024203552 -0.03674529 -0.02977771
0.033752747 -0.0630233 0.033624355 0.03911379 -0.0041870098 -0.010509559 -0.07733328 0.06897664
-0.0104687 -0.04086731 -0.049147353 0.054599896 0.06350991 0.029671814 -0.03215605 -0.005740502
-0.005023503 -0.12074626 0.015598159 0.0069558294 -0.025135031 -0.032449745 -0.005602968 0.07306656
0.018801339 -0.040963225 -0.014185957 0.10295012 -0.05218782 -0.15465279 -0.043013815 0.01564056

model1.2.conv.bias f4 [16]
00000000: 6fea c53b a415 213c cfde 83bb 3099 64bc
00000010: 0028 bcbc 0ef4 85bc d0d5 f2bb 498b 36bd
00000020: 0f83 04bd ec2a cd3c be64 09ba 0b9c 9c3b
00000030: 7d9d 193d 21a2 023d f2c2 b93c fc00 37bd
0.0060399096 0.00983182 -0.0040243636 -0.013952538 -0.022968292 -0.016351726 -0.0074107423 -0.044566426
-0.03235155 0.02504488 -0.0005241147 0.004779344 0.03750371 0.0318929 0.022675965 -0.044678673

model1.2.batch_norm.weight f4 [16]
00000000: 8055 b33e eea7 e13e 2c9b e73e bfe4 cd3e
00000010: fff2 c83e bf5d ea3e 32ee e13e 9546 fc3e
00000020: eef9 023f cb06 e33e e518 ec3e c630 fe3e
00000030: a6ef 043f 1af8 f13e e09a e23e 8443 ea3e
0.3502617 0.44073433 0.45235574 0.40213582 0.3924789 0.45774648 0.4412704 0.492726
0.5116261 0.4434112 0.46112743 0.49646586 0.51928174 0.472596 0.44258785 0.45754635

model1.2.batch_norm.bias f4 [16]
00000000: dbfc 6cbd e004 04bd 972b 74bd 97b4 273b
00000010: 141c 7bbd 37a4 bdbc 2db0 ce3c 5f2d eebd
00000020: 67bf f5bd eaa2 823c 9b99 3a3c a440 57be
00000030: 61b6 fbbd 1fda 573a 4e35 0fbb 9ec0 183d
-0.05785833 -0.03223121 -0.059611883 0.0025589818 -0.061306074 -0.023149593 0.025230492 -0.116297476
-0.11999398 0.015946824 0.011389161 -0.21020752 -0.122906454 0.00082341017 -0.002185184 0.03729307

model1.2.batch_norm.running_mean f4 [16]
00000000: 5f01 b4be dbdd 3abe a140 273f 78b1 a6bf
00000010: c8e2 663e 5af6 cf3d aa42 e7be 5216 fb3e
00000020: 2c48 95bf 407c 92bf 7579 6ebf 618d 7ebf
00000030: a9f9 a0be dd37 63be 41e0 bfbf e888 9f3e
-0.35157296 -0.18248694 0.6533299 -1.3022909 0.22547448 0.1015441 -0.45168048 0.49040467
-1.166265 -1.1444168 -0.9315408 -0.9943448 -0.31440476 -0.22189279 -1.4990312 0.3115914

model1.2.batch_norm.running_var f4 [16]
00000000: a247 f93f 16ef f93f 2b1c d73f d30d c83f
00000010: 2e73 fa3f f034 1640 6e08 3340 be14 973f
00000020: 5c9c 2840 dee0 3b40 9456 0a40 4451 963f
00000030: 79ce ce3f 748c 5b40 9d0d 4d40 c9ca 0440
1.9474986 1.9526088 1.6805471 1.5629219 1.95664 2.346981 2.7973895 1.1803205
2.6345434 2.9355998 2.1615343 1.174355 1.615676 3.4304476 3.203956 2.074877

model1.3.conv.weight f4 [16, 16, 3, 3, 3]
00000000: 5511 ac3c 7b96 92bd a9d6 c03c 5583 23be
00000010: 31ab 053e 9bc0 243c 7be0 17bd 1a1c 4fbb
00000020: df9b 0b3c 183a 69ba b665 ef3d 590b e73d
00000030: 8050 fcbd fab8 103e 1f82 2abc 190d d33c
00000040: fe25 913d fd2b 03bd 6a60 40bd 0bed 05bd
00000050: 7229 ccbc 40a0 ad3b c392 3f3d 3637 0fbc
00000060: e91c 073a c277 2dbc 171e 4fbd d6af a3bc
00000070: 0756 b539 7256 a8bd 5ef2 a73d 0e72 153d
00000080: 1bde 813b c3fc 463d 4c67 6dbd 6f87 8fbd
00000090: 347c 373c e572 c63c 461a 8a3d 20ea 083e
000000a0: dd85 76bc 82be d83d 262c 77bd 5325 b53d
000000b0: afaf 2fbd aed4 a43a 77d6 7b3c 3e38 603c
000000c0: 8390 1abc b2c2 313d fc6b 0f3d b69a 333b
000000d0: 1b7b ccbd d08f d0bb 4491 9eb9 efe0 1e3c
000000e0: d5f8 8ebc af2e a8bd 9fc5 9abd 8329 c53d
000000f0: 2368 f23d 1665 98bd 8006 533d d9fc 05bb
00000100: 9bd1 e33d 8fec d4bd 0a70 ce3d 7a9e 52bd
00000110: d5a2 8cbd 0013 d63c ccde c13b 141c 10bc
00000120: 546c 2c3d 9f07 b13c cc3d b4bd de6f 1fbe
00000130: 83b0 99bd 0631 febc f06e 333c c089 dabd
00000140: 86c0 bc3d 38b5 763d 84a2 02be 56b0 cabd
00000150: 54d6 48bd 4b96 f53d f7f0 013e b370 56bd
00000160: 3b8c 6fbc fae3 2b3d afe1 19bd a460 cf3c
00000170: 8755 2a3d c326 c53d aaec c63c 38b2 543d
00000180: 73ab aabd 43d4 593d 822b 8b3c 3a6c b93b
00000190: 49e3 81bb 87b6 c7bc 9835 d1bd 8ae5 df3c
000001a0: 4b65 623d b4df 42bd 4615 903d fa09 513c
000001b0: 2ebb 10bd d764 a2bd ce63 99bd b23b fbbc
000001c0: 2ab5 e43d cc75 00be f3fd c73d 5bfb 333c
000001d0: b4ea 3cbd b0e6 01be ffcd 8bbd a398 803d
000001e0: 30fa 123c b8bf b5bd acf4 cabb dd31 d13b
000001f0: 261b 5c3d 1e85 04be 296c 06bd 0384 60bd
00000200: eddc a0bc 0d7d 06bd 2dc1 0fbc 1c89 21bd
00000210: 840b a03d 1fe1 d53c aed5 94bd 4af7 9ebd
00000220: 8edf 4f3c 74ef ebba 3996 103d d72a 7cbc
00000230: a2d7 2bbc 6788 763b fb71 8f3d 8dd7 743d
00000240: ffa8 4a3d c20b 62be cb0b f6bd 679e 6fbd
00000250: 1608 fe3d ebc4 9c3d c2ec f33d 28bd e4ba
00000260: 45c2 ce3d df54 9ebd 6c1c 3c3c 9708 34be
00000270: 7534 26bd db9f c13d e23c 1f3d d5aa f93c
00000280: 10e5 81bd 5909 8a3c 5b45 cdbc 0240 593d
00000290: e744 7ebd bcf4 823c 9768 c6bd 7c61 9a3b
000002a0: 16fb 44bd ba03 debc c358 c6bb 0af6 803c
000002b0: 5b3d 2dbc dbb5 a53a c0e2 16be 3ae1 903d
000002c0: 717d ae3d 3ad1 453c 5978 263e c4a6 073e
000002d0: a3d7 853c 46fd 91bd f1b0 603c b3ff 0e3d
000002e0: cb8c 663d 47f8 9dbd b2d7 babd 91d8 d63c
000002f0: a846 913d da44 853d 4c0d 21bd 284d 81bc
00000300: b66e 973d 7d5d a6bc dd53 9abd b4ba 2b3d
00000310: 1ccd d3bd 0788 c63d 3a30 76bd d2a8 bb3d
00000320: bee4 2abe 0253 2f3e 5979 b53c 6d7b 633d
00000330: f329 03bc 7fd6 883d 1215 d9bc 062c c4bc
00000340: 2677 98bd 7565 bbbd 978e 883d dcde 4b3d
00000350: 69ba 5d3d ef36 86bd 19aa 1a3d e743 8f3d
00000360: 952e d63c 07f3 0a3e 6158 093e 7ac7 573d
00000370: 3227 b3bd 8746 c6bc 3b82 16bd 62f0 f3bc
00000380: 5240 0a3d 5c12 81bd b1b9 093d c835 203d
00000390: 2f33 89bb 4930 2cbc e960 9ebd a043 8d3d
000003a0: e984 2bbc 7b64 27bd bc4e 49bd 24a4 5f3d
000003b0: 7c11 823d 4e12 f33c 10b6 03bd d21a bcbb
000003c0: 339c a4bb d149 f7bd 6c8f 7f3c baed e33b
000003d0: fbe7 cdbc 06ea 04bd 1a99 b7bb eca3 953d
000003e0: 4405 9a3c 0ec9 27bd 376c 68bc 83d7 d23d
000003f0: e5c2 55bd 4d5d 1ebe 412f 30bd a220 803c
0.021004358 -0.07157608 0.023539858 -0.15968068 0.13053586 0.010055686 -0.037079316 -0.0031602443
0.008521049 -0.0008896901 0.11689322 0.11281461 -0.12320042 0.14133063 -0.010407 0.025763081
0.070873246 -0.032024372 -0.046966948 -0.032696765 -0.024922106 0.0052986443 0.046770822 -0.008741191
0.0005154149 -0.0105876345 -0.050565805 -0.019981306 0.00034587106 -0.08219613 0.08200525 0.036485724
0.0039632446 0.048580896 -0.05795984 -0.07008254 0.011199046 0.024224708 0.067432925 0.13370562
-0.015046564 0.105832115 -0.060344838 0.0884501 -0.042892154 0.001257559 0.015370957 0.013685284
-0.009433868 0.043398567 0.03501509 0.0027405447 -0.09984418 -0.0063648 -0.0003024434 0.009697183
-0.017452637 -0.08212029 -0.075572245 0.09627058 0.11836269 -0.074411556 0.05151987 -0.0020444898
0.111239634 -0.103966825 0.100799635 -0.051420666 -0.06866995 0.026132107 0.005916452 -0.008795757
0.042095497 0.02161008 -0.08800849 -0.15570018 -0.0750437 -0.031029236 0.0109517425 -0.10670805
0.092164084 0.060231417 -0.12757307 -0.09896915 -0.049032524 0.11991557 0.12689577 -0.052353572
-0.014620836 0.041965462 -0.037568744 0.025314637 0.04158547 0.09626534 0.024282772 0.051927775
-0.083334826 0.053180944 0.01698852 0.0056586536 -0.003963862 -0.024379028 -0.102153 0.027331132
0.05527238 -0.04757662 0.070353076 0.012758726 -0.03533476 -0.0792939 -0.07489739 -0.030668113
0.11167367 -0.12544936 0.09765234 0.010985221 -0.046122268 -0.12685657 -0.068264 0.06279113
0.008970782 -0.08874458 -0.006193718 0.006384118 0.05373683 -0.12941405 -0.032817993 -0.054813396
-0.019636596 -0.0328341 -0.008774084 -0.0394374 0.078146964 0.026108323 -0.07267319 -0.077620104
0.012687577 -0.001800044 0.035299513 -0.015391073 -0.010488423 0.0037617923 0.07004162 0.059775878
0.049477573 -0.22074798 -0.12013968 -0.058500674 0.12403886 0.076547466 0.11910392 -0.0017451392
0.10095648 -0.077310316 0.011481386 -0.17581402 -0.04057737 0.09454318 0.03887642 0.030476967
-0.06342518 0.01685016 -0.025057485 0.05303956 -0.06207743 0.01598584 -0.09687918 0.004711328
-0.048091017 -0.027101386 -0.0060530617 0.01574232 -0.01057371 0.0012642698 -0.14734936 0.070742086
0.0852002 0.012073809 0.16256846 0.1324721 0.016338175 -0.07128386 0.013714061 0.034911823
0.056286614 -0.07713371 -0.09123172 0.026226314 0.07093555 0.06507273 -0.03931932 -0.015783861
0.07394163 -0.02030825 -0.07535527 0.0419261 -0.10341856 0.09693914 -0.060104586 0.09163059
-0.1668882 0.17121509 0.02215259 0.05553763 -0.008005607 0.06681537 -0.026499305 -0.023946773
-0.07444601 -0.09150211 0.06667822 0.049773082 0.054132853 -0.065534465 0.037759874 0.06995373
0.026145259 0.1356927 0.1341262 0.05268047 -0.0874771 -0.024203552 -0.03674529 -0.02977771
0.033752747 -0.0630233 0.033624355 0.03911379 -0.0041870098 -0.010509559 -0.07733328 0.06897664
-0.0104687 -0.04086731 -0.049147353 0.054599896 0.06350991 0.029671814 -0.03215605 -0.005740502
-0.005023503 -0.12074626 0.015598159 0.0069558294 -0.025135031 -0.032449745 -0.005602968 0.07306656
0.018801339 -0.040963225 -0.014185957 0.10295012 -0.05218782 -0.15465279 -0.043013815 0.01564056

model1.3.conv.bias f4 [16]
00000000: 6fea c53b a415 213c cfde 83bb 3099 64bc
00000010: 0028 bcbc 0ef4 85bc d0d5 f2bb 498b 36bd
00000020: 0f83 04bd ec2a cd3c be64 09ba 0b9c 9c3b
00000030: 7d9d 193d 21a2 023d f2c2 b93c fc00 37bd
0.0060399096 0.00983182 -0.0040243636 -0.013952538 -0.022968292 -0.016351726 -0.0074107423 -0.044566426
-0.03235155 0.02504488 -0.0005241147 0.004779344 0.03750371 0.0318929 0.022675965 -0.044678673

model1.3.batch_norm.weight f4 [16]
00000000: 8055 b33e eea7 e13e 2c9b e73e bfe4 cd3e
00000010: fff2 c83e bf5d ea3e 32ee e13e 9546 fc3e
00000020: eef9 023f cb06 e33e e518 ec3e c630 fe3e
00000030: a6ef 043f 1af8 f13e e09a e23e 8443 ea3e
0.3502617 0.44073433 0.45235574 0.40213582 0.3924789 0.45774648 0.4412704 0.492726
0.5116261 0.4434112 0.46112743 0.49646586 0.51928174 0.472596 0.44258785 0.45754635

model1.3.batch_norm.bias f4 [16]
00000000: dbfc 6cbd e004 04bd 972b 74bd 97b4 273b
00000010: 141c 7bbd 37a4 bdbc 2db0 ce3c 5f2d eebd
00000020: 67bf f5bd eaa2 823c 9b99 3a3c a440 57be
00000030: 61b6 fbbd 1fda 573a 4e35 0fbb 9ec0 183d
-0.05785833 -0.03223121 -0.059611883 0.0025589818 -0.061306074 -0.023149593 0.025230492 -0.116297476
-0.11999398 0.015946824 0.011389161 -0.21020752 -0.122906454 0.00082341017 -0.002185184 0.03729307

model1.3.batch_norm.running_mean f4 [16]
00000000: 5f01 b4be dbdd 3abe a140 273f 78b1 a6bf
00000010: c8e2 663e 5af6 cf3d aa42 e7be 5216 fb3e
00000020: 2c48 95bf 407c 92bf 7579 6ebf 618d 7ebf
00000030: a9f9 a0be dd37 63be 41e0 bfbf e888 9f3e
-0.35157296 -0.18248694 0.6533299 -1.3022909 0.22547448 0.1015441 -0.45168048 0.49040467
-1.166265 -1.1444168 -0.9315408 -0.9943448 -0.31440476 -0.22189279 -1.4990312 0.3115914

model1.3.batch_norm.running_var f4 [16]
00000000: a247 f93f 16ef f93f 2b1c d73f d30d c83f
00000010: 2e73 fa3f f034 1640 6e08 3340 be14 973f
00000020: 5c9c 2840 dee0 3b40 9456 0a40 4451 963f
00000030: 79ce ce3f 748c 5b40 9d0d 4d40 c9ca 0440
1.9474986 1.9526088 1.6805471 1.5629219 1.95664 2.346981 2.7973895 1.1803205
2.6345434 2.9355998 2.1615343 1.174355 1.615676 3.4304476 3.203956 2.074877

model1.4.conv.weight f4 [16, 16, 3, 3, 3]
00000000: 5511 ac3c 7b96 92bd a9d6 c03c 5583 23be
00000010: 31ab 053e 9bc0 243c 7be0 17bd 1a1c 4fbb
00000020: df9b 0b3c 183a 69ba b665 ef3d 590b e73d
00000030: 8050 fcbd fab8 103e 1f82 2abc 190d d33c
00000040: fe25 913d fd2b 03bd 6a60 40bd 0bed 05bd
00000050: 7229 ccbc 40a0 ad3b c392 3f3d 3637 0fbc
00000060: e91c 073a c277 2dbc 171e 4fbd d6af a3bc
00000070: 0756 b539 7256 a8bd 5ef2 a73d 0e72 153d
00000080: 1bde 813b c3fc 463d 4c67 6dbd 6f87 8fbd
00000090: 347c 373c e572 c63c 461a 8a3d 20ea 083e
000000a0: dd85 76bc 82be d83d 262c 77bd 5325 b53d
000000b0: afaf 2fbd aed4 a43a 77d6 7b3c 3e38 603c
000000c0: 8390 1abc b2c2 313d fc6b 0f3d b69a 333b
000000d0: 1b7b ccbd d08f d0bb 4491 9eb9 efe0 1e3c
000000e0: d5f8 8ebc af2e a8bd 9fc5 9abd 8329 c53d
000000f0: 2368 f23d 1665 98bd 8006 533d d9fc 05bb
00000100: 9bd1 e33d 8fec d4bd 0a70 ce3d 7a9e 52bd
00000110: d5a2 8cbd 0013 d63c ccde c13b 141c 10bc
00000120: 546c 2c3d 9f07 b13c cc3d b4bd de6f 1fbe
00000130: 83b0 99bd 0631 febc f06e 333c c089 dabd
00000140: 86c0 bc3d 38b5 763d 84a2 02be 56b0 cabd
00000150: 54d6 48bd 4b96 f53d f7f0 013e b370 56bd
00000160: 3b8c 6fbc fae3 2b3d afe1 19bd a460 cf3c
00000170: 8755 2a3d c326 c53d aaec c63c 38b2 543d
00000180: 73ab aabd 43d4 593d 822b 8b3c 3a6c b93b
00000190: 49e3 81bb 87b6 c7bc 9835 d1bd 8ae5 df3c
000001a0: 4b65 623d b4df 42bd 4615 903d fa09 513c
000001b0: 2ebb 10bd d764 a2bd ce63 99bd b23b fbbc
000001c0: 2ab5 e43d cc75 00be f3fd c73d 5bfb 333c
000001d0: b4ea 3cbd b0e6 01be ffcd 8bbd a398 803d
000001e0: 30fa 123c b8bf b5bd acf4 cabb dd31 d13b
000001f0: 261b 5c3d 1e85 04be 296c 06bd 0384 60bd
00000200: eddc a0bc 0d7d 06bd 2dc1 0fbc 1c89 21bd
00000210: 840b a03d 1fe1 d53c aed5 94bd 4af7 9ebd
00000220: 8edf 4f3c 74ef ebba 3996 103d d72a 7cbc
00000230: a2d7 2bbc 6788 763b fb71 8f3d 8dd7 743d
00000240: ffa8 4a3d c20b 62be cb0b f6bd 679e 6fbd
00000250: 1608 fe3d ebc4 9c3d c2ec f33d 28bd e4ba
00000260: 45c2 ce3d df54 9ebd 6c1c 3c3c 9708 34be
00000270: 7534 26bd db9f c13d e23c 1f3d d5aa f93c
00000280: 10e5 81bd 5909 8a3c 5b45 cdbc 0240 593d
00000290: e744 7ebd bcf4 823c 9768 c6bd 7c61 9a3b
000002a0: 16fb 44bd ba03 debc c358 c6bb 0af6 803c
000002b0: 5b3d 2dbc dbb5 a53a c0e2 16be 3ae1 903d
000002c0: 717d ae3d 3ad1 453c 5978 263e c4a6 073e
000002d0: a3d7 853c 46fd 91bd f1b0 603c b3ff 0e3d
000002e0: cb8c 663d 47f8 9dbd b2d7 babd 91d8 d63c
000002f0: a846 913d da44 853d 4c0d 21bd 284d 81bc
00000300: b66e 973d 7d5d a6bc dd53 9abd b4ba 2b3d
00000310: 1ccd d3bd 0788 c63d 3a30 76bd d2a8 bb3d
00000320: bee4 2abe 0253 2f3e 5979 b53c 6d7b 633d
00000330: f329 03bc 7fd6 883d 1215 d9bc 062c c4bc
00000340: 2677 98bd 7565 bbbd 978e 883d dcde 4b3d
00000350: 69ba 5d3d ef36 86bd 19aa 1a3d e743 8f3d
00000360: 952e d63c 07f3 0a3e 6158 093e 7ac7 573d
00000370: 3227 b3bd 8746 c6bc 3b82 16bd 62f0 f3bc
00000380: 5240 0a3d 5c12 81bd b1b9 093d c835 203d
00000390: 2f33 89bb 4930 2cbc e960 9ebd a043 8d3d
000003a0: e984 2bbc 7b64 27bd bc4e 49bd 24a4 5f3d
000003b0: 7c11 823d 4e12 f33c 10b6 03bd d21a bcbb
000003c0: 339c a4bb d149 f7bd 6c8f 7f3c baed e33b
000003d0: fbe7 cdbc 06ea 04bd 1a99 b7bb eca3 953d
000003e0: 4405 9a3c 0ec9 27bd 376c 68bc 83d7 d23d
000003f0: e5c2 55bd 4d5d 1ebe 412f 30bd a220 803c
0.021004358 -0.07157608 0.023539858 -0.15968068 0.13053586 0.010055686 -0.037079316 -0.0031602443
0.008521049 -0.0008896901 0.11689322 0.11281461 -0.12320042 0.14133063 -0.010407 0.025763081
0.070873246 -0.032024372 -0.046966948 -0.032696765 -0.024922106 0.0052986443 0.046770822 -0.008741191
0.0005154149 -0.0105876345 -0.050565805 -0.019981306 0.00034587106 -0.08219613 0.08200525 0.036485724
0.0039632446 0.048580896 -0.05795984 -0.07008254 0.011199046 0.024224708 0.067432925 0.13370562
-0.015046564 0.105832115 -0.060344838 0.0884501 -0.042892154 0.001257559 0.015370957 0.013685284
-0.009433868 0.043398567 0.03501509 0.0027405447 -0.09984418 -0.0063648 -0.0003024434 0.009697183
-0.017452637 -0.08212029 -0.075572245 0.09627058 0.11836269 -0.074411556 0.05151987 -0.0020444898
0.111239634 -0.103966825 0.100799635 -0.051420666 -0.06866995 0.026132107 0.005916452 -0.008795757
0.042095497 0.02161008 -0.08800849 -0.15570018 -0.0750437 -0.031029236 0.0109517425 -0.10670805
0.092164084 0.060231417 -0.12757307 -0.09896915 -0.049032524 0.11991557 0.12689577 -0.052353572
-0.014620836 0.041965462 -0.037568744 0.025314637 0.04158547 0.09626534 0.024282772 0.051927775
-0.083334826 0.053180944 0.01698852 0.0056586536 -0.003963862 -0.024379028 -0.102153 0.027331132
0.05527238 -0.04757662 0.070353076 0.012758726 -0.03533476 -0.0792939 -0.07489739 -0.030668113
0.11167367 -0.12544936 0.09765234 0.010985221 -0.046122268 -0.12685657 -0.068264 0.06279113
0.008970782 -0.08874458 -0.006193718 0.006384118 0.05373683 -0.12941405 -0.032817993 -0.054813396
-0.019636596 -0.0328341 -0.008774084 -0.0394374 0.078146964 0.026108323 -0.07267319 -0.077620104
0.012687577 -0.001800044 0.035299513 -0.015391073 -0.010488423 0.0037617923 0.07004162 0.059775878
0.049477573 -0.22074798 -0.12013968 -0.058500674 0.12403886 0.076547466 0.11910392 -0.0017451392
0.10095648 -0.077310316 0.011481386 -0.17581402 -0.04057737 0.09454318 0.03887642 0.030476967
-0.06342518 0.01685016 -0.025057485 0.05303956 -0.06207743 0.01598584 -0.09687918 0.004711328
-0.048091017 -0.027101386 -0.0060530617 0.01574232 -0.01057371 0.0012642698 -0.14734936 0.070742086
0.0852002 0.012073809 0.16256846 0.1324721 0.016338175 -0.07128386 0.013714061 0.034911823
0.056286614 -0.07713371 -0.09123172 0.026226314 0.07093555 0.06507273 -0.03931932 -0.015783861
0.07394163 -0.02030825 -0.07535527 0.0419261 -0.10341856 0.09693914 -0.060104586 0.09163059
-0.1668882 0.17121509 0.02215259 0.05553763 -0.008005607 0.06681537 -0.026499305 -0.023946773
-0.07444601 -0.09150211 0.06667822 0.049773082 0.054132853 -0.065534465 0.037759874 0.06995373
0.026145259 0.1356927 0.1341262 0.05268047 -0.0874771 -0.024203552 -0.03674529 -0.02977771
0.033752747 -0.0630233 0.033624355 0.03911379 -0.0041870098 -0.010509559 -0.07733328 0.06897664
-0.0104687 -0.04086731 -0.049147353 0.054599896 0.06350991 0.029671814 -0.03215605 -0.005740502
-0.005023503 -0.12074626 0.015598159 0.0069558294 -0.025135031 -0.032449745 -0.005602968 0.07306656
0.018801339 -0.040963225 -0.014185957 0.10295012 -0.05218782 -0.15465279 -0.043013815 0.01564056

model1.4.conv.bias f4 [16]
00000000: 6fea c53b a415 213c cfde 83bb 3099 64bc
00000010: 0028 bcbc 0ef4 85bc d0d5 f2bb 498b 36bd
00000020: 0f83 04bd ec2a cd3c be64 09ba 0b9c 9c3b
00000030: 7d9d 193d 21a2 023d f2c2 b93c fc00 37bd
0.0060399096 0.00983182 -0.0040243636 -0.013952538 -0.022968292 -0.016351726 -0.0074107423 -0.044566426
-0.03235155 0.02504488 -0.0005241147 0.004779344 0.03750371 0.0318929 0.022675965 -0.044678673

model1.4.batch_norm.weight f4 [16]
00000000: 8055 b33e eea7 e13e 2c9b e73e bfe4 cd3e
00000010: fff2 c83e bf5d ea3e 32ee e13e 9546 fc3e
00000020: eef9 023f cb06 e33e e518 ec3e c630 fe3e
00000030: a6ef 043f 1af8 f13e e09a e23e 8443 ea3e
0.3502617 0.44073433 0.45235574 0.40213582 0.3924789 0.45774648 0.4412704 0.492726
0.5116261 0.4434112 0.46112743 0.49646586 0.51928174 0.472596 0.44258785 0.45754635

model1.4.batch_norm.bias f4 [16]
00000000: dbfc 6cbd e004 04bd 972b 74bd 97b4 273b
00000010: 141c 7bbd 37a4 bdbc 2db0 ce3c 5f2d eebd
00000020: 67bf f5bd eaa2 823c 9b99 3a3c a440 57be
00000030: 61b6 fbbd 1fda 573a 4e35 0fbb 9ec0 183d
-0.05785833 -0.03223121 -0.059611883 0.0025589818 -0.061306074 -0.023149593 0.025230492 -0.116297476
-0.11999398 0.015946824 0.011389161 -0.21020752 -0.122906454 0.00082341017 -0.002185184 0.03729307

model1.4.batch_norm.running_mean f4 [16]
00000000: 5f01 b4be dbdd 3abe a140 273f 78b1 a6bf
00000010: c8e2 663e 5af6 cf3d aa42 e7be 5216 fb3e
00000020: 2c48 95bf 407c 92bf 7579 6ebf 618d 7ebf
00000030: a9f9 a0be dd37 63be 41e0 bfbf e888 9f3e
-0.35157296 -0.18248694 0.6533299 -1.3022909 0.22547448 0.1015441 -0.45168048 0.49040467
-1.166265 -1.1444168 -0.9315408 -0.9943448 -0.31440476 -0.22189279 -1.4990312 0.3115914

model1.4.batch_norm.running_var f4 [16]
00000000: a247 f93f 16ef f93f 2b1c d73f d30d c83f
00000010: 2e73 fa3f f034 1640 6e08 3340 be14 973f
00000020: 5c9c 2840 dee0 3b40 9456 0a40 4451 963f
00000030: 79ce ce3f 748c 5b40 9d0d 4d40 c9ca 0440
1.9474986 1.9526088 1.6805471 1.5629219 1.95664 2.346981 2.7973895 1.1803205
2.6345434 2.9355998 2.1615343 1.174355 1.615676 3.4304476 3.203956 2.074877

model1.5.conv.weight f4 [16, 16, 3, 3, 3]
00000000: 5511 ac3c 7b96 92bd a9d6 c03c 5583 23be
00000010: 31ab 053e 9bc0 243c 7be0 17bd 1a1c 4fbb
00000020: df9b 0b3c 183a 69ba b665 ef3d 590b e73d
00000030: 8050 fcbd fab8 103e 1f82 2abc 190d d33c
00000040: fe25 913d fd2b 03bd 6a60 40bd 0bed 05bd
00000050: 7229 ccbc 40a0 ad3b c392 3f3d 3637 0fbc
00000060: e91c 073a c277 2dbc 171e 4fbd d6af a3bc
00000070: 0756 b539 7256 a8bd 5ef2 a73d 0e72 153d
00000080: 1bde 813b c3fc 463d 4c67 6dbd 6f87 8fbd
00000090: 347c 373c e572 c63c 461a 8a3d 20ea 083e
000000a0: dd85 76bc 82be d83d 262c 77bd 5325 b53d
000000b0: afaf 2fbd aed4 a43a 77d6 7b3c 3e38 603c
000000c0: 8390 1abc b2c2 313d fc6b 0f3d b69a 333b
000000d0: 1b7b ccbd d08f d0bb 4491 9eb9 efe0 1e3c
000000e0: d5f8 8ebc af2e a8bd 9fc5 9abd 8329 c53d
000000f0: 2368 f23d 1665 98bd 8006 533d d9fc 05bb
00000100: 9bd1 e33d 8fec d4bd 0a70 ce3d 7a9e 52bd
00000110: d5a2 8cbd 0013 d63c ccde c13b 141c 10bc
00000120: 546c 2c3d 9f07 b13c cc3d b4bd de6f 1fbe
00000130: 83b0 99bd 0631 febc f06e 333c c089 dabd
00000140: 86c0 bc3d 38b5 763d 84a2 02be 56b0 cabd
00000150: 54d6 48bd 4b96 f53d f7f0 013e b370 56bd
00000160: 3b8c 6fbc fae3 2b3d afe1 19bd a460 cf3c
00000170: 8755 2a3d c326 c53d aaec c63c 38b2 543d
00000180: 73ab aabd 43d4 593d 822b 8b3c 3a6c b93b
00000190: 49e3 81bb 87b6 c7bc 9835 d1bd 8ae5 df3c
000001a0: 4b65 623d b4df 42bd 4615 903d fa09 513c
000001b0: 2ebb 10bd d764 a2bd ce63 99bd b23b fbbc
000001c0: 2ab5 e43d cc75 00be f3fd c73d 5bfb 333c
000001d0: b4ea 3cbd b0e6 01be ffcd 8bbd a398 803d
000001e0: 30fa 123c b8bf b5bd acf4 cabb dd31 d13b
000001f0: 261b 5c3d 1e85 04be 296c 06bd 0384 60bd
00000200: eddc a0bc 0d7d 06bd 2dc1 0fbc 1c89 21bd
00000210: 840b a03d 1fe1 d53c aed5 94bd 4af7 9ebd
00000220: 8edf 4f3c 74ef ebba 3996 103d d72a 7cbc
00000230: a2d7 2bbc 6788 763b fb71 8f3d 8dd7 743d
00000240: ffa8 4a3d c20b 62be cb0b f6bd 679e 6fbd
00000250: 1608 fe3d ebc4 9c3d c2ec f33d 28bd e4ba
00000260: 45c2 ce3d df54 9ebd 6c1c 3c3c 9708 34be
00000270: 7534 26bd db9f c13d e23c 1f3d d5aa f93c
00000280: 10e5 81bd 5909 8a3c 5b45 cdbc 0240 593d
00000290: e744 7ebd bcf4 823c 9768 c6bd 7c61 9a3b
000002a0: 16fb 44bd ba03 debc c358 c6bb 0af6 803c
000002b0: 5b3d 2dbc dbb5 a53a c0e2 16be 3ae1 903d
000002c0: 717d ae3d 3ad1 453c 5978 263e c4a6 073e
000002d0: a3d7 853c 46fd 91bd f1b0 603c b3ff 0e3d
000002e0: cb8c 663d 47f8 9dbd b2d7 babd 91d8 d63c
000002f0: a846 913d da44 853d 4c0d 21bd 284d 81bc
00000300: b66e 973d 7d5d a6bc dd53 9abd b4ba 2b3d
00000310: 1ccd d3bd 0788 c63d 3a30 76bd d2a8 bb3d
00000320: bee4 2abe 0253 2f3e 5979 b53c 6d7b 633d
00000330: f329 03bc 7fd6 883d 1215 d9bc 062c c4bc
00000340: 2677 98bd 7565 bbbd 978e 883d dcde 4b3d
00000350: 69ba 5d3d ef36 86bd 19aa 1a3d e743 8f3d
00000360: 952e d63c 07f3 0a3e 6158 093e 7ac7 573d
00000370: 3227 b3bd 8746 c6bc 3b82 16bd 62f0 f3bc
00000380: 5240 0a3d 5c12 81bd b1b9 093d c835 203d
00000390: 2f33 89bb 4930 2cbc e960 9ebd a043 8d3d
000003a0: e984 2bbc 7b64 27bd bc4e 49bd 24a4 5f3d
000003b0: 7c11 823d 4e12 f33c 10b6 03bd d21a bcbb
000003c0: 339c a4bb d149 f7bd 6c8f 7f3c baed e33b
000003d0: fbe7 cdbc 06ea 04bd 1a99 b7bb eca3 953d
000003e0: 4405 9a3c 0ec9 27bd 376c 68bc 83d7 d23d
000003f0: e5c2 55bd 4d5d 1ebe 412f 30bd a220 803c
0.021004358 -0.07157608 0.023539858 -0.15968068 0.13053586 0.010055686 -0.037079316 -0.0031602443
0.008521049 -0.0008896901 0.11689322 0.11281461 -0.12320042 0.14133063 -0.010407 0.025763081
0.070873246 -0.032024372 -0.046966948 -0.032696765 -0.024922106 0.0052986443 0.046770822 -0.008741191
0.0005154149 -0.0105876345 -0.050565805 -0.019981306 0.00034587106 -0.08219613 0.08200525 0.036485724
0.0039632446 0.048580896 -0.05795984 -0.07008254 0.011199046 0.024224708 0.067432925 0.13370562
-0.015046564 0.105832115 -0.060344838 0.0884501 -0.042892154 0.001257559 0.015370957 0.013685284
-0.009433868 0.043398567 0.03501509 0.0027405447 -0.09984418 -0.0063648 -0.0003024434 0.009697183
-0.017452637 -0.08212029 -0.075572245 0.09627058 0.11836269 -0.074411556 0.05151987 -0.0020444898
0.111239634 -0.103966825 0.100799635 -0.051420666 -0.06866995 0.026132107 0.005916452 -0.008795757
0.042095497 0.02161008 -0.08800849 -0.15570018 -0.0750437 -0.031029236 0.0109517425 -0.10670805
0.092164084 0.060231417 -0.12757307 -0.09896915 -0.049032524 0.11991557 0.12689577 -0.052353572
-0.014620836 0.041965462 -0.037568744 0.025314637 0.04158547 0.09626534 0.024282772 0.051927775
-0.083334826 0.053180944 0.01698852 0.0056586536 -0.003963862 -0.024379028 -0.102153 0.027331132
0.05527238 -0.04757662 0.070353076 0.012758726 -0.03533476 -0.0792939 -0.07489739 -0.030668113
0.11167367 -0.12544936 0.09765234 0.010985221 -0.046122268 -0.12685657 -0.068264 0.06279113
0.008970782 -0.08874458 -0.006193718 0.006384118 0.05373683 -0.12941405 -0.032817993 -0.054813396
-0.019636596 -0.0328341 -0.008774084 -0.0394374 0.078146964 0.026108323 -0.07267319 -0.077620104
0.012687577 -0.001800044 0.035299513 -0.015391073 -0.010488423 0.0037617923 0.07004162 0.059775878
0.049477573 -0.22074798 -0.12013968 -0.058500674 0.12403886 0.076547466 0.11910392 -0.0017451392
0.10095648 -0.077310316 0.011481386 -0.17581402 -0.04057737 0.09454318 0.03887642 0.030476967
-0.06342518 0.01685016 -0.025057485 0.05303956 -0.06207743 0.01598584 -0.09687918 0.004711328
-0.048091017 -0.027101386 -0.0060530617 0.01574232 -0.01057371 0.0012642698 -0.14734936 0.070742086
0.0852002 0.012073809 0.16256846 0.1324721 0.016338175 -0.07128386 0.013714061 0.034911823
0.056286614 -0.07713371 -0.09123172 0.026226314 0.07093555 0.06507273 -0.03931932 -0.015783861
0.07394163 -0.02030825 -0.07535527 0.0419261 -0.10341856 0.09693914 -0.060104586 0.09163059
-0.1668882 0.17121509 0.02215259 0.05553763 -0.008005607 0.06681537 -0.026499305 -0.023946773
-0.07444601 -0.09150211 0.06667822 0.049773082 0.054132853 -0.065534465 0.037759874 0.06995373
0.026145259 0.1356927 0.1341262 0.05268047 -0.0874771 -0.024203552 -0.03674529 -0.02977771
0.033752747 -0.0630233 0.033624355 0.03911379 -0.0041870098 -0.010509559 -0.07733328 0.06897664
-0.0104687 -0.04086731 -0.049147353 0.054599896 0.06350991 0.029671814 -0.03215605 -0.005740502
-0.005023503 -0.12074626 0.015598159 0.0069558294 -0.025135031 -0.032449745 -0.005602968 0.07306656
0.018801339 -0.040963225 -0.014185957 0.10295012 -0.05218782 -0.15465279 -0.043013815 0.01564056

model1.5.conv.bias f4 [16]
00000000: 6fea c53b a415 213c cfde 83bb 3099 64bc
00000010: 0028 bcbc 0ef4 85bc d0d5 f2bb 498b 36bd
00000020: 0f83 04bd ec2a cd3c be64 09ba 0b9c 9c3b
00000030: 7d9d 193d 21a2 023d f2c2 b93c fc00 37bd
0.0060399096 0.00983182 -0.0040243636 -0.013952538 -0.022968292 -0.016351726 -0.0074107423 -0.044566426
-0.03235155 0.02504488 -0.0005241147 0.004779344 0.03750371 0.0318929 0.022675965 -0.044678673

model1.5.batch_norm.weight f4 [16]
00000000: 8055 b33e eea7 e13e 2c9b e73e bfe4 cd3e
00000010: fff2 c83e bf5d ea3e 32ee e13e 9546 fc3e
00000020: eef9 023f cb06 e33e e518 ec3e c630 fe3e
00000030: a6ef 043f 1af8 f13e e09a e23e 8443 ea3e
0.3502617 0.44073433 0.45235574 0.40213582 0.3924789 0.45774648 0.4412704 0.492726
0.5116261 0.4434112 0.46112743 0.49646586 0.51928174 0.472596 0.44258785 0.45754635

model1.5.batch_norm.bias f4 [16]
00000000: dbfc 6cbd e004 04bd 972b 74bd 97b4 273b
00000010: 141c 7bbd 37a4 bdbc 2db0 ce3c 5f2d eebd
00000020: 67bf f5bd eaa2 823c 9b99 3a3c a440 57be
00000030: 61b6 fbbd 1fda 573a 4e35 0fbb 9ec0 183d
-0.05785833 -0.03223121 -0.059611883 0.0025589818 -0.061306074 -0.023149593 0.025230492 -0.116297476
-0.11999398 0.015946824 0.011389161 -0.21020752 -0.122906454 0.00082341017 -0.002185184 0.03729307

model1.5.batch_norm.running_mean f4 [16]
00000000: 5f01 b4be dbdd 3abe a140 273f 78b1 a6bf
00000010: c8e2 663e 5af6 cf3d aa42 e7be 5216 fb3e
00000020: 2c48 95bf 407c 92bf 7579 6ebf 618d 7ebf
00000030: a9f9 a0be dd37 63be 41e0 bfbf e888 9f3e
-0.35157296 -0.18248694 0.6533299 -1.3022909 0.22547448 0.1015441 -0.45168048 0.49040467
-1.166265 -1.1444168 -0.9315408 -0.9943448 -0.31440476 -0.22189279 -1.4990312 0.3115914

model1.5.batch_norm.running_var f4 [16]
00000000: a247 f93f 16ef f93f 2b1c d73f d30d c83f
00000010: 2e73 fa3f f034 1640 6e08 3340 be14 973f
00000020: 5c9c 2840 dee0 3b40 9456 0a40 4451 963f
00000030: 79ce ce3f 748c 5b40 9d0d 4d40 c9ca 0440
1.9474986 1.9526088 1.6805471 1.5629219 1.95664 2.346981 2.7973895 1.1803205
2.6345434 2.9355998 2.1615343 1.174355 1.615676 3.4304476 3.203956 2.074877

model1.6.conv.weight f4 [16, 16, 3, 3, 3]
00000000: 5511 ac3c 7b96 92bd a9d6 c03c 5583 23be
00000010: 31ab 053e 9bc0 243c 7be0 17bd 1a1c 4fbb
00000020: df9b 0b3c 183a 69ba b665 ef3d 590b e73d
00000030: 8050 fcbd fab8 103e 1f82 2abc 190d d33c
00000040: fe25 913d fd2b 03bd 6a60 40bd 0bed 05bd
00000050: 7229 ccbc 40a0 ad3b c392 3f3d 3637 0fbc
00000060: e91c 073a c277 2dbc 171e 4fbd d6af a3bc
00000070: 0756 b539 7256 a8bd 5ef2 a73d 0e72 153d
00000080: 1bde 813b c3fc 463d 4c67 6dbd 6f87 8fbd
00000090: 347c 373c e572 c63c 461a 8a3d 20ea 083e
000000a0: dd85 76bc 82be d83d 262c 77bd 5325 b53d
000000b0: afaf 2fbd aed4 a43a 77d6 7b3c 3e38 603c
000000c0: 8390 1abc b2c2 313d fc6b 0f3d b69a 333b
000000d0: 1b7b ccbd d08f d0bb 4491 9eb9 efe0 1e3c
000000e0: d5f8 8ebc af2e a8bd 9fc5 9abd 8329 c53d
000000f0: 2368 f23d 1665 98bd 8006 533d d9fc 05bb
00000100: 9bd1 e33d 8fec d4bd 0a70 ce3d 7a9e 52bd
00000110: d5a2 8cbd 0013 d63c ccde c13b 141c 10bc
00000120: 546c 2c3d 9f07 b13c cc3d b4bd de6f 1fbe
00000130: 83b0 99bd 0631 febc f06e 333c c089 dabd
00000140: 86c0 bc3d 38b5 763d 84a2 02be 56b0 cabd
00000150: 54d6 48bd 4b96 f53d f7f0 013e b370 56bd
00000160: 3b8c 6fbc fae3 2b3d afe1 19bd a460 cf3c
00000170: 8755 2a3d c326 c53d aaec c63c 38b2 543d
00000180: 73ab aabd 43d4 593d 822b 8b3c 3a6c b93b
00000190: 49e3 81bb 87b6 c7bc 9835 d1bd 8ae5 df3c
000001a0: 4b65 623d b4df 42bd 4615 903d fa09 513c
000001b0: 2ebb 10bd d764 a2bd ce63 99bd b23b fbbc
000001c0: 2ab5 e43d cc75 00be f3fd c73d 5bfb 333c
000001d0: b4ea 3cbd b0e6 01be ffcd 8bbd a398 803d
000001e0: 30fa 123c b8bf b5bd acf4 cabb dd31 d13b
000001f0: 261b 5c3d 1e85 04be 296c 06bd 0384 60bd
00000200: eddc a0bc 0d7d 06bd 2dc1 0fbc 1c89 21bd
00000210: 840b a03d 1fe1 d53c aed5 94bd 4af7 9ebd
00000220: 8edf 4f3c 74ef ebba 3996 103d d72a 7cbc
00000230: a2d7 2bbc 6788 763b fb71 8f3d 8dd7 743d
00000240: ffa8 4a3d c20b 62be cb0b f6bd 679e 6fbd
00000250: 1608 fe3d ebc4 9c3d c2ec f33d 28bd e4ba
00000260: 45c2 ce3d df54 9ebd 6c1c 3c3c 9708 34be
00000270: 7534 26bd db9f c13d e23c 1f3d d5aa f93c
00000280: 10e5 81bd 5909 8a3c 5b45 cdbc 0240 593d
00000290: e744 7ebd bcf4 823c 9768 c6bd 7c61 9a3b
000002a0: 16fb 44bd ba03 debc c358 c6bb 0af6 803c
000002b0: 5b3d 2dbc dbb5 a53a c0e2 16be 3ae1 903d
000002c0: 717d ae3d 3ad1 453c 5978 263e c4a6 073e
000002d0: a3d7 853c 46fd 91bd f1b0 603c b3ff 0e3d
000002e0: cb8c 663d 47f8 9dbd b2d7 babd 91d8 d63c
000002f0: a846 913d da44 853d 4c0d 21bd 284d 81bc
00000300: b66e 973d 7d5d a6bc dd53 9abd b4ba 2b3d
00000310: 1ccd d3bd 0788 c63d 3a30 76bd d2a8 bb3d
00000320: bee4 2abe 0253 2f3e 5979 b53c 6d7b 633d
00000330: f329 03bc 7fd6 883d 1215 d9bc 062c c4bc
00000340: 2677 98bd 7565 bbbd 978e 883d dcde 4b3d
00000350: 69ba 5d3d ef36 86bd 19aa 1a3d e743 8f3d
00000360: 952e d63c 07f3 0a3e 6158 093e 7ac7 573d
00000370: 3227 b3bd 8746 c6bc 3b82 16bd 62f0 f3bc
00000380: 5240 0a3d 5c12 81bd b1b9 093d c835 203d
00000390: 2f33 89bb 4930 2cbc e960 9ebd a043 8d3d
000003a0: e984 2bbc 7b64 27bd bc4e 49bd 24a4 5f3d
000003b0: 7c11 823d 4e12 f33c 10b6 03bd d21a bcbb
000003c0: 339c a4bb d149 f7bd 6c8f 7f3c baed e33b
000003d0: fbe7 cdbc 06ea 04bd 1a99 b7bb eca3 953d
000003e0: 4405 9a3c 0ec9 27bd 376c 68bc 83d7 d23d
000003f0: e5c2 55bd 4d5d 1ebe 412f 30bd a220 803c
0.021004358 -0.07157608 0.023539858 -0.15968068 0.13053586 0.010055686 -0.037079316 -0.0031602443
0.008521049 -0.0008896901 0.11689322 0.11281461 -0.12320042 0.14133063 -0.010407 0.025763081
0.070873246 -0.032024372 -0.046966948 -0.032696765 -0.024922106 0.0052986443 0.046770822 -0.008741191
0.0005154149 -0.0105876345 -0.050565805 -0.019981306 0.00034587106 -0.08219613 0.08200525 0.036485724
0.0039632446 0.048580896 -0.05795984 -0.07008254 0.011199046 0.024224708 0.067432925 0.13370562
-0.015046564 0.105832115 -0.060344838 0.0884501 -0.042892154 0.001257559 0.015370957 0.013685284
-0.009433868 0.043398567 0.03501509 0.0027405447 -0.09984418 -0.0063648 -0.0003024434 0.009697183
-0.017452637 -0.08212029 -0.075572245 0.09627058 0.11836269 -0.074411556 0.05151987 -0.0020444898
0.111239634 -0.103966825 0.100799635 -0.051420666 -0.06866995 0.026132107 0.005916452 -0.008795757
0.042095497 0.02161008 -0.08800849 -0.15570018 -0.0750437 -0.031029236 0.0109517425 -0.10670805
0.092164084 0.060231417 -0.12757307 -0.09896915 -0.049032524 0.11991557 0.12689577 -0.052353572
-0.014620836 0.041965462 -0.037568744 0.025314637 0.04158547 0.09626534 0.024282772 0.051927775
-0.083334826 0.053180944 0.01698852 0.0056586536 -0.003963862 -0.024379028 -0.102153 0.027331132
0.05527238 -0.04757662 0.070353076 0.012758726 -0.03533476 -0.0792939 -0.07489739 -0.030668113
0.11167367 -0.12544936 0.09765234 0.010985221 -0.046122268 -0.12685657 -0.068264 0.06279113
0.008970782 -0.08874458 -0.006193718 0.006384118 0.05373683 -0.12941405 -0.032817993 -0.054813396
-0.019636596 -0.0328341 -0.008774084 -0.0394374 0.078146964 0.026108323 -0.07267319 -0.077620104
0.012687577 -0.001800044 0.035299513 -0.015391073 -0.010488423 0.0037617923 0.07004162 0.059775878
0.049477573 -0.22074798 -0.12013968 -0.058500674 0.12403886 0.076547466 0.11910392 -0.0017451392
0.10095648 -0.077310316 0.011481386 -0.17581402 -0.04057737 0.09454318 0.03887642 0.030476967
-0.06342518 0.01685016 -0.025057485 0.05303956 -0.06207743 0.01598584 -0.09687918 0.004711328
-0.048091017 -0.027101386 -0.0060530617 0.01574232 -0.01057371 0.0012642698 -0.14734936 0.070742086
0.0852002 0.012073809 0.16256846 0.1324721 0.016338175 -0.07128386 0.013714061 0.034911823
0.056286614 -0.07713371 -0.09123172 0.026226314 0.07093555 0.06507273 -0.03931932 -0.015783861
0.07394163 -0.02030825 -0.07535527 0.0419261 -0.10341856 0.09693914 -0.060104586 0.09163059
-0.1668882 0.17121509 0.02215259 0.05553763 -0.008005607 0.06681537 -0.026499305 -0.023946773
-0.07444601 -0.09150211 0.06667822 0.049773082 0.054132853 -0.065534465 0.037759874 0.06995373
0.026145259 0.1356927 0.1341262 0.05268047 -0.0874771 -0.024203552 -0.03674529 -0.02977771
0.033752747 -0.0630233 0.033624355 0.03911379 -0.0041870098 -0.010509559 -0.07733328 0.06897664
-0.0104687 -0.04086731 -0.049147353 0.054599896 0.06350991 0.029671814 -0.03215605 -0.005740502
-0.005023503 -0.12074626 0.015598159 0.0069558294 -0.025135031 -0.032449745 -0.005602968 0.07306656
0.018801339 -0.040963225 -0.014185957 0.10295012 -0.05218782 -0.15465279 -0.043013815 0.01564056

model1.6.conv.bias f4 [16]
00000000: 6fea c53b a415 213c cfde 83bb 3099 64bc
00000010: 0028 bcbc 0ef4 85bc d0d5 f2bb 498b 36bd
00000020: 0f83 04bd ec2a cd3c be64 09ba 0b9c 9c3b
00000030: 7d9d 193d 21a2 023d f2c2 b93c fc00 37bd
0.0060399096 0.00983182 -0.0040243636 -0.013952538 -0.022968292 -0.016351726 -0.0074107423 -0.044566426
-0.03235155 0.02504488 -0.0005241147 0.004779344 0.03750371 0.0318929 0.022675965 -0.044678673

model1.6.batch_norm.weight f4 [16]
00000000: 8055 b33e eea7 e13e 2c9b e73e bfe4 cd3e
00000010: fff2 c83e bf5d ea3e 32ee e13e 9546 fc3e
00000020: eef9 023f cb06 e33e e518 ec3e c630 fe3e
00000030: a6ef 043f 1af8 f13e e09a e23e 8443 ea3e
0.3502617 0.44073433 0.45235574 0.40213582 0.3924789 0.45774648 0.4412704 0.492726
0.5116261 0.4434112 0.46112743 0.49646586 0.51928174 0.472596 0.44258785 0.45754635

model1.6.batch_norm.bias f4 [16]
00000000: dbfc 6cbd e004 04bd 972b 74bd 97b4 273b
00000010: 141c 7bbd 37a4 bdbc 2db0 ce3c 5f2d eebd
00000020: 67bf f5bd eaa2 823c 9b99 3a3c a440 57be
00000030: 61b6 fbbd 1fda 573a 4e35 0fbb 9ec0 183d
-0.05785833 -0.03223121 -0.059611883 0.0025589818 -0.061306074 -0.023149593 0.025230492 -0.116297476
-0.11999398 0.015946824 0.011389161 -0.21020752 -0.122906454 0.00082341017 -0.002185184 0.03729307

model1.6.batch_norm.running_mean f4 [16]
00000000: 5f01 b4be dbdd 3abe a140 273f 78b1 a6bf
00000010: c8e2 663e 5af6 cf3d aa42 e7be 5216 fb3e
00000020: 2c48 95bf 407c 92bf 7579 6ebf 618d 7ebf
00000030: a9f9 a0be dd37 63be 41e0 bfbf e888 9f3e
-0.35157296 -0.18248694 0.6533299 -1.3022909 0.22547448 0.1015441 -0.45168048 0.49040467
-1.166265 -1.1444168 -0.9315408 -0.9943448 -0.31440476 -0.22189279 -1.4990312 0.3115914

model1.6.batch_norm.running_var f4 [16]
00000000: a247 f93f 16ef f93f 2b1c d73f d30d c83f
00000010: 2e73 fa3f f034 1640 6e08 3340 be14 973f
00000020: 5c9c 2840 dee0 3b40 9456 0a40 4451 963f
00000030: 79ce ce3f 748c 5b40 9d0d 4d40 c9ca 0440
1.9474986 1.9526088 1.6805471 1.5629219 1.95664 2.346981 2.7973895 1.1803205
2.6345434 2.9355998 2.1615343 1.174355 1.615676 3.4304476 3.203956 2.074877
