models/conv3d/saved_models/lr_0.0001/epoch_10000.pt (torch, 189383 bytes, 102 tensors)

model1.0.weight f4 [16, 8, 3, 3, 3]
0	0xbc6f9ef6	-0.014625302
1	0xbc772fcc	-0.015087079
2	0x3ccee48b	0.025255462
3	0x3d6bfd9d	0.05761491
4	0xbc824e00	-0.015906334
5	0x3d86abc4	0.065757304
6	0xbcdaf42e	-0.026727762
7	0xbd0dfa4b	-0.034662526
8	0x3ce0afbe	0.02742755
9	0xba335ecc	-0.0006842434
10	0xba8841d1	-0.0010395591
11	0x3cd304c6	0.025759112
12	0x3db9e241	0.09076358
13	0xbd8a3e0b	-0.06750115
14	0x3d6cb7bf	0.05779242
15	0xbcc87175	-0.024468163
16	0x3cd3413e	0.025787946
17	0x3d96cca2	0.07363249
18	0x3c8032c3	0.015649205
19	0xbda2ebb1	-0.07955111
20	0x3d515745	0.051108617
21	0x3da66afe	0.08125876
22	0xbd522cd9	-0.0513123
23	0x3c5f4afb	0.013628717
24	0xbcb96afe	-0.022634026
25	0xbc0a5763	-0.008443686
26	0x3c1d2272	0.009590732
27	0x3b91c547	0.004448566
28	0x3c76f70d	0.01507355
29	0x3c96ba67	0.01839943
30	0xbb42f016	-0.0029745153
31	0x3b4f4712	0.0031628055
32	0x3cbd91e3	0.023140853
33	0x3cfc6f67	0.03081484
34	0x3a98055f	0.001159828
35	0xbcbfac4c	-0.023397587
36	0xbd800767	-0.06251412
37	0xbdce7ad8	-0.10082024
38	0xbde378ab	-0.11107
39	0x3dbfe25a	0.09369345
40	0xbcaf8e7b	-0.021430245
41	0x3d47f6bf	0.0488193
42	0xbd9af7be	-0.07566784
43	0x3e0d913e	0.13824937
44	0xbd687055	-0.056747753
45	0xbcde62ce	-0.027146723
46	0x3d0406fd	0.032233227
47	0xbcec4251	-0.028840216
48	0x3d247feb	0.040161055
49	0xbd926c9d	-0.071496226
50	0x3c81658a	0.015795488
51	0xbd64ff99	-0.05590782
52	0x3c2da184	0.01059759
53	0xbc67e1be	-0.014152942
54	0x3bd2c6da	0.0064323964
55	0xbd557e61	-0.052122477
56	0xbc6afef4	-0.014343012
57	0xbce29904	-0.027660854
58	0x3c0b29ce	0.008493854
59	0xbd64b0a4	-0.05583252
60	0x3c87a34c	0.016557358
61	0xbc639c26	-0.013892209
62	0xbc868d7f	-0.016424892
63	0xbcafd7f4	-0.02146528
64	0xbccec7c6	-0.025241744
65	0x3c86d15c	0.016457252
66	0x3d726f1c	0.059187993
67	0xba00aed3	-0.00049088633
68	0xbc109d98	-0.008826636
69	0xbc9ca928	-0.019123629
70	0x3ddc0ed4	0.10745016
71	0xbc4bb1e5	-0.01243255
72	0xbadb237b	-0.0016718948
73	0xbca34363	-0.019929593
74	0x3cc683de	0.024232801
75	0x3c4f905f	0.012668698
76	0x3ca4faaa	0.020139057
77	0xbc50e70a	-0.0127503965
78	0xbd1454a3	-0.03621353
79	0x3c55e819	0.013055825
80	0xbbb3eb3c	-0.0054906886
81	0xbcf206b9	-0.029544221
82	0x3dbb3f2d	0.09142909
83	0x3b840491	0.0040288647
84	0xbc56f647	-0.0131202405
85	0xbcd56821	-0.02605063
86	0x3d8470b4	0.06466809
87	0x3d45d8b6	0.048302375
88	0x3c83a0d0	0.016067892
89	0xbd426906	-0.04746344
90	0xbc17e681	-0.009271265
91	0xbccaa96e	-0.024738993
92	0x3d6c68f5	0.057717282
93	0x3d1ba81d	0.038002122
94	0xbc1376c6	-0.009000486
95	0xbcdcae14	-0.026938476
96	0x3dc4eff1	0.09616078
97	0xbccd2d29	-0.025045948
98	0xbaabbeb2	-0.0013103096
99	0x3d80a0b6	0.06280653
100	0xbc5b2731	-0.013376043
101	0xbd109628	-0.03529945
102	0x3ca9bc25	0.020719597
103	0xbd972665	-0.0738037
104	0xbd143b26	-0.03618922
105	0xbb31e7ef	-0.00271463
106	0x3ca19a18	0.019726798
107	0x3d1c270b	0.03812317
108	0xbdd59346	-0.10428481
109	0xbc0f2b13	-0.008738297
110	0xbc0e8d86	-0.008700734
111	0xbbfcb2a0	-0.0077117234
112	0xbce05b9c	-0.027387433
113	0x3cf10f24	0.029426165
114	0xbc11a3e7	-0.008889175
115	0x3c969240	0.018380284
116	0x3d1897bb	0.037254076
117	0xbddb657e	-0.107127175
118	0xbd2b89cf	-0.04187947
119	0xbd5343fe	-0.051578514
120	0xbe0f9adb	-0.14023916
121	0xbe204983	-0.15653042
122	0x3d0a01ed	0.033693243
123	0x3dc9d256	0.098545715
124	0xbd97dd27	-0.07415228
125	0x3c07f4e4	0.008298133
126	0xbccc5eba	-0.024947513
127	0xbd45615d	-0.048188556
128	0x3cbb5a95	0.022870341
129	0x3c8e6c5e	0.017385658
130	0x3cc4ff5d	0.024047548
131	0x3d8135bc	0.06309077
132	0xbc6dc99b	-0.0145133985
133	0xbd8ca538	-0.068674505
134	0xbc4bc8d0	-0.012438014
135	0x3d043c0b	0.032283824
136	0xbd2e921e	-0.042619817
137	0xbb8060ae	-0.003917775
138	0x3ca27a0f	0.019833593
139	0x3b95c822	0.004570977
140	0x3ca7eed4	0.020499624
141	0xbc75ef81	-0.015010715
142	0xbd1cd8a6	-0.03829255
143	0xbd10ab9e	-0.035319917
144	0xbd874695	-0.06605259
145	0x3c7a14e1	0.015263767
146	0xbd54b132	-0.0519268
147	0x3b4dacbd	0.0031383478
148	0xbcb17413	-0.021661794
149	0xbcb7b858	-0.02242677
150	0xbdb1a52c	-0.08674082
151	0x3de5617b	0.112002335
152	0x3d5cb779	0.05388591
153	0xbcab76c6	-0.020930659
154	0xbd02cf39	-0.031935904
155	0xbc81a4a2	-0.015825573
156	0xbbd935e7	-0.00662874
157	0xbd043684	-0.032278553
158	0xbb2fb990	-0.0026813485
159	0xbcd34a18	-0.025792167
160	0x3cc34406	0.023836147
161	0xbd3bdd47	-0.045865323
162	0xbbdbc98b	-0.0067073754
163	0x3d4472b8	0.047960967
164	0xbaef258b	-0.0018245442
165	0xbc9aa252	-0.018876228
166	0x3d0fd2a0	0.035112977
167	0xbd85d6f1	-0.065351374
168	0xbb0d2755	-0.0021538336
169	0x3c223c55	0.00990208
170	0x3c248fa9	0.010044017
171	0xbd0f6d5e	-0.03501641
172	0x3dd1648f	0.10224258
173	0xbd5732c4	-0.05253865
174	0x3d171c3f	0.036892172
175	0xbe13b0b0	-0.1442287
176	0xbe62d2b0	-0.22150683
177	0x3cc48fff	0.023994444
178	0xbeb44ad5	-0.35213342
179	0xbcbcd1b5	-0.023049215
180	0xbc6ef686	-0.014585143
181	0xbc3cc7e1	-0.011522264
182	0x3c068ffa	0.008213038
183	0x3c60ac73	0.01371299
184	0xbcc46c16	-0.02397732
185	0xbd3c668f	-0.045996245
186	0xbc870cdd	-0.016485626
187	0xbdca5f94	-0.09881511
188	0x3d5b7438	0.05357763
189	0xbd7a25ae	-0.06107109
190	0x3cb7164a	0.022349495
191	0xbc8c9943	-0.017162925
192	0x3d86b709	0.0657788
193	0x3d07f4f8	0.033192605
194	0x3a4d9a6e	0.0007843141
195	0x3c439256	0.011936745
196	0xbd327e8d	-0.04357772
197	0x3c086fd6	0.008327445
198	0xbd5d6f1c	-0.05406104
199	0xbd2c82ba	-0.042116858
200	0x3ca0163c	0.019541852
201	0xbd987f7f	-0.07446193
202	0xbdd6f46e	-0.1049584
203	0xbd02eb21	-0.031962518
204	0x3bd962b2	0.00663408
205	0x3cf6b35c	0.030114822
206	0x3da279b5	0.0793337
207	0xbd04f358	-0.032458633
208	0x3c4bdf85	0.012443428
209	0xbc8338de	-0.016018327
210	0x3d3b6cbd	0.045757998
211	0xbd1f974f	-0.03896266
212	0xbd181ef0	-0.03713888
213	0xbd6bacfc	-0.057538018
214	0xbc964075	-0.018341282
215	0x3b71dabf	0.0036904064
216	0x3d62195b	0.055199962
217	0xbd741bed	-0.059596945
218	0xbc7f71e6	-0.01559112
219	0xbbf0ab51	-0.0073446413
220	0x3d6a968a	0.05727247
221	0xbc12712e	-0.008938117
222	0xbcc62f82	-0.024192575
223	0xbd105224	-0.035234585
224	0x3c1a84c7	0.009431071
225	0xbe053862	-0.1300979
226	0xbc580ae2	-0.013186188
227	0xbcaf9858	-0.021434948
228	0x3c1544a6	0.009110605
229	0x3db104a5	0.08643464
230	0x3d10f9a5	0.03539433
231	0x3e035dca	0.12828746
232	0x3da5c26d	0.080937244
233	0x3abad15a	0.0014253065
234	0xbac24631	-0.0014821944
235	0xbd005fec	-0.03134148
236	0xbccf7b71	-0.025327416
237	0xbc5d54fd	-0.013509032
238	0xbc088aa6	-0.008333838
239	0x3d770e24	0.06031622
240	0xbce8dbcf	-0.028425125
241	0x3bb98280	0.0056613088
242	0x3c49eedd	0.012325016
243	0xbc6fd6f8	-0.014638655
244	0xbbfb33b4	-0.0076660756
245	0xbc971350	-0.018441826
246	0xbd1b15e5	-0.037862677
247	0xbd1f7ef0	-0.038939416
248	0x3bf33888	0.0074225105
249	0xbd501df3	-0.05080981
250	0x3d2864d8	0.041111797
251	0x3d4cdf41	0.0500176
252	0xbd613be1	-0.054988746
253	0xbcafee74	-0.021476008
254	0x3b90cfca	0.0044193016
255	0x3e0de660	0.13857412

model1.0.bias f4 [16]
0	0x3e85a872	0.26105076
1	0x3e77d104	0.24200827
2	0xbda2edfd	-0.07955549
3	0x3dc68533	0.096933745
4	0x3e81bafb	0.25337967
5	0x3c230f85	0.009952431
6	0x3e3d98a1	0.18515255
7	0xbcf4fe38	-0.029906377
8	0x3dae4f12	0.08511175
9	0x3daa473d	0.08314369
10	0x3e06b85e	0.13156268
11	0x3dc87d4e	0.09789525
12	0x3e2eca71	0.17069413
13	0x3e178b37	0.147992
14	0x3e3ed966	0.18637618
15	0x3e3a9335	0.18220218

model1.2.conv.weight f4 [16, 16, 3, 3, 3]
0	0x3cd4e07f	0.025985954
1	0xbda6737a	-0.08127494
2	0x3cceabbd	0.025228376
3	0xbe2550b6	-0.1614407
4	0x3dfb8723	0.12281635
5	0xbbc91bd6	-0.0061373515
6	0xbd1e74c7	-0.038685586
7	0x3b9329ca	0.0044910656
8	0x3bda93f4	0.0066704694
9	0x3bf4ee83	0.007474722
10	0x3de6df48	0.11273056
11	0x3dea773f	0.11448526
12	0xbe06fc8e	-0.1318228
13	0x3e13bd92	0.14427784
14	0x3b4fa4b3	0.0031683862
15	0x3c4f8528	0.012666024
16	0x3dab1520	0.08353639
17	0xbcf99af0	-0.030469388
18	0xbd2aa0c7	-0.041657235
19	0xbd2db1db	-0.042405944
20	0xbd226af8	-0.039652795
21	0x3c3453b8	0.011006288
22	0x3d3683fa	0.044559456
23	0x3be8fd6d	0.007110289
24	0xbab72e48	-0.0013975585
25	0xbc85822f	-0.016297428
26	0xbd6bfcd3	-0.05761416
27	0xbcb67dad	-0.022276724
28	0xbcc1fbb2	-0.023679588
29	0xbd9f747d	-0.0778589
30	0x3d9dbab0	0.077016234
31	0x3d18a63b	0.037267905
32	0x3bf60206	0.0075075654
33	0x3d8237ad	0.063582756
34	0xbd925dbe	-0.07146786
35	0xbd885ccb	-0.06658324
36	0x3b8fcbdc	0.0043883156
37	0x3cde5d7c	0.027144186
38	0x3d9e1489	0.077187605
39	0x3e120052	0.14257935
40	0xbc1e5e34	-0.009666014
41	0x3de46992	0.111529484
42	0xbd430e57	-0.047621097
43	0x3d9f5f8c	0.07781896
44	0xbd23e003	-0.040008556
45	0xbbc21be3	-0.0059237345
46	0x3c495b8b	0.012289892
47	0x3c6bc93b	0.014391239
48	0xbbe3c331	-0.006950759
49	0x3d6e3a15	0.05816086
50	0x3cc9d1a3	0.024636095
51	0x3bc72b83	0.006078185
52	0xbdc63524	-0.096781045
53	0xb9226011	-0.00015485311
54	0x3b7b16fc	0.003831326
55	0x3c0fb663	0.008771512
56	0x3bfdb075	0.0077419826
57	0xbdd1f079	-0.10250945
58	0xbda3b93c	-0.07994315
59	0x3d9b97a5	0.07597283
60	0x3de8f9fa	0.11375804
61	0xbd937332	-0.07199706
62	0x3d2c03c6	0.041995786
63	0xbb0562f0	-0.002035316
64	0x3dfde12d	0.123964645
65	0xbda576d2	-0.08079304
66	0x3dc1c6fb	0.09461781
67	0xbd73dd02	-0.05953694
68	0xbd80e46b	-0.06293567
69	0x3cdaa3af	0.026689379
70	0xbbdc188b	-0.006716793
71	0x3bd92b59	0.006627482
72	0x3d44b53c	0.0480244
73	0x3c29da41	0.010366977
74	0xbda71946	-0.081591174
75	0xbe1a250f	-0.15053199
76	0xbd9d1fce	-0.07672082
77	0xbc91f511	-0.017817052
78	0x3c95435f	0.018220602
79	0xbdc8057e	-0.097666726
80	0x3dc9d732	0.098554984
81	0x3d68cdf7	0.05683705
82	0xbdf1077e	-0.11769007
83	0xbdcdbabb	-0.10045382
84	0xbd5cdca1	-0.053921346
85	0x3e04e93a	0.12979594
86	0x3e04f569	0.12984242
87	0xbd4c34a7	-0.0498549
88	0xbcac25ba	-0.021014083
89	0x3d213f6e	0.039367132
90	0xbd47fb01	-0.04882336
91	0x3c5c99ee	0.013464434
92	0x3d05222d	0.032503296
93	0x3dc27628	0.09495193
94	0x3ce5739f	0.028009234
95	0x3d4d0238	0.050050944
96	0xbdb8065a	-0.089855865
97	0x3d71166c	0.058859274
98	0x3bebaa9b	0.0071919686
99	0x3c73c658	0.014878832
100	0xbc9fad18	-0.019491717
101	0xbc8304b8	-0.015993461
102	0xbdc53724	-0.09629658
103	0x3cd2a7ff	0.025714872
104	0x3d62b0e3	0.055344474
105	0xbd3c9fba	-0.046050765
106	0x3d92f622	0.07175852
107	0x3c2188d5	0.009859283
108	0xbc894e51	-0.016760977
109	0xbd90dc87	-0.07073312
110	0xbd8471e7	-0.06467038
111	0xbcffc9f1	-0.031224223
112	0x3dd777aa	0.10520871
113	0xbdfad898	-0.12248343
114	0x3db115d6	0.08646743
115	0x3c79cf19	0.01524713
116	0xbd2bfd56	-0.041989647
117	0xbe0575ff	-0.13033293
118	0xbd966612	-0.07343687
119	0x3d83e1e7	0.06439572
120	0x3bce6df2	0.0062997276
121	0xbdc73a91	-0.097279675
122	0x3c9a4bc6	0.01883496
123	0x3c031a78	0.008001916
124	0x3d6a2658	0.057165474
125	0xbe11225d	-0.14173265
126	0xbcc9c301	-0.024629118
127	0xbd17b23d	-0.037035216
128	0xbc88ce95	-0.016700068
129	0xbd2ae74f	-0.0417245
130	0xbc3a811e	-0.011383323
131	0xbd0d611f	-0.03451645
132	0x3d8c7b10	0.0685941
133	0x3c8525c4	0.01625336
134	0xbd7d996c	-0.061913893
135	0xbd9b2b96	-0.07576673
136	0x3c9b5e0e	0.018965747
137	0x3a9ae0b6	0.0011816237
138	0x3cf3b567	0.029749585
139	0xbcaf3c91	-0.021391185
140	0xbca5a2b7	-0.02021919
141	0x3a5b6e82	0.0008370654
142	0x3d917d90	0.07104027
143	0x3d6c47ea	0.05768577
144	0x3d71c1ec	0.05902283
145	0xbe5ae7b1	-0.21377446
146	0xbdf4b20a	-0.11948021
147	0xbd6bcf6c	-0.05757086
148	0x3e06f91d	0.13180967
149	0x3d9e50e8	0.077302754
150	0x3de0c522	0.109751
151	0xbb8dca82	-0.0043271193
152	0x3dd5fc68	0.10448533
153	0xbd947c0e	-0.07250224
154	0x3ce15a94	0.027509011
155	0xbe2f19ac	-0.17099637
156	0xbd3dc3a6	-0.046329163
157	0x3dbdc0e5	0.09265307
158	0x3d19f5cd	0.03758793
159	0x3c04c5e1	0.008103819
160	0xbd620380	-0.05517912
161	0x3c673c1a	0.01411345
162	0xbcd35c6c	-0.025800906
163	0x3d995e97	0.07488745
164	0xbd7037bd	-0.058646906
165	0x3c993a9d	0.018704707
166	0xbdbb4065	-0.09143142
167	0x3bb924b0	0.0056501254
168	0xbd220710	-0.039557517
169	0xbd05e9e0	-0.032693744
170	0xbc17929c	-0.009251263
171	0x3c48a006	0.012245184
172	0xbca83b5c	-0.020536117
173	0x3b02814b	0.001991349
174	0xbe28ccff	-0.1648445
175	0x3d8afe66	0.06786804
176	0x3d5509f7	0.052011456
177	0x3cc02b4a	0.023458142
178	0x3e2c8d9a	0.16850892
179	0x3e06ddb6	0.13170514
180	0x3c94ed29	0.018179493
181	0xbd8bc10b	-0.068239294
182	0x3c80e9db	0.015736511
183	0x3cbc6470	0.022997111
184	0x3d80db8f	0.062918775
185	0xbdbc8c2a	-0.09206422
186	0xbda54571	-0.080698855
187	0x3c400695	0.011720319
188	0x3d936dd0	0.071986794
189	0x3da447d4	0.08021513
190	0xbd48f793	-0.04906423
191	0xbc7cbfc3	-0.015426579
192	0x3db32a35	0.08748285
193	0xbc054539	-0.00813418
194	0xbd9e6348	-0.0773378
195	0x3d4fa00e	0.05068975
196	0xbdd4f754	-0.103987366
197	0x3dc4f18e	0.096163854
198	0xbd8543fa	-0.06507106
199	0x3da9ca01	0.08290482
200	0xbe3c136e	-0.18366787
201	0x3e2e8351	0.1704228
202	0x3ce8b598	0.028406903
203	0x3d687cce	0.056759648
204	0xbb3e3c31	-0.0029027576
205	0x3d8b2f9e	0.06796192
206	0xbd1a6a43	-0.037698995
207	0xbced987b	-0.029003372
208	0xbd8be8a6	-0.068314835
209	0xbddcf159	-0.10788221
210	0x3d884672	0.066540614
211	0x3d58280f	0.052772578
212	0x3d6a8736	0.057257853
213	0xbd5ebca7	-0.05437913
214	0x3d386b33	0.04502411
215	0x3d82e515	0.0639135
216	0x3ce9d787	0.028545154
217	0x3e0c9e4e	0.13732263
218	0x3e058fc0	0.13043118
219	0x3d6669c8	0.056253225
220	0xbda359f2	-0.0797614
221	0xbceaf4c5	-0.028681168
222	0xbd270c1e	-0.04078304
223	0xbc362645	-0.011117523
224	0x3d0aa582	0.033849247
225	0xbd55d39d	-0.052203763
226	0x3cbeabe9	0.023275333
227	0x3d520ff1	0.051284734
228	0xbc82e382	-0.015977625
229	0xbc1f1d9c	-0.009711649
230	0xbd863792	-0.06553568
231	0x3d90f1ce	0.070773706
232	0xbc8e6228	-0.017380789
233	0xbd176d18	-0.036969274
234	0xbd30b7e0	-0.043144107
235	0x3d367df5	0.044553716
236	0x3d2a034f	0.04150706
237	0x3d2d0c30	0.04224795
238	0xbcbe1d1a	-0.023207236
239	0xbca4a121	-0.020096363
240	0x3b2fb9a4	0.0026813531
241	0xbdf5248b	-0.11969861
242	0x3c8dab1f	0.017293511
243	0x3c096a03	0.008387092
244	0xbd0ff6d2	-0.035147496
245	0xbd155c96	-0.03646525
246	0xbc1797c7	-0.009252495
247	0x3d7d5ca2	0.06185592
248	0x3d020730	0.031745136
249	0xbd159090	-0.03651482
250	0xbafa73ae	-0.0019107962
251	0x3dc65ab1	0.09685267
252	0xbd269ca7	-0.04067674
253	0xbe22635d	-0.15858217
254	0xbcff6c0b	-0.031179449
255	0x3c356ea8	0.011073746

model1.2.conv.bias f4 [16]
0	0x3bc150e6	0.0058995364
1	0x3c1ed67b	0.009694691
2	0xbb8799eb	-0.0041382215
3	0xbc64af61	-0.013957829
4	0xbcbd02d4	-0.023072638
5	0xbc879854	-0.016552128
6	0xbbf4499f	-0.0074550654
7	0xbd36e381	-0.04465056
8	0xbd04c993	-0.0324188
9	0x3ccdabba	0.0251063
10	0xba03c331	-0.0005026339
11	0x3b8fd627	0.0043895426
12	0x3d1a2523	0.037633073
13	0x3d02584d	0.03182249
14	0x3cb861c3	0.022507554
15	0xbd37502e	-0.0447542

model1.2.batch_norm.weight f4 [16]
0	0x3eaba027	0.33520624
1	0x3eddf366	0.4334976
2	0x3ee44d62	0.44590288
3	0x3ec8fde6	0.3925621
4	0x3ec60990	0.3867917
5	0x3ee8860a	0.45414764
6	0x3ede1385	0.43374267
7	0x3efd2b60	0.49447155
8	0x3f037b84	0.51360345
9	0x3ee5e8ec	0.44904268
10	0x3eeaf751	0.45891812
11	0x3f00d5c8	0.50326204
12	0x3f056a00	0.5211487
13	0x3ef0773d	0.46965972
14	0x3ee0e6a4	0.43925965
15	0x3ee6272c	0.4495176

model1.2.batch_norm.bias f4 [16]
0	0xbd57ff4e	-0.052733712
1	0xbd08c5bb	-0.033391695
2	0xbd735698	-0.059408754
3	0xbb841e18	-0.0040319078
4	0xbd766f1c	-0.060164556
5	0xbc992133	-0.018692588
6	0x3ccdf407	0.025140775
7	0xbe0b77a2	-0.13619855
8	0xbe093856	-0.13400397
9	0x3c927e75	0.017882565
10	0x3c6e2edc	0.014537539
11	0xbe65619e	-0.22400519
12	0xbe0600a5	-0.13086183
13	0xbaf2befb	-0.0018520051
14	0x3af7124e	0.001885006
15	0x3d30e8a9	0.043190632

model1.2.batch_norm.running_mean f4 [16]
0	0xbeb14e62	-0.34630114
1	0xbe4ff33d	-0.20307632
2	0x3f2a2873	0.6646797
3	0xbfa51a41	-1.2898637
4	0x3e83be4f	0.2573113
5	0x3d9f3293	0.07773318
6	0xbed05ba0	-0.40694904
7	0x3edfb580	0.4369316
8	0xbf94917c	-1.1606898
9	0xbf8af9ed	-1.0857521
10	0xbf5cf968	-0.86318064
11	0xbf81b65a	-1.0133774
12	0xbe99484f	-0.2993798
13	0xbe5102d4	-0.20411235
14	0xbfb9f558	-1.4527998
15	0x3ebecb2e	0.3726439

model1.2.batch_norm.running_var f4 [16]
0	0x3fddf98c	1.7341781
1	0x3ff723a9	1.9307758
2	0x3fd9af84	1.7006688
3	0x3fc26618	1.5187407
4	0x3ffea1ef	1.9893168
5	0x40146194	2.3184557
6	0x40248f60	2.571251
7	0x3f8fa1bb	1.1221231
8	0x401d1a60	2.4547348
9	0x40366bc8	2.8503284
10	0x4006221b	2.0958316
11	0x3f99bcec	1.2010779
12	0x3fc28998	1.519824
13	0x405bda78	3.4352093
14	0x40467a81	3.101227
15	0x4000db5a	2.0133882

model1.3.conv.weight f4 [16, 16, 3, 3, 3]
0	0x3cd4e07f	0.025985954
1	0xbda6737a	-0.08127494
2	0x3cceabbd	0.025228376
3	0xbe2550b6	-0.1614407
4	0x3dfb8723	0.12281635
5	0xbbc91bd6	-0.0061373515
6	0xbd1e74c7	-0.038685586
7	0x3b9329ca	0.0044910656
8	0x3bda93f4	0.0066704694
9	0x3bf4ee83	0.007474722
10	0x3de6df48	0.11273056
11	0x3dea773f	0.11448526
12	0xbe06fc8e	-0.1318228
13	0x3e13bd92	0.14427784
14	0x3b4fa4b3	0.0031683862
15	0x3c4f8528	0.012666024
16	0x3dab1520	0.08353639
17	0xbcf99af0	-0.030469388
18	0xbd2aa0c7	-0.041657235
19	0xbd2db1db	-0.042405944
20	0xbd226af8	-0.039652795
21	0x3c3453b8	0.011006288
22	0x3d3683fa	0.044559456
23	0x3be8fd6d	0.007110289
24	0xbab72e48	-0.0013975585
25	0xbc85822f	-0.016297428
26	0xbd6bfcd3	-0.05761416
27	0xbcb67dad	-0.022276724
28	0xbcc1fbb2	-0.023679588
29	0xbd9f747d	-0.0778589
30	0x3d9dbab0	0.077016234
31	0x3d18a63b	0.037267905
32	0x3bf60206	0.0075075654
33	0x3d8237ad	0.063582756
34	0xbd925dbe	-0.07146786
35	0xbd885ccb	-0.06658324
36	0x3b8fcbdc	0.0043883156
37	0x3cde5d7c	0.027144186
38	0x3d9e1489	0.077187605
39	0x3e120052	0.14257935
40	0xbc1e5e34	-0.009666014
41	0x3de46992	0.111529484
42	0xbd430e57	-0.047621097
43	0x3d9f5f8c	0.07781896
44	0xbd23e003	-0.040008556
45	0xbbc21be3	-0.0059237345
46	0x3c495b8b	0.012289892
47	0x3c6bc93b	0.014391239
48	0xbbe3c331	-0.006950759
49	0x3d6e3a15	0.05816086
50	0x3cc9d1a3	0.024636095
51	0x3bc72b83	0.006078185
52	0xbdc63524	-0.096781045
53	0xb9226011	-0.00015485311
54	0x3b7b16fc	0.003831326
55	0x3c0fb663	0.008771512
56	0x3bfdb075	0.0077419826
57	0xbdd1f079	-0.10250945
58	0xbda3b93c	-0.07994315
59	0x3d9b97a5	0.07597283
60	0x3de8f9fa	0.11375804
61	0xbd937332	-0.07199706
62	0x3d2c03c6	0.041995786
63	0xbb0562f0	-0.002035316
64	0x3dfde12d	0.123964645
65	0xbda576d2	-0.08079304
66	0x3dc1c6fb	0.09461781
67	0xbd73dd02	-0.05953694
68	0xbd80e46b	-0.06293567
69	0x3cdaa3af	0.026689379
70	0xbbdc188b	-0.006716793
71	0x3bd92b59	0.006627482
72	0x3d44b53c	0.0480244
73	0x3c29da41	0.010366977
74	0xbda71946	-0.081591174
75	0xbe1a250f	-0.15053199
76	0xbd9d1fce	-0.07672082
77	0xbc91f511	-0.017817052
78	0x3c95435f	0.018220602
79	0xbdc8057e	-0.097666726
80	0x3dc9d732	0.098554984
81	0x3d68cdf7	0.05683705
82	0xbdf1077e	-0.11769007
83	0xbdcdbabb	-0.10045382
84	0xbd5cdca1	-0.053921346
85	0x3e04e93a	0.12979594
86	0x3e04f569	0.12984242
87	0xbd4c34a7	-0.0498549
88	0xbcac25ba	-0.021014083
89	0x3d213f6e	0.039367132
90	0xbd47fb01	-0.04882336
91	0x3c5c99ee	0.013464434
92	0x3d05222d	0.032503296
93	0x3dc27628	0.09495193
94	0x3ce5739f	0.028009234
95	0x3d4d0238	0.050050944
96	0xbdb8065a	-0.089855865
97	0x3d71166c	0.058859274
98	0x3bebaa9b	0.0071919686
99	0x3c73c658	0.014878832
100	0xbc9fad18	-0.019491717
101	0xbc8304b8	-0.015993461
102	0xbdc53724	-0.09629658
103	0x3cd2a7ff	0.025714872
104	0x3d62b0e3	0.055344474
105	0xbd3c9fba	-0.046050765
106	0x3d92f622	0.07175852
107	0x3c2188d5	0.009859283
108	0xbc894e51	-0.016760977
109	0xbd90dc87	-0.07073312
110	0xbd8471e7	-0.06467038
111	0xbcffc9f1	-0.031224223
112	0x3dd777aa	0.10520871
113	0xbdfad898	-0.12248343
114	0x3db115d6	0.08646743
115	0x3c79cf19	0.01524713
116	0xbd2bfd56	-0.041989647
117	0xbe0575ff	-0.13033293
118	0xbd966612	-0.07343687
119	0x3d83e1e7	0.06439572
120	0x3bce6df2	0.0062997276
121	0xbdc73a91	-0.097279675
122	0x3c9a4bc6	0.01883496
123	0x3c031a78	0.008001916
124	0x3d6a2658	0.057165474
125	0xbe11225d	-0.14173265
126	0xbcc9c301	-0.024629118
127	0xbd17b23d	-0.037035216
128	0xbc88ce95	-0.016700068
129	0xbd2ae74f	-0.0417245
130	0xbc3a811e	-0.011383323
131	0xbd0d611f	-0.03451645
132	0x3d8c7b10	0.0685941
133	0x3c8525c4	0.01625336
134	0xbd7d996c	-0.061913893
135	0xbd9b2b96	-0.07576673
136	0x3c9b5e0e	0.018965747
137	0x3a9ae0b6	0.0011816237
138	0x3cf3b567	0.029749585
139	0xbcaf3c91	-0.021391185
140	0xbca5a2b7	-0.02021919
141	0x3a5b6e82	0.0008370654
142	0x3d917d90	0.07104027
143	0x3d6c47ea	0.05768577
144	0x3d71c1ec	0.05902283
145	0xbe5ae7b1	-0.21377446
146	0xbdf4b20a	-0.11948021
147	0xbd6bcf6c	-0.05757086
148	0x3e06f91d	0.13180967
149	0x3d9e50e8	0.077302754
150	0x3de0c522	0.109751
151	0xbb8dca82	-0.0043271193
152	0x3dd5fc68	0.10448533
153	0xbd947c0e	-0.07250224
154	0x3ce15a94	0.027509011
155	0xbe2f19ac	-0.17099637
156	0xbd3dc3a6	-0.046329163
157	0x3dbdc0e5	0.09265307
158	0x3d19f5cd	0.03758793
159	0x3c04c5e1	0.008103819
160	0xbd620380	-0.05517912
161	0x3c673c1a	0.01411345
162	0xbcd35c6c	-0.025800906
163	0x3d995e97	0.07488745
164	0xbd7037bd	-0.058646906
165	0x3c993a9d	0.018704707
166	0xbdbb4065	-0.09143142
167	0x3bb924b0	0.0056501254
168	0xbd220710	-0.039557517
169	0xbd05e9e0	-0.032693744
170	0xbc17929c	-0.009251263
171	0x3c48a006	0.012245184
172	0xbca83b5c	-0.020536117
173	0x3b02814b	0.001991349
174	0xbe28ccff	-0.1648445
175	0x3d8afe66	0.06786804
176	0x3d5509f7	0.052011456
177	0x3cc02b4a	0.023458142
178	0x3e2c8d9a	0.16850892
179	0x3e06ddb6	0.13170514
180	0x3c94ed29	0.018179493
181	0xbd8bc10b	-0.068239294
182	0x3c80e9db	0.015736511
183	0x3cbc6470	0.022997111
184	0x3d80db8f	0.062918775
185	0xbdbc8c2a	-0.09206422
186	0xbda54571	-0.080698855
187	0x3c400695	0.011720319
188	0x3d936dd0	0.071986794
189	0x3da447d4	0.08021513
190	0xbd48f793	-0.04906423
191	0xbc7cbfc3	-0.015426579
192	0x3db32a35	0.08748285
193	0xbc054539	-0.00813418
194	0xbd9e6348	-0.0773378
195	0x3d4fa00e	0.05068975
196	0xbdd4f754	-0.103987366
197	0x3dc4f18e	0.096163854
198	0xbd8543fa	-0.06507106
199	0x3da9ca01	0.08290482
200	0xbe3c136e	-0.18366787
201	0x3e2e8351	0.1704228
202	0x3ce8b598	0.028406903
203	0x3d687cce	0.056759648
204	0xbb3e3c31	-0.0029027576
205	0x3d8b2f9e	0.06796192
206	0xbd1a6a43	-0.037698995
207	0xbced987b	-0.029003372
208	0xbd8be8a6	-0.068314835
209	0xbddcf159	-0.10788221
210	0x3d884672	0.066540614
211	0x3d58280f	0.052772578
212	0x3d6a8736	0.057257853
213	0xbd5ebca7	-0.05437913
214	0x3d386b33	0.04502411
215	0x3d82e515	0.0639135
216	0x3ce9d787	0.028545154
217	0x3e0c9e4e	0.13732263
218	0x3e058fc0	0.13043118
219	0x3d6669c8	0.056253225
220	0xbda359f2	-0.0797614
221	0xbceaf4c5	-0.028681168
222	0xbd270c1e	-0.04078304
223	0xbc362645	-0.011117523
224	0x3d0aa582	0.033849247
225	0xbd55d39d	-0.052203763
226	0x3cbeabe9	0.023275333
227	0x3d520ff1	0.051284734
228	0xbc82e382	-0.015977625
229	0xbc1f1d9c	-0.009711649
230	0xbd863792	-0.06553568
231	0x3d90f1ce	0.070773706
232	0xbc8e6228	-0.017380789
233	0xbd176d18	-0.036969274
234	0xbd30b7e0	-0.043144107
235	0x3d367df5	0.044553716
236	0x3d2a034f	0.04150706
237	0x3d2d0c30	0.04224795
238	0xbcbe1d1a	-0.023207236
239	0xbca4a121	-0.020096363
240	0x3b2fb9a4	0.0026813531
241	0xbdf5248b	-0.11969861
242	0x3c8dab1f	0.017293511
243	0x3c096a03	0.008387092
244	0xbd0ff6d2	-0.035147496
245	0xbd155c96	-0.03646525
246	0xbc1797c7	-0.009252495
247	0x3d7d5ca2	0.06185592
248	0x3d020730	0.031745136
249	0xbd159090	-0.03651482
250	0xbafa73ae	-0.0019107962
251	0x3dc65ab1	0.09685267
252	0xbd269ca7	-0.04067674
253	0xbe22635d	-0.15858217
254	0xbcff6c0b	-0.031179449
255	0x3c356ea8	0.011073746

model1.3.conv.bias f4 [16]
0	0x3bc150e6	0.0058995364
1	0x3c1ed67b	0.009694691
2	0xbb8799eb	-0.0041382215
3	0xbc64af61	-0.013957829
4	0xbcbd02d4	-0.023072638
5	0xbc879854	-0.016552128
6	0xbbf4499f	-0.0074550654
7	0xbd36e381	-0.04465056
8	0xbd04c993	-0.0324188
9	0x3ccdabba	0.0251063
10	0xba03c331	-0.0005026339
11	0x3b8fd627	0.0043895426
12	0x3d1a2523	0.037633073
13	0x3d02584d	0.03182249
14	0x3cb861c3	0.022507554
15	0xbd37502e	-0.0447542

model1.3.batch_norm.weight f4 [16]
0	0x3eaba027	0.33520624
1	0x3eddf366	0.4334976
2	0x3ee44d62	0.44590288
3	0x3ec8fde6	0.3925621
4	0x3ec60990	0.3867917
5	0x3ee8860a	0.45414764
6	0x3ede1385	0.43374267
7	0x3efd2b60	0.49447155
8	0x3f037b84	0.51360345
9	0x3ee5e8ec	0.44904268
10	0x3eeaf751	0.45891812
11	0x3f00d5c8	0.50326204
12	0x3f056a00	0.5211487
13	0x3ef0773d	0.46965972
14	0x3ee0e6a4	0.43925965
15	0x3ee6272c	0.4495176

model1.3.batch_norm.bias f4 [16]
0	0xbd57ff4e	-0.052733712
1	0xbd08c5bb	-0.033391695
2	0xbd735698	-0.059408754
3	0xbb841e18	-0.0040319078
4	0xbd766f1c	-0.060164556
5	0xbc992133	-0.018692588
6	0x3ccdf407	0.025140775
7	0xbe0b77a2	-0.13619855
8	0xbe093856	-0.13400397
9	0x3c927e75	0.017882565
10	0x3c6e2edc	0.014537539
11	0xbe65619e	-0.22400519
12	0xbe0600a5	-0.13086183
13	0xbaf2befb	-0.0018520051
14	0x3af7124e	0.001885006
15	0x3d30e8a9	0.043190632

model1.3.batch_norm.running_mean f4 [16]
0	0xbeb14e62	-0.34630114
1	0xbe4ff33d	-0.20307632
2	0x3f2a2873	0.6646797
3	0xbfa51a41	-1.2898637
4	0x3e83be4f	0.2573113
5	0x3d9f3293	0.07773318
6	0xbed05ba0	-0.40694904
7	0x3edfb580	0.4369316
8	0xbf94917c	-1.1606898
9	0xbf8af9ed	-1.0857521
10	0xbf5cf968	-0.86318064
11	0xbf81b65a	-1.0133774
12	0xbe99484f	-0.2993798
13	0xbe5102d4	-0.20411235
14	0xbfb9f558	-1.4527998
15	0x3ebecb2e	0.3726439

model1.3.batch_norm.running_var f4 [16]
0	0x3fddf98c	1.7341781
1	0x3ff723a9	1.9307758
2	0x3fd9af84	1.7006688
3	0x3fc26618	1.5187407
4	0x3ffea1ef	1.9893168
5	0x40146194	2.3184557
6	0x40248f60	2.571251
7	0x3f8fa1bb	1.1221231
8	0x401d1a60	2.4547348
9	0x40366bc8	2.8503284
10	0x4006221b	2.0958316
11	0x3f99bcec	1.2010779
12	0x3fc28998	1.519824
13	0x405bda78	3.4352093
14	0x40467a81	3.101227
15	0x4000db5a	2.0133882

model1.4.conv.weight f4 [16, 16, 3, 3, 3]
0	0x3cd4e07f	0.025985954
1	0xbda6737a	-0.08127494
2	0x3cceabbd	0.025228376
3	0xbe2550b6	-0.1614407
4	0x3dfb8723	0.12281635
5	0xbbc91bd6	-0.0061373515
6	0xbd1e74c7	-0.038685586
7	0x3b9329ca	0.0044910656
8	0x3bda93f4	0.0066704694
9	0x3bf4ee83	0.007474722
10	0x3de6df48	0.11273056
11	0x3dea773f	0.11448526
12	0xbe06fc8e	-0.1318228
13	0x3e13bd92	0.14427784
14	0x3b4fa4b3	0.0031683862
15	0x3c4f8528	0.012666024
16	0x3dab1520	0.08353639
17	0xbcf99af0	-0.030469388
18	0xbd2aa0c7	-0.041657235
19	0xbd2db1db	-0.042405944
20	0xbd226af8	-0.039652795
21	0x3c3453b8	0.011006288
22	0x3d3683fa	0.044559456
23	0x3be8fd6d	0.007110289
24	0xbab72e48	-0.0013975585
25	0xbc85822f	-0.016297428
26	0xbd6bfcd3	-0.05761416
27	0xbcb67dad	-0.022276724
28	0xbcc1fbb2	-0.023679588
29	0xbd9f747d	-0.0778589
30	0x3d9dbab0	0.077016234
31	0x3d18a63b	0.037267905
32	0x3bf60206	0.0075075654
33	0x3d8237ad	0.063582756
34	0xbd925dbe	-0.07146786
35	0xbd885ccb	-0.06658324
36	0x3b8fcbdc	0.0043883156
37	0x3cde5d7c	0.027144186
38	0x3d9e1489	0.077187605
39	0x3e120052	0.14257935
40	0xbc1e5e34	-0.009666014
41	0x3de46992	0.111529484
42	0xbd430e57	-0.047621097
43	0x3d9f5f8c	0.07781896
44	0xbd23e003	-0.040008556
45	0xbbc21be3	-0.0059237345
46	0x3c495b8b	0.012289892
47	0x3c6bc93b	0.014391239
48	0xbbe3c331	-0.006950759
49	0x3d6e3a15	0.05816086
50	0x3cc9d1a3	0.024636095
51	0x3bc72b83	0.006078185
52	0xbdc63524	-0.096781045
53	0xb9226011	-0.00015485311
54	0x3b7b16fc	0.003831326
55	0x3c0fb663	0.008771512
56	0x3bfdb075	0.0077419826
57	0xbdd1f079	-0.10250945
58	0xbda3b93c	-0.07994315
59	0x3d9b97a5	0.07597283
60	0x3de8f9fa	0.11375804
61	0xbd937332	-0.07199706
62	0x3d2c03c6	0.041995786
63	0xbb0562f0	-0.002035316
64	0x3dfde12d	0.123964645
65	0xbda576d2	-0.08079304
66	0x3dc1c6fb	0.09461781
67	0xbd73dd02	-0.05953694
68	0xbd80e46b	-0.06293567
69	0x3cdaa3af	0.026689379
70	0xbbdc188b	-0.006716793
71	0x3bd92b59	0.006627482
72	0x3d44b53c	0.0480244
73	0x3c29da41	0.010366977
74	0xbda71946	-0.081591174
75	0xbe1a250f	-0.15053199
76	0xbd9d1fce	-0.07672082
77	0xbc91f511	-0.017817052
78	0x3c95435f	0.018220602
79	0xbdc8057e	-0.097666726
80	0x3dc9d732	0.098554984
81	0x3d68cdf7	0.05683705
82	0xbdf1077e	-0.11769007
83	0xbdcdbabb	-0.10045382
84	0xbd5cdca1	-0.053921346
85	0x3e04e93a	0.12979594
86	0x3e04f569	0.12984242
87	0xbd4c34a7	-0.0498549
88	0xbcac25ba	-0.021014083
89	0x3d213f6e	0.039367132
90	0xbd47fb01	-0.04882336
91	0x3c5c99ee	0.013464434
92	0x3d05222d	0.032503296
93	0x3dc27628	0.09495193
94	0x3ce5739f	0.028009234
95	0x3d4d0238	0.050050944
96	0xbdb8065a	-0.089855865
97	0x3d71166c	0.058859274
98	0x3bebaa9b	0.0071919686
99	0x3c73c658	0.014878832
100	0xbc9fad18	-0.019491717
101	0xbc8304b8	-0.015993461
102	0xbdc53724	-0.09629658
103	0x3cd2a7ff	0.025714872
104	0x3d62b0e3	0.055344474
105	0xbd3c9fba	-0.046050765
106	0x3d92f622	0.07175852
107	0x3c2188d5	0.009859283
108	0xbc894e51	-0.016760977
109	0xbd90dc87	-0.07073312
110	0xbd8471e7	-0.06467038
111	0xbcffc9f1	-0.031224223
112	0x3dd777aa	0.10520871
113	0xbdfad898	-0.12248343
114	0x3db115d6	0.08646743
115	0x3c79cf19	0.01524713
116	0xbd2bfd56	-0.041989647
117	0xbe0575ff	-0.13033293
118	0xbd966612	-0.07343687
119	0x3d83e1e7	0.06439572
120	0x3bce6df2	0.0062997276
121	0xbdc73a91	-0.097279675
122	0x3c9a4bc6	0.01883496
123	0x3c031a78	0.008001916
124	0x3d6a2658	0.057165474
125	0xbe11225d	-0.14173265
126	0xbcc9c301	-0.024629118
127	0xbd17b23d	-0.037035216
128	0xbc88ce95	-0.016700068
129	0xbd2ae74f	-0.0417245
130	0xbc3a811e	-0.011383323
131	0xbd0d611f	-0.03451645
132	0x3d8c7b10	0.0685941
133	0x3c8525c4	0.01625336
134	0xbd7d996c	-0.061913893
135	0xbd9b2b96	-0.07576673
136	0x3c9b5e0e	0.018965747
137	0x3a9ae0b6	0.0011816237
138	0x3cf3b567	0.029749585
139	0xbcaf3c91	-0.021391185
140	0xbca5a2b7	-0.02021919
141	0x3a5b6e82	0.0008370654
142	0x3d917d90	0.07104027
143	0x3d6c47ea	0.05768577
144	0x3d71c1ec	0.05902283
145	0xbe5ae7b1	-0.21377446
146	0xbdf4b20a	-0.11948021
147	0xbd6bcf6c	-0.05757086
148	0x3e06f91d	0.13180967
149	0x3d9e50e8	0.077302754
150	0x3de0c522	0.109751
151	0xbb8dca82	-0.0043271193
152	0x3dd5fc68	0.10448533
153	0xbd947c0e	-0.07250224
154	0x3ce15a94	0.027509011
155	0xbe2f19ac	-0.17099637
156	0xbd3dc3a6	-0.046329163
157	0x3dbdc0e5	0.09265307
158	0x3d19f5cd	0.03758793
159	0x3c04c5e1	0.008103819
160	0xbd620380	-0.05517912
161	0x3c673c1a	0.01411345
162	0xbcd35c6c	-0.025800906
163	0x3d995e97	0.07488745
164	0xbd7037bd	-0.058646906
165	0x3c993a9d	0.018704707
166	0xbdbb4065	-0.09143142
167	0x3bb924b0	0.0056501254
168	0xbd220710	-0.039557517
169	0xbd05e9e0	-0.032693744
170	0xbc17929c	-0.009251263
171	0x3c48a006	0.012245184
172	0xbca83b5c	-0.020536117
173	0x3b02814b	0.001991349
174	0xbe28ccff	-0.1648445
175	0x3d8afe66	0.06786804
176	0x3d5509f7	0.052011456
177	0x3cc02b4a	0.023458142
178	0x3e2c8d9a	0.16850892
179	0x3e06ddb6	0.13170514
180	0x3c94ed29	0.018179493
181	0xbd8bc10b	-0.068239294
182	0x3c80e9db	0.015736511
183	0x3cbc6470	0.022997111
184	0x3d80db8f	0.062918775
185	0xbdbc8c2a	-0.09206422
186	0xbda54571	-0.080698855
187	0x3c400695	0.011720319
188	0x3d936dd0	0.071986794
189	0x3da447d4	0.08021513
190	0xbd48f793	-0.04906423
191	0xbc7cbfc3	-0.015426579
192	0x3db32a35	0.08748285
193	0xbc054539	-0.00813418
194	0xbd9e6348	-0.0773378
195	0x3d4fa00e	0.05068975
196	0xbdd4f754	-0.103987366
197	0x3dc4f18e	0.096163854
198	0xbd8543fa	-0.06507106
199	0x3da9ca01	0.08290482
200	0xbe3c136e	-0.18366787
201	0x3e2e8351	0.1704228
202	0x3ce8b598	0.028406903
203	0x3d687cce	0.056759648
204	0xbb3e3c31	-0.0029027576
205	0x3d8b2f9e	0.06796192
206	0xbd1a6a43	-0.037698995
207	0xbced987b	-0.029003372
208	0xbd8be8a6	-0.068314835
209	0xbddcf159	-0.10788221
210	0x3d884672	0.066540614
211	0x3d58280f	0.052772578
212	0x3d6a8736	0.057257853
213	0xbd5ebca7	-0.05437913
214	0x3d386b33	0.04502411
215	0x3d82e515	0.0639135
216	0x3ce9d787	0.028545154
217	0x3e0c9e4e	0.13732263
218	0x3e058fc0	0.13043118
219	0x3d6669c8	0.056253225
220	0xbda359f2	-0.0797614
221	0xbceaf4c5	-0.028681168
222	0xbd270c1e	-0.04078304
223	0xbc362645	-0.011117523
224	0x3d0aa582	0.033849247
225	0xbd55d39d	-0.052203763
226	0x3cbeabe9	0.023275333
227	0x3d520ff1	0.051284734
228	0xbc82e382	-0.015977625
229	0xbc1f1d9c	-0.009711649
230	0xbd863792	-0.06553568
231	0x3d90f1ce	0.070773706
232	0xbc8e6228	-0.017380789
233	0xbd176d18	-0.036969274
234	0xbd30b7e0	-0.043144107
235	0x3d367df5	0.044553716
236	0x3d2a034f	0.04150706
237	0x3d2d0c30	0.04224795
238	0xbcbe1d1a	-0.023207236
239	0xbca4a121	-0.020096363
240	0x3b2fb9a4	0.0026813531
241	0xbdf5248b	-0.11969861
242	0x3c8dab1f	0.017293511
243	0x3c096a03	0.008387092
244	0xbd0ff6d2	-0.035147496
245	0xbd155c96	-0.03646525
246	0xbc1797c7	-0.009252495
247	0x3d7d5ca2	0.06185592
248	0x3d020730	0.031745136
249	0xbd159090	-0.03651482
250	0xbafa73ae	-0.0019107962
251	0x3dc65ab1	0.09685267
252	0xbd269ca7	-0.04067674
253	0xbe22635d	-0.15858217
254	0xbcff6c0b	-0.031179449
255	0x3c356ea8	0.011073746

model1.4.conv.bias f4 [16]
0	0x3bc150e6	0.0058995364
1	0x3c1ed67b	0.009694691
2	0xbb8799eb	-0.0041382215
3	0xbc64af61	-0.013957829
4	0xbcbd02d4	-0.023072638
5	0xbc879854	-0.016552128
6	0xbbf4499f	-0.0074550654
7	0xbd36e381	-0.04465056
8	0xbd04c993	-0.0324188
9	0x3ccdabba	0.0251063
10	0xba03c331	-0.0005026339
11	0x3b8fd627	0.0043895426
12	0x3d1a2523	0.037633073
13	0x3d02584d	0.03182249
14	0x3cb861c3	0.022507554
15	0xbd37502e	-0.0447542

model1.4.batch_norm.weight f4 [16]
0	0x3eaba027	0.33520624
1	0x3eddf366	0.4334976
2	0x3ee44d62	0.44590288
3	0x3ec8fde6	0.3925621
4	0x3ec60990	0.3867917
5	0x3ee8860a	0.45414764
6	0x3ede1385	0.43374267
7	0x3efd2b60	0.49447155
8	0x3f037b84	0.51360345
9	0x3ee5e8ec	0.44904268
10	0x3eeaf751	0.45891812
11	0x3f00d5c8	0.50326204
12	0x3f056a00	0.5211487
13	0x3ef0773d	0.46965972
14	0x3ee0e6a4	0.43925965
15	0x3ee6272c	0.4495176

model1.4.batch_norm.bias f4 [16]
0	0xbd57ff4e	-0.052733712
1	0xbd08c5bb	-0.033391695
2	0xbd735698	-0.059408754
3	0xbb841e18	-0.0040319078
4	0xbd766f1c	-0.060164556
5	0xbc992133	-0.018692588
6	0x3ccdf407	0.025140775
7	0xbe0b77a2	-0.13619855
8	0xbe093856	-0.13400397
9	0x3c927e75	0.017882565
10	0x3c6e2edc	0.014537539
11	0xbe65619e	-0.22400519
12	0xbe0600a5	-0.13086183
13	0xbaf2befb	-0.0018520051
14	0x3af7124e	0.001885006
15	0x3d30e8a9	0.043190632

model1.4.batch_norm.running_mean f4 [16]
0	0xbeb14e62	-0.34630114
1	0xbe4ff33d	-0.20307632
2	0x3f2a2873	0.6646797
3	0xbfa51a41	-1.2898637
4	0x3e83be4f	0.2573113
5	0x3d9f3293	0.07773318
6	0xbed05ba0	-0.40694904
7	0x3edfb580	0.4369316
8	0xbf94917c	-1.1606898
9	0xbf8af9ed	-1.0857521
10	0xbf5cf968	-0.86318064
11	0xbf81b65a	-1.0133774
12	0xbe99484f	-0.2993798
13	0xbe5102d4	-0.20411235
14	0xbfb9f558	-1.4527998
15	0x3ebecb2e	0.3726439

model1.4.batch_norm.running_var f4 [16]
0	0x3fddf98c	1.7341781
1	0x3ff723a9	1.9307758
2	0x3fd9af84	1.7006688
3	0x3fc26618	1.5187407
4	0x3ffea1ef	1.9893168
5	0x40146194	2.3184557
6	0x40248f60	2.571251
7	0x3f8fa1bb	1.1221231
8	0x401d1a60	2.4547348
9	0x40366bc8	2.8503284
10	0x4006221b	2.0958316
11	0x3f99bcec	1.2010779
12	0x3fc28998	1.519824
13	0x405bda78	3.4352093
14	0x40467a81	3.101227
15	0x4000db5a	2.0133882

model1.5.conv.weight f4 [16, 16, 3, 3, 3]
0	0x3cd4e07f	0.025985954
1	0xbda6737a	-0.08127494
2	0x3cceabbd	0.025228376
3	0xbe2550b6	-0.1614407
4	0x3dfb8723	0.12281635
5	0xbbc91bd6	-0.0061373515
6	0xbd1e74c7	-0.038685586
7	0x3b9329ca	0.0044910656
8	0x3bda93f4	0.0066704694
9	0x3bf4ee83	0.007474722
10	0x3de6df48	0.11273056
11	0x3dea773f	0.11448526
12	0xbe06fc8e	-0.1318228
13	0x3e13bd92	0.14427784
14	0x3b4fa4b3	0.0031683862
15	0x3c4f8528	0.012666024
16	0x3dab1520	0.08353639
17	0xbcf99af0	-0.030469388
18	0xbd2aa0c7	-0.041657235
19	0xbd2db1db	-0.042405944
20	0xbd226af8	-0.039652795
21	0x3c3453b8	0.011006288
22	0x3d3683fa	0.044559456
23	0x3be8fd6d	0.007110289
24	0xbab72e48	-0.0013975585
25	0xbc85822f	-0.016297428
26	0xbd6bfcd3	-0.05761416
27	0xbcb67dad	-0.022276724
28	0xbcc1fbb2	-0.023679588
29	0xbd9f747d	-0.0778589
30	0x3d9dbab0	0.077016234
31	0x3d18a63b	0.037267905
32	0x3bf60206	0.0075075654
33	0x3d8237ad	0.063582756
34	0xbd925dbe	-0.07146786
35	0xbd885ccb	-0.06658324
36	0x3b8fcbdc	0.0043883156
37	0x3cde5d7c	0.027144186
38	0x3d9e1489	0.077187605
39	0x3e120052	0.14257935
40	0xbc1e5e34	-0.009666014
41	0x3de46992	0.111529484
42	0xbd430e57	-0.047621097
43	0x3d9f5f8c	0.07781896
44	0xbd23e003	-0.040008556
45	0xbbc21be3	-0.0059237345
46	0x3c495b8b	0.012289892
47	0x3c6bc93b	0.014391239
48	0xbbe3c331	-0.006950759
49	0x3d6e3a15	0.05816086
50	0x3cc9d1a3	0.024636095
51	0x3bc72b83	0.006078185
52	0xbdc63524	-0.096781045
53	0xb9226011	-0.00015485311
54	0x3b7b16fc	0.003831326
55	0x3c0fb663	0.008771512
56	0x3bfdb075	0.0077419826
57	0xbdd1f079	-0.10250945
58	0xbda3b93c	-0.07994315
59	0x3d9b97a5	0.07597283
60	0x3de8f9fa	0.11375804
61	0xbd937332	-0.07199706
62	0x3d2c03c6	0.041995786
63	0xbb0562f0	-0.002035316
64	0x3dfde12d	0.123964645
65	0xbda576d2	-0.08079304
66	0x3dc1c6fb	0.09461781
67	0xbd73dd02	-0.05953694
68	0xbd80e46b	-0.06293567
69	0x3cdaa3af	0.026689379
70	0xbbdc188b	-0.006716793
71	0x3bd92b59	0.006627482
72	0x3d44b53c	0.0480244
73	0x3c29da41	0.010366977
74	0xbda71946	-0.081591174
75	0xbe1a250f	-0.15053199
76	0xbd9d1fce	-0.07672082
77	0xbc91f511	-0.017817052
78	0x3c95435f	0.018220602
79	0xbdc8057e	-0.097666726
80	0x3dc9d732	0.098554984
81	0x3d68cdf7	0.05683705
82	0xbdf1077e	-0.11769007
83	0xbdcdbabb	-0.10045382
84	0xbd5cdca1	-0.053921346
85	0x3e04e93a	0.12979594
86	0x3e04f569	0.12984242
87	0xbd4c34a7	-0.0498549
88	0xbcac25ba	-0.021014083
89	0x3d213f6e	0.039367132
90	0xbd47fb01	-0.04882336
91	0x3c5c99ee	0.013464434
92	0x3d05222d	0.032503296
93	0x3dc27628	0.09495193
94	0x3ce5739f	0.028009234
95	0x3d4d0238	0.050050944
96	0xbdb8065a	-0.089855865
97	0x3d71166c	0.058859274
98	0x3bebaa9b	0.0071919686
99	0x3c73c658	0.014878832
100	0xbc9fad18	-0.019491717
101	0xbc8304b8	-0.015993461
102	0xbdc53724	-0.09629658
103	0x3cd2a7ff	0.025714872
104	0x3d62b0e3	0.055344474
105	0xbd3c9fba	-0.046050765
106	0x3d92f622	0.07175852
107	0x3c2188d5	0.009859283
108	0xbc894e51	-0.016760977
109	0xbd90dc87	-0.07073312
110	0xbd8471e7	-0.06467038
111	0xbcffc9f1	-0.031224223
112	0x3dd777aa	0.10520871
113	0xbdfad898	-0.12248343
114	0x3db115d6	0.08646743
115	0x3c79cf19	0.01524713
116	0xbd2bfd56	-0.041989647
117	0xbe0575ff	-0.13033293
118	0xbd966612	-0.07343687
119	0x3d83e1e7	0.06439572
120	0x3bce6df2	0.0062997276
121	0xbdc73a91	-0.097279675
122	0x3c9a4bc6	0.01883496
123	0x3c031a78	0.008001916
124	0x3d6a2658	0.057165474
125	0xbe11225d	-0.14173265
126	0xbcc9c301	-0.024629118
127	0xbd17b23d	-0.037035216
128	0xbc88ce95	-0.016700068
129	0xbd2ae74f	-0.0417245
130	0xbc3a811e	-0.011383323
131	0xbd0d611f	-0.03451645
132	0x3d8c7b10	0.0685941
133	0x3c8525c4	0.01625336
134	0xbd7d996c	-0.061913893
135	0xbd9b2b96	-0.07576673
136	0x3c9b5e0e	0.018965747
137	0x3a9ae0b6	0.0011816237
138	0x3cf3b567	0.029749585
139	0xbcaf3c91	-0.021391185
140	0xbca5a2b7	-0.02021919
141	0x3a5b6e82	0.0008370654
142	0x3d917d90	0.07104027
143	0x3d6c47ea	0.05768577
144	0x3d71c1ec	0.05902283
145	0xbe5ae7b1	-0.21377446
146	0xbdf4b20a	-0.11948021
147	0xbd6bcf6c	-0.05757086
148	0x3e06f91d	0.13180967
149	0x3d9e50e8	0.077302754
150	0x3de0c522	0.109751
151	0xbb8dca82	-0.0043271193
152	0x3dd5fc68	0.10448533
153	0xbd947c0e	-0.07250224
154	0x3ce15a94	0.027509011
155	0xbe2f19ac	-0.17099637
156	0xbd3dc3a6	-0.046329163
157	0x3dbdc0e5	0.09265307
158	0x3d19f5cd	0.03758793
159	0x3c04c5e1	0.008103819
160	0xbd620380	-0.05517912
161	0x3c673c1a	0.01411345
162	0xbcd35c6c	-0.025800906
163	0x3d995e97	0.07488745
164	0xbd7037bd	-0.058646906
165	0x3c993a9d	0.018704707
166	0xbdbb4065	-0.09143142
167	0x3bb924b0	0.0056501254
168	0xbd220710	-0.039557517
169	0xbd05e9e0	-0.032693744
170	0xbc17929c	-0.009251263
171	0x3c48a006	0.012245184
172	0xbca83b5c	-0.020536117
173	0x3b02814b	0.001991349
174	0xbe28ccff	-0.1648445
175	0x3d8afe66	0.06786804
176	0x3d5509f7	0.052011456
177	0x3cc02b4a	0.023458142
178	0x3e2c8d9a	0.16850892
179	0x3e06ddb6	0.13170514
180	0x3c94ed29	0.018179493
181	0xbd8bc10b	-0.068239294
182	0x3c80e9db	0.015736511
183	0x3cbc6470	0.022997111
184	0x3d80db8f	0.062918775
185	0xbdbc8c2a	-0.09206422
186	0xbda54571	-0.080698855
187	0x3c400695	0.011720319
188	0x3d936dd0	0.071986794
189	0x3da447d4	0.08021513
190	0xbd48f793	-0.04906423
191	0xbc7cbfc3	-0.015426579
192	0x3db32a35	0.08748285
193	0xbc054539	-0.00813418
194	0xbd9e6348	-0.0773378
195	0x3d4fa00e	0.05068975
196	0xbdd4f754	-0.103987366
197	0x3dc4f18e	0.096163854
198	0xbd8543fa	-0.06507106
199	0x3da9ca01	0.08290482
200	0xbe3c136e	-0.18366787
201	0x3e2e8351	0.1704228
202	0x3ce8b598	0.028406903
203	0x3d687cce	0.056759648
204	0xbb3e3c31	-0.0029027576
205	0x3d8b2f9e	0.06796192
206	0xbd1a6a43	-0.037698995
207	0xbced987b	-0.029003372
208	0xbd8be8a6	-0.068314835
209	0xbddcf159	-0.10788221
210	0x3d884672	0.066540614
211	0x3d58280f	0.052772578
212	0x3d6a8736	0.057257853
213	0xbd5ebca7	-0.05437913
214	0x3d386b33	0.04502411
215	0x3d82e515	0.0639135
216	0x3ce9d787	0.028545154
217	0x3e0c9e4e	0.13732263
218	0x3e058fc0	0.13043118
219	0x3d6669c8	0.056253225
220	0xbda359f2	-0.0797614
221	0xbceaf4c5	-0.028681168
222	0xbd270c1e	-0.04078304
223	0xbc362645	-0.011117523
224	0x3d0aa582	0.033849247
225	0xbd55d39d	-0.052203763
226	0x3cbeabe9	0.023275333
227	0x3d520ff1	0.051284734
228	0xbc82e382	-0.015977625
229	0xbc1f1d9c	-0.009711649
230	0xbd863792	-0.06553568
231	0x3d90f1ce	0.070773706
232	0xbc8e6228	-0.017380789
233	0xbd176d18	-0.036969274
234	0xbd30b7e0	-0.043144107
235	0x3d367df5	0.044553716
236	0x3d2a034f	0.04150706
237	0x3d2d0c30	0.04224795
238	0xbcbe1d1a	-0.023207236
239	0xbca4a121	-0.020096363
240	0x3b2fb9a4	0.0026813531
241	0xbdf5248b	-0.11969861
242	0x3c8dab1f	0.017293511
243	0x3c096a03	0.008387092
244	0xbd0ff6d2	-0.035147496
245	0xbd155c96	-0.03646525
246	0xbc1797c7	-0.009252495
247	0x3d7d5ca2	0.06185592
248	0x3d020730	0.031745136
249	0xbd159090	-0.03651482
250	0xbafa73ae	-0.0019107962
251	0x3dc65ab1	0.09685267
252	0xbd269ca7	-0.04067674
253	0xbe22635d	-0.15858217
254	0xbcff6c0b	-0.031179449
255	0x3c356ea8	0.011073746

model1.5.conv.bias f4 [16]
0	0x3bc150e6	0.0058995364
1	0x3c1ed67b	0.009694691
2	0xbb8799eb	-0.0041382215
3	0xbc64af61	-0.013957829
4	0xbcbd02d4	-0.023072638
5	0xbc879854	-0.016552128
6	0xbbf4499f	-0.0074550654
7	0xbd36e381	-0.04465056
8	0xbd04c993	-0.0324188
9	0x3ccdabba	0.0251063
10	0xba03c331	-0.0005026339
11	0x3b8fd627	0.0043895426
12	0x3d1a2523	0.037633073
13	0x3d02584d	0.03182249
14	0x3cb861c3	0.022507554
15	0xbd37502e	-0.0447542

model1.5.batch_norm.weight f4 [16]
0	0x3eaba027	0.33520624
1	0x3eddf366	0.4334976
2	0x3ee44d62	0.44590288
3	0x3ec8fde6	0.3925621
4	0x3ec60990	0.3867917
5	0x3ee8860a	0.45414764
6	0x3ede1385	0.43374267
7	0x3efd2b60	0.49447155
8	0x3f037b84	0.51360345
9	0x3ee5e8ec	0.44904268
10	0x3eeaf751	0.45891812
11	0x3f00d5c8	0.50326204
12	0x3f056a00	0.5211487
13	0x3ef0773d	0.46965972
14	0x3ee0e6a4	0.43925965
15	0x3ee6272c	0.4495176

model1.5.batch_norm.bias f4 [16]
0	0xbd57ff4e	-0.052733712
1	0xbd08c5bb	-0.033391695
2	0xbd735698	-0.059408754
3	0xbb841e18	-0.0040319078
4	0xbd766f1c	-0.060164556
5	0xbc992133	-0.018692588
6	0x3ccdf407	0.025140775
7	0xbe0b77a2	-0.13619855
8	0xbe093856	-0.13400397
9	0x3c927e75	0.017882565
10	0x3c6e2edc	0.014537539
11	0xbe65619e	-0.22400519
12	0xbe0600a5	-0.13086183
13	0xbaf2befb	-0.0018520051
14	0x3af7124e	0.001885006
15	0x3d30e8a9	0.043190632

model1.5.batch_norm.running_mean f4 [16]
0	0xbeb14e62	-0.34630114
1	0xbe4ff33d	-0.20307632
2	0x3f2a2873	0.6646797
3	0xbfa51a41	-1.2898637
4	0x3e83be4f	0.2573113
5	0x3d9f3293	0.07773318
6	0xbed05ba0	-0.40694904
7	0x3edfb580	0.4369316
8	0xbf94917c	-1.1606898
9	0xbf8af9ed	-1.0857521
10	0xbf5cf968	-0.86318064
11	0xbf81b65a	-1.0133774
12	0xbe99484f	-0.2993798
13	0xbe5102d4	-0.20411235
14	0xbfb9f558	-1.4527998
15	0x3ebecb2e	0.3726439

model1.5.batch_norm.running_var f4 [16]
0	0x3fddf98c	1.7341781
1	0x3ff723a9	1.9307758
2	0x3fd9af84	1.7006688
3	0x3fc26618	1.5187407
4	0x3ffea1ef	1.9893168
5	0x40146194	2.3184557
6	0x40248f60	2.571251
7	0x3f8fa1bb	1.1221231
8	0x401d1a60	2.4547348
9	0x40366bc8	2.8503284
10	0x4006221b	2.0958316
11	0x3f99bcec	1.2010779
12	0x3fc28998	1.519824
13	0x405bda78	3.4352093
14	0x40467a81	3.101227
15	0x4000db5a	2.0133882

model1.6.conv.weight f4 [16, 16, 3, 3, 3]
0	0x3cd4e07f	0.025985954
1	0xbda6737a	-0.08127494
2	0x3cceabbd	0.025228376
3	0xbe2550b6	-0.1614407
4	0x3dfb8723	0.12281635
5	0xbbc91bd6	-0.0061373515
6	0xbd1e74c7	-0.038685586
7	0x3b9329ca	0.0044910656
8	0x3bda93f4	0.0066704694
9	0x3bf4ee83	0.007474722
10	0x3de6df48	0.11273056
11	0x3dea773f	0.11448526
12	0xbe06fc8e	-0.1318228
13	0x3e13bd92	0.14427784
14	0x3b4fa4b3	0.0031683862
15	0x3c4f8528	0.012666024
16	0x3dab1520	0.08353639
17	0xbcf99af0	-0.030469388
18	0xbd2aa0c7	-0.041657235
19	0xbd2db1db	-0.042405944
20	0xbd226af8	-0.039652795
21	0x3c3453b8	0.011006288
22	0x3d3683fa	0.044559456
23	0x3be8fd6d	0.007110289
24	0xbab72e48	-0.0013975585
25	0xbc85822f	-0.016297428
26	0xbd6bfcd3	-0.05761416
27	0xbcb67dad	-0.022276724
28	0xbcc1fbb2	-0.023679588
29	0xbd9f747d	-0.0778589
30	0x3d9dbab0	0.077016234
31	0x3d18a63b	0.037267905
32	0x3bf60206	0.0075075654
33	0x3d8237ad	0.063582756
34	0xbd925dbe	-0.07146786
35	0xbd885ccb	-0.06658324
36	0x3b8fcbdc	0.0043883156
37	0x3cde5d7c	0.027144186
38	0x3d9e1489	0.077187605
39	0x3e120052	0.14257935
40	0xbc1e5e34	-0.009666014
41	0x3de46992	0.111529484
42	0xbd430e57	-0.047621097
43	0x3d9f5f8c	0.07781896
44	0xbd23e003	-0.040008556
45	0xbbc21be3	-0.0059237345
46	0x3c495b8b	0.012289892
47	0x3c6bc93b	0.014391239
48	0xbbe3c331	-0.006950759
49	0x3d6e3a15	0.05816086
50	0x3cc9d1a3	0.024636095
51	0x3bc72b83	0.006078185
52	0xbdc63524	-0.096781045
53	0xb9226011	-0.00015485311
54	0x3b7b16fc	0.003831326
55	0x3c0fb663	0.008771512
56	0x3bfdb075	0.0077419826
57	0xbdd1f079	-0.10250945
58	0xbda3b93c	-0.07994315
59	0x3d9b97a5	0.07597283
60	0x3de8f9fa	0.11375804
61	0xbd937332	-0.07199706
62	0x3d2c03c6	0.041995786
63	0xbb0562f0	-0.002035316
64	0x3dfde12d	0.123964645
65	0xbda576d2	-0.08079304
66	0x3dc1c6fb	0.09461781
67	0xbd73dd02	-0.05953694
68	0xbd80e46b	-0.06293567
69	0x3cdaa3af	0.026689379
70	0xbbdc188b	-0.006716793
71	0x3bd92b59	0.006627482
72	0x3d44b53c	0.0480244
73	0x3c29da41	0.010366977
74	0xbda71946	-0.081591174
75	0xbe1a250f	-0.15053199
76	0xbd9d1fce	-0.07672082
77	0xbc91f511	-0.017817052
78	0x3c95435f	0.018220602
79	0xbdc8057e	-0.097666726
80	0x3dc9d732	0.098554984
81	0x3d68cdf7	0.05683705
82	0xbdf1077e	-0.11769007
83	0xbdcdbabb	-0.10045382
84	0xbd5cdca1	-0.053921346
85	0x3e04e93a	0.12979594
86	0x3e04f569	0.12984242
87	0xbd4c34a7	-0.0498549
88	0xbcac25ba	-0.021014083
89	0x3d213f6e	0.039367132
90	0xbd47fb01	-0.04882336
91	0x3c5c99ee	0.013464434
92	0x3d05222d	0.032503296
93	0x3dc27628	0.09495193
94	0x3ce5739f	0.028009234
95	0x3d4d0238	0.050050944
96	0xbdb8065a	-0.089855865
97	0x3d71166c	0.058859274
98	0x3bebaa9b	0.0071919686
99	0x3c73c658	0.014878832
100	0xbc9fad18	-0.019491717
101	0xbc8304b8	-0.015993461
102	0xbdc53724	-0.09629658
103	0x3cd2a7ff	0.025714872
104	0x3d62b0e3	0.055344474
105	0xbd3c9fba	-0.046050765
106	0x3d92f622	0.07175852
107	0x3c2188d5	0.009859283
108	0xbc894e51	-0.016760977
109	0xbd90dc87	-0.07073312
110	0xbd8471e7	-0.06467038
111	0xbcffc9f1	-0.031224223
112	0x3dd777aa	0.10520871
113	0xbdfad898	-0.12248343
114	0x3db115d6	0.08646743
115	0x3c79cf19	0.01524713
116	0xbd2bfd56	-0.041989647
117	0xbe0575ff	-0.13033293
118	0xbd966612	-0.07343687
119	0x3d83e1e7	0.06439572
120	0x3bce6df2	0.0062997276
121	0xbdc73a91	-0.097279675
122	0x3c9a4bc6	0.01883496
123	0x3c031a78	0.008001916
124	0x3d6a2658	0.057165474
125	0xbe11225d	-0.14173265
126	0xbcc9c301	-0.024629118
127	0xbd17b23d	-0.037035216
128	0xbc88ce95	-0.016700068
129	0xbd2ae74f	-0.0417245
130	0xbc3a811e	-0.011383323
131	0xbd0d611f	-0.03451645
132	0x3d8c7b10	0.0685941
133	0x3c8525c4	0.01625336
134	0xbd7d996c	-0.061913893
135	0xbd9b2b96	-0.07576673
136	0x3c9b5e0e	0.018965747
137	0x3a9ae0b6	0.0011816237
138	0x3cf3b567	0.029749585
139	0xbcaf3c91	-0.021391185
140	0xbca5a2b7	-0.02021919
141	0x3a5b6e82	0.0008370654
142	0x3d917d90	0.07104027
143	0x3d6c47ea	0.05768577
144	0x3d71c1ec	0.05902283
145	0xbe5ae7b1	-0.21377446
146	0xbdf4b20a	-0.11948021
147	0xbd6bcf6c	-0.05757086
148	0x3e06f91d	0.13180967
149	0x3d9e50e8	0.077302754
150	0x3de0c522	0.109751
151	0xbb8dca82	-0.0043271193
152	0x3dd5fc68	0.10448533
153	0xbd947c0e	-0.07250224
154	0x3ce15a94	0.027509011
155	0xbe2f19ac	-0.17099637
156	0xbd3dc3a6	-0.046329163
157	0x3dbdc0e5	0.09265307
158	0x3d19f5cd	0.03758793
159	0x3c04c5e1	0.008103819
160	0xbd620380	-0.05517912
161	0x3c673c1a	0.01411345
162	0xbcd35c6c	-0.025800906
163	0x3d995e97	0.07488745
164	0xbd7037bd	-0.058646906
165	0x3c993a9d	0.018704707
166	0xbdbb4065	-0.09143142
167	0x3bb924b0	0.0056501254
168	0xbd220710	-0.039557517
169	0xbd05e9e0	-0.032693744
170	0xbc17929c	-0.009251263
171	0x3c48a006	0.012245184
172	0xbca83b5c	-0.020536117
173	0x3b02814b	0.001991349
174	0xbe28ccff	-0.1648445
175	0x3d8afe66	0.06786804
176	0x3d5509f7	0.052011456
177	0x3cc02b4a	0.023458142
178	0x3e2c8d9a	0.16850892
179	0x3e06ddb6	0.13170514
180	0x3c94ed29	0.018179493
181	0xbd8bc10b	-0.068239294
182	0x3c80e9db	0.015736511
183	0x3cbc6470	0.022997111
184	0x3d80db8f	0.062918775
185	0xbdbc8c2a	-0.09206422
186	0xbda54571	-0.080698855
187	0x3c400695	0.011720319
188	0x3d936dd0	0.071986794
189	0x3da447d4	0.08021513
190	0xbd48f793	-0.04906423
191	0xbc7cbfc3	-0.015426579
192	0x3db32a35	0.08748285
193	0xbc054539	-0.00813418
194	0xbd9e6348	-0.0773378
195	0x3d4fa00e	0.05068975
196	0xbdd4f754	-0.103987366
197	0x3dc4f18e	0.096163854
198	0xbd8543fa	-0.06507106
199	0x3da9ca01	0.08290482
200	0xbe3c136e	-0.18366787
201	0x3e2e8351	0.1704228
202	0x3ce8b598	0.028406903
203	0x3d687cce	0.056759648
204	0xbb3e3c31	-0.0029027576
205	0x3d8b2f9e	0.06796192
206	0xbd1a6a43	-0.037698995
207	0xbced987b	-0.029003372
208	0xbd8be8a6	-0.068314835
209	0xbddcf159	-0.10788221
210	0x3d884672	0.066540614
211	0x3d58280f	0.052772578
212	0x3d6a8736	0.057257853
213	0xbd5ebca7	-0.05437913
214	0x3d386b33	0.04502411
215	0x3d82e515	0.0639135
216	0x3ce9d787	0.028545154
217	0x3e0c9e4e	0.13732263
218	0x3e058fc0	0.13043118
219	0x3d6669c8	0.056253225
220	0xbda359f2	-0.0797614
221	0xbceaf4c5	-0.028681168
222	0xbd270c1e	-0.04078304
223	0xbc362645	-0.011117523
224	0x3d0aa582	0.033849247
225	0xbd55d39d	-0.052203763
226	0x3cbeabe9	0.023275333
227	0x3d520ff1	0.051284734
228	0xbc82e382	-0.015977625
229	0xbc1f1d9c	-0.009711649
230	0xbd863792	-0.06553568
231	0x3d90f1ce	0.070773706
232	0xbc8e6228	-0.017380789
233	0xbd176d18	-0.036969274
234	0xbd30b7e0	-0.043144107
235	0x3d367df5	0.044553716
236	0x3d2a034f	0.04150706
237	0x3d2d0c30	0.04224795
238	0xbcbe1d1a	-0.023207236
239	0xbca4a121	-0.020096363
240	0x3b2fb9a4	0.0026813531
241	0xbdf5248b	-0.11969861
242	0x3c8dab1f	0.017293511
243	0x3c096a03	0.008387092
244	0xbd0ff6d2	-0.035147496
245	0xbd155c96	-0.03646525
246	0xbc1797c7	-0.009252495
247	0x3d7d5ca2	0.06185592
248	0x3d020730	0.031745136
249	0xbd159090	-0.03651482
250	0xbafa73ae	-0.0019107962
251	0x3dc65ab1	0.09685267
252	0xbd269ca7	-0.04067674
253	0xbe22635d	-0.15858217
254	0xbcff6c0b	-0.031179449
255	0x3c356ea8	0.011073746

model1.6.conv.bias f4 [16]
0	0x3bc150e6	0.0058995364
1	0x3c1ed67b	0.009694691
2	0xbb8799eb	-0.0041382215
3	0xbc64af61	-0.013957829
4	0xbcbd02d4	-0.023072638
5	0xbc879854	-0.016552128
6	0xbbf4499f	-0.0074550654
7	0xbd36e381	-0.04465056
8	0xbd04c993	-0.0324188
9	0x3ccdabba	0.0251063
10	0xba03c331	-0.0005026339
11	0x3b8fd627	0.0043895426
12	0x3d1a2523	0.037633073
13	0x3d02584d	0.03182249
14	0x3cb861c3	0.022507554
15	0xbd37502e	-0.0447542
