models/conv3d/saved_models/lr_0.0001/epoch_7400.pt (torch, 189346 bytes, 102 tensors)

model1.0.weight f4 [16, 8, 3, 3, 3]
000000 5f 29 39 bc 7f ae d2 bb b8 77 f5 3c 7c 86 58 3d
       -0.011301368 -0.006429493 0.029964313 0.05286263
000010 9a fe b0 bc ba fe 80 3d 2b 6f d9 bc 5b a6 18 bd
       -0.021605778 0.06298585 -0.026542267 -0.037268024
000020 6d 9b 07 3d 6d 5a 3b ba 65 1a 9d 39 ca 94 de 3c
       0.03310721 -0.00071469584 0.0002996504 0.027170558
000030 18 ac a4 3d 00 d0 7b bd db db 34 3d 38 88 b9 bc
       0.08040637 -0.06147766 0.044154983 -0.022647962
000040 43 bb 01 3d 6e 07 86 3d 29 6d 83 3c c0 32 ad bd
       0.031672727 0.06544386 0.016043263 -0.084569454
000050 aa f8 64 3d 9b d6 9e 3d 9c c1 3b bd aa 90 53 3c
       0.055901207 0.077557765 -0.045838937 0.012912909
000060 13 6c 94 bc 1e 42 4d bc 29 21 a3 3c da 4a e7 3b
       -0.01811794 -0.012527971 0.019913273 0.0070584835
000070 f4 df 59 3c c0 ff 4e 3c 6c f6 f9 bb d5 46 a4 3b
       0.0132980235 0.012634218 -0.0076282527 0.0050133266
000080 ae 88 fc 3c f4 99 02 3d ac 2a 27 b9 f0 95 a7 bc
       0.030826893 0.031885102 -0.00015942258 -0.020457238
000090 2c ba 7f bd 73 d1 c6 bd 20 6f e0 bd 2c ce b9 3d
       -0.062433407 -0.09707918 -0.109586954 0.09072527
0000a0 08 0d 9d bc eb 87 49 3d 36 2c a3 bd 4d ad 0d 3e
       -0.019171253 0.049201887 -0.07967417 0.1383564
0000b0 05 6c 53 bd dd a1 c0 bc 90 3e ee 3c 3b f2 ed bc
       -0.051616687 -0.023514682 0.029082566 -0.029046169
0000c0 9c e5 27 3d fc 15 8d bd 70 40 e1 3b 7f 19 83 bd
       0.040990457 -0.06888959 0.0068741366 -0.06401347
0000d0 4b f2 2e 3c 97 08 35 bc 6e 0e fb 3b 01 eb 49 bd
       0.010677884 -0.011049411 0.0076616323 -0.049296383
0000e0 f5 fc 2c bc d7 19 fe bc 22 ec 71 3c ba 0d 68 bd
       -0.0105583565 -0.03101818 0.014765771 -0.056653716
0000f0 c8 46 81 3c e7 91 46 bc 26 2f bd bc 22 e5 fa bc
       0.015780821 -0.012119747 -0.023093771 -0.030626837
000100 de c7 d3 bc 16 cd ad 3c 8e 1b 78 3d 18 cc ca bb
       -0.02585214 0.021215957 0.060573153 -0.0061888807
000110 03 86 00 bc 41 73 80 bc 14 49 e1 3d 33 ea 08 bc
       -0.007844451 -0.015679957 0.11000267 -0.008356619
000120 0b b5 6c 3b 62 3d fe bc 27 72 fc 3c 1d 9b a6 3c
       0.0036118652 -0.031035129 0.03081615 0.020337636
000130 d2 60 8a 3c ae 82 6b bc 91 ef f6 bc e0 51 29 3c
       0.01689187 -0.014374418 -0.030143531 0.010334462
000140 86 00 ee bb f2 79 c9 bc ea e0 99 3d aa d8 d3 3a
       -0.007263246 -0.02459428 0.07513602 0.0016162593
000150 c2 1a 2d bc d8 bd 98 bc 79 e6 a4 3d 5e a3 4d 3d
       -0.010565462 -0.018645212 0.08051772 0.050204627
000160 81 5e 72 3c be 8e 54 bd 0b 39 bc 39 3b a4 c9 bc
       0.014793039 -0.051893942 0.00035900655 -0.024614444
000170 fb da 75 3d ea e2 12 3d c7 41 99 ba 85 26 06 bd
       0.06002329 0.035860933 -0.0011692577 -0.03275158
000180 12 f7 bc 3d 23 3f fb bc fb 1b ec 3b e0 da 78 3d
       0.092268124 -0.030669754 0.007205484 0.06075561
000190 06 78 a3 bc e9 2a 05 bd bf cd 72 3c 0c 41 94 bd
       -0.019954693 -0.032511625 0.0148195615 -0.07238969
0001a0 21 ac 29 bd e1 14 cd ba 7e 9e 80 3c 77 77 e3 3c
       -0.04142392 -0.0015646481 0.015700575 0.027766926
0001b0 29 6f d0 bd 7d 22 3e bb 47 7d 84 bc 0e a6 00 bc
       -0.10177452 -0.0029012256 -0.016173018 -0.0078520905
0001c0 cf e9 f8 bc 14 f1 00 3d a5 3d 22 bc e2 00 b9 3c
       -0.030384926 0.03147991 -0.0099023925 0.022583429
0001d0 cf ba 1a 3d f7 ff d1 bd 53 a9 db bc 1b 00 67 bd
       0.03777581 -0.102538995 -0.026814139 -0.056396585
0001e0 bc 38 0f be ac 36 1c be 9b 7f eb 3c 01 43 c2 3d
       -0.13986486 -0.1525523 0.02874737 0.09485436
0001f0 78 bb 88 bd d4 48 45 3c 56 c8 c3 bc 04 3f 15 bd
       -0.06676382 0.012041289 -0.023899239 -0.03643705
000200 6e 68 9f 3c d4 92 53 3c 4f 5f 83 3c 1f 1d 83 3d
       0.019458976 0.0129134245 0.016036658 0.06402039
000210 07 02 8a bc f5 4d 83 bd f3 39 cc bb bd 5b e4 3c
       -0.01684667 -0.064113535 -0.006232494 0.027875775
000220 e7 36 4a bd 32 0f 55 bc 0d d2 a6 3c 41 e8 0e 3c
       -0.049368765 -0.013004111 0.020363832 0.008722366
000230 62 2f 88 3c 8e 4f a2 bc 69 de 31 bd 09 a9 0f bd
       0.016624156 -0.019813325 -0.043424997 -0.035073314
000240 b8 8d 85 bd db 39 92 3c dd db 5a bd f9 cc 8f 3b
       -0.06521171 0.017849853 -0.053432334 0.0043884483
000250 e4 5b ac bc b9 8a e6 bc a9 72 a8 bd e3 ef ea 3d
       -0.02103991 -0.02814232 -0.08224995 0.11471536
000260 5e 56 85 3d c2 91 73 bc c1 25 0d bd 3e 6c 95 bc
       0.06510614 -0.014866294 -0.034459833 -0.01824009
000270 90 dc 6d bc 3e 7f f6 bc 3f ec 19 bc 9d 05 01 bd
       -0.014517918 -0.03008997 -0.009394704 -0.031499494
000280 39 cd c9 3c 32 06 1f bd bb 2b f7 bb ca 84 70 3d
       0.02463399 -0.038824268 -0.007543055 0.058720388
000290 17 ba a9 bb 16 d8 47 bc 09 80 da 3c c7 50 7c bd
       -0.0051796543 -0.012197515 0.02667238 -0.061600473
0002a0 60 c7 a5 bb a1 75 46 3c 11 1d 3f 3c 80 bf 1c bd
       -0.0050591677 0.012113006 0.011664645 -0.038268566
0002b0 9c d5 bb 3d 69 cf 61 bd 4f 8d 12 3d 7b 2e 10 be
       0.09171602 -0.055129442 0.035779294 -0.14080231
0002c0 e1 2c 59 be e2 10 c1 3c d3 6b ad be 55 58 9e bc
       -0.21208526 0.02356762 -0.33871326 -0.01932923
0002d0 b7 d9 53 bc 49 21 74 bb d1 a2 4c 3c 72 01 1a 3c
       -0.012930325 -0.0037251285 0.01248999 0.009399759
0002e0 17 77 05 bd 52 dc 44 bd 86 7b 87 bc 08 39 d8 bd
       -0.032584276 -0.048061676 -0.016538393 -0.10557753
0002f0 3a 3e 6f 3d dc d8 79 bd af 04 ed 3c 10 c0 5a bc
       0.058408953 -0.06099783 0.028932897 -0.013351455
000300 0d 1c 6e 3d 51 b6 1f 3d 2a e0 51 b9 8a 2c 55 3c
       0.05813222 0.03899223 -0.00020015301 0.013011107
000310 5f f8 2f bd 1c 80 12 3c 36 76 54 bd 9a cb 2d bd
       -0.042961475 0.0089416765 -0.051870547 -0.042430498
000320 3c 50 69 3c e9 91 9d bd 7e 15 cf bd c0 2e d4 bc
       0.014240321 -0.07693846 -0.10111521 -0.025901198
000330 4e 09 17 3c 9e 0c 02 3d d5 4e ab 3d 45 dd a3 bc
       0.009218527 0.031750314 0.083646454 -0.02000297
000340 31 42 10 3c cc a3 7f bc eb dc 28 3d 65 74 1c bd
       0.008804844 -0.015603017 0.04122631 -0.03819694
000350 cd 2a 32 bd 3e bf 7a bd 3a 04 9e bc 9d cb 5e 3a
       -0.04349785 -0.06121754 -0.019289125 0.00084989687
000360 3a c5 61 3d 3a 2a 79 bd 34 6b a9 bc 4b a6 54 bc
       0.05511973 -0.060831286 -0.020681001 -0.0129791
000370 09 1c 72 3d 2b 1b e9 bb c8 cc ad bc 12 8a 10 bd
       0.059108768 -0.0071138344 -0.021215811 -0.035287924
000380 40 15 1f 38 46 84 00 be 75 3d 47 bb c0 bb 8a bc
       3.7928345e-05 -0.12550458 -0.0030401621 -0.01693523
000390 db 7c 43 3c 1d bf b1 3d f6 43 0b 3d df e9 04 3e
       0.011931623 0.0867903 0.03400036 0.1297984
0003a0 12 7b a1 3d f9 eb 97 3b 4d 35 f7 bb f1 3d 01 bd
       0.07884802 0.0046362844 -0.0075441957 -0.031553213
0003b0 21 8f f9 bc 8e 00 3b bc f5 c2 c2 bb db 6e 71 3d
       -0.030463757 -0.0114137065 -0.005943651 0.05894361
0003c0 f5 2e e9 bc 4a f9 a8 3b 27 d8 57 3c b4 34 68 bc
       -0.028464774 0.0051566707 0.013174093 -0.014172722
0003d0 7a cc e7 bb 2d d6 7e bc 52 b3 ff bc 95 28 30 bd
       -0.007073936 -0.015553993 -0.031213436 -0.043007452
0003e0 1b 9b e1 3b 5c 7e 33 bd 30 7f 1d 3d 04 3c 5f 3d
       0.006884945 -0.043821678 0.038451374 0.054500595
0003f0 7f 66 6a bd b1 52 ae bc 57 ba 8e ba d8 b0 09 3e
       -0.057226654 -0.021279665 -0.0010889274 0.13446367

model1.0.bias f4 [16]
000000 76 ce 82 3e 20 31 7c 3e 43 a1 9c bd 97 28 b6 3d
       0.25548142 0.24628115 -0.07647946 0.08894461
000010 77 c2 70 3e 80 c8 3c 3c 2a 69 25 3e 99 3a 95 bc
       0.23511682 0.011522412 0.16153398 -0.018216418
000020 89 89 b8 3d 85 c1 a6 3d be b7 07 3e 77 6c d5 3d
       0.09010608 0.0814238 0.13253686 0.10421079
000030 43 49 29 3e fb bf 0a 3e 09 e0 45 3e c3 41 3e 3e
       0.16531853 0.13549797 0.19323744 0.18579774

model1.2.conv.weight f4 [16, 16, 3, 3, 3]
000000 c6 60 ac 3c fa 72 8c bd f6 33 bc 3c 58 e9 22 be
       0.021042239 -0.068578675 0.022973996 -0.15909326
000010 a9 9f 08 3e d2 8a 31 3c b2 c1 1c bd 6d 19 c8 bb
       0.13342156 0.01083632 -0.03827066 -0.0061065466
000020 00 81 06 3c 41 74 8c ba d6 45 f0 3d 3a 08 e4 3d
       0.008209467 -0.0010715799 0.1173207 0.111343816
000030 26 06 f7 bd b8 00 10 3e 43 d5 78 bc 40 20 e6 3c
       -0.120617196 0.14062774 -0.015187564 0.02809155
000040 2a 00 8b 3d 20 f8 00 bd 2c a9 3e bd b0 44 02 bd
       0.06787141 -0.03148663 -0.046548054 -0.031803787
000050 e1 dc b6 bc f4 da 5c 3b f3 7c 46 3d dc e7 6a bc
       -0.02232212 0.0033699842 0.048459005 -0.014337506
000060 04 b1 c2 b9 40 91 0e bc 17 b2 45 bd 8e f0 a4 bc
       -0.0003713445 -0.0087016225 -0.048265543 -0.020134237
000070 62 32 ca 3b 77 3e a8 bd 1d 25 a9 3d 4a 52 1b 3d
       0.006170557 -0.08215039 0.08259032 0.037920274
000080 c0 3a 12 3b c4 6e 3a 3d 91 91 59 bd 2f 95 93 bd
       0.002231285 0.04551579 -0.05311734 -0.07206189
000090 a6 92 56 3c ff ff c6 3c 8f 8a 85 3d af 3b 07 3e
       0.013096487 0.02429199 0.065205686 0.13206361
0000a0 7f 64 64 bc 05 db d3 3d 62 51 80 bd 07 7e bd 3d
       -0.013939976 0.10344509 -0.062655225 0.092525534
0000b0 fa 77 32 bd 17 1a c9 3a 6a 50 83 3c 00 e1 63 3c
       -0.04357145 0.0015342858 0.016029555 0.013908625
0000c0 b2 1a 2e bc a6 97 2a 3d bc 08 17 3d ef 5b 25 3b
       -0.010626482 0.04164853 0.036873564 0.0025231799
0000d0 08 5a ca bd 5d 9a 04 bc 08 77 6d ba 08 47 20 3c
       -0.09880453 -0.008093444 -0.00090585696 0.00978256
0000e0 6a 93 ad bc 98 78 9a bd 91 3b 99 bd 49 00 d1 3d
       -0.021188457 -0.07542533 -0.074820645 0.102051325
0000f0 38 3f f0 3d 0b a6 96 bd 50 8c 64 3d ee b5 bb ba
       0.11730808 -0.07355889 0.055797875 -0.0014321187
000100 93 9c de 3d 6a e5 d9 bd 2a 83 d2 3d 55 97 4c bd
       0.10869708 -0.106394604 0.10278924 -0.04994901
000110 48 7e 8f bd ed 60 c7 3c 25 c3 3f 3c 7e 27 3f bc
       -0.07006508 0.02433821 0.011704241 -0.0116671305
000120 0e 10 24 3d 28 3b ca 3c c5 82 b2 bd 15 ea 20 be
       0.040054373 0.024686411 -0.087163486 -0.15714295
000130 e5 a6 99 bd 81 51 0f bd 96 fc f4 3b eb 02 db bd
       -0.07502536 -0.034989838 0.0074763997 -0.10693916
000140 54 3f ba 3d 5f 53 68 3d b6 ab 03 be 3c 20 cb bd
       0.0909411 0.056720134 -0.12858471 -0.099182576
000150 de 75 3b bd be c8 f4 3d da 04 00 3e db ef 59 bd
       -0.045766704 0.11952351 0.1250185 -0.05320726
000160 96 56 54 bc 74 12 32 3d 9d e6 12 bd 40 1f e9 3c
       -0.012960097 0.04347463 -0.03586446 0.028457284
000170 f8 5b 34 3d 48 e3 c8 3d 00 c4 c8 3c 8a f6 50 3d
       0.04403302 0.098089755 0.024507523 0.051016368
000180 6f 46 a7 bd 9e 43 56 3d f4 96 9b 3c 3d 65 30 3b
       -0.08167731 0.05231058 0.018992878 0.0026915811
000190 d4 5a ba ba c1 ee c8 bc 7f 96 d0 bd 05 58 ef 3c
       -0.0014217743 -0.02452791 -0.10184955 0.029216776
0001a0 aa 2f 61 3d 3a a8 47 bd 4f cf 91 3d 30 8a 73 3c
       0.054977097 -0.048744418 0.07119619 0.014864489
0001b0 ff 34 25 bd 69 ab a8 bd ac 61 9b bd 2e 34 02 bd
       -0.040333744 -0.08235819 -0.07586989 -0.031788044
0001c0 f7 4a e6 3d 5b bd fe bd 19 01 ce 3d 5e a3 0d 3c
       0.11244767 -0.124384604 0.10058803 0.008644907
0001d0 c3 4c 48 bd af 32 01 be c2 4e 89 bd 04 97 80 3d
       -0.04890133 -0.1261699 -0.06704475 0.06278804
0001e0 08 5e 12 3c 78 59 b2 bd d7 38 36 bc dd 8d db 3b
       0.008933552 -0.08708471 -0.01112195 0.006700261
0001f0 ec ee 54 3d 72 1f 00 be d6 ae 13 bd 64 3d 7c bd
       0.051985666 -0.12511995 -0.03605541 -0.061581984
000200 40 ab 9b bc 07 59 04 bd fa 10 10 bc 35 f3 26 bd
       -0.019002557 -0.032311466 -0.00879311 -0.040759284
000210 a1 2c a4 3d 82 c6 dc 3c fe df 9e bd a8 fa 9d bd
       0.08016325 0.026950125 -0.07757567 -0.077138245
000220 75 08 21 3c d6 3b 8f bb 81 12 14 3d 02 d1 6b bc
       0.0098286765 -0.0043711467 0.03615046 -0.014393093
000230 02 6b ee bb d9 71 8a 3b cb 28 90 3d 59 cf 75 3d
       -0.00727594 0.0042249975 0.07039031 0.060012195
000240 4f 24 48 3d e7 c6 62 be bb 11 f5 bd 46 87 72 bd
       0.04886275 -0.22146188 -0.119662724 -0.059211038
000250 9f 4c f7 3d 0a 35 9d 3d cd 41 fa 3d 97 4e 5d ba
       0.12075161 0.07676132 0.12219582 -0.0008442192
000260 75 50 ca 3d 47 c7 9e bd 07 5c 17 3c 74 e6 33 be
       0.09878627 -0.07752853 0.00923825 -0.1756838
000270 fc fc 1f bd d5 58 c2 3d de be 24 3d 29 09 16 3d
       -0.039059624 0.094895996 0.040221088 0.03662983
000280 57 cc 86 bd 03 26 92 3c 79 d6 d5 bc 17 02 45 3d
       -0.065819435 0.017840391 -0.026103245 0.048097696
000290 c4 e3 75 bd 15 44 66 3c b0 2d c9 bd 65 b7 55 3b
       -0.060031667 0.014054318 -0.09823167 0.0032610532
0002a0 17 40 4c bd 42 a3 cb bc 38 69 9a bb 2c 5b 80 3c
       -0.04986581 -0.02485812 -0.00471225 0.015668474
0002b0 22 64 11 bc 94 93 3a 3b 07 3d 12 be 5f e3 90 3d
       -0.008873971 0.002846931 -0.14281093 0.070746176
0002c0 e4 da bd 3d ab b0 2d 3c 96 d5 24 3e 29 8b 07 3e
       0.09270266 0.010601203 0.16097102 0.13236679
0002d0 ca ab 82 3c a1 4e 94 bd 1c 5f 62 3c bd 79 1b 3d
       0.015951056 -0.0724156 0.013816621 0.037957896
0002e0 3f 21 5d 3d ca b7 98 bd ca df bc bd 89 bc ef 3c
       0.053986784 -0.0745693 -0.09222372 0.029264705
0002f0 61 56 92 3d d7 63 7e 3d 81 b6 0e bd 09 37 85 bc
       0.07145382 0.062106933 -0.034842018 -0.016261594
000300 34 91 8d 3d 66 d0 b3 bc 29 b2 99 bd f0 bf 28 3d
       0.06912461 -0.021949958 -0.075046845 0.04119867
000310 51 47 d2 bd 64 4b c5 3d ca 51 71 bd cd b9 c2 3d
       -0.10267509 0.0963352 -0.05891589 0.09508095
000320 92 05 26 be cf 05 2d 3e 02 a4 b6 3c c7 e1 5e 3d
       -0.16213062 0.16896747 0.022295002 0.054414537
000330 37 49 f6 bb 1e 2c 88 3d c7 03 c2 bc 72 c4 b9 bc
       -0.007516052 0.0664904 -0.023683442 -0.02267668
000340 ad 7c 98 bd 67 b6 ad bd 09 ec 85 3d 6a b7 49 3d
       -0.07445655 -0.08482056 0.06539161 0.049247183
000350 e3 ab 55 3d 0a 73 87 bd 8c 6f 11 3d 8b 00 91 3d
       0.052165877 -0.06613739 0.03550677 0.07080182
000360 33 e0 e1 3c 9e a9 08 3e 4e 7f 08 3e af c8 59 3d
       0.027572727 0.13345954 0.13329813 0.053169902
000370 57 bd b8 bd c6 3d aa bc 72 59 0a bd b7 38 0e bd
       -0.09020489 -0.020781409 -0.033776708 -0.034722056
000380 0c b4 04 3d 58 db 81 bd 86 4c 16 3d 43 47 10 3d
       0.03239827 -0.063406646 0.036694072 0.03522421
000390 24 af 45 ba 2a b3 2a bc 89 3d a5 bd 56 4d 8d 3d
       -0.00075410516 -0.010418693 -0.080683775 0.06899516
0003a0 a0 19 13 bc 5f 4e 32 bd 9c 8e 4c bd f3 12 64 3d
       -0.008978277 -0.04353177 -0.04994069 0.055682134
0003b0 69 0b 8b 3d 38 cc da 3c c8 8c 10 bd da e6 12 bb
       0.06789286 0.026708707 -0.03529051 -0.002241543
0003c0 83 50 c5 bb 46 58 f9 bd e2 ca 53 3c c0 97 b4 3b
       -0.0060215606 -0.1217504 0.012926789 0.005511254
0003d0 20 2e b7 bc 64 ec 01 bd 7e 04 a7 bb 8e b2 98 3d
       -0.022360861 -0.03171958 -0.005096971 0.074559316
0003e0 87 57 80 3c b5 ad 2f bd a0 03 89 bc 83 e7 d6 3d
       0.015666736 -0.04289027 -0.016725361 0.10493376
0003f0 6d bd 62 bd a0 53 1d be d8 67 37 bd 9b fe 8e 3c
       -0.05535643 -0.15363932 -0.044776767 0.01745539

model1.2.conv.bias f4 [16]
000000 73 12 c6 3b c9 c1 20 3c 50 35 87 bb 67 92 64 bc
       0.00604468 0.009811827 -0.0041262284 -0.013950921
000010 71 6e bb bc e4 5b 86 bc 5e de f1 bb 8b 33 36 bd
       -0.022879811 -0.016401239 -0.0073812446 -0.04448275
000020 70 da 04 bd dd 16 cd 3c 3d 0a 2a ba 3e 79 9f 3b
       -0.03243488 0.025035316 -0.0006486511 0.004866748
000030 bb 00 1a 3d fb 46 02 3d 3b 55 b9 3c 47 d6 36 bd
       0.037598353 0.031805974 0.022623649 -0.044637945

model1.2.batch_norm.weight f4 [16]
000000 c0 40 b5 3e 3b cd e2 3e b4 92 e8 3e 93 4a cf 3e
       0.35400963 0.44297203 0.45424426 0.40486583
000010 22 0f c9 3e 01 e3 ea 3e 81 a0 e2 3e a2 1d fc 3e
       0.39269358 0.45876315 0.4426308 0.49241358
000020 93 bb 02 3f fd b4 e2 3e c0 6c ec 3e 14 56 fd 3e
       0.51067466 0.44278708 0.4617672 0.49479735
000030 39 e5 04 3f 4e bd f2 3e 17 25 e3 3e c7 59 eb 3e
       0.51912266 0.47410053 0.44364235 0.45966932

model1.2.batch_norm.bias f4 [16]
000000 d9 6e 70 bd 62 b8 04 bd de ad 72 bd 94 e4 64 3b
       -0.058699463 -0.032402404 -0.059247844 0.0034926282
000010 f6 17 7b bd 9f c4 c5 bc 45 06 d1 3c 05 fd e3 bd
       -0.061302148 -0.024141608 0.025515685 -0.11132244
000020 64 a3 ee bd 39 f7 77 3c 13 72 28 3c 5c ee 52 be
       -0.11652258 0.015134626 0.010281104 -0.2059874
000030 3e f7 f7 bd 81 48 c4 3a 27 91 50 bb f8 83 13 3d
       -0.121077046 0.0014975221 -0.0031824799 0.036014527

model1.2.batch_norm.running_mean f4 [16]
000000 f7 f0 b3 be 0b a1 33 be bf e8 27 3f 20 b5 a7 bf
       -0.3514478 -0.17541902 0.6558952 -1.310215
000010 87 3f 57 3e 1d 11 e3 3d 3a 4d ef be 1a 46 00 3f
       0.21020328 0.110872485 -0.46738607 0.50106966
000020 81 63 94 bf 36 3f 94 bf 6b c7 71 bf 5f ca 7b bf
       -1.1592866 -1.158179 -0.9444491 -0.9835567
000030 e2 88 9e be 96 11 62 be 13 a5 c1 bf 65 bc 95 3e
       -0.30963808 -0.22077021 -1.5128502 0.29245296

model1.2.batch_norm.running_var f4 [16]
000000 8e 7a 00 40 a1 ec fb 3f e7 8b d8 3f 5c 72 ca 3f
       2.0074801 1.9681588 1.6917695 1.581615
000010 b7 13 fa 3f c7 61 16 40 6a b2 37 40 03 5e 9a 3f
       1.9537266 2.3497179 2.8702645 1.205994
000020 4b 41 2a 40 1d 4f 3d 40 9c 5f 0d 40 92 3e 95 3f
       2.6602352 2.9579537 2.2089605 1.165972
000030 9d ad d2 3f c8 3f 5d 40 af 18 4f 40 3d 0b 07 40
       1.6459233 3.457018 3.2358816 2.110061

model1.3.conv.weight f4 [16, 16, 3, 3, 3]
000000 c6 60 ac 3c fa 72 8c bd f6 33 bc 3c 58 e9 22 be
       0.021042239 -0.068578675 0.022973996 -0.15909326
000010 a9 9f 08 3e d2 8a 31 3c b2 c1 1c bd 6d 19 c8 bb
       0.13342156 0.01083632 -0.03827066 -0.0061065466
000020 00 81 06 3c 41 74 8c ba d6 45 f0 3d 3a 08 e4 3d
       0.008209467 -0.0010715799 0.1173207 0.111343816
000030 26 06 f7 bd b8 00 10 3e 43 d5 78 bc 40 20 e6 3c
       -0.120617196 0.14062774 -0.015187564 0.02809155
000040 2a 00 8b 3d 20 f8 00 bd 2c a9 3e bd b0 44 02 bd
       0.06787141 -0.03148663 -0.046548054 -0.031803787
000050 e1 dc b6 bc f4 da 5c 3b f3 7c 46 3d dc e7 6a bc
       -0.02232212 0.0033699842 0.048459005 -0.014337506
000060 04 b1 c2 b9 40 91 0e bc 17 b2 45 bd 8e f0 a4 bc
       -0.0003713445 -0.0087016225 -0.048265543 -0.020134237
000070 62 32 ca 3b 77 3e a8 bd 1d 25 a9 3d 4a 52 1b 3d
       0.006170557 -0.08215039 0.08259032 0.037920274
000080 c0 3a 12 3b c4 6e 3a 3d 91 91 59 bd 2f 95 93 bd
       0.002231285 0.04551579 -0.05311734 -0.07206189
000090 a6 92 56 3c ff ff c6 3c 8f 8a 85 3d af 3b 07 3e
       0.013096487 0.02429199 0.065205686 0.13206361
0000a0 7f 64 64 bc 05 db d3 3d 62 51 80 bd 07 7e bd 3d
       -0.013939976 0.10344509 -0.062655225 0.092525534
0000b0 fa 77 32 bd 17 1a c9 3a 6a 50 83 3c 00 e1 63 3c
       -0.04357145 0.0015342858 0.016029555 0.013908625
0000c0 b2 1a 2e bc a6 97 2a 3d bc 08 17 3d ef 5b 25 3b
       -0.010626482 0.04164853 0.036873564 0.0025231799
0000d0 08 5a ca bd 5d 9a 04 bc 08 77 6d ba 08 47 20 3c
       -0.09880453 -0.008093444 -0.00090585696 0.00978256
0000e0 6a 93 ad bc 98 78 9a bd 91 3b 99 bd 49 00 d1 3d
       -0.021188457 -0.07542533 -0.074820645 0.102051325
0000f0 38 3f f0 3d 0b a6 96 bd 50 8c 64 3d ee b5 bb ba
       0.11730808 -0.07355889 0.055797875 -0.0014321187
000100 93 9c de 3d 6a e5 d9 bd 2a 83 d2 3d 55 97 4c bd
       0.10869708 -0.106394604 0.10278924 -0.04994901
000110 48 7e 8f bd ed 60 c7 3c 25 c3 3f 3c 7e 27 3f bc
       -0.07006508 0.02433821 0.011704241 -0.0116671305
000120 0e 10 24 3d 28 3b ca 3c c5 82 b2 bd 15 ea 20 be
       0.040054373 0.024686411 -0.087163486 -0.15714295
000130 e5 a6 99 bd 81 51 0f bd 96 fc f4 3b eb 02 db bd
       -0.07502536 -0.034989838 0.0074763997 -0.10693916
000140 54 3f ba 3d 5f 53 68 3d b6 ab 03 be 3c 20 cb bd
       0.0909411 0.056720134 -0.12858471 -0.099182576
000150 de 75 3b bd be c8 f4 3d da 04 00 3e db ef 59 bd
       -0.045766704 0.11952351 0.1250185 -0.05320726
000160 96 56 54 bc 74 12 32 3d 9d e6 12 bd 40 1f e9 3c
       -0.012960097 0.04347463 -0.03586446 0.028457284
000170 f8 5b 34 3d 48 e3 c8 3d 00 c4 c8 3c 8a f6 50 3d
       0.04403302 0.098089755 0.024507523 0.051016368
000180 6f 46 a7 bd 9e 43 56 3d f4 96 9b 3c 3d 65 30 3b
       -0.08167731 0.05231058 0.018992878 0.0026915811
000190 d4 5a ba ba c1 ee c8 bc 7f 96 d0 bd 05 58 ef 3c
       -0.0014217743 -0.02452791 -0.10184955 0.029216776
0001a0 aa 2f 61 3d 3a a8 47 bd 4f cf 91 3d 30 8a 73 3c
       0.054977097 -0.048744418 0.07119619 0.014864489
0001b0 ff 34 25 bd 69 ab a8 bd ac 61 9b bd 2e 34 02 bd
       -0.040333744 -0.08235819 -0.07586989 -0.031788044
0001c0 f7 4a e6 3d 5b bd fe bd 19 01 ce 3d 5e a3 0d 3c
       0.11244767 -0.124384604 0.10058803 0.008644907
0001d0 c3 4c 48 bd af 32 01 be c2 4e 89 bd 04 97 80 3d
       -0.04890133 -0.1261699 -0.06704475 0.06278804
0001e0 08 5e 12 3c 78 59 b2 bd d7 38 36 bc dd 8d db 3b
       0.008933552 -0.08708471 -0.01112195 0.006700261
0001f0 ec ee 54 3d 72 1f 00 be d6 ae 13 bd 64 3d 7c bd
       0.051985666 -0.12511995 -0.03605541 -0.061581984
000200 40 ab 9b bc 07 59 04 bd fa 10 10 bc 35 f3 26 bd
       -0.019002557 -0.032311466 -0.00879311 -0.040759284
000210 a1 2c a4 3d 82 c6 dc 3c fe df 9e bd a8 fa 9d bd
       0.08016325 0.026950125 -0.07757567 -0.077138245
000220 75 08 21 3c d6 3b 8f bb 81 12 14 3d 02 d1 6b bc
       0.0098286765 -0.0043711467 0.03615046 -0.014393093
000230 02 6b ee bb d9 71 8a 3b cb 28 90 3d 59 cf 75 3d
       -0.00727594 0.0042249975 0.07039031 0.060012195
000240 4f 24 48 3d e7 c6 62 be bb 11 f5 bd 46 87 72 bd
       0.04886275 -0.22146188 -0.119662724 -0.059211038
000250 9f 4c f7 3d 0a 35 9d 3d cd 41 fa 3d 97 4e 5d ba
       0.12075161 0.07676132 0.12219582 -0.0008442192
000260 75 50 ca 3d 47 c7 9e bd 07 5c 17 3c 74 e6 33 be
       0.09878627 -0.07752853 0.00923825 -0.1756838
000270 fc fc 1f bd d5 58 c2 3d de be 24 3d 29 09 16 3d
       -0.039059624 0.094895996 0.040221088 0.03662983
000280 57 cc 86 bd 03 26 92 3c 79 d6 d5 bc 17 02 45 3d
       -0.065819435 0.017840391 -0.026103245 0.048097696
000290 c4 e3 75 bd 15 44 66 3c b0 2d c9 bd 65 b7 55 3b
       -0.060031667 0.014054318 -0.09823167 0.0032610532
0002a0 17 40 4c bd 42 a3 cb bc 38 69 9a bb 2c 5b 80 3c
       -0.04986581 -0.02485812 -0.00471225 0.015668474
0002b0 22 64 11 bc 94 93 3a 3b 07 3d 12 be 5f e3 90 3d
       -0.008873971 0.002846931 -0.14281093 0.070746176
0002c0 e4 da bd 3d ab b0 2d 3c 96 d5 24 3e 29 8b 07 3e
       0.09270266 0.010601203 0.16097102 0.13236679
0002d0 ca ab 82 3c a1 4e 94 bd 1c 5f 62 3c bd 79 1b 3d
       0.015951056 -0.0724156 0.013816621 0.037957896
0002e0 3f 21 5d 3d ca b7 98 bd ca df bc bd 89 bc ef 3c
       0.053986784 -0.0745693 -0.09222372 0.029264705
0002f0 61 56 92 3d d7 63 7e 3d 81 b6 0e bd 09 37 85 bc
       0.07145382 0.062106933 -0.034842018 -0.016261594
000300 34 91 8d 3d 66 d0 b3 bc 29 b2 99 bd f0 bf 28 3d
       0.06912461 -0.021949958 -0.075046845 0.04119867
000310 51 47 d2 bd 64 4b c5 3d ca 51 71 bd cd b9 c2 3d
       -0.10267509 0.0963352 -0.05891589 0.09508095
000320 92 05 26 be cf 05 2d 3e 02 a4 b6 3c c7 e1 5e 3d
       -0.16213062 0.16896747 0.022295002 0.054414537
000330 37 49 f6 bb 1e 2c 88 3d c7 03 c2 bc 72 c4 b9 bc
       -0.007516052 0.0664904 -0.023683442 -0.02267668
000340 ad 7c 98 bd 67 b6 ad bd 09 ec 85 3d 6a b7 49 3d
       -0.07445655 -0.08482056 0.06539161 0.049247183
000350 e3 ab 55 3d 0a 73 87 bd 8c 6f 11 3d 8b 00 91 3d
       0.052165877 -0.06613739 0.03550677 0.07080182
000360 33 e0 e1 3c 9e a9 08 3e 4e 7f 08 3e af c8 59 3d
       0.027572727 0.13345954 0.13329813 0.053169902
000370 57 bd b8 bd c6 3d aa bc 72 59 0a bd b7 38 0e bd
       -0.09020489 -0.020781409 -0.033776708 -0.034722056
000380 0c b4 04 3d 58 db 81 bd 86 4c 16 3d 43 47 10 3d
       0.03239827 -0.063406646 0.036694072 0.03522421
000390 24 af 45 ba 2a b3 2a bc 89 3d a5 bd 56 4d 8d 3d
       -0.00075410516 -0.010418693 -0.080683775 0.06899516
0003a0 a0 19 13 bc 5f 4e 32 bd 9c 8e 4c bd f3 12 64 3d
       -0.008978277 -0.04353177 -0.04994069 0.055682134
0003b0 69 0b 8b 3d 38 cc da 3c c8 8c 10 bd da e6 12 bb
       0.06789286 0.026708707 -0.03529051 -0.002241543
0003c0 83 50 c5 bb 46 58 f9 bd e2 ca 53 3c c0 97 b4 3b
       -0.0060215606 -0.1217504 0.012926789 0.005511254
0003d0 20 2e b7 bc 64 ec 01 bd 7e 04 a7 bb 8e b2 98 3d
       -0.022360861 -0.03171958 -0.005096971 0.074559316
0003e0 87 57 80 3c b5 ad 2f bd a0 03 89 bc 83 e7 d6 3d
       0.015666736 -0.04289027 -0.016725361 0.10493376
0003f0 6d bd 62 bd a0 53 1d be d8 67 37 bd 9b fe 8e 3c
       -0.05535643 -0.15363932 -0.044776767 0.01745539

model1.3.conv.bias f4 [16]
000000 73 12 c6 3b c9 c1 20 3c 50 35 87 bb 67 92 64 bc
       0.00604468 0.009811827 -0.0041262284 -0.013950921
000010 71 6e bb bc e4 5b 86 bc 5e de f1 bb 8b 33 36 bd
       -0.022879811 -0.016401239 -0.0073812446 -0.04448275
000020 70 da 04 bd dd 16 cd 3c 3d 0a 2a ba 3e 79 9f 3b
       -0.03243488 0.025035316 -0.0006486511 0.004866748
000030 bb 00 1a 3d fb 46 02 3d 3b 55 b9 3c 47 d6 36 bd
       0.037598353 0.031805974 0.022623649 -0.044637945

model1.3.batch_norm.weight f4 [16]
000000 c0 40 b5 3e 3b cd e2 3e b4 92 e8 3e 93 4a cf 3e
       0.35400963 0.44297203 0.45424426 0.40486583
000010 22 0f c9 3e 01 e3 ea 3e 81 a0 e2 3e a2 1d fc 3e
       0.39269358 0.45876315 0.4426308 0.49241358
000020 93 bb 02 3f fd b4 e2 3e c0 6c ec 3e 14 56 fd 3e
       0.51067466 0.44278708 0.4617672 0.49479735
000030 39 e5 04 3f 4e bd f2 3e 17 25 e3 3e c7 59 eb 3e
       0.51912266 0.47410053 0.44364235 0.45966932

model1.3.batch_norm.bias f4 [16]
000000 d9 6e 70 bd 62 b8 04 bd de ad 72 bd 94 e4 64 3b
       -0.058699463 -0.032402404 -0.059247844 0.0034926282
000010 f6 17 7b bd 9f c4 c5 bc 45 06 d1 3c 05 fd e3 bd
       -0.061302148 -0.024141608 0.025515685 -0.11132244
000020 64 a3 ee bd 39 f7 77 3c 13 72 28 3c 5c ee 52 be
       -0.11652258 0.015134626 0.010281104 -0.2059874
000030 3e f7 f7 bd 81 48 c4 3a 27 91 50 bb f8 83 13 3d
       -0.121077046 0.0014975221 -0.0031824799 0.036014527

model1.3.batch_norm.running_mean f4 [16]
000000 f7 f0 b3 be 0b a1 33 be bf e8 27 3f 20 b5 a7 bf
       -0.3514478 -0.17541902 0.6558952 -1.310215
000010 87 3f 57 3e 1d 11 e3 3d 3a 4d ef be 1a 46 00 3f
       0.21020328 0.110872485 -0.46738607 0.50106966
000020 81 63 94 bf 36 3f 94 bf 6b c7 71 bf 5f ca 7b bf
       -1.1592866 -1.158179 -0.9444491 -0.9835567
000030 e2 88 9e be 96 11 62 be 13 a5 c1 bf 65 bc 95 3e
       -0.30963808 -0.22077021 -1.5128502 0.29245296

model1.3.batch_norm.running_var f4 [16]
000000 8e 7a 00 40 a1 ec fb 3f e7 8b d8 3f 5c 72 ca 3f
       2.0074801 1.9681588 1.6917695 1.581615
000010 b7 13 fa 3f c7 61 16 40 6a b2 37 40 03 5e 9a 3f
       1.9537266 2.3497179 2.8702645 1.205994
000020 4b 41 2a 40 1d 4f 3d 40 9c 5f 0d 40 92 3e 95 3f
       2.6602352 2.9579537 2.2089605 1.165972
000030 9d ad d2 3f c8 3f 5d 40 af 18 4f 40 3d 0b 07 40
       1.6459233 3.457018 3.2358816 2.110061

model1.4.conv.weight f4 [16, 16, 3, 3, 3]
000000 c6 60 ac 3c fa 72 8c bd f6 33 bc 3c 58 e9 22 be
       0.021042239 -0.068578675 0.022973996 -0.15909326
000010 a9 9f 08 3e d2 8a 31 3c b2 c1 1c bd 6d 19 c8 bb
       0.13342156 0.01083632 -0.03827066 -0.0061065466
000020 00 81 06 3c 41 74 8c ba d6 45 f0 3d 3a 08 e4 3d
       0.008209467 -0.0010715799 0.1173207 0.111343816
000030 26 06 f7 bd b8 00 10 3e 43 d5 78 bc 40 20 e6 3c
       -0.120617196 0.14062774 -0.015187564 0.02809155
000040 2a 00 8b 3d 20 f8 00 bd 2c a9 3e bd b0 44 02 bd
       0.06787141 -0.03148663 -0.046548054 -0.031803787
000050 e1 dc b6 bc f4 da 5c 3b f3 7c 46 3d dc e7 6a bc
       -0.02232212 0.0033699842 0.048459005 -0.014337506
000060 04 b1 c2 b9 40 91 0e bc 17 b2 45 bd 8e f0 a4 bc
       -0.0003713445 -0.0087016225 -0.048265543 -0.020134237
000070 62 32 ca 3b 77 3e a8 bd 1d 25 a9 3d 4a 52 1b 3d
       0.006170557 -0.08215039 0.08259032 0.037920274
000080 c0 3a 12 3b c4 6e 3a 3d 91 91 59 bd 2f 95 93 bd
       0.002231285 0.04551579 -0.05311734 -0.07206189
000090 a6 92 56 3c ff ff c6 3c 8f 8a 85 3d af 3b 07 3e
       0.013096487 0.02429199 0.065205686 0.13206361
0000a0 7f 64 64 bc 05 db d3 3d 62 51 80 bd 07 7e bd 3d
       -0.013939976 0.10344509 -0.062655225 0.092525534
0000b0 fa 77 32 bd 17 1a c9 3a 6a 50 83 3c 00 e1 63 3c
       -0.04357145 0.0015342858 0.016029555 0.013908625
0000c0 b2 1a 2e bc a6 97 2a 3d bc 08 17 3d ef 5b 25 3b
       -0.010626482 0.04164853 0.036873564 0.0025231799
0000d0 08 5a ca bd 5d 9a 04 bc 08 77 6d ba 08 47 20 3c
       -0.09880453 -0.008093444 -0.00090585696 0.00978256
0000e0 6a 93 ad bc 98 78 9a bd 91 3b 99 bd 49 00 d1 3d
       -0.021188457 -0.07542533 -0.074820645 0.102051325
0000f0 38 3f f0 3d 0b a6 96 bd 50 8c 64 3d ee b5 bb ba
       0.11730808 -0.07355889 0.055797875 -0.0014321187
000100 93 9c de 3d 6a e5 d9 bd 2a 83 d2 3d 55 97 4c bd
       0.10869708 -0.106394604 0.10278924 -0.04994901
000110 48 7e 8f bd ed 60 c7 3c 25 c3 3f 3c 7e 27 3f bc
       -0.07006508 0.02433821 0.011704241 -0.0116671305
000120 0e 10 24 3d 28 3b ca 3c c5 82 b2 bd 15 ea 20 be
       0.040054373 0.024686411 -0.087163486 -0.15714295
000130 e5 a6 99 bd 81 51 0f bd 96 fc f4 3b eb 02 db bd
       -0.07502536 -0.034989838 0.0074763997 -0.10693916
000140 54 3f ba 3d 5f 53 68 3d b6 ab 03 be 3c 20 cb bd
       0.0909411 0.056720134 -0.12858471 -0.099182576
000150 de 75 3b bd be c8 f4 3d da 04 00 3e db ef 59 bd
       -0.045766704 0.11952351 0.1250185 -0.05320726
000160 96 56 54 bc 74 12 32 3d 9d e6 12 bd 40 1f e9 3c
       -0.012960097 0.04347463 -0.03586446 0.028457284
000170 f8 5b 34 3d 48 e3 c8 3d 00 c4 c8 3c 8a f6 50 3d
       0.04403302 0.098089755 0.024507523 0.051016368
000180 6f 46 a7 bd 9e 43 56 3d f4 96 9b 3c 3d 65 30 3b
       -0.08167731 0.05231058 0.018992878 0.0026915811
000190 d4 5a ba ba c1 ee c8 bc 7f 96 d0 bd 05 58 ef 3c
       -0.0014217743 -0.02452791 -0.10184955 0.029216776
0001a0 aa 2f 61 3d 3a a8 47 bd 4f cf 91 3d 30 8a 73 3c
       0.054977097 -0.048744418 0.07119619 0.014864489
0001b0 ff 34 25 bd 69 ab a8 bd ac 61 9b bd 2e 34 02 bd
       -0.040333744 -0.08235819 -0.07586989 -0.031788044
0001c0 f7 4a e6 3d 5b bd fe bd 19 01 ce 3d 5e a3 0d 3c
       0.11244767 -0.124384604 0.10058803 0.008644907
0001d0 c3 4c 48 bd af 32 01 be c2 4e 89 bd 04 97 80 3d
       -0.04890133 -0.1261699 -0.06704475 0.06278804
0001e0 08 5e 12 3c 78 59 b2 bd d7 38 36 bc dd 8d db 3b
       0.008933552 -0.08708471 -0.01112195 0.006700261
0001f0 ec ee 54 3d 72 1f 00 be d6 ae 13 bd 64 3d 7c bd
       0.051985666 -0.12511995 -0.03605541 -0.061581984
000200 40 ab 9b bc 07 59 04 bd fa 10 10 bc 35 f3 26 bd
       -0.019002557 -0.032311466 -0.00879311 -0.040759284
000210 a1 2c a4 3d 82 c6 dc 3c fe df 9e bd a8 fa 9d bd
       0.08016325 0.026950125 -0.07757567 -0.077138245
000220 75 08 21 3c d6 3b 8f bb 81 12 14 3d 02 d1 6b bc
       0.0098286765 -0.0043711467 0.03615046 -0.014393093
000230 02 6b ee bb d9 71 8a 3b cb 28 90 3d 59 cf 75 3d
       -0.00727594 0.0042249975 0.07039031 0.060012195
000240 4f 24 48 3d e7 c6 62 be bb 11 f5 bd 46 87 72 bd
       0.04886275 -0.22146188 -0.119662724 -0.059211038
000250 9f 4c f7 3d 0a 35 9d 3d cd 41 fa 3d 97 4e 5d ba
       0.12075161 0.07676132 0.12219582 -0.0008442192
000260 75 50 ca 3d 47 c7 9e bd 07 5c 17 3c 74 e6 33 be
       0.09878627 -0.07752853 0.00923825 -0.1756838
000270 fc fc 1f bd d5 58 c2 3d de be 24 3d 29 09 16 3d
       -0.039059624 0.094895996 0.040221088 0.03662983
000280 57 cc 86 bd 03 26 92 3c 79 d6 d5 bc 17 02 45 3d
       -0.065819435 0.017840391 -0.026103245 0.048097696
000290 c4 e3 75 bd 15 44 66 3c b0 2d c9 bd 65 b7 55 3b
       -0.060031667 0.014054318 -0.09823167 0.0032610532
0002a0 17 40 4c bd 42 a3 cb bc 38 69 9a bb 2c 5b 80 3c
       -0.04986581 -0.02485812 -0.00471225 0.015668474
0002b0 22 64 11 bc 94 93 3a 3b 07 3d 12 be 5f e3 90 3d
       -0.008873971 0.002846931 -0.14281093 0.070746176
0002c0 e4 da bd 3d ab b0 2d 3c 96 d5 24 3e 29 8b 07 3e
       0.09270266 0.010601203 0.16097102 0.13236679
0002d0 ca ab 82 3c a1 4e 94 bd 1c 5f 62 3c bd 79 1b 3d
       0.015951056 -0.0724156 0.013816621 0.037957896
0002e0 3f 21 5d 3d ca b7 98 bd ca df bc bd 89 bc ef 3c
       0.053986784 -0.0745693 -0.09222372 0.029264705
0002f0 61 56 92 3d d7 63 7e 3d 81 b6 0e bd 09 37 85 bc
       0.07145382 0.062106933 -0.034842018 -0.016261594
000300 34 91 8d 3d 66 d0 b3 bc 29 b2 99 bd f0 bf 28 3d
       0.06912461 -0.021949958 -0.075046845 0.04119867
000310 51 47 d2 bd 64 4b c5 3d ca 51 71 bd cd b9 c2 3d
       -0.10267509 0.0963352 -0.05891589 0.09508095
000320 92 05 26 be cf 05 2d 3e 02 a4 b6 3c c7 e1 5e 3d
       -0.16213062 0.16896747 0.022295002 0.054414537
000330 37 49 f6 bb 1e 2c 88 3d c7 03 c2 bc 72 c4 b9 bc
       -0.007516052 0.0664904 -0.023683442 -0.02267668
000340 ad 7c 98 bd 67 b6 ad bd 09 ec 85 3d 6a b7 49 3d
       -0.07445655 -0.08482056 0.06539161 0.049247183
000350 e3 ab 55 3d 0a 73 87 bd 8c 6f 11 3d 8b 00 91 3d
       0.052165877 -0.06613739 0.03550677 0.07080182
000360 33 e0 e1 3c 9e a9 08 3e 4e 7f 08 3e af c8 59 3d
       0.027572727 0.13345954 0.13329813 0.053169902
000370 57 bd b8 bd c6 3d aa bc 72 59 0a bd b7 38 0e bd
       -0.09020489 -0.020781409 -0.033776708 -0.034722056
000380 0c b4 04 3d 58 db 81 bd 86 4c 16 3d 43 47 10 3d
       0.03239827 -0.063406646 0.036694072 0.03522421
000390 24 af 45 ba 2a b3 2a bc 89 3d a5 bd 56 4d 8d 3d
       -0.00075410516 -0.010418693 -0.080683775 0.06899516
0003a0 a0 19 13 bc 5f 4e 32 bd 9c 8e 4c bd f3 12 64 3d
       -0.008978277 -0.04353177 -0.04994069 0.055682134
0003b0 69 0b 8b 3d 38 cc da 3c c8 8c 10 bd da e6 12 bb
       0.06789286 0.026708707 -0.03529051 -0.002241543
0003c0 83 50 c5 bb 46 58 f9 bd e2 ca 53 3c c0 97 b4 3b
       -0.0060215606 -0.1217504 0.012926789 0.005511254
0003d0 20 2e b7 bc 64 ec 01 bd 7e 04 a7 bb 8e b2 98 3d
       -0.022360861 -0.03171958 -0.005096971 0.074559316
0003e0 87 57 80 3c b5 ad 2f bd a0 03 89 bc 83 e7 d6 3d
       0.015666736 -0.04289027 -0.016725361 0.10493376
0003f0 6d bd 62 bd a0 53 1d be d8 67 37 bd 9b fe 8e 3c
       -0.05535643 -0.15363932 -0.044776767 0.01745539

model1.4.conv.bias f4 [16]
000000 73 12 c6 3b c9 c1 20 3c 50 35 87 bb 67 92 64 bc
       0.00604468 0.009811827 -0.0041262284 -0.013950921
000010 71 6e bb bc e4 5b 86 bc 5e de f1 bb 8b 33 36 bd
       -0.022879811 -0.016401239 -0.0073812446 -0.04448275
000020 70 da 04 bd dd 16 cd 3c 3d 0a 2a ba 3e 79 9f 3b
       -0.03243488 0.025035316 -0.0006486511 0.004866748
000030 bb 00 1a 3d fb 46 02 3d 3b 55 b9 3c 47 d6 36 bd
       0.037598353 0.031805974 0.022623649 -0.044637945

model1.4.batch_norm.weight f4 [16]
000000 c0 40 b5 3e 3b cd e2 3e b4 92 e8 3e 93 4a cf 3e
       0.35400963 0.44297203 0.45424426 0.40486583
000010 22 0f c9 3e 01 e3 ea 3e 81 a0 e2 3e a2 1d fc 3e
       0.39269358 0.45876315 0.4426308 0.49241358
000020 93 bb 02 3f fd b4 e2 3e c0 6c ec 3e 14 56 fd 3e
       0.51067466 0.44278708 0.4617672 0.49479735
000030 39 e5 04 3f 4e bd f2 3e 17 25 e3 3e c7 59 eb 3e
       0.51912266 0.47410053 0.44364235 0.45966932

model1.4.batch_norm.bias f4 [16]
000000 d9 6e 70 bd 62 b8 04 bd de ad 72 bd 94 e4 64 3b
       -0.058699463 -0.032402404 -0.059247844 0.0034926282
000010 f6 17 7b bd 9f c4 c5 bc 45 06 d1 3c 05 fd e3 bd
       -0.061302148 -0.024141608 0.025515685 -0.11132244
000020 64 a3 ee bd 39 f7 77 3c 13 72 28 3c 5c ee 52 be
       -0.11652258 0.015134626 0.010281104 -0.2059874
000030 3e f7 f7 bd 81 48 c4 3a 27 91 50 bb f8 83 13 3d
       -0.121077046 0.0014975221 -0.0031824799 0.036014527

model1.4.batch_norm.running_mean f4 [16]
000000 f7 f0 b3 be 0b a1 33 be bf e8 27 3f 20 b5 a7 bf
       -0.3514478 -0.17541902 0.6558952 -1.310215
000010 87 3f 57 3e 1d 11 e3 3d 3a 4d ef be 1a 46 00 3f
       0.21020328 0.110872485 -0.46738607 0.50106966
000020 81 63 94 bf 36 3f 94 bf 6b c7 71 bf 5f ca 7b bf
       -1.1592866 -1.158179 -0.9444491 -0.9835567
000030 e2 88 9e be 96 11 62 be 13 a5 c1 bf 65 bc 95 3e
       -0.30963808 -0.22077021 -1.5128502 0.29245296

model1.4.batch_norm.running_var f4 [16]
000000 8e 7a 00 40 a1 ec fb 3f e7 8b d8 3f 5c 72 ca 3f
       2.0074801 1.9681588 1.6917695 1.581615
000010 b7 13 fa 3f c7 61 16 40 6a b2 37 40 03 5e 9a 3f
       1.9537266 2.3497179 2.8702645 1.205994
000020 4b 41 2a 40 1d 4f 3d 40 9c 5f 0d 40 92 3e 95 3f
       2.6602352 2.9579537 2.2089605 1.165972
000030 9d ad d2 3f c8 3f 5d 40 af 18 4f 40 3d 0b 07 40
       1.6459233 3.457018 3.2358816 2.110061

model1.5.conv.weight f4 [16, 16, 3, 3, 3]
000000 c6 60 ac 3c fa 72 8c bd f6 33 bc 3c 58 e9 22 be
       0.021042239 -0.068578675 0.022973996 -0.15909326
000010 a9 9f 08 3e d2 8a 31 3c b2 c1 1c bd 6d 19 c8 bb
       0.13342156 0.01083632 -0.03827066 -0.0061065466
000020 00 81 06 3c 41 74 8c ba d6 45 f0 3d 3a 08 e4 3d
       0.008209467 -0.0010715799 0.1173207 0.111343816
000030 26 06 f7 bd b8 00 10 3e 43 d5 78 bc 40 20 e6 3c
       -0.120617196 0.14062774 -0.015187564 0.02809155
000040 2a 00 8b 3d 20 f8 00 bd 2c a9 3e bd b0 44 02 bd
       0.06787141 -0.03148663 -0.046548054 -0.031803787
000050 e1 dc b6 bc f4 da 5c 3b f3 7c 46 3d dc e7 6a bc
       -0.02232212 0.0033699842 0.048459005 -0.014337506
000060 04 b1 c2 b9 40 91 0e bc 17 b2 45 bd 8e f0 a4 bc
       -0.0003713445 -0.0087016225 -0.048265543 -0.020134237
000070 62 32 ca 3b 77 3e a8 bd 1d 25 a9 3d 4a 52 1b 3d
       0.006170557 -0.08215039 0.08259032 0.037920274
000080 c0 3a 12 3b c4 6e 3a 3d 91 91 59 bd 2f 95 93 bd
       0.002231285 0.04551579 -0.05311734 -0.07206189
000090 a6 92 56 3c ff ff c6 3c 8f 8a 85 3d af 3b 07 3e
       0.013096487 0.02429199 0.065205686 0.13206361
0000a0 7f 64 64 bc 05 db d3 3d 62 51 80 bd 07 7e bd 3d
       -0.013939976 0.10344509 -0.062655225 0.092525534
0000b0 fa 77 32 bd 17 1a c9 3a 6a 50 83 3c 00 e1 63 3c
       -0.04357145 0.0015342858 0.016029555 0.013908625
0000c0 b2 1a 2e bc a6 97 2a 3d bc 08 17 3d ef 5b 25 3b
       -0.010626482 0.04164853 0.036873564 0.0025231799
0000d0 08 5a ca bd 5d 9a 04 bc 08 77 6d ba 08 47 20 3c
       -0.09880453 -0.008093444 -0.00090585696 0.00978256
0000e0 6a 93 ad bc 98 78 9a bd 91 3b 99 bd 49 00 d1 3d
       -0.021188457 -0.07542533 -0.074820645 0.102051325
0000f0 38 3f f0 3d 0b a6 96 bd 50 8c 64 3d ee b5 bb ba
       0.11730808 -0.07355889 0.055797875 -0.0014321187
000100 93 9c de 3d 6a e5 d9 bd 2a 83 d2 3d 55 97 4c bd
       0.10869708 -0.106394604 0.10278924 -0.04994901
000110 48 7e 8f bd ed 60 c7 3c 25 c3 3f 3c 7e 27 3f bc
       -0.07006508 0.02433821 0.011704241 -0.0116671305
000120 0e 10 24 3d 28 3b ca 3c c5 82 b2 bd 15 ea 20 be
       0.040054373 0.024686411 -0.087163486 -0.15714295
000130 e5 a6 99 bd 81 51 0f bd 96 fc f4 3b eb 02 db bd
       -0.07502536 -0.034989838 0.0074763997 -0.10693916
000140 54 3f ba 3d 5f 53 68 3d b6 ab 03 be 3c 20 cb bd
       0.0909411 0.056720134 -0.12858471 -0.099182576
000150 de 75 3b bd be c8 f4 3d da 04 00 3e db ef 59 bd
       -0.045766704 0.11952351 0.1250185 -0.05320726
000160 96 56 54 bc 74 12 32 3d 9d e6 12 bd 40 1f e9 3c
       -0.012960097 0.04347463 -0.03586446 0.028457284
000170 f8 5b 34 3d 48 e3 c8 3d 00 c4 c8 3c 8a f6 50 3d
       0.04403302 0.098089755 0.024507523 0.051016368
000180 6f 46 a7 bd 9e 43 56 3d f4 96 9b 3c 3d 65 30 3b
       -0.08167731 0.05231058 0.018992878 0.0026915811
000190 d4 5a ba ba c1 ee c8 bc 7f 96 d0 bd 05 58 ef 3c
       -0.0014217743 -0.02452791 -0.10184955 0.029216776
0001a0 aa 2f 61 3d 3a a8 47 bd 4f cf 91 3d 30 8a 73 3c
       0.054977097 -0.048744418 0.07119619 0.014864489
0001b0 ff 34 25 bd 69 ab a8 bd ac 61 9b bd 2e 34 02 bd
       -0.040333744 -0.08235819 -0.07586989 -0.031788044
0001c0 f7 4a e6 3d 5b bd fe bd 19 01 ce 3d 5e a3 0d 3c
       0.11244767 -0.124384604 0.10058803 0.008644907
0001d0 c3 4c 48 bd af 32 01 be c2 4e 89 bd 04 97 80 3d
       -0.04890133 -0.1261699 -0.06704475 0.06278804
0001e0 08 5e 12 3c 78 59 b2 bd d7 38 36 bc dd 8d db 3b
       0.008933552 -0.08708471 -0.01112195 0.006700261
0001f0 ec ee 54 3d 72 1f 00 be d6 ae 13 bd 64 3d 7c bd
       0.051985666 -0.12511995 -0.03605541 -0.061581984
000200 40 ab 9b bc 07 59 04 bd fa 10 10 bc 35 f3 26 bd
       -0.019002557 -0.032311466 -0.00879311 -0.040759284
000210 a1 2c a4 3d 82 c6 dc 3c fe df 9e bd a8 fa 9d bd
       0.08016325 0.026950125 -0.07757567 -0.077138245
000220 75 08 21 3c d6 3b 8f bb 81 12 14 3d 02 d1 6b bc
       0.0098286765 -0.0043711467 0.03615046 -0.014393093
000230 02 6b ee bb d9 71 8a 3b cb 28 90 3d 59 cf 75 3d
       -0.00727594 0.0042249975 0.07039031 0.060012195
000240 4f 24 48 3d e7 c6 62 be bb 11 f5 bd 46 87 72 bd
       0.04886275 -0.22146188 -0.119662724 -0.059211038
000250 9f 4c f7 3d 0a 35 9d 3d cd 41 fa 3d 97 4e 5d ba
       0.12075161 0.07676132 0.12219582 -0.0008442192
000260 75 50 ca 3d 47 c7 9e bd 07 5c 17 3c 74 e6 33 be
       0.09878627 -0.07752853 0.00923825 -0.1756838
000270 fc fc 1f bd d5 58 c2 3d de be 24 3d 29 09 16 3d
       -0.039059624 0.094895996 0.040221088 0.03662983
000280 57 cc 86 bd 03 26 92 3c 79 d6 d5 bc 17 02 45 3d
       -0.065819435 0.017840391 -0.026103245 0.048097696
000290 c4 e3 75 bd 15 44 66 3c b0 2d c9 bd 65 b7 55 3b
       -0.060031667 0.014054318 -0.09823167 0.0032610532
0002a0 17 40 4c bd 42 a3 cb bc 38 69 9a bb 2c 5b 80 3c
       -0.04986581 -0.02485812 -0.00471225 0.015668474
0002b0 22 64 11 bc 94 93 3a 3b 07 3d 12 be 5f e3 90 3d
       -0.008873971 0.002846931 -0.14281093 0.070746176
0002c0 e4 da bd 3d ab b0 2d 3c 96 d5 24 3e 29 8b 07 3e
       0.09270266 0.010601203 0.16097102 0.13236679
0002d0 ca ab 82 3c a1 4e 94 bd 1c 5f 62 3c bd 79 1b 3d
       0.015951056 -0.0724156 0.013816621 0.037957896
0002e0 3f 21 5d 3d ca b7 98 bd ca df bc bd 89 bc ef 3c
       0.053986784 -0.0745693 -0.09222372 0.029264705
0002f0 61 56 92 3d d7 63 7e 3d 81 b6 0e bd 09 37 85 bc
       0.07145382 0.062106933 -0.034842018 -0.016261594
000300 34 91 8d 3d 66 d0 b3 bc 29 b2 99 bd f0 bf 28 3d
       0.06912461 -0.021949958 -0.075046845 0.04119867
000310 51 47 d2 bd 64 4b c5 3d ca 51 71 bd cd b9 c2 3d
       -0.10267509 0.0963352 -0.05891589 0.09508095
000320 92 05 26 be cf 05 2d 3e 02 a4 b6 3c c7 e1 5e 3d
       -0.16213062 0.16896747 0.022295002 0.054414537
000330 37 49 f6 bb 1e 2c 88 3d c7 03 c2 bc 72 c4 b9 bc
       -0.007516052 0.0664904 -0.023683442 -0.02267668
000340 ad 7c 98 bd 67 b6 ad bd 09 ec 85 3d 6a b7 49 3d
       -0.07445655 -0.08482056 0.06539161 0.049247183
000350 e3 ab 55 3d 0a 73 87 bd 8c 6f 11 3d 8b 00 91 3d
       0.052165877 -0.06613739 0.03550677 0.07080182
000360 33 e0 e1 3c 9e a9 08 3e 4e 7f 08 3e af c8 59 3d
       0.027572727 0.13345954 0.13329813 0.053169902
000370 57 bd b8 bd c6 3d aa bc 72 59 0a bd b7 38 0e bd
       -0.09020489 -0.020781409 -0.033776708 -0.034722056
000380 0c b4 04 3d 58 db 81 bd 86 4c 16 3d 43 47 10 3d
       0.03239827 -0.063406646 0.036694072 0.03522421
000390 24 af 45 ba 2a b3 2a bc 89 3d a5 bd 56 4d 8d 3d
       -0.00075410516 -0.010418693 -0.080683775 0.06899516
0003a0 a0 19 13 bc 5f 4e 32 bd 9c 8e 4c bd f3 12 64 3d
       -0.008978277 -0.04353177 -0.04994069 0.055682134
0003b0 69 0b 8b 3d 38 cc da 3c c8 8c 10 bd da e6 12 bb
       0.06789286 0.026708707 -0.03529051 -0.002241543
0003c0 83 50 c5 bb 46 58 f9 bd e2 ca 53 3c c0 97 b4 3b
       -0.0060215606 -0.1217504 0.012926789 0.005511254
0003d0 20 2e b7 bc 64 ec 01 bd 7e 04 a7 bb 8e b2 98 3d
       -0.022360861 -0.03171958 -0.005096971 0.074559316
0003e0 87 57 80 3c b5 ad 2f bd a0 03 89 bc 83 e7 d6 3d
       0.015666736 -0.04289027 -0.016725361 0.10493376
0003f0 6d bd 62 bd a0 53 1d be d8 67 37 bd 9b fe 8e 3c
       -0.05535643 -0.15363932 -0.044776767 0.01745539

model1.5.conv.bias f4 [16]
000000 73 12 c6 3b c9 c1 20 3c 50 35 87 bb 67 92 64 bc
       0.00604468 0.009811827 -0.0041262284 -0.013950921
000010 71 6e bb bc e4 5b 86 bc 5e de f1 bb 8b 33 36 bd
       -0.022879811 -0.016401239 -0.0073812446 -0.04448275
000020 70 da 04 bd dd 16 cd 3c 3d 0a 2a ba 3e 79 9f 3b
       -0.03243488 0.025035316 -0.0006486511 0.004866748
000030 bb 00 1a 3d fb 46 02 3d 3b 55 b9 3c 47 d6 36 bd
       0.037598353 0.031805974 0.022623649 -0.044637945

model1.5.batch_norm.weight f4 [16]
000000 c0 40 b5 3e 3b cd e2 3e b4 92 e8 3e 93 4a cf 3e
       0.35400963 0.44297203 0.45424426 0.40486583
000010 22 0f c9 3e 01 e3 ea 3e 81 a0 e2 3e a2 1d fc 3e
       0.39269358 0.45876315 0.4426308 0.49241358
000020 93 bb 02 3f fd b4 e2 3e c0 6c ec 3e 14 56 fd 3e
       0.51067466 0.44278708 0.4617672 0.49479735
000030 39 e5 04 3f 4e bd f2 3e 17 25 e3 3e c7 59 eb 3e
       0.51912266 0.47410053 0.44364235 0.45966932

model1.5.batch_norm.bias f4 [16]
000000 d9 6e 70 bd 62 b8 04 bd de ad 72 bd 94 e4 64 3b
       -0.058699463 -0.032402404 -0.059247844 0.0034926282
000010 f6 17 7b bd 9f c4 c5 bc 45 06 d1 3c 05 fd e3 bd
       -0.061302148 -0.024141608 0.025515685 -0.11132244
000020 64 a3 ee bd 39 f7 77 3c 13 72 28 3c 5c ee 52 be
       -0.11652258 0.015134626 0.010281104 -0.2059874
000030 3e f7 f7 bd 81 48 c4 3a 27 91 50 bb f8 83 13 3d
       -0.121077046 0.0014975221 -0.0031824799 0.036014527

model1.5.batch_norm.running_mean f4 [16]
000000 f7 f0 b3 be 0b a1 33 be bf e8 27 3f 20 b5 a7 bf
       -0.3514478 -0.17541902 0.6558952 -1.310215
000010 87 3f 57 3e 1d 11 e3 3d 3a 4d ef be 1a 46 00 3f
       0.21020328 0.110872485 -0.46738607 0.50106966
000020 81 63 94 bf 36 3f 94 bf 6b c7 71 bf 5f ca 7b bf
       -1.1592866 -1.158179 -0.9444491 -0.9835567
000030 e2 88 9e be 96 11 62 be 13 a5 c1 bf 65 bc 95 3e
       -0.30963808 -0.22077021 -1.5128502 0.29245296

model1.5.batch_norm.running_var f4 [16]
000000 8e 7a 00 40 a1 ec fb 3f e7 8b d8 3f 5c 72 ca 3f
       2.0074801 1.9681588 1.6917695 1.581615
000010 b7 13 fa 3f c7 61 16 40 6a b2 37 40 03 5e 9a 3f
       1.9537266 2.3497179 2.8702645 1.205994
000020 4b 41 2a 40 1d 4f 3d 40 9c 5f 0d 40 92 3e 95 3f
       2.6602352 2.9579537 2.2089605 1.165972
000030 9d ad d2 3f c8 3f 5d 40 af 18 4f 40 3d 0b 07 40
       1.6459233 3.457018 3.2358816 2.110061
