models/convlstm2/saved_models/lr_0.0005/epoch_4930.pt (torch, 618274 bytes, 17 tensors)

encoder_1_convlstm.conv.weight f4 [96, 32, 3, 3]
0	0x3d59ea43	0.053201925
1	0x3d0fdd55	0.035123188
2	0x3d0fcc76	0.0351071
3	0x3dc768cb	0.097367845
4	0x3e09173c	0.1338777
5	0x3dd70a58	0.1050002
6	0xbdbea853	-0.09309449
7	0x3d9ea04b	0.07745417
8	0x3de6cadc	0.11269161
9	0x3ebb12fd	0.36537924
10	0x3e19b803	0.15011601
11	0x3e478335	0.19483645
12	0x3e0a4dbf	0.1350622
13	0x3e02ffb7	0.1279286
14	0x3e6f0021	0.23339893
15	0xbdcd5e1f	-0.10027718
16	0xba10d510	-0.0005524913
17	0x3e673a2a	0.22580782
18	0xbd274dae	-0.040845565
19	0xbd6dce91	-0.058058325
20	0xbe22cbdc	-0.15898079
21	0x3d9c03dc	0.076179236
22	0xbc5a2aed	-0.013315898
23	0xbdc6e787	-0.09712129
24	0xbe99118e	-0.29896206
25	0xbe107590	-0.14107347
26	0xbdc04d37	-0.093897276
27	0x3d6edea9	0.058317814
28	0x3dfd3ba5	0.12364892
29	0xbd5fdec8	-0.05465582
30	0x3c002ba1	0.007822902
31	0xbd7b2942	-0.061318643
32	0xbde5e29e	-0.112248644
33	0xbd3262aa	-0.043551125
34	0xbd873b3a	-0.066030934
35	0xbd2e357e	-0.042531483
36	0xbd2e53b6	-0.0425603
37	0xbca942bb	-0.020661702
38	0xbdc56b53	-0.09639611
39	0xbce13d1f	-0.027494965
40	0xbe333d0e	-0.1750376
41	0xbe05c9f8	-0.13065326
42	0xbd718e9f	-0.058973905
43	0x3d37ac02	0.044841774
44	0x3d85131e	0.06497787
45	0xbc9fe6b3	-0.019519186
46	0xbd0e382e	-0.034721546
47	0x3e692b49	0.22770418
48	0xbb487126	-0.003058502
49	0xbcdb35f3	-0.026759123
50	0x3d8de56f	0.069285266
51	0xbc02f024	-0.007991824
52	0xbdaceb2b	-0.08443292
53	0x3e67cc91	0.2263663
54	0xbe519051	-0.20465209
55	0xbe24a4b9	-0.16078462
56	0x3dcfacc7	0.101403765
57	0xbd060f31	-0.03272933
58	0xbbf9beb0	-0.0076216087
59	0x3e403e0c	0.18773669
60	0xbd9a8fc0	-0.075469494
61	0xbc0e6bd9	-0.008692705
62	0x3e661239	0.22467889
63	0xbd4030d3	-0.046921562
64	0x3cd06c20	0.025442183
65	0x3dc6e25a	0.09711142
66	0xbd7d2c62	-0.061809905
67	0x3b88ab98	0.004170846
68	0x3d078118	0.033082098
69	0x3e25aa41	0.16178228
70	0x3cbfff5e	0.023437198
71	0xbd71bcba	-0.059017874
72	0xbd028fa1	-0.031875256
73	0xbe08f2ef	-0.13373922
74	0x3ce4fee2	0.027953569
75	0xbdd6c080	-0.10485935
76	0x3d45adb7	0.04826137
77	0xbb67e7ab	-0.0035385888
78	0xbd07badd	-0.03313719
79	0xbde17075	-0.110077776
80	0xbde3cc8c	-0.111229986
81	0xbc9ce25c	-0.019150905
82	0xbd3228d1	-0.043495957
83	0xbd562d0e	-0.05228906
84	0x3e492a79	0.19645108
85	0x3e044f1b	0.12920801
86	0x3d8ec1eb	0.06970581
87	0xbd44f6e7	-0.048087027
88	0xbbdf4f08	-0.006814841
89	0xbdfec03a	-0.12439008
90	0x3dc82257	0.09772175
91	0x3d5a60ab	0.053314846
92	0x3db25b73	0.08708849
93	0x3e1fe5c3	0.15614991
94	0x3b43c27d	0.0029870563
95	0x3e26c30c	0.16285342
96	0xbe39c1a3	-0.18140273
97	0xbe2bd9e8	-0.16782343
98	0xbdb0b63b	-0.08628508
99	0xbd4a65f4	-0.049413636
100	0x3c1aa72b	0.00943927
101	0xbe32399a	-0.17404786
102	0xbd1bae97	-0.0380083
103	0xbcf8683e	-0.030323144
104	0xbd9473a3	-0.072486185
105	0xbdae5bd8	-0.085136116
106	0xbe447584	-0.19185454
107	0xbe12cd57	-0.14336143
108	0xbdb218f3	-0.08696165
109	0xbdb123bb	-0.08649393
110	0xbd5c536c	-0.053790495
111	0x3dc2db7a	0.09514518
112	0xbc8b8a9d	-0.01703387
113	0xbd2e7d6f	-0.04260009
114	0x3e07676b	0.13223045
115	0x3da25c3b	0.07927748
116	0x3c0ee32a	0.008721152
117	0x3d073d99	0.03301773
118	0xbd0ac176	-0.033875905
119	0x3dafa68b	0.085766874
120	0x3e0d5794	0.1380294
121	0xbd84806d	-0.06469808
122	0x3d5f5e91	0.054533545
123	0x3d3ead01	0.046551708
124	0x3e1d752b	0.15376727
125	0x3e30821a	0.1723713
126	0x3e20462c	0.15651768
127	0x3998a95c	0.00029117882
128	0x3d2a744b	0.041614812
129	0xbe05b058	-0.13055551
130	0x3d85430f	0.06506931
131	0x3daab97c	0.083361596
132	0xbe6189c4	-0.2202521
133	0x3c372438	0.011178069
134	0xbdf67fd7	-0.12036102
135	0xbe99ecaf	-0.30063388
136	0xbd73c0a2	-0.05950988
137	0x3d241880	0.040062428
138	0x3e4d25ad	0.20033903
139	0x3d63781a	0.05553446
140	0x3cb50cef	0.022100894
141	0x3e407866	0.18795928
142	0x3d267e2a	0.040647663
143	0x3db3f2d1	0.08786548
144	0xbdc46db3	-0.09591236
145	0xbd990f20	-0.07473588
146	0x3d6443ae	0.055728607
147	0x3e6140b6	0.21997342
148	0x3d6bb273	0.05754323
149	0x3dbb7a72	0.09154214
150	0x3dc31797	0.09525984
151	0x3e814d94	0.252545
152	0x3e769950	0.24081922
153	0x3d73eaab	0.05954997
154	0x3d605d5a	0.054776527
155	0x3d3563fc	0.044284806
156	0x3e08aefe	0.13348004
157	0x3e2c7aaf	0.16843675
158	0x3dd68db0	0.104762435
159	0x3e4eccc3	0.20195298
160	0x3e77305a	0.24139538
161	0x3bd8bdd7	0.0066144275
162	0x3ac0ae8a	0.0014700454
163	0xbdf0ec5c	-0.11763832
164	0x3e872868	0.26398015
165	0x3d416f5b	0.047225337
166	0xbdd622f4	-0.104558855
167	0xbc5d2ced	-0.013499481
168	0xbd8d1c51	-0.068901666
169	0x3b3a65d5	0.0028442044
170	0xbd93a198	-0.07208556
171	0x3d81ecb9	0.063439794
172	0x3da7b7d0	0.08189356
173	0x3e45a761	0.19302131
174	0x3cdb1833	0.026744938
175	0x3e3dec58	0.18547189
176	0x3d8b4c85	0.06801704
177	0x3deea588	0.11652666
178	0x38a0bc63	7.664484e-05
179	0x3dba50c8	0.09097439
180	0xbe0688f6	-0.13138184
181	0xbd12e029	-0.035858307
182	0xbe49a47c	-0.19691652
183	0xbe8a4f75	-0.27013746
184	0xbe61fd6e	-0.22069332
185	0xbcde364a	-0.027125496
186	0xbec2ff60	-0.3808546
187	0xbe5dc445	-0.21656902
188	0xbe30ec33	-0.17277603
189	0xbe9a3354	-0.30117285
190	0x3d842f02	0.064542785
191	0x3d794932	0.06086082
192	0xbd883afb	-0.06651875
193	0xbe099ffe	-0.13439938
194	0xbdc5650e	-0.09638415
195	0xbda6ac56	-0.08138339
196	0xbd6f3945	-0.058404226
197	0x3ccb4378	0.024812445
198	0xbe105478	-0.14094722
199	0xbe46bb79	-0.19407453
200	0xbd5ed48a	-0.05440191
201	0xbc81181b	-0.015758565
202	0xbdbb9cf9	-0.091607995
203	0xbd84d707	-0.06486326
204	0xbd9b4777	-0.0758199
205	0xbca491bd	-0.020089025
206	0xbbf7cec3	-0.0075624897
207	0x3b8876fd	0.004164575
208	0x3cabcd75	0.020971993
209	0x3de0e2ac	0.10980734
210	0xbdc766ab	-0.09736379
211	0x3dea00d7	0.114259414
212	0x3db60470	0.08887565
213	0x3d669fda	0.05630479
214	0x3da2f920	0.07957673
215	0x3c1922d4	0.009346683
216	0x3d55485e	0.052070968
217	0x3d8ac0fe	0.067750916
218	0x3b78dab8	0.0037972163
219	0xbd75bf55	-0.05999692
220	0xbdccc191	-0.09997857
221	0xbd764476	-0.060123883
222	0x3d8c94ce	0.0686432
223	0x3d97341c	0.07382986
224	0x3ce4de44	0.027938016
225	0xbda7df8e	-0.081969365
226	0xbdd9b767	-0.10630684
227	0xbda4ec6e	-0.08052908
228	0xbb9534d9	-0.004553419
229	0xbe0aa319	-0.1353878
230	0xbd2e2841	-0.042518858
231	0x3e1d45e9	0.153587
232	0xbc332266	-0.010933494
233	0x3d74751c	0.059681997
234	0xbe847b75	-0.2587544
235	0xbe47d236	-0.19513783
236	0xbc016ae4	-0.00789902
237	0xbce5ac13	-0.028036153
238	0x3a3e4c0c	0.00072592567
239	0xbda743b8	-0.08167213
240	0xbdedd448	-0.11612755
241	0xbd92f5d5	-0.07175795
242	0xbdbe8667	-0.09302979
243	0xbd622dea	-0.05521957
244	0xbdd2c680	-0.10291767
245	0x3d650bf6	0.05591961
246	0xbe826671	-0.25468782
247	0xbe3bc15d	-0.18335481
248	0xbcafbe23	-0.021452969
249	0xbe75fb93	-0.24021749
250	0xb99212b7	-0.00027861234
251	0xbd8cb88a	-0.068711355
252	0xbe0ea3ae	-0.13929626
253	0x3bc0f616	0.0058887107
254	0x3e123b9f	0.14280556
255	0xbe4187f2	-0.18899515

encoder_1_convlstm.conv.bias f4 [96]
0	0xbdc70a55	-0.097187676
1	0xbe78b8d5	-0.24289258
2	0xbed30979	-0.41218165
3	0xbde106d0	-0.109876275
4	0xbed75693	-0.42058238
5	0xbedb39f6	-0.42817658
6	0xbeda89d5	-0.42683282
7	0xbf02fd67	-0.5116791
8	0xbe7bc624	-0.24587303
9	0xbe9a8489	-0.3017924
10	0xbee3750a	-0.4442523
11	0xbe9d88a6	-0.30768317
12	0xbe758074	-0.23974782
13	0xbe96d3ef	-0.29458568
14	0xbec766e3	-0.38945684
15	0xbe3a9efa	-0.18224707
16	0xbd08d6d9	-0.03340802
17	0xbd8cbd1b	-0.068720065
18	0xbe8a65ba	-0.27030736
19	0xbebd0524	-0.36917984
20	0xbee1a769	-0.44073036
21	0xbe8c05af	-0.27348086
22	0xbe97b421	-0.29629615
23	0xbf3eaf69	-0.74486405
24	0xbda7b4ad	-0.08188758
25	0xbdd6f324	-0.10495594
26	0xbd6c08ce	-0.057625584
27	0xbeb9a698	-0.36259913
28	0xbe5eeed0	-0.21770787
29	0xbeb517f1	-0.35369828
30	0xbe46d4a1	-0.19417049
31	0xbeec4127	-0.46143457
32	0xbdfefad5	-0.12450186
33	0xbea6b0b5	-0.32556692
34	0xbea18297	-0.31544945
35	0xbe7751cd	-0.24152298
36	0xbe377be1	-0.1791835
37	0xbe1045be	-0.14089105
38	0xbf049fed	-0.5180653
39	0xbec87285	-0.3914987
40	0xbee98840	-0.45611763
41	0xbe4394cc	-0.1909973
42	0xbd4abdf6	-0.049497567
43	0xbe842fe1	-0.2581778
44	0xbea23433	-0.3168045
45	0xbe3373a9	-0.1752459
46	0xbeb2a7d0	-0.34893656
47	0xbed2f196	-0.4119994
48	0xbd843f37	-0.0645737
49	0xbdfe39de	-0.12413381
50	0xbe885226	-0.26625174
51	0xbdb3dae0	-0.087819815
52	0xbeb4e770	-0.35332823
53	0xbedb45ed	-0.42826787
54	0xbe991c9a	-0.29904634
55	0xbe5e485f	-0.21707295
56	0xbd82b52f	-0.06382214
57	0xbe9d08aa	-0.30670673
58	0xbe99d410	-0.30044603
59	0xbe733b13	-0.23753004
60	0xbda53ea0	-0.080685854
61	0xbe022458	-0.12709177
62	0xbe862644	-0.2620107
63	0xbdef3d3f	-0.11681604
64	0xbd0c9e56	-0.03433069
65	0xbdda0b88	-0.10646731
66	0xbe06b179	-0.13153638
67	0xbe938df7	-0.28819248
68	0xbee03eb3	-0.43797836
69	0xbe89f567	-0.2694504
70	0xbe879b24	-0.2648555
71	0xbe89513d	-0.26819792
72	0x3c807148	0.015679017
73	0xbdde303a	-0.10849042
74	0x3d2289d8	0.03968224
75	0x3bcdcdc8	0.0062806346
76	0xbd50cef0	-0.0509786
77	0x3d98b416	0.07456224
78	0x3c9782c0	0.018494964
79	0x3dae6d1a	0.08516903
80	0x3c5223a3	0.012825879
81	0x3d4bd968	0.04976788
82	0x3d93ce04	0.07217029
83	0x3e0127e3	0.12612872
84	0xbdb59bd8	-0.088676155
85	0x3d968a4a	0.07350595
86	0xbdd97a2c	-0.106190056
87	0x3dc06c0d	0.09395609
88	0xbe051069	-0.12994541
89	0xbde78f83	-0.113066696
90	0xbdbe6acf	-0.09297716
91	0x3de88c9b	0.11354943
92	0xbceae149	-0.028671877
93	0xbd3bfd3c	-0.0458958
94	0x3d208109	0.039185558
95	0xbdc7802c	-0.09741244

encoder_2_convlstm.conv.weight f4 [96, 48, 3, 3]
0	0x3e29089c	0.1650719
1	0x3d27f2fe	0.04100322
2	0x3cf2357a	0.029566515
3	0x3e0bd495	0.13655312
4	0x3d8e6830	0.06953466
5	0x3dd7528f	0.10513794
6	0xbd8b71fc	-0.0680885
7	0xbd30e373	-0.043185662
8	0xbc682c02	-0.0141706485
9	0x3d3e535a	0.04646621
10	0x3e1c65b3	0.1527317
11	0x3e878563	0.26468953
12	0x3cecd505	0.02891017
13	0x3c1c2fcd	0.009532881
14	0x3e4b1acc	0.19834441
15	0xbdd7aab5	-0.10530607
16	0xbdb2eb1d	-0.087362505
17	0xbb76b42d	-0.0037644014
18	0x3c0105fb	0.007874961
19	0x3db6751a	0.08909054
20	0x3ddafa7c	0.10692307
21	0x3e8511a0	0.2599001
22	0xbd49340d	-0.049121905
23	0xbdd6a00c	-0.10479745
24	0x3e317c82	0.17332652
25	0xbd50c814	-0.05097206
26	0xbe5ea77a	-0.21743575
27	0x3b53b86a	0.0032305964
28	0xbe2009dd	-0.15628763
29	0xbe8cc303	-0.27492532
30	0x3de6ebf4	0.11275473
31	0x3d88aaba	0.066731885
32	0xbdd607a3	-0.10450675
33	0xbdda7f1c	-0.106687754
34	0x3e0566c7	0.13027488
35	0xbde3c34d	-0.11121235
36	0x3e0323e9	0.12806667
37	0xbd4bcf87	-0.04975846
38	0xbe7a774d	-0.24459572
39	0xbe7d3a50	-0.24729276
40	0xbe66c28a	-0.22535148
41	0xbe297947	-0.1655017
42	0x3daa3008	0.083099425
43	0x3d752805	0.05985262
44	0x3e21a3bc	0.15785116
45	0xbe15adb5	-0.14617045
46	0x3dd0086b	0.101578556
47	0x3dd014ce	0.10160218
48	0x3e2ac450	0.1667645
49	0x3da4e3de	0.08051275
50	0xbe253896	-0.16134867
51	0x3e15cef5	0.14629729
52	0xbe2d4dec	-0.16924256
53	0x3d9f9af6	0.07793228
54	0xbc809dc7	-0.015700234
55	0x3e73211d	0.237431
56	0x3e59abef	0.21256994
57	0x3e2c2427	0.16810666
58	0x3e0af5fe	0.13570401
59	0x3ec67273	0.38759193
60	0x3d3d7024	0.046249524
61	0xbd44e45b	-0.04806934
62	0x3aff2231	0.0019465146
63	0x3d4b3fc3	0.049621355
64	0xbd0e42fd	-0.034731854
65	0xbeae36a1	-0.34026054
66	0xbea70fca	-0.32629234
67	0xbd2695fe	-0.040670387
68	0x3ccde4dc	0.025133543
69	0x3e6a4b66	0.22880325
70	0xbe7a3513	-0.24434309
71	0xbcfce991	-0.030873092
72	0x3dc3d800	0.09562683
73	0x3d9239ff	0.07139968
74	0x3dfd9142	0.12381221
75	0x3ebffcad	0.37497464
76	0x3e970d61	0.29502395
77	0x3e874d78	0.2642629
78	0x3e3fb7be	0.18722436
79	0x3bc23b1e	0.0059274575
80	0xbe01593a	-0.12631693
81	0x3d1529de	0.03641688
82	0x3b99a100	0.004688382
83	0x3e1e8d11	0.154835
84	0xbc18c1db	-0.0093235625
85	0x3e4ce214	0.20008117
86	0x3e49a327	0.19691144
87	0xbdb505aa	-0.08838971
88	0xbda418a6	-0.08012514
89	0x3db34fbe	0.08755444
90	0x3e490838	0.19632041
91	0xbdd5facb	-0.104482256
92	0x3c06f4f9	0.008237117
93	0xbd92be20	-0.0716517
94	0x3d7ea6b3	0.062170696
95	0x3c8ce8b2	0.017200802
96	0xbc38b63d	-0.011273918
97	0x3b46d667	0.0030340196
98	0x3db085a7	0.08619242
99	0x3c9c870c	0.019107364
100	0x3e3ccb1a	0.18436852
101	0x3e954d06	0.29160327
102	0xbda75fc1	-0.081725605
103	0x3d6c3b8c	0.057673976
104	0xbdaf85ed	-0.08570466
105	0x3b04af40	0.0020246059
106	0xbe08e422	-0.13368276
107	0x3e053629	0.13008942
108	0x3d8c2aac	0.068440765
109	0x3e09332e	0.1339843
110	0xbe2399a7	-0.15976582
111	0xbe46a6bf	-0.19399546
112	0xbe2a11af	-0.16608308
113	0x3cb09c89	0.021559017
114	0x3e105683	0.14095502
115	0x3cc38d49	0.023871081
116	0xbc4b8a79	-0.012423151
117	0xbe851fc3	-0.26000795
118	0xbe93dc0f	-0.2887883
119	0xbd62eb6f	-0.05540031
120	0xbda54057	-0.080689125
121	0x3dd04ba7	0.101706795
122	0x3e2e9c09	0.1705171
123	0x3e418697	0.18898998
124	0x3dd1a2e3	0.10236146
125	0x3c48e7b2	0.012262272
126	0x3d960e5d	0.07326958
127	0x3d66b059	0.056320522
128	0x3ce414b5	0.027841905
129	0x3bae0fa3	0.0053119226
130	0x3e01fa31	0.12693097
131	0x3d400d64	0.04688777
132	0x3e0fad23	0.1403089
133	0x3e5efdab	0.21776454
134	0xbd4452e9	-0.04793063
135	0x3d920fc7	0.071319155
136	0x3e059efe	0.13048932
137	0xbdf9adcf	-0.121913545
138	0x3da65a3c	0.081226796
139	0x3c981079	0.018562542
140	0x3d9b4aea	0.07582648
141	0x3e65293f	0.22379015
142	0x3cf2d2aa	0.029641468
143	0xbd1f23a3	-0.038852345
144	0x3e02ba57	0.12766396
145	0x3e5e3dbd	0.21703239
146	0xbc54a7f6	-0.012979498
147	0x3d757b9b	0.059932332
148	0x3e54b119	0.20770682
149	0xbc70f999	-0.014707946
150	0xbe40d3ea	-0.18830839
151	0xbe289adf	-0.16465329
152	0xbd7d49b3	-0.061837863
153	0x3e0b0bbd	0.13578697
154	0xbc3913e7	-0.011296249
155	0xbe05968a	-0.13045707
156	0xbc4a0396	-0.0123299565
157	0xbd3278ba	-0.043572165
158	0x3ad45ba5	0.0016201629
159	0xbde92e31	-0.113857634
160	0xbe7e50b8	-0.2483548
161	0xbe36c2b0	-0.17847705
162	0x3ce54826	0.027988505
163	0xbe36194d	-0.17783089
164	0x3cd299ec	0.025708161
165	0xbe1c53a5	-0.15266283
166	0xbe84b233	-0.25917205
167	0xbd89ecab	-0.06734594
168	0x3da2f7e3	0.07957437
169	0xbcfd275d	-0.030902559
170	0xbc0989c8	-0.008394666
171	0xbe6deb00	-0.23234177
172	0xbc7037e3	-0.014661762
173	0x3ceaa78d	0.028644348
174	0xbc7f2bc4	-0.015574399
175	0xbce1849e	-0.027529057
176	0x3ea013f8	0.31265235
177	0x3e919147	0.2843115
178	0xbc507739	-0.012723737
179	0xbd05a672	-0.032629438
180	0xbda17781	-0.07884122
181	0xbddf3b20	-0.10899949
182	0xbdbfd72c	-0.09367213
183	0xbbee843d	-0.0072789476
184	0x3d99df8b	0.075133406
185	0xbcd18a4a	-0.025578637
186	0xbe943b43	-0.28951463
187	0xbe7d323d	-0.24726196
188	0xbe634c55	-0.22197087
189	0x3d19367b	0.037405472
190	0x3ccfb2ea	0.025353868
191	0xbdc18882	-0.09449865
192	0x3bea9ed0	0.007160045
193	0xbd68d798	-0.05684623
194	0xbda01131	-0.07815779
195	0x3ddfa936	0.10920946
196	0x3dd334ed	0.10312829
197	0xbe2e9bce	-0.17051622
198	0x3cddd635	0.027079681
199	0x3d4ab603	0.049489986
200	0xbe82b2da	-0.25527078
201	0xbed18d0f	-0.40927932
202	0xbe356836	-0.17715535
203	0x3dbdb17d	0.09262369
204	0x3df9d9c6	0.1219974
205	0x3da43d99	0.08019561
206	0x3cf50cf4	0.029913403
207	0x3e4d1e3e	0.20031068
208	0x3e0405e2	0.12892869
209	0x3e17df0d	0.14831181
210	0xbe209f91	-0.1568587
211	0xbce9f2f8	-0.02855824
212	0xbc4ef56d	-0.012631756
213	0x3db54580	0.08851147
214	0x3e8325bb	0.25614724
215	0x3e16203f	0.14660738
216	0xbd0e4dec	-0.03474228
217	0x3e393f33	0.18090515
218	0x3f05892e	0.52162445
219	0x3e268a4f	0.16263698
220	0x3e2c783e	0.16842744
221	0x3e585be3	0.21128802
222	0x3e6f34a2	0.23359922
223	0x3d9c6504	0.07636455
224	0x3db90e6b	0.09035953
225	0x3e14b39d	0.14521642
226	0x3e304505	0.17213829
227	0x3e335360	0.17512274
228	0x3dab356b	0.08359798
229	0x3d5e3c42	0.054256685
230	0xbc3d6330	-0.011559293
231	0x3e24f2ca	0.16108242
232	0x3c7202b1	0.0147711495
233	0xbdd0704d	-0.1017767
234	0xbc33bf45	-0.010970895
235	0x3b1d8f29	0.002404163
236	0x3b8114be	0.0039392402
237	0x3e1d913e	0.15387437
238	0x3e4cef04	0.20013052
239	0x3da16dfc	0.07882306
240	0x3e532c1c	0.20622295
241	0x3dd6f5e2	0.10496117
242	0xbdaff5d2	-0.085918084
243	0x3dc1f2db	0.09470149
244	0x3dc284f2	0.094980136
245	0x3e0b372e	0.13595268
246	0xbd4cc0a6	-0.04998841
247	0x3dbcb30c	0.09213838
248	0x3e024bed	0.12724276
249	0xbe180c77	-0.14848505
250	0xbb916da3	-0.0044381185
251	0xbd853de1	-0.06505943
252	0x3d9f4055	0.07775942
253	0x3e7bc046	0.24585065
254	0x3e92d860	0.28680706
255	0x3d1a9aa5	0.037745137

encoder_2_convlstm.conv.bias f4 [96]
0	0x3d51a5dc	0.051183566
1	0xbe422a36	-0.18961415
2	0x3d384b21	0.044993524
3	0x3d6a8c0f	0.057262477
4	0xbd2d4a2f	-0.042307075
5	0xbd9f42f6	-0.07776444
6	0x3da4f07a	0.0805368
7	0x3e14443c	0.14479154
8	0xbcc89bcf	-0.024488358
9	0x3da718c2	0.08159019
10	0x3eaa9b13	0.33321437
11	0xbd33277e	-0.043738835
12	0x3dab265e	0.08356927
13	0x3dc0ba44	0.09410527
14	0x3dafbaee	0.08580576
15	0xbd788c66	-0.06068077
16	0x3f025d4b	0.50923604
17	0x3e643458	0.22285593
18	0xbd89d02b	-0.06729158
19	0x3e9c9bc0	0.30587578
20	0xbc66f4ef	-0.014096483
21	0x3c8854ad	0.016641939
22	0x3dd7f589	0.10544879
23	0x3d8f5823	0.069992326
24	0xbd85eeba	-0.06539674
25	0xbe995af8	-0.29952216
26	0x3ccc37e1	0.024928989
27	0x3d03374c	0.032035157
28	0xbdfd8e27	-0.12380629
29	0xbee7035f	-0.4511976
30	0x3c90a1f3	0.017655348
31	0x3da6f79c	0.081526965
32	0xbdde97ef	-0.10868823
33	0xbea0b732	-0.31389767
34	0xbee632c5	-0.4496061
35	0xbe0d2000	-0.13781738
36	0xbd955e88	-0.07293421
37	0xbe0fcf2f	-0.14043878
38	0xbea340ab	-0.31885275
39	0x3ccc9d39	0.024977313
40	0xbe1d3164	-0.15350872
41	0xbecbf216	-0.39833134
42	0xbd61a9c4	-0.05509354
43	0xbea80aa7	-0.32820627
44	0x3d94d328	0.07266837
45	0xbb4131be	-0.0029479112
46	0x3d0f4a26	0.034982823
47	0xbdc4ffce	-0.09619103
48	0x3d90651a	0.070505336
49	0xbe14a97a	-0.14517775
50	0x3dbb4244	0.091434985
51	0x3dcc84b5	0.09986249
52	0x3de5e1b7	0.11224692
53	0xbda0a3c3	-0.07843735
54	0x3de49c7f	0.11162662
55	0x3df52454	0.1196982
56	0xbd7d9e0c	-0.061918303
57	0x3e766c26	0.24064693
58	0x3e7bc481	0.24586679
59	0x3daf16cb	0.08549269
60	0x3d96d456	0.073647186
61	0x3e046200	0.12928009
62	0x3d34f323	0.044177186
63	0xbc84315c	-0.016136818
64	0x3e914920	0.28376102
65	0x3e28399e	0.16428229
66	0x3ca9b7a0	0.020717442
67	0x3ecbb778	0.39788413
68	0x3dcc5772	0.09977616
69	0x3d2beded	0.04197495
70	0x3dbec829	0.09315521
71	0x3d4b88ae	0.049690895
72	0xbc6ee599	-0.014581108
73	0xbc00ddc9	-0.007865378
74	0x3b9504cd	0.0045476914
75	0xbb4ce394	-0.0031263577
76	0x3d923e89	0.07140834
77	0x3c037d0c	0.008025419
78	0x3cfc3435	0.030786613
79	0xbdb66548	-0.089060366
80	0xbc8861c4	-0.01664818
81	0x3e15c85b	0.14627211
82	0x3d3b75c7	0.045766618
83	0x3d98a2c7	0.07452922
84	0xbd665d96	-0.056241594
85	0xbd56dcc4	-0.052456632
86	0x3c4854a8	0.012227215
87	0xbd5c74ac	-0.053822204
88	0xbd92cf40	-0.07168436
89	0x3d33ff22	0.043944485
90	0xbd294fad	-0.04133575
91	0xbcd1d21a	-0.02561288
92	0xbd16fcf4	-0.03686233
93	0xbc18ac66	-0.009318447
94	0x3d368f31	0.04457015
95	0x3db10732	0.086439505

batchnorm1.weight f4 [24]
0	0x3fa2cce1	1.2718774
1	0x3ff75b8d	1.9324814
2	0x3fada74e	1.3566682
3	0x3f8f0b48	1.1175318
4	0x3f83099a	1.0237305
5	0x40092c98	2.1433468
6	0x3f663075	0.8991769
7	0x3f9a2dbe	1.204521
8	0x3fa97a11	1.3240377
9	0x3fdd031b	1.7266573
10	0x4004ac4b	2.073016
11	0x3fe091c1	1.754448
12	0x3fb43662	1.4079096
13	0x3fefd545	1.873696
14	0x3faa5e9e	1.3310125
15	0x3f9d85fd	1.2306515
16	0x3fd5fa00	1.6716919
17	0x3fc46cda	1.5345719
18	0x3f865a13	1.0496238
19	0x3fbfc9a2	1.4983408
20	0x3f5e4e36	0.8683809
21	0x3f76898a	0.9630362
22	0x3f93e414	1.1553979
23	0x3fd10f80	1.6332855

batchnorm1.bias f4 [24]
0	0xbd811199	-0.063021846
1	0xbe0b230a	-0.13587585
2	0xbd53a6fb	-0.051672917
3	0x3d69e136	0.057099544
4	0xbea3eb37	-0.32015392
5	0xb996fcde	-0.0002879863
6	0xbc78f1e3	-0.015194389
7	0xbd3eef0e	-0.0466147
8	0x3e840846	0.25787562
9	0x3d6450e8	0.05574122
10	0xbd161414	-0.03664024
11	0x3d424ac8	0.0474346
12	0x3e1d69b4	0.15372354
13	0xbe311395	-0.17292626
14	0x3e3a90a0	0.18219233
15	0xbca55d63	-0.020186132
16	0xbba8d3db	-0.0051522083
17	0xbc918251	-0.017762335
18	0x3d68d48c	0.056843325
19	0x3d9ef487	0.07761484
20	0x3c68caab	0.014208476
21	0xbe9afd6a	-0.30271465
22	0xbe2db598	-0.16963804
23	0xbe203451	-0.15644957

batchnorm1.running_mean f4 [24]
0	0xbe014778	-0.1262492
1	0x3b41643b	0.0029509205
2	0xbd9d22a0	-0.0767262
3	0x3d784573	0.060613107
4	0xbc0a8484	-0.008454446
5	0xbc208622	-0.009797605
6	0xbbb57b00	-0.0055383444
7	0xbe6325ca	-0.22182384
8	0xbcb8ad3d	-0.022543544
9	0x3d270869	0.040779505
10	0xba5dc7e9	-0.000846027
11	0x3d5d37d8	0.054008335
12	0x3c342f27	0.01099757
13	0xbd8b682d	-0.06806979
14	0x3dd90af6	0.10597794
15	0x3bb8df48	0.0056418516
16	0xbba23ad7	-0.004950862
17	0xbaf88695	-0.0018961007
18	0x3df524e1	0.11969925
19	0x3c1011df	0.008793323
20	0xbc2bba23	-0.01048139
21	0x3e0f150e	0.13972875
22	0x3e37c914	0.17947799
23	0x3e4752a1	0.19465114

batchnorm1.running_var f4 [24]
0	0x3d53125d	0.051531184
1	0x3cd2107d	0.025642628
2	0x3d1b9719	0.037985895
3	0x3d6f055d	0.058354724
4	0x3d87ac6d	0.066246845
5	0x3cd7ca0d	0.026341463
6	0x3d19219e	0.037385575
7	0x3d38c507	0.045109775
8	0x3d7ca07a	0.06167648
9	0x3cf3fdf9	0.02978419
10	0x3b033497	0.002002036
11	0x3d56898f	0.05237728
12	0x3d6b6210	0.057466567
13	0x3d22c256	0.039736114
14	0x3d212421	0.039341096
15	0x3da3a3ff	0.07990264
16	0x3af4cedb	0.001867737
17	0x3b287d7c	0.002570956
18	0x3dcec473	0.100960635
19	0x3b466979	0.003027527
20	0x3d87cafa	0.066305116
21	0x3dbc718a	0.09201343
22	0x3d793fd0	0.060851872
23	0x3d5d2ea8	0.053999573

decoder_1_convlstm.conv.weight f4 [96, 48, 3, 3]
0	0x3c03a3e1	0.008034677
1	0x3b802334	0.0039104465
2	0x3c92264f	0.017840533
3	0xbd01185b	-0.031517368
4	0xbcc1a8b7	-0.02364002
5	0x3d123ab5	0.03570052
6	0x3c46cf10	0.0121343285
7	0x3aaccd78	0.0013183793
8	0xbc08a176	-0.008339277
9	0x3cc0e143	0.023544913
10	0xbb6a020e	-0.003570679
11	0x3ce943a2	0.028474633
12	0x3c85c2a9	0.016328173
13	0x3d12f8b2	0.035881706
14	0xbc3550e4	-0.011066649
15	0xbbb13db8	-0.005408969
16	0x3c4591ea	0.012058714
17	0x3b984f04	0.0046480913
18	0xbb727d5c	-0.003700099
19	0x3c6ef95d	0.01458582
20	0x3c841030	0.016121
21	0xbd155fe3	-0.036468398
22	0xbd4dec5c	-0.050274238
23	0xba8c56e8	-0.0010707052
24	0x3c660d6c	0.014041286
25	0x3c1b7ae9	0.009489753
26	0xba8f90fd	-0.0010953244
27	0xbc83a9e0	-0.016072214
28	0x3c740f8f	0.014896288
29	0xbb2fd910	-0.002683226
30	0xbb9c1e23	-0.0047643348
31	0x3c77f21c	0.015133407
32	0x3c975063	0.018470949
33	0xbc880268	-0.01660271
34	0x3ca949e9	0.020665126
35	0x3d277b14	0.04088886
36	0x3bc6b58c	0.0060641225
37	0x3a9cadfe	0.0011953709
38	0x3d296e86	0.04136517
39	0x3c97f658	0.018550083
40	0xbcc51f36	-0.024062734
41	0xbd07df98	-0.03317222
42	0xbd5eb6b1	-0.054373447
43	0xbd500f7e	-0.050796025
44	0xbc801782	-0.01563621
45	0xbbfd5ca0	-0.007731989
46	0xbb9864ea	-0.004650702
47	0xbc81f13d	-0.015862102
48	0xbc64f4e6	-0.013974404
49	0xbd0e98e6	-0.034813784
50	0xbb2f5a0c	-0.0026756553
51	0x3c808db0	0.015692562
52	0x3c0795a6	0.008275425
53	0xb7a1f583	-1.9307021e-05
54	0xbca12e54	-0.019675411
55	0x3d3eeb57	0.046611156
56	0x3c857f7d	0.016296143
57	0x3cdb7a4f	0.02679172
58	0x3ce25057	0.0276262
59	0x3c46201a	0.012092615
60	0xbd3c98c9	-0.046044145
61	0xbc9cb687	-0.019130005
62	0x3cd9ad95	0.026572028
63	0x3ce7c44f	0.02829185
64	0x3befcc5b	0.0073180622
65	0x3c8ef29b	0.017449668
66	0x3ccc0a41	0.024907233
67	0xb9cf03f7	-0.0003948507
68	0x3dbef561	0.09324146
69	0x3da1960e	0.07889949
70	0x3cb2b8af	0.02181658
71	0x3d6d5dbf	0.05795073
72	0xbd36f29a	-0.044664957
73	0xbcc64afe	-0.024205681
74	0xbd05c152	-0.032655068
75	0xbd97bb77	-0.07408803
76	0xbdf79aa0	-0.12090039
77	0xbd0b7dbc	-0.034055457
78	0x39de34fd	0.0004238262
79	0xbd0ad12f	-0.0338909
80	0xbd5fc8d2	-0.054634877
81	0xbac19a42	-0.0014770704
82	0xbc892bec	-0.016744576
83	0xbbe022ef	-0.006840102
84	0xbc0e1b33	-0.008673477
85	0x3b53f229	0.0032340384
86	0xbc328d1f	-0.010897904
87	0x3b727337	0.0036994943
88	0xbb88562a	-0.004160662
89	0xbcb37ba5	-0.021909544
90	0x3c934fb9	0.01798235
91	0x3bbbf596	0.0057360632
92	0x3c4e2072	0.012580978
93	0xbb5dd251	-0.0033847282
94	0x3b5e8bd2	0.003395785
95	0x3bacd642	0.005274565
96	0x3ba73920	0.0051032454
97	0xbc79abc4	-0.015238706
98	0xbbb76427	-0.005596656
99	0x3c0389df	0.0080284765
100	0x3c9a3ec4	0.018828757
101	0x3c9fc1c8	0.019501582
102	0x3d04f1a1	0.032456998
103	0x3cf88f51	0.030341776
104	0x3c6f55da	0.014607871
105	0x38535238	5.0382892e-05
106	0xbc00c221	-0.007858784
107	0x3c37de77	0.011222473
108	0xbc13fbe6	-0.009032225
109	0x3c1ebb70	0.009688243
110	0xbcb410b8	-0.021980628
111	0x3d23a0f7	0.03994843
112	0x3d1a6abd	0.03769945
113	0xbcbdf738	-0.023189172
114	0xbb36d3fd	-0.002789735
115	0x3bb63be4	0.0055613387
116	0x3d349fd2	0.04409773
117	0xbbf911a3	-0.0076009794
118	0xbb927d5d	-0.004470511
119	0xbbebec5c	-0.007199807
120	0xbc6a5912	-0.014303463
121	0xbce745e6	-0.028231572
122	0x3c07b24f	0.008282258
123	0xbcb47134	-0.022026636
124	0xba8fc8fb	-0.0010969931
125	0xbb86890b	-0.0041056923
126	0x3c04d186	0.008106595
127	0xbaa94a4d	-0.001291582
128	0xbd1f29d4	-0.03885825
129	0xbaa308f1	-0.0012438578
130	0xbc3ced0c	-0.011531126
131	0xbb28057a	-0.002563803
132	0xbc812f2d	-0.015769565
133	0x3c7ea093	0.015541214
134	0xbba402b0	-0.005005203
135	0x3c802c46	0.015646111
136	0x3b23bea8	0.0024985466
137	0x3d3b3180	0.045701504
138	0x3cd05bb6	0.025434356
139	0x3c64ba09	0.01396037
140	0x3cdee187	0.02720715
141	0xbca06c45	-0.019582877
142	0xbc92a638	-0.017901525
143	0x3c801f7a	0.01564001
144	0xbc011450	-0.007878378
145	0xbc4e14c2	-0.012578191
146	0xbbfedf70	-0.0077781007
147	0x3c58c577	0.013230673
148	0xbb9e1022	-0.0048237005
149	0xbbc032ff	-0.005865454
150	0x3b82ded9	0.0039938507
151	0x3d332ad2	0.04374201
152	0xbba3cfd0	-0.0049991384
153	0x3bf25f0a	0.0073965834
154	0x3c6916c5	0.01422662
155	0x3b1a7487	0.002356799
156	0xbc593a59	-0.01325854
157	0xbc6f45c2	-0.014604034
158	0x3c0077df	0.0078410795
159	0x3c0af272	0.008480655
160	0xbd0c746c	-0.034290716
161	0xbc44e5e3	-0.0120177
162	0x3d478ac9	0.04871634
163	0x3c52bab6	0.012861898
164	0x3bbda648	0.0057876445
165	0xbcdcaed0	-0.026938826
166	0x3bb38cea	0.0054794447
167	0x3c448567	0.011994696
168	0x3c0c5c01	0.008566857
169	0xbd595f43	-0.053069364
170	0x3ce05da7	0.027388407
171	0xbc805671	-0.015666218
172	0xbcac9721	-0.021068158
173	0xbc435a18	-0.0119233355
174	0x3be6f159	0.007047814
175	0x3a83997b	0.0010040248
176	0xbc60df7f	-0.013725161
177	0x3cc80e3e	0.024420854
178	0x3cfd6b4f	0.030934958
179	0x3b699b40	0.0035645515
180	0xbd513684	-0.05107738
181	0xbc8988a6	-0.016788792
182	0x3d272bb6	0.04081317
183	0x3ce2616a	0.027634341
184	0x3caa5ef6	0.020797234
185	0x3c8a04f5	0.016848067
186	0x3cd7b815	0.026332894
187	0x3d83752f	0.06418835
188	0xbe137ce7	-0.14403115
189	0x3d004063	0.031311404
190	0x3cd5e65e	0.026110824
191	0x3bef74c3	0.0073076203
192	0x3bd62be9	0.006535996
193	0x3d5937c8	0.053031713
194	0x3c08d3b4	0.008351255
195	0x3cbc4df4	0.02298639
196	0x3bf5cd38	0.0075012706
197	0x3c2d6d92	0.010585206
198	0xbd338dd3	-0.043836426
199	0x3b8e9b13	0.0043519824
200	0xbd280383	-0.041018974
201	0xbc873517	-0.016504807
202	0xbbfd658a	-0.0077330517
203	0xbd13e90c	-0.036110923
204	0xbd0a9f08	-0.03384307
205	0xbd3358b6	-0.043785773
206	0xbbe6722d	-0.007032654
207	0xbb3cf218	-0.0028830823
208	0xbc4cb044	-0.012493197
209	0xbc89d279	-0.016823994
210	0xbd03c97f	-0.032174584
211	0x3c69e54a	0.014275858
212	0xbc7c3b6e	-0.0153950285
213	0xbc642e53	-0.01392706
214	0x3c4974da	0.012295926
215	0x3c5919ba	0.013250763
216	0x3e3d65c5	0.18495853
217	0xbd983c29	-0.0743335
218	0xbd92791d	-0.07152007
219	0x3c1dbea1	0.009627969
220	0xbd48ecb3	-0.04905386
221	0x3d63b152	0.055589028
222	0x3da9de81	0.082943924
223	0x3e37d83a	0.17953578
224	0x3d467340	0.048449755
225	0xbe1a912e	-0.15094444
226	0xbe574f5a	-0.21026364
227	0x3ecc7725	0.3993465
228	0x3d2158c9	0.039391313
229	0xbd2cedec	-0.042219087
230	0x3e585244	0.21125132
231	0x3e13b9e0	0.14426374
232	0x3e153ac6	0.14573202
233	0x3e7e9c9c	0.24864429
234	0xbe3c7f5c	-0.18407959
235	0x3c834471	0.016023846
236	0x3e74de05	0.23912819
237	0x3d7d603a	0.061859347
238	0x3e127e38	0.14305961
239	0x3e1ec5dc	0.15505165
240	0x3e48d3be	0.19612023
241	0x3e5ff6a8	0.21871436
242	0x3db4498f	0.08803093
243	0xbed0e250	-0.40797663
244	0xbe0d7acf	-0.13816379
245	0x3e6111fc	0.21979517
246	0xbd77e7d9	-0.06052384
247	0x3dd500d9	0.10400552
248	0x3e2f950a	0.17146698
249	0xbc58dd74	-0.013236392
250	0xbc131f08	-0.008979566
251	0xbe87ecaf	-0.26547763
252	0x3e3170f7	0.17328249
253	0xbdaff2d0	-0.08591235
254	0xbeb5ef3f	-0.35534093
255	0xbdf392dd	-0.11893246

decoder_1_convlstm.conv.bias f4 [96]
0	0x3ca4e072	0.020126555
1	0x3e08586d	0.13314982
2	0x3e429f9d	0.190062
3	0x3ea4c77d	0.32183447
4	0xbd8a333a	-0.06748052
5	0xbbdade79	-0.006679353
6	0x3dfc99d9	0.123340316
7	0xbca5e3b9	-0.020250188
8	0x3c233164	0.009960506
9	0x3e2f1ce8	0.1710087
10	0xbe09ef69	-0.13470234
11	0xbdc4e46a	-0.09613879
12	0xbd5301c6	-0.051515363
13	0xbc9f17f3	-0.0194206
14	0x3c84fad0	0.016232878
15	0xbe15ef1f	-0.14641999
16	0x3e13d4ea	0.14436689
17	0xbc2c9944	-0.010534588
18	0xbb9bddc0	-0.0047566593
19	0x3d1068d4	0.035256222
20	0xbd9aa1d6	-0.07550399
21	0xbdd7b59c	-0.10532686
22	0xbd3f3408	-0.04668048
23	0x3ce1b580	0.027552366
24	0x3e19a84d	0.15005608
25	0x3ca23f46	0.019805562
26	0x3e95478e	0.29156154
27	0x3e266e0a	0.16252914
28	0xbde19548	-0.11014801
29	0xbdd87098	-0.105683506
30	0x3df33725	0.11875752
31	0x3c821fe3	0.015884345
32	0xbcd8a2be	-0.026444789
33	0x3dacf6aa	0.08445485
34	0xbdb3769b	-0.087628566
35	0xbe42f92d	-0.19040366
36	0xbe34760f	-0.17623161
37	0x3e14c2ea	0.14527479
38	0x3dc37092	0.095429555
39	0x3c83dd2a	0.01609667
40	0xbd635d5c	-0.055508956
41	0xbdd2ade8	-0.10287076
42	0xbd9267c6	-0.071486995
43	0xbdd84abf	-0.10561132
44	0xbe061c59	-0.13096751
45	0x3e224cc3	0.15849595
46	0xbe032343	-0.1280642
47	0x3cd12f1f	0.025535164
48	0x3e171c2a	0.14756837
49	0x3dfc56dc	0.123212546
50	0x3e9305de	0.28715414
51	0x3ed1667f	0.4089851
52	0xbdba1317	-0.09085672
53	0x3df7346a	0.12070544
54	0x3e33c193	0.17554311
55	0x3da5cb51	0.0809542
56	0x3e1e9337	0.15485846
57	0x3e8e671f	0.2781305
58	0xbd08c441	-0.033390287
59	0x3c3f61c9	0.011681029
60	0x3deecc89	0.11660106
61	0x3d4f465d	0.050604213
62	0x3dd1324a	0.1021467
63	0xbcaaf7ab	-0.02087005
64	0x3d9c52ea	0.07633002
65	0x3e1ae6dd	0.1512713
66	0x3d69e3ac	0.05710189
67	0x3d064fac	0.032790825
68	0xbd8326e7	-0.064039044
69	0x3c12f398	0.00896921
70	0x3c791fd8	0.015205346
71	0x3d9d6d3e	0.07686852
72	0xbdd831e1	-0.10556389
73	0x3daf1d95	0.08550564
74	0xbbd85539	-0.006601956
75	0x3db204e9	0.08692343
76	0x3c6d32e3	0.014477464
77	0xbd0ff9a1	-0.035150174
78	0xbe851651	-0.2599359
79	0xbe0e4013	-0.1389163
80	0x3d98a302	0.07452966
81	0xbe149fc1	-0.14514066
82	0xbddd83eb	-0.10816177
83	0x3e4b6312	0.19862011
84	0x3e76fa79	0.24118985
85	0xbd9fe004	-0.078063995
86	0x3d79a6ec	0.060950205
87	0xbda11572	-0.078654185
88	0x3e8f2c69	0.2796357
89	0xbc5948bd	-0.013261971
90	0x3d1da3d4	0.038486317
91	0xbe5803aa	-0.21095148
92	0x3dc68614	0.09693542
93	0xbdf6b4d2	-0.120462075
94	0x3e08409e	0.133059
95	0x3d2011fb	0.039079648

decoder_2_convlstm.conv.weight f4 [96, 48, 3, 3]
0	0x3e22e142	0.15906242
1	0xbd7f8f1a	-0.06239233
2	0x3cd6304a	0.026146073
3	0xbd86539e	-0.065589175
4	0x3dc237ed	0.09483323
5	0xbe1735d4	-0.14766628
6	0xbdf12d79	-0.11776251
7	0xbd979726	-0.07401876
8	0xbc895ec4	-0.01676882
9	0xbe2f6146	-0.1712695
10	0xbd220ed2	-0.039564915
11	0xbe4666c1	-0.19375135
12	0x3da0f6d9	0.078595825
13	0x3e257536	0.16157994
14	0xbcb22f6b	-0.021751126
15	0xbcc3e551	-0.023913058
16	0xbe027217	-0.12738834
17	0xbe27d57c	-0.16390032
18	0x3d430337	0.047610488
19	0x3cb6275e	0.022235569
20	0xbe458d2a	-0.19292131
21	0xbcf9498b	-0.030430576
22	0xbba2f7a0	-0.004973367
23	0x3d046c1a	0.032329656
24	0x3dfda4da	0.123849586
25	0x3e37d74d	0.17953224
26	0xbca2abab	-0.019857248
27	0x3d18fa7b	0.03734825
28	0x3d5e1046	0.05421474
29	0xbd4e7ec1	-0.05041385
30	0x3daf3eb3	0.08556881
31	0xbb8fd4b0	-0.004389368
32	0xbe12ac59	-0.14323558
33	0xbe9b3dd7	-0.30320618
34	0x3e32ce4c	0.17461509
35	0xba026430	-0.00049740355
36	0x3d9d31ff	0.076755516
37	0x3db90c10	0.09035504
38	0xbebcbb7a	-0.36861783
39	0x3ea6ecd8	0.32602572
40	0x3db0579d	0.08610461
41	0xbcf66b34	-0.030080415
42	0xbe1d5510	-0.1536448
43	0x3e375e16	0.17906985
44	0xba057ba8	-0.00050919736
45	0x3e3d4988	0.18485081
46	0x3e3d6bc9	0.18498148
47	0xbd172c89	-0.036907706
48	0x3db79360	0.089636564
49	0x3c5bfc76	0.013426891
50	0xbe45e662	-0.19326165
51	0x3dd4ba57	0.10387104
52	0xbc08d7ab	-0.0083522005
53	0xbe06d1dc	-0.13165992
54	0x3d2785fb	0.040899258
55	0xbddafe78	-0.10693067
56	0xbe1c51f9	-0.15265645
57	0x3d4815ac	0.048848793
58	0xbe1a795f	-0.15085362
59	0x3e5c3d99	0.21507873
60	0x3e5cacb3	0.21550255
61	0xbd012b65	-0.031535525
62	0x3db43b5a	0.08800383
63	0x3eba701b	0.36413655
64	0xbe83b8c7	-0.2572691
65	0xbe2174ec	-0.15767258
66	0x3dc15592	0.09440149
67	0xbd313184	-0.043260112
68	0xbce88bca	-0.02838697
69	0x3f04a796	0.51818216
70	0x3e025db1	0.12731053
71	0x3ddef258	0.10886067
72	0xbddb7c8d	-0.107171156
73	0x3e295674	0.16536885
74	0x3e4b24ae	0.19838211
75	0xbd929ab9	-0.07158417
76	0xbe0a6647	-0.13515578
77	0xbbb5e1e5	-0.0055506104
78	0x3ddc3f6c	0.10754284
79	0xbda5afa8	-0.080901444
80	0x3deedc73	0.11663141
81	0x3b2537cd	0.0025210262
82	0xbd135272	-0.035967298
83	0xbe8b4126	-0.27198142
84	0x3a63772a	0.00086771196
85	0x3e10c395	0.14137109
86	0x3a9fcb50	0.0012191329
87	0x3c75eb2c	0.015009683
88	0xbd245025	-0.040115494
89	0x3e1fc6ef	0.15603231
90	0xbdf144fa	-0.11780734
91	0x3e9ccb1a	0.30623704
92	0x3e8c3753	0.2738596
93	0xbe2b5824	-0.16732842
94	0xbddd9fab	-0.1082147
95	0xbdfb81d8	-0.12280625
96	0xbdca9747	-0.09892135
97	0xbe6afc16	-0.22947726
98	0x3ebe6d0b	0.37192568
99	0xbeb8084d	-0.35943833
100	0xbe064ec9	-0.13115992
101	0x3cbf33d3	0.023340141
102	0xbe8210ea	-0.2540353
103	0xbea051a8	-0.313123
104	0xbe1a52ab	-0.15070598
105	0x39e93b44	0.0004448538
106	0x3dc4c556	0.09607951
107	0xbe0d743c	-0.13813871
108	0xbd6ac82b	-0.0573198
109	0xbdf1936b	-0.11795696
110	0x3d5ff4fc	0.054676995
111	0x3ee1282c	0.4397596
112	0x3e67b734	0.2262848
113	0x3e1e30e7	0.15448342
114	0x3d6b5f83	0.057464134
115	0xbe2df880	-0.16989326
116	0xbea9d923	-0.33173475
117	0x3dec036c	0.1152409
118	0x3e70c444	0.2351237
119	0x3d1732a4	0.03691353
120	0xbea4eed7	-0.3221347
121	0xbc2b9f4b	-0.01047499
122	0x3c728a00	0.01480341
123	0xbcd9ab0d	-0.026570821
124	0xbecda11c	-0.4016198
125	0xbe2aed16	-0.16692004
126	0x3d0457f1	0.03231043
127	0x3d96655d	0.07343552
128	0x3deeceda	0.116605476
129	0x3d275ac2	0.040858038
130	0xbcb6ba4e	-0.022305634
131	0xbed2f2dd	-0.41200915
132	0xbdd58b4d	-0.1042696
133	0xbcd069e4	-0.025441118
134	0xbdcc6012	-0.099792615
135	0x3e1f103a	0.15533534
136	0xbdb86020	-0.090027094
137	0xbea28316	-0.31740636
138	0x3e9ac96f	0.30231807
139	0x3ece6793	0.40313396
140	0xbec44515	-0.38333955
141	0xbdf78e95	-0.12087742
142	0x3da86335	0.08222047
143	0xbe0422c7	-0.12903892
144	0x3d7b4eed	0.061354566
145	0xbbda4acc	-0.0066617485
146	0x3e102548	0.14076722
147	0x3e01c2e3	0.12672
148	0x3e14bb92	0.14524677
149	0xbdd0f589	-0.10203082
150	0x3e181f48	0.14855683
151	0xbe573d0f	-0.21019386
152	0xbd267a1b	-0.040643793
153	0x3d377adc	0.044794902
154	0x3d80fc38	0.06298107
155	0x3e92bcf9	0.286598
156	0x3d863cb9	0.06554551
157	0x3e2dafdb	0.16961615
158	0x3e271d2a	0.16319719
159	0x3e393cc0	0.1808958
160	0xbe50258f	-0.20326827
161	0xbe457427	-0.1928259
162	0xbc8702a0	-0.016480744
163	0xbe28da0d	-0.1648943
164	0x3df2f7b7	0.11863654
165	0x3e2019c9	0.15634836
166	0xbe03156b	-0.12801139
167	0x3ec1ef24	0.37877762
168	0xbe18d186	-0.14923677
169	0x3e616088	0.2200948
170	0x3e909b7c	0.28243625
171	0x3e1e3544	0.15450007
172	0x3e805dfe	0.2507171
173	0x3c98e6e3	0.018664783
174	0xbdbac491	-0.09119523
175	0x3e8157fd	0.25262442
176	0x3eaf3d1b	0.34226307
177	0xbcda5643	-0.02665246
178	0x3ca401a5	0.020020315
179	0x3e9d7ac0	0.30757713
180	0xbe99031a	-0.2988518
181	0x3d3c6a26	0.04599967
182	0x3efa1c84	0.4884988
183	0xbedd8c9c	-0.4327134
184	0xbea4e2c0	-0.32204247
185	0x3e001333	0.12507324
186	0xbee9a8f4	-0.45636714
187	0xbd781b95	-0.06057318
188	0xbe053a17	-0.13010441
189	0x3de6626a	0.1124924
190	0xbcba924c	-0.022774838
191	0xbdddcb3b	-0.10829779
192	0xbe21fa3b	-0.15818112
193	0xbe1ae68a	-0.15127006
194	0xbe0a3113	-0.13495283
195	0x3d44ae4d	0.04801779
196	0xbd876dcc	-0.06612739
197	0xbd141724	-0.03615488
198	0x3e32c5dd	0.17458291
199	0xbe5b9a49	-0.21445574
200	0x3dd90205	0.10596088
201	0xbd73340e	-0.059375815
202	0xbe5be7a1	-0.21475078
203	0x3e104706	0.14089593
204	0x3dd1084e	0.10206662
205	0x3d2a7b05	0.041621227
206	0xbdd3260d	-0.10309992
207	0x3e240bd0	0.16020131
208	0x3d74be4a	0.059751786
209	0x3db91ad9	0.09038324
210	0x3dec0e13	0.11526122
211	0x3df8f12a	0.121553734
212	0x3a0352f7	0.0005009616
213	0x3e384a95	0.17997201
214	0xbe819eee	-0.25316566
215	0x3df587ba	0.119887784
216	0x3ebb5b51	0.36593106
217	0xbdf6c3b8	-0.12049049
218	0x3c1af12f	0.009456917
219	0xbbb07bbf	-0.0053858454
220	0xbd299d65	-0.04140987
221	0xbe1042cb	-0.1408798
222	0xbdef50c7	-0.11685329
223	0x3d8b89c9	0.0681339
224	0xbebd31e6	-0.36952132
225	0x3e7ed321	0.24885227
226	0xbdf2bd77	-0.11852544
227	0xbe35f03b	-0.17767422
228	0x3e984847	0.29742643
229	0x3e8c849c	0.27444923
230	0x3db056fd	0.08610342
231	0xbdf867e1	-0.12129188
232	0xbce24a73	-0.02762339
233	0xbecb8b57	-0.39754745
234	0xbddc0f90	-0.10745156
235	0x3ea5677c	0.32305515
236	0xbe3a549b	-0.18196337
237	0x3e071409	0.13191237
238	0xbd25709b	-0.040390592
239	0x3d786962	0.060647376
240	0x3ea29e6f	0.317615
241	0x3e703154	0.23456317
242	0xbf175f11	-0.59129435
243	0xbf2c89e3	-0.673979
244	0xbd799561	-0.060933474
245	0x3b0c7c61	0.002143644
246	0xbea032ed	-0.31288853
247	0xbe6df504	-0.23237997
248	0x3bd680a2	0.006546096
249	0xbef6d912	-0.48212487
250	0x3e10c0e8	0.14136088
251	0x3e14611b	0.14490168
252	0xbd0bae49	-0.03410176
253	0xbe20d4b8	-0.15706146
254	0xbedf3b89	-0.4360011
255	0x3c0b79ad	0.0085128965

decoder_2_convlstm.conv.bias f4 [96]
0	0xbe9c09cd	-0.30476227
1	0xbee75510	-0.45182085
2	0xbe9f17b6	-0.31072778
3	0xbdf96cf1	-0.12178982
4	0xbe1e9691	-0.15487124
5	0xbe2994c3	-0.16560654
6	0xbe434b77	-0.19071756
7	0xbe01548b	-0.12629907
8	0xbe20dd4b	-0.15709417
9	0xbdd962a7	-0.106145196
10	0xbe61c2f0	-0.22047019
11	0xbe5814a0	-0.21101618
12	0xbe01c25e	-0.12671801
13	0xbdcc2b28	-0.09969169
14	0xbe2f5419	-0.17121924
15	0xbe88f1ea	-0.26747066
16	0xbe4516b4	-0.19246942
17	0xbeadad19	-0.33921126
18	0xbe12165a	-0.14266339
19	0xbe51bf16	-0.2048305
20	0xbd934f73	-0.07192888
21	0xbe8c2601	-0.27372745
22	0xbdd7ee56	-0.10543506
23	0xbe2f48cd	-0.17117615
24	0x3d7f8432	0.06238193
25	0x3e308f9e	0.17242286
26	0xbe2cdb7d	-0.16880603
27	0xbe3e84f3	-0.18605404
28	0xbcd3e312	-0.025865112
29	0xbd363a0b	-0.044488948
30	0x3c94d704	0.018168934
31	0x3d5f8f1f	0.05457985
32	0xbd11b710	-0.035574973
33	0xbdba2fd8	-0.09091157
34	0xbe0cf41a	-0.13764992
35	0xbe123d9d	-0.14281316
36	0x3e1b3f5c	0.15160888
37	0xbcd3fd96	-0.025877755
38	0x3d3d25dc	0.046178684
39	0xbe5262e0	-0.2054553
40	0x3d3d5d8e	0.0462318
41	0x3d14b0c4	0.03630139
42	0xbd0974cd	-0.033558656
43	0xbdb4dc54	-0.08831087
44	0x3d0abeb7	0.033873286
45	0xbc755c2e	-0.014975591
46	0x3d52d09d	0.05146848
47	0x3d1fd019	0.039016817
48	0xbe4a53c3	-0.19758515
49	0xbe84c3ac	-0.25930536
50	0xbeb4ea17	-0.35334846
51	0xbea0dc17	-0.31417915
52	0x3c9e5119	0.01932578
53	0xbe9d9e62	-0.307849
54	0xbd3104a1	-0.043217305
55	0xbda8270a	-0.08210571
56	0xbdda96df	-0.106733076
57	0xbe1e1b4f	-0.15440105
58	0xbe11e480	-0.14247322
59	0xbe1d2410	-0.15345788
60	0xbe55a80f	-0.2086489
61	0xbdeefd4b	-0.116694055
62	0xbe1810be	-0.14850137
63	0xbe1274e0	-0.14302397
64	0x3c824309	0.015901105
65	0xbeb3e8c5	-0.35138527
66	0xbda47d90	-0.08031762
67	0xbe2e9e16	-0.17052492
68	0x3d6c2705	0.0576544
69	0xbe61ea06	-0.22061929
70	0xbd5bcdd3	-0.053663086
71	0xbdee7ea1	-0.11645246
72	0x3cd6ab0c	0.026204608
73	0xbd2431c9	-0.04008654
74	0xbbd0dc38	-0.0063739084
75	0x3dc3ca5b	0.095600806
76	0x3cc91d73	0.024550175
77	0x3d655e73	0.055998277
78	0x3c5dd747	0.013540096
79	0x3cbef5e4	0.02331061
80	0xbdd537c6	-0.104110286
81	0x3d5e0420	0.054203153
82	0xb89adcf3	-7.384447e-05
83	0x3c5a9131	0.01334028
84	0xbd3a9dec	-0.045560762
85	0xbc5da41e	-0.013527898
86	0x3d72d461	0.05928457
87	0x3c6452f3	0.013935792
88	0x3da7a64e	0.08186017
89	0xbd061b07	-0.03274062
90	0x3cf9818d	0.030457282
91	0xbc48dbed	-0.012259466
92	0xbcf8d99f	-0.030377207
93	0x3cb64277	0.02224849
94	0xbc14a193	-0.009071725
95	0xbc4d8ad3	-0.012545305

batchnorm2.weight f4 [24]
0	0x3f30c328	0.69047785
1	0x3f6815fb	0.9065854
2	0x3f58e9bf	0.8473167
3	0x3f4e7bcc	0.8065765
4	0x3f60f6e0	0.878767
5	0x3f56aa64	0.83853745
6	0x3f4d1724	0.80113435
7	0x3f68b48d	0.909005
8	0x3f320843	0.69543856
9	0x3f35e8a3	0.710581
10	0x3f23a5d7	0.63924927
11	0x3f2da11d	0.67823964
12	0x3f3e5e0a	0.7436224
13	0x3f46cbae	0.7765454
14	0x3f5809c0	0.8438988
15	0x3f63cf4b	0.8898818
16	0x3f35032b	0.7070796
17	0x3f569cae	0.83832824
18	0x3f5915df	0.84799
19	0x3f4a7039	0.7907749
20	0x3f5adbc6	0.854916
21	0x3f34234b	0.7036635
22	0x3f3a453b	0.7276189
23	0x3f59aee9	0.85032517

batchnorm2.bias f4 [24]
0	0xbbf0e490	-0.0073514655
1	0xbd0c32f3	-0.034228276
2	0xbc0da0cb	-0.008644293
3	0x3b5a1b05	0.0033280265
4	0x3c75572a	0.014974395
5	0x39b1f340	0.00033941306
6	0xbc1b6e3d	-0.009486732
7	0xbd06c4bf	-0.032902475
8	0x3d803d24	0.06261662
9	0xbd586e07	-0.052839305
10	0x3adba9ae	0.0016758943
11	0xbcce406a	-0.0251772
12	0xbc5fbfed	-0.0136565985
13	0x3c8caa3d	0.01717102
14	0x3c8a3d87	0.016875042
15	0xbcac6fdb	-0.02104943
16	0x3c1dacb3	0.009623694
17	0x3d3bde9f	0.045866605
18	0xbd211891	-0.03933007
19	0x3cbe4328	0.023225382
20	0x3b9ecd63	0.0048462613
21	0x3ca66c94	0.020315446
22	0xbd7972da	-0.060900547
23	0xbd22fc64	-0.03979148

batchnorm2.running_mean f4 [24]
0	0x3bb8173d	0.0056180046
1	0x3ca8bd1a	0.020597983
2	0xbb1a3189	-0.002352806
3	0x3bae2e7c	0.0053156
4	0x3d5d8df0	0.05409044
5	0x3aa71885	0.0012748396
6	0x3c0240fa	0.007950062
7	0x3bb6a6c6	0.00557408
8	0xbd2d1dde	-0.04226481
9	0x3d01bc82	0.031673916
10	0xbcbf804b	-0.023376605
11	0xbcb4591a	-0.022015143
12	0xbd0309ee	-0.03199189
13	0x3b3dca0c	0.002895954
14	0x3c06c4e0	0.00822565
15	0x3cc552d0	0.02408734
16	0xbc13a33c	-0.009011086
17	0x3ca562dd	0.020188743
18	0x3c905f19	0.017623471
19	0xbc32ee96	-0.010921141
20	0xbcd28403	-0.025697714
21	0xbc8ffc69	-0.017576413
22	0xbc86b0df	-0.01644176
23	0xbd186cd9	-0.03721318

batchnorm2.running_var f4 [24]
0	0x3ccd4cd2	0.025061045
1	0x3c438060	0.011932462
2	0x3c42eba9	0.011897006
3	0x3c902c7e	0.01759934
4	0x3c905b6f	0.017621724
5	0x3c1c3917	0.009535096
6	0x3c664754	0.014055092
7	0x3c70238e	0.014656914
8	0x3c98fb3d	0.018674487
9	0x3c5fde88	0.013663895
10	0x3cdd897c	0.027043097
11	0x3c581039	0.0131874615
12	0x3cbee876	0.023304205
13	0x3c6884d5	0.014191826
14	0x3c3b0c48	0.011416502
15	0x3c68ea0d	0.014215958
16	0x3cb4e9fa	0.022084225
17	0x3c3f2c04	0.011668209
18	0x3c9078eb	0.017635783
19	0x3c8d569f	0.017253218
20	0x3cc281ed	0.023743594
21	0x3c51cdfb	0.012805457
22	0x3c5dcfae	0.013538284
23	0x3cb6e9cd	0.022328282

decoder_CNN.weight f4 [1, 24, 1, 3, 3]
0	0x3d1ad49d	0.03780042
1	0xbc0f4848	-0.008745261
2	0x3c87c8f4	0.016575314
3	0xbd3b2a18	-0.04569444
4	0xbb58715a	-0.0033026547
5	0xbb787b42	-0.0037915264
6	0x3ad64d14	0.0016349875
7	0xbc24b631	-0.010053203
8	0xbba29668	-0.0049617775
9	0x3b9125da	0.004429561
10	0x3d499282	0.049211986
11	0x3d37df48	0.044890672
12	0xbb12e6d9	-0.0022415428
13	0x3c3a4660	0.011369318
14	0x3c0a6db1	0.008449004
15	0x3c0af749	0.008481809
16	0x3bb09088	0.005388323
17	0xbc3111ad	-0.010807437
18	0xbbabed66	-0.005246806
19	0xbca7c3bd	-0.020479077
20	0xbc971d92	-0.018446717
21	0x3bf9abee	0.0076193726
22	0xbcb59df5	-0.022170046
23	0xbca4480e	-0.02005389
24	0x3ca00eb7	0.019538267
25	0x3ce78b26	0.028264593
26	0x3d086d06	0.033307098
27	0xbbc4c5a7	-0.0060050073
28	0x3cae83b5	0.021303037
29	0x3b4e4969	0.0031476861
30	0xbd275c3e	-0.040859453
31	0xbcb1a077	-0.02168296
32	0xbc49e110	-0.0123217255
33	0x3c88dac1	0.016705872
34	0x3c0177a9	0.007902064
35	0x3b8f118f	0.004366107
36	0xbaa049fd	-0.0012229081
37	0xbd531b9b	-0.05154
38	0xbc0f49f2	-0.008745657
39	0xbc8ade06	-0.016951572
40	0x3b7c1591	0.0038465003
41	0x3b760017	0.0037536675
42	0xbc305dd7	-0.010764561
43	0xbd0963a8	-0.033542305
44	0x3c5ee671	0.013604746
45	0xbcf01128	-0.029305056
46	0xbbda6fc0	-0.0066661537
47	0xbd173b2e	-0.036921673
48	0x3cc897e5	0.024486491
49	0x3ca29adf	0.019849239
50	0x3ccf5948	0.025311127
51	0x3d604009	0.05474857
52	0x3c5ddfbd	0.013542113
53	0xbc8fc50f	-0.01755002
54	0x3c0a45a4	0.008439455
55	0xbcf70656	-0.030154388
56	0x3d1fe12a	0.039033093
57	0x3d220071	0.039551202
58	0x3aaf1791	0.0013358464
59	0x3ca1c203	0.019745832
60	0x3cf53722	0.029933516
61	0xbd3c3d15	-0.04595669
62	0xbcbea538	-0.023272142
63	0x3c91fa26	0.017819475
64	0x3cfe7675	0.031062344
65	0x3cc0a608	0.02351667
66	0xbc1c0740	-0.009523213
67	0x3c09be4e	0.008407189
68	0x3d082b68	0.03324452
69	0x3ca6fa63	0.020383066
70	0x3c760f56	0.015018305
71	0xbb952773	-0.004551822
72	0x3c09d23d	0.008411941
73	0x3d44f54a	0.04808549
74	0xbd120c42	-0.03565622
75	0xbc3548bc	-0.0110647045
76	0x3c93d9d3	0.018048203
77	0x3a49eddb	0.0007702985
78	0xbcb53b16	-0.022122901
79	0x3b4a79de	0.0030895392
80	0xbc1f6325	-0.009728228
81	0x3ce30cd5	0.02771608
82	0xbcf16b24	-0.029470034
83	0x3d46b9d4	0.048517063
84	0xbd060b74	-0.032725766
85	0xbae6453e	-0.0017568243
86	0xbc8eacc3	-0.017416364
87	0x3d2dd514	0.042439535
88	0x3c80a26b	0.015702447
89	0xbceaec47	-0.028677119
90	0x3c318a3b	0.010836179
91	0xbd2bdd62	-0.041959174
92	0x3c27c8c3	0.010240736
93	0x3949d9fd	0.0001925006
94	0x3d60c4f5	0.054875333
95	0x3c0ba31e	0.008522777
96	0x3c93f2ae	0.018060055
97	0xbd254624	-0.040350094
98	0xbc32fde0	-0.010924786
99	0x3cb62ad0	0.022237211
100	0xbcacc2cd	-0.021088982
101	0x3cc111b9	0.023568021
102	0x3cbcff55	0.02307097
103	0x3c350dd0	0.011050656
104	0xbaf3eb04	-0.0018609469
105	0xbc9432a1	-0.018090548
106	0xba9a79f2	-0.001178561
107	0xbc52c442	-0.012864174
108	0xbd161a4f	-0.036646184
109	0x3d019d44	0.03164412
110	0x3c67979e	0.014135269
111	0xbcb229ba	-0.021748412
112	0x3d063bfb	0.032772046
113	0xbb42ec22	-0.0029742797
114	0x3c22740e	0.009915365
115	0x3ba3ab34	0.0049947742
116	0xbbf26260	-0.007396981
117	0xbbbf64a1	-0.0058408533
118	0xbc46a179	-0.012123459
119	0xbada9342	-0.0016675966
120	0xbc82c537	-0.01596318
121	0x3d336486	0.04379704
122	0x3d23c01a	0.039978124
123	0xbc034731	-0.008012579
124	0xbd3de2c5	-0.046358842
125	0xbc0e1f28	-0.00867442
126	0x3c5cdaaa	0.013479868
127	0xbbca9789	-0.006182615
128	0x3b95c78c	0.004570907
129	0xbc1fa43f	-0.009743749
130	0x3b674ae6	0.0035292446
131	0xbbf2cfc1	-0.00741002
132	0xbd44e951	-0.04807407
133	0xbb95d406	-0.0045723943
134	0xbc0c44ef	-0.008561357
135	0xbbb7deba	-0.005611268
136	0xba5001a6	-0.0007934816
137	0x3cce46e4	0.025180288
138	0x3cc587c0	0.024112582
139	0x3d4f97e3	0.05068196
140	0xbc9346a7	-0.017978026
141	0x3c48ea31	0.012262867
142	0x3b372bf0	0.0027949773
143	0x3ca94b05	0.020665655
144	0x3ca88bc2	0.020574454
145	0xbb5483a4	-0.0032427097
146	0x3cd85034	0.026405431
147	0xbce007ca	-0.027347464
148	0xbd02720e	-0.031847052
149	0x3b5dfe64	0.0033873552
150	0x3d126add	0.035746444
151	0xbce964d8	-0.028490469
152	0x3c133fb6	0.008987358
153	0x3c8fa697	0.01753549
154	0xbd6b26d7	-0.057410087
155	0xbd21275f	-0.039344188
156	0x3d3f0d79	0.046643708
157	0x3c98627e	0.018601652
158	0xbcc8bdef	-0.02450463
159	0x3c31482f	0.010820433
160	0x3ca842d6	0.020539682
161	0xbaab7396	-0.0013080712
162	0xbd1f3b20	-0.038874745
163	0x3d32f2ef	0.04368871
164	0x3cc791dd	0.024361545
165	0xbc9b7d62	-0.018980686
166	0x3ca71729	0.020396786
167	0x3ca42d01	0.02004099
168	0x3c07d757	0.008291087
169	0xbc685c67	-0.014182187
170	0x3c98d1a5	0.018654654
171	0xbb80b7d3	-0.0039281636
172	0x3ca140d5	0.019684235
173	0xbcc3d4f1	-0.02390525
174	0xba6c2850	-0.00090086926
175	0xbc30c217	-0.010788462
176	0xbbbc4f43	-0.0057467534
177	0x3d51bcba	0.051205374
178	0x3bd6a4cd	0.0065504075
179	0x3c6ce774	0.01445948
180	0xbc0d4209	-0.008621701
181	0xbd268a8e	-0.04065948
182	0xbc399dda	-0.011329139
183	0xbd00f641	-0.031484846
184	0x3b6cdce5	0.0036142406
185	0x3bce972e	0.006304643
186	0xbc3d0869	-0.01153765
187	0x3c9a35db	0.018824508
188	0x3c1b69fd	0.009485719
189	0xbba86482	-0.0051389346
190	0x3bc01e7c	0.005863009
191	0xbd18a3c8	-0.03726557
192	0x3d0cb82c	0.034355327
193	0xbccc21f0	-0.024918526
194	0x3c95acc1	0.018270852
195	0x3c2292e8	0.0099227205
196	0x3a7f15aa	0.0009730706
197	0x3bfae6e7	0.0076569202
198	0x3ce6ea62	0.028187934
199	0xbd56cc17	-0.05244073
200	0x3c6353f0	0.013874993
201	0xbcc01341	-0.023446681
202	0xbd02f2b4	-0.03196974
203	0x3cb4d569	0.022074418
204	0x3d0aa1ec	0.033845827
205	0x3a5b5cab	0.00083679956
206	0x3ccb8319	0.024842786
207	0x3cac1a83	0.021008736
208	0x3bb29e48	0.0054509975
209	0x3d488772	0.048957296
210	0x3aff279b	0.0019466759
211	0xbd44d849	-0.048057828
212	0x3cce705f	0.025200067
213	0xbc76215b	-0.015022601
214	0x3a33379d	0.0006836595
215	0x3cc39625	0.023875305
