models/conv3d/lr_0.0005/lr_0.0005/epoch_3710.pt (torch, 189922 bytes, 102 tensors)

model1.0.weight f4 [16, 8, 3, 3, 3]
0	0xbd600db6	-0.054700576
1	0x3d0add15	0.033902247
2	0xbd6d798e	-0.05797725
3	0x3d4747ee	0.048652582
4	0x3c9685f1	0.018374415
5	0x3d51951d	0.051167596
6	0x3ca9da4f	0.02073398
7	0xbc6a5d12	-0.014304416
8	0xbd9b7a7b	-0.07591721
9	0xbd856e7e	-0.06515215
10	0xbbbb3d18	-0.00571407
11	0xbd808c06	-0.06276707
12	0xba0b07e7	-0.0005303607
13	0x3cf905b9	0.030398237
14	0x3d5808f3	0.05274291
15	0xbd2fc9ec	-0.042917177
16	0x3cf59e08	0.029982582
17	0x3c54ff92	0.013000386
18	0xbd74bd3a	-0.059750773
19	0xbc8a284b	-0.016864916
20	0xbc243e47	-0.010024614
21	0x3d8c8b71	0.06862534
22	0x3d32c6d8	0.043646663
23	0x3d6e0ea3	0.058119427
24	0xbd23983d	-0.039940108
25	0x3c9bb525	0.019007275
26	0xbcbdc7ec	-0.02316662
27	0x3cba983d	0.022777671
28	0x3dd26359	0.10272855
29	0x3d9fb939	0.07799
30	0xbd882da8	-0.06649333
31	0xbdb4f237	-0.08835261
32	0x3c836057	0.01603715
33	0x3d86d4dd	0.06583569
34	0xbd14431c	-0.036196813
35	0xbc69f7da	-0.014280284
36	0x3bf2c8f3	0.007409209
37	0xbd47fb75	-0.048823792
38	0xbce75a28	-0.028241232
39	0x3d7761f2	0.060396142
40	0x3d65d4e3	0.056111228
41	0x3bcfefdd	0.0063457326
42	0x3cacb8f4	0.021084286
43	0x3c441dba	0.011969978
44	0xbc7d9256	-0.015476784
45	0x3cead2b9	0.028664934
46	0x3c3c9567	0.01151023
47	0xbd074c31	-0.033031646
48	0x3c81e634	0.01585684
49	0x3ded2090	0.115784764
50	0xbda45948	-0.080248415
51	0x3dc33e62	0.09533383
52	0xbd23cd53	-0.039990734
53	0xbdfa06ee	-0.12208353
54	0x3cbe9ccb	0.023268124
55	0x3d5b042c	0.053470775
56	0xbc20c854	-0.009813387
57	0x3c94d0cd	0.01816597
58	0xbd88f017	-0.066864185
59	0x3c9b069c	0.01892405
60	0xbc9a06f5	-0.018802145
61	0x3cd53941	0.026028277
62	0x3cd06b4a	0.025441784
63	0x3d661f4a	0.056182183
64	0xbd398059	-0.045288417
65	0x3d51b950	0.05120212
66	0x3c319875	0.010839571
67	0xbd25e8a9	-0.040505085
68	0xbd1c4f4d	-0.038161565
69	0xbd020319	-0.031741235
70	0xbd11473f	-0.035468336
71	0xbcb55c61	-0.022138776
72	0x3cd06f42	0.025443677
73	0xbc5ca59d	-0.01346722
74	0x3d62680c	0.055275008
75	0xbd2c24cc	-0.04202728
76	0xbda76cee	-0.081750736
77	0xbc2d1629	-0.010564365
78	0xb917f191	-0.00014490473
79	0xbce6907e	-0.028145071
80	0xbd2c07c4	-0.041999593
81	0xbc87ece9	-0.01659246
82	0xbb329f5b	-0.0027255628
83	0xbd7af660	-0.061270118
84	0x3e0c0649	0.13674273
85	0x3d42b6c3	0.047537576
86	0xbc0fce2c	-0.008777183
87	0xbc9cda73	-0.019147133
88	0x3d9ccc6d	0.076561786
89	0x3cece603	0.028918272
90	0xbd53d253	-0.051714253
91	0xbca80948	-0.020512238
92	0xbdb39d4e	-0.08770238
93	0x3d61bced	0.055111814
94	0xbd3c9249	-0.046037946
95	0xbb04a29f	-0.0020238531
96	0x3d560a8a	0.052256145
97	0x3c34bf66	0.011031961
98	0xbc21e622	-0.009881528
99	0x3c82a8bf	0.015949605
100	0xbd0a25cf	-0.033727463
101	0xbcc85d44	-0.024458535
102	0x3d6d14d5	0.057881195
103	0x3d0fe41e	0.03512966
104	0x3d13e43c	0.036106333
105	0xbd0f15e0	-0.03493297
106	0x3c11941f	0.0088854125
107	0x3dc07b34	0.09398499
108	0x3bb27a5f	0.0054467167
109	0x3bcefe4d	0.006316936
110	0x3d77ae9e	0.060469262
111	0xbc8f1f01	-0.017470839
112	0xbd15a9fd	-0.036539067
113	0x3d930479	0.071785875
114	0x3c99085f	0.01868075
115	0xbd229c01	-0.03969956
116	0xbd91fc79	-0.071282335
117	0x3d641983	0.055688392
118	0xbcb37f7e	-0.021911379
119	0x3dad4241	0.084599026
120	0xbd3c4661	-0.045965556
121	0xbd872251	-0.06598342
122	0xbc69a58f	-0.014260664
123	0x3dc6a0a2	0.09698607
124	0xbcdd8f7c	-0.027045958
125	0x3c93fb8f	0.018064288
126	0xbc7cfe0f	-0.015441432
127	0xbd9c6972	-0.076372996
128	0xba069399	-0.0005133688
129	0x3c2fb703	0.010724786
130	0xbd3016bd	-0.042990435
131	0x3d829ed3	0.063779496
132	0xbd2419d2	-0.040063687
133	0xbd642a63	-0.055704486
134	0xbd08a95e	-0.033364646
135	0x3d9babdf	0.07601141
136	0x3c53a9f4	0.012918938
137	0xbac1d9f3	-0.0014789685
138	0xbd811a52	-0.06303848
139	0x3d1f751f	0.038930055
140	0xbb5c5632	-0.0033620712
141	0xbdf41a78	-0.11919111
142	0xbcc789c8	-0.024357691
143	0x3c5b1e03	0.013373855
144	0x3ca9bcca	0.020719904
145	0xbccbff69	-0.024902062
146	0xbd6945e8	-0.056951433
147	0xbd8c93a5	-0.068640985
148	0xbc0fef6c	-0.00878511
149	0x3a852d27	0.0010160551
150	0xbc5a29e5	-0.0133156525
151	0x3c3df387	0.011593706
152	0x3cef0269	0.029175954
153	0xbb993fe5	-0.0046768063
154	0xbccd4c6a	-0.025060851
155	0xbd0ca198	-0.034333795
156	0x3b480b5c	0.003052435
157	0x3ba48ee1	0.0050219153
158	0xbd0ac927	-0.03388324
159	0x3c8784b4	0.01654277
160	0x3d44dbb4	0.048061088
161	0x3d33cc5e	0.04389607
162	0x3d354340	0.044253588
163	0xb98cdf00	-0.0002686903
164	0xbca32596	-0.019915383
165	0x3d5aa0fd	0.053376187
166	0xbc209bf9	-0.009802812
167	0x3d3bedcd	0.04588108
168	0x3b3b52b8	0.002858324
169	0x3d0475c7	0.032338884
170	0x3a260164	0.00063326047
171	0x3c83ffb4	0.01611314
172	0x3c438739	0.011934095
173	0xbd9f4798	-0.07777327
174	0x3d9e65cd	0.07734261
175	0xbc95734c	-0.018243454
176	0x3d612e36	0.05497571
177	0x3d5e63d5	0.054294426
178	0xbd2f24be	-0.04275965
179	0x3d4ebf43	0.05047537
180	0xbcf33a57	-0.029690905
181	0x3d32f3b1	0.043689433
182	0x3d04593c	0.032311663
183	0xbdc29435	-0.095009245
184	0x3bbdfca7	0.005797941
185	0x3c371749	0.011174985
186	0xbd90c036	-0.07067911
187	0x3cbdb180	0.023155928
188	0xbc0c1ee8	-0.0085522905
189	0x3bd41747	0.0064725014
190	0x3d0af78e	0.033927493
191	0xbc30d350	-0.010792568
192	0x3d87fc74	0.066399485
193	0xbdb1b6ee	-0.08677469
194	0xbd22406f	-0.03961223
195	0x3c90a7d4	0.017658152
196	0x3b6f0ca2	0.0036476036
197	0x3df0c3e8	0.11756116
198	0x3d8bedc6	0.06832461
199	0x3ce40f63	0.027839368
200	0x3d6b55b0	0.057454765
201	0x3c06c4d2	0.008225637
202	0xbbce9b78	-0.0063051544
203	0xbd747152	-0.059678383
204	0x3d4b2192	0.049592562
205	0x3c2bb9a6	0.010481274
206	0x3d68e0be	0.056854956
207	0x3d728a23	0.05921377
208	0xbc99a700	-0.01875639
209	0x3cc777ce	0.02434912
210	0x3d1e4b65	0.03864612
211	0xbd887979	-0.06663794
212	0x3c4996c5	0.012304013
213	0x3b553ec2	0.0032538627
214	0x3c2b2771	0.010446415
215	0x3d342399	0.04397926
216	0xbdeee6a3	-0.11665084
217	0x3d4cac70	0.049969137
218	0x3c93d11a	0.018044043
219	0x3ce42540	0.027849793
220	0x3db4633e	0.088079914
221	0xbd967404	-0.07346347
222	0xbd20ae6f	-0.039228853
223	0x3c1032ac	0.008801144
224	0x3d28fd37	0.04125711
225	0xb95eb7d4	-0.00021240051
226	0xbc600853	-0.01367386
227	0x3c5035dc	0.012708154
228	0xbca33122	-0.01992089
229	0x3c1caffc	0.009563442
230	0xbcb104b4	-0.021608688
231	0x3d87bc0a	0.066276625
232	0x3d0b9f33	0.03408737
233	0xbd52cc92	-0.051464625
234	0xbd0ae1b6	-0.03390666
235	0xbd3b26c9	-0.045691285
236	0xbd610e42	-0.054945238
237	0xbd409642	-0.047018297
238	0x3b083951	0.0020786116
239	0x3d5b69d0	0.053567708
240	0x3d8dfcd7	0.06932991
241	0x3c5eee14	0.013606567
242	0xbce2337c	-0.02761244
243	0x3dc27185	0.094943084
244	0x3d18ef43	0.037337553
245	0x3ada2a76	0.0016644734
246	0xbd6717b5	-0.056419093
247	0xbd89d3b1	-0.0672983
248	0xbd142fd3	-0.03617842
249	0xbcda527c	-0.02665066
250	0xbcaf2588	-0.021380201
251	0xbcba0365	-0.022706697
252	0x3c63044f	0.013856008
253	0xbc05f4c3	-0.0081760315
254	0xbd52c97a	-0.051461674
255	0xbd3d0ca9	-0.04615465

model1.0.bias f4 [16]
0	0xbeabb81b	-0.335389
1	0xbe9acf2b	-0.30236182
2	0xbeb6ac6e	-0.35678428
3	0xbeb0e6ad	-0.34550992
4	0xbe66f5ac	-0.22554654
5	0xbeafac10	-0.3431096
6	0xbe15bc03	-0.14622502
7	0xbe7f1b74	-0.24912816
8	0xbe77b546	-0.24190244
9	0xbec18476	-0.37796372
10	0xbe358bbe	-0.17729089
11	0xbec6a80f	-0.38800094
12	0xbe7221ae	-0.2364566
13	0xbe813d37	-0.25242016
14	0xbe4dd3e4	-0.20100361
15	0xbea1a819	-0.3157356

model1.2.conv.weight f4 [16, 16, 3, 3, 3]
0	0x3cac32fe	0.021020409
1	0x3d609d1e	0.05483734
2	0xbd3dc182	-0.04632712
3	0x3cbb5712	0.022868667
4	0x3e1bf53a	0.15230265
5	0x3cd50841	0.026004912
6	0x3c0292aa	0.007969538
7	0x3d436aad	0.047709156
8	0xbd652f52	-0.05595333
9	0xbc8da17f	-0.017288921
10	0x3af15d72	0.001841469
11	0xbd01efab	-0.031722706
12	0x3ca98f7d	0.020698303
13	0xbfc865e2	-1.5656092
14	0x3d22b5f9	0.039724324
15	0xbbc47bd3	-0.0059962063
16	0x3d01bc2a	0.031673588
17	0xbcde6090	-0.027145654
18	0xbba35958	-0.004985016
19	0x3d0ac6cd	0.033880997
20	0xbbd2150d	-0.006411201
21	0x3cfabe53	0.030608332
22	0x3e7ef1ce	0.24896929
23	0x3cbdfc4c	0.023191594
24	0x3b6276dd	0.0034555711
25	0x3ca1b377	0.019738896
26	0xbcdfcf53	-0.02732054
27	0xbcf9c54f	-0.030489592
28	0x3d35eb5a	0.044413902
29	0x39eb93c0	0.00044932775
30	0xbd9f00d0	-0.07763827
31	0x3d32bdae	0.043637924
32	0xbd30baa1	-0.043146733
33	0x3c225f62	0.009910436
34	0x3d61929f	0.05507147
35	0xbdc73099	-0.09726066
36	0x3ca29500	0.01984644
37	0xbcb82a62	-0.022481147
38	0xbcbe9b21	-0.02326733
39	0xbda910d6	-0.08255164
40	0xbb347ed3	-0.0027541413
41	0xbdd29d76	-0.102839395
42	0x3afd079c	0.0019304636
43	0x3d2fea7f	0.042948242
44	0xbd92c3b6	-0.07166235
45	0x3d0b6cfa	0.034039475
46	0x3c60e958	0.0137275085
47	0x3c40a92d	0.011759085
48	0xbd8d7fe9	-0.069091626
49	0xbced85ff	-0.028994558
50	0xbe492b83	-0.19645505
51	0x3b21fdd4	0.0024717944
52	0x3db0fb8e	0.0864173
53	0xbdd65f74	-0.10467425
54	0xbd1df4c3	-0.0385635
55	0x3c861c0a	0.016370792
56	0xbe189534	-0.14900666
57	0xbda1e5aa	-0.07905133
58	0xbe1827b2	-0.14858893
59	0xbc2f2eb1	-0.010692284
60	0x3baa5c30	0.005198978
61	0xbd7ac434	-0.06122227
62	0x3d03c3ce	0.032169156
63	0xbd382035	-0.04495259
64	0xbb851d72	-0.004062348
65	0xbe17e314	-0.14832717
66	0xbd86ada9	-0.06576092
67	0xbdf94389	-0.121710844
68	0xbb7827d0	-0.0037865527
69	0x3c3651d0	0.011127904
70	0xbcb29748	-0.021800652
71	0x3d1b2a47	0.037882116
72	0xbcd50d0c	-0.026007198
73	0x3d3d8437	0.046268668
74	0xbe0d76be	-0.13814828
75	0xbd841942	-0.0645013
76	0xbe247366	-0.16059646
77	0xbd727b4b	-0.059199613
78	0x3ca43a0b	0.020047208
79	0xbda2b715	-0.079450764
80	0x3ca71592	0.020396028
81	0x39d33dd9	0.00040291136
82	0x3b1e7fb3	0.0024185001
83	0xbc497664	-0.012296293
84	0xbcd3dc5a	-0.025861908
85	0x3c5093c7	0.012730545
86	0xbcbd5bff	-0.023115156
87	0x3ca2ec5a	0.019888092
88	0x3dc1af78	0.09457296
89	0x3d69f736	0.057120524
90	0x3c7eba62	0.015547367
91	0xbc048341	-0.008087934
92	0x3b0830a1	0.0020780938
93	0xbd079108	-0.033097297
94	0xbc85e638	-0.016345128
95	0xbc7810a9	-0.015140691
96	0xbb8bcaeb	-0.004266133
97	0x3d6002fe	0.054690354
98	0x3c53a191	0.012916938
99	0x3d6fb0a6	0.058518074
100	0x3c35d25c	0.011097517
101	0x3c01e397	0.007927797
102	0xbc03d2f1	-0.008045898
103	0xbc2b7342	-0.010464491
104	0x3cc1fe35	0.023680786
105	0x3c3c7b4a	0.011504004
106	0x3d83aa30	0.06428945
107	0x3d8ca29e	0.06866954
108	0x3c2878b6	0.010282686
109	0xbb577dbe	-0.0032881345
110	0xbe1381eb	-0.14405029
111	0x3d8203cd	0.06348381
112	0x3bc74794	0.006081531
113	0xbcfbf9a1	-0.03075868
114	0x3d0ec309	0.03485397
115	0xbd0e4dea	-0.034742273
116	0xbd3b1879	-0.045677636
117	0x3bc3658b	0.0059630326
118	0xbc3e7cfb	-0.011626477
119	0xbd65f7af	-0.056144413
120	0x3daf75a8	0.08567363
121	0x3d105862	0.03524054
122	0x3c3818b8	0.011236362
123	0x3d93effb	0.07223507
124	0xbc11990d	-0.008886588
125	0xbcd7351e	-0.026270445
126	0x3cdf94d6	0.02729265
127	0x3d05642a	0.032566227
128	0xbc7ea1ce	-0.015541507
129	0x3dbd76e4	0.09251192
130	0xbb53826a	-0.0032273778
131	0xbc8c2685	-0.017108211
132	0x3d05f327	0.03270259
133	0xbc82b0b7	-0.015953405
134	0xbca25c7a	-0.019819487
135	0xbdc94532	-0.09827651
136	0x3cd1050e	0.025515106
137	0x3c5e67c6	0.013574546
138	0xbe4a5f5a	-0.19762936
139	0xbdecee9f	-0.11568951
140	0x3bfa8c4d	0.0076461197
141	0xbe3b07f7	-0.18264757
142	0xbde73ae1	-0.11290527
143	0xbe41b888	-0.1891805
144	0xbda310b3	-0.079621695
145	0x3d29a061	0.041412715
146	0x3cc8b6fe	0.02450132
147	0xbe2c0131	-0.1679733
148	0xbdcb3ea0	-0.09924054
149	0x3b9e267e	0.004826366
150	0xbe3202d5	-0.17383893
151	0xbda3d2b1	-0.079991706
152	0xbe55e0cb	-0.20886533
153	0xbda2de72	-0.07952584
154	0x3d39679f	0.045264836
155	0xbca27cad	-0.01983484
156	0xbe56a141	-0.20959951
157	0xbe231eed	-0.15929766
158	0xba9f2766	-0.0012142479
159	0xbe48e5e3	-0.19618945
160	0xbdb6f549	-0.08933503
161	0xbe69d421	-0.22834827
162	0xbd9f15bc	-0.077678174
163	0xbd191dac	-0.037381813
164	0xbb9ff3d9	-0.004881364
165	0xbd265324	-0.040606633
166	0x3cbe1430	0.023202986
167	0x3ce40783	0.027835613
168	0x3c7f5d0b	0.015586148
169	0x3d0a2e28	0.033735424
170	0xbcadda71	-0.021222325
171	0xbdb21b67	-0.08696633
172	0xbc5dfaf2	-0.0135486
173	0x39869e45	0.00025676392
174	0xbd212c7c	-0.039349064
175	0x3ccff7af	0.02538666
176	0xbb7614a3	-0.0037548922
177	0xbcb9fa89	-0.022702472
178	0x3cb461af	0.022019235
179	0xbc39d659	-0.011342608
180	0xbdba1fdc	-0.09088108
181	0xbb93f831	-0.0045156707
182	0x3c28a068	0.01029215
183	0xbd38f0dd	-0.04515158
184	0x3d025115	0.031815607
185	0x3d04efb3	0.032455157
186	0xbd446309	-0.04794601
187	0x3ce61c6f	0.02808973
188	0x3c2b0b4a	0.010439703
189	0xbd943803	-0.07237246
190	0x3b6c5afc	0.0036064973
191	0x3cd29822	0.025707308
192	0x3d85cfee	0.065338
193	0xbca37467	-0.019952966
194	0x3d67bb5c	0.056575164
195	0xbde985f3	-0.11402502
196	0x3c81b487	0.015833152
197	0xbc42c58e	-0.011887921
198	0xbd0b5fae	-0.034026794
199	0xbbbb37b4	-0.0057134274
200	0x3c2fa6ef	0.010720952
201	0x3d4a8f1a	0.04945288
202	0xbc534ae9	-0.012896278
203	0x3cb0e01a	0.021591235
204	0xbdf09e6d	-0.11748967
205	0x3c09c80b	0.00840951
206	0xbbd552f8	-0.006510135
207	0xbcd4fcbb	-0.025999418
208	0xbd5d8a7c	-0.054087147
209	0xbc412f2c	-0.011791032
210	0x3cad12ff	0.021127222
211	0xbc9f979b	-0.01948147
212	0x3da8c1a7	0.08240061
213	0xbe13efce	-0.14446947
214	0x3d2f94fe	0.0428667
215	0x3d1c0abf	0.038096186
216	0xbce9515c	-0.028481178
217	0x3bec7be7	0.0072169187
218	0x3c94e946	0.01817764
219	0xbcfee917	-0.031117005
220	0x3cb613c0	0.022226214
221	0xbd25d9f2	-0.040491052
222	0xbd8ba682	-0.06818868
223	0x3cacc0cc	0.021088026
224	0xbd47ead3	-0.04880793
225	0xbc944948	-0.01810135
226	0x3c9ccae1	0.019139709
227	0xbc397602	-0.011319639
228	0xbd171a73	-0.03689046
229	0x3ca6112b	0.020271858
230	0xbd39c81b	-0.04535685
231	0xbd3feb08	-0.046855003
232	0x3c9b9cc4	0.01899565
233	0xbd06ce49	-0.032911573
234	0xbd135e34	-0.03597851
235	0x3c66c4c3	0.014084998
236	0x3b8b5de7	0.0042531374
237	0xbd9b4418	-0.07581347
238	0x3c501fa8	0.01270286
239	0xbd7a7af8	-0.06115243
240	0xbd355649	-0.04427174
241	0x3d41328a	0.04716734
242	0xbc872a9f	-0.016499816
243	0x3d214080	0.039368153
244	0xbdfa7b0e	-0.12230502
245	0xbe150385	-0.14552124
246	0xbd93e38b	-0.07221135
247	0xbe05b674	-0.13057882
248	0x3d0910fd	0.033463467
249	0x3d546437	0.051853385
250	0x3cb32d75	0.021872262
251	0xbce960c8	-0.028488532
252	0x3db1afbe	0.08676098
253	0xbd4d3196	-0.050096117
254	0xbe07c833	-0.13259964
255	0xbd948a38	-0.07252926

model1.2.conv.bias f4 [16]
0	0x3d2e57ce	0.042564206
1	0x3d116370	0.03549522
2	0x3c1396bb	0.009008105
3	0x3ce08909	0.027409093
4	0x3d3e1a59	0.046411846
5	0x3d06b285	0.032885093
6	0xbc334e38	-0.010943942
7	0x3d50470a	0.050848998
8	0xbcc41799	-0.023937033
9	0xbccd03a8	-0.025026157
10	0xbce3399e	-0.027737435
11	0x3d350070	0.04418987
12	0x3d55a9c0	0.05216384
13	0x3d2d535e	0.042315833
14	0x3d531dd3	0.051542114
15	0xbcefdde1	-0.029280605

model1.2.batch_norm.weight f4 [16]
0	0x3f0ebe6c	0.5575931
1	0x3f332d7a	0.69991267
2	0x3f2ca616	0.6744093
3	0x3f104537	0.56355613
4	0x3f241887	0.64099926
5	0x3f2d860a	0.6778265
6	0x3f317a41	0.6932717
7	0x3f2e50be	0.6809195
8	0x3f25fc88	0.6483846
9	0x3f1770ee	0.5915669
10	0x3f3b7cf5	0.73237544
11	0x3f1c969a	0.611673
12	0x3f463104	0.7741854
13	0x3f3f7cac	0.7479961
14	0x3f47b7f8	0.7801509
15	0x3f08d0d6	0.5344366

model1.2.batch_norm.bias f4 [16]
0	0xbe62f020	-0.22161913
1	0xbef4fa2e	-0.47847122
2	0xbf0589fe	-0.52163684
3	0xbe9a2ae5	-0.3011085
4	0xbe948b15	-0.2901236
5	0xbe95c685	-0.2925302
6	0xbf0551c1	-0.5207787
7	0xbf0e609c	-0.55616164
8	0xbe780615	-0.2422107
9	0xbf07bf54	-0.5302632
10	0xbf238629	-0.6387659
11	0xbf060608	-0.5235295
12	0xbf3c75a5	-0.7361701
13	0xbee234f1	-0.44181016
14	0xbf18478c	-0.5948417
15	0xbe908a67	-0.28230593

model1.2.batch_norm.running_mean f4 [16]
0	0xbf4793ea	-0.77960074
1	0xbf616f7e	-0.8806075
2	0xbf4f5766	-0.80992734
3	0xbf488f6b	-0.7834384
4	0xbf17aaee	-0.59245193
5	0xbf362b16	-0.71159494
6	0xbf251b67	-0.6449494
7	0xbf5bb9e2	-0.8583051
8	0xbf4e3e85	-0.8056415
9	0xbf844462	-1.0333369
10	0xbf67ee90	-0.9059839
11	0xbf5fd224	-0.87430024
12	0xbf71a991	-0.9439936
13	0xbf47d310	-0.7805643
14	0xbf6e9519	-0.93196255
15	0xbf00437f	-0.5010299

model1.2.batch_norm.running_var f4 [16]
0	0x3f9cc1a5	1.2246596
1	0x3f8f7e86	1.1210487
2	0x3f8c5784	1.0964208
3	0x3f7dec57	0.9918875
4	0x3f77bcf2	0.9677268
5	0x3fbd3003	1.4780277
6	0x3f6aece0	0.9176769
7	0x3f7cb753	0.9871723
8	0x3fd371fb	1.6519159
9	0x3f8e7b46	1.113137
10	0x3f691ada	0.910566
11	0x3f674d74	0.9035256
12	0x3f98cc0e	1.1937273
13	0x3f8a9dc4	1.0829396
14	0x3fb5fd2f	1.421789
15	0x3f381603	0.7190859

model1.4.conv.weight f4 [16, 16, 3, 3, 3]
0	0x3cac32fe	0.021020409
1	0x3d609d1e	0.05483734
2	0xbd3dc182	-0.04632712
3	0x3cbb5712	0.022868667
4	0x3e1bf53a	0.15230265
5	0x3cd50841	0.026004912
6	0x3c0292aa	0.007969538
7	0x3d436aad	0.047709156
8	0xbd652f52	-0.05595333
9	0xbc8da17f	-0.017288921
10	0x3af15d72	0.001841469
11	0xbd01efab	-0.031722706
12	0x3ca98f7d	0.020698303
13	0xbfc865e2	-1.5656092
14	0x3d22b5f9	0.039724324
15	0xbbc47bd3	-0.0059962063
16	0x3d01bc2a	0.031673588
17	0xbcde6090	-0.027145654
18	0xbba35958	-0.004985016
19	0x3d0ac6cd	0.033880997
20	0xbbd2150d	-0.006411201
21	0x3cfabe53	0.030608332
22	0x3e7ef1ce	0.24896929
23	0x3cbdfc4c	0.023191594
24	0x3b6276dd	0.0034555711
25	0x3ca1b377	0.019738896
26	0xbcdfcf53	-0.02732054
27	0xbcf9c54f	-0.030489592
28	0x3d35eb5a	0.044413902
29	0x39eb93c0	0.00044932775
30	0xbd9f00d0	-0.07763827
31	0x3d32bdae	0.043637924
32	0xbd30baa1	-0.043146733
33	0x3c225f62	0.009910436
34	0x3d61929f	0.05507147
35	0xbdc73099	-0.09726066
36	0x3ca29500	0.01984644
37	0xbcb82a62	-0.022481147
38	0xbcbe9b21	-0.02326733
39	0xbda910d6	-0.08255164
40	0xbb347ed3	-0.0027541413
41	0xbdd29d76	-0.102839395
42	0x3afd079c	0.0019304636
43	0x3d2fea7f	0.042948242
44	0xbd92c3b6	-0.07166235
45	0x3d0b6cfa	0.034039475
46	0x3c60e958	0.0137275085
47	0x3c40a92d	0.011759085
48	0xbd8d7fe9	-0.069091626
49	0xbced85ff	-0.028994558
50	0xbe492b83	-0.19645505
51	0x3b21fdd4	0.0024717944
52	0x3db0fb8e	0.0864173
53	0xbdd65f74	-0.10467425
54	0xbd1df4c3	-0.0385635
55	0x3c861c0a	0.016370792
56	0xbe189534	-0.14900666
57	0xbda1e5aa	-0.07905133
58	0xbe1827b2	-0.14858893
59	0xbc2f2eb1	-0.010692284
60	0x3baa5c30	0.005198978
61	0xbd7ac434	-0.06122227
62	0x3d03c3ce	0.032169156
63	0xbd382035	-0.04495259
64	0xbb851d72	-0.004062348
65	0xbe17e314	-0.14832717
66	0xbd86ada9	-0.06576092
67	0xbdf94389	-0.121710844
68	0xbb7827d0	-0.0037865527
69	0x3c3651d0	0.011127904
70	0xbcb29748	-0.021800652
71	0x3d1b2a47	0.037882116
72	0xbcd50d0c	-0.026007198
73	0x3d3d8437	0.046268668
74	0xbe0d76be	-0.13814828
75	0xbd841942	-0.0645013
76	0xbe247366	-0.16059646
77	0xbd727b4b	-0.059199613
78	0x3ca43a0b	0.020047208
79	0xbda2b715	-0.079450764
80	0x3ca71592	0.020396028
81	0x39d33dd9	0.00040291136
82	0x3b1e7fb3	0.0024185001
83	0xbc497664	-0.012296293
84	0xbcd3dc5a	-0.025861908
85	0x3c5093c7	0.012730545
86	0xbcbd5bff	-0.023115156
87	0x3ca2ec5a	0.019888092
88	0x3dc1af78	0.09457296
89	0x3d69f736	0.057120524
90	0x3c7eba62	0.015547367
91	0xbc048341	-0.008087934
92	0x3b0830a1	0.0020780938
93	0xbd079108	-0.033097297
94	0xbc85e638	-0.016345128
95	0xbc7810a9	-0.015140691
96	0xbb8bcaeb	-0.004266133
97	0x3d6002fe	0.054690354
98	0x3c53a191	0.012916938
99	0x3d6fb0a6	0.058518074
100	0x3c35d25c	0.011097517
101	0x3c01e397	0.007927797
102	0xbc03d2f1	-0.008045898
103	0xbc2b7342	-0.010464491
104	0x3cc1fe35	0.023680786
105	0x3c3c7b4a	0.011504004
106	0x3d83aa30	0.06428945
107	0x3d8ca29e	0.06866954
108	0x3c2878b6	0.010282686
109	0xbb577dbe	-0.0032881345
110	0xbe1381eb	-0.14405029
111	0x3d8203cd	0.06348381
112	0x3bc74794	0.006081531
113	0xbcfbf9a1	-0.03075868
114	0x3d0ec309	0.03485397
115	0xbd0e4dea	-0.034742273
116	0xbd3b1879	-0.045677636
117	0x3bc3658b	0.0059630326
118	0xbc3e7cfb	-0.011626477
119	0xbd65f7af	-0.056144413
120	0x3daf75a8	0.08567363
121	0x3d105862	0.03524054
122	0x3c3818b8	0.011236362
123	0x3d93effb	0.07223507
124	0xbc11990d	-0.008886588
125	0xbcd7351e	-0.026270445
126	0x3cdf94d6	0.02729265
127	0x3d05642a	0.032566227
128	0xbc7ea1ce	-0.015541507
129	0x3dbd76e4	0.09251192
130	0xbb53826a	-0.0032273778
131	0xbc8c2685	-0.017108211
132	0x3d05f327	0.03270259
133	0xbc82b0b7	-0.015953405
134	0xbca25c7a	-0.019819487
135	0xbdc94532	-0.09827651
136	0x3cd1050e	0.025515106
137	0x3c5e67c6	0.013574546
138	0xbe4a5f5a	-0.19762936
139	0xbdecee9f	-0.11568951
140	0x3bfa8c4d	0.0076461197
141	0xbe3b07f7	-0.18264757
142	0xbde73ae1	-0.11290527
143	0xbe41b888	-0.1891805
144	0xbda310b3	-0.079621695
145	0x3d29a061	0.041412715
146	0x3cc8b6fe	0.02450132
147	0xbe2c0131	-0.1679733
148	0xbdcb3ea0	-0.09924054
149	0x3b9e267e	0.004826366
150	0xbe3202d5	-0.17383893
151	0xbda3d2b1	-0.079991706
152	0xbe55e0cb	-0.20886533
153	0xbda2de72	-0.07952584
154	0x3d39679f	0.045264836
155	0xbca27cad	-0.01983484
156	0xbe56a141	-0.20959951
157	0xbe231eed	-0.15929766
158	0xba9f2766	-0.0012142479
159	0xbe48e5e3	-0.19618945
160	0xbdb6f549	-0.08933503
161	0xbe69d421	-0.22834827
162	0xbd9f15bc	-0.077678174
163	0xbd191dac	-0.037381813
164	0xbb9ff3d9	-0.004881364
165	0xbd265324	-0.040606633
166	0x3cbe1430	0.023202986
167	0x3ce40783	0.027835613
168	0x3c7f5d0b	0.015586148
169	0x3d0a2e28	0.033735424
170	0xbcadda71	-0.021222325
171	0xbdb21b67	-0.08696633
172	0xbc5dfaf2	-0.0135486
173	0x39869e45	0.00025676392
174	0xbd212c7c	-0.039349064
175	0x3ccff7af	0.02538666
176	0xbb7614a3	-0.0037548922
177	0xbcb9fa89	-0.022702472
178	0x3cb461af	0.022019235
179	0xbc39d659	-0.011342608
180	0xbdba1fdc	-0.09088108
181	0xbb93f831	-0.0045156707
182	0x3c28a068	0.01029215
183	0xbd38f0dd	-0.04515158
184	0x3d025115	0.031815607
185	0x3d04efb3	0.032455157
186	0xbd446309	-0.04794601
187	0x3ce61c6f	0.02808973
188	0x3c2b0b4a	0.010439703
189	0xbd943803	-0.07237246
190	0x3b6c5afc	0.0036064973
191	0x3cd29822	0.025707308
192	0x3d85cfee	0.065338
193	0xbca37467	-0.019952966
194	0x3d67bb5c	0.056575164
195	0xbde985f3	-0.11402502
196	0x3c81b487	0.015833152
197	0xbc42c58e	-0.011887921
198	0xbd0b5fae	-0.034026794
199	0xbbbb37b4	-0.0057134274
200	0x3c2fa6ef	0.010720952
201	0x3d4a8f1a	0.04945288
202	0xbc534ae9	-0.012896278
203	0x3cb0e01a	0.021591235
204	0xbdf09e6d	-0.11748967
205	0x3c09c80b	0.00840951
206	0xbbd552f8	-0.006510135
207	0xbcd4fcbb	-0.025999418
208	0xbd5d8a7c	-0.054087147
209	0xbc412f2c	-0.011791032
210	0x3cad12ff	0.021127222
211	0xbc9f979b	-0.01948147
212	0x3da8c1a7	0.08240061
213	0xbe13efce	-0.14446947
214	0x3d2f94fe	0.0428667
215	0x3d1c0abf	0.038096186
216	0xbce9515c	-0.028481178
217	0x3bec7be7	0.0072169187
218	0x3c94e946	0.01817764
219	0xbcfee917	-0.031117005
220	0x3cb613c0	0.022226214
221	0xbd25d9f2	-0.040491052
222	0xbd8ba682	-0.06818868
223	0x3cacc0cc	0.021088026
224	0xbd47ead3	-0.04880793
225	0xbc944948	-0.01810135
226	0x3c9ccae1	0.019139709
227	0xbc397602	-0.011319639
228	0xbd171a73	-0.03689046
229	0x3ca6112b	0.020271858
230	0xbd39c81b	-0.04535685
231	0xbd3feb08	-0.046855003
232	0x3c9b9cc4	0.01899565
233	0xbd06ce49	-0.032911573
234	0xbd135e34	-0.03597851
235	0x3c66c4c3	0.014084998
236	0x3b8b5de7	0.0042531374
237	0xbd9b4418	-0.07581347
238	0x3c501fa8	0.01270286
239	0xbd7a7af8	-0.06115243
240	0xbd355649	-0.04427174
241	0x3d41328a	0.04716734
242	0xbc872a9f	-0.016499816
243	0x3d214080	0.039368153
244	0xbdfa7b0e	-0.12230502
245	0xbe150385	-0.14552124
246	0xbd93e38b	-0.07221135
247	0xbe05b674	-0.13057882
248	0x3d0910fd	0.033463467
249	0x3d546437	0.051853385
250	0x3cb32d75	0.021872262
251	0xbce960c8	-0.028488532
252	0x3db1afbe	0.08676098
253	0xbd4d3196	-0.050096117
254	0xbe07c833	-0.13259964
255	0xbd948a38	-0.07252926

model1.4.conv.bias f4 [16]
0	0x3d2e57ce	0.042564206
1	0x3d116370	0.03549522
2	0x3c1396bb	0.009008105
3	0x3ce08909	0.027409093
4	0x3d3e1a59	0.046411846
5	0x3d06b285	0.032885093
6	0xbc334e38	-0.010943942
7	0x3d50470a	0.050848998
8	0xbcc41799	-0.023937033
9	0xbccd03a8	-0.025026157
10	0xbce3399e	-0.027737435
11	0x3d350070	0.04418987
12	0x3d55a9c0	0.05216384
13	0x3d2d535e	0.042315833
14	0x3d531dd3	0.051542114
15	0xbcefdde1	-0.029280605

model1.4.batch_norm.weight f4 [16]
0	0x3f0ebe6c	0.5575931
1	0x3f332d7a	0.69991267
2	0x3f2ca616	0.6744093
3	0x3f104537	0.56355613
4	0x3f241887	0.64099926
5	0x3f2d860a	0.6778265
6	0x3f317a41	0.6932717
7	0x3f2e50be	0.6809195
8	0x3f25fc88	0.6483846
9	0x3f1770ee	0.5915669
10	0x3f3b7cf5	0.73237544
11	0x3f1c969a	0.611673
12	0x3f463104	0.7741854
13	0x3f3f7cac	0.7479961
14	0x3f47b7f8	0.7801509
15	0x3f08d0d6	0.5344366

model1.4.batch_norm.bias f4 [16]
0	0xbe62f020	-0.22161913
1	0xbef4fa2e	-0.47847122
2	0xbf0589fe	-0.52163684
3	0xbe9a2ae5	-0.3011085
4	0xbe948b15	-0.2901236
5	0xbe95c685	-0.2925302
6	0xbf0551c1	-0.5207787
7	0xbf0e609c	-0.55616164
8	0xbe780615	-0.2422107
9	0xbf07bf54	-0.5302632
10	0xbf238629	-0.6387659
11	0xbf060608	-0.5235295
12	0xbf3c75a5	-0.7361701
13	0xbee234f1	-0.44181016
14	0xbf18478c	-0.5948417
15	0xbe908a67	-0.28230593

model1.4.batch_norm.running_mean f4 [16]
0	0xbf4793ea	-0.77960074
1	0xbf616f7e	-0.8806075
2	0xbf4f5766	-0.80992734
3	0xbf488f6b	-0.7834384
4	0xbf17aaee	-0.59245193
5	0xbf362b16	-0.71159494
6	0xbf251b67	-0.6449494
7	0xbf5bb9e2	-0.8583051
8	0xbf4e3e85	-0.8056415
9	0xbf844462	-1.0333369
10	0xbf67ee90	-0.9059839
11	0xbf5fd224	-0.87430024
12	0xbf71a991	-0.9439936
13	0xbf47d310	-0.7805643
14	0xbf6e9519	-0.93196255
15	0xbf00437f	-0.5010299

model1.4.batch_norm.running_var f4 [16]
0	0x3f9cc1a5	1.2246596
1	0x3f8f7e86	1.1210487
2	0x3f8c5784	1.0964208
3	0x3f7dec57	0.9918875
4	0x3f77bcf2	0.9677268
5	0x3fbd3003	1.4780277
6	0x3f6aece0	0.9176769
7	0x3f7cb753	0.9871723
8	0x3fd371fb	1.6519159
9	0x3f8e7b46	1.113137
10	0x3f691ada	0.910566
11	0x3f674d74	0.9035256
12	0x3f98cc0e	1.1937273
13	0x3f8a9dc4	1.0829396
14	0x3fb5fd2f	1.421789
15	0x3f381603	0.7190859

model1.6.conv.weight f4 [16, 16, 3, 3, 3]
0	0x3cac32fe	0.021020409
1	0x3d609d1e	0.05483734
2	0xbd3dc182	-0.04632712
3	0x3cbb5712	0.022868667
4	0x3e1bf53a	0.15230265
5	0x3cd50841	0.026004912
6	0x3c0292aa	0.007969538
7	0x3d436aad	0.047709156
8	0xbd652f52	-0.05595333
9	0xbc8da17f	-0.017288921
10	0x3af15d72	0.001841469
11	0xbd01efab	-0.031722706
12	0x3ca98f7d	0.020698303
13	0xbfc865e2	-1.5656092
14	0x3d22b5f9	0.039724324
15	0xbbc47bd3	-0.0059962063
16	0x3d01bc2a	0.031673588
17	0xbcde6090	-0.027145654
18	0xbba35958	-0.004985016
19	0x3d0ac6cd	0.033880997
20	0xbbd2150d	-0.006411201
21	0x3cfabe53	0.030608332
22	0x3e7ef1ce	0.24896929
23	0x3cbdfc4c	0.023191594
24	0x3b6276dd	0.0034555711
25	0x3ca1b377	0.019738896
26	0xbcdfcf53	-0.02732054
27	0xbcf9c54f	-0.030489592
28	0x3d35eb5a	0.044413902
29	0x39eb93c0	0.00044932775
30	0xbd9f00d0	-0.07763827
31	0x3d32bdae	0.043637924
32	0xbd30baa1	-0.043146733
33	0x3c225f62	0.009910436
34	0x3d61929f	0.05507147
35	0xbdc73099	-0.09726066
36	0x3ca29500	0.01984644
37	0xbcb82a62	-0.022481147
38	0xbcbe9b21	-0.02326733
39	0xbda910d6	-0.08255164
40	0xbb347ed3	-0.0027541413
41	0xbdd29d76	-0.102839395
42	0x3afd079c	0.0019304636
43	0x3d2fea7f	0.042948242
44	0xbd92c3b6	-0.07166235
45	0x3d0b6cfa	0.034039475
46	0x3c60e958	0.0137275085
47	0x3c40a92d	0.011759085
48	0xbd8d7fe9	-0.069091626
49	0xbced85ff	-0.028994558
50	0xbe492b83	-0.19645505
51	0x3b21fdd4	0.0024717944
52	0x3db0fb8e	0.0864173
53	0xbdd65f74	-0.10467425
54	0xbd1df4c3	-0.0385635
55	0x3c861c0a	0.016370792
56	0xbe189534	-0.14900666
57	0xbda1e5aa	-0.07905133
58	0xbe1827b2	-0.14858893
59	0xbc2f2eb1	-0.010692284
60	0x3baa5c30	0.005198978
61	0xbd7ac434	-0.06122227
62	0x3d03c3ce	0.032169156
63	0xbd382035	-0.04495259
64	0xbb851d72	-0.004062348
65	0xbe17e314	-0.14832717
66	0xbd86ada9	-0.06576092
67	0xbdf94389	-0.121710844
68	0xbb7827d0	-0.0037865527
69	0x3c3651d0	0.011127904
70	0xbcb29748	-0.021800652
71	0x3d1b2a47	0.037882116
72	0xbcd50d0c	-0.026007198
73	0x3d3d8437	0.046268668
74	0xbe0d76be	-0.13814828
75	0xbd841942	-0.0645013
76	0xbe247366	-0.16059646
77	0xbd727b4b	-0.059199613
78	0x3ca43a0b	0.020047208
79	0xbda2b715	-0.079450764
80	0x3ca71592	0.020396028
81	0x39d33dd9	0.00040291136
82	0x3b1e7fb3	0.0024185001
83	0xbc497664	-0.012296293
84	0xbcd3dc5a	-0.025861908
85	0x3c5093c7	0.012730545
86	0xbcbd5bff	-0.023115156
87	0x3ca2ec5a	0.019888092
88	0x3dc1af78	0.09457296
89	0x3d69f736	0.057120524
90	0x3c7eba62	0.015547367
91	0xbc048341	-0.008087934
92	0x3b0830a1	0.0020780938
93	0xbd079108	-0.033097297
94	0xbc85e638	-0.016345128
95	0xbc7810a9	-0.015140691
96	0xbb8bcaeb	-0.004266133
97	0x3d6002fe	0.054690354
98	0x3c53a191	0.012916938
99	0x3d6fb0a6	0.058518074
100	0x3c35d25c	0.011097517
101	0x3c01e397	0.007927797
102	0xbc03d2f1	-0.008045898
103	0xbc2b7342	-0.010464491
104	0x3cc1fe35	0.023680786
105	0x3c3c7b4a	0.011504004
106	0x3d83aa30	0.06428945
107	0x3d8ca29e	0.06866954
108	0x3c2878b6	0.010282686
109	0xbb577dbe	-0.0032881345
110	0xbe1381eb	-0.14405029
111	0x3d8203cd	0.06348381
112	0x3bc74794	0.006081531
113	0xbcfbf9a1	-0.03075868
114	0x3d0ec309	0.03485397
115	0xbd0e4dea	-0.034742273
116	0xbd3b1879	-0.045677636
117	0x3bc3658b	0.0059630326
118	0xbc3e7cfb	-0.011626477
119	0xbd65f7af	-0.056144413
120	0x3daf75a8	0.08567363
121	0x3d105862	0.03524054
122	0x3c3818b8	0.011236362
123	0x3d93effb	0.07223507
124	0xbc11990d	-0.008886588
125	0xbcd7351e	-0.026270445
126	0x3cdf94d6	0.02729265
127	0x3d05642a	0.032566227
128	0xbc7ea1ce	-0.015541507
129	0x3dbd76e4	0.09251192
130	0xbb53826a	-0.0032273778
131	0xbc8c2685	-0.017108211
132	0x3d05f327	0.03270259
133	0xbc82b0b7	-0.015953405
134	0xbca25c7a	-0.019819487
135	0xbdc94532	-0.09827651
136	0x3cd1050e	0.025515106
137	0x3c5e67c6	0.013574546
138	0xbe4a5f5a	-0.19762936
139	0xbdecee9f	-0.11568951
140	0x3bfa8c4d	0.0076461197
141	0xbe3b07f7	-0.18264757
142	0xbde73ae1	-0.11290527
143	0xbe41b888	-0.1891805
144	0xbda310b3	-0.079621695
145	0x3d29a061	0.041412715
146	0x3cc8b6fe	0.02450132
147	0xbe2c0131	-0.1679733
148	0xbdcb3ea0	-0.09924054
149	0x3b9e267e	0.004826366
150	0xbe3202d5	-0.17383893
151	0xbda3d2b1	-0.079991706
152	0xbe55e0cb	-0.20886533
153	0xbda2de72	-0.07952584
154	0x3d39679f	0.045264836
155	0xbca27cad	-0.01983484
156	0xbe56a141	-0.20959951
157	0xbe231eed	-0.15929766
158	0xba9f2766	-0.0012142479
159	0xbe48e5e3	-0.19618945
160	0xbdb6f549	-0.08933503
161	0xbe69d421	-0.22834827
162	0xbd9f15bc	-0.077678174
163	0xbd191dac	-0.037381813
164	0xbb9ff3d9	-0.004881364
165	0xbd265324	-0.040606633
166	0x3cbe1430	0.023202986
167	0x3ce40783	0.027835613
168	0x3c7f5d0b	0.015586148
169	0x3d0a2e28	0.033735424
170	0xbcadda71	-0.021222325
171	0xbdb21b67	-0.08696633
172	0xbc5dfaf2	-0.0135486
173	0x39869e45	0.00025676392
174	0xbd212c7c	-0.039349064
175	0x3ccff7af	0.02538666
176	0xbb7614a3	-0.0037548922
177	0xbcb9fa89	-0.022702472
178	0x3cb461af	0.022019235
179	0xbc39d659	-0.011342608
180	0xbdba1fdc	-0.09088108
181	0xbb93f831	-0.0045156707
182	0x3c28a068	0.01029215
183	0xbd38f0dd	-0.04515158
184	0x3d025115	0.031815607
185	0x3d04efb3	0.032455157
186	0xbd446309	-0.04794601
187	0x3ce61c6f	0.02808973
188	0x3c2b0b4a	0.010439703
189	0xbd943803	-0.07237246
190	0x3b6c5afc	0.0036064973
191	0x3cd29822	0.025707308
192	0x3d85cfee	0.065338
193	0xbca37467	-0.019952966
194	0x3d67bb5c	0.056575164
195	0xbde985f3	-0.11402502
196	0x3c81b487	0.015833152
197	0xbc42c58e	-0.011887921
198	0xbd0b5fae	-0.034026794
199	0xbbbb37b4	-0.0057134274
200	0x3c2fa6ef	0.010720952
201	0x3d4a8f1a	0.04945288
202	0xbc534ae9	-0.012896278
203	0x3cb0e01a	0.021591235
204	0xbdf09e6d	-0.11748967
205	0x3c09c80b	0.00840951
206	0xbbd552f8	-0.006510135
207	0xbcd4fcbb	-0.025999418
208	0xbd5d8a7c	-0.054087147
209	0xbc412f2c	-0.011791032
210	0x3cad12ff	0.021127222
211	0xbc9f979b	-0.01948147
212	0x3da8c1a7	0.08240061
213	0xbe13efce	-0.14446947
214	0x3d2f94fe	0.0428667
215	0x3d1c0abf	0.038096186
216	0xbce9515c	-0.028481178
217	0x3bec7be7	0.0072169187
218	0x3c94e946	0.01817764
219	0xbcfee917	-0.031117005
220	0x3cb613c0	0.022226214
221	0xbd25d9f2	-0.040491052
222	0xbd8ba682	-0.06818868
223	0x3cacc0cc	0.021088026
224	0xbd47ead3	-0.04880793
225	0xbc944948	-0.01810135
226	0x3c9ccae1	0.019139709
227	0xbc397602	-0.011319639
228	0xbd171a73	-0.03689046
229	0x3ca6112b	0.020271858
230	0xbd39c81b	-0.04535685
231	0xbd3feb08	-0.046855003
232	0x3c9b9cc4	0.01899565
233	0xbd06ce49	-0.032911573
234	0xbd135e34	-0.03597851
235	0x3c66c4c3	0.014084998
236	0x3b8b5de7	0.0042531374
237	0xbd9b4418	-0.07581347
238	0x3c501fa8	0.01270286
239	0xbd7a7af8	-0.06115243
240	0xbd355649	-0.04427174
241	0x3d41328a	0.04716734
242	0xbc872a9f	-0.016499816
243	0x3d214080	0.039368153
244	0xbdfa7b0e	-0.12230502
245	0xbe150385	-0.14552124
246	0xbd93e38b	-0.07221135
247	0xbe05b674	-0.13057882
248	0x3d0910fd	0.033463467
249	0x3d546437	0.051853385
250	0x3cb32d75	0.021872262
251	0xbce960c8	-0.028488532
252	0x3db1afbe	0.08676098
253	0xbd4d3196	-0.050096117
254	0xbe07c833	-0.13259964
255	0xbd948a38	-0.07252926

model1.6.conv.bias f4 [16]
0	0x3d2e57ce	0.042564206
1	0x3d116370	0.03549522
2	0x3c1396bb	0.009008105
3	0x3ce08909	0.027409093
4	0x3d3e1a59	0.046411846
5	0x3d06b285	0.032885093
6	0xbc334e38	-0.010943942
7	0x3d50470a	0.050848998
8	0xbcc41799	-0.023937033
9	0xbccd03a8	-0.025026157
10	0xbce3399e	-0.027737435
11	0x3d350070	0.04418987
12	0x3d55a9c0	0.05216384
13	0x3d2d535e	0.042315833
14	0x3d531dd3	0.051542114
15	0xbcefdde1	-0.029280605

model1.6.batch_norm.weight f4 [16]
0	0x3f0ebe6c	0.5575931
1	0x3f332d7a	0.69991267
2	0x3f2ca616	0.6744093
3	0x3f104537	0.56355613
4	0x3f241887	0.64099926
5	0x3f2d860a	0.6778265
6	0x3f317a41	0.6932717
7	0x3f2e50be	0.6809195
8	0x3f25fc88	0.6483846
9	0x3f1770ee	0.5915669
10	0x3f3b7cf5	0.73237544
11	0x3f1c969a	0.611673
12	0x3f463104	0.7741854
13	0x3f3f7cac	0.7479961
14	0x3f47b7f8	0.7801509
15	0x3f08d0d6	0.5344366

model1.6.batch_norm.bias f4 [16]
0	0xbe62f020	-0.22161913
1	0xbef4fa2e	-0.47847122
2	0xbf0589fe	-0.52163684
3	0xbe9a2ae5	-0.3011085
4	0xbe948b15	-0.2901236
5	0xbe95c685	-0.2925302
6	0xbf0551c1	-0.5207787
7	0xbf0e609c	-0.55616164
8	0xbe780615	-0.2422107
9	0xbf07bf54	-0.5302632
10	0xbf238629	-0.6387659
11	0xbf060608	-0.5235295
12	0xbf3c75a5	-0.7361701
13	0xbee234f1	-0.44181016
14	0xbf18478c	-0.5948417
15	0xbe908a67	-0.28230593

model1.6.batch_norm.running_mean f4 [16]
0	0xbf4793ea	-0.77960074
1	0xbf616f7e	-0.8806075
2	0xbf4f5766	-0.80992734
3	0xbf488f6b	-0.7834384
4	0xbf17aaee	-0.59245193
5	0xbf362b16	-0.71159494
6	0xbf251b67	-0.6449494
7	0xbf5bb9e2	-0.8583051
8	0xbf4e3e85	-0.8056415
9	0xbf844462	-1.0333369
10	0xbf67ee90	-0.9059839
11	0xbf5fd224	-0.87430024
12	0xbf71a991	-0.9439936
13	0xbf47d310	-0.7805643
14	0xbf6e9519	-0.93196255
15	0xbf00437f	-0.5010299

model1.6.batch_norm.running_var f4 [16]
0	0x3f9cc1a5	1.2246596
1	0x3f8f7e86	1.1210487
2	0x3f8c5784	1.0964208
3	0x3f7dec57	0.9918875
4	0x3f77bcf2	0.9677268
5	0x3fbd3003	1.4780277
6	0x3f6aece0	0.9176769
7	0x3f7cb753	0.9871723
8	0x3fd371fb	1.6519159
9	0x3f8e7b46	1.113137
10	0x3f691ada	0.910566
11	0x3f674d74	0.9035256
12	0x3f98cc0e	1.1937273
13	0x3f8a9dc4	1.0829396
14	0x3fb5fd2f	1.421789
15	0x3f381603	0.7190859

model1.8.conv.weight f4 [16, 16, 3, 3, 3]
0	0x3cac32fe	0.021020409
1	0x3d609d1e	0.05483734
2	0xbd3dc182	-0.04632712
3	0x3cbb5712	0.022868667
4	0x3e1bf53a	0.15230265
5	0x3cd50841	0.026004912
6	0x3c0292aa	0.007969538
7	0x3d436aad	0.047709156
8	0xbd652f52	-0.05595333
9	0xbc8da17f	-0.017288921
10	0x3af15d72	0.001841469
11	0xbd01efab	-0.031722706
12	0x3ca98f7d	0.020698303
13	0xbfc865e2	-1.5656092
14	0x3d22b5f9	0.039724324
15	0xbbc47bd3	-0.0059962063
16	0x3d01bc2a	0.031673588
17	0xbcde6090	-0.027145654
18	0xbba35958	-0.004985016
19	0x3d0ac6cd	0.033880997
20	0xbbd2150d	-0.006411201
21	0x3cfabe53	0.030608332
22	0x3e7ef1ce	0.24896929
23	0x3cbdfc4c	0.023191594
24	0x3b6276dd	0.0034555711
25	0x3ca1b377	0.019738896
26	0xbcdfcf53	-0.02732054
27	0xbcf9c54f	-0.030489592
28	0x3d35eb5a	0.044413902
29	0x39eb93c0	0.00044932775
30	0xbd9f00d0	-0.07763827
31	0x3d32bdae	0.043637924
32	0xbd30baa1	-0.043146733
33	0x3c225f62	0.009910436
34	0x3d61929f	0.05507147
35	0xbdc73099	-0.09726066
36	0x3ca29500	0.01984644
37	0xbcb82a62	-0.022481147
38	0xbcbe9b21	-0.02326733
39	0xbda910d6	-0.08255164
40	0xbb347ed3	-0.0027541413
41	0xbdd29d76	-0.102839395
42	0x3afd079c	0.0019304636
43	0x3d2fea7f	0.042948242
44	0xbd92c3b6	-0.07166235
45	0x3d0b6cfa	0.034039475
46	0x3c60e958	0.0137275085
47	0x3c40a92d	0.011759085
48	0xbd8d7fe9	-0.069091626
49	0xbced85ff	-0.028994558
50	0xbe492b83	-0.19645505
51	0x3b21fdd4	0.0024717944
52	0x3db0fb8e	0.0864173
53	0xbdd65f74	-0.10467425
54	0xbd1df4c3	-0.0385635
55	0x3c861c0a	0.016370792
56	0xbe189534	-0.14900666
57	0xbda1e5aa	-0.07905133
58	0xbe1827b2	-0.14858893
59	0xbc2f2eb1	-0.010692284
60	0x3baa5c30	0.005198978
61	0xbd7ac434	-0.06122227
62	0x3d03c3ce	0.032169156
63	0xbd382035	-0.04495259
64	0xbb851d72	-0.004062348
65	0xbe17e314	-0.14832717
66	0xbd86ada9	-0.06576092
67	0xbdf94389	-0.121710844
68	0xbb7827d0	-0.0037865527
69	0x3c3651d0	0.011127904
70	0xbcb29748	-0.021800652
71	0x3d1b2a47	0.037882116
72	0xbcd50d0c	-0.026007198
73	0x3d3d8437	0.046268668
74	0xbe0d76be	-0.13814828
75	0xbd841942	-0.0645013
76	0xbe247366	-0.16059646
77	0xbd727b4b	-0.059199613
78	0x3ca43a0b	0.020047208
79	0xbda2b715	-0.079450764
80	0x3ca71592	0.020396028
81	0x39d33dd9	0.00040291136
82	0x3b1e7fb3	0.0024185001
83	0xbc497664	-0.012296293
84	0xbcd3dc5a	-0.025861908
85	0x3c5093c7	0.012730545
86	0xbcbd5bff	-0.023115156
87	0x3ca2ec5a	0.019888092
88	0x3dc1af78	0.09457296
89	0x3d69f736	0.057120524
90	0x3c7eba62	0.015547367
91	0xbc048341	-0.008087934
92	0x3b0830a1	0.0020780938
93	0xbd079108	-0.033097297
94	0xbc85e638	-0.016345128
95	0xbc7810a9	-0.015140691
96	0xbb8bcaeb	-0.004266133
97	0x3d6002fe	0.054690354
98	0x3c53a191	0.012916938
99	0x3d6fb0a6	0.058518074
100	0x3c35d25c	0.011097517
101	0x3c01e397	0.007927797
102	0xbc03d2f1	-0.008045898
103	0xbc2b7342	-0.010464491
104	0x3cc1fe35	0.023680786
105	0x3c3c7b4a	0.011504004
106	0x3d83aa30	0.06428945
107	0x3d8ca29e	0.06866954
108	0x3c2878b6	0.010282686
109	0xbb577dbe	-0.0032881345
110	0xbe1381eb	-0.14405029
111	0x3d8203cd	0.06348381
112	0x3bc74794	0.006081531
113	0xbcfbf9a1	-0.03075868
114	0x3d0ec309	0.03485397
115	0xbd0e4dea	-0.034742273
116	0xbd3b1879	-0.045677636
117	0x3bc3658b	0.0059630326
118	0xbc3e7cfb	-0.011626477
119	0xbd65f7af	-0.056144413
120	0x3daf75a8	0.08567363
121	0x3d105862	0.03524054
122	0x3c3818b8	0.011236362
123	0x3d93effb	0.07223507
124	0xbc11990d	-0.008886588
125	0xbcd7351e	-0.026270445
126	0x3cdf94d6	0.02729265
127	0x3d05642a	0.032566227
128	0xbc7ea1ce	-0.015541507
129	0x3dbd76e4	0.09251192
130	0xbb53826a	-0.0032273778
131	0xbc8c2685	-0.017108211
132	0x3d05f327	0.03270259
133	0xbc82b0b7	-0.015953405
134	0xbca25c7a	-0.019819487
135	0xbdc94532	-0.09827651
136	0x3cd1050e	0.025515106
137	0x3c5e67c6	0.013574546
138	0xbe4a5f5a	-0.19762936
139	0xbdecee9f	-0.11568951
140	0x3bfa8c4d	0.0076461197
141	0xbe3b07f7	-0.18264757
142	0xbde73ae1	-0.11290527
143	0xbe41b888	-0.1891805
144	0xbda310b3	-0.079621695
145	0x3d29a061	0.041412715
146	0x3cc8b6fe	0.02450132
147	0xbe2c0131	-0.1679733
148	0xbdcb3ea0	-0.09924054
149	0x3b9e267e	0.004826366
150	0xbe3202d5	-0.17383893
151	0xbda3d2b1	-0.079991706
152	0xbe55e0cb	-0.20886533
153	0xbda2de72	-0.07952584
154	0x3d39679f	0.045264836
155	0xbca27cad	-0.01983484
156	0xbe56a141	-0.20959951
157	0xbe231eed	-0.15929766
158	0xba9f2766	-0.0012142479
159	0xbe48e5e3	-0.19618945
160	0xbdb6f549	-0.08933503
161	0xbe69d421	-0.22834827
162	0xbd9f15bc	-0.077678174
163	0xbd191dac	-0.037381813
164	0xbb9ff3d9	-0.004881364
165	0xbd265324	-0.040606633
166	0x3cbe1430	0.023202986
167	0x3ce40783	0.027835613
168	0x3c7f5d0b	0.015586148
169	0x3d0a2e28	0.033735424
170	0xbcadda71	-0.021222325
171	0xbdb21b67	-0.08696633
172	0xbc5dfaf2	-0.0135486
173	0x39869e45	0.00025676392
174	0xbd212c7c	-0.039349064
175	0x3ccff7af	0.02538666
176	0xbb7614a3	-0.0037548922
177	0xbcb9fa89	-0.022702472
178	0x3cb461af	0.022019235
179	0xbc39d659	-0.011342608
180	0xbdba1fdc	-0.09088108
181	0xbb93f831	-0.0045156707
182	0x3c28a068	0.01029215
183	0xbd38f0dd	-0.04515158
184	0x3d025115	0.031815607
185	0x3d04efb3	0.032455157
186	0xbd446309	-0.04794601
187	0x3ce61c6f	0.02808973
188	0x3c2b0b4a	0.010439703
189	0xbd943803	-0.07237246
190	0x3b6c5afc	0.0036064973
191	0x3cd29822	0.025707308
192	0x3d85cfee	0.065338
193	0xbca37467	-0.019952966
194	0x3d67bb5c	0.056575164
195	0xbde985f3	-0.11402502
196	0x3c81b487	0.015833152
197	0xbc42c58e	-0.011887921
198	0xbd0b5fae	-0.034026794
199	0xbbbb37b4	-0.0057134274
200	0x3c2fa6ef	0.010720952
201	0x3d4a8f1a	0.04945288
202	0xbc534ae9	-0.012896278
203	0x3cb0e01a	0.021591235
204	0xbdf09e6d	-0.11748967
205	0x3c09c80b	0.00840951
206	0xbbd552f8	-0.006510135
207	0xbcd4fcbb	-0.025999418
208	0xbd5d8a7c	-0.054087147
209	0xbc412f2c	-0.011791032
210	0x3cad12ff	0.021127222
211	0xbc9f979b	-0.01948147
212	0x3da8c1a7	0.08240061
213	0xbe13efce	-0.14446947
214	0x3d2f94fe	0.0428667
215	0x3d1c0abf	0.038096186
216	0xbce9515c	-0.028481178
217	0x3bec7be7	0.0072169187
218	0x3c94e946	0.01817764
219	0xbcfee917	-0.031117005
220	0x3cb613c0	0.022226214
221	0xbd25d9f2	-0.040491052
222	0xbd8ba682	-0.06818868
223	0x3cacc0cc	0.021088026
224	0xbd47ead3	-0.04880793
225	0xbc944948	-0.01810135
226	0x3c9ccae1	0.019139709
227	0xbc397602	-0.011319639
228	0xbd171a73	-0.03689046
229	0x3ca6112b	0.020271858
230	0xbd39c81b	-0.04535685
231	0xbd3feb08	-0.046855003
232	0x3c9b9cc4	0.01899565
233	0xbd06ce49	-0.032911573
234	0xbd135e34	-0.03597851
235	0x3c66c4c3	0.014084998
236	0x3b8b5de7	0.0042531374
237	0xbd9b4418	-0.07581347
238	0x3c501fa8	0.01270286
239	0xbd7a7af8	-0.06115243
240	0xbd355649	-0.04427174
241	0x3d41328a	0.04716734
242	0xbc872a9f	-0.016499816
243	0x3d214080	0.039368153
244	0xbdfa7b0e	-0.12230502
245	0xbe150385	-0.14552124
246	0xbd93e38b	-0.07221135
247	0xbe05b674	-0.13057882
248	0x3d0910fd	0.033463467
249	0x3d546437	0.051853385
250	0x3cb32d75	0.021872262
251	0xbce960c8	-0.028488532
252	0x3db1afbe	0.08676098
253	0xbd4d3196	-0.050096117
254	0xbe07c833	-0.13259964
255	0xbd948a38	-0.07252926

model1.8.conv.bias f4 [16]
0	0x3d2e57ce	0.042564206
1	0x3d116370	0.03549522
2	0x3c1396bb	0.009008105
3	0x3ce08909	0.027409093
4	0x3d3e1a59	0.046411846
5	0x3d06b285	0.032885093
6	0xbc334e38	-0.010943942
7	0x3d50470a	0.050848998
8	0xbcc41799	-0.023937033
9	0xbccd03a8	-0.025026157
10	0xbce3399e	-0.027737435
11	0x3d350070	0.04418987
12	0x3d55a9c0	0.05216384
13	0x3d2d535e	0.042315833
14	0x3d531dd3	0.051542114
15	0xbcefdde1	-0.029280605

model1.8.batch_norm.weight f4 [16]
0	0x3f0ebe6c	0.5575931
1	0x3f332d7a	0.69991267
2	0x3f2ca616	0.6744093
3	0x3f104537	0.56355613
4	0x3f241887	0.64099926
5	0x3f2d860a	0.6778265
6	0x3f317a41	0.6932717
7	0x3f2e50be	0.6809195
8	0x3f25fc88	0.6483846
9	0x3f1770ee	0.5915669
10	0x3f3b7cf5	0.73237544
11	0x3f1c969a	0.611673
12	0x3f463104	0.7741854
13	0x3f3f7cac	0.7479961
14	0x3f47b7f8	0.7801509
15	0x3f08d0d6	0.5344366

model1.8.batch_norm.bias f4 [16]
0	0xbe62f020	-0.22161913
1	0xbef4fa2e	-0.47847122
2	0xbf0589fe	-0.52163684
3	0xbe9a2ae5	-0.3011085
4	0xbe948b15	-0.2901236
5	0xbe95c685	-0.2925302
6	0xbf0551c1	-0.5207787
7	0xbf0e609c	-0.55616164
8	0xbe780615	-0.2422107
9	0xbf07bf54	-0.5302632
10	0xbf238629	-0.6387659
11	0xbf060608	-0.5235295
12	0xbf3c75a5	-0.7361701
13	0xbee234f1	-0.44181016
14	0xbf18478c	-0.5948417
15	0xbe908a67	-0.28230593

model1.8.batch_norm.running_mean f4 [16]
0	0xbf4793ea	-0.77960074
1	0xbf616f7e	-0.8806075
2	0xbf4f5766	-0.80992734
3	0xbf488f6b	-0.7834384
4	0xbf17aaee	-0.59245193
5	0xbf362b16	-0.71159494
6	0xbf251b67	-0.6449494
7	0xbf5bb9e2	-0.8583051
8	0xbf4e3e85	-0.8056415
9	0xbf844462	-1.0333369
10	0xbf67ee90	-0.9059839
11	0xbf5fd224	-0.87430024
12	0xbf71a991	-0.9439936
13	0xbf47d310	-0.7805643
14	0xbf6e9519	-0.93196255
15	0xbf00437f	-0.5010299

model1.8.batch_norm.running_var f4 [16]
0	0x3f9cc1a5	1.2246596
1	0x3f8f7e86	1.1210487
2	0x3f8c5784	1.0964208
3	0x3f7dec57	0.9918875
4	0x3f77bcf2	0.9677268
5	0x3fbd3003	1.4780277
6	0x3f6aece0	0.9176769
7	0x3f7cb753	0.9871723
8	0x3fd371fb	1.6519159
9	0x3f8e7b46	1.113137
10	0x3f691ada	0.910566
11	0x3f674d74	0.9035256
12	0x3f98cc0e	1.1937273
13	0x3f8a9dc4	1.0829396
14	0x3fb5fd2f	1.421789
15	0x3f381603	0.7190859

model1.10.conv.weight f4 [16, 16, 3, 3, 3]
0	0x3cac32fe	0.021020409
1	0x3d609d1e	0.05483734
2	0xbd3dc182	-0.04632712
3	0x3cbb5712	0.022868667
4	0x3e1bf53a	0.15230265
5	0x3cd50841	0.026004912
6	0x3c0292aa	0.007969538
7	0x3d436aad	0.047709156
8	0xbd652f52	-0.05595333
9	0xbc8da17f	-0.017288921
10	0x3af15d72	0.001841469
11	0xbd01efab	-0.031722706
12	0x3ca98f7d	0.020698303
13	0xbfc865e2	-1.5656092
14	0x3d22b5f9	0.039724324
15	0xbbc47bd3	-0.0059962063
16	0x3d01bc2a	0.031673588
17	0xbcde6090	-0.027145654
18	0xbba35958	-0.004985016
19	0x3d0ac6cd	0.033880997
20	0xbbd2150d	-0.006411201
21	0x3cfabe53	0.030608332
22	0x3e7ef1ce	0.24896929
23	0x3cbdfc4c	0.023191594
24	0x3b6276dd	0.0034555711
25	0x3ca1b377	0.019738896
26	0xbcdfcf53	-0.02732054
27	0xbcf9c54f	-0.030489592
28	0x3d35eb5a	0.044413902
29	0x39eb93c0	0.00044932775
30	0xbd9f00d0	-0.07763827
31	0x3d32bdae	0.043637924
32	0xbd30baa1	-0.043146733
33	0x3c225f62	0.009910436
34	0x3d61929f	0.05507147
35	0xbdc73099	-0.09726066
36	0x3ca29500	0.01984644
37	0xbcb82a62	-0.022481147
38	0xbcbe9b21	-0.02326733
39	0xbda910d6	-0.08255164
40	0xbb347ed3	-0.0027541413
41	0xbdd29d76	-0.102839395
42	0x3afd079c	0.0019304636
43	0x3d2fea7f	0.042948242
44	0xbd92c3b6	-0.07166235
45	0x3d0b6cfa	0.034039475
46	0x3c60e958	0.0137275085
47	0x3c40a92d	0.011759085
48	0xbd8d7fe9	-0.069091626
49	0xbced85ff	-0.028994558
50	0xbe492b83	-0.19645505
51	0x3b21fdd4	0.0024717944
52	0x3db0fb8e	0.0864173
53	0xbdd65f74	-0.10467425
54	0xbd1df4c3	-0.0385635
55	0x3c861c0a	0.016370792
56	0xbe189534	-0.14900666
57	0xbda1e5aa	-0.07905133
58	0xbe1827b2	-0.14858893
59	0xbc2f2eb1	-0.010692284
60	0x3baa5c30	0.005198978
61	0xbd7ac434	-0.06122227
62	0x3d03c3ce	0.032169156
63	0xbd382035	-0.04495259
64	0xbb851d72	-0.004062348
65	0xbe17e314	-0.14832717
66	0xbd86ada9	-0.06576092
67	0xbdf94389	-0.121710844
68	0xbb7827d0	-0.0037865527
69	0x3c3651d0	0.011127904
70	0xbcb29748	-0.021800652
71	0x3d1b2a47	0.037882116
72	0xbcd50d0c	-0.026007198
73	0x3d3d8437	0.046268668
74	0xbe0d76be	-0.13814828
75	0xbd841942	-0.0645013
76	0xbe247366	-0.16059646
77	0xbd727b4b	-0.059199613
78	0x3ca43a0b	0.020047208
79	0xbda2b715	-0.079450764
80	0x3ca71592	0.020396028
81	0x39d33dd9	0.00040291136
82	0x3b1e7fb3	0.0024185001
83	0xbc497664	-0.012296293
84	0xbcd3dc5a	-0.025861908
85	0x3c5093c7	0.012730545
86	0xbcbd5bff	-0.023115156
87	0x3ca2ec5a	0.019888092
88	0x3dc1af78	0.09457296
89	0x3d69f736	0.057120524
90	0x3c7eba62	0.015547367
91	0xbc048341	-0.008087934
92	0x3b0830a1	0.0020780938
93	0xbd079108	-0.033097297
94	0xbc85e638	-0.016345128
95	0xbc7810a9	-0.015140691
96	0xbb8bcaeb	-0.004266133
97	0x3d6002fe	0.054690354
98	0x3c53a191	0.012916938
99	0x3d6fb0a6	0.058518074
100	0x3c35d25c	0.011097517
101	0x3c01e397	0.007927797
102	0xbc03d2f1	-0.008045898
103	0xbc2b7342	-0.010464491
104	0x3cc1fe35	0.023680786
105	0x3c3c7b4a	0.011504004
106	0x3d83aa30	0.06428945
107	0x3d8ca29e	0.06866954
108	0x3c2878b6	0.010282686
109	0xbb577dbe	-0.0032881345
110	0xbe1381eb	-0.14405029
111	0x3d8203cd	0.06348381
112	0x3bc74794	0.006081531
113	0xbcfbf9a1	-0.03075868
114	0x3d0ec309	0.03485397
115	0xbd0e4dea	-0.034742273
116	0xbd3b1879	-0.045677636
117	0x3bc3658b	0.0059630326
118	0xbc3e7cfb	-0.011626477
119	0xbd65f7af	-0.056144413
120	0x3daf75a8	0.08567363
121	0x3d105862	0.03524054
122	0x3c3818b8	0.011236362
123	0x3d93effb	0.07223507
124	0xbc11990d	-0.008886588
125	0xbcd7351e	-0.026270445
126	0x3cdf94d6	0.02729265
127	0x3d05642a	0.032566227
128	0xbc7ea1ce	-0.015541507
129	0x3dbd76e4	0.09251192
130	0xbb53826a	-0.0032273778
131	0xbc8c2685	-0.017108211
132	0x3d05f327	0.03270259
133	0xbc82b0b7	-0.015953405
134	0xbca25c7a	-0.019819487
135	0xbdc94532	-0.09827651
136	0x3cd1050e	0.025515106
137	0x3c5e67c6	0.013574546
138	0xbe4a5f5a	-0.19762936
139	0xbdecee9f	-0.11568951
140	0x3bfa8c4d	0.0076461197
141	0xbe3b07f7	-0.18264757
142	0xbde73ae1	-0.11290527
143	0xbe41b888	-0.1891805
144	0xbda310b3	-0.079621695
145	0x3d29a061	0.041412715
146	0x3cc8b6fe	0.02450132
147	0xbe2c0131	-0.1679733
148	0xbdcb3ea0	-0.09924054
149	0x3b9e267e	0.004826366
150	0xbe3202d5	-0.17383893
151	0xbda3d2b1	-0.079991706
152	0xbe55e0cb	-0.20886533
153	0xbda2de72	-0.07952584
154	0x3d39679f	0.045264836
155	0xbca27cad	-0.01983484
156	0xbe56a141	-0.20959951
157	0xbe231eed	-0.15929766
158	0xba9f2766	-0.0012142479
159	0xbe48e5e3	-0.19618945
160	0xbdb6f549	-0.08933503
161	0xbe69d421	-0.22834827
162	0xbd9f15bc	-0.077678174
163	0xbd191dac	-0.037381813
164	0xbb9ff3d9	-0.004881364
165	0xbd265324	-0.040606633
166	0x3cbe1430	0.023202986
167	0x3ce40783	0.027835613
168	0x3c7f5d0b	0.015586148
169	0x3d0a2e28	0.033735424
170	0xbcadda71	-0.021222325
171	0xbdb21b67	-0.08696633
172	0xbc5dfaf2	-0.0135486
173	0x39869e45	0.00025676392
174	0xbd212c7c	-0.039349064
175	0x3ccff7af	0.02538666
176	0xbb7614a3	-0.0037548922
177	0xbcb9fa89	-0.022702472
178	0x3cb461af	0.022019235
179	0xbc39d659	-0.011342608
180	0xbdba1fdc	-0.09088108
181	0xbb93f831	-0.0045156707
182	0x3c28a068	0.01029215
183	0xbd38f0dd	-0.04515158
184	0x3d025115	0.031815607
185	0x3d04efb3	0.032455157
186	0xbd446309	-0.04794601
187	0x3ce61c6f	0.02808973
188	0x3c2b0b4a	0.010439703
189	0xbd943803	-0.07237246
190	0x3b6c5afc	0.0036064973
191	0x3cd29822	0.025707308
192	0x3d85cfee	0.065338
193	0xbca37467	-0.019952966
194	0x3d67bb5c	0.056575164
195	0xbde985f3	-0.11402502
196	0x3c81b487	0.015833152
197	0xbc42c58e	-0.011887921
198	0xbd0b5fae	-0.034026794
199	0xbbbb37b4	-0.0057134274
200	0x3c2fa6ef	0.010720952
201	0x3d4a8f1a	0.04945288
202	0xbc534ae9	-0.012896278
203	0x3cb0e01a	0.021591235
204	0xbdf09e6d	-0.11748967
205	0x3c09c80b	0.00840951
206	0xbbd552f8	-0.006510135
207	0xbcd4fcbb	-0.025999418
208	0xbd5d8a7c	-0.054087147
209	0xbc412f2c	-0.011791032
210	0x3cad12ff	0.021127222
211	0xbc9f979b	-0.01948147
212	0x3da8c1a7	0.08240061
213	0xbe13efce	-0.14446947
214	0x3d2f94fe	0.0428667
215	0x3d1c0abf	0.038096186
216	0xbce9515c	-0.028481178
217	0x3bec7be7	0.0072169187
218	0x3c94e946	0.01817764
219	0xbcfee917	-0.031117005
220	0x3cb613c0	0.022226214
221	0xbd25d9f2	-0.040491052
222	0xbd8ba682	-0.06818868
223	0x3cacc0cc	0.021088026
224	0xbd47ead3	-0.04880793
225	0xbc944948	-0.01810135
226	0x3c9ccae1	0.019139709
227	0xbc397602	-0.011319639
228	0xbd171a73	-0.03689046
229	0x3ca6112b	0.020271858
230	0xbd39c81b	-0.04535685
231	0xbd3feb08	-0.046855003
232	0x3c9b9cc4	0.01899565
233	0xbd06ce49	-0.032911573
234	0xbd135e34	-0.03597851
235	0x3c66c4c3	0.014084998
236	0x3b8b5de7	0.0042531374
237	0xbd9b4418	-0.07581347
238	0x3c501fa8	0.01270286
239	0xbd7a7af8	-0.06115243
240	0xbd355649	-0.04427174
241	0x3d41328a	0.04716734
242	0xbc872a9f	-0.016499816
243	0x3d214080	0.039368153
244	0xbdfa7b0e	-0.12230502
245	0xbe150385	-0.14552124
246	0xbd93e38b	-0.07221135
247	0xbe05b674	-0.13057882
248	0x3d0910fd	0.033463467
249	0x3d546437	0.051853385
250	0x3cb32d75	0.021872262
251	0xbce960c8	-0.028488532
252	0x3db1afbe	0.08676098
253	0xbd4d3196	-0.050096117
254	0xbe07c833	-0.13259964
255	0xbd948a38	-0.07252926

model1.10.conv.bias f4 [16]
0	0x3d2e57ce	0.042564206
1	0x3d116370	0.03549522
2	0x3c1396bb	0.009008105
3	0x3ce08909	0.027409093
4	0x3d3e1a59	0.046411846
5	0x3d06b285	0.032885093
6	0xbc334e38	-0.010943942
7	0x3d50470a	0.050848998
8	0xbcc41799	-0.023937033
9	0xbccd03a8	-0.025026157
10	0xbce3399e	-0.027737435
11	0x3d350070	0.04418987
12	0x3d55a9c0	0.05216384
13	0x3d2d535e	0.042315833
14	0x3d531dd3	0.051542114
15	0xbcefdde1	-0.029280605
