models/conv3d/lr_0.0005/lr_0.0005/epoch_4360.pt (torch, 189922 bytes, 102 tensors)

model1.0.weight f4 [16, 8, 3, 3, 3]
00000000: fd98 7bbd bd26 083d 5cff 77bd 91bd 463d
00000010: e587 a33c 8765 6c3d ef59 b93c 388c 9ebc
00000020: 8d53 9fbd 9fae 8dbd f3d6 78bb 7a1d 86bd
00000030: 1314 df3a 4833 003d 58d0 6b3d 9bfb 1fbd
00000040: 849e db3c 633a 5b3c fb19 8cbd a111 85bc
00000050: 1d61 97bc 73a6 933d 1e3d 303d 86b3 713d
00000060: 23b6 13bd 5a1a ab3c 12e8 cabc 7d71 a03c
00000070: 1cd4 cf3d 46d2 ac3d 8da9 9ebd d9d7 b9bd
00000080: 6231 a33c 1cbd 683d ffee 10bd 6002 86bc
00000090: cf76 0b3c bc3a 43bd 9c42 03bd 9a05 813d
000000a0: e2be 643d b62a 803c d82a 9a3c 109f 733c
000000b0: 80b4 0cbc f7ec cf3c 5afc 683c ea87 27bd
000000c0: cbc9 8a3c 9173 f03d 0a63 a8bd d5e5 c63d
000000d0: 2692 59bd e371 01be 7047 d73c cd1d 613d
000000e0: 6265 51bc c9bf 8e3c 8381 95bd d20a 6c3c
000000f0: 4d90 80bc e434 033d 9325 c93c b852 533d
00000100: 801d 31bd 25a9 6d3d c7de 293c 78ba 10bd
00000110: 134d 17bd 46ac 03bd 78e4 18bd c4df 9bbc
00000120: 8d16 fe3c 9a49 09bb 04d0 7e3d 1d27 36bd
00000130: 8856 afbd 6637 28bc 32a4 89b9 36a5 15bd
00000140: 9b94 2dbd cb1d 7bbc d6a7 49bb d32a 96bd
00000150: ae88 0e3e d812 4d3d b6bf d2bb 8b07 86bc
00000160: d144 943d fca5 083d 16ce 5ebd 6fb1 c2bc
00000170: afe7 c4bd 2e49 603d 308f 2abd 03a7 3cbb
00000180: c429 5e3d bdd0 ed3b 029e f8bb f5d2 3e3c
00000190: 8d9b 21bd 4bea e8bc 8436 853d 4dcb 3d3d
000001a0: c37e 233d 6e5f 12bd 5f34 223c 6449 c73d
000001b0: 1a8c 233b 8628 353c 9693 933d 4ab8 55bc
000001c0: b9b2 3cbd 0fae 973d 0475 a53c 6a76 1fbd
000001d0: c5bc 91bd 320a 4e3d b8a1 a6bc 10df c13d
000001e0: f1e9 32bd 9b55 9ebd a40e 6bbc a051 cb3d
000001f0: 5b64 bfbc 5c1c 9b3c 65a7 acbc 31a1 a5bd
00000200: 3aea e73b d7ca 783c a4df 63bd ca54 813d
00000210: 9124 10bd 3e7e 3fbd 67bd 08bd 8c93 b33d
00000220: 11d1 133c 25a4 02bc 52df 87bd d027 123d
00000230: db70 293c b926 05be 9f7a efbc 4f64 293c
00000240: e127 ee3c 1738 f1bc 24f1 6fbd 0bcc 92bd
00000250: 8e7d c3bb fb1a 0a3c 393d 8dbc 944d e23b
00000260: 5050 d63c 05fe b73a 33fe 04bd c6f0 30bd
00000270: 81e5 02bc dfb2 2e3c 6c4d 21bd 649c 923c
00000280: b289 423d 93e0 353d 6ac0 5f3d fd9f 36bc
00000290: 75f5 c7bc 3b90 443d 067f babb ca92 6c3d
000002a0: 77e6 99b9 7fde 023d 60d0 843a 36a5 b53c
000002b0: 2250 103b d51c a1bd cd64 953d 6e70 afbc
000002c0: 4bc1 753d f643 5a3d 1f2a 51bd 5e6d 453d
000002d0: 767a 00bd d5b8 fb3c 09a6 1c3d 558a c7bd
000002e0: ad63 993a 7956 973c aa16 95bd 03ee 7f3c
000002f0: ce74 16bb 7bf5 c73a a76d 0b3d 0a6d 74bb
00000300: daf7 853d 3069 c2bd 84d6 2bbd cbb9 b33c
00000310: 67d4 8d3b 67d8 f33d a8ef 843d 006f f23c
00000320: 959e 7d3d 7333 e93b 1a67 35bc c759 68bd
00000330: 33e8 4d3d b424 c83b 159e 563d fc06 793d
00000340: de3c 94bc d670 c63c c4e6 0f3d 77df 91bd
00000350: 374b 833c c466 2d3c 9863 583c e998 453d
00000360: fa84 02be 64e1 663d 61db 4a3c a161 de3c
00000370: 1f92 b03d c792 99bd ba39 29bd d518 8d3c
00000380: 323c 2c3d fa9f 51bc 909a 13bc 3ff1 043c
00000390: 45e7 a4bc 2c8a 103c f6af c4bc d461 823d
000003a0: c237 2a3d 39aa 59bd affd 17bd 9c1f 08bd
000003b0: 5892 60bd 3c06 27bd 2fd3 e2bb d738 5a3d
000003c0: d4b7 8c3d f89e 763c 7418 23bd 09e1 bf3d
000003d0: a9f3 263d 900f a939 1b57 6bbd 525b 8bbd
000003e0: 00ea 1ebd a7cd 98bc 8030 55bc 55ef 8ebc
000003f0: 9e1b 413c d9f2 19bb efbe 6fbd a5df 37bd
-0.061425198 0.03324007 -0.060546264 0.04852063 0.01996226 0.05771401 0.022625891 -0.01935397
-0.07779608 -0.06918072 -0.0037969917 -0.06548591 0.0017019532 0.031298906 0.05757174 -0.03905831
0.026808985 0.01338062 -0.06840893 -0.016243758 -0.018478924 0.07209482 0.043027036 0.059009098
-0.03606237 0.020886589 -0.024768863 0.019585365 0.101478785 0.08438544 -0.07747183 -0.09074373
0.019921008 0.056820974 -0.035384174 -0.016358554 0.008512213 -0.047663435 -0.032045946 0.062998965
0.055846103 0.015645366 0.018819258 0.014869466 -0.008587956 0.025381548 0.014220322 -0.040901102
0.016941926 0.117407925 -0.08222015 0.09711806 -0.053117894 -0.126411 0.026279181 0.05496006
-0.012780519 0.017425435 -0.07300093 0.014406877 -0.015693808 0.032032862 0.02455405 0.05159256
-0.043241024 0.058022637 0.010368056 -0.03533408 -0.036938738 -0.032146715 -0.03732726 -0.019027598
0.031016612 -0.002094841 0.062210098 -0.044470895 -0.085614264 -0.010267114 -0.0002625301 -0.03653451
-0.04237805 -0.015326927 -0.0030770204 -0.07332387 0.13919327 0.0500668 -0.006431545 -0.016361019
0.07239688 0.03336142 -0.054395758 -0.023766248 -0.09614503 0.05475729 -0.04164046 -0.002878607
0.05423905 0.0072575496 -0.0075871954 0.011646976 -0.039454985 -0.028432032 0.06504539 0.04633646
0.03991581 -0.03573554 0.009900182 0.09730795 0.0024955333 0.011057025 0.07205884 -0.013044426
-0.04606888 0.07406246 0.020197399 -0.038931288 -0.07116083 0.05030269 -0.020340785 0.09466374
-0.043680135 -0.07731172 -0.014346752 0.09927678 -0.023363283 0.018934421 -0.021075914 -0.080873854
0.0070774825 0.01518508 -0.055633202 0.06315 -0.035191122 -0.046751253 -0.033383753 0.08768377
0.009022013 -0.007973705 -0.06634392 0.0356825 0.010341848 -0.13003053 -0.029233275 0.010338857
0.02907175 -0.029445691 -0.05857958 -0.07167824 -0.005965895 0.008429284 -0.017241107 0.0069062207
0.026161343 0.0014037496 -0.032468986 -0.04319837 -0.007989288 0.010662763 -0.039380476 0.017896838
0.047494598 0.044403624 0.05462686 -0.011146543 -0.024409035 0.04798911 -0.005691412 0.057757176
-0.00029354144 0.03195047 0.0010132901 0.022173505 0.002202042 -0.078668274 0.07294617 -0.021415915
0.05999879 0.05328747 -0.05106556 0.048200004 -0.031366788 0.030727783 0.03824428 -0.097431816
0.0011702679 0.01847385 -0.072797135 0.015620711 -0.0022957805 0.0015255654 0.03404012 -0.0037296438
0.065414146 -0.09492719 -0.041952625 0.021939179 0.004328299 0.1190651 0.06491023 0.029593945
0.061918814 0.007116729 -0.011071945 -0.056726243 0.05027027 0.006107891 0.052396853 0.060797676
-0.01809543 0.024223726 0.035132185 -0.07122701 0.016027076 0.010583583 0.013207339 0.04824153
-0.12746039 0.056367293 0.012381406 0.027146162 0.086216204 -0.07498699 -0.041314818 0.017223755
0.042049594 -0.012794489 -0.009009019 0.008114158 -0.02012981 0.008822005 -0.024009686 0.063663155
0.04155708 -0.053140853 -0.037107166 -0.03323327 -0.054827064 -0.04077743 -0.0069221477 0.053276863
0.06871 0.01505255 -0.039818242 0.09369094 0.040759716 0.00032245787 -0.057456117 -0.06804527
-0.03879738 -0.01865275 -0.013012052 -0.017448107 0.01178637 -0.0023490696 -0.058531698 -0.04489102

model1.0.bias f4 [16]
00000000: bba9 b6be 8188 a1be 5aae c0be 6d0b bbbe
00000010: a9f6 76be d7cf b8be a5e7 21be 1835 87be
00000020: 4318 7ebe b0e7 cdbe 35a1 3ebe 6d0c d7be
00000030: e1e8 83be 5b11 8abe 181d 5cbe 2818 a8be
-0.3567637 -0.31549457 -0.3763302 -0.36532155 -0.24117531 -0.3609607 -0.15811022 -0.26407695
-0.24813943 -0.40215826 -0.18616183 -0.42001668 -0.2576361 -0.26966366 -0.21495473 -0.3283093

model1.2.conv.weight f4 [16, 16, 3, 3, 3]
00000000: 6b77 933c 68e9 fd3c ae56 3dbd 4b4c 033d
00000010: 112a 233e 44ad 083d 1474 dd3b 91bf 4f3d
00000020: 61ca 6cbd e396 f4bc f86d 0abc e7f0 c6bc
00000030: 0e62 023d 4345 d1bf 4145 da3c b710 333a
00000040: d14f ae3c 2c19 c8bc 848a 9fbb ab6a 973c
00000050: 5cce 113b 3eb4 a53c 6322 793e 76f1 6a3c
00000060: 0ffe b63a e356 ed3b 712a 38bd f019 05bd
00000070: 3c8e 633d 66c0 13bd 38a6 70bd d6df 983c
00000080: 0258 8ebc d4c9 af3c 4cfe 093d 6a42 b0bd
00000090: c52e 763c 7f70 f2bc 8db7 93bc 3c52 9bbd
000000a0: 6cdf 3dbc a193 b1bd fdb6 1d3c e49f ce3c
000000b0: 5b43 6ebd 173d 7d3d a167 413b 87d7 273d
000000c0: 91f8 9ebd 53d6 20bd ba76 03be bf4a 8e3c
000000d0: bac8 4e3d da10 f2bd 7184 6dbd 7cc6 783c
000000e0: 4cf0 14be 528e 90bd 94e8 23be 8b98 0dbb
000000f0: 49f1 833c f77e 28bd 9956 083d cbda 1cbd
00000100: 6aea 14bb 6b9f 03be 256c 3fbd 17ff 2ebe
00000110: 3204 b6ba f15c 813c ef07 cdbc 003f 023d
00000120: 1082 8bbc 6e2d 143d bdcb e7bd ea0d 49bd
00000130: d3ce 48be 923d 68bd 1283 5d3c f0e0 99bd
00000140: 92a8 873c f988 b13a 386f 3abc 059d 47bc
00000150: 3b48 8fbd ff08 2b3c 8784 dfbc 3b2e 6d3c
00000160: 95f0 b73d 99cf 303d ca55 c73c eb68 98bc
00000170: 9799 11bc 5dac 40bd 5025 e5bc c428 e4bb
00000180: 5d24 54bc 2d3a 323d ab51 623c d93b 813d
00000190: 9758 3c3b d358 e03b 9d35 83bc 6d53 04bc
000001a0: d16c 923c c8eb 7b3c ae2b 703d fd5a ba3d
000001b0: 8334 0f3c df79 a8bb 4b41 30be 3f01 113d
000001c0: be47 123d d6c9 f3bc 163e 213d 7433 b3bc
000001d0: d776 8dbd b56b 2fbc 93c3 61b9 803b c1bd
000001e0: 65fc a83d 3df9 863d 169d ac3c 46d4 913d
000001f0: 0e6a b639 66e6 34bd ab05 793c 92f1 4e3d
00000200: 8ec6 61bd 3140 ae3d 4dbc 383c 1b19 113b
00000210: d665 403d fe0c 9139 7114 7bbd 6d6c eebd
00000220: d641 033d d6bd 483c 3a46 55be ede1 d6bd
00000230: ce3f 1bba df12 44be 0cff c7bd 67f8 58be
00000240: 9d42 94bd 74b5 3a3d 6c6a 173d 2af2 3ebe
00000250: 5bfd b5bd 02e5 feba 2dcf 32be 963b 8bbd
00000260: b561 70be 6635 a6bd 793b 6e3d 825b e03b
00000270: 7d96 78be cd91 1abe b323 5f39 e4bb 68be
00000280: c579 8abd 0bbf 80be 0725 90bd 9e37 dabc
00000290: c7d4 8ebb 1d86 20bd f732 cf3c 4c1e 973c
000002a0: 1a02 8f3c abd8 093d 9a06 aebc 9474 99bd
000002b0: b5f2 ebbb f749 cdba 6d77 48bd c7e8 a93c
000002c0: e299 8fba 8ea1 f5bc ab1a ea3c cab6 bfbb
000002d0: e8d8 acbd b9c7 1b3b 255b ed3b af4a 6ebd
000002e0: 29fd e53c 7a69 0a3d 084b 5bbd 473e cd3c
000002f0: a531 5a3c 0cc5 a8bd 638c 28bb 9441 0a3c
00000300: d7c5 853d cef0 b9bb 02a3 933d 585a 10be
00000310: 311a 813c e76d 96bc 87a4 27bd 7692 e6bb
00000320: 73ef 4ebb 0e24 2f3d d83e 4bbc 4403 123d
00000330: 298b 02be 3943 933c ffb4 22bc 77b2 dabc
00000340: d55a 8cbd a933 a4bc b998 c73c 54eb a9bc
00000350: c131 b13d 04e7 32be 6d82 553d a79f 5e3d
00000360: 7094 d0bc c26b b53b 6fd3 613c 68b4 eebc
00000370: 3089 b03c d9e5 bfbc 1f3c 62bd 2831 993c
00000380: b9d7 04bd 3527 fbba ea89 6c3c 302c f3bb
00000390: fd88 28bd 0e25 843c 10e5 c4bc e45d 30bd
000003a0: 234d 913c 77cb e2bc cd48 a2bc d310 5e3c
000003b0: 9560 3d3c 9ac4 a1bd 3a29 a33b 6299 d3bc
000003c0: 4dd4 fdbc e1a7 303d 6790 a6bc 291c 263d
000003d0: 935e 19be 3666 22be 05ef a8bd e11c bcbd
000003e0: ccba 0c3d cd07 963d 40f5 b33b 386f d7bb
000003f0: d062 cc3d 4bfd 90bd 083e 0dbe 3317 cfbd
0.018001279 0.030995086 -0.046225242 0.03205518 0.15934016 0.033368364 0.0067582224 0.0507198
-0.05781019 -0.029857105 -0.00844907 -0.024284793 0.031831793 -1.6349262 0.026644351 0.0006830799
0.021278294 -0.024426065 -0.0048688073 0.01848348 0.0022248244 0.020227548 0.24329524 0.014339795
0.0013961213 0.0072430237 -0.04496235 -0.03249544 0.055555567 -0.036072157 -0.05875227 0.01866142
-0.01737595 0.021458544 0.033689782 -0.086064175 0.015025799 -0.029594658 -0.01803186 -0.07584044
-0.011588912 -0.08670736 0.009626147 0.025222726 -0.058169704 0.061825838 0.002951123 0.040977027
-0.07762254 -0.039266896 -0.1283826 0.017369626 0.050484397 -0.118196204 -0.057987634 0.015184041
-0.14544791 -0.070583954 -0.1600669 -0.0021605815 0.016106265 -0.041136708 0.03328571 -0.038294595
-0.002272273 -0.12853782 -0.046733994 -0.17089497 -0.0013886748 0.015791388 -0.025028197 0.031798363
-0.017029792 0.036176138 -0.11318157 -0.049085535 -0.19610147 -0.056699343 0.013520019 -0.075136065
0.016559873 0.0013544849 -0.011379056 -0.0121834325 -0.06996199 0.010439157 -0.027284874 0.014476354
0.08981434 0.04316673 0.0243329 -0.018604716 -0.008886716 -0.04703938 -0.027971894 -0.0069628675
-0.012948123 0.043512512 0.0138134165 0.06310243 0.0028739327 0.006846526 -0.016016776 -0.008076531
0.017874153 0.015376039 0.058635406 0.09099386 0.008740547 -0.0051414813 -0.17212407 0.03540158
0.03571295 -0.029759329 0.03936585 -0.02187512 -0.069074325 -0.010706832 -0.00021530529 -0.09435177
0.082512654 0.06590507 0.021070998 0.07120566 0.00034792762 -0.044165038 0.015199105 0.05052335
-0.055120997 0.08508337 0.011275363 0.0022140208 0.04697212 0.00027666235 -0.06129879 -0.11641774
0.032045208 0.012252292 -0.2082757 -0.10492311 -0.00059222884 -0.19147824 -0.09765443 -0.21188508
-0.07239268 0.045583203 0.036966726 -0.18647066 -0.08886214 -0.0019446912 -0.17461844 -0.067984745
-0.23474772 -0.08115654 0.058162186 0.006846846 -0.24276157 -0.15094681 0.00021280236 -0.22727925
-0.06761507 -0.25145754 -0.070383124 -0.026637848 -0.004358861 -0.0391904 0.025292857 0.018447064
0.017457057 0.033653896 -0.021243382 -0.07492939 -0.007200564 -0.0015662302 -0.04894202 0.02074088
-0.0010955895 -0.029984262 0.02857717 -0.0058506476 -0.08439809 0.0023770167 0.0072435313 -0.058176693
0.028074818 0.033791997 -0.053538352 0.02505411 0.0133175 -0.08240709 -0.0025718443 0.008438487
0.065318756 -0.005674458 0.07208826 -0.14096963 0.01575956 -0.018362952 -0.04092839 -0.0070365025
-0.0031575828 0.042758994 -0.01240512 0.035647646 -0.12748398 0.01797639 -0.009930848 -0.026696427
-0.06853262 -0.020044165 0.024364816 -0.020742096 0.08652068 -0.17470938 0.052126337 0.054351475
-0.025461406 0.0055365274 0.01378332 -0.029138759 0.021549791 -0.02342503 -0.055233117 0.018700197
-0.03243229 -0.0019161465 0.014437178 -0.007421039 -0.041146267 0.01613095 -0.024035007 -0.04305829
0.017736977 -0.02768491 -0.019810105 0.013553816 0.0115586715 -0.07898827 0.00497928 -0.025829975
-0.030985022 0.04312885 -0.020332528 0.0405542 -0.14977483 -0.15859303 -0.08248714 -0.09185196
0.03435783 0.07325707 0.0054918826 -0.0065745376 0.099797845 -0.07079562 -0.13793194 -0.10111847

model1.2.conv.bias f4 [16]
00000000: a12d 353d a50d 173d 1cef 2d3c 3a5b ed3c
00000010: 8965 353d 3747 0c3d 1d34 32bc 80ec 5a3d
00000020: 53cb b4bc d966 d0bc 0773 ebbc e7e0 433d
00000030: 29df 553d a1af 2b3d 34a1 543d ef4d e9bc
0.04423297 0.036878247 0.01061609 0.028974164 0.044286285 0.034247603 -0.010876683 0.0534482
-0.022069609 -0.025439667 -0.028741373 0.047821905 0.052214775 0.04191554 0.051911548 -0.028479544

model1.2.batch_norm.weight f4 [16]
00000000: 5d82 113f 5027 3f3f 0838 3c3f 622c 123f
00000010: ff05 2a3f 350a 353f 72d6 3c3f e46d 3b3f
00000020: 13a1 2d3f 1b10 1e3f 425a 463f 55dd 253f
00000030: 5650 523f 6054 4c3f 3b32 543f 07c9 0f3f
0.56839544 0.7466936 0.73522997 0.5709897 0.664154 0.707187 0.7376472 0.73214555
0.67823905 0.61743325 0.7748147 0.6479085 0.8215383 0.79816246 0.82889146 0.5616612

model1.2.batch_norm.bias f4 [16]
00000000: 34ae 64be ac25 02bf 3358 10bf 628b 9ebe
00000010: ee12 99be 83db a1be 4782 09bf aaa8 18bf
00000020: 69aa 81be 6def 0cbf 19d7 2abf 7209 0cbf
00000030: 96a7 44bf 8577 ecbe 80be 1fbf be56 94be
-0.22332078 -0.5083873 -0.5638458 -0.30965716 -0.29897255 -0.31612787 -0.5371441 -0.5963236
-0.25325325 -0.55052835 -0.6673446 -0.5470191 -0.76818216 -0.46184936 -0.62400055 -0.2897243

model1.2.batch_norm.running_mean f4 [16]
00000000: 47b4 42bf b603 66bf 0e44 59bf a1a4 4ebf
00000010: 7775 1dbf c4b2 3fbf 428f 26bf 22a9 6dbf
00000020: 7fa2 4dbf b197 8cbf 0b3a 74bf 992b 67bf
00000030: 16ab 78bf 96f4 4cbf 161b 70bf 4822 02bf
-0.7605633 -0.8984941 -0.8486947 -0.80719954 -0.6150736 -0.7488215 -0.65062344 -0.928362
-0.80326074 -1.0983793 -0.95401067 -0.903009 -0.97136056 -0.8006071 -0.9379133 -0.5083356

model1.2.batch_norm.running_var f4 [16]
00000000: 8ba4 a23f df75 9e3f 39cf 933f 4f0d 833f
00000010: fd19 7b3f 9db8 c13f 5b93 7c3f 9345 883f
00000020: 6dc1 de3f a314 973f 241a 7b3f d09f 7b3f
00000030: f979 9e3f 2ca2 913f 9253 be3f 0d67 443f
1.2706465 1.2379721 1.1547614 1.0238436 0.9808653 1.5134465 0.98662347 1.0646232
1.7402779 1.1803173 0.9808676 0.9829073 1.2380973 1.1377616 1.4869254 0.76719743

model1.4.conv.weight f4 [16, 16, 3, 3, 3]
00000000: 6b77 933c 68e9 fd3c ae56 3dbd 4b4c 033d
00000010: 112a 233e 44ad 083d 1474 dd3b 91bf 4f3d
00000020: 61ca 6cbd e396 f4bc f86d 0abc e7f0 c6bc
00000030: 0e62 023d 4345 d1bf 4145 da3c b710 333a
00000040: d14f ae3c 2c19 c8bc 848a 9fbb ab6a 973c
00000050: 5cce 113b 3eb4 a53c 6322 793e 76f1 6a3c
00000060: 0ffe b63a e356 ed3b 712a 38bd f019 05bd
00000070: 3c8e 633d 66c0 13bd 38a6 70bd d6df 983c
00000080: 0258 8ebc d4c9 af3c 4cfe 093d 6a42 b0bd
00000090: c52e 763c 7f70 f2bc 8db7 93bc 3c52 9bbd
000000a0: 6cdf 3dbc a193 b1bd fdb6 1d3c e49f ce3c
000000b0: 5b43 6ebd 173d 7d3d a167 413b 87d7 273d
000000c0: 91f8 9ebd 53d6 20bd ba76 03be bf4a 8e3c
000000d0: bac8 4e3d da10 f2bd 7184 6dbd 7cc6 783c
000000e0: 4cf0 14be 528e 90bd 94e8 23be 8b98 0dbb
000000f0: 49f1 833c f77e 28bd 9956 083d cbda 1cbd
00000100: 6aea 14bb 6b9f 03be 256c 3fbd 17ff 2ebe
00000110: 3204 b6ba f15c 813c ef07 cdbc 003f 023d
00000120: 1082 8bbc 6e2d 143d bdcb e7bd ea0d 49bd
00000130: d3ce 48be 923d 68bd 1283 5d3c f0e0 99bd
00000140: 92a8 873c f988 b13a 386f 3abc 059d 47bc
00000150: 3b48 8fbd ff08 2b3c 8784 dfbc 3b2e 6d3c
00000160: 95f0 b73d 99cf 303d ca55 c73c eb68 98bc
00000170: 9799 11bc 5dac 40bd 5025 e5bc c428 e4bb
00000180: 5d24 54bc 2d3a 323d ab51 623c d93b 813d
00000190: 9758 3c3b d358 e03b 9d35 83bc 6d53 04bc
000001a0: d16c 923c c8eb 7b3c ae2b 703d fd5a ba3d
000001b0: 8334 0f3c df79 a8bb 4b41 30be 3f01 113d
000001c0: be47 123d d6c9 f3bc 163e 213d 7433 b3bc
000001d0: d776 8dbd b56b 2fbc 93c3 61b9 803b c1bd
000001e0: 65fc a83d 3df9 863d 169d ac3c 46d4 913d
000001f0: 0e6a b639 66e6 34bd ab05 793c 92f1 4e3d
00000200: 8ec6 61bd 3140 ae3d 4dbc 383c 1b19 113b
00000210: d665 403d fe0c 9139 7114 7bbd 6d6c eebd
00000220: d641 033d d6bd 483c 3a46 55be ede1 d6bd
00000230: ce3f 1bba df12 44be 0cff c7bd 67f8 58be
00000240: 9d42 94bd 74b5 3a3d 6c6a 173d 2af2 3ebe
00000250: 5bfd b5bd 02e5 feba 2dcf 32be 963b 8bbd
00000260: b561 70be 6635 a6bd 793b 6e3d 825b e03b
00000270: 7d96 78be cd91 1abe b323 5f39 e4bb 68be
00000280: c579 8abd 0bbf 80be 0725 90bd 9e37 dabc
00000290: c7d4 8ebb 1d86 20bd f732 cf3c 4c1e 973c
000002a0: 1a02 8f3c abd8 093d 9a06 aebc 9474 99bd
000002b0: b5f2 ebbb f749 cdba 6d77 48bd c7e8 a93c
000002c0: e299 8fba 8ea1 f5bc ab1a ea3c cab6 bfbb
000002d0: e8d8 acbd b9c7 1b3b 255b ed3b af4a 6ebd
000002e0: 29fd e53c 7a69 0a3d 084b 5bbd 473e cd3c
000002f0: a531 5a3c 0cc5 a8bd 638c 28bb 9441 0a3c
00000300: d7c5 853d cef0 b9bb 02a3 933d 585a 10be
00000310: 311a 813c e76d 96bc 87a4 27bd 7692 e6bb
00000320: 73ef 4ebb 0e24 2f3d d83e 4bbc 4403 123d
00000330: 298b 02be 3943 933c ffb4 22bc 77b2 dabc
00000340: d55a 8cbd a933 a4bc b998 c73c 54eb a9bc
00000350: c131 b13d 04e7 32be 6d82 553d a79f 5e3d
00000360: 7094 d0bc c26b b53b 6fd3 613c 68b4 eebc
00000370: 3089 b03c d9e5 bfbc 1f3c 62bd 2831 993c
00000380: b9d7 04bd 3527 fbba ea89 6c3c 302c f3bb
00000390: fd88 28bd 0e25 843c 10e5 c4bc e45d 30bd
000003a0: 234d 913c 77cb e2bc cd48 a2bc d310 5e3c
000003b0: 9560 3d3c 9ac4 a1bd 3a29 a33b 6299 d3bc
000003c0: 4dd4 fdbc e1a7 303d 6790 a6bc 291c 263d
000003d0: 935e 19be 3666 22be 05ef a8bd e11c bcbd
000003e0: ccba 0c3d cd07 963d 40f5 b33b 386f d7bb
000003f0: d062 cc3d 4bfd 90bd 083e 0dbe 3317 cfbd
0.018001279 0.030995086 -0.046225242 0.03205518 0.15934016 0.033368364 0.0067582224 0.0507198
-0.05781019 -0.029857105 -0.00844907 -0.024284793 0.031831793 -1.6349262 0.026644351 0.0006830799
0.021278294 -0.024426065 -0.0048688073 0.01848348 0.0022248244 0.020227548 0.24329524 0.014339795
0.0013961213 0.0072430237 -0.04496235 -0.03249544 0.055555567 -0.036072157 -0.05875227 0.01866142
-0.01737595 0.021458544 0.033689782 -0.086064175 0.015025799 -0.029594658 -0.01803186 -0.07584044
-0.011588912 -0.08670736 0.009626147 0.025222726 -0.058169704 0.061825838 0.002951123 0.040977027
-0.07762254 -0.039266896 -0.1283826 0.017369626 0.050484397 -0.118196204 -0.057987634 0.015184041
-0.14544791 -0.070583954 -0.1600669 -0.0021605815 0.016106265 -0.041136708 0.03328571 -0.038294595
-0.002272273 -0.12853782 -0.046733994 -0.17089497 -0.0013886748 0.015791388 -0.025028197 0.031798363
-0.017029792 0.036176138 -0.11318157 -0.049085535 -0.19610147 -0.056699343 0.013520019 -0.075136065
0.016559873 0.0013544849 -0.011379056 -0.0121834325 -0.06996199 0.010439157 -0.027284874 0.014476354
0.08981434 0.04316673 0.0243329 -0.018604716 -0.008886716 -0.04703938 -0.027971894 -0.0069628675
-0.012948123 0.043512512 0.0138134165 0.06310243 0.0028739327 0.006846526 -0.016016776 -0.008076531
0.017874153 0.015376039 0.058635406 0.09099386 0.008740547 -0.0051414813 -0.17212407 0.03540158
0.03571295 -0.029759329 0.03936585 -0.02187512 -0.069074325 -0.010706832 -0.00021530529 -0.09435177
0.082512654 0.06590507 0.021070998 0.07120566 0.00034792762 -0.044165038 0.015199105 0.05052335
-0.055120997 0.08508337 0.011275363 0.0022140208 0.04697212 0.00027666235 -0.06129879 -0.11641774
0.032045208 0.012252292 -0.2082757 -0.10492311 -0.00059222884 -0.19147824 -0.09765443 -0.21188508
-0.07239268 0.045583203 0.036966726 -0.18647066 -0.08886214 -0.0019446912 -0.17461844 -0.067984745
-0.23474772 -0.08115654 0.058162186 0.006846846 -0.24276157 -0.15094681 0.00021280236 -0.22727925
-0.06761507 -0.25145754 -0.070383124 -0.026637848 -0.004358861 -0.0391904 0.025292857 0.018447064
0.017457057 0.033653896 -0.021243382 -0.07492939 -0.007200564 -0.0015662302 -0.04894202 0.02074088
-0.0010955895 -0.029984262 0.02857717 -0.0058506476 -0.08439809 0.0023770167 0.0072435313 -0.058176693
0.028074818 0.033791997 -0.053538352 0.02505411 0.0133175 -0.08240709 -0.0025718443 0.008438487
0.065318756 -0.005674458 0.07208826 -0.14096963 0.01575956 -0.018362952 -0.04092839 -0.0070365025
-0.0031575828 0.042758994 -0.01240512 0.035647646 -0.12748398 0.01797639 -0.009930848 -0.026696427
-0.06853262 -0.020044165 0.024364816 -0.020742096 0.08652068 -0.17470938 0.052126337 0.054351475
-0.025461406 0.0055365274 0.01378332 -0.029138759 0.021549791 -0.02342503 -0.055233117 0.018700197
-0.03243229 -0.0019161465 0.014437178 -0.007421039 -0.041146267 0.01613095 -0.024035007 -0.04305829
0.017736977 -0.02768491 -0.019810105 0.013553816 0.0115586715 -0.07898827 0.00497928 -0.025829975
-0.030985022 0.04312885 -0.020332528 0.0405542 -0.14977483 -0.15859303 -0.08248714 -0.09185196
0.03435783 0.07325707 0.0054918826 -0.0065745376 0.099797845 -0.07079562 -0.13793194 -0.10111847

model1.4.conv.bias f4 [16]
00000000: a12d 353d a50d 173d 1cef 2d3c 3a5b ed3c
00000010: 8965 353d 3747 0c3d 1d34 32bc 80ec 5a3d
00000020: 53cb b4bc d966 d0bc 0773 ebbc e7e0 433d
00000030: 29df 553d a1af 2b3d 34a1 543d ef4d e9bc
0.04423297 0.036878247 0.01061609 0.028974164 0.044286285 0.034247603 -0.010876683 0.0534482
-0.022069609 -0.025439667 -0.028741373 0.047821905 0.052214775 0.04191554 0.051911548 -0.028479544

model1.4.batch_norm.weight f4 [16]
00000000: 5d82 113f 5027 3f3f 0838 3c3f 622c 123f
00000010: ff05 2a3f 350a 353f 72d6 3c3f e46d 3b3f
00000020: 13a1 2d3f 1b10 1e3f 425a 463f 55dd 253f
00000030: 5650 523f 6054 4c3f 3b32 543f 07c9 0f3f
0.56839544 0.7466936 0.73522997 0.5709897 0.664154 0.707187 0.7376472 0.73214555
0.67823905 0.61743325 0.7748147 0.6479085 0.8215383 0.79816246 0.82889146 0.5616612

model1.4.batch_norm.bias f4 [16]
00000000: 34ae 64be ac25 02bf 3358 10bf 628b 9ebe
00000010: ee12 99be 83db a1be 4782 09bf aaa8 18bf
00000020: 69aa 81be 6def 0cbf 19d7 2abf 7209 0cbf
00000030: 96a7 44bf 8577 ecbe 80be 1fbf be56 94be
-0.22332078 -0.5083873 -0.5638458 -0.30965716 -0.29897255 -0.31612787 -0.5371441 -0.5963236
-0.25325325 -0.55052835 -0.6673446 -0.5470191 -0.76818216 -0.46184936 -0.62400055 -0.2897243

model1.4.batch_norm.running_mean f4 [16]
00000000: 47b4 42bf b603 66bf 0e44 59bf a1a4 4ebf
00000010: 7775 1dbf c4b2 3fbf 428f 26bf 22a9 6dbf
00000020: 7fa2 4dbf b197 8cbf 0b3a 74bf 992b 67bf
00000030: 16ab 78bf 96f4 4cbf 161b 70bf 4822 02bf
-0.7605633 -0.8984941 -0.8486947 -0.80719954 -0.6150736 -0.7488215 -0.65062344 -0.928362
-0.80326074 -1.0983793 -0.95401067 -0.903009 -0.97136056 -0.8006071 -0.9379133 -0.5083356

model1.4.batch_norm.running_var f4 [16]
00000000: 8ba4 a23f df75 9e3f 39cf 933f 4f0d 833f
00000010: fd19 7b3f 9db8 c13f 5b93 7c3f 9345 883f
00000020: 6dc1 de3f a314 973f 241a 7b3f d09f 7b3f
00000030: f979 9e3f 2ca2 913f 9253 be3f 0d67 443f
1.2706465 1.2379721 1.1547614 1.0238436 0.9808653 1.5134465 0.98662347 1.0646232
1.7402779 1.1803173 0.9808676 0.9829073 1.2380973 1.1377616 1.4869254 0.76719743

model1.6.conv.weight f4 [16, 16, 3, 3, 3]
00000000: 6b77 933c 68e9 fd3c ae56 3dbd 4b4c 033d
00000010: 112a 233e 44ad 083d 1474 dd3b 91bf 4f3d
00000020: 61ca 6cbd e396 f4bc f86d 0abc e7f0 c6bc
00000030: 0e62 023d 4345 d1bf 4145 da3c b710 333a
00000040: d14f ae3c 2c19 c8bc 848a 9fbb ab6a 973c
00000050: 5cce 113b 3eb4 a53c 6322 793e 76f1 6a3c
00000060: 0ffe b63a e356 ed3b 712a 38bd f019 05bd
00000070: 3c8e 633d 66c0 13bd 38a6 70bd d6df 983c
00000080: 0258 8ebc d4c9 af3c 4cfe 093d 6a42 b0bd
00000090: c52e 763c 7f70 f2bc 8db7 93bc 3c52 9bbd
000000a0: 6cdf 3dbc a193 b1bd fdb6 1d3c e49f ce3c
000000b0: 5b43 6ebd 173d 7d3d a167 413b 87d7 273d
000000c0: 91f8 9ebd 53d6 20bd ba76 03be bf4a 8e3c
000000d0: bac8 4e3d da10 f2bd 7184 6dbd 7cc6 783c
000000e0: 4cf0 14be 528e 90bd 94e8 23be 8b98 0dbb
000000f0: 49f1 833c f77e 28bd 9956 083d cbda 1cbd
00000100: 6aea 14bb 6b9f 03be 256c 3fbd 17ff 2ebe
00000110: 3204 b6ba f15c 813c ef07 cdbc 003f 023d
00000120: 1082 8bbc 6e2d 143d bdcb e7bd ea0d 49bd
00000130: d3ce 48be 923d 68bd 1283 5d3c f0e0 99bd
00000140: 92a8 873c f988 b13a 386f 3abc 059d 47bc
00000150: 3b48 8fbd ff08 2b3c 8784 dfbc 3b2e 6d3c
00000160: 95f0 b73d 99cf 303d ca55 c73c eb68 98bc
00000170: 9799 11bc 5dac 40bd 5025 e5bc c428 e4bb
00000180: 5d24 54bc 2d3a 323d ab51 623c d93b 813d
00000190: 9758 3c3b d358 e03b 9d35 83bc 6d53 04bc
000001a0: d16c 923c c8eb 7b3c ae2b 703d fd5a ba3d
000001b0: 8334 0f3c df79 a8bb 4b41 30be 3f01 113d
000001c0: be47 123d d6c9 f3bc 163e 213d 7433 b3bc
000001d0: d776 8dbd b56b 2fbc 93c3 61b9 803b c1bd
000001e0: 65fc a83d 3df9 863d 169d ac3c 46d4 913d
000001f0: 0e6a b639 66e6 34bd ab05 793c 92f1 4e3d
00000200: 8ec6 61bd 3140 ae3d 4dbc 383c 1b19 113b
00000210: d665 403d fe0c 9139 7114 7bbd 6d6c eebd
00000220: d641 033d d6bd 483c 3a46 55be ede1 d6bd
00000230: ce3f 1bba df12 44be 0cff c7bd 67f8 58be
00000240: 9d42 94bd 74b5 3a3d 6c6a 173d 2af2 3ebe
00000250: 5bfd b5bd 02e5 feba 2dcf 32be 963b 8bbd
00000260: b561 70be 6635 a6bd 793b 6e3d 825b e03b
00000270: 7d96 78be cd91 1abe b323 5f39 e4bb 68be
00000280: c579 8abd 0bbf 80be 0725 90bd 9e37 dabc
00000290: c7d4 8ebb 1d86 20bd f732 cf3c 4c1e 973c
000002a0: 1a02 8f3c abd8 093d 9a06 aebc 9474 99bd
000002b0: b5f2 ebbb f749 cdba 6d77 48bd c7e8 a93c
000002c0: e299 8fba 8ea1 f5bc ab1a ea3c cab6 bfbb
000002d0: e8d8 acbd b9c7 1b3b 255b ed3b af4a 6ebd
000002e0: 29fd e53c 7a69 0a3d 084b 5bbd 473e cd3c
000002f0: a531 5a3c 0cc5 a8bd 638c 28bb 9441 0a3c
00000300: d7c5 853d cef0 b9bb 02a3 933d 585a 10be
00000310: 311a 813c e76d 96bc 87a4 27bd 7692 e6bb
00000320: 73ef 4ebb 0e24 2f3d d83e 4bbc 4403 123d
00000330: 298b 02be 3943 933c ffb4 22bc 77b2 dabc
00000340: d55a 8cbd a933 a4bc b998 c73c 54eb a9bc
00000350: c131 b13d 04e7 32be 6d82 553d a79f 5e3d
00000360: 7094 d0bc c26b b53b 6fd3 613c 68b4 eebc
00000370: 3089 b03c d9e5 bfbc 1f3c 62bd 2831 993c
00000380: b9d7 04bd 3527 fbba ea89 6c3c 302c f3bb
00000390: fd88 28bd 0e25 843c 10e5 c4bc e45d 30bd
000003a0: 234d 913c 77cb e2bc cd48 a2bc d310 5e3c
000003b0: 9560 3d3c 9ac4 a1bd 3a29 a33b 6299 d3bc
000003c0: 4dd4 fdbc e1a7 303d 6790 a6bc 291c 263d
000003d0: 935e 19be 3666 22be 05ef a8bd e11c bcbd
000003e0: ccba 0c3d cd07 963d 40f5 b33b 386f d7bb
000003f0: d062 cc3d 4bfd 90bd 083e 0dbe 3317 cfbd
0.018001279 0.030995086 -0.046225242 0.03205518 0.15934016 0.033368364 0.0067582224 0.0507198
-0.05781019 -0.029857105 -0.00844907 -0.024284793 0.031831793 -1.6349262 0.026644351 0.0006830799
0.021278294 -0.024426065 -0.0048688073 0.01848348 0.0022248244 0.020227548 0.24329524 0.014339795
0.0013961213 0.0072430237 -0.04496235 -0.03249544 0.055555567 -0.036072157 -0.05875227 0.01866142
-0.01737595 0.021458544 0.033689782 -0.086064175 0.015025799 -0.029594658 -0.01803186 -0.07584044
-0.011588912 -0.08670736 0.009626147 0.025222726 -0.058169704 0.061825838 0.002951123 0.040977027
-0.07762254 -0.039266896 -0.1283826 0.017369626 0.050484397 -0.118196204 -0.057987634 0.015184041
-0.14544791 -0.070583954 -0.1600669 -0.0021605815 0.016106265 -0.041136708 0.03328571 -0.038294595
-0.002272273 -0.12853782 -0.046733994 -0.17089497 -0.0013886748 0.015791388 -0.025028197 0.031798363
-0.017029792 0.036176138 -0.11318157 -0.049085535 -0.19610147 -0.056699343 0.013520019 -0.075136065
0.016559873 0.0013544849 -0.011379056 -0.0121834325 -0.06996199 0.010439157 -0.027284874 0.014476354
0.08981434 0.04316673 0.0243329 -0.018604716 -0.008886716 -0.04703938 -0.027971894 -0.0069628675
-0.012948123 0.043512512 0.0138134165 0.06310243 0.0028739327 0.006846526 -0.016016776 -0.008076531
0.017874153 0.015376039 0.058635406 0.09099386 0.008740547 -0.0051414813 -0.17212407 0.03540158
0.03571295 -0.029759329 0.03936585 -0.02187512 -0.069074325 -0.010706832 -0.00021530529 -0.09435177
0.082512654 0.06590507 0.021070998 0.07120566 0.00034792762 -0.044165038 0.015199105 0.05052335
-0.055120997 0.08508337 0.011275363 0.0022140208 0.04697212 0.00027666235 -0.06129879 -0.11641774
0.032045208 0.012252292 -0.2082757 -0.10492311 -0.00059222884 -0.19147824 -0.09765443 -0.21188508
-0.07239268 0.045583203 0.036966726 -0.18647066 -0.08886214 -0.0019446912 -0.17461844 -0.067984745
-0.23474772 -0.08115654 0.058162186 0.006846846 -0.24276157 -0.15094681 0.00021280236 -0.22727925
-0.06761507 -0.25145754 -0.070383124 -0.026637848 -0.004358861 -0.0391904 0.025292857 0.018447064
0.017457057 0.033653896 -0.021243382 -0.07492939 -0.007200564 -0.0015662302 -0.04894202 0.02074088
-0.0010955895 -0.029984262 0.02857717 -0.0058506476 -0.08439809 0.0023770167 0.0072435313 -0.058176693
0.028074818 0.033791997 -0.053538352 0.02505411 0.0133175 -0.08240709 -0.0025718443 0.008438487
0.065318756 -0.005674458 0.07208826 -0.14096963 0.01575956 -0.018362952 -0.04092839 -0.0070365025
-0.0031575828 0.042758994 -0.01240512 0.035647646 -0.12748398 0.01797639 -0.009930848 -0.026696427
-0.06853262 -0.020044165 0.024364816 -0.020742096 0.08652068 -0.17470938 0.052126337 0.054351475
-0.025461406 0.0055365274 0.01378332 -0.029138759 0.021549791 -0.02342503 -0.055233117 0.018700197
-0.03243229 -0.0019161465 0.014437178 -0.007421039 -0.041146267 0.01613095 -0.024035007 -0.04305829
0.017736977 -0.02768491 -0.019810105 0.013553816 0.0115586715 -0.07898827 0.00497928 -0.025829975
-0.030985022 0.04312885 -0.020332528 0.0405542 -0.14977483 -0.15859303 -0.08248714 -0.09185196
0.03435783 0.07325707 0.0054918826 -0.0065745376 0.099797845 -0.07079562 -0.13793194 -0.10111847

model1.6.conv.bias f4 [16]
00000000: a12d 353d a50d 173d 1cef 2d3c 3a5b ed3c
00000010: 8965 353d 3747 0c3d 1d34 32bc 80ec 5a3d
00000020: 53cb b4bc d966 d0bc 0773 ebbc e7e0 433d
00000030: 29df 553d a1af 2b3d 34a1 543d ef4d e9bc
0.04423297 0.036878247 0.01061609 0.028974164 0.044286285 0.034247603 -0.010876683 0.0534482
-0.022069609 -0.025439667 -0.028741373 0.047821905 0.052214775 0.04191554 0.051911548 -0.028479544

model1.6.batch_norm.weight f4 [16]
00000000: 5d82 113f 5027 3f3f 0838 3c3f 622c 123f
00000010: ff05 2a3f 350a 353f 72d6 3c3f e46d 3b3f
00000020: 13a1 2d3f 1b10 1e3f 425a 463f 55dd 253f
00000030: 5650 523f 6054 4c3f 3b32 543f 07c9 0f3f
0.56839544 0.7466936 0.73522997 0.5709897 0.664154 0.707187 0.7376472 0.73214555
0.67823905 0.61743325 0.7748147 0.6479085 0.8215383 0.79816246 0.82889146 0.5616612

model1.6.batch_norm.bias f4 [16]
00000000: 34ae 64be ac25 02bf 3358 10bf 628b 9ebe
00000010: ee12 99be 83db a1be 4782 09bf aaa8 18bf
00000020: 69aa 81be 6def 0cbf 19d7 2abf 7209 0cbf
00000030: 96a7 44bf 8577 ecbe 80be 1fbf be56 94be
-0.22332078 -0.5083873 -0.5638458 -0.30965716 -0.29897255 -0.31612787 -0.5371441 -0.5963236
-0.25325325 -0.55052835 -0.6673446 -0.5470191 -0.76818216 -0.46184936 -0.62400055 -0.2897243

model1.6.batch_norm.running_mean f4 [16]
00000000: 47b4 42bf b603 66bf 0e44 59bf a1a4 4ebf
00000010: 7775 1dbf c4b2 3fbf 428f 26bf 22a9 6dbf
00000020: 7fa2 4dbf b197 8cbf 0b3a 74bf 992b 67bf
00000030: 16ab 78bf 96f4 4cbf 161b 70bf 4822 02bf
-0.7605633 -0.8984941 -0.8486947 -0.80719954 -0.6150736 -0.7488215 -0.65062344 -0.928362
-0.80326074 -1.0983793 -0.95401067 -0.903009 -0.97136056 -0.8006071 -0.9379133 -0.5083356

model1.6.batch_norm.running_var f4 [16]
00000000: 8ba4 a23f df75 9e3f 39cf 933f 4f0d 833f
00000010: fd19 7b3f 9db8 c13f 5b93 7c3f 9345 883f
00000020: 6dc1 de3f a314 973f 241a 7b3f d09f 7b3f
00000030: f979 9e3f 2ca2 913f 9253 be3f 0d67 443f
1.2706465 1.2379721 1.1547614 1.0238436 0.9808653 1.5134465 0.98662347 1.0646232
1.7402779 1.1803173 0.9808676 0.9829073 1.2380973 1.1377616 1.4869254 0.76719743

model1.8.conv.weight f4 [16, 16, 3, 3, 3]
00000000: 6b77 933c 68e9 fd3c ae56 3dbd 4b4c 033d
00000010: 112a 233e 44ad 083d 1474 dd3b 91bf 4f3d
00000020: 61ca 6cbd e396 f4bc f86d 0abc e7f0 c6bc
00000030: 0e62 023d 4345 d1bf 4145 da3c b710 333a
00000040: d14f ae3c 2c19 c8bc 848a 9fbb ab6a 973c
00000050: 5cce 113b 3eb4 a53c 6322 793e 76f1 6a3c
00000060: 0ffe b63a e356 ed3b 712a 38bd f019 05bd
00000070: 3c8e 633d 66c0 13bd 38a6 70bd d6df 983c
00000080: 0258 8ebc d4c9 af3c 4cfe 093d 6a42 b0bd
00000090: c52e 763c 7f70 f2bc 8db7 93bc 3c52 9bbd
000000a0: 6cdf 3dbc a193 b1bd fdb6 1d3c e49f ce3c
000000b0: 5b43 6ebd 173d 7d3d a167 413b 87d7 273d
000000c0: 91f8 9ebd 53d6 20bd ba76 03be bf4a 8e3c
000000d0: bac8 4e3d da10 f2bd 7184 6dbd 7cc6 783c
000000e0: 4cf0 14be 528e 90bd 94e8 23be 8b98 0dbb
000000f0: 49f1 833c f77e 28bd 9956 083d cbda 1cbd
00000100: 6aea 14bb 6b9f 03be 256c 3fbd 17ff 2ebe
00000110: 3204 b6ba f15c 813c ef07 cdbc 003f 023d
00000120: 1082 8bbc 6e2d 143d bdcb e7bd ea0d 49bd
00000130: d3ce 48be 923d 68bd 1283 5d3c f0e0 99bd
00000140: 92a8 873c f988 b13a 386f 3abc 059d 47bc
00000150: 3b48 8fbd ff08 2b3c 8784 dfbc 3b2e 6d3c
00000160: 95f0 b73d 99cf 303d ca55 c73c eb68 98bc
00000170: 9799 11bc 5dac 40bd 5025 e5bc c428 e4bb
00000180: 5d24 54bc 2d3a 323d ab51 623c d93b 813d
00000190: 9758 3c3b d358 e03b 9d35 83bc 6d53 04bc
000001a0: d16c 923c c8eb 7b3c ae2b 703d fd5a ba3d
000001b0: 8334 0f3c df79 a8bb 4b41 30be 3f01 113d
000001c0: be47 123d d6c9 f3bc 163e 213d 7433 b3bc
000001d0: d776 8dbd b56b 2fbc 93c3 61b9 803b c1bd
000001e0: 65fc a83d 3df9 863d 169d ac3c 46d4 913d
000001f0: 0e6a b639 66e6 34bd ab05 793c 92f1 4e3d
00000200: 8ec6 61bd 3140 ae3d 4dbc 383c 1b19 113b
00000210: d665 403d fe0c 9139 7114 7bbd 6d6c eebd
00000220: d641 033d d6bd 483c 3a46 55be ede1 d6bd
00000230: ce3f 1bba df12 44be 0cff c7bd 67f8 58be
00000240: 9d42 94bd 74b5 3a3d 6c6a 173d 2af2 3ebe
00000250: 5bfd b5bd 02e5 feba 2dcf 32be 963b 8bbd
00000260: b561 70be 6635 a6bd 793b 6e3d 825b e03b
00000270: 7d96 78be cd91 1abe b323 5f39 e4bb 68be
00000280: c579 8abd 0bbf 80be 0725 90bd 9e37 dabc
00000290: c7d4 8ebb 1d86 20bd f732 cf3c 4c1e 973c
000002a0: 1a02 8f3c abd8 093d 9a06 aebc 9474 99bd
000002b0: b5f2 ebbb f749 cdba 6d77 48bd c7e8 a93c
000002c0: e299 8fba 8ea1 f5bc ab1a ea3c cab6 bfbb
000002d0: e8d8 acbd b9c7 1b3b 255b ed3b af4a 6ebd
000002e0: 29fd e53c 7a69 0a3d 084b 5bbd 473e cd3c
000002f0: a531 5a3c 0cc5 a8bd 638c 28bb 9441 0a3c
00000300: d7c5 853d cef0 b9bb 02a3 933d 585a 10be
00000310: 311a 813c e76d 96bc 87a4 27bd 7692 e6bb
00000320: 73ef 4ebb 0e24 2f3d d83e 4bbc 4403 123d
00000330: 298b 02be 3943 933c ffb4 22bc 77b2 dabc
00000340: d55a 8cbd a933 a4bc b998 c73c 54eb a9bc
00000350: c131 b13d 04e7 32be 6d82 553d a79f 5e3d
00000360: 7094 d0bc c26b b53b 6fd3 613c 68b4 eebc
00000370: 3089 b03c d9e5 bfbc 1f3c 62bd 2831 993c
00000380: b9d7 04bd 3527 fbba ea89 6c3c 302c f3bb
00000390: fd88 28bd 0e25 843c 10e5 c4bc e45d 30bd
000003a0: 234d 913c 77cb e2bc cd48 a2bc d310 5e3c
000003b0: 9560 3d3c 9ac4 a1bd 3a29 a33b 6299 d3bc
000003c0: 4dd4 fdbc e1a7 303d 6790 a6bc 291c 263d
000003d0: 935e 19be 3666 22be 05ef a8bd e11c bcbd
000003e0: ccba 0c3d cd07 963d 40f5 b33b 386f d7bb
000003f0: d062 cc3d 4bfd 90bd 083e 0dbe 3317 cfbd
0.018001279 0.030995086 -0.046225242 0.03205518 0.15934016 0.033368364 0.0067582224 0.0507198
-0.05781019 -0.029857105 -0.00844907 -0.024284793 0.031831793 -1.6349262 0.026644351 0.0006830799
0.021278294 -0.024426065 -0.0048688073 0.01848348 0.0022248244 0.020227548 0.24329524 0.014339795
0.0013961213 0.0072430237 -0.04496235 -0.03249544 0.055555567 -0.036072157 -0.05875227 0.01866142
-0.01737595 0.021458544 0.033689782 -0.086064175 0.015025799 -0.029594658 -0.01803186 -0.07584044
-0.011588912 -0.08670736 0.009626147 0.025222726 -0.058169704 0.061825838 0.002951123 0.040977027
-0.07762254 -0.039266896 -0.1283826 0.017369626 0.050484397 -0.118196204 -0.057987634 0.015184041
-0.14544791 -0.070583954 -0.1600669 -0.0021605815 0.016106265 -0.041136708 0.03328571 -0.038294595
-0.002272273 -0.12853782 -0.046733994 -0.17089497 -0.0013886748 0.015791388 -0.025028197 0.031798363
-0.017029792 0.036176138 -0.11318157 -0.049085535 -0.19610147 -0.056699343 0.013520019 -0.075136065
0.016559873 0.0013544849 -0.011379056 -0.0121834325 -0.06996199 0.010439157 -0.027284874 0.014476354
0.08981434 0.04316673 0.0243329 -0.018604716 -0.008886716 -0.04703938 -0.027971894 -0.0069628675
-0.012948123 0.043512512 0.0138134165 0.06310243 0.0028739327 0.006846526 -0.016016776 -0.008076531
0.017874153 0.015376039 0.058635406 0.09099386 0.008740547 -0.0051414813 -0.17212407 0.03540158
0.03571295 -0.029759329 0.03936585 -0.02187512 -0.069074325 -0.010706832 -0.00021530529 -0.09435177
0.082512654 0.06590507 0.021070998 0.07120566 0.00034792762 -0.044165038 0.015199105 0.05052335
-0.055120997 0.08508337 0.011275363 0.0022140208 0.04697212 0.00027666235 -0.06129879 -0.11641774
0.032045208 0.012252292 -0.2082757 -0.10492311 -0.00059222884 -0.19147824 -0.09765443 -0.21188508
-0.07239268 0.045583203 0.036966726 -0.18647066 -0.08886214 -0.0019446912 -0.17461844 -0.067984745
-0.23474772 -0.08115654 0.058162186 0.006846846 -0.24276157 -0.15094681 0.00021280236 -0.22727925
-0.06761507 -0.25145754 -0.070383124 -0.026637848 -0.004358861 -0.0391904 0.025292857 0.018447064
0.017457057 0.033653896 -0.021243382 -0.07492939 -0.007200564 -0.0015662302 -0.04894202 0.02074088
-0.0010955895 -0.029984262 0.02857717 -0.0058506476 -0.08439809 0.0023770167 0.0072435313 -0.058176693
0.028074818 0.033791997 -0.053538352 0.02505411 0.0133175 -0.08240709 -0.0025718443 0.008438487
0.065318756 -0.005674458 0.07208826 -0.14096963 0.01575956 -0.018362952 -0.04092839 -0.0070365025
-0.0031575828 0.042758994 -0.01240512 0.035647646 -0.12748398 0.01797639 -0.009930848 -0.026696427
-0.06853262 -0.020044165 0.024364816 -0.020742096 0.08652068 -0.17470938 0.052126337 0.054351475
-0.025461406 0.0055365274 0.01378332 -0.029138759 0.021549791 -0.02342503 -0.055233117 0.018700197
-0.03243229 -0.0019161465 0.014437178 -0.007421039 -0.041146267 0.01613095 -0.024035007 -0.04305829
0.017736977 -0.02768491 -0.019810105 0.013553816 0.0115586715 -0.07898827 0.00497928 -0.025829975
-0.030985022 0.04312885 -0.020332528 0.0405542 -0.14977483 -0.15859303 -0.08248714 -0.09185196
0.03435783 0.07325707 0.0054918826 -0.0065745376 0.099797845 -0.07079562 -0.13793194 -0.10111847

model1.8.conv.bias f4 [16]
00000000: a12d 353d a50d 173d 1cef 2d3c 3a5b ed3c
00000010: 8965 353d 3747 0c3d 1d34 32bc 80ec 5a3d
00000020: 53cb b4bc d966 d0bc 0773 ebbc e7e0 433d
00000030: 29df 553d a1af 2b3d 34a1 543d ef4d e9bc
0.04423297 0.036878247 0.01061609 0.028974164 0.044286285 0.034247603 -0.010876683 0.0534482
-0.022069609 -0.025439667 -0.028741373 0.047821905 0.052214775 0.04191554 0.051911548 -0.028479544

model1.8.batch_norm.weight f4 [16]
00000000: 5d82 113f 5027 3f3f 0838 3c3f 622c 123f
00000010: ff05 2a3f 350a 353f 72d6 3c3f e46d 3b3f
00000020: 13a1 2d3f 1b10 1e3f 425a 463f 55dd 253f
00000030: 5650 523f 6054 4c3f 3b32 543f 07c9 0f3f
0.56839544 0.7466936 0.73522997 0.5709897 0.664154 0.707187 0.7376472 0.73214555
0.67823905 0.61743325 0.7748147 0.6479085 0.8215383 0.79816246 0.82889146 0.5616612

model1.8.batch_norm.bias f4 [16]
00000000: 34ae 64be ac25 02bf 3358 10bf 628b 9ebe
00000010: ee12 99be 83db a1be 4782 09bf aaa8 18bf
00000020: 69aa 81be 6def 0cbf 19d7 2abf 7209 0cbf
00000030: 96a7 44bf 8577 ecbe 80be 1fbf be56 94be
-0.22332078 -0.5083873 -0.5638458 -0.30965716 -0.29897255 -0.31612787 -0.5371441 -0.5963236
-0.25325325 -0.55052835 -0.6673446 -0.5470191 -0.76818216 -0.46184936 -0.62400055 -0.2897243

model1.8.batch_norm.running_mean f4 [16]
00000000: 47b4 42bf b603 66bf 0e44 59bf a1a4 4ebf
00000010: 7775 1dbf c4b2 3fbf 428f 26bf 22a9 6dbf
00000020: 7fa2 4dbf b197 8cbf 0b3a 74bf 992b 67bf
00000030: 16ab 78bf 96f4 4cbf 161b 70bf 4822 02bf
-0.7605633 -0.8984941 -0.8486947 -0.80719954 -0.6150736 -0.7488215 -0.65062344 -0.928362
-0.80326074 -1.0983793 -0.95401067 -0.903009 -0.97136056 -0.8006071 -0.9379133 -0.5083356

model1.8.batch_norm.running_var f4 [16]
00000000: 8ba4 a23f df75 9e3f 39cf 933f 4f0d 833f
00000010: fd19 7b3f 9db8 c13f 5b93 7c3f 9345 883f
00000020: 6dc1 de3f a314 973f 241a 7b3f d09f 7b3f
00000030: f979 9e3f 2ca2 913f 9253 be3f 0d67 443f
1.2706465 1.2379721 1.1547614 1.0238436 0.9808653 1.5134465 0.98662347 1.0646232
1.7402779 1.1803173 0.9808676 0.9829073 1.2380973 1.1377616 1.4869254 0.76719743

model1.10.conv.weight f4 [16, 16, 3, 3, 3]
00000000: 6b77 933c 68e9 fd3c ae56 3dbd 4b4c 033d
00000010: 112a 233e 44ad 083d 1474 dd3b 91bf 4f3d
00000020: 61ca 6cbd e396 f4bc f86d 0abc e7f0 c6bc
00000030: 0e62 023d 4345 d1bf 4145 da3c b710 333a
00000040: d14f ae3c 2c19 c8bc 848a 9fbb ab6a 973c
00000050: 5cce 113b 3eb4 a53c 6322 793e 76f1 6a3c
00000060: 0ffe b63a e356 ed3b 712a 38bd f019 05bd
00000070: 3c8e 633d 66c0 13bd 38a6 70bd d6df 983c
00000080: 0258 8ebc d4c9 af3c 4cfe 093d 6a42 b0bd
00000090: c52e 763c 7f70 f2bc 8db7 93bc 3c52 9bbd
000000a0: 6cdf 3dbc a193 b1bd fdb6 1d3c e49f ce3c
000000b0: 5b43 6ebd 173d 7d3d a167 413b 87d7 273d
000000c0: 91f8 9ebd 53d6 20bd ba76 03be bf4a 8e3c
000000d0: bac8 4e3d da10 f2bd 7184 6dbd 7cc6 783c
000000e0: 4cf0 14be 528e 90bd 94e8 23be 8b98 0dbb
000000f0: 49f1 833c f77e 28bd 9956 083d cbda 1cbd
00000100: 6aea 14bb 6b9f 03be 256c 3fbd 17ff 2ebe
00000110: 3204 b6ba f15c 813c ef07 cdbc 003f 023d
00000120: 1082 8bbc 6e2d 143d bdcb e7bd ea0d 49bd
00000130: d3ce 48be 923d 68bd 1283 5d3c f0e0 99bd
00000140: 92a8 873c f988 b13a 386f 3abc 059d 47bc
00000150: 3b48 8fbd ff08 2b3c 8784 dfbc 3b2e 6d3c
00000160: 95f0 b73d 99cf 303d ca55 c73c eb68 98bc
00000170: 9799 11bc 5dac 40bd 5025 e5bc c428 e4bb
00000180: 5d24 54bc 2d3a 323d ab51 623c d93b 813d
00000190: 9758 3c3b d358 e03b 9d35 83bc 6d53 04bc
000001a0: d16c 923c c8eb 7b3c ae2b 703d fd5a ba3d
000001b0: 8334 0f3c df79 a8bb 4b41 30be 3f01 113d
000001c0: be47 123d d6c9 f3bc 163e 213d 7433 b3bc
000001d0: d776 8dbd b56b 2fbc 93c3 61b9 803b c1bd
000001e0: 65fc a83d 3df9 863d 169d ac3c 46d4 913d
000001f0: 0e6a b639 66e6 34bd ab05 793c 92f1 4e3d
00000200: 8ec6 61bd 3140 ae3d 4dbc 383c 1b19 113b
00000210: d665 403d fe0c 9139 7114 7bbd 6d6c eebd
00000220: d641 033d d6bd 483c 3a46 55be ede1 d6bd
00000230: ce3f 1bba df12 44be 0cff c7bd 67f8 58be
00000240: 9d42 94bd 74b5 3a3d 6c6a 173d 2af2 3ebe
00000250: 5bfd b5bd 02e5 feba 2dcf 32be 963b 8bbd
00000260: b561 70be 6635 a6bd 793b 6e3d 825b e03b
00000270: 7d96 78be cd91 1abe b323 5f39 e4bb 68be
00000280: c579 8abd 0bbf 80be 0725 90bd 9e37 dabc
00000290: c7d4 8ebb 1d86 20bd f732 cf3c 4c1e 973c
000002a0: 1a02 8f3c abd8 093d 9a06 aebc 9474 99bd
000002b0: b5f2 ebbb f749 cdba 6d77 48bd c7e8 a93c
000002c0: e299 8fba 8ea1 f5bc ab1a ea3c cab6 bfbb
000002d0: e8d8 acbd b9c7 1b3b 255b ed3b af4a 6ebd
000002e0: 29fd e53c 7a69 0a3d 084b 5bbd 473e cd3c
000002f0: a531 5a3c 0cc5 a8bd 638c 28bb 9441 0a3c
00000300: d7c5 853d cef0 b9bb 02a3 933d 585a 10be
00000310: 311a 813c e76d 96bc 87a4 27bd 7692 e6bb
00000320: 73ef 4ebb 0e24 2f3d d83e 4bbc 4403 123d
00000330: 298b 02be 3943 933c ffb4 22bc 77b2 dabc
00000340: d55a 8cbd a933 a4bc b998 c73c 54eb a9bc
00000350: c131 b13d 04e7 32be 6d82 553d a79f 5e3d
00000360: 7094 d0bc c26b b53b 6fd3 613c 68b4 eebc
00000370: 3089 b03c d9e5 bfbc 1f3c 62bd 2831 993c
00000380: b9d7 04bd 3527 fbba ea89 6c3c 302c f3bb
00000390: fd88 28bd 0e25 843c 10e5 c4bc e45d 30bd
000003a0: 234d 913c 77cb e2bc cd48 a2bc d310 5e3c
000003b0: 9560 3d3c 9ac4 a1bd 3a29 a33b 6299 d3bc
000003c0: 4dd4 fdbc e1a7 303d 6790 a6bc 291c 263d
000003d0: 935e 19be 3666 22be 05ef a8bd e11c bcbd
000003e0: ccba 0c3d cd07 963d 40f5 b33b 386f d7bb
000003f0: d062 cc3d 4bfd 90bd 083e 0dbe 3317 cfbd
0.018001279 0.030995086 -0.046225242 0.03205518 0.15934016 0.033368364 0.0067582224 0.0507198
-0.05781019 -0.029857105 -0.00844907 -0.024284793 0.031831793 -1.6349262 0.026644351 0.0006830799
0.021278294 -0.024426065 -0.0048688073 0.01848348 0.0022248244 0.020227548 0.24329524 0.014339795
0.0013961213 0.0072430237 -0.04496235 -0.03249544 0.055555567 -0.036072157 -0.05875227 0.01866142
-0.01737595 0.021458544 0.033689782 -0.086064175 0.015025799 -0.029594658 -0.01803186 -0.07584044
-0.011588912 -0.08670736 0.009626147 0.025222726 -0.058169704 0.061825838 0.002951123 0.040977027
-0.07762254 -0.039266896 -0.1283826 0.017369626 0.050484397 -0.118196204 -0.057987634 0.015184041
-0.14544791 -0.070583954 -0.1600669 -0.0021605815 0.016106265 -0.041136708 0.03328571 -0.038294595
-0.002272273 -0.12853782 -0.046733994 -0.17089497 -0.0013886748 0.015791388 -0.025028197 0.031798363
-0.017029792 0.036176138 -0.11318157 -0.049085535 -0.19610147 -0.056699343 0.013520019 -0.075136065
0.016559873 0.0013544849 -0.011379056 -0.0121834325 -0.06996199 0.010439157 -0.027284874 0.014476354
0.08981434 0.04316673 0.0243329 -0.018604716 -0.008886716 -0.04703938 -0.027971894 -0.0069628675
-0.012948123 0.043512512 0.0138134165 0.06310243 0.0028739327 0.006846526 -0.016016776 -0.008076531
0.017874153 0.015376039 0.058635406 0.09099386 0.008740547 -0.0051414813 -0.17212407 0.03540158
0.03571295 -0.029759329 0.03936585 -0.02187512 -0.069074325 -0.010706832 -0.00021530529 -0.09435177
0.082512654 0.06590507 0.021070998 0.07120566 0.00034792762 -0.044165038 0.015199105 0.05052335
-0.055120997 0.08508337 0.011275363 0.0022140208 0.04697212 0.00027666235 -0.06129879 -0.11641774
0.032045208 0.012252292 -0.2082757 -0.10492311 -0.00059222884 -0.19147824 -0.09765443 -0.21188508
-0.07239268 0.045583203 0.036966726 -0.18647066 -0.08886214 -0.0019446912 -0.17461844 -0.067984745
-0.23474772 -0.08115654 0.058162186 0.006846846 -0.24276157 -0.15094681 0.00021280236 -0.22727925
-0.06761507 -0.25145754 -0.070383124 -0.026637848 -0.004358861 -0.0391904 0.025292857 0.018447064
0.017457057 0.033653896 -0.021243382 -0.07492939 -0.007200564 -0.0015662302 -0.04894202 0.02074088
-0.0010955895 -0.029984262 0.02857717 -0.0058506476 -0.08439809 0.0023770167 0.0072435313 -0.058176693
0.028074818 0.033791997 -0.053538352 0.02505411 0.0133175 -0.08240709 -0.0025718443 0.008438487
0.065318756 -0.005674458 0.07208826 -0.14096963 0.01575956 -0.018362952 -0.04092839 -0.0070365025
-0.0031575828 0.042758994 -0.01240512 0.035647646 -0.12748398 0.01797639 -0.009930848 -0.026696427
-0.06853262 -0.020044165 0.024364816 -0.020742096 0.08652068 -0.17470938 0.052126337 0.054351475
-0.025461406 0.0055365274 0.01378332 -0.029138759 0.021549791 -0.02342503 -0.055233117 0.018700197
-0.03243229 -0.0019161465 0.014437178 -0.007421039 -0.041146267 0.01613095 -0.024035007 -0.04305829
0.017736977 -0.02768491 -0.019810105 0.013553816 0.0115586715 -0.07898827 0.00497928 -0.025829975
-0.030985022 0.04312885 -0.020332528 0.0405542 -0.14977483 -0.15859303 -0.08248714 -0.09185196
0.03435783 0.07325707 0.0054918826 -0.0065745376 0.099797845 -0.07079562 -0.13793194 -0.10111847

model1.10.conv.bias f4 [16]
00000000: a12d 353d a50d 173d 1cef 2d3c 3a5b ed3c
00000010: 8965 353d 3747 0c3d 1d34 32bc 80ec 5a3d
00000020: 53cb b4bc d966 d0bc 0773 ebbc e7e0 433d
00000030: 29df 553d a1af 2b3d 34a1 543d ef4d e9bc
0.04423297 0.036878247 0.01061609 0.028974164 0.044286285 0.034247603 -0.010876683 0.0534482
-0.022069609 -0.025439667 -0.028741373 0.047821905 0.052214775 0.04191554 0.051911548 -0.028479544

model1.10.batch_norm.weight f4 [16]
00000000: 5d82 113f 5027 3f3f 0838 3c3f 622c 123f
00000010: ff05 2a3f 350a 353f 72d6 3c3f e46d 3b3f
00000020: 13a1 2d3f 1b10 1e3f 425a 463f 55dd 253f
00000030: 5650 523f 6054 4c3f 3b32 543f 07c9 0f3f
0.56839544 0.7466936 0.73522997 0.5709897 0.664154 0.707187 0.7376472 0.73214555
0.67823905 0.61743325 0.7748147 0.6479085 0.8215383 0.79816246 0.82889146 0.5616612

model1.10.batch_norm.bias f4 [16]
00000000: 34ae 64be ac25 02bf 3358 10bf 628b 9ebe
00000010: ee12 99be 83db a1be 4782 09bf aaa8 18bf
00000020: 69aa 81be 6def 0cbf 19d7 2abf 7209 0cbf
00000030: 96a7 44bf 8577 ecbe 80be 1fbf be56 94be
-0.22332078 -0.5083873 -0.5638458 -0.30965716 -0.29897255 -0.31612787 -0.5371441 -0.5963236
-0.25325325 -0.55052835 -0.6673446 -0.5470191 -0.76818216 -0.46184936 -0.62400055 -0.2897243

model1.10.batch_norm.running_mean f4 [16]
00000000: 47b4 42bf b603 66bf 0e44 59bf a1a4 4ebf
00000010: 7775 1dbf c4b2 3fbf 428f 26bf 22a9 6dbf
00000020: 7fa2 4dbf b197 8cbf 0b3a 74bf 992b 67bf
00000030: 16ab 78bf 96f4 4cbf 161b 70bf 4822 02bf
-0.7605633 -0.8984941 -0.8486947 -0.80719954 -0.6150736 -0.7488215 -0.65062344 -0.928362
-0.80326074 -1.0983793 -0.95401067 -0.903009 -0.97136056 -0.8006071 -0.9379133 -0.5083356

model1.10.batch_norm.running_var f4 [16]
00000000: 8ba4 a23f df75 9e3f 39cf 933f 4f0d 833f
00000010: fd19 7b3f 9db8 c13f 5b93 7c3f 9345 883f
00000020: 6dc1 de3f a314 973f 241a 7b3f d09f 7b3f
00000030: f979 9e3f 2ca2 913f 9253 be3f 0d67 443f
1.2706465 1.2379721 1.1547614 1.0238436 0.9808653 1.5134465 0.98662347 1.0646232
1.7402779 1.1803173 0.9808676 0.9829073 1.2380973 1.1377616 1.4869254 0.76719743
