models/conv3d/lr_0.0005/lr_0.0005/epoch_4850.pt (torch, 189922 bytes, 102 tensors)

model1.0.weight f4 [16, 8, 3, 3, 3]
00000000: 17dd 85bd 312c 053d 01c4 87bd 4ba6 483d
00000010: a639 c53c 3c27 773d 61ad a03c 53ec aebc
00000020: 4caa a1bd 326c 93bd 1b61 5bbb 2fd7 93bd
00000030: 820e 523b 44f8 0d3d aaf2 703d dc9a 24bd
00000040: fa00 e43c 539e 6d3c 008a 93bd b051 80bc
00000050: cef6 efbc 1fb0 983d 3b08 3c3d 8f06 633d
00000060: 25f3 1abd aa85 c03c d818 e5bc c4c8 903c
00000070: 68c4 c73d 9eea a53d 6475 a4bd 1834 bdbd
00000080: 31fc af3c 084b 5d3d 673b 0dbd e592 a5bc
00000090: 71a3 133c ffab 48bd 1b7d 2cbd 87e2 893d
000000a0: ccc2 5f3d 3f58 a93c 271b b23c 5df7 903c
000000b0: 944d b0bb 4685 ca3c 68f0 7c3c 54d3 43bd
000000c0: 669d ad3c 208a ef3d 82c3 acbd 3aed ca3d
000000d0: 23bb 80bd 8265 09be 5a0b f33c 278c 603d
000000e0: 1797 88bc 41b2 6e3c fff8 9fbd 684a 4d3c
000000f0: 53a0 70bc 079f 183d a584 9b3c 5bc3 473d
00000100: 0bf0 2dbd 3c9f 843d 7315 f73b a564 ffbc
00000110: 7a90 15bd 57d2 0abd ec53 10bd 2ae3 8dbc
00000120: f894 0d3d 17be 6c3b 6002 813d d1a8 3dbd
00000130: a13a b6bd c242 3bbc 998a 01bb 736c 27bd
00000140: f532 33bd 671f 95bc 3050 4cbb 2445 aebd
00000150: 7ca2 0c3e 235a 523d b0e8 a9bb b3c3 83bc
00000160: 8213 8c3d 0a1a 0a3d 1a46 76bd 1c63 d5bc
00000170: abf9 d8bd 10c7 543d 7d64 1fbd 6a56 8dbb
00000180: f2a1 5c3d 6366 5b3b 9d73 1bbc ebc7 933b
00000190: e4fe 31bd 4637 27bd e2d0 8c3d 3e08 603d
000001a0: 1e63 2b3d e58c 1abd 6bb8 053c ecc5 c73d
000001b0: 0c1b 183b d733 603c 2569 a03d 6d3b 08bc
000001c0: 2890 4dbd ff42 9d3d 0ebe 8f3c ede9 1dbd
000001d0: 0792 94bd f219 453d 2d7a a6bc 08fe cb3d
000001e0: 6fe9 23bd f2a7 a9bd 8cf7 63bc 25b8 c73d
000001f0: b8c8 aabc def2 8e3c 495e bebc 152f acbd
00000200: fd1e 1f3c 5d07 b83c 51ac 78bd 9e3e 813d
00000210: 81b5 0ebd 9c10 2abd ca90 0cbd c3d7 bc3d
00000220: 4c18 0b3c 4d5a 22bc 2e03 88bd 3fdb 003d
00000230: 6cf3 633c 8ad9 0ebe b2f5 e3bc 2e8f 093c
00000240: d836 083d 224f fcbc 919f 6ebd 5a70 8dbd
00000250: 3115 e0bb f72a 0a3c 20da b8bc ce49 103c
00000260: 417f c93c 2b7e ce3b e623 03bd a89c 4bbd
00000270: fa9a 58bb 5bbc 7a3c 8f8b 21bd 7ebe 913c
00000280: 1404 533d b018 333d 4095 803d f266 95bc
00000290: 4218 d4bc fab5 253d 0a77 daba e3da 853d
000002a0: dc2a b7ba 1639 063d 07aa 1cbb 269c ce3c
000002b0: b095 81bb 4d5b a2bd 5861 8a3d cc5a b3bc
000002c0: 7722 793d ce9f 593d 2220 4bbd 845d 373d
000002d0: 71c1 0fbd c1b0 c33c 10ba 263d 3f76 cfbd
000002e0: b1d5 af3a 46de 8e3c df1a 96bd 1dba 923c
000002f0: 525e 393b c014 c2b9 a3cb e03c 9339 13b9
00000300: c141 843d 186b cabd 093e 3bbd f789 af3c
00000310: e17b 063b 6230 fa3d 36f7 873d cf44 d43c
00000320: 876d 873d ef94 ee3b d8b2 47bc ce94 62bd
00000330: 32e1 433d bbc0 2339 3890 543d a897 843d
00000340: c330 abbc eb0b ef3c 2fc6 0c3d c7d4 93bd
00000350: 8c0f 973c 9edc 743c 89cb 753c c945 583d
00000360: 5b1e 07be 9bd3 6a3d afa0 413c 8b02 e43c
00000370: 3c33 af3d 9639 98bd 3b2c 27bd e92b a43c
00000380: 3023 303d 81c5 a4bc 9705 39bc 2670 013c
00000390: 191f abbc 56c5 0a3c 53d9 bebc cfb3 843d
000003a0: 90dc 3b3d f64e 54bd 4efa 18bd b0f4 e7bc
000003b0: b521 45bd b826 19bd bf84 46bc 33f7 693d
000003c0: ae61 8c3d 9bde 533c aede 39bd ca99 bc3d
000003d0: 8d18 293d 4cb0 ee39 66ed 65bd 3d8d 86bd
000003e0: 5939 27bd deb7 39bc 8f0c 8fbb 3daf 88bc
000003f0: 4a9d 263c f088 d739 994e 83bd df13 2fbd
-0.0653631 0.032512847 -0.06629182 0.048986714 0.02407534 0.06034015 0.019613924 -0.021352923
-0.0789381 -0.07198371 -0.0033474627 -0.072187774 0.0032052104 0.034660593 0.058825172 -0.040186748
0.027832497 0.0145030795 -0.07204056 -0.015663952 -0.02929249 0.074554674 0.045906287 0.055426177
-0.037829537 0.023501236 -0.027965948 0.017673858 0.097542584 0.0810139 -0.08030203 -0.09238452
0.021482559 0.054026634 -0.03448048 -0.020211646 0.009011135 -0.048992153 -0.042111497 0.0673266
0.054629132 0.020671962 0.021741463 0.017696077 -0.005380342 0.024721753 0.015438177 -0.04780896
0.021193217 0.11696267 -0.08435728 0.099085286 -0.062856935 -0.13417628 0.029668499 0.05482116
-0.016673608 0.014568866 -0.07811164 0.012529947 -0.014686662 0.037261035 0.018984148 0.04877029
-0.04246525 0.06475684 0.0075403987 -0.03117592 -0.036514737 -0.033892002 -0.035236284 -0.017320234
0.034565896 0.0036124045 0.06299281 -0.046303574 -0.08897901 -0.0114294905 -0.0019766449 -0.04087491
-0.04374977 -0.01820345 -0.0031175725 -0.08509281 0.13733858 0.051355492 -0.005185209 -0.016084528
0.06839658 0.03371624 -0.060125448 -0.026048236 -0.105944954 0.051947653 -0.038914192 -0.00431328
0.05386538 0.0033477775 -0.009488014 0.004509916 -0.043455973 -0.040824197 0.06875779 0.05469536
0.041842572 -0.037732024 0.008161644 0.097545475 0.002320948 0.013684235 0.07832555 -0.008314949
-0.050186306 0.07678794 0.01754668 -0.038553167 -0.07254415 0.048120447 -0.02032193 0.09960562
-0.04001754 -0.08283986 -0.013914 0.0975192 -0.020847663 0.017449792 -0.023238318 -0.08407418
0.009711978 0.022464449 -0.06071121 0.063107714 -0.034841064 -0.041519746 -0.03431777 0.09220841
0.00848968 -0.009909225 -0.066412315 0.03145909 0.013913017 -0.13950172 -0.027827118 0.008395953
0.033255428 -0.030799452 -0.058257643 -0.06906195 -0.0068384637 0.008433095 -0.022564948 0.008806659
0.024596812 0.0063016615 -0.032016657 -0.049709946 -0.0033051358 0.0153036965 -0.039439734 0.017791029
0.05151756 0.043724716 0.06278467 -0.018237565 -0.025890473 0.04045675 -0.0016667556 0.0653589
-0.0013974565 0.032769285 -0.0023905055 0.025220942 -0.0039546117 -0.079275705 0.06756848 -0.021893881
0.060823884 0.053130917 -0.04959119 0.044766918 -0.03509659 0.023887994 0.040704787 -0.101299755
0.0013415125 0.017439973 -0.07329344 0.017911011 0.002828498 -0.00037018023 0.027440852 -0.0001404046
0.06457854 -0.09883708 -0.04571346 0.021428091 0.0020520615 0.122162595 0.066389486 0.025911717
0.066126876 0.007280938 -0.012188636 -0.055317692 0.047822185 0.00015616689 0.05189535 0.06474239
-0.020897275 0.029180488 0.03436869 -0.072183184 0.01844003 0.014945177 0.01500214 0.052800927
-0.13195173 0.05733071 0.011818095 0.027833244 0.08554694 -0.07432859 -0.040813666 0.02004047
0.043002307 -0.020113708 -0.011292837 0.007900273 -0.020888852 0.0084699 -0.023296988 0.06479608
0.04586464 -0.051833116 -0.037348084 -0.028314918 -0.04812785 -0.03739044 -0.01211661 0.057120513
0.068545684 0.012931491 -0.04537838 0.092090204 0.04128318 0.0004552625 -0.056134604 -0.06569908
-0.040826175 -0.011335341 -0.004365511 -0.016685123 0.010169337 0.00041110022 -0.06411476 -0.04274356

model1.0.bias f4 [16]
00000000: 1bf2 bfbe a2ea a6be be74 c8be e070 c3be
00000010: 8c90 7ebe 222e bfbe 99b8 29be 32a5 8bbe
00000020: 7065 82be c6c9 d6be 129c 49be 2367 e1be
00000030: 3a7c 8abe 7af3 8fbe 15d5 63be e2c2 adbe
-0.374894 -0.32600886 -0.39151567 -0.38172054 -0.24859828 -0.37339884 -0.16574325 -0.27274472
-0.25468016 -0.41950816 -0.19688442 -0.44024 -0.27047902 -0.28115445 -0.22249253 -0.33937746

model1.2.conv.weight f4 [16, 16, 3, 3, 3]
00000000: 5327 d73b 9510 013d 9a5a 0dbd 5b3c 093d
00000010: bd11 323e d52e 0e3d 178a 2dbc 2c25 4d3d
00000020: 3954 46bd 2973 fbbc 81a0 11bc 7a97 69bc
00000030: 44d6 f23c b368 d7bf f926 c53c 85be 01bc
00000040: c1d7 433c 8b7d c8bc 0248 d9bc 32ad 863c
00000050: 2750 fd3c 3ed9 143c d20c 823e 6877 013c
00000060: b589 433b 5fd8 863b 9121 36bd f000 21bc
00000070: a0c7 903d a097 60bd cb54 85bd a891 813c
00000080: b964 6fbc 3982 b83c ceb0 f63c 9486 99bd
00000090: 94e7 fe3c b607 dcbc 4345 55bc 3e3d 96bd
000000a0: 2e44 00bc 96ea 69bd af73 8b3c 938f 113c
000000b0: 7416 66bd f9a8 953d ae48 eebb d6e5 5e3d
000000c0: f21f a5bd 4df0 2fbd 6984 afbd 57c3 683c
000000d0: 25a5 083d 8ecb f6bd 8fb3 63bd fca0 793c
000000e0: f1d5 0ebe cdda 8fbd 555e 1abe 1920 1bbc
000000f0: 3bf3 953c 8750 07bd 28cb fd3c 37b0 10bd
00000100: e699 ff3a 2ba3 ebbd 88fb 66bd 88fb 21be
00000110: 5918 08bb e5d5 b73c 7222 94bc 4fc5 0f3d
00000120: 6c58 9ebc 5950 523d 2f4d fcbd 4547 85bd
00000130: e947 43be 57f9 89bd bd29 b53b 869d 93bd
00000140: 9d84 9dbb bfa5 2e3a ce43 4dbb 8250 5abc
00000150: 5219 83bd a8a1 653a ef29 d3bc 6ea1 963c
00000160: af69 b83d 4c57 a43c 9b74 bc3c 7b48 0bbc
00000170: 45b9 8abc 3942 81bd 6762 a4bc 5abb d8ba
00000180: c011 25bc f9c1 423d 4ecd 563c d99a 603d
00000190: e2c0 893c 889e 3a3b 1308 05bd f320 60bc
000001a0: 1e89 833c 7667 273c 21a8 423d 42e1 b33d
000001b0: c59f 49bc 19e8 07bc 5990 31be e225 b23c
000001c0: 8691 063d af6c ddbc 1099 2a3d 04be 15bd
000001d0: 38e0 84bd 832a cdba 6619 4fbb 39ed e7bd
000001e0: 1074 a83d 35cc 803d 654b 0c3d 1d40 a93d
000001f0: 8ebd 3fbc a553 5bbd e4c0 c43c 0f25 4e3d
00000200: 6c92 79bd 9f1d a73d 848d 513c 6028 3a3c
00000210: 2791 813d a75c 1abc d79e 77bd d5ec 0abe
00000220: 127a e73c e54f 323c bb28 37be 8034 bfbd
00000230: ee70 573c a9b7 6bbe 340b a7bd 8342 65be
00000240: 9b06 cbbd 7a20 263d 6302 1d3d 32e1 3fbe
00000250: afb1 a3bd a514 043c fb3d 41be 3211 4ebd
00000260: 2db9 7ebe 17f0 d8bd 2982 703d 6383 833c
00000270: 814b 89be e788 17be 6b05 363b 5af4 75be
00000280: 5d23 2fbd 9bde 86be 5222 90bd 373a d5bc
00000290: bdf5 06bc eb09 47bd cba2 bd3c ca96 863c
000002a0: 0269 e23c dd30 0c3d b452 05bd 41ab 7dbd
000002b0: acf1 f2bb 44bc 73bb 7406 53bd 228b fd3c
000002c0: d33b e83b 379a 05bd 58e5 b33c 57b8 aabb
000002d0: 3640 80bd 1d46 fdb9 fc96 f63b 9145 80bd
000002e0: f995 c93c 0d82 273d 77da 63bd f0c3 b03c
000002f0: 9158 853c 6f03 9bbd 4789 88bc 5c7d 503a
00000300: 17eb 8c3d fdf6 be3b 8228 963d 3039 fbbd
00000310: d4e9 47ba faee bdbc 4dca f0bc c5f7 36bc
00000320: c329 61bb 05f9 1e3d 81c4 55b9 3d44 2d3d
00000330: 82b2 f8bd 3aed f43b f392 14bc 8896 eabc
00000340: 245a 92bd 122a a5bc 0165 8c3c d083 aebb
00000350: 85fe c03d 6eaa 35be 1dd6 193d c2f4 623d
00000360: d833 bbbc 4e69 0739 6a41 243c 6a4e f5bc
00000370: fa59 bb3c 2748 b7bc d556 0dbd 996c a33c
00000380: 2161 1dbd da93 9dbc f3d7 513c 3502 8dbb
00000390: ba85 0ebd b282 743c 48b3 9bbc 0bd1 35bd
000003a0: ceda ae3c 29d9 ecbc baea abbc 9717 763c
000003b0: 8d35 2f3c 25a2 35bd cfc1 313b a9d6 b0bc
000003c0: 8327 0dbd 4622 333d 3eff 6abc cf02 3e3d
000003d0: 35f7 17be 18e3 21be 9e19 92bd 8008 a8bd
000003e0: 2167 c13c f314 b53d cfe5 403b 850e 41bb
000003f0: 8a02 c63d 4b3f 81bd 8518 02be 2f01 c6bd
0.006565967 0.031509954 -0.034510233 0.033504825 0.17389579 0.03471263 -0.010592005 0.050084278
-0.048420165 -0.030694561 -0.008888365 -0.014257306 0.029643185 -1.6828827 0.024066435 -0.007918959
0.011953295 -0.024473926 -0.026523594 0.016440008 0.030922009 0.009084998 0.25400406 0.007902004
0.0029836718 0.004115149 -0.044465605 -0.009826884 0.070693254 -0.0548321 -0.065103136 0.015816525
-0.0146114165 0.022523033 0.030113604 -0.07496372 0.031116284 -0.026859146 -0.013017002 -0.073359
-0.007828755 -0.057108484 0.017022936 0.008884328 -0.056173757 0.073076196 -0.0072718477 0.054418407
-0.08062734 -0.042953778 -0.08570177 0.014206729 0.03336062 -0.12050544 -0.055591162 0.015236136
-0.139488 -0.07024155 -0.15075047 -0.009468102 0.018304458 -0.03303578 0.030980662 -0.0353243
0.0019500821 -0.11505731 -0.056392223 -0.15818608 -0.0020766465 0.02244086 -0.018082831 0.035100278
-0.019329272 0.051346157 -0.12319409 -0.06507734 -0.190704 -0.06737011 0.005528657 -0.072077796
-0.0048070685 0.00066622713 -0.0031320932 -0.013324859 -0.06401314 0.00087597454 -0.025776831 0.018387523
0.090045325 0.020061158 0.02300482 -0.008501167 -0.016934047 -0.06311459 -0.020066453 -0.0016535327
-0.010075033 0.047548268 0.013110472 0.054835174 0.016815607 0.002847584 -0.032478403 -0.013679731
0.016056594 0.010217538 0.04752362 0.08783199 -0.012306158 -0.0082950825 -0.1734022 0.02174658
0.032853626 -0.027029363 0.041649878 -0.036558166 -0.06488079 -0.0015652928 -0.0031600832 -0.113245435
0.08225262 0.062889494 0.03425159 0.08264182 -0.011702908 -0.053546567 0.024017759 0.05032831
-0.060930654 0.08159947 0.012790088 0.011362165 0.06326514 -0.009421504 -0.060454216 -0.13566907
0.02825645 0.010883306 -0.17886631 -0.093361855 0.013149483 -0.2301928 -0.08156434 -0.22388653
-0.09913369 0.040558316 0.038332354 -0.18738249 -0.07992875 0.008061563 -0.188713 -0.050309367
-0.24875326 -0.105926685 0.05871788 0.016053861 -0.26815417 -0.14798318 0.0027774225 -0.24018994
-0.042758334 -0.2634171 -0.07037796 -0.026028736 -0.0082372995 -0.048593443 0.023148915 0.016429324
0.027637962 0.034226287 -0.032549575 -0.0619309 -0.0074140634 -0.0037191072 -0.051519826 0.030950133
0.0070872097 -0.032617774 0.021959946 -0.0052099633 -0.06262247 -0.0004830816 0.007525323 -0.06263269
0.024607645 0.04089551 -0.055628266 0.021577805 0.016277583 -0.07569014 -0.016667021 0.00079532503
0.06880777 0.005827783 0.07331945 -0.12266767 -0.00076260907 -0.023185242 -0.02939334 -0.011167471
-0.0034357167 0.038811702 -0.00020386466 0.042301405 -0.12143423 0.0074745687 -0.009068239 -0.028636232
-0.07146099 -0.020161662 0.017138006 -0.005325772 0.09423546 -0.17740795 0.03755771 0.0554092
-0.02285187 0.00012913832 0.010025362 -0.029944617 0.022870053 -0.022373272 -0.034506638 0.019949244
-0.038422707 -0.01923554 0.012807834 -0.0043032416 -0.0347955 0.014923738 -0.019006386 -0.044388812
0.021344569 -0.028912144 -0.02098595 0.015020273 0.01069392 -0.044344086 0.0027123576 -0.021586733
-0.03446151 0.043733858 -0.014343081 0.046389397 -0.14840396 -0.15809286 -0.07133792 -0.08204746
0.023608746 0.08841886 0.0029433852 -0.0029458117 0.09668453 -0.063109 -0.12704666 -0.096681945

model1.2.conv.bias f4 [16]
00000000: cf51 223d e77e 183d 9db3 4b3c d648 e43c
00000010: 4e75 383d b6ca 173d 9570 1dbc 03a4 573d
00000020: 29aa 9fbc 9788 c1bc 7e38 e3bc 1695 473d
00000030: a795 533d 71a0 2d3d 9ba9 563d e385 fcbc
0.0396288 0.0372304 0.01243296 0.027866762 0.045033745 0.037058555 -0.009609361 0.05264665
-0.019490318 -0.023624701 -0.027736899 0.048726164 0.05165639 0.042389337 0.052407842 -0.03082556

model1.2.batch_norm.weight f4 [16]
00000000: 2da5 133f d89a 473f 7d42 463f 8017 143f
00000010: 8783 2f3f 9552 393f ac43 433f e236 443f
00000020: 3bd3 333f 6941 223f fe78 4d3f 60c6 2c3f
00000030: 4c43 5a3f 373b 533f 1dc4 5d3f 3067 143f
0.57673913 0.7797065 0.77445203 0.5784836 0.6856007 0.72391635 0.76275134 0.76646245
0.7024419 0.6338106 0.80262744 0.67490196 0.85258937 0.8251223 0.8662737 0.5796995

model1.2.batch_norm.bias f4 [16]
00000000: 96c9 67be e298 07bf 6913 17bf 43e9 9fbe
00000010: 048f 9cbe aa36 a9be 9a75 0fbf cb96 20bf
00000020: 5563 83be 887a 0fbf 0692 2ebf f62c 10bf
00000030: b995 4abf 96f9 f6be 6b0d 23bf 9545 97be
-0.22635493 -0.52967656 -0.5901399 -0.31232652 -0.30577862 -0.33049518 -0.5603882 -0.6273009
-0.25661722 -0.5604634 -0.68191564 -0.56318605 -0.7913471 -0.48237294 -0.6369235 -0.29545274

model1.2.batch_norm.running_mean f4 [16]
00000000: 4bd2 42bf a691 73bf 1722 66bf aa25 4ebf
00000010: fea1 1ebf 6406 48bf c151 32bf c64f 75bf
00000020: 8bb6 52bf d13d 97bf fe41 7ebf 6f5b 7ebf
00000030: 49a1 81bf 6bbc 55bf 362e 7fbf 43c5 0fbf
-0.7610213 -0.95144117 -0.89895767 -0.8052622 -0.6196593 -0.7813475 -0.69655997 -0.9582485
-0.8230979 -1.181574 -0.99319446 -0.99358267 -1.0127345 -0.8349063 -0.9967989 -0.5616037

model1.2.batch_norm.running_var f4 [16]
00000000: 52b4 ab3f 23d6 b63f 658e a53f d34b 893f
00000010: a9e3 8a3f 4576 d03f ec25 8c3f 4802 9f3f
00000020: edaf f03f 3509 af3f c244 8e3f 6fb4 923f
00000030: 243f b03f 39b3 a23f 1d7a df3f 0e15 613f
1.3414404 1.4284099 1.293408 1.0726265 1.0850726 1.6286093 1.0949073 1.2422571
1.8803688 1.3674685 1.1114733 1.1461314 1.3769269 1.2710944 1.7459141 0.8792275

model1.4.conv.weight f4 [16, 16, 3, 3, 3]
00000000: 5327 d73b 9510 013d 9a5a 0dbd 5b3c 093d
00000010: bd11 323e d52e 0e3d 178a 2dbc 2c25 4d3d
00000020: 3954 46bd 2973 fbbc 81a0 11bc 7a97 69bc
00000030: 44d6 f23c b368 d7bf f926 c53c 85be 01bc
00000040: c1d7 433c 8b7d c8bc 0248 d9bc 32ad 863c
00000050: 2750 fd3c 3ed9 143c d20c 823e 6877 013c
00000060: b589 433b 5fd8 863b 9121 36bd f000 21bc
00000070: a0c7 903d a097 60bd cb54 85bd a891 813c
00000080: b964 6fbc 3982 b83c ceb0 f63c 9486 99bd
00000090: 94e7 fe3c b607 dcbc 4345 55bc 3e3d 96bd
000000a0: 2e44 00bc 96ea 69bd af73 8b3c 938f 113c
000000b0: 7416 66bd f9a8 953d ae48 eebb d6e5 5e3d
000000c0: f21f a5bd 4df0 2fbd 6984 afbd 57c3 683c
000000d0: 25a5 083d 8ecb f6bd 8fb3 63bd fca0 793c
000000e0: f1d5 0ebe cdda 8fbd 555e 1abe 1920 1bbc
000000f0: 3bf3 953c 8750 07bd 28cb fd3c 37b0 10bd
00000100: e699 ff3a 2ba3 ebbd 88fb 66bd 88fb 21be
00000110: 5918 08bb e5d5 b73c 7222 94bc 4fc5 0f3d
00000120: 6c58 9ebc 5950 523d 2f4d fcbd 4547 85bd
00000130: e947 43be 57f9 89bd bd29 b53b 869d 93bd
00000140: 9d84 9dbb bfa5 2e3a ce43 4dbb 8250 5abc
00000150: 5219 83bd a8a1 653a ef29 d3bc 6ea1 963c
00000160: af69 b83d 4c57 a43c 9b74 bc3c 7b48 0bbc
00000170: 45b9 8abc 3942 81bd 6762 a4bc 5abb d8ba
00000180: c011 25bc f9c1 423d 4ecd 563c d99a 603d
00000190: e2c0 893c 889e 3a3b 1308 05bd f320 60bc
000001a0: 1e89 833c 7667 273c 21a8 423d 42e1 b33d
000001b0: c59f 49bc 19e8 07bc 5990 31be e225 b23c
000001c0: 8691 063d af6c ddbc 1099 2a3d 04be 15bd
000001d0: 38e0 84bd 832a cdba 6619 4fbb 39ed e7bd
000001e0: 1074 a83d 35cc 803d 654b 0c3d 1d40 a93d
000001f0: 8ebd 3fbc a553 5bbd e4c0 c43c 0f25 4e3d
00000200: 6c92 79bd 9f1d a73d 848d 513c 6028 3a3c
00000210: 2791 813d a75c 1abc d79e 77bd d5ec 0abe
00000220: 127a e73c e54f 323c bb28 37be 8034 bfbd
00000230: ee70 573c a9b7 6bbe 340b a7bd 8342 65be
00000240: 9b06 cbbd 7a20 263d 6302 1d3d 32e1 3fbe
00000250: afb1 a3bd a514 043c fb3d 41be 3211 4ebd
00000260: 2db9 7ebe 17f0 d8bd 2982 703d 6383 833c
00000270: 814b 89be e788 17be 6b05 363b 5af4 75be
00000280: 5d23 2fbd 9bde 86be 5222 90bd 373a d5bc
00000290: bdf5 06bc eb09 47bd cba2 bd3c ca96 863c
000002a0: 0269 e23c dd30 0c3d b452 05bd 41ab 7dbd
000002b0: acf1 f2bb 44bc 73bb 7406 53bd 228b fd3c
000002c0: d33b e83b 379a 05bd 58e5 b33c 57b8 aabb
000002d0: 3640 80bd 1d46 fdb9 fc96 f63b 9145 80bd
000002e0: f995 c93c 0d82 273d 77da 63bd f0c3 b03c
000002f0: 9158 853c 6f03 9bbd 4789 88bc 5c7d 503a
00000300: 17eb 8c3d fdf6 be3b 8228 963d 3039 fbbd
00000310: d4e9 47ba faee bdbc 4dca f0bc c5f7 36bc
00000320: c329 61bb 05f9 1e3d 81c4 55b9 3d44 2d3d
00000330: 82b2 f8bd 3aed f43b f392 14bc 8896 eabc
00000340: 245a 92bd 122a a5bc 0165 8c3c d083 aebb
00000350: 85fe c03d 6eaa 35be 1dd6 193d c2f4 623d
00000360: d833 bbbc 4e69 0739 6a41 243c 6a4e f5bc
00000370: fa59 bb3c 2748 b7bc d556 0dbd 996c a33c
00000380: 2161 1dbd da93 9dbc f3d7 513c 3502 8dbb
00000390: ba85 0ebd b282 743c 48b3 9bbc 0bd1 35bd
000003a0: ceda ae3c 29d9 ecbc baea abbc 9717 763c
000003b0: 8d35 2f3c 25a2 35bd cfc1 313b a9d6 b0bc
000003c0: 8327 0dbd 4622 333d 3eff 6abc cf02 3e3d
000003d0: 35f7 17be 18e3 21be 9e19 92bd 8008 a8bd
000003e0: 2167 c13c f314 b53d cfe5 403b 850e 41bb
000003f0: 8a02 c63d 4b3f 81bd 8518 02be 2f01 c6bd
0.006565967 0.031509954 -0.034510233 0.033504825 0.17389579 0.03471263 -0.010592005 0.050084278
-0.048420165 -0.030694561 -0.008888365 -0.014257306 0.029643185 -1.6828827 0.024066435 -0.007918959
0.011953295 -0.024473926 -0.026523594 0.016440008 0.030922009 0.009084998 0.25400406 0.007902004
0.0029836718 0.004115149 -0.044465605 -0.009826884 0.070693254 -0.0548321 -0.065103136 0.015816525
-0.0146114165 0.022523033 0.030113604 -0.07496372 0.031116284 -0.026859146 -0.013017002 -0.073359
-0.007828755 -0.057108484 0.017022936 0.008884328 -0.056173757 0.073076196 -0.0072718477 0.054418407
-0.08062734 -0.042953778 -0.08570177 0.014206729 0.03336062 -0.12050544 -0.055591162 0.015236136
-0.139488 -0.07024155 -0.15075047 -0.009468102 0.018304458 -0.03303578 0.030980662 -0.0353243
0.0019500821 -0.11505731 -0.056392223 -0.15818608 -0.0020766465 0.02244086 -0.018082831 0.035100278
-0.019329272 0.051346157 -0.12319409 -0.06507734 -0.190704 -0.06737011 0.005528657 -0.072077796
-0.0048070685 0.00066622713 -0.0031320932 -0.013324859 -0.06401314 0.00087597454 -0.025776831 0.018387523
0.090045325 0.020061158 0.02300482 -0.008501167 -0.016934047 -0.06311459 -0.020066453 -0.0016535327
-0.010075033 0.047548268 0.013110472 0.054835174 0.016815607 0.002847584 -0.032478403 -0.013679731
0.016056594 0.010217538 0.04752362 0.08783199 -0.012306158 -0.0082950825 -0.1734022 0.02174658
0.032853626 -0.027029363 0.041649878 -0.036558166 -0.06488079 -0.0015652928 -0.0031600832 -0.113245435
0.08225262 0.062889494 0.03425159 0.08264182 -0.011702908 -0.053546567 0.024017759 0.05032831
-0.060930654 0.08159947 0.012790088 0.011362165 0.06326514 -0.009421504 -0.060454216 -0.13566907
0.02825645 0.010883306 -0.17886631 -0.093361855 0.013149483 -0.2301928 -0.08156434 -0.22388653
-0.09913369 0.040558316 0.038332354 -0.18738249 -0.07992875 0.008061563 -0.188713 -0.050309367
-0.24875326 -0.105926685 0.05871788 0.016053861 -0.26815417 -0.14798318 0.0027774225 -0.24018994
-0.042758334 -0.2634171 -0.07037796 -0.026028736 -0.0082372995 -0.048593443 0.023148915 0.016429324
0.027637962 0.034226287 -0.032549575 -0.0619309 -0.0074140634 -0.0037191072 -0.051519826 0.030950133
0.0070872097 -0.032617774 0.021959946 -0.0052099633 -0.06262247 -0.0004830816 0.007525323 -0.06263269
0.024607645 0.04089551 -0.055628266 0.021577805 0.016277583 -0.07569014 -0.016667021 0.00079532503
0.06880777 0.005827783 0.07331945 -0.12266767 -0.00076260907 -0.023185242 -0.02939334 -0.011167471
-0.0034357167 0.038811702 -0.00020386466 0.042301405 -0.12143423 0.0074745687 -0.009068239 -0.028636232
-0.07146099 -0.020161662 0.017138006 -0.005325772 0.09423546 -0.17740795 0.03755771 0.0554092
-0.02285187 0.00012913832 0.010025362 -0.029944617 0.022870053 -0.022373272 -0.034506638 0.019949244
-0.038422707 -0.01923554 0.012807834 -0.0043032416 -0.0347955 0.014923738 -0.019006386 -0.044388812
0.021344569 -0.028912144 -0.02098595 0.015020273 0.01069392 -0.044344086 0.0027123576 -0.021586733
-0.03446151 0.043733858 -0.014343081 0.046389397 -0.14840396 -0.15809286 -0.07133792 -0.08204746
0.023608746 0.08841886 0.0029433852 -0.0029458117 0.09668453 -0.063109 -0.12704666 -0.096681945

model1.4.conv.bias f4 [16]
00000000: cf51 223d e77e 183d 9db3 4b3c d648 e43c
00000010: 4e75 383d b6ca 173d 9570 1dbc 03a4 573d
00000020: 29aa 9fbc 9788 c1bc 7e38 e3bc 1695 473d
00000030: a795 533d 71a0 2d3d 9ba9 563d e385 fcbc
0.0396288 0.0372304 0.01243296 0.027866762 0.045033745 0.037058555 -0.009609361 0.05264665
-0.019490318 -0.023624701 -0.027736899 0.048726164 0.05165639 0.042389337 0.052407842 -0.03082556

model1.4.batch_norm.weight f4 [16]
00000000: 2da5 133f d89a 473f 7d42 463f 8017 143f
00000010: 8783 2f3f 9552 393f ac43 433f e236 443f
00000020: 3bd3 333f 6941 223f fe78 4d3f 60c6 2c3f
00000030: 4c43 5a3f 373b 533f 1dc4 5d3f 3067 143f
0.57673913 0.7797065 0.77445203 0.5784836 0.6856007 0.72391635 0.76275134 0.76646245
0.7024419 0.6338106 0.80262744 0.67490196 0.85258937 0.8251223 0.8662737 0.5796995

model1.4.batch_norm.bias f4 [16]
00000000: 96c9 67be e298 07bf 6913 17bf 43e9 9fbe
00000010: 048f 9cbe aa36 a9be 9a75 0fbf cb96 20bf
00000020: 5563 83be 887a 0fbf 0692 2ebf f62c 10bf
00000030: b995 4abf 96f9 f6be 6b0d 23bf 9545 97be
-0.22635493 -0.52967656 -0.5901399 -0.31232652 -0.30577862 -0.33049518 -0.5603882 -0.6273009
-0.25661722 -0.5604634 -0.68191564 -0.56318605 -0.7913471 -0.48237294 -0.6369235 -0.29545274

model1.4.batch_norm.running_mean f4 [16]
00000000: 4bd2 42bf a691 73bf 1722 66bf aa25 4ebf
00000010: fea1 1ebf 6406 48bf c151 32bf c64f 75bf
00000020: 8bb6 52bf d13d 97bf fe41 7ebf 6f5b 7ebf
00000030: 49a1 81bf 6bbc 55bf 362e 7fbf 43c5 0fbf
-0.7610213 -0.95144117 -0.89895767 -0.8052622 -0.6196593 -0.7813475 -0.69655997 -0.9582485
-0.8230979 -1.181574 -0.99319446 -0.99358267 -1.0127345 -0.8349063 -0.9967989 -0.5616037

model1.4.batch_norm.running_var f4 [16]
00000000: 52b4 ab3f 23d6 b63f 658e a53f d34b 893f
00000010: a9e3 8a3f 4576 d03f ec25 8c3f 4802 9f3f
00000020: edaf f03f 3509 af3f c244 8e3f 6fb4 923f
00000030: 243f b03f 39b3 a23f 1d7a df3f 0e15 613f
1.3414404 1.4284099 1.293408 1.0726265 1.0850726 1.6286093 1.0949073 1.2422571
1.8803688 1.3674685 1.1114733 1.1461314 1.3769269 1.2710944 1.7459141 0.8792275

model1.6.conv.weight f4 [16, 16, 3, 3, 3]
00000000: 5327 d73b 9510 013d 9a5a 0dbd 5b3c 093d
00000010: bd11 323e d52e 0e3d 178a 2dbc 2c25 4d3d
00000020: 3954 46bd 2973 fbbc 81a0 11bc 7a97 69bc
00000030: 44d6 f23c b368 d7bf f926 c53c 85be 01bc
00000040: c1d7 433c 8b7d c8bc 0248 d9bc 32ad 863c
00000050: 2750 fd3c 3ed9 143c d20c 823e 6877 013c
00000060: b589 433b 5fd8 863b 9121 36bd f000 21bc
00000070: a0c7 903d a097 60bd cb54 85bd a891 813c
00000080: b964 6fbc 3982 b83c ceb0 f63c 9486 99bd
00000090: 94e7 fe3c b607 dcbc 4345 55bc 3e3d 96bd
000000a0: 2e44 00bc 96ea 69bd af73 8b3c 938f 113c
000000b0: 7416 66bd f9a8 953d ae48 eebb d6e5 5e3d
000000c0: f21f a5bd 4df0 2fbd 6984 afbd 57c3 683c
000000d0: 25a5 083d 8ecb f6bd 8fb3 63bd fca0 793c
000000e0: f1d5 0ebe cdda 8fbd 555e 1abe 1920 1bbc
000000f0: 3bf3 953c 8750 07bd 28cb fd3c 37b0 10bd
00000100: e699 ff3a 2ba3 ebbd 88fb 66bd 88fb 21be
00000110: 5918 08bb e5d5 b73c 7222 94bc 4fc5 0f3d
00000120: 6c58 9ebc 5950 523d 2f4d fcbd 4547 85bd
00000130: e947 43be 57f9 89bd bd29 b53b 869d 93bd
00000140: 9d84 9dbb bfa5 2e3a ce43 4dbb 8250 5abc
00000150: 5219 83bd a8a1 653a ef29 d3bc 6ea1 963c
00000160: af69 b83d 4c57 a43c 9b74 bc3c 7b48 0bbc
00000170: 45b9 8abc 3942 81bd 6762 a4bc 5abb d8ba
00000180: c011 25bc f9c1 423d 4ecd 563c d99a 603d
00000190: e2c0 893c 889e 3a3b 1308 05bd f320 60bc
000001a0: 1e89 833c 7667 273c 21a8 423d 42e1 b33d
000001b0: c59f 49bc 19e8 07bc 5990 31be e225 b23c
000001c0: 8691 063d af6c ddbc 1099 2a3d 04be 15bd
000001d0: 38e0 84bd 832a cdba 6619 4fbb 39ed e7bd
000001e0: 1074 a83d 35cc 803d 654b 0c3d 1d40 a93d
000001f0: 8ebd 3fbc a553 5bbd e4c0 c43c 0f25 4e3d
00000200: 6c92 79bd 9f1d a73d 848d 513c 6028 3a3c
00000210: 2791 813d a75c 1abc d79e 77bd d5ec 0abe
00000220: 127a e73c e54f 323c bb28 37be 8034 bfbd
00000230: ee70 573c a9b7 6bbe 340b a7bd 8342 65be
00000240: 9b06 cbbd 7a20 263d 6302 1d3d 32e1 3fbe
00000250: afb1 a3bd a514 043c fb3d 41be 3211 4ebd
00000260: 2db9 7ebe 17f0 d8bd 2982 703d 6383 833c
00000270: 814b 89be e788 17be 6b05 363b 5af4 75be
00000280: 5d23 2fbd 9bde 86be 5222 90bd 373a d5bc
00000290: bdf5 06bc eb09 47bd cba2 bd3c ca96 863c
000002a0: 0269 e23c dd30 0c3d b452 05bd 41ab 7dbd
000002b0: acf1 f2bb 44bc 73bb 7406 53bd 228b fd3c
000002c0: d33b e83b 379a 05bd 58e5 b33c 57b8 aabb
000002d0: 3640 80bd 1d46 fdb9 fc96 f63b 9145 80bd
000002e0: f995 c93c 0d82 273d 77da 63bd f0c3 b03c
000002f0: 9158 853c 6f03 9bbd 4789 88bc 5c7d 503a
00000300: 17eb 8c3d fdf6 be3b 8228 963d 3039 fbbd
00000310: d4e9 47ba faee bdbc 4dca f0bc c5f7 36bc
00000320: c329 61bb 05f9 1e3d 81c4 55b9 3d44 2d3d
00000330: 82b2 f8bd 3aed f43b f392 14bc 8896 eabc
00000340: 245a 92bd 122a a5bc 0165 8c3c d083 aebb
00000350: 85fe c03d 6eaa 35be 1dd6 193d c2f4 623d
00000360: d833 bbbc 4e69 0739 6a41 243c 6a4e f5bc
00000370: fa59 bb3c 2748 b7bc d556 0dbd 996c a33c
00000380: 2161 1dbd da93 9dbc f3d7 513c 3502 8dbb
00000390: ba85 0ebd b282 743c 48b3 9bbc 0bd1 35bd
000003a0: ceda ae3c 29d9 ecbc baea abbc 9717 763c
000003b0: 8d35 2f3c 25a2 35bd cfc1 313b a9d6 b0bc
000003c0: 8327 0dbd 4622 333d 3eff 6abc cf02 3e3d
000003d0: 35f7 17be 18e3 21be 9e19 92bd 8008 a8bd
000003e0: 2167 c13c f314 b53d cfe5 403b 850e 41bb
000003f0: 8a02 c63d 4b3f 81bd 8518 02be 2f01 c6bd
0.006565967 0.031509954 -0.034510233 0.033504825 0.17389579 0.03471263 -0.010592005 0.050084278
-0.048420165 -0.030694561 -0.008888365 -0.014257306 0.029643185 -1.6828827 0.024066435 -0.007918959
0.011953295 -0.024473926 -0.026523594 0.016440008 0.030922009 0.009084998 0.25400406 0.007902004
0.0029836718 0.004115149 -0.044465605 -0.009826884 0.070693254 -0.0548321 -0.065103136 0.015816525
-0.0146114165 0.022523033 0.030113604 -0.07496372 0.031116284 -0.026859146 -0.013017002 -0.073359
-0.007828755 -0.057108484 0.017022936 0.008884328 -0.056173757 0.073076196 -0.0072718477 0.054418407
-0.08062734 -0.042953778 -0.08570177 0.014206729 0.03336062 -0.12050544 -0.055591162 0.015236136
-0.139488 -0.07024155 -0.15075047 -0.009468102 0.018304458 -0.03303578 0.030980662 -0.0353243
0.0019500821 -0.11505731 -0.056392223 -0.15818608 -0.0020766465 0.02244086 -0.018082831 0.035100278
-0.019329272 0.051346157 -0.12319409 -0.06507734 -0.190704 -0.06737011 0.005528657 -0.072077796
-0.0048070685 0.00066622713 -0.0031320932 -0.013324859 -0.06401314 0.00087597454 -0.025776831 0.018387523
0.090045325 0.020061158 0.02300482 -0.008501167 -0.016934047 -0.06311459 -0.020066453 -0.0016535327
-0.010075033 0.047548268 0.013110472 0.054835174 0.016815607 0.002847584 -0.032478403 -0.013679731
0.016056594 0.010217538 0.04752362 0.08783199 -0.012306158 -0.0082950825 -0.1734022 0.02174658
0.032853626 -0.027029363 0.041649878 -0.036558166 -0.06488079 -0.0015652928 -0.0031600832 -0.113245435
0.08225262 0.062889494 0.03425159 0.08264182 -0.011702908 -0.053546567 0.024017759 0.05032831
-0.060930654 0.08159947 0.012790088 0.011362165 0.06326514 -0.009421504 -0.060454216 -0.13566907
0.02825645 0.010883306 -0.17886631 -0.093361855 0.013149483 -0.2301928 -0.08156434 -0.22388653
-0.09913369 0.040558316 0.038332354 -0.18738249 -0.07992875 0.008061563 -0.188713 -0.050309367
-0.24875326 -0.105926685 0.05871788 0.016053861 -0.26815417 -0.14798318 0.0027774225 -0.24018994
-0.042758334 -0.2634171 -0.07037796 -0.026028736 -0.0082372995 -0.048593443 0.023148915 0.016429324
0.027637962 0.034226287 -0.032549575 -0.0619309 -0.0074140634 -0.0037191072 -0.051519826 0.030950133
0.0070872097 -0.032617774 0.021959946 -0.0052099633 -0.06262247 -0.0004830816 0.007525323 -0.06263269
0.024607645 0.04089551 -0.055628266 0.021577805 0.016277583 -0.07569014 -0.016667021 0.00079532503
0.06880777 0.005827783 0.07331945 -0.12266767 -0.00076260907 -0.023185242 -0.02939334 -0.011167471
-0.0034357167 0.038811702 -0.00020386466 0.042301405 -0.12143423 0.0074745687 -0.009068239 -0.028636232
-0.07146099 -0.020161662 0.017138006 -0.005325772 0.09423546 -0.17740795 0.03755771 0.0554092
-0.02285187 0.00012913832 0.010025362 -0.029944617 0.022870053 -0.022373272 -0.034506638 0.019949244
-0.038422707 -0.01923554 0.012807834 -0.0043032416 -0.0347955 0.014923738 -0.019006386 -0.044388812
0.021344569 -0.028912144 -0.02098595 0.015020273 0.01069392 -0.044344086 0.0027123576 -0.021586733
-0.03446151 0.043733858 -0.014343081 0.046389397 -0.14840396 -0.15809286 -0.07133792 -0.08204746
0.023608746 0.08841886 0.0029433852 -0.0029458117 0.09668453 -0.063109 -0.12704666 -0.096681945

model1.6.conv.bias f4 [16]
00000000: cf51 223d e77e 183d 9db3 4b3c d648 e43c
00000010: 4e75 383d b6ca 173d 9570 1dbc 03a4 573d
00000020: 29aa 9fbc 9788 c1bc 7e38 e3bc 1695 473d
00000030: a795 533d 71a0 2d3d 9ba9 563d e385 fcbc
0.0396288 0.0372304 0.01243296 0.027866762 0.045033745 0.037058555 -0.009609361 0.05264665
-0.019490318 -0.023624701 -0.027736899 0.048726164 0.05165639 0.042389337 0.052407842 -0.03082556

model1.6.batch_norm.weight f4 [16]
00000000: 2da5 133f d89a 473f 7d42 463f 8017 143f
00000010: 8783 2f3f 9552 393f ac43 433f e236 443f
00000020: 3bd3 333f 6941 223f fe78 4d3f 60c6 2c3f
00000030: 4c43 5a3f 373b 533f 1dc4 5d3f 3067 143f
0.57673913 0.7797065 0.77445203 0.5784836 0.6856007 0.72391635 0.76275134 0.76646245
0.7024419 0.6338106 0.80262744 0.67490196 0.85258937 0.8251223 0.8662737 0.5796995

model1.6.batch_norm.bias f4 [16]
00000000: 96c9 67be e298 07bf 6913 17bf 43e9 9fbe
00000010: 048f 9cbe aa36 a9be 9a75 0fbf cb96 20bf
00000020: 5563 83be 887a 0fbf 0692 2ebf f62c 10bf
00000030: b995 4abf 96f9 f6be 6b0d 23bf 9545 97be
-0.22635493 -0.52967656 -0.5901399 -0.31232652 -0.30577862 -0.33049518 -0.5603882 -0.6273009
-0.25661722 -0.5604634 -0.68191564 -0.56318605 -0.7913471 -0.48237294 -0.6369235 -0.29545274

model1.6.batch_norm.running_mean f4 [16]
00000000: 4bd2 42bf a691 73bf 1722 66bf aa25 4ebf
00000010: fea1 1ebf 6406 48bf c151 32bf c64f 75bf
00000020: 8bb6 52bf d13d 97bf fe41 7ebf 6f5b 7ebf
00000030: 49a1 81bf 6bbc 55bf 362e 7fbf 43c5 0fbf
-0.7610213 -0.95144117 -0.89895767 -0.8052622 -0.6196593 -0.7813475 -0.69655997 -0.9582485
-0.8230979 -1.181574 -0.99319446 -0.99358267 -1.0127345 -0.8349063 -0.9967989 -0.5616037

model1.6.batch_norm.running_var f4 [16]
00000000: 52b4 ab3f 23d6 b63f 658e a53f d34b 893f
00000010: a9e3 8a3f 4576 d03f ec25 8c3f 4802 9f3f
00000020: edaf f03f 3509 af3f c244 8e3f 6fb4 923f
00000030: 243f b03f 39b3 a23f 1d7a df3f 0e15 613f
1.3414404 1.4284099 1.293408 1.0726265 1.0850726 1.6286093 1.0949073 1.2422571
1.8803688 1.3674685 1.1114733 1.1461314 1.3769269 1.2710944 1.7459141 0.8792275

model1.8.conv.weight f4 [16, 16, 3, 3, 3]
00000000: 5327 d73b 9510 013d 9a5a 0dbd 5b3c 093d
00000010: bd11 323e d52e 0e3d 178a 2dbc 2c25 4d3d
00000020: 3954 46bd 2973 fbbc 81a0 11bc 7a97 69bc
00000030: 44d6 f23c b368 d7bf f926 c53c 85be 01bc
00000040: c1d7 433c 8b7d c8bc 0248 d9bc 32ad 863c
00000050: 2750 fd3c 3ed9 143c d20c 823e 6877 013c
00000060: b589 433b 5fd8 863b 9121 36bd f000 21bc
00000070: a0c7 903d a097 60bd cb54 85bd a891 813c
00000080: b964 6fbc 3982 b83c ceb0 f63c 9486 99bd
00000090: 94e7 fe3c b607 dcbc 4345 55bc 3e3d 96bd
000000a0: 2e44 00bc 96ea 69bd af73 8b3c 938f 113c
000000b0: 7416 66bd f9a8 953d ae48 eebb d6e5 5e3d
000000c0: f21f a5bd 4df0 2fbd 6984 afbd 57c3 683c
000000d0: 25a5 083d 8ecb f6bd 8fb3 63bd fca0 793c
000000e0: f1d5 0ebe cdda 8fbd 555e 1abe 1920 1bbc
000000f0: 3bf3 953c 8750 07bd 28cb fd3c 37b0 10bd
00000100: e699 ff3a 2ba3 ebbd 88fb 66bd 88fb 21be
00000110: 5918 08bb e5d5 b73c 7222 94bc 4fc5 0f3d
00000120: 6c58 9ebc 5950 523d 2f4d fcbd 4547 85bd
00000130: e947 43be 57f9 89bd bd29 b53b 869d 93bd
00000140: 9d84 9dbb bfa5 2e3a ce43 4dbb 8250 5abc
00000150: 5219 83bd a8a1 653a ef29 d3bc 6ea1 963c
00000160: af69 b83d 4c57 a43c 9b74 bc3c 7b48 0bbc
00000170: 45b9 8abc 3942 81bd 6762 a4bc 5abb d8ba
00000180: c011 25bc f9c1 423d 4ecd 563c d99a 603d
00000190: e2c0 893c 889e 3a3b 1308 05bd f320 60bc
000001a0: 1e89 833c 7667 273c 21a8 423d 42e1 b33d
000001b0: c59f 49bc 19e8 07bc 5990 31be e225 b23c
000001c0: 8691 063d af6c ddbc 1099 2a3d 04be 15bd
000001d0: 38e0 84bd 832a cdba 6619 4fbb 39ed e7bd
000001e0: 1074 a83d 35cc 803d 654b 0c3d 1d40 a93d
000001f0: 8ebd 3fbc a553 5bbd e4c0 c43c 0f25 4e3d
00000200: 6c92 79bd 9f1d a73d 848d 513c 6028 3a3c
00000210: 2791 813d a75c 1abc d79e 77bd d5ec 0abe
00000220: 127a e73c e54f 323c bb28 37be 8034 bfbd
00000230: ee70 573c a9b7 6bbe 340b a7bd 8342 65be
00000240: 9b06 cbbd 7a20 263d 6302 1d3d 32e1 3fbe
00000250: afb1 a3bd a514 043c fb3d 41be 3211 4ebd
00000260: 2db9 7ebe 17f0 d8bd 2982 703d 6383 833c
00000270: 814b 89be e788 17be 6b05 363b 5af4 75be
00000280: 5d23 2fbd 9bde 86be 5222 90bd 373a d5bc
00000290: bdf5 06bc eb09 47bd cba2 bd3c ca96 863c
000002a0: 0269 e23c dd30 0c3d b452 05bd 41ab 7dbd
000002b0: acf1 f2bb 44bc 73bb 7406 53bd 228b fd3c
000002c0: d33b e83b 379a 05bd 58e5 b33c 57b8 aabb
000002d0: 3640 80bd 1d46 fdb9 fc96 f63b 9145 80bd
000002e0: f995 c93c 0d82 273d 77da 63bd f0c3 b03c
000002f0: 9158 853c 6f03 9bbd 4789 88bc 5c7d 503a
00000300: 17eb 8c3d fdf6 be3b 8228 963d 3039 fbbd
00000310: d4e9 47ba faee bdbc 4dca f0bc c5f7 36bc
00000320: c329 61bb 05f9 1e3d 81c4 55b9 3d44 2d3d
00000330: 82b2 f8bd 3aed f43b f392 14bc 8896 eabc
00000340: 245a 92bd 122a a5bc 0165 8c3c d083 aebb
00000350: 85fe c03d 6eaa 35be 1dd6 193d c2f4 623d
00000360: d833 bbbc 4e69 0739 6a41 243c 6a4e f5bc
00000370: fa59 bb3c 2748 b7bc d556 0dbd 996c a33c
00000380: 2161 1dbd da93 9dbc f3d7 513c 3502 8dbb
00000390: ba85 0ebd b282 743c 48b3 9bbc 0bd1 35bd
000003a0: ceda ae3c 29d9 ecbc baea abbc 9717 763c
000003b0: 8d35 2f3c 25a2 35bd cfc1 313b a9d6 b0bc
000003c0: 8327 0dbd 4622 333d 3eff 6abc cf02 3e3d
000003d0: 35f7 17be 18e3 21be 9e19 92bd 8008 a8bd
000003e0: 2167 c13c f314 b53d cfe5 403b 850e 41bb
000003f0: 8a02 c63d 4b3f 81bd 8518 02be 2f01 c6bd
0.006565967 0.031509954 -0.034510233 0.033504825 0.17389579 0.03471263 -0.010592005 0.050084278
-0.048420165 -0.030694561 -0.008888365 -0.014257306 0.029643185 -1.6828827 0.024066435 -0.007918959
0.011953295 -0.024473926 -0.026523594 0.016440008 0.030922009 0.009084998 0.25400406 0.007902004
0.0029836718 0.004115149 -0.044465605 -0.009826884 0.070693254 -0.0548321 -0.065103136 0.015816525
-0.0146114165 0.022523033 0.030113604 -0.07496372 0.031116284 -0.026859146 -0.013017002 -0.073359
-0.007828755 -0.057108484 0.017022936 0.008884328 -0.056173757 0.073076196 -0.0072718477 0.054418407
-0.08062734 -0.042953778 -0.08570177 0.014206729 0.03336062 -0.12050544 -0.055591162 0.015236136
-0.139488 -0.07024155 -0.15075047 -0.009468102 0.018304458 -0.03303578 0.030980662 -0.0353243
0.0019500821 -0.11505731 -0.056392223 -0.15818608 -0.0020766465 0.02244086 -0.018082831 0.035100278
-0.019329272 0.051346157 -0.12319409 -0.06507734 -0.190704 -0.06737011 0.005528657 -0.072077796
-0.0048070685 0.00066622713 -0.0031320932 -0.013324859 -0.06401314 0.00087597454 -0.025776831 0.018387523
0.090045325 0.020061158 0.02300482 -0.008501167 -0.016934047 -0.06311459 -0.020066453 -0.0016535327
-0.010075033 0.047548268 0.013110472 0.054835174 0.016815607 0.002847584 -0.032478403 -0.013679731
0.016056594 0.010217538 0.04752362 0.08783199 -0.012306158 -0.0082950825 -0.1734022 0.02174658
0.032853626 -0.027029363 0.041649878 -0.036558166 -0.06488079 -0.0015652928 -0.0031600832 -0.113245435
0.08225262 0.062889494 0.03425159 0.08264182 -0.011702908 -0.053546567 0.024017759 0.05032831
-0.060930654 0.08159947 0.012790088 0.011362165 0.06326514 -0.009421504 -0.060454216 -0.13566907
0.02825645 0.010883306 -0.17886631 -0.093361855 0.013149483 -0.2301928 -0.08156434 -0.22388653
-0.09913369 0.040558316 0.038332354 -0.18738249 -0.07992875 0.008061563 -0.188713 -0.050309367
-0.24875326 -0.105926685 0.05871788 0.016053861 -0.26815417 -0.14798318 0.0027774225 -0.24018994
-0.042758334 -0.2634171 -0.07037796 -0.026028736 -0.0082372995 -0.048593443 0.023148915 0.016429324
0.027637962 0.034226287 -0.032549575 -0.0619309 -0.0074140634 -0.0037191072 -0.051519826 0.030950133
0.0070872097 -0.032617774 0.021959946 -0.0052099633 -0.06262247 -0.0004830816 0.007525323 -0.06263269
0.024607645 0.04089551 -0.055628266 0.021577805 0.016277583 -0.07569014 -0.016667021 0.00079532503
0.06880777 0.005827783 0.07331945 -0.12266767 -0.00076260907 -0.023185242 -0.02939334 -0.011167471
-0.0034357167 0.038811702 -0.00020386466 0.042301405 -0.12143423 0.0074745687 -0.009068239 -0.028636232
-0.07146099 -0.020161662 0.017138006 -0.005325772 0.09423546 -0.17740795 0.03755771 0.0554092
-0.02285187 0.00012913832 0.010025362 -0.029944617 0.022870053 -0.022373272 -0.034506638 0.019949244
-0.038422707 -0.01923554 0.012807834 -0.0043032416 -0.0347955 0.014923738 -0.019006386 -0.044388812
0.021344569 -0.028912144 -0.02098595 0.015020273 0.01069392 -0.044344086 0.0027123576 -0.021586733
-0.03446151 0.043733858 -0.014343081 0.046389397 -0.14840396 -0.15809286 -0.07133792 -0.08204746
0.023608746 0.08841886 0.0029433852 -0.0029458117 0.09668453 -0.063109 -0.12704666 -0.096681945

model1.8.conv.bias f4 [16]
00000000: cf51 223d e77e 183d 9db3 4b3c d648 e43c
00000010: 4e75 383d b6ca 173d 9570 1dbc 03a4 573d
00000020: 29aa 9fbc 9788 c1bc 7e38 e3bc 1695 473d
00000030: a795 533d 71a0 2d3d 9ba9 563d e385 fcbc
0.0396288 0.0372304 0.01243296 0.027866762 0.045033745 0.037058555 -0.009609361 0.05264665
-0.019490318 -0.023624701 -0.027736899 0.048726164 0.05165639 0.042389337 0.052407842 -0.03082556

model1.8.batch_norm.weight f4 [16]
00000000: 2da5 133f d89a 473f 7d42 463f 8017 143f
00000010: 8783 2f3f 9552 393f ac43 433f e236 443f
00000020: 3bd3 333f 6941 223f fe78 4d3f 60c6 2c3f
00000030: 4c43 5a3f 373b 533f 1dc4 5d3f 3067 143f
0.57673913 0.7797065 0.77445203 0.5784836 0.6856007 0.72391635 0.76275134 0.76646245
0.7024419 0.6338106 0.80262744 0.67490196 0.85258937 0.8251223 0.8662737 0.5796995

model1.8.batch_norm.bias f4 [16]
00000000: 96c9 67be e298 07bf 6913 17bf 43e9 9fbe
00000010: 048f 9cbe aa36 a9be 9a75 0fbf cb96 20bf
00000020: 5563 83be 887a 0fbf 0692 2ebf f62c 10bf
00000030: b995 4abf 96f9 f6be 6b0d 23bf 9545 97be
-0.22635493 -0.52967656 -0.5901399 -0.31232652 -0.30577862 -0.33049518 -0.5603882 -0.6273009
-0.25661722 -0.5604634 -0.68191564 -0.56318605 -0.7913471 -0.48237294 -0.6369235 -0.29545274

model1.8.batch_norm.running_mean f4 [16]
00000000: 4bd2 42bf a691 73bf 1722 66bf aa25 4ebf
00000010: fea1 1ebf 6406 48bf c151 32bf c64f 75bf
00000020: 8bb6 52bf d13d 97bf fe41 7ebf 6f5b 7ebf
00000030: 49a1 81bf 6bbc 55bf 362e 7fbf 43c5 0fbf
-0.7610213 -0.95144117 -0.89895767 -0.8052622 -0.6196593 -0.7813475 -0.69655997 -0.9582485
-0.8230979 -1.181574 -0.99319446 -0.99358267 -1.0127345 -0.8349063 -0.9967989 -0.5616037

model1.8.batch_norm.running_var f4 [16]
00000000: 52b4 ab3f 23d6 b63f 658e a53f d34b 893f
00000010: a9e3 8a3f 4576 d03f ec25 8c3f 4802 9f3f
00000020: edaf f03f 3509 af3f c244 8e3f 6fb4 923f
00000030: 243f b03f 39b3 a23f 1d7a df3f 0e15 613f
1.3414404 1.4284099 1.293408 1.0726265 1.0850726 1.6286093 1.0949073 1.2422571
1.8803688 1.3674685 1.1114733 1.1461314 1.3769269 1.2710944 1.7459141 0.8792275

model1.10.conv.weight f4 [16, 16, 3, 3, 3]
00000000: 5327 d73b 9510 013d 9a5a 0dbd 5b3c 093d
00000010: bd11 323e d52e 0e3d 178a 2dbc 2c25 4d3d
00000020: 3954 46bd 2973 fbbc 81a0 11bc 7a97 69bc
00000030: 44d6 f23c b368 d7bf f926 c53c 85be 01bc
00000040: c1d7 433c 8b7d c8bc 0248 d9bc 32ad 863c
00000050: 2750 fd3c 3ed9 143c d20c 823e 6877 013c
00000060: b589 433b 5fd8 863b 9121 36bd f000 21bc
00000070: a0c7 903d a097 60bd cb54 85bd a891 813c
00000080: b964 6fbc 3982 b83c ceb0 f63c 9486 99bd
00000090: 94e7 fe3c b607 dcbc 4345 55bc 3e3d 96bd
000000a0: 2e44 00bc 96ea 69bd af73 8b3c 938f 113c
000000b0: 7416 66bd f9a8 953d ae48 eebb d6e5 5e3d
000000c0: f21f a5bd 4df0 2fbd 6984 afbd 57c3 683c
000000d0: 25a5 083d 8ecb f6bd 8fb3 63bd fca0 793c
000000e0: f1d5 0ebe cdda 8fbd 555e 1abe 1920 1bbc
000000f0: 3bf3 953c 8750 07bd 28cb fd3c 37b0 10bd
00000100: e699 ff3a 2ba3 ebbd 88fb 66bd 88fb 21be
00000110: 5918 08bb e5d5 b73c 7222 94bc 4fc5 0f3d
00000120: 6c58 9ebc 5950 523d 2f4d fcbd 4547 85bd
00000130: e947 43be 57f9 89bd bd29 b53b 869d 93bd
00000140: 9d84 9dbb bfa5 2e3a ce43 4dbb 8250 5abc
00000150: 5219 83bd a8a1 653a ef29 d3bc 6ea1 963c
00000160: af69 b83d 4c57 a43c 9b74 bc3c 7b48 0bbc
00000170: 45b9 8abc 3942 81bd 6762 a4bc 5abb d8ba
00000180: c011 25bc f9c1 423d 4ecd 563c d99a 603d
00000190: e2c0 893c 889e 3a3b 1308 05bd f320 60bc
000001a0: 1e89 833c 7667 273c 21a8 423d 42e1 b33d
000001b0: c59f 49bc 19e8 07bc 5990 31be e225 b23c
000001c0: 8691 063d af6c ddbc 1099 2a3d 04be 15bd
000001d0: 38e0 84bd 832a cdba 6619 4fbb 39ed e7bd
000001e0: 1074 a83d 35cc 803d 654b 0c3d 1d40 a93d
000001f0: 8ebd 3fbc a553 5bbd e4c0 c43c 0f25 4e3d
00000200: 6c92 79bd 9f1d a73d 848d 513c 6028 3a3c
00000210: 2791 813d a75c 1abc d79e 77bd d5ec 0abe
00000220: 127a e73c e54f 323c bb28 37be 8034 bfbd
00000230: ee70 573c a9b7 6bbe 340b a7bd 8342 65be
00000240: 9b06 cbbd 7a20 263d 6302 1d3d 32e1 3fbe
00000250: afb1 a3bd a514 043c fb3d 41be 3211 4ebd
00000260: 2db9 7ebe 17f0 d8bd 2982 703d 6383 833c
00000270: 814b 89be e788 17be 6b05 363b 5af4 75be
00000280: 5d23 2fbd 9bde 86be 5222 90bd 373a d5bc
00000290: bdf5 06bc eb09 47bd cba2 bd3c ca96 863c
000002a0: 0269 e23c dd30 0c3d b452 05bd 41ab 7dbd
000002b0: acf1 f2bb 44bc 73bb 7406 53bd 228b fd3c
000002c0: d33b e83b 379a 05bd 58e5 b33c 57b8 aabb
000002d0: 3640 80bd 1d46 fdb9 fc96 f63b 9145 80bd
000002e0: f995 c93c 0d82 273d 77da 63bd f0c3 b03c
000002f0: 9158 853c 6f03 9bbd 4789 88bc 5c7d 503a
00000300: 17eb 8c3d fdf6 be3b 8228 963d 3039 fbbd
00000310: d4e9 47ba faee bdbc 4dca f0bc c5f7 36bc
00000320: c329 61bb 05f9 1e3d 81c4 55b9 3d44 2d3d
00000330: 82b2 f8bd 3aed f43b f392 14bc 8896 eabc
00000340: 245a 92bd 122a a5bc 0165 8c3c d083 aebb
00000350: 85fe c03d 6eaa 35be 1dd6 193d c2f4 623d
00000360: d833 bbbc 4e69 0739 6a41 243c 6a4e f5bc
00000370: fa59 bb3c 2748 b7bc d556 0dbd 996c a33c
00000380: 2161 1dbd da93 9dbc f3d7 513c 3502 8dbb
00000390: ba85 0ebd b282 743c 48b3 9bbc 0bd1 35bd
000003a0: ceda ae3c 29d9 ecbc baea abbc 9717 763c
000003b0: 8d35 2f3c 25a2 35bd cfc1 313b a9d6 b0bc
000003c0: 8327 0dbd 4622 333d 3eff 6abc cf02 3e3d
000003d0: 35f7 17be 18e3 21be 9e19 92bd 8008 a8bd
000003e0: 2167 c13c f314 b53d cfe5 403b 850e 41bb
000003f0: 8a02 c63d 4b3f 81bd 8518 02be 2f01 c6bd
0.006565967 0.031509954 -0.034510233 0.033504825 0.17389579 0.03471263 -0.010592005 0.050084278
-0.048420165 -0.030694561 -0.008888365 -0.014257306 0.029643185 -1.6828827 0.024066435 -0.007918959
0.011953295 -0.024473926 -0.026523594 0.016440008 0.030922009 0.009084998 0.25400406 0.007902004
0.0029836718 0.004115149 -0.044465605 -0.009826884 0.070693254 -0.0548321 -0.065103136 0.015816525
-0.0146114165 0.022523033 0.030113604 -0.07496372 0.031116284 -0.026859146 -0.013017002 -0.073359
-0.007828755 -0.057108484 0.017022936 0.008884328 -0.056173757 0.073076196 -0.0072718477 0.054418407
-0.08062734 -0.042953778 -0.08570177 0.014206729 0.03336062 -0.12050544 -0.055591162 0.015236136
-0.139488 -0.07024155 -0.15075047 -0.009468102 0.018304458 -0.03303578 0.030980662 -0.0353243
0.0019500821 -0.11505731 -0.056392223 -0.15818608 -0.0020766465 0.02244086 -0.018082831 0.035100278
-0.019329272 0.051346157 -0.12319409 -0.06507734 -0.190704 -0.06737011 0.005528657 -0.072077796
-0.0048070685 0.00066622713 -0.0031320932 -0.013324859 -0.06401314 0.00087597454 -0.025776831 0.018387523
0.090045325 0.020061158 0.02300482 -0.008501167 -0.016934047 -0.06311459 -0.020066453 -0.0016535327
-0.010075033 0.047548268 0.013110472 0.054835174 0.016815607 0.002847584 -0.032478403 -0.013679731
0.016056594 0.010217538 0.04752362 0.08783199 -0.012306158 -0.0082950825 -0.1734022 0.02174658
0.032853626 -0.027029363 0.041649878 -0.036558166 -0.06488079 -0.0015652928 -0.0031600832 -0.113245435
0.08225262 0.062889494 0.03425159 0.08264182 -0.011702908 -0.053546567 0.024017759 0.05032831
-0.060930654 0.08159947 0.012790088 0.011362165 0.06326514 -0.009421504 -0.060454216 -0.13566907
0.02825645 0.010883306 -0.17886631 -0.093361855 0.013149483 -0.2301928 -0.08156434 -0.22388653
-0.09913369 0.040558316 0.038332354 -0.18738249 -0.07992875 0.008061563 -0.188713 -0.050309367
-0.24875326 -0.105926685 0.05871788 0.016053861 -0.26815417 -0.14798318 0.0027774225 -0.24018994
-0.042758334 -0.2634171 -0.07037796 -0.026028736 -0.0082372995 -0.048593443 0.023148915 0.016429324
0.027637962 0.034226287 -0.032549575 -0.0619309 -0.0074140634 -0.0037191072 -0.051519826 0.030950133
0.0070872097 -0.032617774 0.021959946 -0.0052099633 -0.06262247 -0.0004830816 0.007525323 -0.06263269
0.024607645 0.04089551 -0.055628266 0.021577805 0.016277583 -0.07569014 -0.016667021 0.00079532503
0.06880777 0.005827783 0.07331945 -0.12266767 -0.00076260907 -0.023185242 -0.02939334 -0.011167471
-0.0034357167 0.038811702 -0.00020386466 0.042301405 -0.12143423 0.0074745687 -0.009068239 -0.028636232
-0.07146099 -0.020161662 0.017138006 -0.005325772 0.09423546 -0.17740795 0.03755771 0.0554092
-0.02285187 0.00012913832 0.010025362 -0.029944617 0.022870053 -0.022373272 -0.034506638 0.019949244
-0.038422707 -0.01923554 0.012807834 -0.0043032416 -0.0347955 0.014923738 -0.019006386 -0.044388812
0.021344569 -0.028912144 -0.02098595 0.015020273 0.01069392 -0.044344086 0.0027123576 -0.021586733
-0.03446151 0.043733858 -0.014343081 0.046389397 -0.14840396 -0.15809286 -0.07133792 -0.08204746
0.023608746 0.08841886 0.0029433852 -0.0029458117 0.09668453 -0.063109 -0.12704666 -0.096681945

model1.10.conv.bias f4 [16]
00000000: cf51 223d e77e 183d 9db3 4b3c d648 e43c
00000010: 4e75 383d b6ca 173d 9570 1dbc 03a4 573d
00000020: 29aa 9fbc 9788 c1bc 7e38 e3bc 1695 473d
00000030: a795 533d 71a0 2d3d 9ba9 563d e385 fcbc
0.0396288 0.0372304 0.01243296 0.027866762 0.045033745 0.037058555 -0.009609361 0.05264665
-0.019490318 -0.023624701 -0.027736899 0.048726164 0.05165639 0.042389337 0.052407842 -0.03082556

model1.10.batch_norm.weight f4 [16]
00000000: 2da5 133f d89a 473f 7d42 463f 8017 143f
00000010: 8783 2f3f 9552 393f ac43 433f e236 443f
00000020: 3bd3 333f 6941 223f fe78 4d3f 60c6 2c3f
00000030: 4c43 5a3f 373b 533f 1dc4 5d3f 3067 143f
0.57673913 0.7797065 0.77445203 0.5784836 0.6856007 0.72391635 0.76275134 0.76646245
0.7024419 0.6338106 0.80262744 0.67490196 0.85258937 0.8251223 0.8662737 0.5796995

model1.10.batch_norm.bias f4 [16]
00000000: 96c9 67be e298 07bf 6913 17bf 43e9 9fbe
00000010: 048f 9cbe aa36 a9be 9a75 0fbf cb96 20bf
00000020: 5563 83be 887a 0fbf 0692 2ebf f62c 10bf
00000030: b995 4abf 96f9 f6be 6b0d 23bf 9545 97be
-0.22635493 -0.52967656 -0.5901399 -0.31232652 -0.30577862 -0.33049518 -0.5603882 -0.6273009
-0.25661722 -0.5604634 -0.68191564 -0.56318605 -0.7913471 -0.48237294 -0.6369235 -0.29545274

model1.10.batch_norm.running_mean f4 [16]
00000000: 4bd2 42bf a691 73bf 1722 66bf aa25 4ebf
00000010: fea1 1ebf 6406 48bf c151 32bf c64f 75bf
00000020: 8bb6 52bf d13d 97bf fe41 7ebf 6f5b 7ebf
00000030: 49a1 81bf 6bbc 55bf 362e 7fbf 43c5 0fbf
-0.7610213 -0.95144117 -0.89895767 -0.8052622 -0.6196593 -0.7813475 -0.69655997 -0.9582485
-0.8230979 -1.181574 -0.99319446 -0.99358267 -1.0127345 -0.8349063 -0.9967989 -0.5616037

model1.10.batch_norm.running_var f4 [16]
00000000: 52b4 ab3f 23d6 b63f 658e a53f d34b 893f
00000010: a9e3 8a3f 4576 d03f ec25 8c3f 4802 9f3f
00000020: edaf f03f 3509 af3f c244 8e3f 6fb4 923f
00000030: 243f b03f 39b3 a23f 1d7a df3f 0e15 613f
1.3414404 1.4284099 1.293408 1.0726265 1.0850726 1.6286093 1.0949073 1.2422571
1.8803688 1.3674685 1.1114733 1.1461314 1.3769269 1.2710944 1.7459141 0.8792275
