models/conv3d/lr_0.0005/lr_0.0005/epoch_1300.pt (torch, 189922 bytes, 102 tensors)

model1.0.weight f4 [16, 8, 3, 3, 3]
-0.03522256 0.030362854 -0.04842673 0.04545363 0.016068246 0.030538782 0.035568018 -0.018663518
-0.062120974 -0.046489973 -0.015613068 -0.05490243 -0.010595523 0.027143875 0.041187186 -0.038185365
0.017251905 0.020659775 -0.03469883 -0.03491826 0.029671542 0.03395059 0.034560636 0.056927733
-0.043363575 -0.013609239 -0.01499313 0.051217135 0.06111099 0.042926807 -0.037754565 -0.075492665
0.025315536 0.09922545 -0.02523209 -0.0018354619 0.017546624 -0.06248461 0.008976846 0.027453031
0.04485154 -0.008108617 0.0060787075 -0.0021171707 -0.047683276 0.012712056 -0.00051065447 0.019727685
-0.0006929559 0.07284951 -0.05177426 0.06116446 -0.0138658695 -0.114362955 -0.0031997578 0.034907173
0.019548947 -0.002025372 -0.016728256 0.012036861 -0.025355285 0.017003763 0.020211637 0.073306516
-0.040500797 0.03983333 -0.0002663957 -0.025619324 -0.032549653 -0.017808532 -0.04485124 -0.03332505
0.008892137 0.0063881977 0.03206602 -0.029718608 -0.055104934 -0.0034080849 0.0050777597 -0.032908577
-0.03319345 -0.024340736 0.0006378089 -0.024252921 0.09014823 0.02580696 0.006454083 -0.021054694
0.07438594 -0.008199474 -0.041890725 -0.020998634 -0.08363848 0.03932806 -0.052383825 0.031344924
0.05755761 0.022985045 -0.02983283 0.041300617 -0.05618562 -0.036356285 0.01881395 0.011725495
0.039078932 -0.013396627 0.007805032 0.066248775 0.01590177 0.027404621 0.027582908 -0.02291634
-0.044968694 0.03830123 -0.005101988 -0.046396032 -0.057076782 0.079146594 0.0059150206 0.050873864
-0.02555758 -0.049363483 -0.028443558 0.08279824 -0.02855581 0.04284297 -0.012080875 -0.02789592
-0.01974721 0.014161847 -0.01066171 0.051616244 -0.057946175 -0.07093269 -0.005912815 0.06237918
0.021593308 0.02852827 -0.060169782 0.029164495 -0.020938076 -0.07594631 -0.018344494 0.030662347
0.019159494 -0.030530524 -0.04911789 -0.050802745 -0.012947672 0.00578552 0.009398179 0.028615555
0.046444654 -0.03159468 -0.04503815 0.00051916926 0.012753215 -0.00978173 -0.024952596 0.016276626
0.050451335 0.02948169 0.04361233 0.0031252643 0.04177932 0.017865423 -0.019366179 0.00083137525
0.006050973 0.017830871 0.030134875 0.02671967 0.028973877 -0.022407224 0.03357365 -0.006789381
0.02773276 0.050228804 -0.039566007 0.07514009 -0.01362346 0.04408648 0.031205665 -0.07728153
0.017069453 -0.007943902 -0.055595092 0.012002285 -0.016850723 0.021602178 0.025876947 -0.023502365
0.055300288 -0.038000017 -0.01846982 0.033173367 -0.012500751 0.10550992 0.058491774 0.008612009
0.062968716 -0.024531707 -0.003069688 -0.06745339 0.05866436 -0.009409807 0.038483165 0.050286043
-0.017750643 0.064107366 0.012016823 -0.06736432 0.025423529 -0.024689067 -0.016337916 0.014239642
-0.07408148 0.02724707 0.021156441 0.03462118 0.08116755 -0.066866696 -0.04529918 -0.013787242
0.04379825 0.04212399 -0.039977767 0.006918902 -0.026188845 0.0040658684 -0.0040565045 0.05458028
0.017292047 -0.038914986 -0.006007051 -0.07548222 -0.07151384 -0.044355717 0.027292162 0.057443675
0.050404254 0.005918603 -0.004605557 0.09610048 0.051609546 0.0075406735 -0.055397674 -0.072487436
-0.027335241 -0.03175481 -0.038457826 -0.036792412 0.026816921 -0.012766585 -0.03753692 -0.027629709
00000000: 8845 10bd 85bb f83c 1b5b 46bd 962d 3a3d
00000010: 8ea1 833c 782c fa3c c5af 113d 3ce4 98bc
00000020: 9072 7ebd 456c 3ebd f4cd 7fbc 5fe1 60bd
00000030: d898 2dbc d55c de3c e5b3 283d 4268 1cbd
00000040: de53 8d3c b03e a93c 5c20 0ebd 7306 0fbd
00000050: bc11 f33c c60f 0b3d 748f 0d3d 0e2d 693d
00000060: 019e 31bd 49f9 5ebc bfa5 75bc 0fc9 513d
00000070: 844f 7a3d 05d4 2f3d 88a4 1abd e69b 9abd
00000080: 8762 cf3c b636 cb3d 87b3 cebc e293 f0ba
00000090: f0bd 8f3c ddef 7fbd 9f13 133c 2ee5 e03c
000000a0: 40b6 373d 01da 04bc e52f c73b 3bc0 0abb
000000b0: 8a4f 43bd 3a46 503c 71dd 05ba f49b a13c
000000c0: 7ca7 35ba 2032 953d 3f11 54bd 9687 7a3d
000000d0: ac2d 63bc 2037 eabd 07b3 51bb d3fa 0e3d
000000e0: 1d25 a03c 1bbc 04bb b209 89bc 4136 453c
000000f0: e3b5 cfbc 7a4b 8b3c e092 a53c ba21 963d
00000100: 2ae4 25bd 4628 233d 07ab 8bb9 9edf d1bc
00000110: c952 05bd 33e3 91bc efb5 37bd d97f 08bd
00000120: 53b0 113c 1654 d13b a957 033d 7074 f3bc
00000130: b6b5 61bd 2d5a 5fbb 5663 a63b 25cb 06bd
00000140: dbf5 07bd 3966 c7bc a132 273a 10ae c6bc
00000150: a39f b83d 1e69 d33c c67c d33b e57a acbc
00000160: a857 983d 1657 06bc 9c95 2bbd 5405 acbc
00000170: a74a abbd 7616 213d 6c90 56bd 8963 003d
00000180: 87c1 6b3d 224b bc3c fb63 f4bc d62a 293d
00000190: e522 66bd 54ea 14bd b61f 9a3c 4a1c 403c
000001a0: 3b11 203d 877d 5bbc 5bc1 ff3b 70ad 873d
000001b0: 6e44 823c a87f e03c 8df5 e13c 0cbb bbbc
000001c0: 1831 38bd c0e1 1c3d 942e a7bb c409 3ebd
000001d0: 58c9 69bd 9c17 a23d cad2 c13b 1d61 503d
000001e0: 215e d1bc 5d31 4abd 7702 e9bc 2092 a93d
000001f0: e0ed e9bc 1c7c 2f3d ddee 45bc fc85 e4bc
00000200: e7c4 a1bc 1707 683c 74ae 2ebc 8e6b 533d
00000210: f858 6dbd 2845 91bd 4ac0 c1bb 5081 7f3d
00000220: 73e4 b03c 1eb4 e93c 9774 76bd 61ea ee3c
00000230: 5486 abbc bd89 9bbd 3147 96bc 9a2f fb3c
00000240: 5ff4 9c3c 261b fabc d72f 49bd 8a16 50bd
00000250: 7922 54bc 7694 bd3b d2fa 193c 2b6b ea3c
00000260: c03c 3e3d 6c69 01bd ec79 38bd dc18 083a
00000270: dcf2 503c 8d43 20bc 6369 ccbc 8f56 853c
00000280: 0fa6 4e3d 9683 f13c d8a2 323d 3cd1 4c3b
00000290: cb20 2b3d 825a 923c d2a5 9ebc a6f0 593a
000002a0: 3e47 c63b 0c12 923c 6add f63c 36e3 da3c
000002b0: a05a ed3c 5b8f b7bc 8684 093d 7579 debb
000002c0: d02f e33c b8bc 4d3d f70f 22bd 0ce3 993d
000002d0: ef34 5fbc 0694 343d 06a3 ff3c c745 9ebd
000002e0: 3dd5 8b3c 2427 02bc aeb7 63bd 3ba5 443c
000002f0: 870a 8abc 0df7 b03c e4fb d33c 0888 c0bc
00000300: 8e82 623d e8a5 1bbd 054e 97bc cce0 073d
00000310: f3cf 4cbc 9615 d83d 1295 6f3d 6219 0d3c
00000320: bef5 803d b8f6 c8bc d22c 49bb 0125 8abd
00000330: 0a4a 703d 972b 1abc 86a0 1d3d bdf8 4d3d
00000340: cc69 91bc b94a 833d 35e2 443c 4ef6 89bd
00000350: 0145 d03c ba40 cabc 18d7 85bc 634d 693c
00000360: 08b8 97bd 3f35 df3c 4650 ad3c f0ce 0d3d
00000370: 2c3b a63d 68f1 88bd a28b 39bd e2e3 61bc
00000380: cb65 333d 348a 2c3d babf 23bd f5b7 e23b
00000390: fd89 d6bc fa3a 853b 6dec 84bb 928f 5f3d
000003a0: 0da8 8d3c 5265 1fbd ccd6 c4bb 6c96 9abd
000003b0: d975 92bd 57ae 35bd d093 df3c 0f4a 6b3d
000003c0: b174 4e3d d7f0 c13b 36ea 96bb 54d0 c43d
000003d0: 8864 533d c117 f73b ace8 62bd 4b74 94bd
000003e0: 28ee dfbc 5511 02bd f485 1dbd a4b3 16bd
000003f0: 29af db3c f02a 51bc 50c0 19bd b357 e2bc

model1.0.bias f4 [16]
-0.22032079 -0.25368783 -0.24836761 -0.20981985 -0.14128816 -0.24101347 -0.08836941 -0.17797811
-0.18760471 -0.2626257 -0.13928063 -0.26832592 -0.15731081 -0.18712561 -0.17051221 -0.22447108
00000000: c69b 61be 5fe3 81be 1454 7ebe 04db 56be
00000010: d8ad 10be 3ccc 76be 05fb b4bd e53f 36be
00000020: 731b 40be e076 86be 959f 0ebe 0462 89be
00000030: 1616 21be db9d 3fbe c19a 2ebe bfdb 65be

model1.2.conv.weight f4 [16, 16, 3, 3, 3]
0.014994869 0.069608316 0.020088729 0.04569208 0.20457196 0.016427677 0.019939994 -0.007615646
0.016958032 0.0021684112 -0.010318394 0.015114702 0.010005595 -0.8211814 0.020419959 0.003494007
-0.0077845496 0.004535513 -0.0032701336 0.017016228 0.013820708 -0.0053559616 0.15933876 0.02238589
0.0075567616 -0.0045853136 0.012438635 0.045657955 0.05082294 -0.026671827 -0.104924254 -0.0034174705
-0.14696503 -0.015847793 0.09609654 -0.067382686 -0.0018144344 0.030176347 -0.030966176 -0.09041485
0.026781004 -0.19050297 -0.0071742386 0.0765905 -0.09235465 0.0050862525 0.042444423 -0.08332036
-0.12480188 0.014658091 -0.23397832 0.003835941 0.030049797 -0.030071078 -0.0008159346 -0.0068382416
-0.27101317 0.03588317 -0.11329906 -0.07084502 -0.012151058 -0.04222732 -0.077557616 -0.00010584381
0.046073906 -0.13281678 0.03890431 -0.12362559 -0.03507379 0.015066769 -0.007213195 -0.0027648055
0.031042956 0.045400236 -0.05757262 0.040480856 -0.13161887 -0.057632197 0.033343427 -0.013249939
-0.024714468 0.031278826 0.026791098 0.020687765 0.03877349 0.08708344 0.11265639 0.0037479869
0.11063774 0.17085421 -0.0021237377 0.012215699 0.005758812 0.0015796958 0.02665775 -0.025140645
0.004712693 0.024233947 0.06899315 0.0047402713 -0.00019316089 0.026083948 -0.02190736 0.021925505
0.0051059164 -0.017929418 0.021942014 0.0632506 0.04004586 -0.024550349 -0.055530325 0.074533254
-0.012364949 -0.059836682 0.068374045 -0.03273724 -0.006986783 0.037655935 -0.029150082 -0.00960962
0.07324677 -0.003606892 -0.0149440635 0.0684733 -0.019322092 0.012104064 0.058551066 -0.009576605
0.0045191464 0.06433529 0.0017655224 -0.020294335 0.05087025 -0.018517233 -0.007776608 -0.061585754
-0.02310133 -0.07511215 -0.060221698 -0.18895854 -0.021533178 -0.20817448 -0.19071466 -0.11034805
-0.012579612 -0.008255526 -0.045886435 -0.019362804 -0.19389027 0.052490067 -0.30264446 -0.12380666
-0.09904595 0.021167507 0.00090671174 -0.042001132 -0.048479147 -0.20705172 0.0577442 -0.2660325
-0.1150606 -0.11617368 -0.11237742 -0.047206152 -0.017191913 -0.010351072 0.0641493 0.07668836
-0.003569993 0.025354661 0.061784416 -0.11043038 -0.043314382 -0.010149483 -0.03831237 0.03169655
-0.008986734 -0.029844528 -0.053623497 0.0025123174 -0.106942214 -0.055246238 -0.008382338 -0.030836528
0.050188158 0.016929854 -0.045647517 0.011107475 0.05398573 -0.010892285 0.02378604 0.08703358
0.024945129 0.026224636 0.13435432 -0.04351203 0.11752964 0.07869085 -0.0049684355 -0.045327984
0.084538355 -0.0081312135 -0.08308078 0.003696744 -0.09061438 0.029664923 -0.018556539 -0.015163363
-0.013789806 0.057964634 0.00025266307 -0.042667147 0.052637815 -0.11174035 0.019764576 0.034881096
-0.004429673 0.03277398 -0.016341174 -0.0404524 0.01874094 -0.06695652 -0.093919806 0.029340306
-0.069976054 -0.009777854 0.03217075 -0.019010497 -0.046305176 0.0057366183 -0.084197454 -0.046422094
0.018394662 -0.07309523 -0.03250506 0.015990397 -0.034783527 -0.0795452 0.0105236145 -0.046676986
-0.057796024 0.050525717 -0.058343224 0.018122414 -0.053912897 -0.13401976 -0.070985064 -0.025186384
0.03900778 -0.0062166513 0.13173562 0.019543754 0.042155012 -0.014965536 -0.096203394 -0.058910556
00000000: 0aad 753c ce8e 8e3d 1e91 a43c 9e27 3b3d
00000010: 507b 513e 5693 863c 3359 a33c ab8c f9bb
00000020: 92eb 8a3c e71b 0e3b 7b0e 29bc a8a3 773c
00000030: 82ee 233c f238 52bf c247 a73c b6fb 643b
00000040: 8915 ffbb a49e 943b bd4f 56bb 9e65 8b3c
00000050: 4070 623c 1081 afbb b329 233e 9d62 b73c
00000060: b69e f73b 6640 96bb 6bcb 4b3c d603 3b3d
00000070: b72b 503d e07e dabc 87e2 d6bd a4f7 5fbb
00000080: 007e 16be 3bd3 81bc 43ce c43d efff 89bd
00000090: 51d2 edba 6334 f73c c7ac fdbc 6c2b b9bd
000000a0: d663 db3c 3613 43be e015 ebbb 7bdb 9c3d
000000b0: 6f24 bdbd 94aa a63b 34da 2d3d dda3 aabd
000000c0: 2198 ffbd 7d28 703c 0398 6fbe 6964 7b3b
000000d0: fe2a f63c 9f57 f6bc 72e4 55ba 5413 e0bb
000000e0: 3dc2 8abe 3bfa 123d 5609 e8bd 3217 91bd
000000f0: 3b15 47bc 8ef6 2cbd 87d6 9ebd 76f8 ddb8
00000100: feb7 3c3d 1f01 08be 205a 1f3d 6a2f fdbd
00000110: 89a9 0fbd 9cda 763c aa5c ecbb bd31 35bb
00000120: cc4d fe3c 99f5 393d 45d1 6bbd 41cf 253d
00000130: 19c7 06be bd0f 6cbd 1e93 083d 4616 59bc
00000140: ff75 cabc 3a1e 003d 0179 db3c 6379 a93c
00000150: f3d0 1e3d cd58 b23d 65b8 e63d c9a0 753b
00000160: 0a96 e23d 68f4 2e3e 682e 0bbb 5b24 483c
00000170: 6bb4 bc3b cc0d cf3a 5b61 da3c c1f3 cdbc
00000180: ef6c 9a3b 4586 c63c 484c 8d3d 4754 9b3b
00000190: 3b8b 4ab9 01ae d53c 1077 b3bc 1e9d b33c
000001a0: 884f a73b b7e0 92bc bdbf b33c 8889 813d
000001b0: 2107 243d d01d c9bc c473 63bd e4a4 983d
000001c0: 5b96 4abc 4f17 75bd b107 8c3d 7c17 06bd
000001d0: 62f1 e4bb 1c3d 1a3d 27cc eebc ab71 1dbc
000001e0: 6702 963d 9b61 6cbb f2d7 74bc bb3b 8c3d
000001f0: 5d49 9ebc 2050 463c 3ed3 6f3d 31e7 1cbc
00000200: 5915 943b 38c2 833d 1a69 e73a 4e40 a6bc
00000210: 535d 503d 74b1 97bc ebd2 febb 5841 7cbd
00000220: 003f bdbc 66d4 99bd 07ab 76bd 597e 41be
00000230: 5966 b0bc b12b 55be b44a 43be 29fe e1bd
00000240: b81a 4ebc 3042 07bc 6af3 3bbd be9e 9ebc
00000250: 2c8b 46be d3ff 563d 37f4 9abe 598e fdbd
00000260: 9ad8 cabd 7b67 ad3c 65b0 6d3a 6109 2cbd
00000270: 1292 46bd 5e05 54be 2f85 6c3d 6935 88be
00000280: e4a4 ebbd 77ec edbd 2226 e6bd 3d5b 41bd
00000290: 0ed6 8cbc 8b97 29bc b560 833d c90e 9d3d
000002a0: 8bf6 69bb 94b4 cf3c a811 7d3d 5329 e2bd
000002b0: 6c6a 31bd 044a 26bc 6fed 1cbd 3ed4 013d
000002c0: 183d 13bc 837c f4bc 50a4 5bbd b1a5 243b
000002d0: 8504 dbbd e149 62bd 1356 09bc e39c fcbc
000002e0: 1992 4d3d 7ab0 8a3c e4f8 3abd 20fc 353c
000002f0: 2420 5d3d 8e75 32bc f1da c23c a93e b23d
00000300: ba59 cc3c 0cd5 d63c 2e94 093e ac39 32bd
00000310: 61b3 f03d ab28 a13d 42ce a2bb d6a9 39bd
00000320: 7222 ad3d c838 05bc 4226 aabd 1345 723b
00000330: 0894 b9bd da03 f33c e203 98bc c16f 78bc
00000340: a3ee 61bc 536c 6d3d dd77 8439 bfc3 2ebd
00000350: c09a 573d 20d8 e4bd 52e9 a13c 7bdf 0e3d
00000360: ca26 91bb 023e 063d eddd 85bc 6ab1 25bd
00000370: 9a86 993c 8020 89bd 0759 c0bd 155b f03c
00000380: 9b4f 8fbd 4b33 20bc 7ac5 033d e7bb 9bbc
00000390: 7faa 3dbd 3efa bb3b b76f acbd 1825 3ebd
000003a0: 67b0 963c f4b2 95bd 0724 05bd 4bfe 823c
000003b0: 2c79 0ebd 98e8 a2bd 3d6b 2c3c 5e30 3fbd
000003c0: 86bb 6cbd 0ef4 4e3d 4ef9 6ebd 7575 943c
000003d0: c5d3 5cbd 7a3c 09be 9e60 91bd ad53 cebc
000003e0: 9fc6 1f3d 0db5 cbbb b4e5 063e 391a a03c
000003f0: bcaa 2c3d 0232 75bc 4906 c5bd 324c 71bd

model1.2.conv.bias f4 [16]
0.048249267 0.03439892 0.008497781 0.028233163 0.04386888 0.03211473 -0.007925269 0.04943351
-0.026012033 -0.031571344 -0.03611456 0.043061428 0.050865695 0.038024344 0.044926148 -0.036230072
00000000: 06a1 453d e2e5 0c3d 473a 0b3c 3c49 e73c
00000010: dbaf 333d bc8a 033d fdd8 01bc cb7a 4a3d
00000020: 3017 d5bc f450 01bd dcec 13bd 2e61 303d
00000030: 8c58 503d 6abf 1b3d 7b04 383d fc65 14bd

model1.2.batch_norm.weight f4 [16]
0.5364059 0.43573365 0.45530412 0.5121118 0.55035424 0.48073968 0.45635727 0.4470438
0.5368157 0.4412982 0.49392006 0.42960522 0.5044731 0.5277845 0.5300243 0.4393596
00000000: e651 093f 7b18 df3e 9f1d e93e c219 033f
00000010: 04e4 0c3f 8323 f63e a9a7 e93e ede2 e43e
00000020: c16c 093f d6f1 e13e 17e3 fc3e 37f5 db3e
00000030: 2625 013f e31c 073f acaf 073f bef3 e03e

model1.2.batch_norm.bias f4 [16]
-0.19173309 -0.27464855 -0.389289 -0.23512737 -0.19113527 -0.22577597 -0.3277326 -0.29033676
-0.1516221 -0.36384213 -0.44500613 -0.357026 -0.4509932 -0.2701336 -0.38950136 -0.20759492
00000000: ae55 44be bc9e 8cbe e350 c7be 3bc5 70be
00000010: f7b8 43be d131 67be 91cc a7be 05a7 94be
00000020: d342 1bbe 8449 babe d8d7 e3be 1dcc b6be
00000030: 95e8 e6be f44e 8abe b96c c7be c393 54be

model1.2.batch_norm.running_mean f4 [16]
-0.5829706 -0.9806736 -1.0003333 -0.71082264 -0.56697255 -0.4605508 -0.5798529 -0.8577146
-0.6474196 -0.9952187 -0.93480986 -1.0000198 -0.75866985 -0.61455196 -0.72727984 -0.61027515
00000000: 903d 15bf 6d0d 7bbf ec0a 80bf 79f8 35bf
00000010: 1d25 11bf 51cd ebbe 3d71 14bf 2f93 5bbf
00000020: 4abd 25bf a7c6 7ebf b34f 6fbf a600 80bf
00000030: 3038 42bf 4753 1dbf 032f 3abf fe3a 1cbf

model1.2.batch_norm.running_var f4 [16]
1.1563212 1.2074096 1.6950076 1.4836092 0.95911247 1.1749741 0.98115814 1.1652975
1.3992063 1.5598193 1.0361098 1.4050094 1.0846207 0.86560607 0.98282087 0.9216943
00000000: 5502 943f 668c 9a3f 02f6 d83f e8e6 bd3f
00000010: 6588 753f 8d65 963f 2e2d 7b3f 7828 953f
00000020: 3119 b33f 29a8 c73f 3f9f 843f 59d7 b33f
00000030: dad4 8a3f 5c98 5d3f 269a 7b3f 28f4 6b3f

model1.4.conv.weight f4 [16, 16, 3, 3, 3]
0.014994869 0.069608316 0.020088729 0.04569208 0.20457196 0.016427677 0.019939994 -0.007615646
0.016958032 0.0021684112 -0.010318394 0.015114702 0.010005595 -0.8211814 0.020419959 0.003494007
-0.0077845496 0.004535513 -0.0032701336 0.017016228 0.013820708 -0.0053559616 0.15933876 0.02238589
0.0075567616 -0.0045853136 0.012438635 0.045657955 0.05082294 -0.026671827 -0.104924254 -0.0034174705
-0.14696503 -0.015847793 0.09609654 -0.067382686 -0.0018144344 0.030176347 -0.030966176 -0.09041485
0.026781004 -0.19050297 -0.0071742386 0.0765905 -0.09235465 0.0050862525 0.042444423 -0.08332036
-0.12480188 0.014658091 -0.23397832 0.003835941 0.030049797 -0.030071078 -0.0008159346 -0.0068382416
-0.27101317 0.03588317 -0.11329906 -0.07084502 -0.012151058 -0.04222732 -0.077557616 -0.00010584381
0.046073906 -0.13281678 0.03890431 -0.12362559 -0.03507379 0.015066769 -0.007213195 -0.0027648055
0.031042956 0.045400236 -0.05757262 0.040480856 -0.13161887 -0.057632197 0.033343427 -0.013249939
-0.024714468 0.031278826 0.026791098 0.020687765 0.03877349 0.08708344 0.11265639 0.0037479869
0.11063774 0.17085421 -0.0021237377 0.012215699 0.005758812 0.0015796958 0.02665775 -0.025140645
0.004712693 0.024233947 0.06899315 0.0047402713 -0.00019316089 0.026083948 -0.02190736 0.021925505
0.0051059164 -0.017929418 0.021942014 0.0632506 0.04004586 -0.024550349 -0.055530325 0.074533254
-0.012364949 -0.059836682 0.068374045 -0.03273724 -0.006986783 0.037655935 -0.029150082 -0.00960962
0.07324677 -0.003606892 -0.0149440635 0.0684733 -0.019322092 0.012104064 0.058551066 -0.009576605
0.0045191464 0.06433529 0.0017655224 -0.020294335 0.05087025 -0.018517233 -0.007776608 -0.061585754
-0.02310133 -0.07511215 -0.060221698 -0.18895854 -0.021533178 -0.20817448 -0.19071466 -0.11034805
-0.012579612 -0.008255526 -0.045886435 -0.019362804 -0.19389027 0.052490067 -0.30264446 -0.12380666
-0.09904595 0.021167507 0.00090671174 -0.042001132 -0.048479147 -0.20705172 0.0577442 -0.2660325
-0.1150606 -0.11617368 -0.11237742 -0.047206152 -0.017191913 -0.010351072 0.0641493 0.07668836
-0.003569993 0.025354661 0.061784416 -0.11043038 -0.043314382 -0.010149483 -0.03831237 0.03169655
-0.008986734 -0.029844528 -0.053623497 0.0025123174 -0.106942214 -0.055246238 -0.008382338 -0.030836528
0.050188158 0.016929854 -0.045647517 0.011107475 0.05398573 -0.010892285 0.02378604 0.08703358
0.024945129 0.026224636 0.13435432 -0.04351203 0.11752964 0.07869085 -0.0049684355 -0.045327984
0.084538355 -0.0081312135 -0.08308078 0.003696744 -0.09061438 0.029664923 -0.018556539 -0.015163363
-0.013789806 0.057964634 0.00025266307 -0.042667147 0.052637815 -0.11174035 0.019764576 0.034881096
-0.004429673 0.03277398 -0.016341174 -0.0404524 0.01874094 -0.06695652 -0.093919806 0.029340306
-0.069976054 -0.009777854 0.03217075 -0.019010497 -0.046305176 0.0057366183 -0.084197454 -0.046422094
0.018394662 -0.07309523 -0.03250506 0.015990397 -0.034783527 -0.0795452 0.0105236145 -0.046676986
-0.057796024 0.050525717 -0.058343224 0.018122414 -0.053912897 -0.13401976 -0.070985064 -0.025186384
0.03900778 -0.0062166513 0.13173562 0.019543754 0.042155012 -0.014965536 -0.096203394 -0.058910556
00000000: 0aad 753c ce8e 8e3d 1e91 a43c 9e27 3b3d
00000010: 507b 513e 5693 863c 3359 a33c ab8c f9bb
00000020: 92eb 8a3c e71b 0e3b 7b0e 29bc a8a3 773c
00000030: 82ee 233c f238 52bf c247 a73c b6fb 643b
00000040: 8915 ffbb a49e 943b bd4f 56bb 9e65 8b3c
00000050: 4070 623c 1081 afbb b329 233e 9d62 b73c
00000060: b69e f73b 6640 96bb 6bcb 4b3c d603 3b3d
00000070: b72b 503d e07e dabc 87e2 d6bd a4f7 5fbb
00000080: 007e 16be 3bd3 81bc 43ce c43d efff 89bd
00000090: 51d2 edba 6334 f73c c7ac fdbc 6c2b b9bd
000000a0: d663 db3c 3613 43be e015 ebbb 7bdb 9c3d
000000b0: 6f24 bdbd 94aa a63b 34da 2d3d dda3 aabd
000000c0: 2198 ffbd 7d28 703c 0398 6fbe 6964 7b3b
000000d0: fe2a f63c 9f57 f6bc 72e4 55ba 5413 e0bb
000000e0: 3dc2 8abe 3bfa 123d 5609 e8bd 3217 91bd
000000f0: 3b15 47bc 8ef6 2cbd 87d6 9ebd 76f8 ddb8
00000100: feb7 3c3d 1f01 08be 205a 1f3d 6a2f fdbd
00000110: 89a9 0fbd 9cda 763c aa5c ecbb bd31 35bb
00000120: cc4d fe3c 99f5 393d 45d1 6bbd 41cf 253d
00000130: 19c7 06be bd0f 6cbd 1e93 083d 4616 59bc
00000140: ff75 cabc 3a1e 003d 0179 db3c 6379 a93c
00000150: f3d0 1e3d cd58 b23d 65b8 e63d c9a0 753b
00000160: 0a96 e23d 68f4 2e3e 682e 0bbb 5b24 483c
00000170: 6bb4 bc3b cc0d cf3a 5b61 da3c c1f3 cdbc
00000180: ef6c 9a3b 4586 c63c 484c 8d3d 4754 9b3b
00000190: 3b8b 4ab9 01ae d53c 1077 b3bc 1e9d b33c
000001a0: 884f a73b b7e0 92bc bdbf b33c 8889 813d
000001b0: 2107 243d d01d c9bc c473 63bd e4a4 983d
000001c0: 5b96 4abc 4f17 75bd b107 8c3d 7c17 06bd
000001d0: 62f1 e4bb 1c3d 1a3d 27cc eebc ab71 1dbc
000001e0: 6702 963d 9b61 6cbb f2d7 74bc bb3b 8c3d
000001f0: 5d49 9ebc 2050 463c 3ed3 6f3d 31e7 1cbc
00000200: 5915 943b 38c2 833d 1a69 e73a 4e40 a6bc
00000210: 535d 503d 74b1 97bc ebd2 febb 5841 7cbd
00000220: 003f bdbc 66d4 99bd 07ab 76bd 597e 41be
00000230: 5966 b0bc b12b 55be b44a 43be 29fe e1bd
00000240: b81a 4ebc 3042 07bc 6af3 3bbd be9e 9ebc
00000250: 2c8b 46be d3ff 563d 37f4 9abe 598e fdbd
00000260: 9ad8 cabd 7b67 ad3c 65b0 6d3a 6109 2cbd
00000270: 1292 46bd 5e05 54be 2f85 6c3d 6935 88be
00000280: e4a4 ebbd 77ec edbd 2226 e6bd 3d5b 41bd
00000290: 0ed6 8cbc 8b97 29bc b560 833d c90e 9d3d
000002a0: 8bf6 69bb 94b4 cf3c a811 7d3d 5329 e2bd
000002b0: 6c6a 31bd 044a 26bc 6fed 1cbd 3ed4 013d
000002c0: 183d 13bc 837c f4bc 50a4 5bbd b1a5 243b
000002d0: 8504 dbbd e149 62bd 1356 09bc e39c fcbc
000002e0: 1992 4d3d 7ab0 8a3c e4f8 3abd 20fc 353c
000002f0: 2420 5d3d 8e75 32bc f1da c23c a93e b23d
00000300: ba59 cc3c 0cd5 d63c 2e94 093e ac39 32bd
00000310: 61b3 f03d ab28 a13d 42ce a2bb d6a9 39bd
00000320: 7222 ad3d c838 05bc 4226 aabd 1345 723b
00000330: 0894 b9bd da03 f33c e203 98bc c16f 78bc
00000340: a3ee 61bc 536c 6d3d dd77 8439 bfc3 2ebd
00000350: c09a 573d 20d8 e4bd 52e9 a13c 7bdf 0e3d
00000360: ca26 91bb 023e 063d eddd 85bc 6ab1 25bd
00000370: 9a86 993c 8020 89bd 0759 c0bd 155b f03c
00000380: 9b4f 8fbd 4b33 20bc 7ac5 033d e7bb 9bbc
00000390: 7faa 3dbd 3efa bb3b b76f acbd 1825 3ebd
000003a0: 67b0 963c f4b2 95bd 0724 05bd 4bfe 823c
000003b0: 2c79 0ebd 98e8 a2bd 3d6b 2c3c 5e30 3fbd
000003c0: 86bb 6cbd 0ef4 4e3d 4ef9 6ebd 7575 943c
000003d0: c5d3 5cbd 7a3c 09be 9e60 91bd ad53 cebc
000003e0: 9fc6 1f3d 0db5 cbbb b4e5 063e 391a a03c
000003f0: bcaa 2c3d 0232 75bc 4906 c5bd 324c 71bd

model1.4.conv.bias f4 [16]
0.048249267 0.03439892 0.008497781 0.028233163 0.04386888 0.03211473 -0.007925269 0.04943351
-0.026012033 -0.031571344 -0.03611456 0.043061428 0.050865695 0.038024344 0.044926148 -0.036230072
00000000: 06a1 453d e2e5 0c3d 473a 0b3c 3c49 e73c
00000010: dbaf 333d bc8a 033d fdd8 01bc cb7a 4a3d
00000020: 3017 d5bc f450 01bd dcec 13bd 2e61 303d
00000030: 8c58 503d 6abf 1b3d 7b04 383d fc65 14bd

model1.4.batch_norm.weight f4 [16]
0.5364059 0.43573365 0.45530412 0.5121118 0.55035424 0.48073968 0.45635727 0.4470438
0.5368157 0.4412982 0.49392006 0.42960522 0.5044731 0.5277845 0.5300243 0.4393596
00000000: e651 093f 7b18 df3e 9f1d e93e c219 033f
00000010: 04e4 0c3f 8323 f63e a9a7 e93e ede2 e43e
00000020: c16c 093f d6f1 e13e 17e3 fc3e 37f5 db3e
00000030: 2625 013f e31c 073f acaf 073f bef3 e03e

model1.4.batch_norm.bias f4 [16]
-0.19173309 -0.27464855 -0.389289 -0.23512737 -0.19113527 -0.22577597 -0.3277326 -0.29033676
-0.1516221 -0.36384213 -0.44500613 -0.357026 -0.4509932 -0.2701336 -0.38950136 -0.20759492
00000000: ae55 44be bc9e 8cbe e350 c7be 3bc5 70be
00000010: f7b8 43be d131 67be 91cc a7be 05a7 94be
00000020: d342 1bbe 8449 babe d8d7 e3be 1dcc b6be
00000030: 95e8 e6be f44e 8abe b96c c7be c393 54be

model1.4.batch_norm.running_mean f4 [16]
-0.5829706 -0.9806736 -1.0003333 -0.71082264 -0.56697255 -0.4605508 -0.5798529 -0.8577146
-0.6474196 -0.9952187 -0.93480986 -1.0000198 -0.75866985 -0.61455196 -0.72727984 -0.61027515
00000000: 903d 15bf 6d0d 7bbf ec0a 80bf 79f8 35bf
00000010: 1d25 11bf 51cd ebbe 3d71 14bf 2f93 5bbf
00000020: 4abd 25bf a7c6 7ebf b34f 6fbf a600 80bf
00000030: 3038 42bf 4753 1dbf 032f 3abf fe3a 1cbf

model1.4.batch_norm.running_var f4 [16]
1.1563212 1.2074096 1.6950076 1.4836092 0.95911247 1.1749741 0.98115814 1.1652975
1.3992063 1.5598193 1.0361098 1.4050094 1.0846207 0.86560607 0.98282087 0.9216943
00000000: 5502 943f 668c 9a3f 02f6 d83f e8e6 bd3f
00000010: 6588 753f 8d65 963f 2e2d 7b3f 7828 953f
00000020: 3119 b33f 29a8 c73f 3f9f 843f 59d7 b33f
00000030: dad4 8a3f 5c98 5d3f 269a 7b3f 28f4 6b3f

model1.6.conv.weight f4 [16, 16, 3, 3, 3]
0.014994869 0.069608316 0.020088729 0.04569208 0.20457196 0.016427677 0.019939994 -0.007615646
0.016958032 0.0021684112 -0.010318394 0.015114702 0.010005595 -0.8211814 0.020419959 0.003494007
-0.0077845496 0.004535513 -0.0032701336 0.017016228 0.013820708 -0.0053559616 0.15933876 0.02238589
0.0075567616 -0.0045853136 0.012438635 0.045657955 0.05082294 -0.026671827 -0.104924254 -0.0034174705
-0.14696503 -0.015847793 0.09609654 -0.067382686 -0.0018144344 0.030176347 -0.030966176 -0.09041485
0.026781004 -0.19050297 -0.0071742386 0.0765905 -0.09235465 0.0050862525 0.042444423 -0.08332036
-0.12480188 0.014658091 -0.23397832 0.003835941 0.030049797 -0.030071078 -0.0008159346 -0.0068382416
-0.27101317 0.03588317 -0.11329906 -0.07084502 -0.012151058 -0.04222732 -0.077557616 -0.00010584381
0.046073906 -0.13281678 0.03890431 -0.12362559 -0.03507379 0.015066769 -0.007213195 -0.0027648055
0.031042956 0.045400236 -0.05757262 0.040480856 -0.13161887 -0.057632197 0.033343427 -0.013249939
-0.024714468 0.031278826 0.026791098 0.020687765 0.03877349 0.08708344 0.11265639 0.0037479869
0.11063774 0.17085421 -0.0021237377 0.012215699 0.005758812 0.0015796958 0.02665775 -0.025140645
0.004712693 0.024233947 0.06899315 0.0047402713 -0.00019316089 0.026083948 -0.02190736 0.021925505
0.0051059164 -0.017929418 0.021942014 0.0632506 0.04004586 -0.024550349 -0.055530325 0.074533254
-0.012364949 -0.059836682 0.068374045 -0.03273724 -0.006986783 0.037655935 -0.029150082 -0.00960962
0.07324677 -0.003606892 -0.0149440635 0.0684733 -0.019322092 0.012104064 0.058551066 -0.009576605
0.0045191464 0.06433529 0.0017655224 -0.020294335 0.05087025 -0.018517233 -0.007776608 -0.061585754
-0.02310133 -0.07511215 -0.060221698 -0.18895854 -0.021533178 -0.20817448 -0.19071466 -0.11034805
-0.012579612 -0.008255526 -0.045886435 -0.019362804 -0.19389027 0.052490067 -0.30264446 -0.12380666
-0.09904595 0.021167507 0.00090671174 -0.042001132 -0.048479147 -0.20705172 0.0577442 -0.2660325
-0.1150606 -0.11617368 -0.11237742 -0.047206152 -0.017191913 -0.010351072 0.0641493 0.07668836
-0.003569993 0.025354661 0.061784416 -0.11043038 -0.043314382 -0.010149483 -0.03831237 0.03169655
-0.008986734 -0.029844528 -0.053623497 0.0025123174 -0.106942214 -0.055246238 -0.008382338 -0.030836528
0.050188158 0.016929854 -0.045647517 0.011107475 0.05398573 -0.010892285 0.02378604 0.08703358
0.024945129 0.026224636 0.13435432 -0.04351203 0.11752964 0.07869085 -0.0049684355 -0.045327984
0.084538355 -0.0081312135 -0.08308078 0.003696744 -0.09061438 0.029664923 -0.018556539 -0.015163363
-0.013789806 0.057964634 0.00025266307 -0.042667147 0.052637815 -0.11174035 0.019764576 0.034881096
-0.004429673 0.03277398 -0.016341174 -0.0404524 0.01874094 -0.06695652 -0.093919806 0.029340306
-0.069976054 -0.009777854 0.03217075 -0.019010497 -0.046305176 0.0057366183 -0.084197454 -0.046422094
0.018394662 -0.07309523 -0.03250506 0.015990397 -0.034783527 -0.0795452 0.0105236145 -0.046676986
-0.057796024 0.050525717 -0.058343224 0.018122414 -0.053912897 -0.13401976 -0.070985064 -0.025186384
0.03900778 -0.0062166513 0.13173562 0.019543754 0.042155012 -0.014965536 -0.096203394 -0.058910556
00000000: 0aad 753c ce8e 8e3d 1e91 a43c 9e27 3b3d
00000010: 507b 513e 5693 863c 3359 a33c ab8c f9bb
00000020: 92eb 8a3c e71b 0e3b 7b0e 29bc a8a3 773c
00000030: 82ee 233c f238 52bf c247 a73c b6fb 643b
00000040: 8915 ffbb a49e 943b bd4f 56bb 9e65 8b3c
00000050: 4070 623c 1081 afbb b329 233e 9d62 b73c
00000060: b69e f73b 6640 96bb 6bcb 4b3c d603 3b3d
00000070: b72b 503d e07e dabc 87e2 d6bd a4f7 5fbb
00000080: 007e 16be 3bd3 81bc 43ce c43d efff 89bd
00000090: 51d2 edba 6334 f73c c7ac fdbc 6c2b b9bd
000000a0: d663 db3c 3613 43be e015 ebbb 7bdb 9c3d
000000b0: 6f24 bdbd 94aa a63b 34da 2d3d dda3 aabd
000000c0: 2198 ffbd 7d28 703c 0398 6fbe 6964 7b3b
000000d0: fe2a f63c 9f57 f6bc 72e4 55ba 5413 e0bb
000000e0: 3dc2 8abe 3bfa 123d 5609 e8bd 3217 91bd
000000f0: 3b15 47bc 8ef6 2cbd 87d6 9ebd 76f8 ddb8
00000100: feb7 3c3d 1f01 08be 205a 1f3d 6a2f fdbd
00000110: 89a9 0fbd 9cda 763c aa5c ecbb bd31 35bb
00000120: cc4d fe3c 99f5 393d 45d1 6bbd 41cf 253d
00000130: 19c7 06be bd0f 6cbd 1e93 083d 4616 59bc
00000140: ff75 cabc 3a1e 003d 0179 db3c 6379 a93c
00000150: f3d0 1e3d cd58 b23d 65b8 e63d c9a0 753b
00000160: 0a96 e23d 68f4 2e3e 682e 0bbb 5b24 483c
00000170: 6bb4 bc3b cc0d cf3a 5b61 da3c c1f3 cdbc
00000180: ef6c 9a3b 4586 c63c 484c 8d3d 4754 9b3b
00000190: 3b8b 4ab9 01ae d53c 1077 b3bc 1e9d b33c
000001a0: 884f a73b b7e0 92bc bdbf b33c 8889 813d
000001b0: 2107 243d d01d c9bc c473 63bd e4a4 983d
000001c0: 5b96 4abc 4f17 75bd b107 8c3d 7c17 06bd
000001d0: 62f1 e4bb 1c3d 1a3d 27cc eebc ab71 1dbc
000001e0: 6702 963d 9b61 6cbb f2d7 74bc bb3b 8c3d
000001f0: 5d49 9ebc 2050 463c 3ed3 6f3d 31e7 1cbc
00000200: 5915 943b 38c2 833d 1a69 e73a 4e40 a6bc
00000210: 535d 503d 74b1 97bc ebd2 febb 5841 7cbd
00000220: 003f bdbc 66d4 99bd 07ab 76bd 597e 41be
00000230: 5966 b0bc b12b 55be b44a 43be 29fe e1bd
00000240: b81a 4ebc 3042 07bc 6af3 3bbd be9e 9ebc
00000250: 2c8b 46be d3ff 563d 37f4 9abe 598e fdbd
00000260: 9ad8 cabd 7b67 ad3c 65b0 6d3a 6109 2cbd
00000270: 1292 46bd 5e05 54be 2f85 6c3d 6935 88be
00000280: e4a4 ebbd 77ec edbd 2226 e6bd 3d5b 41bd
00000290: 0ed6 8cbc 8b97 29bc b560 833d c90e 9d3d
000002a0: 8bf6 69bb 94b4 cf3c a811 7d3d 5329 e2bd
000002b0: 6c6a 31bd 044a 26bc 6fed 1cbd 3ed4 013d
000002c0: 183d 13bc 837c f4bc 50a4 5bbd b1a5 243b
000002d0: 8504 dbbd e149 62bd 1356 09bc e39c fcbc
000002e0: 1992 4d3d 7ab0 8a3c e4f8 3abd 20fc 353c
000002f0: 2420 5d3d 8e75 32bc f1da c23c a93e b23d
00000300: ba59 cc3c 0cd5 d63c 2e94 093e ac39 32bd
00000310: 61b3 f03d ab28 a13d 42ce a2bb d6a9 39bd
00000320: 7222 ad3d c838 05bc 4226 aabd 1345 723b
00000330: 0894 b9bd da03 f33c e203 98bc c16f 78bc
00000340: a3ee 61bc 536c 6d3d dd77 8439 bfc3 2ebd
00000350: c09a 573d 20d8 e4bd 52e9 a13c 7bdf 0e3d
00000360: ca26 91bb 023e 063d eddd 85bc 6ab1 25bd
00000370: 9a86 993c 8020 89bd 0759 c0bd 155b f03c
00000380: 9b4f 8fbd 4b33 20bc 7ac5 033d e7bb 9bbc
00000390: 7faa 3dbd 3efa bb3b b76f acbd 1825 3ebd
000003a0: 67b0 963c f4b2 95bd 0724 05bd 4bfe 823c
000003b0: 2c79 0ebd 98e8 a2bd 3d6b 2c3c 5e30 3fbd
000003c0: 86bb 6cbd 0ef4 4e3d 4ef9 6ebd 7575 943c
000003d0: c5d3 5cbd 7a3c 09be 9e60 91bd ad53 cebc
000003e0: 9fc6 1f3d 0db5 cbbb b4e5 063e 391a a03c
000003f0: bcaa 2c3d 0232 75bc 4906 c5bd 324c 71bd

model1.6.conv.bias f4 [16]
0.048249267 0.03439892 0.008497781 0.028233163 0.04386888 0.03211473 -0.007925269 0.04943351
-0.026012033 -0.031571344 -0.03611456 0.043061428 0.050865695 0.038024344 0.044926148 -0.036230072
00000000: 06a1 453d e2e5 0c3d 473a 0b3c 3c49 e73c
00000010: dbaf 333d bc8a 033d fdd8 01bc cb7a 4a3d
00000020: 3017 d5bc f450 01bd dcec 13bd 2e61 303d
00000030: 8c58 503d 6abf 1b3d 7b04 383d fc65 14bd

model1.6.batch_norm.weight f4 [16]
0.5364059 0.43573365 0.45530412 0.5121118 0.55035424 0.48073968 0.45635727 0.4470438
0.5368157 0.4412982 0.49392006 0.42960522 0.5044731 0.5277845 0.5300243 0.4393596
00000000: e651 093f 7b18 df3e 9f1d e93e c219 033f
00000010: 04e4 0c3f 8323 f63e a9a7 e93e ede2 e43e
00000020: c16c 093f d6f1 e13e 17e3 fc3e 37f5 db3e
00000030: 2625 013f e31c 073f acaf 073f bef3 e03e

model1.6.batch_norm.bias f4 [16]
-0.19173309 -0.27464855 -0.389289 -0.23512737 -0.19113527 -0.22577597 -0.3277326 -0.29033676
-0.1516221 -0.36384213 -0.44500613 -0.357026 -0.4509932 -0.2701336 -0.38950136 -0.20759492
00000000: ae55 44be bc9e 8cbe e350 c7be 3bc5 70be
00000010: f7b8 43be d131 67be 91cc a7be 05a7 94be
00000020: d342 1bbe 8449 babe d8d7 e3be 1dcc b6be
00000030: 95e8 e6be f44e 8abe b96c c7be c393 54be

model1.6.batch_norm.running_mean f4 [16]
-0.5829706 -0.9806736 -1.0003333 -0.71082264 -0.56697255 -0.4605508 -0.5798529 -0.8577146
-0.6474196 -0.9952187 -0.93480986 -1.0000198 -0.75866985 -0.61455196 -0.72727984 -0.61027515
00000000: 903d 15bf 6d0d 7bbf ec0a 80bf 79f8 35bf
00000010: 1d25 11bf 51cd ebbe 3d71 14bf 2f93 5bbf
00000020: 4abd 25bf a7c6 7ebf b34f 6fbf a600 80bf
00000030: 3038 42bf 4753 1dbf 032f 3abf fe3a 1cbf

model1.6.batch_norm.running_var f4 [16]
1.1563212 1.2074096 1.6950076 1.4836092 0.95911247 1.1749741 0.98115814 1.1652975
1.3992063 1.5598193 1.0361098 1.4050094 1.0846207 0.86560607 0.98282087 0.9216943
00000000: 5502 943f 668c 9a3f 02f6 d83f e8e6 bd3f
00000010: 6588 753f 8d65 963f 2e2d 7b3f 7828 953f
00000020: 3119 b33f 29a8 c73f 3f9f 843f 59d7 b33f
00000030: dad4 8a3f 5c98 5d3f 269a 7b3f 28f4 6b3f

model1.8.conv.weight f4 [16, 16, 3, 3, 3]
0.014994869 0.069608316 0.020088729 0.04569208 0.20457196 0.016427677 0.019939994 -0.007615646
0.016958032 0.0021684112 -0.010318394 0.015114702 0.010005595 -0.8211814 0.020419959 0.003494007
-0.0077845496 0.004535513 -0.0032701336 0.017016228 0.013820708 -0.0053559616 0.15933876 0.02238589
0.0075567616 -0.0045853136 0.012438635 0.045657955 0.05082294 -0.026671827 -0.104924254 -0.0034174705
-0.14696503 -0.015847793 0.09609654 -0.067382686 -0.0018144344 0.030176347 -0.030966176 -0.09041485
0.026781004 -0.19050297 -0.0071742386 0.0765905 -0.09235465 0.0050862525 0.042444423 -0.08332036
-0.12480188 0.014658091 -0.23397832 0.003835941 0.030049797 -0.030071078 -0.0008159346 -0.0068382416
-0.27101317 0.03588317 -0.11329906 -0.07084502 -0.012151058 -0.04222732 -0.077557616 -0.00010584381
0.046073906 -0.13281678 0.03890431 -0.12362559 -0.03507379 0.015066769 -0.007213195 -0.0027648055
0.031042956 0.045400236 -0.05757262 0.040480856 -0.13161887 -0.057632197 0.033343427 -0.013249939
-0.024714468 0.031278826 0.026791098 0.020687765 0.03877349 0.08708344 0.11265639 0.0037479869
0.11063774 0.17085421 -0.0021237377 0.012215699 0.005758812 0.0015796958 0.02665775 -0.025140645
0.004712693 0.024233947 0.06899315 0.0047402713 -0.00019316089 0.026083948 -0.02190736 0.021925505
0.0051059164 -0.017929418 0.021942014 0.0632506 0.04004586 -0.024550349 -0.055530325 0.074533254
-0.012364949 -0.059836682 0.068374045 -0.03273724 -0.006986783 0.037655935 -0.029150082 -0.00960962
0.07324677 -0.003606892 -0.0149440635 0.0684733 -0.019322092 0.012104064 0.058551066 -0.009576605
0.0045191464 0.06433529 0.0017655224 -0.020294335 0.05087025 -0.018517233 -0.007776608 -0.061585754
-0.02310133 -0.07511215 -0.060221698 -0.18895854 -0.021533178 -0.20817448 -0.19071466 -0.11034805
-0.012579612 -0.008255526 -0.045886435 -0.019362804 -0.19389027 0.052490067 -0.30264446 -0.12380666
-0.09904595 0.021167507 0.00090671174 -0.042001132 -0.048479147 -0.20705172 0.0577442 -0.2660325
-0.1150606 -0.11617368 -0.11237742 -0.047206152 -0.017191913 -0.010351072 0.0641493 0.07668836
-0.003569993 0.025354661 0.061784416 -0.11043038 -0.043314382 -0.010149483 -0.03831237 0.03169655
-0.008986734 -0.029844528 -0.053623497 0.0025123174 -0.106942214 -0.055246238 -0.008382338 -0.030836528
0.050188158 0.016929854 -0.045647517 0.011107475 0.05398573 -0.010892285 0.02378604 0.08703358
0.024945129 0.026224636 0.13435432 -0.04351203 0.11752964 0.07869085 -0.0049684355 -0.045327984
0.084538355 -0.0081312135 -0.08308078 0.003696744 -0.09061438 0.029664923 -0.018556539 -0.015163363
-0.013789806 0.057964634 0.00025266307 -0.042667147 0.052637815 -0.11174035 0.019764576 0.034881096
-0.004429673 0.03277398 -0.016341174 -0.0404524 0.01874094 -0.06695652 -0.093919806 0.029340306
-0.069976054 -0.009777854 0.03217075 -0.019010497 -0.046305176 0.0057366183 -0.084197454 -0.046422094
0.018394662 -0.07309523 -0.03250506 0.015990397 -0.034783527 -0.0795452 0.0105236145 -0.046676986
-0.057796024 0.050525717 -0.058343224 0.018122414 -0.053912897 -0.13401976 -0.070985064 -0.025186384
0.03900778 -0.0062166513 0.13173562 0.019543754 0.042155012 -0.014965536 -0.096203394 -0.058910556
00000000: 0aad 753c ce8e 8e3d 1e91 a43c 9e27 3b3d
00000010: 507b 513e 5693 863c 3359 a33c ab8c f9bb
00000020: 92eb 8a3c e71b 0e3b 7b0e 29bc a8a3 773c
00000030: 82ee 233c f238 52bf c247 a73c b6fb 643b
00000040: 8915 ffbb a49e 943b bd4f 56bb 9e65 8b3c
00000050: 4070 623c 1081 afbb b329 233e 9d62 b73c
00000060: b69e f73b 6640 96bb 6bcb 4b3c d603 3b3d
00000070: b72b 503d e07e dabc 87e2 d6bd a4f7 5fbb
00000080: 007e 16be 3bd3 81bc 43ce c43d efff 89bd
00000090: 51d2 edba 6334 f73c c7ac fdbc 6c2b b9bd
000000a0: d663 db3c 3613 43be e015 ebbb 7bdb 9c3d
000000b0: 6f24 bdbd 94aa a63b 34da 2d3d dda3 aabd
000000c0: 2198 ffbd 7d28 703c 0398 6fbe 6964 7b3b
000000d0: fe2a f63c 9f57 f6bc 72e4 55ba 5413 e0bb
000000e0: 3dc2 8abe 3bfa 123d 5609 e8bd 3217 91bd
000000f0: 3b15 47bc 8ef6 2cbd 87d6 9ebd 76f8 ddb8
00000100: feb7 3c3d 1f01 08be 205a 1f3d 6a2f fdbd
00000110: 89a9 0fbd 9cda 763c aa5c ecbb bd31 35bb
00000120: cc4d fe3c 99f5 393d 45d1 6bbd 41cf 253d
00000130: 19c7 06be bd0f 6cbd 1e93 083d 4616 59bc
00000140: ff75 cabc 3a1e 003d 0179 db3c 6379 a93c
00000150: f3d0 1e3d cd58 b23d 65b8 e63d c9a0 753b
00000160: 0a96 e23d 68f4 2e3e 682e 0bbb 5b24 483c
00000170: 6bb4 bc3b cc0d cf3a 5b61 da3c c1f3 cdbc
00000180: ef6c 9a3b 4586 c63c 484c 8d3d 4754 9b3b
00000190: 3b8b 4ab9 01ae d53c 1077 b3bc 1e9d b33c
000001a0: 884f a73b b7e0 92bc bdbf b33c 8889 813d
000001b0: 2107 243d d01d c9bc c473 63bd e4a4 983d
000001c0: 5b96 4abc 4f17 75bd b107 8c3d 7c17 06bd
000001d0: 62f1 e4bb 1c3d 1a3d 27cc eebc ab71 1dbc
000001e0: 6702 963d 9b61 6cbb f2d7 74bc bb3b 8c3d
000001f0: 5d49 9ebc 2050 463c 3ed3 6f3d 31e7 1cbc
00000200: 5915 943b 38c2 833d 1a69 e73a 4e40 a6bc
00000210: 535d 503d 74b1 97bc ebd2 febb 5841 7cbd
00000220: 003f bdbc 66d4 99bd 07ab 76bd 597e 41be
00000230: 5966 b0bc b12b 55be b44a 43be 29fe e1bd
00000240: b81a 4ebc 3042 07bc 6af3 3bbd be9e 9ebc
00000250: 2c8b 46be d3ff 563d 37f4 9abe 598e fdbd
00000260: 9ad8 cabd 7b67 ad3c 65b0 6d3a 6109 2cbd
00000270: 1292 46bd 5e05 54be 2f85 6c3d 6935 88be
00000280: e4a4 ebbd 77ec edbd 2226 e6bd 3d5b 41bd
00000290: 0ed6 8cbc 8b97 29bc b560 833d c90e 9d3d
000002a0: 8bf6 69bb 94b4 cf3c a811 7d3d 5329 e2bd
000002b0: 6c6a 31bd 044a 26bc 6fed 1cbd 3ed4 013d
000002c0: 183d 13bc 837c f4bc 50a4 5bbd b1a5 243b
000002d0: 8504 dbbd e149 62bd 1356 09bc e39c fcbc
000002e0: 1992 4d3d 7ab0 8a3c e4f8 3abd 20fc 353c
000002f0: 2420 5d3d 8e75 32bc f1da c23c a93e b23d
00000300: ba59 cc3c 0cd5 d63c 2e94 093e ac39 32bd
00000310: 61b3 f03d ab28 a13d 42ce a2bb d6a9 39bd
00000320: 7222 ad3d c838 05bc 4226 aabd 1345 723b
00000330: 0894 b9bd da03 f33c e203 98bc c16f 78bc
00000340: a3ee 61bc 536c 6d3d dd77 8439 bfc3 2ebd
00000350: c09a 573d 20d8 e4bd 52e9 a13c 7bdf 0e3d
00000360: ca26 91bb 023e 063d eddd 85bc 6ab1 25bd
00000370: 9a86 993c 8020 89bd 0759 c0bd 155b f03c
00000380: 9b4f 8fbd 4b33 20bc 7ac5 033d e7bb 9bbc
00000390: 7faa 3dbd 3efa bb3b b76f acbd 1825 3ebd
000003a0: 67b0 963c f4b2 95bd 0724 05bd 4bfe 823c
000003b0: 2c79 0ebd 98e8 a2bd 3d6b 2c3c 5e30 3fbd
000003c0: 86bb 6cbd 0ef4 4e3d 4ef9 6ebd 7575 943c
000003d0: c5d3 5cbd 7a3c 09be 9e60 91bd ad53 cebc
000003e0: 9fc6 1f3d 0db5 cbbb b4e5 063e 391a a03c
000003f0: bcaa 2c3d 0232 75bc 4906 c5bd 324c 71bd

model1.8.conv.bias f4 [16]
0.048249267 0.03439892 0.008497781 0.028233163 0.04386888 0.03211473 -0.007925269 0.04943351
-0.026012033 -0.031571344 -0.03611456 0.043061428 0.050865695 0.038024344 0.044926148 -0.036230072
00000000: 06a1 453d e2e5 0c3d 473a 0b3c 3c49 e73c
00000010: dbaf 333d bc8a 033d fdd8 01bc cb7a 4a3d
00000020: 3017 d5bc f450 01bd dcec 13bd 2e61 303d
00000030: 8c58 503d 6abf 1b3d 7b04 383d fc65 14bd

model1.8.batch_norm.weight f4 [16]
0.5364059 0.43573365 0.45530412 0.5121118 0.55035424 0.48073968 0.45635727 0.4470438
0.5368157 0.4412982 0.49392006 0.42960522 0.5044731 0.5277845 0.5300243 0.4393596
00000000: e651 093f 7b18 df3e 9f1d e93e c219 033f
00000010: 04e4 0c3f 8323 f63e a9a7 e93e ede2 e43e
00000020: c16c 093f d6f1 e13e 17e3 fc3e 37f5 db3e
00000030: 2625 013f e31c 073f acaf 073f bef3 e03e

model1.8.batch_norm.bias f4 [16]
-0.19173309 -0.27464855 -0.389289 -0.23512737 -0.19113527 -0.22577597 -0.3277326 -0.29033676
-0.1516221 -0.36384213 -0.44500613 -0.357026 -0.4509932 -0.2701336 -0.38950136 -0.20759492
00000000: ae55 44be bc9e 8cbe e350 c7be 3bc5 70be
00000010: f7b8 43be d131 67be 91cc a7be 05a7 94be
00000020: d342 1bbe 8449 babe d8d7 e3be 1dcc b6be
00000030: 95e8 e6be f44e 8abe b96c c7be c393 54be

model1.8.batch_norm.running_mean f4 [16]
-0.5829706 -0.9806736 -1.0003333 -0.71082264 -0.56697255 -0.4605508 -0.5798529 -0.8577146
-0.6474196 -0.9952187 -0.93480986 -1.0000198 -0.75866985 -0.61455196 -0.72727984 -0.61027515
00000000: 903d 15bf 6d0d 7bbf ec0a 80bf 79f8 35bf
00000010: 1d25 11bf 51cd ebbe 3d71 14bf 2f93 5bbf
00000020: 4abd 25bf a7c6 7ebf b34f 6fbf a600 80bf
00000030: 3038 42bf 4753 1dbf 032f 3abf fe3a 1cbf

model1.8.batch_norm.running_var f4 [16]
1.1563212 1.2074096 1.6950076 1.4836092 0.95911247 1.1749741 0.98115814 1.1652975
1.3992063 1.5598193 1.0361098 1.4050094 1.0846207 0.86560607 0.98282087 0.9216943
00000000: 5502 943f 668c 9a3f 02f6 d83f e8e6 bd3f
00000010: 6588 753f 8d65 963f 2e2d 7b3f 7828 953f
00000020: 3119 b33f 29a8 c73f 3f9f 843f 59d7 b33f
00000030: dad4 8a3f 5c98 5d3f 269a 7b3f 28f4 6b3f

model1.10.conv.weight f4 [16, 16, 3, 3, 3]
0.014994869 0.069608316 0.020088729 0.04569208 0.20457196 0.016427677 0.019939994 -0.007615646
0.016958032 0.0021684112 -0.010318394 0.015114702 0.010005595 -0.8211814 0.020419959 0.003494007
-0.0077845496 0.004535513 -0.0032701336 0.017016228 0.013820708 -0.0053559616 0.15933876 0.02238589
0.0075567616 -0.0045853136 0.012438635 0.045657955 0.05082294 -0.026671827 -0.104924254 -0.0034174705
-0.14696503 -0.015847793 0.09609654 -0.067382686 -0.0018144344 0.030176347 -0.030966176 -0.09041485
0.026781004 -0.19050297 -0.0071742386 0.0765905 -0.09235465 0.0050862525 0.042444423 -0.08332036
-0.12480188 0.014658091 -0.23397832 0.003835941 0.030049797 -0.030071078 -0.0008159346 -0.0068382416
-0.27101317 0.03588317 -0.11329906 -0.07084502 -0.012151058 -0.04222732 -0.077557616 -0.00010584381
0.046073906 -0.13281678 0.03890431 -0.12362559 -0.03507379 0.015066769 -0.007213195 -0.0027648055
0.031042956 0.045400236 -0.05757262 0.040480856 -0.13161887 -0.057632197 0.033343427 -0.013249939
-0.024714468 0.031278826 0.026791098 0.020687765 0.03877349 0.08708344 0.11265639 0.0037479869
0.11063774 0.17085421 -0.0021237377 0.012215699 0.005758812 0.0015796958 0.02665775 -0.025140645
0.004712693 0.024233947 0.06899315 0.0047402713 -0.00019316089 0.026083948 -0.02190736 0.021925505
0.0051059164 -0.017929418 0.021942014 0.0632506 0.04004586 -0.024550349 -0.055530325 0.074533254
-0.012364949 -0.059836682 0.068374045 -0.03273724 -0.006986783 0.037655935 -0.029150082 -0.00960962
0.07324677 -0.003606892 -0.0149440635 0.0684733 -0.019322092 0.012104064 0.058551066 -0.009576605
0.0045191464 0.06433529 0.0017655224 -0.020294335 0.05087025 -0.018517233 -0.007776608 -0.061585754
-0.02310133 -0.07511215 -0.060221698 -0.18895854 -0.021533178 -0.20817448 -0.19071466 -0.11034805
-0.012579612 -0.008255526 -0.045886435 -0.019362804 -0.19389027 0.052490067 -0.30264446 -0.12380666
-0.09904595 0.021167507 0.00090671174 -0.042001132 -0.048479147 -0.20705172 0.0577442 -0.2660325
-0.1150606 -0.11617368 -0.11237742 -0.047206152 -0.017191913 -0.010351072 0.0641493 0.07668836
-0.003569993 0.025354661 0.061784416 -0.11043038 -0.043314382 -0.010149483 -0.03831237 0.03169655
-0.008986734 -0.029844528 -0.053623497 0.0025123174 -0.106942214 -0.055246238 -0.008382338 -0.030836528
0.050188158 0.016929854 -0.045647517 0.011107475 0.05398573 -0.010892285 0.02378604 0.08703358
0.024945129 0.026224636 0.13435432 -0.04351203 0.11752964 0.07869085 -0.0049684355 -0.045327984
0.084538355 -0.0081312135 -0.08308078 0.003696744 -0.09061438 0.029664923 -0.018556539 -0.015163363
-0.013789806 0.057964634 0.00025266307 -0.042667147 0.052637815 -0.11174035 0.019764576 0.034881096
-0.004429673 0.03277398 -0.016341174 -0.0404524 0.01874094 -0.06695652 -0.093919806 0.029340306
-0.069976054 -0.009777854 0.03217075 -0.019010497 -0.046305176 0.0057366183 -0.084197454 -0.046422094
0.018394662 -0.07309523 -0.03250506 0.015990397 -0.034783527 -0.0795452 0.0105236145 -0.046676986
-0.057796024 0.050525717 -0.058343224 0.018122414 -0.053912897 -0.13401976 -0.070985064 -0.025186384
0.03900778 -0.0062166513 0.13173562 0.019543754 0.042155012 -0.014965536 -0.096203394 -0.058910556
00000000: 0aad 753c ce8e 8e3d 1e91 a43c 9e27 3b3d
00000010: 507b 513e 5693 863c 3359 a33c ab8c f9bb
00000020: 92eb 8a3c e71b 0e3b 7b0e 29bc a8a3 773c
00000030: 82ee 233c f238 52bf c247 a73c b6fb 643b
00000040: 8915 ffbb a49e 943b bd4f 56bb 9e65 8b3c
00000050: 4070 623c 1081 afbb b329 233e 9d62 b73c
00000060: b69e f73b 6640 96bb 6bcb 4b3c d603 3b3d
00000070: b72b 503d e07e dabc 87e2 d6bd a4f7 5fbb
00000080: 007e 16be 3bd3 81bc 43ce c43d efff 89bd
00000090: 51d2 edba 6334 f73c c7ac fdbc 6c2b b9bd
000000a0: d663 db3c 3613 43be e015 ebbb 7bdb 9c3d
000000b0: 6f24 bdbd 94aa a63b 34da 2d3d dda3 aabd
000000c0: 2198 ffbd 7d28 703c 0398 6fbe 6964 7b3b
000000d0: fe2a f63c 9f57 f6bc 72e4 55ba 5413 e0bb
000000e0: 3dc2 8abe 3bfa 123d 5609 e8bd 3217 91bd
000000f0: 3b15 47bc 8ef6 2cbd 87d6 9ebd 76f8 ddb8
00000100: feb7 3c3d 1f01 08be 205a 1f3d 6a2f fdbd
00000110: 89a9 0fbd 9cda 763c aa5c ecbb bd31 35bb
00000120: cc4d fe3c 99f5 393d 45d1 6bbd 41cf 253d
00000130: 19c7 06be bd0f 6cbd 1e93 083d 4616 59bc
00000140: ff75 cabc 3a1e 003d 0179 db3c 6379 a93c
00000150: f3d0 1e3d cd58 b23d 65b8 e63d c9a0 753b
00000160: 0a96 e23d 68f4 2e3e 682e 0bbb 5b24 483c
00000170: 6bb4 bc3b cc0d cf3a 5b61 da3c c1f3 cdbc
00000180: ef6c 9a3b 4586 c63c 484c 8d3d 4754 9b3b
00000190: 3b8b 4ab9 01ae d53c 1077 b3bc 1e9d b33c
000001a0: 884f a73b b7e0 92bc bdbf b33c 8889 813d
000001b0: 2107 243d d01d c9bc c473 63bd e4a4 983d
000001c0: 5b96 4abc 4f17 75bd b107 8c3d 7c17 06bd
000001d0: 62f1 e4bb 1c3d 1a3d 27cc eebc ab71 1dbc
000001e0: 6702 963d 9b61 6cbb f2d7 74bc bb3b 8c3d
000001f0: 5d49 9ebc 2050 463c 3ed3 6f3d 31e7 1cbc
00000200: 5915 943b 38c2 833d 1a69 e73a 4e40 a6bc
00000210: 535d 503d 74b1 97bc ebd2 febb 5841 7cbd
00000220: 003f bdbc 66d4 99bd 07ab 76bd 597e 41be
00000230: 5966 b0bc b12b 55be b44a 43be 29fe e1bd
00000240: b81a 4ebc 3042 07bc 6af3 3bbd be9e 9ebc
00000250: 2c8b 46be d3ff 563d 37f4 9abe 598e fdbd
00000260: 9ad8 cabd 7b67 ad3c 65b0 6d3a 6109 2cbd
00000270: 1292 46bd 5e05 54be 2f85 6c3d 6935 88be
00000280: e4a4 ebbd 77ec edbd 2226 e6bd 3d5b 41bd
00000290: 0ed6 8cbc 8b97 29bc b560 833d c90e 9d3d
000002a0: 8bf6 69bb 94b4 cf3c a811 7d3d 5329 e2bd
000002b0: 6c6a 31bd 044a 26bc 6fed 1cbd 3ed4 013d
000002c0: 183d 13bc 837c f4bc 50a4 5bbd b1a5 243b
000002d0: 8504 dbbd e149 62bd 1356 09bc e39c fcbc
000002e0: 1992 4d3d 7ab0 8a3c e4f8 3abd 20fc 353c
000002f0: 2420 5d3d 8e75 32bc f1da c23c a93e b23d
00000300: ba59 cc3c 0cd5 d63c 2e94 093e ac39 32bd
00000310: 61b3 f03d ab28 a13d 42ce a2bb d6a9 39bd
00000320: 7222 ad3d c838 05bc 4226 aabd 1345 723b
00000330: 0894 b9bd da03 f33c e203 98bc c16f 78bc
00000340: a3ee 61bc 536c 6d3d dd77 8439 bfc3 2ebd
00000350: c09a 573d 20d8 e4bd 52e9 a13c 7bdf 0e3d
00000360: ca26 91bb 023e 063d eddd 85bc 6ab1 25bd
00000370: 9a86 993c 8020 89bd 0759 c0bd 155b f03c
00000380: 9b4f 8fbd 4b33 20bc 7ac5 033d e7bb 9bbc
00000390: 7faa 3dbd 3efa bb3b b76f acbd 1825 3ebd
000003a0: 67b0 963c f4b2 95bd 0724 05bd 4bfe 823c
000003b0: 2c79 0ebd 98e8 a2bd 3d6b 2c3c 5e30 3fbd
000003c0: 86bb 6cbd 0ef4 4e3d 4ef9 6ebd 7575 943c
000003d0: c5d3 5cbd 7a3c 09be 9e60 91bd ad53 cebc
000003e0: 9fc6 1f3d 0db5 cbbb b4e5 063e 391a a03c
000003f0: bcaa 2c3d 0232 75bc 4906 c5bd 324c 71bd

model1.10.conv.bias f4 [16]
0.048249267 0.03439892 0.008497781 0.028233163 0.04386888 0.03211473 -0.007925269 0.04943351
-0.026012033 -0.031571344 -0.03611456 0.043061428 0.050865695 0.038024344 0.044926148 -0.036230072
00000000: 06a1 453d e2e5 0c3d 473a 0b3c 3c49 e73c
00000010: dbaf 333d bc8a 033d fdd8 01bc cb7a 4a3d
00000020: 3017 d5bc f450 01bd dcec 13bd 2e61 303d
00000030: 8c58 503d 6abf 1b3d 7b04 383d fc65 14bd

model1.10.batch_norm.weight f4 [16]
0.5364059 0.43573365 0.45530412 0.5121118 0.55035424 0.48073968 0.45635727 0.4470438
0.5368157 0.4412982 0.49392006 0.42960522 0.5044731 0.5277845 0.5300243 0.4393596
00000000: e651 093f 7b18 df3e 9f1d e93e c219 033f
00000010: 04e4 0c3f 8323 f63e a9a7 e93e ede2 e43e
00000020: c16c 093f d6f1 e13e 17e3 fc3e 37f5 db3e
00000030: 2625 013f e31c 073f acaf 073f bef3 e03e

model1.10.batch_norm.bias f4 [16]
-0.19173309 -0.27464855 -0.389289 -0.23512737 -0.19113527 -0.22577597 -0.3277326 -0.29033676
-0.1516221 -0.36384213 -0.44500613 -0.357026 -0.4509932 -0.2701336 -0.38950136 -0.20759492
00000000: ae55 44be bc9e 8cbe e350 c7be 3bc5 70be
00000010: f7b8 43be d131 67be 91cc a7be 05a7 94be
00000020: d342 1bbe 8449 babe d8d7 e3be 1dcc b6be
00000030: 95e8 e6be f44e 8abe b96c c7be c393 54be

model1.10.batch_norm.running_mean f4 [16]
-0.5829706 -0.9806736 -1.0003333 -0.71082264 -0.56697255 -0.4605508 -0.5798529 -0.8577146
-0.6474196 -0.9952187 -0.93480986 -1.0000198 -0.75866985 -0.61455196 -0.72727984 -0.61027515
00000000: 903d 15bf 6d0d 7bbf ec0a 80bf 79f8 35bf
00000010: 1d25 11bf 51cd ebbe 3d71 14bf 2f93 5bbf
00000020: 4abd 25bf a7c6 7ebf b34f 6fbf a600 80bf
00000030: 3038 42bf 4753 1dbf 032f 3abf fe3a 1cbf

model1.10.batch_norm.running_var f4 [16]
1.1563212 1.2074096 1.6950076 1.4836092 0.95911247 1.1749741 0.98115814 1.1652975
1.3992063 1.5598193 1.0361098 1.4050094 1.0846207 0.86560607 0.98282087 0.9216943
00000000: 5502 943f 668c 9a3f 02f6 d83f e8e6 bd3f
00000010: 6588 753f 8d65 963f 2e2d 7b3f 7828 953f
00000020: 3119 b33f 29a8 c73f 3f9f 843f 59d7 b33f
00000030: dad4 8a3f 5c98 5d3f 269a 7b3f 28f4 6b3f
