models/conv3d/lr_0.0005/lr_0.0005/epoch_1430.pt (torch, 189922 bytes, 102 tensors)

model1.0.weight f4 [16, 8, 3, 3, 3]
-0.036925975 0.03195665 -0.05102641 0.044739973 0.016067516 0.032696474 0.034878585 -0.015391681
-0.06435846 -0.048438422 -0.013766138 -0.056718692 -0.011351905 0.026907356 0.042385556 -0.038600553
0.020057604 0.017711919 -0.035622887 -0.032599147 0.026055861 0.03488348 0.03564234 0.058379572
-0.043817353 -0.01027376 -0.018983934 0.047245942 0.06275362 0.04165184 -0.039133642 -0.07533473
0.025208263 0.0964947 -0.024865998 -0.0016517009 0.017216528 -0.063888416 0.0039413967 0.029891212
0.04760426 -0.007582675 0.006207516 -0.0007883754 -0.047772113 0.017036734 -0.0035098384 0.013152479
-0.0015779387 0.07872213 -0.051827516 0.0626932 -0.011851631 -0.114846416 -0.00030255577 0.03898611
0.019051628 0.0009495503 -0.022020428 0.015358661 -0.02416305 0.01919015 0.018017177 0.07186395
-0.04074318 0.041271016 6.3364525e-05 -0.032532305 -0.03247414 -0.017983781 -0.042234477 -0.032329474
0.008873941 0.0016082104 0.033208117 -0.032236747 -0.061538003 -0.0037608882 0.0026611004 -0.03179383
-0.03258367 -0.023577444 9.777218e-05 -0.028215572 0.093692206 0.031258404 0.005359421 -0.022137998
0.07619509 -0.00830362 -0.043274853 -0.020087441 -0.08533804 0.04050338 -0.04976152 0.029245354
0.056858603 0.023861554 -0.028909218 0.038429473 -0.051185153 -0.036605123 0.02163947 0.014299118
0.03931124 -0.01643972 0.007834535 0.067273796 0.016935574 0.026450945 0.02712943 -0.024799388
-0.043923404 0.039292265 -0.0034874321 -0.046719056 -0.058620006 0.079159096 0.0050793877 0.050724763
-0.02819582 -0.049885955 -0.028122865 0.084534906 -0.02859124 0.042273868 -0.009782905 -0.02911463
-0.021177497 0.013075568 -0.012713926 0.05144782 -0.057043474 -0.07133361 -0.0067158784 0.062888905
0.020508653 0.025107091 -0.059591178 0.030687189 -0.02098896 -0.07978239 -0.0195438 0.027282363
0.018746002 -0.029543377 -0.05062106 -0.050841328 -0.013312192 0.0053729047 0.007567207 0.02530897
0.045090023 -0.028670393 -0.043519687 -0.0017076457 0.01875397 -0.010418351 -0.02059082 0.016433915
0.048069727 0.030950313 0.044699874 0.007549962 0.036911227 0.018602157 -0.019882634 0.0053623803
0.0076050516 0.017767016 0.02758202 0.026830863 0.03182214 -0.028521946 0.03564011 -0.008823802
0.03034658 0.05307481 -0.042160522 0.07325879 -0.015818797 0.04824289 0.026489519 -0.081738785
0.017283505 -0.008236995 -0.053675145 0.012923275 -0.014561954 0.021716716 0.027625106 -0.02470517
0.056773953 -0.040969238 -0.019843284 0.03311776 -0.01292953 0.10859421 0.06138081 0.011364468
0.06045787 -0.021055374 -0.0022738432 -0.06760742 0.058867488 -0.009123184 0.041187815 0.05121078
-0.0171167 0.05975202 0.015583085 -0.06603929 0.02229737 -0.021257991 -0.014621422 0.016729392
-0.07539879 0.029012656 0.021315856 0.03508602 0.08321521 -0.068345405 -0.04260064 -0.01211129
0.04361178 0.04085075 -0.037999284 0.0074208947 -0.02499771 0.0062519503 -0.005785905 0.056927525
0.01824007 -0.040025037 -0.008142531 -0.07472689 -0.072304465 -0.044579167 0.027817776 0.056009308
0.053004794 0.0074315346 -0.0040784404 0.09640703 0.04923799 0.006700754 -0.055441298 -0.07326446
-0.027544705 -0.032326683 -0.038695756 -0.037052475 0.02627318 -0.015324365 -0.03831788 -0.028079534
00000000: b13f 17bd fae4 023d 1201 51bd 4341 373d
00000010: 06a0 833c bdec 053d d9dc 0e3d 642d 7cbc
00000020: 5ece 83bd 5e67 46bd 5e8b 61bc dc51 68bd
00000030: 57fd 39bc d16c dc3c 7a9c 2d3d 9d1b 1ebd
00000040: d84f a43c 9618 913c 4ee9 11bd af86 05bd
00000050: 1a73 d53c fbe1 0e3d b4fd 113d 6b1f 6f3d
00000060: d379 33bd 4653 28bc 3284 9bbc f684 413d
00000070: f884 803d 1f9b 2a3d 994a 20bd 1849 9abd
00000080: 8f81 ce3c 039f c53d c7b3 cbbc e37d d8ba
00000090: ad09 8d3c eed7 82bd d526 813b 6ade f43c
000000a0: affc 423d 1778 f8bb 6b68 cb3b faaa 4eba
000000b0: b1ac 43bd 9f90 8b3c 5105 66bb 7f7d 573c
000000c0: d6d2 ceba 1139 a13d 1749 54bd 4b65 803d
000000d0: 582d 42bc 9934 ebbd 59a0 9eb9 e6af 1f3d
000000e0: 2912 9c3c 3eeb 783a 2f64 b4bc e5a2 7b3c
000000f0: 97f1 c5bc a934 9d3c c298 933c 682d 933d
00000100: 52e2 26bd cc0b 293d 92e2 8438 9840 05bd
00000110: 9b03 05bd b952 93bc 0ffe 2cbd e96b 04bd
00000120: 0264 113c 96ca d23a 3c05 083d ae0a 04bd
00000130: 460f 7cbd 3c79 76bb db65 2e3b 3f3a 02bd
00000140: 7476 05bd 7c25 c1bc 0a0b cd38 5824 e7bc
00000150: b3e1 bf3d d008 003d 159e af3b bf5a b5bc
00000160: 2c0c 9c3d e80b 08bc f940 31bd 6b8e a4bc
00000170: b6c5 aebd dfe6 253d bcd2 4bbd f493 ef3c
00000180: 91e4 683d 4e79 c33c 06d3 ecbc 3968 1d3d
00000190: 86a7 51bd 41ef 15bd 4245 b13c d946 6a3c
000001a0: d304 213d 97ac 86bc 6c5c 003c d8c6 893d
000001b0: 79bc 8a3c a7af d83c 8a3e de3c 1628 cbbc
000001c0: 07e9 33bd edf0 203d 678d 64bb 7b5c 3fbd
000001d0: 881b 70bd 2a1e a23d fe70 a63b c5c4 4f3d
000001e0: ecfa e6bc 3755 4cbd ec61 e6bc a320 ad3d
000001f0: 2d38 eabc 5d27 2d3d 7a48 20bc ce81 eebc
00000200: 6e7c adbc e83a 563c 124e 50bc f3ba 523d
00000210: 6ba6 69bd 5b17 92bd df10 dcbb e6cb 803d
00000220: c301 a83c 63ad cd3c e115 74bd b363 fb3c
00000230: 0af1 abbc f364 a3bd 521a a0bc 437f df3c
00000240: 3791 993c f404 f2bc 0758 4fbd ff3e 50bd
00000250: 611b 5abc 310f b03b 55f6 f73b c254 cf3c
00000260: 51b0 383d 2cde eabc b341 32bd 15d3 dfba
00000270: eda1 993c bbb1 2abc 14ae a8bc 6ba0 863c
00000280: c3e4 443d 838b fd3c 3717 373d ac65 f73b
00000290: 3a30 173d 8d63 983c e8e0 a2bc e8b6 af3b
000002a0: cc33 f93b 228c 913c b0f3 e13c 66cc db3c
000002b0: ef57 023d dba6 e9bc 5dfb 113d b591 10bc
000002c0: 6499 f83c f964 593d 83b0 2cbd b408 963d
000002d0: 6c96 81bc 569a 453d 8c00 d93c aa66 a7bd
000002e0: 2396 8d3c 76f4 06bc 78da 5bbd 25bc 533c
000002f0: 4395 6ebc 41e7 b13c 0c4e e23c 7f62 cabc
00000300: ce8b 683d 5ccf 27bd 628e a2bc 7da6 073d
00000310: 61d6 53bc a466 de3d 726a 7b3d 0932 3a3c
00000320: aca2 773d 527c acbc c204 15bb c275 8abd
00000330: 091f 713d 6879 15bc 8eb4 283d 65c2 513d
00000340: 5238 8cbc 89be 743d 3250 7f3c 9b3f 87bd
00000350: f9a8 b63c 3d25 aebc b08e 6fbc 140c 893c
00000360: ae6a 9abd f3ab ed3c 979e ae3c 5cb6 0f3d
00000370: bc6c aa3d adf8 8bbd 027e 2ebd 6f6e 46bc
00000380: 44a2 323d 1e53 273d 23a5 1bbd fa2a f33b
00000390: ffc7 ccbc 29dd cc3b b097 bdbb d62c 693d
000003a0: 336c 953c 4bf1 23bd 4068 05bc 690a 99bd
000003b0: 5d14 94bd a598 36bd 1be2 e33c 046a 653d
000003c0: 8e1b 593d 3b84 f33b 70a4 85bb 0d71 c53d
000003d0: c6ad 493d 0092 db3b 6a16 63bd ad0b 96bd
000003e0: 6fa5 e1bc fc68 04bd 717f 1ebd 56c4 17bd
000003f0: da3a d73c 0c13 7bbc 36f3 1cbd 0d07 e6bc

model1.0.bias f4 [16]
-0.22855537 -0.25957716 -0.25607336 -0.21931054 -0.15275566 -0.2457246 -0.09172393 -0.1841089
-0.19271673 -0.2723991 -0.14555795 -0.276704 -0.16409536 -0.19068317 -0.17483813 -0.22913569
00000000: 6b0a 6abe 4ce7 84be 0c1c 83be f192 60be
00000010: fb6b 1cbe 3b9f 7bbe c1d9 bbbd 0b87 3cbe
00000020: 8957 45be e577 8bbe 250d 15be 26ac 8dbe
00000030: 9d08 28be 7342 43be c408 33be 8ca2 6abe

model1.2.conv.weight f4 [16, 16, 3, 3, 3]
0.011805878 0.06487226 0.023574581 0.04790916 0.20856522 0.010484694 0.012590825 -0.00651451
0.022524627 0.0045997105 -0.010343298 0.0122023905 0.011968664 -0.889286 0.024486601 -0.005475443
-0.0063425414 0.010786986 -0.003306512 0.018278204 0.009792436 -0.0012757414 0.17642547 0.016900115
-0.0012114982 -0.005017786 0.009403938 0.042288512 0.04397371 -0.011434799 -0.10119701 0.0017209372
-0.12674466 -0.012956992 0.09531612 -0.08123979 -0.006594057 0.02233267 -0.020007912 -0.08716193
0.02663951 -0.18238382 -0.008640422 0.066347115 -0.101635404 -0.0013671551 0.038326543 -0.075284965
-0.11226945 0.013215475 -0.22867383 0.0055919564 0.030186834 -0.04606712 -0.008374663 -0.0060561276
-0.27526948 0.05136056 -0.12367758 -0.050917167 -0.017544363 -0.046810128 -0.06589384 -0.011400584
0.038637746 -0.14441773 0.03774101 -0.13763219 -0.03279551 0.011734813 -0.01213457 -0.0010975981
0.014956915 0.041089896 -0.073431216 0.037106656 -0.13288832 -0.062459156 0.040051196 -0.019614844
-0.022723466 0.0282239 0.023147102 0.007968569 0.02776232 0.08020286 0.099951364 0.011222428
0.10128858 0.15624256 -0.005063147 0.0139776 -0.008599802 -0.004721049 0.024935374 -0.02962279
0.00618467 0.02445407 0.05461221 0.009523585 0.0075900373 0.02246536 -0.021150125 0.023516217
0.0034244598 -0.008569362 0.026985353 0.056190256 0.030808942 -0.021998318 -0.06642748 0.07472161
-0.009023374 -0.059261773 0.074538894 -0.040302888 -0.004586555 0.030615551 -0.02695768 -0.017595287
0.076274544 0.005338179 -0.015809316 0.07762412 -0.014299758 0.0177913 0.05028794 -0.011894105
-0.0004851718 0.065708384 0.0118287355 -0.017972905 0.06159545 -0.01906062 0.0025692885 -0.07116329
-0.022996645 -0.062367026 -0.06795903 -0.19654544 -0.005319938 -0.21843289 -0.17534022 -0.10275338
-0.020471308 -0.010932291 -0.03195284 -0.032414246 -0.20035769 0.057308722 -0.30500072 -0.114003584
-0.0872428 0.017672082 0.003017632 -0.034061458 -0.043402296 -0.22418703 0.05579933 -0.26811028
-0.107775666 -0.11924463 -0.11136614 -0.055150036 -0.022311863 -0.016638782 0.06494301 0.067113355
0.002583352 0.016222458 0.049350847 -0.108176395 -0.05030158 -0.011480504 -0.04087771 0.035812974
-0.008479609 -0.022117738 -0.046563905 0.0045022746 -0.11017743 -0.06509347 -0.014201518 -0.033366222
0.050675027 0.021349309 -0.046276327 0.01794818 0.051080078 -0.01599383 0.007759958 0.07826626
0.026297696 0.009690008 0.13153516 -0.04537163 0.09916813 0.061400257 -0.0039713355 -0.049453136
0.07280188 -0.00651199 -0.074958436 0.005859902 -0.081642956 0.01934095 -0.019763885 -0.009429898
-0.024396054 0.051704954 0.005405154 -0.041501988 0.061191425 -0.10130692 0.021277377 0.030679908
-0.015060266 0.033150055 -0.012647628 -0.032242797 0.018668909 -0.07092109 -0.09301054 0.031888932
-0.08459411 -0.021339176 0.032963146 -0.014807017 -0.036114167 0.007490534 -0.093309045 -0.053934556
0.017190253 -0.07816952 -0.034743547 0.013991988 -0.02511839 -0.07347273 0.010186198 -0.061776012
-0.058198214 0.04855856 -0.076158255 0.024881272 -0.048510026 -0.13206588 -0.056868773 -0.05786056
0.027848534 -0.01620743 0.11746978 0.004692152 0.04914544 -0.0117573 -0.09679878 -0.0499908
00000000: 716d 413c bfdb 843d 7b1f c13c 653c 443d
00000010: 1f92 553e fec7 2b3c bf49 4e3c ac77 d5bb
00000020: 9185 b83c 2bb9 963b f076 29bc 89ec 473c
00000030: 3718 443c 3fa8 63bf 2098 c83c 586b b3bb
00000040: 18d5 cfbb e6bb 303c 11b2 58bb 2cbc 953c
00000050: 7470 203c c736 a7ba e1a8 343e 1c72 8a3c
00000060: 22cb 9eba 3d6c a4bb fa12 1a3c b836 2d3d
00000070: c71d 343d 0659 3bbc 6140 cfbd 1291 e13a
00000080: 5ac9 01be 9049 54bc 1935 c33d 0c61 a6bd
00000090: f612 d8bb 01f3 b63c a2e7 a3bc f481 b2bd
000000a0: 1a3b da3c d3c2 3abe 8e90 0dbc ffe0 873d
000000b0: 3926 d0bd 1d32 b3ba 4bfc 1c3d 012f 9abd
000000c0: 87ed e5bd b885 583c 7929 6abe bb3c b73b
000000d0: 614a f73c e0b0 3cbd e235 09bc 7b72 c6bb
000000e0: 1ff0 8cbe 735f 523d ac4a fdbd 858e 50bd
000000f0: 32b9 8fbc fabb 3fbd 59f3 86bd 84c9 3abc
00000100: 9d42 1e3d 3ee2 13be 5196 1a3d 74ef 0cbe
00000110: 9654 06bd 6043 403c 13d0 46bc 48dd 8fba
00000120: d90d 753c e14d 283d 1b63 96bd 26fd 173d
00000130: e013 08be 2cd5 7fbd b90c 243d 4faf a0bc
00000140: 9026 babc cf35 e73c fe9e bd3c 9a8e 023c
00000150: ce6d e33c 6641 a43d 4db3 cc3d 46de 373c
00000160: 6370 cf3d 0dfe 1f3e c1e8 a5bb 4e02 653c
00000170: 2fe6 0cbc 08b3 9abb 4545 cc3c 7eab f2bc
00000180: c6a8 ca3b e753 c83c 0db1 5f3d d008 1c3c
00000190: d9b5 f83b 4609 b83c 0743 adbc 15a5 c03c
000001a0: e76c 603b 8266 0cbc 6310 dd3c c127 663d
000001b0: 0963 fc3c d135 b4bc 210b 88bd a507 993d
000001c0: c6d6 13bc 79bc 72bd d9a7 983d a414 25bd
000001d0: d04a 96bb 77cd fa3c 5ad6 dcbc fe23 90bc
000001e0: d435 9c3d e4eb ae3b 8a82 81bc 65f9 9e3d
000001f0: 8849 6abc 0fbf 913c bafa 4d3d 7edf 42bc
00000200: a85e feb9 1e92 863d 50cd 413c ea3b 93bc
00000210: 834b 7c3d 0425 9cbc 8261 283b 0fbe 91bd
00000220: 7663 bcbc 9174 7fbd 1b2e 8bbd 3543 49be
00000230: e052 aebb dfac 5fbe 638c 33be 5d70 d2bd
00000240: 72b3 a7bc 5a1d 33bc fbe0 02bd cdc4 04bd
00000250: 912a 4dbe 8dbc 6a3d 0e29 9cbe b67a e9bd
00000260: 5aac b2bd 0bc5 903c 77c3 453b 0784 0bbd
00000270: 9bc6 31bd 4991 65be d78d 643d c045 89be
00000280: 7db9 dcbd 8736 f4bd ee13 e4bd 01e5 61bd
00000290: 5ec7 b6bc 0e4e 88bc d700 853d ba72 893d
000002a0: 744d 293b f6e4 843c 1d24 4a3d 968b ddbd
000002b0: 0809 4ebd b918 3cbc 636f 27bd a0b0 123d
000002c0: 0fee 0abc 4230 b5bc cbb9 3ebd d187 933b
000002d0: b4a4 e1bd ba4f 85bd 7cad 68bc 05ab 08bd
000002e0: 9e90 4f3d bfe4 ae3c 3f8c 3dbd 1008 933c
000002f0: 5839 513d 7e05 83bc 3f47 fe3b 104a a03d
00000300: 446e d73c d7c2 1e3c 27b1 063e 9ad7 39bd
00000310: a918 cb3d d67e 7b3d fa21 82bb 5f8f 4abd
00000320: 2719 953d 8862 d5bb cf83 99bd 6c04 c03b
00000330: 6c34 a7bd e970 9e3c dfe7 a1bc dc7f 1abc
00000340: 3cda c7bc 93c8 533d b81d b13b fdfd 29bd
00000350: dca3 7a3d 017a cfbd e54d ae3c 6e54 fb3c
00000360: 55bf 76bc 5ac8 073d ff37 4fbc 0611 04bd
00000370: 8aef 983c 143f 91bd 4f7c bebd f89d 023d
00000380: ad3f adbd 7fcf aebc 5d04 073d 2199 72bc
00000390: 73ec 13bd 2773 f53b d018 bfbd 7bea 5cbd
000003a0: 93d2 8c3c 5717 a0bd 404f 0ebd a73e 653c
000003b0: 15c5 cdbc df78 96bd 03e4 263c d808 7dbd
000003c0: 4061 6ebd 57e5 463d dcf8 9bbd cfd3 cb3c
000003d0: 73b2 46bd 473c 07be 3bef 68bd 32ff 6cbd
000003e0: 9c22 e43c 72c5 84bc ff93 f03d a0c0 993b
000003f0: bb4c 493d b1a1 40bc 703e c6bd 27c3 4cbd

model1.2.conv.bias f4 [16]
0.048123125 0.034326803 0.008581391 0.027486758 0.043224864 0.031772573 -0.008309056 0.048943393
-0.025563966 -0.030967938 -0.036227822 0.04339309 0.050302006 0.037633665 0.046304457 -0.036233783
00000000: c11c 453d 439a 0c3d f698 0c3c e92b e13c
00000010: 8e0c 313d f523 023d b522 08bc de78 483d
00000020: 866b d1bc 79b0 fdbc a063 14bd f4bc 313d
00000030: 7a09 4e3d c225 1a3d bea9 3d3d e069 14bd

model1.2.batch_norm.weight f4 [16]
0.53475285 0.44801253 0.46595064 0.5187309 0.55714166 0.490786 0.47407866 0.45821452
0.54597723 0.45247504 0.5149025 0.44285458 0.5228732 0.538657 0.54060215 0.44471347
00000000: 90e5 083f e661 e53e 1591 ee3e 8ccb 043f
00000010: d6a0 0e3f 4d48 fb3e 70ba f23e 189b ea3e
00000020: 2ac5 0b3f cfaa e73e a6d0 033f d6bd e23e
00000030: 05db 053f 6de5 093f e764 0a3f 7cb1 e33e

model1.2.batch_norm.bias f4 [16]
-0.19893596 -0.28755918 -0.39329278 -0.24245949 -0.20328449 -0.23563406 -0.35036495 -0.3136294
-0.15947609 -0.38302755 -0.4689001 -0.37191018 -0.47767037 -0.29684266 -0.40196428 -0.21953717
00000000: deb5 4bbe f53a 93be ac5d c9be 4d47 78be
00000010: cf29 50be 0e4a 71be 0963 b3be 0894 a0be
00000020: b34d 23be 301c c4be ad13 f0be 036b bebe
00000030: 3691 f4be c3fb 97be 43ce cdbe 5ace 60be

model1.2.batch_norm.running_mean f4 [16]
-0.6042455 -0.92582226 -0.98408484 -0.701447 -0.55999786 -0.50203925 -0.55608106 -0.8061893
-0.65432996 -0.9752414 -0.89698195 -0.96016854 -0.75806165 -0.61965746 -0.74072886 -0.5742794
00000000: d5af 1abf b002 6dbf fcec 7bbf 0892 33bf
00000010: 055c 0fbf a585 00bf 545b 0ebf 6c62 4ebf
00000020: 2b82 27bf 6ca9 79bf 9ca0 65bf 9bcd 75bf
00000030: 5410 42bf dfa1 1ebf 68a0 3dbf fa03 13bf

model1.2.batch_norm.running_var f4 [16]
0.993984 0.9761564 1.4739456 1.2133645 0.86094224 1.0669379 0.81000996 0.92092025
1.2375243 1.2695998 0.8559326 1.1547945 0.9198513 0.75784856 0.88135123 0.72847295
00000000: bc75 7e3f 63e5 793f 40aa bc3f 874f 9b3f
00000010: b666 5c3f 6c91 883f d05c 4f3f 6ec1 6b3f
00000020: 3267 9e3f 3f82 a23f 661e 5b3f 4ed0 933f
00000030: 607b 6b3f 5d02 423f 3ca0 613f 347d 3a3f

model1.4.conv.weight f4 [16, 16, 3, 3, 3]
0.011805878 0.06487226 0.023574581 0.04790916 0.20856522 0.010484694 0.012590825 -0.00651451
0.022524627 0.0045997105 -0.010343298 0.0122023905 0.011968664 -0.889286 0.024486601 -0.005475443
-0.0063425414 0.010786986 -0.003306512 0.018278204 0.009792436 -0.0012757414 0.17642547 0.016900115
-0.0012114982 -0.005017786 0.009403938 0.042288512 0.04397371 -0.011434799 -0.10119701 0.0017209372
-0.12674466 -0.012956992 0.09531612 -0.08123979 -0.006594057 0.02233267 -0.020007912 -0.08716193
0.02663951 -0.18238382 -0.008640422 0.066347115 -0.101635404 -0.0013671551 0.038326543 -0.075284965
-0.11226945 0.013215475 -0.22867383 0.0055919564 0.030186834 -0.04606712 -0.008374663 -0.0060561276
-0.27526948 0.05136056 -0.12367758 -0.050917167 -0.017544363 -0.046810128 -0.06589384 -0.011400584
0.038637746 -0.14441773 0.03774101 -0.13763219 -0.03279551 0.011734813 -0.01213457 -0.0010975981
0.014956915 0.041089896 -0.073431216 0.037106656 -0.13288832 -0.062459156 0.040051196 -0.019614844
-0.022723466 0.0282239 0.023147102 0.007968569 0.02776232 0.08020286 0.099951364 0.011222428
0.10128858 0.15624256 -0.005063147 0.0139776 -0.008599802 -0.004721049 0.024935374 -0.02962279
0.00618467 0.02445407 0.05461221 0.009523585 0.0075900373 0.02246536 -0.021150125 0.023516217
0.0034244598 -0.008569362 0.026985353 0.056190256 0.030808942 -0.021998318 -0.06642748 0.07472161
-0.009023374 -0.059261773 0.074538894 -0.040302888 -0.004586555 0.030615551 -0.02695768 -0.017595287
0.076274544 0.005338179 -0.015809316 0.07762412 -0.014299758 0.0177913 0.05028794 -0.011894105
-0.0004851718 0.065708384 0.0118287355 -0.017972905 0.06159545 -0.01906062 0.0025692885 -0.07116329
-0.022996645 -0.062367026 -0.06795903 -0.19654544 -0.005319938 -0.21843289 -0.17534022 -0.10275338
-0.020471308 -0.010932291 -0.03195284 -0.032414246 -0.20035769 0.057308722 -0.30500072 -0.114003584
-0.0872428 0.017672082 0.003017632 -0.034061458 -0.043402296 -0.22418703 0.05579933 -0.26811028
-0.107775666 -0.11924463 -0.11136614 -0.055150036 -0.022311863 -0.016638782 0.06494301 0.067113355
0.002583352 0.016222458 0.049350847 -0.108176395 -0.05030158 -0.011480504 -0.04087771 0.035812974
-0.008479609 -0.022117738 -0.046563905 0.0045022746 -0.11017743 -0.06509347 -0.014201518 -0.033366222
0.050675027 0.021349309 -0.046276327 0.01794818 0.051080078 -0.01599383 0.007759958 0.07826626
0.026297696 0.009690008 0.13153516 -0.04537163 0.09916813 0.061400257 -0.0039713355 -0.049453136
0.07280188 -0.00651199 -0.074958436 0.005859902 -0.081642956 0.01934095 -0.019763885 -0.009429898
-0.024396054 0.051704954 0.005405154 -0.041501988 0.061191425 -0.10130692 0.021277377 0.030679908
-0.015060266 0.033150055 -0.012647628 -0.032242797 0.018668909 -0.07092109 -0.09301054 0.031888932
-0.08459411 -0.021339176 0.032963146 -0.014807017 -0.036114167 0.007490534 -0.093309045 -0.053934556
0.017190253 -0.07816952 -0.034743547 0.013991988 -0.02511839 -0.07347273 0.010186198 -0.061776012
-0.058198214 0.04855856 -0.076158255 0.024881272 -0.048510026 -0.13206588 -0.056868773 -0.05786056
0.027848534 -0.01620743 0.11746978 0.004692152 0.04914544 -0.0117573 -0.09679878 -0.0499908
00000000: 716d 413c bfdb 843d 7b1f c13c 653c 443d
00000010: 1f92 553e fec7 2b3c bf49 4e3c ac77 d5bb
00000020: 9185 b83c 2bb9 963b f076 29bc 89ec 473c
00000030: 3718 443c 3fa8 63bf 2098 c83c 586b b3bb
00000040: 18d5 cfbb e6bb 303c 11b2 58bb 2cbc 953c
00000050: 7470 203c c736 a7ba e1a8 343e 1c72 8a3c
00000060: 22cb 9eba 3d6c a4bb fa12 1a3c b836 2d3d
00000070: c71d 343d 0659 3bbc 6140 cfbd 1291 e13a
00000080: 5ac9 01be 9049 54bc 1935 c33d 0c61 a6bd
00000090: f612 d8bb 01f3 b63c a2e7 a3bc f481 b2bd
000000a0: 1a3b da3c d3c2 3abe 8e90 0dbc ffe0 873d
000000b0: 3926 d0bd 1d32 b3ba 4bfc 1c3d 012f 9abd
000000c0: 87ed e5bd b885 583c 7929 6abe bb3c b73b
000000d0: 614a f73c e0b0 3cbd e235 09bc 7b72 c6bb
000000e0: 1ff0 8cbe 735f 523d ac4a fdbd 858e 50bd
000000f0: 32b9 8fbc fabb 3fbd 59f3 86bd 84c9 3abc
00000100: 9d42 1e3d 3ee2 13be 5196 1a3d 74ef 0cbe
00000110: 9654 06bd 6043 403c 13d0 46bc 48dd 8fba
00000120: d90d 753c e14d 283d 1b63 96bd 26fd 173d
00000130: e013 08be 2cd5 7fbd b90c 243d 4faf a0bc
00000140: 9026 babc cf35 e73c fe9e bd3c 9a8e 023c
00000150: ce6d e33c 6641 a43d 4db3 cc3d 46de 373c
00000160: 6370 cf3d 0dfe 1f3e c1e8 a5bb 4e02 653c
00000170: 2fe6 0cbc 08b3 9abb 4545 cc3c 7eab f2bc
00000180: c6a8 ca3b e753 c83c 0db1 5f3d d008 1c3c
00000190: d9b5 f83b 4609 b83c 0743 adbc 15a5 c03c
000001a0: e76c 603b 8266 0cbc 6310 dd3c c127 663d
000001b0: 0963 fc3c d135 b4bc 210b 88bd a507 993d
000001c0: c6d6 13bc 79bc 72bd d9a7 983d a414 25bd
000001d0: d04a 96bb 77cd fa3c 5ad6 dcbc fe23 90bc
000001e0: d435 9c3d e4eb ae3b 8a82 81bc 65f9 9e3d
000001f0: 8849 6abc 0fbf 913c bafa 4d3d 7edf 42bc
00000200: a85e feb9 1e92 863d 50cd 413c ea3b 93bc
00000210: 834b 7c3d 0425 9cbc 8261 283b 0fbe 91bd
00000220: 7663 bcbc 9174 7fbd 1b2e 8bbd 3543 49be
00000230: e052 aebb dfac 5fbe 638c 33be 5d70 d2bd
00000240: 72b3 a7bc 5a1d 33bc fbe0 02bd cdc4 04bd
00000250: 912a 4dbe 8dbc 6a3d 0e29 9cbe b67a e9bd
00000260: 5aac b2bd 0bc5 903c 77c3 453b 0784 0bbd
00000270: 9bc6 31bd 4991 65be d78d 643d c045 89be
00000280: 7db9 dcbd 8736 f4bd ee13 e4bd 01e5 61bd
00000290: 5ec7 b6bc 0e4e 88bc d700 853d ba72 893d
000002a0: 744d 293b f6e4 843c 1d24 4a3d 968b ddbd
000002b0: 0809 4ebd b918 3cbc 636f 27bd a0b0 123d
000002c0: 0fee 0abc 4230 b5bc cbb9 3ebd d187 933b
000002d0: b4a4 e1bd ba4f 85bd 7cad 68bc 05ab 08bd
000002e0: 9e90 4f3d bfe4 ae3c 3f8c 3dbd 1008 933c
000002f0: 5839 513d 7e05 83bc 3f47 fe3b 104a a03d
00000300: 446e d73c d7c2 1e3c 27b1 063e 9ad7 39bd
00000310: a918 cb3d d67e 7b3d fa21 82bb 5f8f 4abd
00000320: 2719 953d 8862 d5bb cf83 99bd 6c04 c03b
00000330: 6c34 a7bd e970 9e3c dfe7 a1bc dc7f 1abc
00000340: 3cda c7bc 93c8 533d b81d b13b fdfd 29bd
00000350: dca3 7a3d 017a cfbd e54d ae3c 6e54 fb3c
00000360: 55bf 76bc 5ac8 073d ff37 4fbc 0611 04bd
00000370: 8aef 983c 143f 91bd 4f7c bebd f89d 023d
00000380: ad3f adbd 7fcf aebc 5d04 073d 2199 72bc
00000390: 73ec 13bd 2773 f53b d018 bfbd 7bea 5cbd
000003a0: 93d2 8c3c 5717 a0bd 404f 0ebd a73e 653c
000003b0: 15c5 cdbc df78 96bd 03e4 263c d808 7dbd
000003c0: 4061 6ebd 57e5 463d dcf8 9bbd cfd3 cb3c
000003d0: 73b2 46bd 473c 07be 3bef 68bd 32ff 6cbd
000003e0: 9c22 e43c 72c5 84bc ff93 f03d a0c0 993b
000003f0: bb4c 493d b1a1 40bc 703e c6bd 27c3 4cbd

model1.4.conv.bias f4 [16]
0.048123125 0.034326803 0.008581391 0.027486758 0.043224864 0.031772573 -0.008309056 0.048943393
-0.025563966 -0.030967938 -0.036227822 0.04339309 0.050302006 0.037633665 0.046304457 -0.036233783
00000000: c11c 453d 439a 0c3d f698 0c3c e92b e13c
00000010: 8e0c 313d f523 023d b522 08bc de78 483d
00000020: 866b d1bc 79b0 fdbc a063 14bd f4bc 313d
00000030: 7a09 4e3d c225 1a3d bea9 3d3d e069 14bd

model1.4.batch_norm.weight f4 [16]
0.53475285 0.44801253 0.46595064 0.5187309 0.55714166 0.490786 0.47407866 0.45821452
0.54597723 0.45247504 0.5149025 0.44285458 0.5228732 0.538657 0.54060215 0.44471347
00000000: 90e5 083f e661 e53e 1591 ee3e 8ccb 043f
00000010: d6a0 0e3f 4d48 fb3e 70ba f23e 189b ea3e
00000020: 2ac5 0b3f cfaa e73e a6d0 033f d6bd e23e
00000030: 05db 053f 6de5 093f e764 0a3f 7cb1 e33e

model1.4.batch_norm.bias f4 [16]
-0.19893596 -0.28755918 -0.39329278 -0.24245949 -0.20328449 -0.23563406 -0.35036495 -0.3136294
-0.15947609 -0.38302755 -0.4689001 -0.37191018 -0.47767037 -0.29684266 -0.40196428 -0.21953717
00000000: deb5 4bbe f53a 93be ac5d c9be 4d47 78be
00000010: cf29 50be 0e4a 71be 0963 b3be 0894 a0be
00000020: b34d 23be 301c c4be ad13 f0be 036b bebe
00000030: 3691 f4be c3fb 97be 43ce cdbe 5ace 60be

model1.4.batch_norm.running_mean f4 [16]
-0.6042455 -0.92582226 -0.98408484 -0.701447 -0.55999786 -0.50203925 -0.55608106 -0.8061893
-0.65432996 -0.9752414 -0.89698195 -0.96016854 -0.75806165 -0.61965746 -0.74072886 -0.5742794
00000000: d5af 1abf b002 6dbf fcec 7bbf 0892 33bf
00000010: 055c 0fbf a585 00bf 545b 0ebf 6c62 4ebf
00000020: 2b82 27bf 6ca9 79bf 9ca0 65bf 9bcd 75bf
00000030: 5410 42bf dfa1 1ebf 68a0 3dbf fa03 13bf

model1.4.batch_norm.running_var f4 [16]
0.993984 0.9761564 1.4739456 1.2133645 0.86094224 1.0669379 0.81000996 0.92092025
1.2375243 1.2695998 0.8559326 1.1547945 0.9198513 0.75784856 0.88135123 0.72847295
00000000: bc75 7e3f 63e5 793f 40aa bc3f 874f 9b3f
00000010: b666 5c3f 6c91 883f d05c 4f3f 6ec1 6b3f
00000020: 3267 9e3f 3f82 a23f 661e 5b3f 4ed0 933f
00000030: 607b 6b3f 5d02 423f 3ca0 613f 347d 3a3f

model1.6.conv.weight f4 [16, 16, 3, 3, 3]
0.011805878 0.06487226 0.023574581 0.04790916 0.20856522 0.010484694 0.012590825 -0.00651451
0.022524627 0.0045997105 -0.010343298 0.0122023905 0.011968664 -0.889286 0.024486601 -0.005475443
-0.0063425414 0.010786986 -0.003306512 0.018278204 0.009792436 -0.0012757414 0.17642547 0.016900115
-0.0012114982 -0.005017786 0.009403938 0.042288512 0.04397371 -0.011434799 -0.10119701 0.0017209372
-0.12674466 -0.012956992 0.09531612 -0.08123979 -0.006594057 0.02233267 -0.020007912 -0.08716193
0.02663951 -0.18238382 -0.008640422 0.066347115 -0.101635404 -0.0013671551 0.038326543 -0.075284965
-0.11226945 0.013215475 -0.22867383 0.0055919564 0.030186834 -0.04606712 -0.008374663 -0.0060561276
-0.27526948 0.05136056 -0.12367758 -0.050917167 -0.017544363 -0.046810128 -0.06589384 -0.011400584
0.038637746 -0.14441773 0.03774101 -0.13763219 -0.03279551 0.011734813 -0.01213457 -0.0010975981
0.014956915 0.041089896 -0.073431216 0.037106656 -0.13288832 -0.062459156 0.040051196 -0.019614844
-0.022723466 0.0282239 0.023147102 0.007968569 0.02776232 0.08020286 0.099951364 0.011222428
0.10128858 0.15624256 -0.005063147 0.0139776 -0.008599802 -0.004721049 0.024935374 -0.02962279
0.00618467 0.02445407 0.05461221 0.009523585 0.0075900373 0.02246536 -0.021150125 0.023516217
0.0034244598 -0.008569362 0.026985353 0.056190256 0.030808942 -0.021998318 -0.06642748 0.07472161
-0.009023374 -0.059261773 0.074538894 -0.040302888 -0.004586555 0.030615551 -0.02695768 -0.017595287
0.076274544 0.005338179 -0.015809316 0.07762412 -0.014299758 0.0177913 0.05028794 -0.011894105
-0.0004851718 0.065708384 0.0118287355 -0.017972905 0.06159545 -0.01906062 0.0025692885 -0.07116329
-0.022996645 -0.062367026 -0.06795903 -0.19654544 -0.005319938 -0.21843289 -0.17534022 -0.10275338
-0.020471308 -0.010932291 -0.03195284 -0.032414246 -0.20035769 0.057308722 -0.30500072 -0.114003584
-0.0872428 0.017672082 0.003017632 -0.034061458 -0.043402296 -0.22418703 0.05579933 -0.26811028
-0.107775666 -0.11924463 -0.11136614 -0.055150036 -0.022311863 -0.016638782 0.06494301 0.067113355
0.002583352 0.016222458 0.049350847 -0.108176395 -0.05030158 -0.011480504 -0.04087771 0.035812974
-0.008479609 -0.022117738 -0.046563905 0.0045022746 -0.11017743 -0.06509347 -0.014201518 -0.033366222
0.050675027 0.021349309 -0.046276327 0.01794818 0.051080078 -0.01599383 0.007759958 0.07826626
0.026297696 0.009690008 0.13153516 -0.04537163 0.09916813 0.061400257 -0.0039713355 -0.049453136
0.07280188 -0.00651199 -0.074958436 0.005859902 -0.081642956 0.01934095 -0.019763885 -0.009429898
-0.024396054 0.051704954 0.005405154 -0.041501988 0.061191425 -0.10130692 0.021277377 0.030679908
-0.015060266 0.033150055 -0.012647628 -0.032242797 0.018668909 -0.07092109 -0.09301054 0.031888932
-0.08459411 -0.021339176 0.032963146 -0.014807017 -0.036114167 0.007490534 -0.093309045 -0.053934556
0.017190253 -0.07816952 -0.034743547 0.013991988 -0.02511839 -0.07347273 0.010186198 -0.061776012
-0.058198214 0.04855856 -0.076158255 0.024881272 -0.048510026 -0.13206588 -0.056868773 -0.05786056
0.027848534 -0.01620743 0.11746978 0.004692152 0.04914544 -0.0117573 -0.09679878 -0.0499908
00000000: 716d 413c bfdb 843d 7b1f c13c 653c 443d
00000010: 1f92 553e fec7 2b3c bf49 4e3c ac77 d5bb
00000020: 9185 b83c 2bb9 963b f076 29bc 89ec 473c
00000030: 3718 443c 3fa8 63bf 2098 c83c 586b b3bb
00000040: 18d5 cfbb e6bb 303c 11b2 58bb 2cbc 953c
00000050: 7470 203c c736 a7ba e1a8 343e 1c72 8a3c
00000060: 22cb 9eba 3d6c a4bb fa12 1a3c b836 2d3d
00000070: c71d 343d 0659 3bbc 6140 cfbd 1291 e13a
00000080: 5ac9 01be 9049 54bc 1935 c33d 0c61 a6bd
00000090: f612 d8bb 01f3 b63c a2e7 a3bc f481 b2bd
000000a0: 1a3b da3c d3c2 3abe 8e90 0dbc ffe0 873d
000000b0: 3926 d0bd 1d32 b3ba 4bfc 1c3d 012f 9abd
000000c0: 87ed e5bd b885 583c 7929 6abe bb3c b73b
000000d0: 614a f73c e0b0 3cbd e235 09bc 7b72 c6bb
000000e0: 1ff0 8cbe 735f 523d ac4a fdbd 858e 50bd
000000f0: 32b9 8fbc fabb 3fbd 59f3 86bd 84c9 3abc
00000100: 9d42 1e3d 3ee2 13be 5196 1a3d 74ef 0cbe
00000110: 9654 06bd 6043 403c 13d0 46bc 48dd 8fba
00000120: d90d 753c e14d 283d 1b63 96bd 26fd 173d
00000130: e013 08be 2cd5 7fbd b90c 243d 4faf a0bc
00000140: 9026 babc cf35 e73c fe9e bd3c 9a8e 023c
00000150: ce6d e33c 6641 a43d 4db3 cc3d 46de 373c
00000160: 6370 cf3d 0dfe 1f3e c1e8 a5bb 4e02 653c
00000170: 2fe6 0cbc 08b3 9abb 4545 cc3c 7eab f2bc
00000180: c6a8 ca3b e753 c83c 0db1 5f3d d008 1c3c
00000190: d9b5 f83b 4609 b83c 0743 adbc 15a5 c03c
000001a0: e76c 603b 8266 0cbc 6310 dd3c c127 663d
000001b0: 0963 fc3c d135 b4bc 210b 88bd a507 993d
000001c0: c6d6 13bc 79bc 72bd d9a7 983d a414 25bd
000001d0: d04a 96bb 77cd fa3c 5ad6 dcbc fe23 90bc
000001e0: d435 9c3d e4eb ae3b 8a82 81bc 65f9 9e3d
000001f0: 8849 6abc 0fbf 913c bafa 4d3d 7edf 42bc
00000200: a85e feb9 1e92 863d 50cd 413c ea3b 93bc
00000210: 834b 7c3d 0425 9cbc 8261 283b 0fbe 91bd
00000220: 7663 bcbc 9174 7fbd 1b2e 8bbd 3543 49be
00000230: e052 aebb dfac 5fbe 638c 33be 5d70 d2bd
00000240: 72b3 a7bc 5a1d 33bc fbe0 02bd cdc4 04bd
00000250: 912a 4dbe 8dbc 6a3d 0e29 9cbe b67a e9bd
00000260: 5aac b2bd 0bc5 903c 77c3 453b 0784 0bbd
00000270: 9bc6 31bd 4991 65be d78d 643d c045 89be
00000280: 7db9 dcbd 8736 f4bd ee13 e4bd 01e5 61bd
00000290: 5ec7 b6bc 0e4e 88bc d700 853d ba72 893d
000002a0: 744d 293b f6e4 843c 1d24 4a3d 968b ddbd
000002b0: 0809 4ebd b918 3cbc 636f 27bd a0b0 123d
000002c0: 0fee 0abc 4230 b5bc cbb9 3ebd d187 933b
000002d0: b4a4 e1bd ba4f 85bd 7cad 68bc 05ab 08bd
000002e0: 9e90 4f3d bfe4 ae3c 3f8c 3dbd 1008 933c
000002f0: 5839 513d 7e05 83bc 3f47 fe3b 104a a03d
00000300: 446e d73c d7c2 1e3c 27b1 063e 9ad7 39bd
00000310: a918 cb3d d67e 7b3d fa21 82bb 5f8f 4abd
00000320: 2719 953d 8862 d5bb cf83 99bd 6c04 c03b
00000330: 6c34 a7bd e970 9e3c dfe7 a1bc dc7f 1abc
00000340: 3cda c7bc 93c8 533d b81d b13b fdfd 29bd
00000350: dca3 7a3d 017a cfbd e54d ae3c 6e54 fb3c
00000360: 55bf 76bc 5ac8 073d ff37 4fbc 0611 04bd
00000370: 8aef 983c 143f 91bd 4f7c bebd f89d 023d
00000380: ad3f adbd 7fcf aebc 5d04 073d 2199 72bc
00000390: 73ec 13bd 2773 f53b d018 bfbd 7bea 5cbd
000003a0: 93d2 8c3c 5717 a0bd 404f 0ebd a73e 653c
000003b0: 15c5 cdbc df78 96bd 03e4 263c d808 7dbd
000003c0: 4061 6ebd 57e5 463d dcf8 9bbd cfd3 cb3c
000003d0: 73b2 46bd 473c 07be 3bef 68bd 32ff 6cbd
000003e0: 9c22 e43c 72c5 84bc ff93 f03d a0c0 993b
000003f0: bb4c 493d b1a1 40bc 703e c6bd 27c3 4cbd

model1.6.conv.bias f4 [16]
0.048123125 0.034326803 0.008581391 0.027486758 0.043224864 0.031772573 -0.008309056 0.048943393
-0.025563966 -0.030967938 -0.036227822 0.04339309 0.050302006 0.037633665 0.046304457 -0.036233783
00000000: c11c 453d 439a 0c3d f698 0c3c e92b e13c
00000010: 8e0c 313d f523 023d b522 08bc de78 483d
00000020: 866b d1bc 79b0 fdbc a063 14bd f4bc 313d
00000030: 7a09 4e3d c225 1a3d bea9 3d3d e069 14bd

model1.6.batch_norm.weight f4 [16]
0.53475285 0.44801253 0.46595064 0.5187309 0.55714166 0.490786 0.47407866 0.45821452
0.54597723 0.45247504 0.5149025 0.44285458 0.5228732 0.538657 0.54060215 0.44471347
00000000: 90e5 083f e661 e53e 1591 ee3e 8ccb 043f
00000010: d6a0 0e3f 4d48 fb3e 70ba f23e 189b ea3e
00000020: 2ac5 0b3f cfaa e73e a6d0 033f d6bd e23e
00000030: 05db 053f 6de5 093f e764 0a3f 7cb1 e33e

model1.6.batch_norm.bias f4 [16]
-0.19893596 -0.28755918 -0.39329278 -0.24245949 -0.20328449 -0.23563406 -0.35036495 -0.3136294
-0.15947609 -0.38302755 -0.4689001 -0.37191018 -0.47767037 -0.29684266 -0.40196428 -0.21953717
00000000: deb5 4bbe f53a 93be ac5d c9be 4d47 78be
00000010: cf29 50be 0e4a 71be 0963 b3be 0894 a0be
00000020: b34d 23be 301c c4be ad13 f0be 036b bebe
00000030: 3691 f4be c3fb 97be 43ce cdbe 5ace 60be

model1.6.batch_norm.running_mean f4 [16]
-0.6042455 -0.92582226 -0.98408484 -0.701447 -0.55999786 -0.50203925 -0.55608106 -0.8061893
-0.65432996 -0.9752414 -0.89698195 -0.96016854 -0.75806165 -0.61965746 -0.74072886 -0.5742794
00000000: d5af 1abf b002 6dbf fcec 7bbf 0892 33bf
00000010: 055c 0fbf a585 00bf 545b 0ebf 6c62 4ebf
00000020: 2b82 27bf 6ca9 79bf 9ca0 65bf 9bcd 75bf
00000030: 5410 42bf dfa1 1ebf 68a0 3dbf fa03 13bf

model1.6.batch_norm.running_var f4 [16]
0.993984 0.9761564 1.4739456 1.2133645 0.86094224 1.0669379 0.81000996 0.92092025
1.2375243 1.2695998 0.8559326 1.1547945 0.9198513 0.75784856 0.88135123 0.72847295
00000000: bc75 7e3f 63e5 793f 40aa bc3f 874f 9b3f
00000010: b666 5c3f 6c91 883f d05c 4f3f 6ec1 6b3f
00000020: 3267 9e3f 3f82 a23f 661e 5b3f 4ed0 933f
00000030: 607b 6b3f 5d02 423f 3ca0 613f 347d 3a3f

model1.8.conv.weight f4 [16, 16, 3, 3, 3]
0.011805878 0.06487226 0.023574581 0.04790916 0.20856522 0.010484694 0.012590825 -0.00651451
0.022524627 0.0045997105 -0.010343298 0.0122023905 0.011968664 -0.889286 0.024486601 -0.005475443
-0.0063425414 0.010786986 -0.003306512 0.018278204 0.009792436 -0.0012757414 0.17642547 0.016900115
-0.0012114982 -0.005017786 0.009403938 0.042288512 0.04397371 -0.011434799 -0.10119701 0.0017209372
-0.12674466 -0.012956992 0.09531612 -0.08123979 -0.006594057 0.02233267 -0.020007912 -0.08716193
0.02663951 -0.18238382 -0.008640422 0.066347115 -0.101635404 -0.0013671551 0.038326543 -0.075284965
-0.11226945 0.013215475 -0.22867383 0.0055919564 0.030186834 -0.04606712 -0.008374663 -0.0060561276
-0.27526948 0.05136056 -0.12367758 -0.050917167 -0.017544363 -0.046810128 -0.06589384 -0.011400584
0.038637746 -0.14441773 0.03774101 -0.13763219 -0.03279551 0.011734813 -0.01213457 -0.0010975981
0.014956915 0.041089896 -0.073431216 0.037106656 -0.13288832 -0.062459156 0.040051196 -0.019614844
-0.022723466 0.0282239 0.023147102 0.007968569 0.02776232 0.08020286 0.099951364 0.011222428
0.10128858 0.15624256 -0.005063147 0.0139776 -0.008599802 -0.004721049 0.024935374 -0.02962279
0.00618467 0.02445407 0.05461221 0.009523585 0.0075900373 0.02246536 -0.021150125 0.023516217
0.0034244598 -0.008569362 0.026985353 0.056190256 0.030808942 -0.021998318 -0.06642748 0.07472161
-0.009023374 -0.059261773 0.074538894 -0.040302888 -0.004586555 0.030615551 -0.02695768 -0.017595287
0.076274544 0.005338179 -0.015809316 0.07762412 -0.014299758 0.0177913 0.05028794 -0.011894105
-0.0004851718 0.065708384 0.0118287355 -0.017972905 0.06159545 -0.01906062 0.0025692885 -0.07116329
-0.022996645 -0.062367026 -0.06795903 -0.19654544 -0.005319938 -0.21843289 -0.17534022 -0.10275338
-0.020471308 -0.010932291 -0.03195284 -0.032414246 -0.20035769 0.057308722 -0.30500072 -0.114003584
-0.0872428 0.017672082 0.003017632 -0.034061458 -0.043402296 -0.22418703 0.05579933 -0.26811028
-0.107775666 -0.11924463 -0.11136614 -0.055150036 -0.022311863 -0.016638782 0.06494301 0.067113355
0.002583352 0.016222458 0.049350847 -0.108176395 -0.05030158 -0.011480504 -0.04087771 0.035812974
-0.008479609 -0.022117738 -0.046563905 0.0045022746 -0.11017743 -0.06509347 -0.014201518 -0.033366222
0.050675027 0.021349309 -0.046276327 0.01794818 0.051080078 -0.01599383 0.007759958 0.07826626
0.026297696 0.009690008 0.13153516 -0.04537163 0.09916813 0.061400257 -0.0039713355 -0.049453136
0.07280188 -0.00651199 -0.074958436 0.005859902 -0.081642956 0.01934095 -0.019763885 -0.009429898
-0.024396054 0.051704954 0.005405154 -0.041501988 0.061191425 -0.10130692 0.021277377 0.030679908
-0.015060266 0.033150055 -0.012647628 -0.032242797 0.018668909 -0.07092109 -0.09301054 0.031888932
-0.08459411 -0.021339176 0.032963146 -0.014807017 -0.036114167 0.007490534 -0.093309045 -0.053934556
0.017190253 -0.07816952 -0.034743547 0.013991988 -0.02511839 -0.07347273 0.010186198 -0.061776012
-0.058198214 0.04855856 -0.076158255 0.024881272 -0.048510026 -0.13206588 -0.056868773 -0.05786056
0.027848534 -0.01620743 0.11746978 0.004692152 0.04914544 -0.0117573 -0.09679878 -0.0499908
00000000: 716d 413c bfdb 843d 7b1f c13c 653c 443d
00000010: 1f92 553e fec7 2b3c bf49 4e3c ac77 d5bb
00000020: 9185 b83c 2bb9 963b f076 29bc 89ec 473c
00000030: 3718 443c 3fa8 63bf 2098 c83c 586b b3bb
00000040: 18d5 cfbb e6bb 303c 11b2 58bb 2cbc 953c
00000050: 7470 203c c736 a7ba e1a8 343e 1c72 8a3c
00000060: 22cb 9eba 3d6c a4bb fa12 1a3c b836 2d3d
00000070: c71d 343d 0659 3bbc 6140 cfbd 1291 e13a
00000080: 5ac9 01be 9049 54bc 1935 c33d 0c61 a6bd
00000090: f612 d8bb 01f3 b63c a2e7 a3bc f481 b2bd
000000a0: 1a3b da3c d3c2 3abe 8e90 0dbc ffe0 873d
000000b0: 3926 d0bd 1d32 b3ba 4bfc 1c3d 012f 9abd
000000c0: 87ed e5bd b885 583c 7929 6abe bb3c b73b
000000d0: 614a f73c e0b0 3cbd e235 09bc 7b72 c6bb
000000e0: 1ff0 8cbe 735f 523d ac4a fdbd 858e 50bd
000000f0: 32b9 8fbc fabb 3fbd 59f3 86bd 84c9 3abc
00000100: 9d42 1e3d 3ee2 13be 5196 1a3d 74ef 0cbe
00000110: 9654 06bd 6043 403c 13d0 46bc 48dd 8fba
00000120: d90d 753c e14d 283d 1b63 96bd 26fd 173d
00000130: e013 08be 2cd5 7fbd b90c 243d 4faf a0bc
00000140: 9026 babc cf35 e73c fe9e bd3c 9a8e 023c
00000150: ce6d e33c 6641 a43d 4db3 cc3d 46de 373c
00000160: 6370 cf3d 0dfe 1f3e c1e8 a5bb 4e02 653c
00000170: 2fe6 0cbc 08b3 9abb 4545 cc3c 7eab f2bc
00000180: c6a8 ca3b e753 c83c 0db1 5f3d d008 1c3c
00000190: d9b5 f83b 4609 b83c 0743 adbc 15a5 c03c
000001a0: e76c 603b 8266 0cbc 6310 dd3c c127 663d
000001b0: 0963 fc3c d135 b4bc 210b 88bd a507 993d
000001c0: c6d6 13bc 79bc 72bd d9a7 983d a414 25bd
000001d0: d04a 96bb 77cd fa3c 5ad6 dcbc fe23 90bc
000001e0: d435 9c3d e4eb ae3b 8a82 81bc 65f9 9e3d
000001f0: 8849 6abc 0fbf 913c bafa 4d3d 7edf 42bc
00000200: a85e feb9 1e92 863d 50cd 413c ea3b 93bc
00000210: 834b 7c3d 0425 9cbc 8261 283b 0fbe 91bd
00000220: 7663 bcbc 9174 7fbd 1b2e 8bbd 3543 49be
00000230: e052 aebb dfac 5fbe 638c 33be 5d70 d2bd
00000240: 72b3 a7bc 5a1d 33bc fbe0 02bd cdc4 04bd
00000250: 912a 4dbe 8dbc 6a3d 0e29 9cbe b67a e9bd
00000260: 5aac b2bd 0bc5 903c 77c3 453b 0784 0bbd
00000270: 9bc6 31bd 4991 65be d78d 643d c045 89be
00000280: 7db9 dcbd 8736 f4bd ee13 e4bd 01e5 61bd
00000290: 5ec7 b6bc 0e4e 88bc d700 853d ba72 893d
000002a0: 744d 293b f6e4 843c 1d24 4a3d 968b ddbd
000002b0: 0809 4ebd b918 3cbc 636f 27bd a0b0 123d
000002c0: 0fee 0abc 4230 b5bc cbb9 3ebd d187 933b
000002d0: b4a4 e1bd ba4f 85bd 7cad 68bc 05ab 08bd
000002e0: 9e90 4f3d bfe4 ae3c 3f8c 3dbd 1008 933c
000002f0: 5839 513d 7e05 83bc 3f47 fe3b 104a a03d
00000300: 446e d73c d7c2 1e3c 27b1 063e 9ad7 39bd
00000310: a918 cb3d d67e 7b3d fa21 82bb 5f8f 4abd
00000320: 2719 953d 8862 d5bb cf83 99bd 6c04 c03b
00000330: 6c34 a7bd e970 9e3c dfe7 a1bc dc7f 1abc
00000340: 3cda c7bc 93c8 533d b81d b13b fdfd 29bd
00000350: dca3 7a3d 017a cfbd e54d ae3c 6e54 fb3c
00000360: 55bf 76bc 5ac8 073d ff37 4fbc 0611 04bd
00000370: 8aef 983c 143f 91bd 4f7c bebd f89d 023d
00000380: ad3f adbd 7fcf aebc 5d04 073d 2199 72bc
00000390: 73ec 13bd 2773 f53b d018 bfbd 7bea 5cbd
000003a0: 93d2 8c3c 5717 a0bd 404f 0ebd a73e 653c
000003b0: 15c5 cdbc df78 96bd 03e4 263c d808 7dbd
000003c0: 4061 6ebd 57e5 463d dcf8 9bbd cfd3 cb3c
000003d0: 73b2 46bd 473c 07be 3bef 68bd 32ff 6cbd
000003e0: 9c22 e43c 72c5 84bc ff93 f03d a0c0 993b
000003f0: bb4c 493d b1a1 40bc 703e c6bd 27c3 4cbd

model1.8.conv.bias f4 [16]
0.048123125 0.034326803 0.008581391 0.027486758 0.043224864 0.031772573 -0.008309056 0.048943393
-0.025563966 -0.030967938 -0.036227822 0.04339309 0.050302006 0.037633665 0.046304457 -0.036233783
00000000: c11c 453d 439a 0c3d f698 0c3c e92b e13c
00000010: 8e0c 313d f523 023d b522 08bc de78 483d
00000020: 866b d1bc 79b0 fdbc a063 14bd f4bc 313d
00000030: 7a09 4e3d c225 1a3d bea9 3d3d e069 14bd

model1.8.batch_norm.weight f4 [16]
0.53475285 0.44801253 0.46595064 0.5187309 0.55714166 0.490786 0.47407866 0.45821452
0.54597723 0.45247504 0.5149025 0.44285458 0.5228732 0.538657 0.54060215 0.44471347
00000000: 90e5 083f e661 e53e 1591 ee3e 8ccb 043f
00000010: d6a0 0e3f 4d48 fb3e 70ba f23e 189b ea3e
00000020: 2ac5 0b3f cfaa e73e a6d0 033f d6bd e23e
00000030: 05db 053f 6de5 093f e764 0a3f 7cb1 e33e

model1.8.batch_norm.bias f4 [16]
-0.19893596 -0.28755918 -0.39329278 -0.24245949 -0.20328449 -0.23563406 -0.35036495 -0.3136294
-0.15947609 -0.38302755 -0.4689001 -0.37191018 -0.47767037 -0.29684266 -0.40196428 -0.21953717
00000000: deb5 4bbe f53a 93be ac5d c9be 4d47 78be
00000010: cf29 50be 0e4a 71be 0963 b3be 0894 a0be
00000020: b34d 23be 301c c4be ad13 f0be 036b bebe
00000030: 3691 f4be c3fb 97be 43ce cdbe 5ace 60be

model1.8.batch_norm.running_mean f4 [16]
-0.6042455 -0.92582226 -0.98408484 -0.701447 -0.55999786 -0.50203925 -0.55608106 -0.8061893
-0.65432996 -0.9752414 -0.89698195 -0.96016854 -0.75806165 -0.61965746 -0.74072886 -0.5742794
00000000: d5af 1abf b002 6dbf fcec 7bbf 0892 33bf
00000010: 055c 0fbf a585 00bf 545b 0ebf 6c62 4ebf
00000020: 2b82 27bf 6ca9 79bf 9ca0 65bf 9bcd 75bf
00000030: 5410 42bf dfa1 1ebf 68a0 3dbf fa03 13bf

model1.8.batch_norm.running_var f4 [16]
0.993984 0.9761564 1.4739456 1.2133645 0.86094224 1.0669379 0.81000996 0.92092025
1.2375243 1.2695998 0.8559326 1.1547945 0.9198513 0.75784856 0.88135123 0.72847295
00000000: bc75 7e3f 63e5 793f 40aa bc3f 874f 9b3f
00000010: b666 5c3f 6c91 883f d05c 4f3f 6ec1 6b3f
00000020: 3267 9e3f 3f82 a23f 661e 5b3f 4ed0 933f
00000030: 607b 6b3f 5d02 423f 3ca0 613f 347d 3a3f

model1.10.conv.weight f4 [16, 16, 3, 3, 3]
0.011805878 0.06487226 0.023574581 0.04790916 0.20856522 0.010484694 0.012590825 -0.00651451
0.022524627 0.0045997105 -0.010343298 0.0122023905 0.011968664 -0.889286 0.024486601 -0.005475443
-0.0063425414 0.010786986 -0.003306512 0.018278204 0.009792436 -0.0012757414 0.17642547 0.016900115
-0.0012114982 -0.005017786 0.009403938 0.042288512 0.04397371 -0.011434799 -0.10119701 0.0017209372
-0.12674466 -0.012956992 0.09531612 -0.08123979 -0.006594057 0.02233267 -0.020007912 -0.08716193
0.02663951 -0.18238382 -0.008640422 0.066347115 -0.101635404 -0.0013671551 0.038326543 -0.075284965
-0.11226945 0.013215475 -0.22867383 0.0055919564 0.030186834 -0.04606712 -0.008374663 -0.0060561276
-0.27526948 0.05136056 -0.12367758 -0.050917167 -0.017544363 -0.046810128 -0.06589384 -0.011400584
0.038637746 -0.14441773 0.03774101 -0.13763219 -0.03279551 0.011734813 -0.01213457 -0.0010975981
0.014956915 0.041089896 -0.073431216 0.037106656 -0.13288832 -0.062459156 0.040051196 -0.019614844
-0.022723466 0.0282239 0.023147102 0.007968569 0.02776232 0.08020286 0.099951364 0.011222428
0.10128858 0.15624256 -0.005063147 0.0139776 -0.008599802 -0.004721049 0.024935374 -0.02962279
0.00618467 0.02445407 0.05461221 0.009523585 0.0075900373 0.02246536 -0.021150125 0.023516217
0.0034244598 -0.008569362 0.026985353 0.056190256 0.030808942 -0.021998318 -0.06642748 0.07472161
-0.009023374 -0.059261773 0.074538894 -0.040302888 -0.004586555 0.030615551 -0.02695768 -0.017595287
0.076274544 0.005338179 -0.015809316 0.07762412 -0.014299758 0.0177913 0.05028794 -0.011894105
-0.0004851718 0.065708384 0.0118287355 -0.017972905 0.06159545 -0.01906062 0.0025692885 -0.07116329
-0.022996645 -0.062367026 -0.06795903 -0.19654544 -0.005319938 -0.21843289 -0.17534022 -0.10275338
-0.020471308 -0.010932291 -0.03195284 -0.032414246 -0.20035769 0.057308722 -0.30500072 -0.114003584
-0.0872428 0.017672082 0.003017632 -0.034061458 -0.043402296 -0.22418703 0.05579933 -0.26811028
-0.107775666 -0.11924463 -0.11136614 -0.055150036 -0.022311863 -0.016638782 0.06494301 0.067113355
0.002583352 0.016222458 0.049350847 -0.108176395 -0.05030158 -0.011480504 -0.04087771 0.035812974
-0.008479609 -0.022117738 -0.046563905 0.0045022746 -0.11017743 -0.06509347 -0.014201518 -0.033366222
0.050675027 0.021349309 -0.046276327 0.01794818 0.051080078 -0.01599383 0.007759958 0.07826626
0.026297696 0.009690008 0.13153516 -0.04537163 0.09916813 0.061400257 -0.0039713355 -0.049453136
0.07280188 -0.00651199 -0.074958436 0.005859902 -0.081642956 0.01934095 -0.019763885 -0.009429898
-0.024396054 0.051704954 0.005405154 -0.041501988 0.061191425 -0.10130692 0.021277377 0.030679908
-0.015060266 0.033150055 -0.012647628 -0.032242797 0.018668909 -0.07092109 -0.09301054 0.031888932
-0.08459411 -0.021339176 0.032963146 -0.014807017 -0.036114167 0.007490534 -0.093309045 -0.053934556
0.017190253 -0.07816952 -0.034743547 0.013991988 -0.02511839 -0.07347273 0.010186198 -0.061776012
-0.058198214 0.04855856 -0.076158255 0.024881272 -0.048510026 -0.13206588 -0.056868773 -0.05786056
0.027848534 -0.01620743 0.11746978 0.004692152 0.04914544 -0.0117573 -0.09679878 -0.0499908
00000000: 716d 413c bfdb 843d 7b1f c13c 653c 443d
00000010: 1f92 553e fec7 2b3c bf49 4e3c ac77 d5bb
00000020: 9185 b83c 2bb9 963b f076 29bc 89ec 473c
00000030: 3718 443c 3fa8 63bf 2098 c83c 586b b3bb
00000040: 18d5 cfbb e6bb 303c 11b2 58bb 2cbc 953c
00000050: 7470 203c c736 a7ba e1a8 343e 1c72 8a3c
00000060: 22cb 9eba 3d6c a4bb fa12 1a3c b836 2d3d
00000070: c71d 343d 0659 3bbc 6140 cfbd 1291 e13a
00000080: 5ac9 01be 9049 54bc 1935 c33d 0c61 a6bd
00000090: f612 d8bb 01f3 b63c a2e7 a3bc f481 b2bd
000000a0: 1a3b da3c d3c2 3abe 8e90 0dbc ffe0 873d
000000b0: 3926 d0bd 1d32 b3ba 4bfc 1c3d 012f 9abd
000000c0: 87ed e5bd b885 583c 7929 6abe bb3c b73b
000000d0: 614a f73c e0b0 3cbd e235 09bc 7b72 c6bb
000000e0: 1ff0 8cbe 735f 523d ac4a fdbd 858e 50bd
000000f0: 32b9 8fbc fabb 3fbd 59f3 86bd 84c9 3abc
00000100: 9d42 1e3d 3ee2 13be 5196 1a3d 74ef 0cbe
00000110: 9654 06bd 6043 403c 13d0 46bc 48dd 8fba
00000120: d90d 753c e14d 283d 1b63 96bd 26fd 173d
00000130: e013 08be 2cd5 7fbd b90c 243d 4faf a0bc
00000140: 9026 babc cf35 e73c fe9e bd3c 9a8e 023c
00000150: ce6d e33c 6641 a43d 4db3 cc3d 46de 373c
00000160: 6370 cf3d 0dfe 1f3e c1e8 a5bb 4e02 653c
00000170: 2fe6 0cbc 08b3 9abb 4545 cc3c 7eab f2bc
00000180: c6a8 ca3b e753 c83c 0db1 5f3d d008 1c3c
00000190: d9b5 f83b 4609 b83c 0743 adbc 15a5 c03c
000001a0: e76c 603b 8266 0cbc 6310 dd3c c127 663d
000001b0: 0963 fc3c d135 b4bc 210b 88bd a507 993d
000001c0: c6d6 13bc 79bc 72bd d9a7 983d a414 25bd
000001d0: d04a 96bb 77cd fa3c 5ad6 dcbc fe23 90bc
000001e0: d435 9c3d e4eb ae3b 8a82 81bc 65f9 9e3d
000001f0: 8849 6abc 0fbf 913c bafa 4d3d 7edf 42bc
00000200: a85e feb9 1e92 863d 50cd 413c ea3b 93bc
00000210: 834b 7c3d 0425 9cbc 8261 283b 0fbe 91bd
00000220: 7663 bcbc 9174 7fbd 1b2e 8bbd 3543 49be
00000230: e052 aebb dfac 5fbe 638c 33be 5d70 d2bd
00000240: 72b3 a7bc 5a1d 33bc fbe0 02bd cdc4 04bd
00000250: 912a 4dbe 8dbc 6a3d 0e29 9cbe b67a e9bd
00000260: 5aac b2bd 0bc5 903c 77c3 453b 0784 0bbd
00000270: 9bc6 31bd 4991 65be d78d 643d c045 89be
00000280: 7db9 dcbd 8736 f4bd ee13 e4bd 01e5 61bd
00000290: 5ec7 b6bc 0e4e 88bc d700 853d ba72 893d
000002a0: 744d 293b f6e4 843c 1d24 4a3d 968b ddbd
000002b0: 0809 4ebd b918 3cbc 636f 27bd a0b0 123d
000002c0: 0fee 0abc 4230 b5bc cbb9 3ebd d187 933b
000002d0: b4a4 e1bd ba4f 85bd 7cad 68bc 05ab 08bd
000002e0: 9e90 4f3d bfe4 ae3c 3f8c 3dbd 1008 933c
000002f0: 5839 513d 7e05 83bc 3f47 fe3b 104a a03d
00000300: 446e d73c d7c2 1e3c 27b1 063e 9ad7 39bd
00000310: a918 cb3d d67e 7b3d fa21 82bb 5f8f 4abd
00000320: 2719 953d 8862 d5bb cf83 99bd 6c04 c03b
00000330: 6c34 a7bd e970 9e3c dfe7 a1bc dc7f 1abc
00000340: 3cda c7bc 93c8 533d b81d b13b fdfd 29bd
00000350: dca3 7a3d 017a cfbd e54d ae3c 6e54 fb3c
00000360: 55bf 76bc 5ac8 073d ff37 4fbc 0611 04bd
00000370: 8aef 983c 143f 91bd 4f7c bebd f89d 023d
00000380: ad3f adbd 7fcf aebc 5d04 073d 2199 72bc
00000390: 73ec 13bd 2773 f53b d018 bfbd 7bea 5cbd
000003a0: 93d2 8c3c 5717 a0bd 404f 0ebd a73e 653c
000003b0: 15c5 cdbc df78 96bd 03e4 263c d808 7dbd
000003c0: 4061 6ebd 57e5 463d dcf8 9bbd cfd3 cb3c
000003d0: 73b2 46bd 473c 07be 3bef 68bd 32ff 6cbd
000003e0: 9c22 e43c 72c5 84bc ff93 f03d a0c0 993b
000003f0: bb4c 493d b1a1 40bc 703e c6bd 27c3 4cbd

model1.10.conv.bias f4 [16]
0.048123125 0.034326803 0.008581391 0.027486758 0.043224864 0.031772573 -0.008309056 0.048943393
-0.025563966 -0.030967938 -0.036227822 0.04339309 0.050302006 0.037633665 0.046304457 -0.036233783
00000000: c11c 453d 439a 0c3d f698 0c3c e92b e13c
00000010: 8e0c 313d f523 023d b522 08bc de78 483d
00000020: 866b d1bc 79b0 fdbc a063 14bd f4bc 313d
00000030: 7a09 4e3d c225 1a3d bea9 3d3d e069 14bd

model1.10.batch_norm.weight f4 [16]
0.53475285 0.44801253 0.46595064 0.5187309 0.55714166 0.490786 0.47407866 0.45821452
0.54597723 0.45247504 0.5149025 0.44285458 0.5228732 0.538657 0.54060215 0.44471347
00000000: 90e5 083f e661 e53e 1591 ee3e 8ccb 043f
00000010: d6a0 0e3f 4d48 fb3e 70ba f23e 189b ea3e
00000020: 2ac5 0b3f cfaa e73e a6d0 033f d6bd e23e
00000030: 05db 053f 6de5 093f e764 0a3f 7cb1 e33e

model1.10.batch_norm.bias f4 [16]
-0.19893596 -0.28755918 -0.39329278 -0.24245949 -0.20328449 -0.23563406 -0.35036495 -0.3136294
-0.15947609 -0.38302755 -0.4689001 -0.37191018 -0.47767037 -0.29684266 -0.40196428 -0.21953717
00000000: deb5 4bbe f53a 93be ac5d c9be 4d47 78be
00000010: cf29 50be 0e4a 71be 0963 b3be 0894 a0be
00000020: b34d 23be 301c c4be ad13 f0be 036b bebe
00000030: 3691 f4be c3fb 97be 43ce cdbe 5ace 60be

model1.10.batch_norm.running_mean f4 [16]
-0.6042455 -0.92582226 -0.98408484 -0.701447 -0.55999786 -0.50203925 -0.55608106 -0.8061893
-0.65432996 -0.9752414 -0.89698195 -0.96016854 -0.75806165 -0.61965746 -0.74072886 -0.5742794
00000000: d5af 1abf b002 6dbf fcec 7bbf 0892 33bf
00000010: 055c 0fbf a585 00bf 545b 0ebf 6c62 4ebf
00000020: 2b82 27bf 6ca9 79bf 9ca0 65bf 9bcd 75bf
00000030: 5410 42bf dfa1 1ebf 68a0 3dbf fa03 13bf

model1.10.batch_norm.running_var f4 [16]
0.993984 0.9761564 1.4739456 1.2133645 0.86094224 1.0669379 0.81000996 0.92092025
1.2375243 1.2695998 0.8559326 1.1547945 0.9198513 0.75784856 0.88135123 0.72847295
00000000: bc75 7e3f 63e5 793f 40aa bc3f 874f 9b3f
00000010: b666 5c3f 6c91 883f d05c 4f3f 6ec1 6b3f
00000020: 3267 9e3f 3f82 a23f 661e 5b3f 4ed0 933f
00000030: 607b 6b3f 5d02 423f 3ca0 613f 347d 3a3f
