models/conv3d/lr_0.0005/lr_0.0005/epoch_70.pt (torch, 189848 bytes, 102 tensors)

model1.0.weight f4 [16, 8, 3, 3, 3]
000000 01 8f df bb 05 2c 09 3d f4 b1 ff bc 40 b7 76 3d
       -0.0068224673 0.033489246 -0.031212784 0.060233355
000010 e3 57 63 3c 3d da 17 3c 1b bb 0d 3d b3 a4 2b bd
       0.013875934 0.009268341 0.034602266 -0.041905116
000020 61 5a 69 bd 5c 37 6e bc 13 ab ca bc 57 5c 55 bd
       -0.056970958 -0.014539566 -0.024739778 -0.052090015
000030 11 74 b3 3b 8e 90 aa 3c 19 9d 8b 3c be 2d 24 bd
       0.0054764827 0.020820882 0.017042683 -0.040082686
000040 2e 0f 34 bc 5f a2 9a 3c 8e e5 b3 bc 19 f7 71 bd
       -0.010989947 0.018876253 -0.021960046 -0.05907354
000050 95 03 16 3d f1 6b 67 3d c5 18 f5 3c ac 6d 15 3d
       0.03662451 0.056499425 0.029919038 0.036481544
000060 d9 4d d4 bc 3b 73 1f bd 5d be 69 bc 78 d7 8f 3d
       -0.025916027 -0.03892825 -0.014266578 0.07023519
000070 a9 ee 86 3d 5b 1a ab 3d 6f 81 d4 bb 09 83 f2 bc
       0.065884896 0.08354636 -0.0064851562 -0.029603498
000080 4a 43 5d bd 27 15 63 3d 39 b1 24 bc 6f 1f 8d bc
       -0.05401925 0.055440094 -0.010052019 -0.017226903
000090 eb 0c cd 3c 01 d5 34 bd 3a 18 96 3d bd 11 40 3d
       0.025030574 -0.04414845 0.073288396 0.046891917
0000a0 a6 a9 70 3d ab a1 f0 bc 49 51 06 bd 58 90 0c bc
       0.05875554 -0.029373964 -0.032792363 -0.008579336
0000b0 ce 06 10 bd 8a 39 49 bd 83 56 58 3c 61 1f a8 3d
       -0.03516274 -0.04912714 0.01320422 0.0820911
0000c0 93 94 67 bc d5 1b 0f 3c 84 1f 00 bc f3 9c 12 3d
       -0.014134544 0.008734663 -0.007820014 0.03579421
0000d0 99 9d 81 bc 61 98 58 bd 00 00 ed bc 4e df af bc
       -0.015822219 -0.052879695 -0.028930664 -0.021468785
0000e0 b9 8a f9 3c 3c d3 e1 bc 0e af f6 bb 62 ec a6 3c
       0.030461656 -0.027566545 -0.0075281924 0.020376388
0000f0 8a e7 a0 bc c0 57 3b 3c ad 4f 30 3d f8 af 31 3d
       -0.019641656 0.011434495 0.043044735 0.043380708
000100 53 6d 98 bd 29 1d e2 3c 9c fa d5 bc 23 7d 4a 3b
       -0.07442727 0.027601795 -0.026120476 0.0030897341
000110 c0 98 dc bc ed 7f ef bc 79 1e 41 bd ff 4b 16 bd
       -0.026928306 -0.029235804 -0.0471482 -0.03669357
000120 bf 18 7e bc f6 ba bd 3c 57 10 e5 3c b5 f6 15 bd
       -0.01550883 0.023160439 0.027961893 -0.03661223
000130 a7 11 75 bd 9d 49 9b bc bf d5 da 3c fb fe de bc
       -0.059831288 -0.018956 0.02671325 -0.027221194
000140 16 cb 4d bd 07 92 43 bd 33 4d 16 3d 99 34 e6 3c
       -0.050242506 -0.047746684 0.036694717 0.028101252
000150 bb 89 fe bb 7c 23 1c 3c c5 78 9f 3c b7 90 54 bc
       -0.0077678836 0.0095299445 0.019466767 -0.012973956
000160 cc 74 53 3d 47 0b 97 bb 5a a1 80 bd 76 b5 c5 3b
       0.051625058 -0.0046094987 -0.06280775 0.0060335947
000170 7d 48 3e bd 64 4a 1d bd b3 ad 20 bd 22 4b 14 3d
       -0.04645585 -0.038401023 -0.039228152 0.036204465
000180 3a 12 94 3d 09 9b 38 3c 5f ef 1e bd 4a 52 6b 3d
       0.07230039 0.011267432 -0.0388025 0.057451524
000190 a6 c6 7a bc 4c 44 a1 3c 4c 0d 13 bd 96 a4 24 3d
       -0.015306151 0.019685887 -0.035901353 0.040196024
0001a0 f5 56 9b 3c 56 3d 71 3c 6a 0c 41 bb cd 86 20 3d
       0.018962363 0.014724096 -0.0029456862 0.039191056
0001b0 69 46 a8 3b b9 14 2a 3d 4d 61 9e 3c 0b ed 01 bd
       0.0051353467 0.04152367 0.019333506 -0.031720202
0001c0 7e 26 bb bc a3 63 50 3d ff 37 bd bb 00 50 0e bd
       -0.022845503 0.05087627 -0.0057744975 -0.034744263
0001d0 e0 97 44 bd 63 cb 85 3d dd fd a8 3c fe 61 2e 3d
       -0.0479964 0.065329336 0.020628864 0.04257392
0001e0 59 d8 c1 bc 29 fb aa bb 26 75 51 bc 04 a4 b1 3d
       -0.023662733 -0.005217929 -0.012784278 0.086738616
0001f0 f2 f2 fe bb 7f b8 43 3d e9 35 0a bd 5c df 5a bb
       -0.007780426 0.04778337 -0.03374282 -0.0033397293
000200 4d 54 74 bc 10 95 ca 3c b7 38 71 3d 9d 2d 8f 3d
       -0.014912677 0.024729282 0.058891978 0.06991122
000210 fb 4b 3e bd ad b7 27 bd f1 3e 39 39 51 f8 53 3d
       -0.04645918 -0.04094665 0.00017666422 0.051750485
000220 50 b5 d6 3c 5c e4 2d 3d 12 4a fc bc be 43 94 3c
       0.026209503 0.04245411 -0.030797038 0.018098708
000230 f3 c7 b8 bb 09 de 29 bd 53 8a d4 bc 9f 40 6b 3d
       -0.00563907 -0.041471515 -0.025944864 0.057434674
000240 6c 6b 94 3c 71 fc c8 bc 57 06 47 bd 31 eb 53 3a
       0.018117629 -0.024534436 -0.04859003 0.00080840575
000250 b3 6d 4f 3c aa c5 56 3c 60 31 2d 3d 97 ec 27 3d
       0.012660432 0.01310865 0.042283416 0.040997114
000260 67 41 36 3d e0 79 60 bd b7 fd bd bc 22 b3 79 3c
       0.044495966 -0.05480373 -0.02319227 0.0152404625
000270 9f c8 7d 3d b1 e9 ec 3b 9c ee 65 bd bf 10 0d 3d
       0.061958905 0.0072300066 -0.05613576 0.0344398
000280 34 f5 41 3d cf 05 de bc 16 e6 0f 3c 84 33 2e bc
       0.047352985 -0.02710238 0.008782884 -0.0106323995
000290 9d dd 76 3d a6 a4 96 3c 39 77 90 bc 71 2c ea bc
       0.06026994 0.018389057 -0.017634975 -0.028585644
0002a0 9d cf b6 bc 55 d2 17 3d cd 17 9c bb 95 2b 3a bb
       -0.022315795 0.037065823 -0.0047635795 -0.0028407325
0002b0 f9 8b b8 3c 51 bb 86 3c 0f 08 13 3d 47 09 7b 3c
       0.022527682 0.016446741 0.035896357 0.015322036
0002c0 df 59 ca 3c 0c 8b 47 3d 55 ea 55 3c cc 30 5e 3d
       0.024701057 0.04871659 0.013056357 0.054245755
0002d0 a6 b8 f0 bb e5 51 34 3c c7 30 30 3d cb fe 40 bd
       -0.0073462306 0.011005853 0.043015268 -0.04711799
0002e0 77 db 46 3c 46 12 f6 3b 40 a6 3b bd 3d f9 32 3d
       0.012137285 0.0075095026 -0.045812845 0.043694723
0002f0 2a 7d 5d bc 4a 8e 5e 3c 6b 6c 80 3c ff 69 34 bd
       -0.013518611 0.013583729 0.015676698 -0.0440464
000300 39 f8 47 3d d6 49 01 3c 23 fb 7c bb 93 c0 e1 3c
       0.048820708 0.007891139 -0.0038601838 0.027557647
000310 e5 52 ae bb 2c d9 49 3d bc 5e 7f 3d 7e 06 e2 3b
       -0.0053199404 0.049279377 0.062346205 0.0068977466
000320 35 ad 7d 3d 4b f7 23 bd 43 aa c3 3c 93 d5 49 bd
       0.06193276 -0.04003076 0.023884898 -0.049275946
000330 b9 bb 51 3d c8 77 28 bc 45 68 38 bc 48 1f 72 3d
       0.051204417 -0.010282464 -0.011255329 0.059111863
000340 67 e6 cb bc 99 0d 80 3d 38 0d 9a bc 9b 84 39 bd
       -0.024890138 0.062525935 -0.018805131 -0.045292478
000350 2b fc 89 3d 0e 55 80 bd f7 55 2a bd 31 cb 5a bd
       0.0673755 -0.06266223 -0.04158589 -0.053416435
000360 ea 18 06 bd 17 90 04 3d 75 a5 16 3d 2e ad 10 3d
       -0.032738604 0.032363977 0.036778886 0.035321407
000370 8d cb 81 3d 57 9a 86 bd 7c fc 23 bd 70 25 38 bd
       0.06337652 -0.06572407 -0.04003571 -0.04495758
000380 8b 4f 50 3d e3 30 81 3d e8 94 45 bd 03 30 59 3c
       0.050857108 0.063081525 -0.04823771 0.013256076
000390 1f 74 54 bd 5f 3f fa bc 6b 62 86 bc 23 a1 52 3d
       -0.051868554 -0.030547796 -0.016404351 0.051423203
0003a0 52 9d bb bb 9a 78 c9 bc 54 b3 dd 3c c7 81 56 bd
       -0.005725541 -0.02459364 0.02706305 -0.05236986
0003b0 87 76 33 bd ae 2d 46 bd 1e ee ca 3c 7d 8d 2f 3d
       -0.04381421 -0.048383407 0.024771746 0.042859543
0003c0 47 ff 83 3d a2 81 88 3b b4 04 e6 3b 0a b3 4d 3d
       0.06445175 0.004165844 0.0070196036 0.050219573
0003d0 a5 8e 2f 3d d6 b7 59 3d 36 b4 40 bc 5f 6c 08 bd
       0.042860646 0.053153835 -0.011761716 -0.033306476
0003e0 ae 8c 3e bd 6a d2 b9 bb 1f 36 19 bd d3 75 13 bc
       -0.04652088 -0.0056708353 -0.03740513 -0.009000259
0003f0 ac 10 bc bc a8 c3 db bc 44 e4 e9 3a 32 b4 42 bc
       -0.022957169 -0.026826695 0.0017844518 -0.011883782

model1.0.bias f4 [16]
000000 41 8b 94 bd 3f a8 c1 bd c5 ef c1 bd aa d0 6d bd
       -0.07253123 -0.094559185 -0.094695605 -0.058060326
000010 8e eb ca 3c 75 90 6a bd 97 36 19 bd af a3 26 bd
       0.024770524 -0.05726667 -0.037405577 -0.040683445
000020 53 29 b7 bd a1 62 b2 bd f2 5d 21 bd ff d5 c0 bd
       -0.08943429 -0.08710218 -0.039396234 -0.094158165
000030 ee b9 f2 bc 81 5e 85 bd d3 1f 0f ba af 56 6e bd
       -0.029629674 -0.06512166 -0.0005459759 -0.058188137

model1.2.conv.weight f4 [16, 16, 3, 3, 3]
000000 49 f5 e5 3c 51 d5 6a 3d 7b e1 d1 3c 16 c4 04 be
       0.028071063 0.05733234 0.025620213 -0.12965426
000010 e9 ae d8 bd c7 5c 46 3d 61 a4 3f 3d 72 cf 9b bd
       -0.105802365 0.048428323 0.046787623 -0.076079264
000020 9a ac 62 3d 20 22 82 3d d3 67 b7 bd f8 87 ca 3b
       0.055340387 0.06354165 -0.0895535 0.0061807595
000030 1a 7b 91 3c bc 57 93 bc 2f 23 a5 3c d5 95 e9 3c
       0.017758895 -0.017986171 0.020158378 0.028513828
000040 22 3d 7a 3d f1 1e 3e bd 68 08 7a bd 30 88 bf bd
       0.061093457 -0.046416227 -0.061043173 -0.093521476
000050 4a f2 38 bd 76 30 81 bd 05 65 3b bc ef a1 21 bc
       -0.04515294 -0.06308071 -0.011437659 -0.009865268
000060 0d c7 30 3b a3 91 96 3c df 65 d1 bd 3b fd 40 bd
       0.0026974112 0.018379992 -0.102245085 -0.0471165
000070 20 4d b1 3b 54 2e 0a bc 75 d9 5f bc 99 4d f6 bc
       0.0054108053 -0.008433897 -0.013662686 -0.030066298
000080 4a c4 0a 3d 46 5a bb bd 8d fa 03 3b d5 15 80 3d
       0.033878602 -0.09148078 0.0020138354 0.06254164
000090 93 96 82 bd fe d9 35 bd 9a bf 5a bd 6f 07 ca bc
       -0.06376376 -0.044397347 -0.05340538 -0.024661748
0000a0 c5 e2 35 3c 1d 25 a0 bc c0 9e dc bd 7b 27 5e bd
       0.011101429 -0.019548947 -0.10772467 -0.05423687
0000b0 55 8d 3a be 5f c3 17 bd aa 05 9e bc fd fd b5 bd
       -0.18217976 -0.037051555 -0.01928981 -0.08886335
0000c0 29 08 00 be 70 54 fb 3d ca 77 09 bd f5 7c 34 bd
       -0.12503113 0.122719646 -0.033561505 -0.04406448
0000d0 91 ce 9a bd 10 38 c4 bd 19 82 1b 3d 83 15 04 bb
       -0.07558931 -0.095810056 0.037965868 -0.0020154424
0000e0 15 99 01 bc 66 35 bb bd 8c b1 df bd a5 c6 38 bc
       -0.007910033 -0.09141044 -0.10922536 -0.011277829
0000f0 fd 39 39 bd 97 23 fe 3c 63 c6 1b bb 8e b3 46 bd
       -0.045221318 0.03102283 -0.002376937 -0.04851108
000100 ec cb 13 3d 93 39 76 bd 12 85 68 bd 5f 7b bc 3c
       0.036083147 -0.0601135 -0.05676753 0.023008047
000110 5a 08 a7 bd da d4 72 bd 81 11 30 bd 95 9d b1 3c
       -0.0815589 -0.059285022 -0.042985443 0.021681586
000120 8d 93 70 bd 78 56 83 bc d3 aa 1b b9 26 5e 4c 3d
       -0.058734465 -0.016032442 -0.00014845589 0.049894474
000130 60 b2 a6 bd b0 2d 9a bd 15 3b 25 bd 06 ea 4a bd
       -0.08139491 -0.075282454 -0.04033955 -0.04953959
000140 88 de 6e bd 4c de a3 bd 8d 64 26 3d c3 2f fb bc
       -0.05831769 -0.08001384 0.040623236 -0.030662423
000150 56 97 7f 3c a7 4d eb bc 7e f3 28 3d d8 ab a5 bd
       0.015600046 -0.028723551 0.041247837 -0.08089417
000160 f9 50 fa 3a 6b 85 6f ba 5c 6b 52 bc b0 a0 65 3d
       0.0019097618 -0.00091370073 -0.012842979 0.056061447
000170 88 05 1e 3c 47 1e 92 3d df 01 8b 3d ae 76 15 bc
       0.009644873 0.07134681 0.06787466 -0.009122534
000180 d5 e1 71 3d 50 90 13 bd b3 14 8c 3d 4d 75 ed 3c
       0.05905326 -0.0360263 0.068398856 0.028986597
000190 81 9a e4 bc 7e ef bb bd f4 d1 a0 bd 52 2d 18 bd
       -0.027905704 -0.09176539 -0.078525454 -0.037152596
0001a0 f8 f6 90 3b 0b 56 d1 bd 31 bb 9a 3d 21 49 db bc
       0.004423972 -0.102214895 0.07555235 -0.026768269
0001b0 db 9c fb 38 49 aa d0 3b ea d4 aa bd ed 49 23 3c
       0.00011997829 0.006367956 -0.083413914 0.009966356
0001c0 7a 3e aa bd ea 37 98 bc fb 52 9e bd 9d db ae bc
       -0.08312698 -0.01858135 -0.07730671 -0.021344954
0001d0 db f7 b2 3b 21 00 51 3d 8d 53 8a bc 87 32 70 3c
       0.0054616756 0.051025514 -0.016885543 0.014660484
0001e0 08 b9 04 3d 32 97 9b bd 7b 56 24 be 51 d3 01 3d
       0.032403022 -0.075971976 -0.16048615 0.031695668
0001f0 91 35 cb bd a5 3f 5a bd 76 f8 b0 bd 88 80 c1 bd
       -0.09922326 -0.053283352 -0.0864114 -0.094483435
000200 1f fe d2 3b 2f 87 28 be ca 57 39 bd 88 ed b2 bc
       0.006438985 -0.16457818 -0.045249738 -0.02184178
000210 ce ca 04 bd 54 28 0a 3d 61 e1 6c bd 0e 48 53 bd
       -0.032419972 0.033729866 -0.057832126 -0.05158239
000220 64 f9 3a bd 5a ea 3d bd c3 63 97 bd 68 47 cc 3b
       -0.045647994 -0.046366073 -0.07392075 0.006234098
000230 1d 52 29 bd 5c 34 93 bd 5c 10 b7 bd 3e d6 86 bd
       -0.041338075 -0.07187721 -0.08938667 -0.06583832
000240 20 66 91 3d 35 5b 5a bd bf f3 48 bd 31 24 b2 bc
       0.07099557 -0.053309638 -0.04906058 -0.021745773
000250 0b f2 9c bd 7e 72 b3 3b a9 76 83 be 91 2d 27 bd
       -0.076633535 0.005476295 -0.25676468 -0.04081494
000260 6b a9 18 bd 5d 96 03 bd 11 26 a6 bd 54 9e c2 3d
       -0.037270945 -0.03212582 -0.08112729 0.09502855
000270 31 e8 0c be f4 d4 30 bc a4 9c 18 bd b0 4a ee bc
       -0.13760449 -0.0107929595 -0.03725876 -0.029088348
000280 0f 88 93 bc 95 4f f5 bd fb 9c 14 bd b9 80 97 bd
       -0.018009214 -0.1197807 -0.03628252 -0.07397599
000290 ae bd 8e ba 07 fb f6 3d 60 6b 9d bb 3f ba 5d 3d
       -0.0010890269 0.120595984 -0.00480406 0.054132696
0002a0 47 9f 74 3c a1 81 a3 3d 98 4c 3c 3c aa 2e 09 3e
       0.014930553 0.07983709 0.011492871 0.13396707
0002b0 c1 85 02 3c bb cb 92 3c 4e 4b 11 3d 39 eb f0 3c
       0.00796646 0.017919412 0.035472207 0.029409038
0002c0 45 c7 59 bb ac ae 3b 3d 62 15 0f 3c 2f fb 2c 3d
       -0.0033230346 0.045820877 0.008733125 0.042231735
0002d0 63 b3 ec 3b c8 45 65 3d 91 28 11 3d 36 13 5f 3d
       0.007223533 0.05597475 0.035439078 0.05446168
0002e0 fc 9c f9 3d 5e d5 85 bd b4 20 8d 3c 95 a2 8c 3d
       0.121881455 -0.06534837 0.017227508 0.068669476
0002f0 f5 87 1c 3d 2f 7e 5e bc 1f d4 c5 3d de cb 1b 3d
       0.038215596 -0.013579889 0.096595995 0.03803622
000300 a6 d2 d3 3d d7 a2 c7 3d 5c 49 bf 3d db a7 17 bd
       0.103429124 0.09747856 0.09340164 -0.037025314
000310 3c 41 35 3d e1 48 8b 3d 16 13 ab 3c 83 85 7b bd
       0.044251665 0.0680101 0.020883124 -0.061406624
000320 f6 fb 18 3e 5a b3 86 3d d5 3b fd bd 49 90 ad bd
       0.14939865 0.06577177 -0.12364928 -0.08474786
000330 50 c1 41 3c d0 e0 60 bc 00 70 d9 bd 1f 49 0d bc
       0.011825874 -0.0137254745 -0.106170654 -0.00862339
000340 33 38 25 3e 4b 04 19 bd 27 84 e5 bc 04 b6 22 bd
       0.1613472 -0.03735761 -0.028017117 -0.039724365
000350 d9 9d 64 bd 07 13 30 3d 80 b3 6d bd f7 fa 72 bd
       -0.055814598 0.042986896 -0.058032513 -0.05932137
000360 00 c8 78 bd 2e 25 f0 bd 25 7f b4 bd e9 a0 ef 3c
       -0.06073761 -0.117258415 -0.088133134 0.029251533
000370 06 95 39 3d 9f e2 b6 bd 79 4e 1e be c1 a6 98 bd
       0.045308135 -0.08929943 -0.15459622 -0.07453681
000380 2f 50 3c bd ca 36 14 3d 14 96 8f 3c 1b d3 96 bd
       -0.045974907 0.036185063 0.017527618 -0.07364484
000390 56 f6 de 3d b2 01 d4 3d 90 2b 9f 3c 2c 05 30 3d
       0.108868286 0.10351886 0.019429952 0.042973682
0003a0 29 e2 66 bd 44 74 a2 bd 9b ed c2 3b bf eb 98 3c
       -0.056368027 -0.07932332 0.005948735 0.0186671
0003b0 b3 38 b4 bd 80 20 9f bd 74 71 1a 3d c5 b7 21 bd
       -0.08799877 -0.07769871 0.037705854 -0.039481897
0003c0 32 58 cb bd 51 f5 0f 3d 7a 75 bd bb c1 f8 e8 bb
       -0.09928931 0.03514606 -0.0057818266 -0.007109732
0003d0 96 41 71 bd 7e 53 9d bc 82 30 2d 3c 51 b6 b7 3d
       -0.05890044 -0.019204851 0.010570647 0.08970321
0003e0 13 e6 16 3c 83 c1 98 bd eb 7f 31 bd 7e 05 6f 3d
       0.009210127 -0.074587844 -0.043334883 0.058354847
0003f0 5c e6 02 3d 52 70 cf bd 0e d9 35 3d 2b b4 a5 bd
       0.03195797 -0.10128845 0.044396453 -0.08091005

model1.2.conv.bias f4 [16]
000000 8e 43 3e 3d 67 05 0d 3d 21 5d d2 3b 36 e9 e5 3c
       0.046451144 0.03442898 0.0064197932 0.028065305
000010 e8 42 30 3d 52 fd 02 3d 20 b7 15 bc 8b fe 46 3d
       0.043032557 0.031979866 -0.009137899 0.048582595
000020 fd 5a d0 bc ff 68 09 bd 80 d7 23 bd 45 2c 2c 3d
       -0.025434012 -0.033547398 -0.04000044 0.042034406
000030 eb e4 47 3d 96 7c 13 3d 4c e5 36 3d ec 53 16 bd
       0.048802298 0.036007486 0.04465227 -0.036701128

model1.2.batch_norm.weight f4 [16]
000000 cf cf ed 3e fe b0 ee 3e 3c 6e ee 3e 4c 0c ee 3e
       0.46447608 0.4661941 0.46568477 0.46493757
000010 60 c9 ee 3e fe bc ee 3e a1 ec ed 3e 88 62 ee 3e
       0.46638012 0.46628565 0.46469596 0.46559548
000020 c2 ac ed 3e 83 4c ee 3e e4 51 ed 3e 76 a4 ee 3e
       0.46420866 0.4654275 0.4635154 0.4660985
000030 a7 ab ef 3e 36 97 ee 3e 25 4a ee 3e 54 a5 ee 3e
       0.46810648 0.4659974 0.46540943 0.4661051

model1.2.batch_norm.bias f4 [16]
000000 1d fb 18 bd 9d 4f 12 bd d5 d9 10 bd 6f 6d 16 bd
       -0.037348855 -0.035720456 -0.03536399 -0.036725458
000010 76 5e 11 bd c0 10 14 bd 22 81 17 bd 7d 0c 15 bd
       -0.035490476 -0.036148787 -0.036988385 -0.036388863
000020 04 68 1e bd a8 6a 14 bd a2 d8 1c bd 3b 9e 11 bd
       -0.038673416 -0.036234528 -0.038292535 -0.03555129
000030 bc d9 10 bd a8 57 18 bd 0b 86 15 bd cf 8f 12 bd
       -0.035363898 -0.03719297 -0.036504786 -0.035781678

model1.2.batch_norm.running_mean f4 [16]
000000 c1 89 a7 bf d0 84 13 bf 77 da ca bf b3 10 d4 bf
       -1.3088914 -0.5762453 -1.584792 -1.6567596
000010 15 19 96 bf 61 0d 93 bf d1 08 b3 bf c7 ff 8a bf
       -1.1726404 -1.1488458 -1.3987066 -1.0859307
000020 ae 4c 98 bf 91 72 c4 bf bf 5f ab bf da 35 b1 bf
       -1.1898401 -1.5347463 -1.3388594 -1.3844559
000030 61 5e 42 bf f2 ab 51 bf e3 08 53 bf 68 7b ae bf
       -0.7592526 -0.8190299 -0.82435435 -1.3631411

model1.2.batch_norm.running_var f4 [16]
000000 39 2c 03 40 aa a4 c5 3f 21 f6 cb 3f 1c 6a fb 3f
       2.0495741 1.5440876 1.5934488 1.9641757
000010 1c 64 b1 3f e8 9f c1 3f 32 38 be 3f 43 49 f1 3f
       1.3858676 1.5126925 1.48609 1.8850483
000020 cd c1 e7 3f 30 f4 e6 3f 52 b2 c5 3f b3 71 df 3f
       1.8106018 1.804327 1.5445044 1.7456573
000030 06 5a d5 3f fb 2a d9 3f 8a c3 b2 3f 38 36 ba 3f
       1.6668098 1.6966242 1.3965924 1.4547796

model1.4.conv.weight f4 [16, 16, 3, 3, 3]
000000 49 f5 e5 3c 51 d5 6a 3d 7b e1 d1 3c 16 c4 04 be
       0.028071063 0.05733234 0.025620213 -0.12965426
000010 e9 ae d8 bd c7 5c 46 3d 61 a4 3f 3d 72 cf 9b bd
       -0.105802365 0.048428323 0.046787623 -0.076079264
000020 9a ac 62 3d 20 22 82 3d d3 67 b7 bd f8 87 ca 3b
       0.055340387 0.06354165 -0.0895535 0.0061807595
000030 1a 7b 91 3c bc 57 93 bc 2f 23 a5 3c d5 95 e9 3c
       0.017758895 -0.017986171 0.020158378 0.028513828
000040 22 3d 7a 3d f1 1e 3e bd 68 08 7a bd 30 88 bf bd
       0.061093457 -0.046416227 -0.061043173 -0.093521476
000050 4a f2 38 bd 76 30 81 bd 05 65 3b bc ef a1 21 bc
       -0.04515294 -0.06308071 -0.011437659 -0.009865268
000060 0d c7 30 3b a3 91 96 3c df 65 d1 bd 3b fd 40 bd
       0.0026974112 0.018379992 -0.102245085 -0.0471165
000070 20 4d b1 3b 54 2e 0a bc 75 d9 5f bc 99 4d f6 bc
       0.0054108053 -0.008433897 -0.013662686 -0.030066298
000080 4a c4 0a 3d 46 5a bb bd 8d fa 03 3b d5 15 80 3d
       0.033878602 -0.09148078 0.0020138354 0.06254164
000090 93 96 82 bd fe d9 35 bd 9a bf 5a bd 6f 07 ca bc
       -0.06376376 -0.044397347 -0.05340538 -0.024661748
0000a0 c5 e2 35 3c 1d 25 a0 bc c0 9e dc bd 7b 27 5e bd
       0.011101429 -0.019548947 -0.10772467 -0.05423687
0000b0 55 8d 3a be 5f c3 17 bd aa 05 9e bc fd fd b5 bd
       -0.18217976 -0.037051555 -0.01928981 -0.08886335
0000c0 29 08 00 be 70 54 fb 3d ca 77 09 bd f5 7c 34 bd
       -0.12503113 0.122719646 -0.033561505 -0.04406448
0000d0 91 ce 9a bd 10 38 c4 bd 19 82 1b 3d 83 15 04 bb
       -0.07558931 -0.095810056 0.037965868 -0.0020154424
0000e0 15 99 01 bc 66 35 bb bd 8c b1 df bd a5 c6 38 bc
       -0.007910033 -0.09141044 -0.10922536 -0.011277829
0000f0 fd 39 39 bd 97 23 fe 3c 63 c6 1b bb 8e b3 46 bd
       -0.045221318 0.03102283 -0.002376937 -0.04851108
000100 ec cb 13 3d 93 39 76 bd 12 85 68 bd 5f 7b bc 3c
       0.036083147 -0.0601135 -0.05676753 0.023008047
000110 5a 08 a7 bd da d4 72 bd 81 11 30 bd 95 9d b1 3c
       -0.0815589 -0.059285022 -0.042985443 0.021681586
000120 8d 93 70 bd 78 56 83 bc d3 aa 1b b9 26 5e 4c 3d
       -0.058734465 -0.016032442 -0.00014845589 0.049894474
000130 60 b2 a6 bd b0 2d 9a bd 15 3b 25 bd 06 ea 4a bd
       -0.08139491 -0.075282454 -0.04033955 -0.04953959
000140 88 de 6e bd 4c de a3 bd 8d 64 26 3d c3 2f fb bc
       -0.05831769 -0.08001384 0.040623236 -0.030662423
000150 56 97 7f 3c a7 4d eb bc 7e f3 28 3d d8 ab a5 bd
       0.015600046 -0.028723551 0.041247837 -0.08089417
000160 f9 50 fa 3a 6b 85 6f ba 5c 6b 52 bc b0 a0 65 3d
       0.0019097618 -0.00091370073 -0.012842979 0.056061447
000170 88 05 1e 3c 47 1e 92 3d df 01 8b 3d ae 76 15 bc
       0.009644873 0.07134681 0.06787466 -0.009122534
000180 d5 e1 71 3d 50 90 13 bd b3 14 8c 3d 4d 75 ed 3c
       0.05905326 -0.0360263 0.068398856 0.028986597
000190 81 9a e4 bc 7e ef bb bd f4 d1 a0 bd 52 2d 18 bd
       -0.027905704 -0.09176539 -0.078525454 -0.037152596
0001a0 f8 f6 90 3b 0b 56 d1 bd 31 bb 9a 3d 21 49 db bc
       0.004423972 -0.102214895 0.07555235 -0.026768269
0001b0 db 9c fb 38 49 aa d0 3b ea d4 aa bd ed 49 23 3c
       0.00011997829 0.006367956 -0.083413914 0.009966356
0001c0 7a 3e aa bd ea 37 98 bc fb 52 9e bd 9d db ae bc
       -0.08312698 -0.01858135 -0.07730671 -0.021344954
0001d0 db f7 b2 3b 21 00 51 3d 8d 53 8a bc 87 32 70 3c
       0.0054616756 0.051025514 -0.016885543 0.014660484
0001e0 08 b9 04 3d 32 97 9b bd 7b 56 24 be 51 d3 01 3d
       0.032403022 -0.075971976 -0.16048615 0.031695668
0001f0 91 35 cb bd a5 3f 5a bd 76 f8 b0 bd 88 80 c1 bd
       -0.09922326 -0.053283352 -0.0864114 -0.094483435
000200 1f fe d2 3b 2f 87 28 be ca 57 39 bd 88 ed b2 bc
       0.006438985 -0.16457818 -0.045249738 -0.02184178
000210 ce ca 04 bd 54 28 0a 3d 61 e1 6c bd 0e 48 53 bd
       -0.032419972 0.033729866 -0.057832126 -0.05158239
000220 64 f9 3a bd 5a ea 3d bd c3 63 97 bd 68 47 cc 3b
       -0.045647994 -0.046366073 -0.07392075 0.006234098
000230 1d 52 29 bd 5c 34 93 bd 5c 10 b7 bd 3e d6 86 bd
       -0.041338075 -0.07187721 -0.08938667 -0.06583832
000240 20 66 91 3d 35 5b 5a bd bf f3 48 bd 31 24 b2 bc
       0.07099557 -0.053309638 -0.04906058 -0.021745773
000250 0b f2 9c bd 7e 72 b3 3b a9 76 83 be 91 2d 27 bd
       -0.076633535 0.005476295 -0.25676468 -0.04081494
000260 6b a9 18 bd 5d 96 03 bd 11 26 a6 bd 54 9e c2 3d
       -0.037270945 -0.03212582 -0.08112729 0.09502855
000270 31 e8 0c be f4 d4 30 bc a4 9c 18 bd b0 4a ee bc
       -0.13760449 -0.0107929595 -0.03725876 -0.029088348
000280 0f 88 93 bc 95 4f f5 bd fb 9c 14 bd b9 80 97 bd
       -0.018009214 -0.1197807 -0.03628252 -0.07397599
000290 ae bd 8e ba 07 fb f6 3d 60 6b 9d bb 3f ba 5d 3d
       -0.0010890269 0.120595984 -0.00480406 0.054132696
0002a0 47 9f 74 3c a1 81 a3 3d 98 4c 3c 3c aa 2e 09 3e
       0.014930553 0.07983709 0.011492871 0.13396707
0002b0 c1 85 02 3c bb cb 92 3c 4e 4b 11 3d 39 eb f0 3c
       0.00796646 0.017919412 0.035472207 0.029409038
0002c0 45 c7 59 bb ac ae 3b 3d 62 15 0f 3c 2f fb 2c 3d
       -0.0033230346 0.045820877 0.008733125 0.042231735
0002d0 63 b3 ec 3b c8 45 65 3d 91 28 11 3d 36 13 5f 3d
       0.007223533 0.05597475 0.035439078 0.05446168
0002e0 fc 9c f9 3d 5e d5 85 bd b4 20 8d 3c 95 a2 8c 3d
       0.121881455 -0.06534837 0.017227508 0.068669476
0002f0 f5 87 1c 3d 2f 7e 5e bc 1f d4 c5 3d de cb 1b 3d
       0.038215596 -0.013579889 0.096595995 0.03803622
000300 a6 d2 d3 3d d7 a2 c7 3d 5c 49 bf 3d db a7 17 bd
       0.103429124 0.09747856 0.09340164 -0.037025314
000310 3c 41 35 3d e1 48 8b 3d 16 13 ab 3c 83 85 7b bd
       0.044251665 0.0680101 0.020883124 -0.061406624
000320 f6 fb 18 3e 5a b3 86 3d d5 3b fd bd 49 90 ad bd
       0.14939865 0.06577177 -0.12364928 -0.08474786
000330 50 c1 41 3c d0 e0 60 bc 00 70 d9 bd 1f 49 0d bc
       0.011825874 -0.0137254745 -0.106170654 -0.00862339
000340 33 38 25 3e 4b 04 19 bd 27 84 e5 bc 04 b6 22 bd
       0.1613472 -0.03735761 -0.028017117 -0.039724365
000350 d9 9d 64 bd 07 13 30 3d 80 b3 6d bd f7 fa 72 bd
       -0.055814598 0.042986896 -0.058032513 -0.05932137
000360 00 c8 78 bd 2e 25 f0 bd 25 7f b4 bd e9 a0 ef 3c
       -0.06073761 -0.117258415 -0.088133134 0.029251533
000370 06 95 39 3d 9f e2 b6 bd 79 4e 1e be c1 a6 98 bd
       0.045308135 -0.08929943 -0.15459622 -0.07453681
000380 2f 50 3c bd ca 36 14 3d 14 96 8f 3c 1b d3 96 bd
       -0.045974907 0.036185063 0.017527618 -0.07364484
000390 56 f6 de 3d b2 01 d4 3d 90 2b 9f 3c 2c 05 30 3d
       0.108868286 0.10351886 0.019429952 0.042973682
0003a0 29 e2 66 bd 44 74 a2 bd 9b ed c2 3b bf eb 98 3c
       -0.056368027 -0.07932332 0.005948735 0.0186671
0003b0 b3 38 b4 bd 80 20 9f bd 74 71 1a 3d c5 b7 21 bd
       -0.08799877 -0.07769871 0.037705854 -0.039481897
0003c0 32 58 cb bd 51 f5 0f 3d 7a 75 bd bb c1 f8 e8 bb
       -0.09928931 0.03514606 -0.0057818266 -0.007109732
0003d0 96 41 71 bd 7e 53 9d bc 82 30 2d 3c 51 b6 b7 3d
       -0.05890044 -0.019204851 0.010570647 0.08970321
0003e0 13 e6 16 3c 83 c1 98 bd eb 7f 31 bd 7e 05 6f 3d
       0.009210127 -0.074587844 -0.043334883 0.058354847
0003f0 5c e6 02 3d 52 70 cf bd 0e d9 35 3d 2b b4 a5 bd
       0.03195797 -0.10128845 0.044396453 -0.08091005

model1.4.conv.bias f4 [16]
000000 8e 43 3e 3d 67 05 0d 3d 21 5d d2 3b 36 e9 e5 3c
       0.046451144 0.03442898 0.0064197932 0.028065305
000010 e8 42 30 3d 52 fd 02 3d 20 b7 15 bc 8b fe 46 3d
       0.043032557 0.031979866 -0.009137899 0.048582595
000020 fd 5a d0 bc ff 68 09 bd 80 d7 23 bd 45 2c 2c 3d
       -0.025434012 -0.033547398 -0.04000044 0.042034406
000030 eb e4 47 3d 96 7c 13 3d 4c e5 36 3d ec 53 16 bd
       0.048802298 0.036007486 0.04465227 -0.036701128

model1.4.batch_norm.weight f4 [16]
000000 cf cf ed 3e fe b0 ee 3e 3c 6e ee 3e 4c 0c ee 3e
       0.46447608 0.4661941 0.46568477 0.46493757
000010 60 c9 ee 3e fe bc ee 3e a1 ec ed 3e 88 62 ee 3e
       0.46638012 0.46628565 0.46469596 0.46559548
000020 c2 ac ed 3e 83 4c ee 3e e4 51 ed 3e 76 a4 ee 3e
       0.46420866 0.4654275 0.4635154 0.4660985
000030 a7 ab ef 3e 36 97 ee 3e 25 4a ee 3e 54 a5 ee 3e
       0.46810648 0.4659974 0.46540943 0.4661051

model1.4.batch_norm.bias f4 [16]
000000 1d fb 18 bd 9d 4f 12 bd d5 d9 10 bd 6f 6d 16 bd
       -0.037348855 -0.035720456 -0.03536399 -0.036725458
000010 76 5e 11 bd c0 10 14 bd 22 81 17 bd 7d 0c 15 bd
       -0.035490476 -0.036148787 -0.036988385 -0.036388863
000020 04 68 1e bd a8 6a 14 bd a2 d8 1c bd 3b 9e 11 bd
       -0.038673416 -0.036234528 -0.038292535 -0.03555129
000030 bc d9 10 bd a8 57 18 bd 0b 86 15 bd cf 8f 12 bd
       -0.035363898 -0.03719297 -0.036504786 -0.035781678

model1.4.batch_norm.running_mean f4 [16]
000000 c1 89 a7 bf d0 84 13 bf 77 da ca bf b3 10 d4 bf
       -1.3088914 -0.5762453 -1.584792 -1.6567596
000010 15 19 96 bf 61 0d 93 bf d1 08 b3 bf c7 ff 8a bf
       -1.1726404 -1.1488458 -1.3987066 -1.0859307
000020 ae 4c 98 bf 91 72 c4 bf bf 5f ab bf da 35 b1 bf
       -1.1898401 -1.5347463 -1.3388594 -1.3844559
000030 61 5e 42 bf f2 ab 51 bf e3 08 53 bf 68 7b ae bf
       -0.7592526 -0.8190299 -0.82435435 -1.3631411

model1.4.batch_norm.running_var f4 [16]
000000 39 2c 03 40 aa a4 c5 3f 21 f6 cb 3f 1c 6a fb 3f
       2.0495741 1.5440876 1.5934488 1.9641757
000010 1c 64 b1 3f e8 9f c1 3f 32 38 be 3f 43 49 f1 3f
       1.3858676 1.5126925 1.48609 1.8850483
000020 cd c1 e7 3f 30 f4 e6 3f 52 b2 c5 3f b3 71 df 3f
       1.8106018 1.804327 1.5445044 1.7456573
000030 06 5a d5 3f fb 2a d9 3f 8a c3 b2 3f 38 36 ba 3f
       1.6668098 1.6966242 1.3965924 1.4547796

model1.6.conv.weight f4 [16, 16, 3, 3, 3]
000000 49 f5 e5 3c 51 d5 6a 3d 7b e1 d1 3c 16 c4 04 be
       0.028071063 0.05733234 0.025620213 -0.12965426
000010 e9 ae d8 bd c7 5c 46 3d 61 a4 3f 3d 72 cf 9b bd
       -0.105802365 0.048428323 0.046787623 -0.076079264
000020 9a ac 62 3d 20 22 82 3d d3 67 b7 bd f8 87 ca 3b
       0.055340387 0.06354165 -0.0895535 0.0061807595
000030 1a 7b 91 3c bc 57 93 bc 2f 23 a5 3c d5 95 e9 3c
       0.017758895 -0.017986171 0.020158378 0.028513828
000040 22 3d 7a 3d f1 1e 3e bd 68 08 7a bd 30 88 bf bd
       0.061093457 -0.046416227 -0.061043173 -0.093521476
000050 4a f2 38 bd 76 30 81 bd 05 65 3b bc ef a1 21 bc
       -0.04515294 -0.06308071 -0.011437659 -0.009865268
000060 0d c7 30 3b a3 91 96 3c df 65 d1 bd 3b fd 40 bd
       0.0026974112 0.018379992 -0.102245085 -0.0471165
000070 20 4d b1 3b 54 2e 0a bc 75 d9 5f bc 99 4d f6 bc
       0.0054108053 -0.008433897 -0.013662686 -0.030066298
000080 4a c4 0a 3d 46 5a bb bd 8d fa 03 3b d5 15 80 3d
       0.033878602 -0.09148078 0.0020138354 0.06254164
000090 93 96 82 bd fe d9 35 bd 9a bf 5a bd 6f 07 ca bc
       -0.06376376 -0.044397347 -0.05340538 -0.024661748
0000a0 c5 e2 35 3c 1d 25 a0 bc c0 9e dc bd 7b 27 5e bd
       0.011101429 -0.019548947 -0.10772467 -0.05423687
0000b0 55 8d 3a be 5f c3 17 bd aa 05 9e bc fd fd b5 bd
       -0.18217976 -0.037051555 -0.01928981 -0.08886335
0000c0 29 08 00 be 70 54 fb 3d ca 77 09 bd f5 7c 34 bd
       -0.12503113 0.122719646 -0.033561505 -0.04406448
0000d0 91 ce 9a bd 10 38 c4 bd 19 82 1b 3d 83 15 04 bb
       -0.07558931 -0.095810056 0.037965868 -0.0020154424
0000e0 15 99 01 bc 66 35 bb bd 8c b1 df bd a5 c6 38 bc
       -0.007910033 -0.09141044 -0.10922536 -0.011277829
0000f0 fd 39 39 bd 97 23 fe 3c 63 c6 1b bb 8e b3 46 bd
       -0.045221318 0.03102283 -0.002376937 -0.04851108
000100 ec cb 13 3d 93 39 76 bd 12 85 68 bd 5f 7b bc 3c
       0.036083147 -0.0601135 -0.05676753 0.023008047
000110 5a 08 a7 bd da d4 72 bd 81 11 30 bd 95 9d b1 3c
       -0.0815589 -0.059285022 -0.042985443 0.021681586
000120 8d 93 70 bd 78 56 83 bc d3 aa 1b b9 26 5e 4c 3d
       -0.058734465 -0.016032442 -0.00014845589 0.049894474
000130 60 b2 a6 bd b0 2d 9a bd 15 3b 25 bd 06 ea 4a bd
       -0.08139491 -0.075282454 -0.04033955 -0.04953959
000140 88 de 6e bd 4c de a3 bd 8d 64 26 3d c3 2f fb bc
       -0.05831769 -0.08001384 0.040623236 -0.030662423
000150 56 97 7f 3c a7 4d eb bc 7e f3 28 3d d8 ab a5 bd
       0.015600046 -0.028723551 0.041247837 -0.08089417
000160 f9 50 fa 3a 6b 85 6f ba 5c 6b 52 bc b0 a0 65 3d
       0.0019097618 -0.00091370073 -0.012842979 0.056061447
000170 88 05 1e 3c 47 1e 92 3d df 01 8b 3d ae 76 15 bc
       0.009644873 0.07134681 0.06787466 -0.009122534
000180 d5 e1 71 3d 50 90 13 bd b3 14 8c 3d 4d 75 ed 3c
       0.05905326 -0.0360263 0.068398856 0.028986597
000190 81 9a e4 bc 7e ef bb bd f4 d1 a0 bd 52 2d 18 bd
       -0.027905704 -0.09176539 -0.078525454 -0.037152596
0001a0 f8 f6 90 3b 0b 56 d1 bd 31 bb 9a 3d 21 49 db bc
       0.004423972 -0.102214895 0.07555235 -0.026768269
0001b0 db 9c fb 38 49 aa d0 3b ea d4 aa bd ed 49 23 3c
       0.00011997829 0.006367956 -0.083413914 0.009966356
0001c0 7a 3e aa bd ea 37 98 bc fb 52 9e bd 9d db ae bc
       -0.08312698 -0.01858135 -0.07730671 -0.021344954
0001d0 db f7 b2 3b 21 00 51 3d 8d 53 8a bc 87 32 70 3c
       0.0054616756 0.051025514 -0.016885543 0.014660484
0001e0 08 b9 04 3d 32 97 9b bd 7b 56 24 be 51 d3 01 3d
       0.032403022 -0.075971976 -0.16048615 0.031695668
0001f0 91 35 cb bd a5 3f 5a bd 76 f8 b0 bd 88 80 c1 bd
       -0.09922326 -0.053283352 -0.0864114 -0.094483435
000200 1f fe d2 3b 2f 87 28 be ca 57 39 bd 88 ed b2 bc
       0.006438985 -0.16457818 -0.045249738 -0.02184178
000210 ce ca 04 bd 54 28 0a 3d 61 e1 6c bd 0e 48 53 bd
       -0.032419972 0.033729866 -0.057832126 -0.05158239
000220 64 f9 3a bd 5a ea 3d bd c3 63 97 bd 68 47 cc 3b
       -0.045647994 -0.046366073 -0.07392075 0.006234098
000230 1d 52 29 bd 5c 34 93 bd 5c 10 b7 bd 3e d6 86 bd
       -0.041338075 -0.07187721 -0.08938667 -0.06583832
000240 20 66 91 3d 35 5b 5a bd bf f3 48 bd 31 24 b2 bc
       0.07099557 -0.053309638 -0.04906058 -0.021745773
000250 0b f2 9c bd 7e 72 b3 3b a9 76 83 be 91 2d 27 bd
       -0.076633535 0.005476295 -0.25676468 -0.04081494
000260 6b a9 18 bd 5d 96 03 bd 11 26 a6 bd 54 9e c2 3d
       -0.037270945 -0.03212582 -0.08112729 0.09502855
000270 31 e8 0c be f4 d4 30 bc a4 9c 18 bd b0 4a ee bc
       -0.13760449 -0.0107929595 -0.03725876 -0.029088348
000280 0f 88 93 bc 95 4f f5 bd fb 9c 14 bd b9 80 97 bd
       -0.018009214 -0.1197807 -0.03628252 -0.07397599
000290 ae bd 8e ba 07 fb f6 3d 60 6b 9d bb 3f ba 5d 3d
       -0.0010890269 0.120595984 -0.00480406 0.054132696
0002a0 47 9f 74 3c a1 81 a3 3d 98 4c 3c 3c aa 2e 09 3e
       0.014930553 0.07983709 0.011492871 0.13396707
0002b0 c1 85 02 3c bb cb 92 3c 4e 4b 11 3d 39 eb f0 3c
       0.00796646 0.017919412 0.035472207 0.029409038
0002c0 45 c7 59 bb ac ae 3b 3d 62 15 0f 3c 2f fb 2c 3d
       -0.0033230346 0.045820877 0.008733125 0.042231735
0002d0 63 b3 ec 3b c8 45 65 3d 91 28 11 3d 36 13 5f 3d
       0.007223533 0.05597475 0.035439078 0.05446168
0002e0 fc 9c f9 3d 5e d5 85 bd b4 20 8d 3c 95 a2 8c 3d
       0.121881455 -0.06534837 0.017227508 0.068669476
0002f0 f5 87 1c 3d 2f 7e 5e bc 1f d4 c5 3d de cb 1b 3d
       0.038215596 -0.013579889 0.096595995 0.03803622
000300 a6 d2 d3 3d d7 a2 c7 3d 5c 49 bf 3d db a7 17 bd
       0.103429124 0.09747856 0.09340164 -0.037025314
000310 3c 41 35 3d e1 48 8b 3d 16 13 ab 3c 83 85 7b bd
       0.044251665 0.0680101 0.020883124 -0.061406624
000320 f6 fb 18 3e 5a b3 86 3d d5 3b fd bd 49 90 ad bd
       0.14939865 0.06577177 -0.12364928 -0.08474786
000330 50 c1 41 3c d0 e0 60 bc 00 70 d9 bd 1f 49 0d bc
       0.011825874 -0.0137254745 -0.106170654 -0.00862339
000340 33 38 25 3e 4b 04 19 bd 27 84 e5 bc 04 b6 22 bd
       0.1613472 -0.03735761 -0.028017117 -0.039724365
000350 d9 9d 64 bd 07 13 30 3d 80 b3 6d bd f7 fa 72 bd
       -0.055814598 0.042986896 -0.058032513 -0.05932137
000360 00 c8 78 bd 2e 25 f0 bd 25 7f b4 bd e9 a0 ef 3c
       -0.06073761 -0.117258415 -0.088133134 0.029251533
000370 06 95 39 3d 9f e2 b6 bd 79 4e 1e be c1 a6 98 bd
       0.045308135 -0.08929943 -0.15459622 -0.07453681
000380 2f 50 3c bd ca 36 14 3d 14 96 8f 3c 1b d3 96 bd
       -0.045974907 0.036185063 0.017527618 -0.07364484
000390 56 f6 de 3d b2 01 d4 3d 90 2b 9f 3c 2c 05 30 3d
       0.108868286 0.10351886 0.019429952 0.042973682
0003a0 29 e2 66 bd 44 74 a2 bd 9b ed c2 3b bf eb 98 3c
       -0.056368027 -0.07932332 0.005948735 0.0186671
0003b0 b3 38 b4 bd 80 20 9f bd 74 71 1a 3d c5 b7 21 bd
       -0.08799877 -0.07769871 0.037705854 -0.039481897
0003c0 32 58 cb bd 51 f5 0f 3d 7a 75 bd bb c1 f8 e8 bb
       -0.09928931 0.03514606 -0.0057818266 -0.007109732
0003d0 96 41 71 bd 7e 53 9d bc 82 30 2d 3c 51 b6 b7 3d
       -0.05890044 -0.019204851 0.010570647 0.08970321
0003e0 13 e6 16 3c 83 c1 98 bd eb 7f 31 bd 7e 05 6f 3d
       0.009210127 -0.074587844 -0.043334883 0.058354847
0003f0 5c e6 02 3d 52 70 cf bd 0e d9 35 3d 2b b4 a5 bd
       0.03195797 -0.10128845 0.044396453 -0.08091005

model1.6.conv.bias f4 [16]
000000 8e 43 3e 3d 67 05 0d 3d 21 5d d2 3b 36 e9 e5 3c
       0.046451144 0.03442898 0.0064197932 0.028065305
000010 e8 42 30 3d 52 fd 02 3d 20 b7 15 bc 8b fe 46 3d
       0.043032557 0.031979866 -0.009137899 0.048582595
000020 fd 5a d0 bc ff 68 09 bd 80 d7 23 bd 45 2c 2c 3d
       -0.025434012 -0.033547398 -0.04000044 0.042034406
000030 eb e4 47 3d 96 7c 13 3d 4c e5 36 3d ec 53 16 bd
       0.048802298 0.036007486 0.04465227 -0.036701128

model1.6.batch_norm.weight f4 [16]
000000 cf cf ed 3e fe b0 ee 3e 3c 6e ee 3e 4c 0c ee 3e
       0.46447608 0.4661941 0.46568477 0.46493757
000010 60 c9 ee 3e fe bc ee 3e a1 ec ed 3e 88 62 ee 3e
       0.46638012 0.46628565 0.46469596 0.46559548
000020 c2 ac ed 3e 83 4c ee 3e e4 51 ed 3e 76 a4 ee 3e
       0.46420866 0.4654275 0.4635154 0.4660985
000030 a7 ab ef 3e 36 97 ee 3e 25 4a ee 3e 54 a5 ee 3e
       0.46810648 0.4659974 0.46540943 0.4661051

model1.6.batch_norm.bias f4 [16]
000000 1d fb 18 bd 9d 4f 12 bd d5 d9 10 bd 6f 6d 16 bd
       -0.037348855 -0.035720456 -0.03536399 -0.036725458
000010 76 5e 11 bd c0 10 14 bd 22 81 17 bd 7d 0c 15 bd
       -0.035490476 -0.036148787 -0.036988385 -0.036388863
000020 04 68 1e bd a8 6a 14 bd a2 d8 1c bd 3b 9e 11 bd
       -0.038673416 -0.036234528 -0.038292535 -0.03555129
000030 bc d9 10 bd a8 57 18 bd 0b 86 15 bd cf 8f 12 bd
       -0.035363898 -0.03719297 -0.036504786 -0.035781678

model1.6.batch_norm.running_mean f4 [16]
000000 c1 89 a7 bf d0 84 13 bf 77 da ca bf b3 10 d4 bf
       -1.3088914 -0.5762453 -1.584792 -1.6567596
000010 15 19 96 bf 61 0d 93 bf d1 08 b3 bf c7 ff 8a bf
       -1.1726404 -1.1488458 -1.3987066 -1.0859307
000020 ae 4c 98 bf 91 72 c4 bf bf 5f ab bf da 35 b1 bf
       -1.1898401 -1.5347463 -1.3388594 -1.3844559
000030 61 5e 42 bf f2 ab 51 bf e3 08 53 bf 68 7b ae bf
       -0.7592526 -0.8190299 -0.82435435 -1.3631411

model1.6.batch_norm.running_var f4 [16]
000000 39 2c 03 40 aa a4 c5 3f 21 f6 cb 3f 1c 6a fb 3f
       2.0495741 1.5440876 1.5934488 1.9641757
000010 1c 64 b1 3f e8 9f c1 3f 32 38 be 3f 43 49 f1 3f
       1.3858676 1.5126925 1.48609 1.8850483
000020 cd c1 e7 3f 30 f4 e6 3f 52 b2 c5 3f b3 71 df 3f
       1.8106018 1.804327 1.5445044 1.7456573
000030 06 5a d5 3f fb 2a d9 3f 8a c3 b2 3f 38 36 ba 3f
       1.6668098 1.6966242 1.3965924 1.4547796

model1.8.conv.weight f4 [16, 16, 3, 3, 3]
000000 49 f5 e5 3c 51 d5 6a 3d 7b e1 d1 3c 16 c4 04 be
       0.028071063 0.05733234 0.025620213 -0.12965426
000010 e9 ae d8 bd c7 5c 46 3d 61 a4 3f 3d 72 cf 9b bd
       -0.105802365 0.048428323 0.046787623 -0.076079264
000020 9a ac 62 3d 20 22 82 3d d3 67 b7 bd f8 87 ca 3b
       0.055340387 0.06354165 -0.0895535 0.0061807595
000030 1a 7b 91 3c bc 57 93 bc 2f 23 a5 3c d5 95 e9 3c
       0.017758895 -0.017986171 0.020158378 0.028513828
000040 22 3d 7a 3d f1 1e 3e bd 68 08 7a bd 30 88 bf bd
       0.061093457 -0.046416227 -0.061043173 -0.093521476
000050 4a f2 38 bd 76 30 81 bd 05 65 3b bc ef a1 21 bc
       -0.04515294 -0.06308071 -0.011437659 -0.009865268
000060 0d c7 30 3b a3 91 96 3c df 65 d1 bd 3b fd 40 bd
       0.0026974112 0.018379992 -0.102245085 -0.0471165
000070 20 4d b1 3b 54 2e 0a bc 75 d9 5f bc 99 4d f6 bc
       0.0054108053 -0.008433897 -0.013662686 -0.030066298
000080 4a c4 0a 3d 46 5a bb bd 8d fa 03 3b d5 15 80 3d
       0.033878602 -0.09148078 0.0020138354 0.06254164
000090 93 96 82 bd fe d9 35 bd 9a bf 5a bd 6f 07 ca bc
       -0.06376376 -0.044397347 -0.05340538 -0.024661748
0000a0 c5 e2 35 3c 1d 25 a0 bc c0 9e dc bd 7b 27 5e bd
       0.011101429 -0.019548947 -0.10772467 -0.05423687
0000b0 55 8d 3a be 5f c3 17 bd aa 05 9e bc fd fd b5 bd
       -0.18217976 -0.037051555 -0.01928981 -0.08886335
0000c0 29 08 00 be 70 54 fb 3d ca 77 09 bd f5 7c 34 bd
       -0.12503113 0.122719646 -0.033561505 -0.04406448
0000d0 91 ce 9a bd 10 38 c4 bd 19 82 1b 3d 83 15 04 bb
       -0.07558931 -0.095810056 0.037965868 -0.0020154424
0000e0 15 99 01 bc 66 35 bb bd 8c b1 df bd a5 c6 38 bc
       -0.007910033 -0.09141044 -0.10922536 -0.011277829
0000f0 fd 39 39 bd 97 23 fe 3c 63 c6 1b bb 8e b3 46 bd
       -0.045221318 0.03102283 -0.002376937 -0.04851108
000100 ec cb 13 3d 93 39 76 bd 12 85 68 bd 5f 7b bc 3c
       0.036083147 -0.0601135 -0.05676753 0.023008047
000110 5a 08 a7 bd da d4 72 bd 81 11 30 bd 95 9d b1 3c
       -0.0815589 -0.059285022 -0.042985443 0.021681586
000120 8d 93 70 bd 78 56 83 bc d3 aa 1b b9 26 5e 4c 3d
       -0.058734465 -0.016032442 -0.00014845589 0.049894474
000130 60 b2 a6 bd b0 2d 9a bd 15 3b 25 bd 06 ea 4a bd
       -0.08139491 -0.075282454 -0.04033955 -0.04953959
000140 88 de 6e bd 4c de a3 bd 8d 64 26 3d c3 2f fb bc
       -0.05831769 -0.08001384 0.040623236 -0.030662423
000150 56 97 7f 3c a7 4d eb bc 7e f3 28 3d d8 ab a5 bd
       0.015600046 -0.028723551 0.041247837 -0.08089417
000160 f9 50 fa 3a 6b 85 6f ba 5c 6b 52 bc b0 a0 65 3d
       0.0019097618 -0.00091370073 -0.012842979 0.056061447
000170 88 05 1e 3c 47 1e 92 3d df 01 8b 3d ae 76 15 bc
       0.009644873 0.07134681 0.06787466 -0.009122534
000180 d5 e1 71 3d 50 90 13 bd b3 14 8c 3d 4d 75 ed 3c
       0.05905326 -0.0360263 0.068398856 0.028986597
000190 81 9a e4 bc 7e ef bb bd f4 d1 a0 bd 52 2d 18 bd
       -0.027905704 -0.09176539 -0.078525454 -0.037152596
0001a0 f8 f6 90 3b 0b 56 d1 bd 31 bb 9a 3d 21 49 db bc
       0.004423972 -0.102214895 0.07555235 -0.026768269
0001b0 db 9c fb 38 49 aa d0 3b ea d4 aa bd ed 49 23 3c
       0.00011997829 0.006367956 -0.083413914 0.009966356
0001c0 7a 3e aa bd ea 37 98 bc fb 52 9e bd 9d db ae bc
       -0.08312698 -0.01858135 -0.07730671 -0.021344954
0001d0 db f7 b2 3b 21 00 51 3d 8d 53 8a bc 87 32 70 3c
       0.0054616756 0.051025514 -0.016885543 0.014660484
0001e0 08 b9 04 3d 32 97 9b bd 7b 56 24 be 51 d3 01 3d
       0.032403022 -0.075971976 -0.16048615 0.031695668
0001f0 91 35 cb bd a5 3f 5a bd 76 f8 b0 bd 88 80 c1 bd
       -0.09922326 -0.053283352 -0.0864114 -0.094483435
000200 1f fe d2 3b 2f 87 28 be ca 57 39 bd 88 ed b2 bc
       0.006438985 -0.16457818 -0.045249738 -0.02184178
000210 ce ca 04 bd 54 28 0a 3d 61 e1 6c bd 0e 48 53 bd
       -0.032419972 0.033729866 -0.057832126 -0.05158239
000220 64 f9 3a bd 5a ea 3d bd c3 63 97 bd 68 47 cc 3b
       -0.045647994 -0.046366073 -0.07392075 0.006234098
000230 1d 52 29 bd 5c 34 93 bd 5c 10 b7 bd 3e d6 86 bd
       -0.041338075 -0.07187721 -0.08938667 -0.06583832
000240 20 66 91 3d 35 5b 5a bd bf f3 48 bd 31 24 b2 bc
       0.07099557 -0.053309638 -0.04906058 -0.021745773
000250 0b f2 9c bd 7e 72 b3 3b a9 76 83 be 91 2d 27 bd
       -0.076633535 0.005476295 -0.25676468 -0.04081494
000260 6b a9 18 bd 5d 96 03 bd 11 26 a6 bd 54 9e c2 3d
       -0.037270945 -0.03212582 -0.08112729 0.09502855
000270 31 e8 0c be f4 d4 30 bc a4 9c 18 bd b0 4a ee bc
       -0.13760449 -0.0107929595 -0.03725876 -0.029088348
000280 0f 88 93 bc 95 4f f5 bd fb 9c 14 bd b9 80 97 bd
       -0.018009214 -0.1197807 -0.03628252 -0.07397599
000290 ae bd 8e ba 07 fb f6 3d 60 6b 9d bb 3f ba 5d 3d
       -0.0010890269 0.120595984 -0.00480406 0.054132696
0002a0 47 9f 74 3c a1 81 a3 3d 98 4c 3c 3c aa 2e 09 3e
       0.014930553 0.07983709 0.011492871 0.13396707
0002b0 c1 85 02 3c bb cb 92 3c 4e 4b 11 3d 39 eb f0 3c
       0.00796646 0.017919412 0.035472207 0.029409038
0002c0 45 c7 59 bb ac ae 3b 3d 62 15 0f 3c 2f fb 2c 3d
       -0.0033230346 0.045820877 0.008733125 0.042231735
0002d0 63 b3 ec 3b c8 45 65 3d 91 28 11 3d 36 13 5f 3d
       0.007223533 0.05597475 0.035439078 0.05446168
0002e0 fc 9c f9 3d 5e d5 85 bd b4 20 8d 3c 95 a2 8c 3d
       0.121881455 -0.06534837 0.017227508 0.068669476
0002f0 f5 87 1c 3d 2f 7e 5e bc 1f d4 c5 3d de cb 1b 3d
       0.038215596 -0.013579889 0.096595995 0.03803622
000300 a6 d2 d3 3d d7 a2 c7 3d 5c 49 bf 3d db a7 17 bd
       0.103429124 0.09747856 0.09340164 -0.037025314
000310 3c 41 35 3d e1 48 8b 3d 16 13 ab 3c 83 85 7b bd
       0.044251665 0.0680101 0.020883124 -0.061406624
000320 f6 fb 18 3e 5a b3 86 3d d5 3b fd bd 49 90 ad bd
       0.14939865 0.06577177 -0.12364928 -0.08474786
000330 50 c1 41 3c d0 e0 60 bc 00 70 d9 bd 1f 49 0d bc
       0.011825874 -0.0137254745 -0.106170654 -0.00862339
000340 33 38 25 3e 4b 04 19 bd 27 84 e5 bc 04 b6 22 bd
       0.1613472 -0.03735761 -0.028017117 -0.039724365
000350 d9 9d 64 bd 07 13 30 3d 80 b3 6d bd f7 fa 72 bd
       -0.055814598 0.042986896 -0.058032513 -0.05932137
000360 00 c8 78 bd 2e 25 f0 bd 25 7f b4 bd e9 a0 ef 3c
       -0.06073761 -0.117258415 -0.088133134 0.029251533
000370 06 95 39 3d 9f e2 b6 bd 79 4e 1e be c1 a6 98 bd
       0.045308135 -0.08929943 -0.15459622 -0.07453681
000380 2f 50 3c bd ca 36 14 3d 14 96 8f 3c 1b d3 96 bd
       -0.045974907 0.036185063 0.017527618 -0.07364484
000390 56 f6 de 3d b2 01 d4 3d 90 2b 9f 3c 2c 05 30 3d
       0.108868286 0.10351886 0.019429952 0.042973682
0003a0 29 e2 66 bd 44 74 a2 bd 9b ed c2 3b bf eb 98 3c
       -0.056368027 -0.07932332 0.005948735 0.0186671
0003b0 b3 38 b4 bd 80 20 9f bd 74 71 1a 3d c5 b7 21 bd
       -0.08799877 -0.07769871 0.037705854 -0.039481897
0003c0 32 58 cb bd 51 f5 0f 3d 7a 75 bd bb c1 f8 e8 bb
       -0.09928931 0.03514606 -0.0057818266 -0.007109732
0003d0 96 41 71 bd 7e 53 9d bc 82 30 2d 3c 51 b6 b7 3d
       -0.05890044 -0.019204851 0.010570647 0.08970321
0003e0 13 e6 16 3c 83 c1 98 bd eb 7f 31 bd 7e 05 6f 3d
       0.009210127 -0.074587844 -0.043334883 0.058354847
0003f0 5c e6 02 3d 52 70 cf bd 0e d9 35 3d 2b b4 a5 bd
       0.03195797 -0.10128845 0.044396453 -0.08091005

model1.8.conv.bias f4 [16]
000000 8e 43 3e 3d 67 05 0d 3d 21 5d d2 3b 36 e9 e5 3c
       0.046451144 0.03442898 0.0064197932 0.028065305
000010 e8 42 30 3d 52 fd 02 3d 20 b7 15 bc 8b fe 46 3d
       0.043032557 0.031979866 -0.009137899 0.048582595
000020 fd 5a d0 bc ff 68 09 bd 80 d7 23 bd 45 2c 2c 3d
       -0.025434012 -0.033547398 -0.04000044 0.042034406
000030 eb e4 47 3d 96 7c 13 3d 4c e5 36 3d ec 53 16 bd
       0.048802298 0.036007486 0.04465227 -0.036701128

model1.8.batch_norm.weight f4 [16]
000000 cf cf ed 3e fe b0 ee 3e 3c 6e ee 3e 4c 0c ee 3e
       0.46447608 0.4661941 0.46568477 0.46493757
000010 60 c9 ee 3e fe bc ee 3e a1 ec ed 3e 88 62 ee 3e
       0.46638012 0.46628565 0.46469596 0.46559548
000020 c2 ac ed 3e 83 4c ee 3e e4 51 ed 3e 76 a4 ee 3e
       0.46420866 0.4654275 0.4635154 0.4660985
000030 a7 ab ef 3e 36 97 ee 3e 25 4a ee 3e 54 a5 ee 3e
       0.46810648 0.4659974 0.46540943 0.4661051

model1.8.batch_norm.bias f4 [16]
000000 1d fb 18 bd 9d 4f 12 bd d5 d9 10 bd 6f 6d 16 bd
       -0.037348855 -0.035720456 -0.03536399 -0.036725458
000010 76 5e 11 bd c0 10 14 bd 22 81 17 bd 7d 0c 15 bd
       -0.035490476 -0.036148787 -0.036988385 -0.036388863
000020 04 68 1e bd a8 6a 14 bd a2 d8 1c bd 3b 9e 11 bd
       -0.038673416 -0.036234528 -0.038292535 -0.03555129
000030 bc d9 10 bd a8 57 18 bd 0b 86 15 bd cf 8f 12 bd
       -0.035363898 -0.03719297 -0.036504786 -0.035781678

model1.8.batch_norm.running_mean f4 [16]
000000 c1 89 a7 bf d0 84 13 bf 77 da ca bf b3 10 d4 bf
       -1.3088914 -0.5762453 -1.584792 -1.6567596
000010 15 19 96 bf 61 0d 93 bf d1 08 b3 bf c7 ff 8a bf
       -1.1726404 -1.1488458 -1.3987066 -1.0859307
000020 ae 4c 98 bf 91 72 c4 bf bf 5f ab bf da 35 b1 bf
       -1.1898401 -1.5347463 -1.3388594 -1.3844559
000030 61 5e 42 bf f2 ab 51 bf e3 08 53 bf 68 7b ae bf
       -0.7592526 -0.8190299 -0.82435435 -1.3631411

model1.8.batch_norm.running_var f4 [16]
000000 39 2c 03 40 aa a4 c5 3f 21 f6 cb 3f 1c 6a fb 3f
       2.0495741 1.5440876 1.5934488 1.9641757
000010 1c 64 b1 3f e8 9f c1 3f 32 38 be 3f 43 49 f1 3f
       1.3858676 1.5126925 1.48609 1.8850483
000020 cd c1 e7 3f 30 f4 e6 3f 52 b2 c5 3f b3 71 df 3f
       1.8106018 1.804327 1.5445044 1.7456573
000030 06 5a d5 3f fb 2a d9 3f 8a c3 b2 3f 38 36 ba 3f
       1.6668098 1.6966242 1.3965924 1.4547796
